RL code/models/adversary_model_final.pth (torch, 80741 bytes, 10 tensors)

net.0.weight f4 [128, 10]
-0.9629387 1.0238587 0.23139262 -0.05469322 -0.019103846 -0.05667616 0.14408949 -0.06854277
1.2163346 -1.0720608 -0.14627065 -0.22404145 -0.11207933 1.9136376 -0.78306204 0.36756822
0.46171653 0.033398528 -0.013023288 -0.3661811 0.07469377 -0.8578857 -2.0975792 -0.92607147
-0.7704845 -0.30295765 -0.8928488 -0.3758063 0.33605173 0.74367124 -0.3425916 -0.050375454
0.0044133314 -0.04980203 0.048698936 -0.019987946 -0.014412841 0.04336701 1.6970298 0.017479943
-0.526392 -0.540296 0.273683 0.33166593 0.057109527 -0.622344 -0.15996787 -0.24161485
-0.06294957 1.2292966 -1.0065235 0.6501304 0.7583893 -0.17273895 0.5854655 -0.05518582
-0.6531112 -0.6395806 0.8450457 -0.399554 0.3192761 -0.16801289 -0.046500757 0.5792346
-0.5779735 0.73048794 1.5336206 -0.3105841 -0.35898578 -0.25711566 0.03067342 1.4445511
-0.09280099 2.6616292 -0.04447055 -0.024996944 -0.018992972 0.2090069 -0.053597342 0.5552918
-0.65221345 -0.43555272 -1.6051198 -0.40934554 -0.16127276 -0.07111202 0.25303367 -0.1087713
0.668068 -1.3263032 -0.52713186 0.46969622 -1.7222414 -0.042887315 -1.9376622 0.25142056
0.68391496 -0.092171274 0.3229803 0.09611102 0.20371638 0.56197566 1.1993265 2.083403
-0.042672236 0.4351454 0.046950888 0.9366407 0.3924261 0.2632041 0.033601224 -0.47809616
0.5472389 0.15305328 -1.2829762 -0.092821866 0.8243528 0.7230815 -0.19886115 0.398538
-0.9320683 -0.5348533 0.18045402 -0.15983579 -0.7673171 0.13634098 0.1314781 -0.27743077
1.3684555 -0.14079215 0.28025007 -0.18389018 1.5435424 1.3865373 1.1279579 1.0794101
0.7082335 0.69468397 -0.6026353 -0.5093263 1.4490321 -0.48987758 0.14966953 -0.065743476
0.028763078 -0.058860995 -0.11664015 0.13094963 0.642562 1.4329451 0.42854184 0.43513054
0.254197 0.27995244 -0.67673784 -0.59649986 -0.090895824 0.5075692 1.7920475 -0.5354031
-0.9913745 -0.09690158 0.4711989 -0.246881 0.17066589 -1.0553148 -0.13592051 1.2276262
-0.10346738 0.7062112 -0.60239124 0.22462764 0.973182 0.25229034 1.2270362 0.80804586
0.6701627 -0.12360482 0.38560098 -0.22725107 -0.38606197 -0.64991665 -0.3736544 -2.1626728
-0.75857335 -1.1949856 -0.27637023 -0.529299 0.21588643 -0.22095779 0.51860577 0.22059065
0.34664837 -0.9034988 0.6907239 0.8629757 0.41483605 -1.555953 0.3175022 0.41975066
0.62633985 -0.046014946 0.13347392 0.8551005 1.6286516 0.28444543 -0.9843105 -0.01574683
-0.99267656 -0.41514462 0.20248102 -0.9546838 -1.108866 -0.34430844 0.89268523 -0.022500016
-1.5064818 0.7961065 0.56621146 -0.22612908 0.80995655 -0.2806301 0.6066431 0.031015841
0.029478194 -1.233392 0.85776085 0.20724887 -0.6223138 -0.38867533 -0.84918875 0.07132057
-3.2682474 -0.008002631 0.0045681945 0.018008903 0.019696984 -0.063996285 0.29780167 0.017792143
-0.6323048 0.3673219 -0.13001531 -0.39875787 -0.74050057 -0.5166319 0.6747112 0.6422181
-0.816903 -1.6856012 -0.07356669 -0.3214364 0.030275965 -0.11329679 -0.06427543 -0.098253794
00000000: 2783 76bf cd0d 833f 30f2 6c3e ff05 60bd
00000010: ab7f 9cbc 4325 68bd 328c 133e 2760 8cbd
00000020: dab0 9b3f 4a39 89bf f9c7 15be 1f6b 65be
00000030: d989 e5bd 14f2 f43f c176 48bf e731 bc3e
00000040: 1c66 ec3e e5cc 083d a15f 55bc 177c bbbe
00000050: 0cf9 983d 669e 5bbf bd3e 06c0 0513 6dbf
00000060: 793e 45bf 441d 9bbe bd91 64bf af69 c0be
00000070: f90e ac3e 3d61 3e3f 2b68 afbe 7e56 4ebd
00000080: b59d 903b 37fd 4bbd 8978 473d c3bd a3bc
00000090: d623 6cbc 9ba1 313d 4638 d93f 1932 8f3c
000000a0: a0c1 06bf d750 0abf 2e20 8c3e 1ed0 a93e
000000b0: aeeb 693d f051 1fbf 9ece 23be e269 77be
000000c0: b4eb 80bd 9759 9d3f c3d5 80bf f26e 263f
000000d0: cd25 423f 7be2 30be 11e1 153f 870a 62bd
000000e0: 4c32 27bf 8ebb 23bf ea54 583f 5892 ccbe
000000f0: 2878 a33e 920b 2cbe 9477 3ebd b848 143f
00000100: 12f6 13bf 4201 3b3f ae4d c43f e104 9fbe
00000110: fccc b7be aaa4 83be d346 fb3c 0de7 b83f
00000120: 720e bebd 2258 2a40 c026 36bd 64c6 ccbc
00000130: 2697 9bbc e805 563e e388 5bbd 9a27 0e3f
00000140: 76f7 26bf c400 dfbe 9174 cdbf bd95 d1be
00000150: b024 25be 2ea3 91bd a18d 813e 7dc3 debd
00000160: 8106 2b3f 4ec4 a9bf 1df2 06bf 067c f03e
00000170: 6872 dcbf 9caa 2fbd 5105 f8bf 32ba 803e
00000180: 0d15 2f3f 4bc4 bcbd ad5d a53e dbd5 c43d
00000190: 079b 503e a3dd 0f3f 8883 993f 7a56 0540
000001a0: 15c9 2ebd 61cb de3e 934f 403d afc7 6f3f
000001b0: 13ec c83e b0c2 863e 70a1 093d 05c9 f4be
000001c0: d917 0c3f 00ba 1c3e 9038 a4bf 6419 bebd
000001d0: c908 533f df1b 393f 42a2 4bbe 2c0d cc3e
000001e0: 079c 6ebf 25ec 08bf f0c8 383e feab 23be
000001f0: e56e 44bf f89c 0b3e 32a2 063e 680b 8ebe
00000200: 8d29 af3f d12b 10be f07c 8f3e b54d 3cbe
00000210: cc92 c53f 0e7a b13f ed60 903f 1c2a 8a3f
00000220: ca4e 353f cfd6 313f 4f46 1abf 3563 02bf
00000230: e279 b93f 3cd1 fabe f842 193e 84a4 86bd
00000240: 8ca0 eb3c 3a18 71bd 08e1 eebd a917 063e
00000250: f17e 243f bf6a b73f d669 db3e 6ec9 de3e
00000260: 1c26 823e ed55 8f3e b13e 2dbf 37b4 18bf
00000270: 9727 babd 0ef0 013f d061 e53f 2d10 09bf
00000280: b8ca 7dbf 5674 c6bd fb40 f13e 5fce 7cbe
00000290: 0ac3 2e3e 8e14 87bf bf2e 0bbe db22 9d3f
000002a0: b5e6 d3bd 42ca 343f 5036 1abf ca04 663e
000002b0: 7522 793f 332c 813e 860f 9d3f 18dc 4e3f
000002c0: c88f 2b3f 8624 fdbd 7e6d c53e 81b4 68be
000002d0: eaa9 c5be f060 26bf a14f bfbe 3b69 0ac0
000002e0: dd31 42bf 4af5 98bf 6680 8dbe 2480 07bf
000002f0: 5511 5d3e c242 62be 59c3 043f 84e2 613e
00000300: e57b b13e b34b 67bf 48d3 303f faeb 5c3f
00000310: 6465 d43e 7829 c7bf a68f a23e 8fe9 d63e
00000320: cf57 203f 2b7a 3cbd 63ad 083e dee7 5a3f
00000330: a877 d03f d5a2 913e c6fb 7bbf 7fff 80bc
00000340: 0d20 7ebf d68d d4be 2f57 4f3e 2866 74bf
00000350: 52ef 8dbf 3249 b0be 0587 643f f451 b8bc
00000360: 65d4 c0bf a3cd 4b3f 3cf3 103f 628e 67be
00000370: 5059 4f3f c0ae 8fbe f64c 1b3f ef14 fe3c
00000380: 417c f13c cadf 9dbf 3796 5b3f 0c39 543e
00000390: f54f 1fbf 7400 c7be 6f64 59bf 8510 923d
000003a0: f72a 51c0 781d 03bc cbb0 953b 6887 933c
000003b0: 925b a13c 7c10 83bd 7679 983e d4c0 913c
000003c0: bade 21bf 9e11 bc3e bc22 05be fe29 ccbe
000003d0: 7291 3dbf fd41 04bf e0b9 2c3f 6868 243f
000003e0: 8e20 51bf c8c1 d7bf 22aa 96bd 5093 a4be
000003f0: 4d05 f83c 2608 e8bd d6a2 83bd 4939 c9bd

net.0.bias f4 [128]
-1.1364211 -1.0941653 -1.412784 -0.5810102 -0.30236605 -1.26551 -1.4692801 -1.4525961
-1.9576212 -1.0315434 -0.7430969 -0.8256294 -0.9268285 -0.98991925 -1.1726221 -1.3039398
-1.2234287 -1.2447882 -0.7111854 -1.5281423 -1.6458925 -1.47563 -1.1513278 -2.9148307
-1.0283954 -0.47159848 -1.5819422 -0.5410157 -1.0859734 -0.9909192 -1.1278054 -1.8537103
-1.1519222 -0.98142153 -1.215195 -0.5674354 -1.5391352 -1.0986543 -0.6776351 -1.1148702
-1.1043909 0.107668884 -1.5792503 -1.1424031 0.08615664 -0.72986555 -0.6856253 -1.0709676
-1.4782562 -1.1193835 -1.126347 -0.74736345 -0.73016566 -2.986668 -1.3339578 -1.0674312
-1.3974537 -1.1326754 -0.9247044 -0.8444358 0.0075445855 -1.4042362 -0.76665384 -1.1723537
-0.44894034 -1.2390409 -1.3259534 0.06778967 -1.0301987 -0.9388032 -0.6537592 -0.95705616
-0.5926058 -0.020570243 -1.0713868e-12 -0.90672404 -2.001914 0.03829027 -0.9678199 -1.2422115
-0.8481246 -0.97413373 -1.3678048 -1.3404956 -1.4319037 -0.3627331 -1.3892891 -0.6808699
-0.8464267 -1.1346215 -1.0797439 -0.3451271 -1.0543579 -1.4814721 -0.73544 -1.0313736
-1.2703108 -2.1341903 -0.79534537 0.014350456 -1.2362677 -1.2846597 -1.7381812 -0.94678843
-1.6576439 -1.3640025 -0.5747744 -1.279459 -1.0145996 -0.9919082 -0.74656034 -1.0803128
-1.0844958 -1.2156204 -0.17190841 -1.3057477 0.07620964 -1.1203545 -1.0088174 1.0818021
-2.8895335 -0.45340222 -2.3155243 -2.9348009 -0.8846164 -1.1292064 -1.1769258 -0.75033754
00000000: 3f76 91bf 9c0d 8cbf 1bd6 b4bf 16bd 14bf
00000010: b9cf 9abe 3bfc a1bf 5f11 bcbf abee b9bf
00000020: 5593 fabf 9d09 84bf 993b 3ebf 735c 53bf
00000030: a244 6dbf 596b 7dbf 7b18 96bf 80e7 a6bf
00000040: 5099 9cbf 3855 9fbf 3f10 36bf 2b9a c3bf
00000050: 9bac d2bf 72e1 bcbf b65e 93bf 968c 3ac0
00000060: 76a2 83bf 5b75 f1be 157d cabf 0180 0abf
00000070: 2d01 8bbf e1ac 7dbf ed5b 90bf 6146 edbf
00000080: 3072 93bf 713e 7bbf 828b 9bbf 7243 11bf
00000090: 6202 c5bf b4a0 8cbf 7e79 2dbf 11b4 8ebf
000000a0: ae5c 8dbf 8181 dc3d e024 cabf 443a 92bf
000000b0: e472 b03d 78d8 3abf 2485 2fbf 7715 89bf
000000c0: 8037 bdbf f547 8fbf 232c 90bf 3653 3fbf
000000d0: 23ec 3abf 9225 3fc0 21bf aabf 96a1 88bf
000000e0: c3df b2bf 82fb 90bf 6db9 6cbf f22c 58bf
000000f0: 9238 f73b 03be b3bf 6d43 44bf b00f 96bf
00000100: 82db e5be e498 9ebf d7b8 a9bf 4fd5 8a3d
00000110: 8ddd 83bf 6855 70bf c35c 27bf a201 75bf
00000120: 04b5 17bf ed82 a8bc c7c8 96ab 111f 68bf
00000130: 5c1f 00c0 42d6 1c3d 0cc3 77bf c900 9fbf
00000140: b21e 59bf d460 79bf 3a14 afbf 5c95 abbf
00000150: 9f48 b7bf 27b8 b9be 3ad4 b1bf 7d4d 2ebf
00000160: 6caf 58bf 473b 91bf 0c35 8abf 80b4 b0be
00000170: 33f5 86bf e1a0 bdbf cc45 3cbf 0d04 84bf
00000180: 8b99 a2bf 9396 08c0 c19b 4bbf 2d1e 6b3c
00000190: 053e 9ebf bb6f a4bf b97c debf ba60 72bf
000001a0: ad2d d4bf a297 aebf 6a24 13bf 50c5 a3bf
000001b0: 66de 81bf b2ed 7dbf 941e 3fbf b147 8abf
000001c0: c2d0 8abf 7399 9bbf c208 30be be22 a7bf
000001d0: cd13 9c3d c767 8fbf ee20 81bf 7e78 8a3f
000001e0: 1eee 38c0 5624 e8be 8d31 14c0 c7d3 3bc0
000001f0: 3876 62bf d689 90bf 81a5 96bf 1f16 40bf

net.2.weight f4 [128]
0.9861605 1.0685438 1.230566 0.6393089 0.7736426 1.1106318 1.2280849 1.2137768
1.1382419 0.8840708 0.8583887 0.88505405 0.9633908 1.1519631 0.9764721 1.093955
0.94210917 1.0686152 0.8435531 1.1290799 1.1091117 1.1127942 0.8746497 2.431444
0.8761893 0.7409007 1.1733983 0.7407757 1.0940396 1.0019364 0.99196714 1.0235599
0.9359879 0.9116348 1.1171241 0.8255215 1.2891625 1.1077473 1.1317912 1.0871533
1.0288342 0.8361711 1.0833137 0.95001084 0.9463565 1.0094615 0.89600515 0.79913235
0.8216482 1.1799634 1.1081657 0.7971376 0.8841486 2.9271193 1.128594 0.8458692
0.9262388 1.0997727 0.9772128 1.0441592 0.8524364 0.8489227 0.9315827 1.051369
0.82455873 1.2684093 0.90109617 0.8513097 0.9206311 0.9881604 0.8961565 0.9576179
0.9722703 0.8149728 3.1339667 0.9363197 1.1706877 0.7819485 1.0833445 1.0376604
0.93104553 1.2936603 0.9112969 0.903098 1.0242707 1.0654664 1.0741806 0.94018424
1.0704421 0.8456568 0.9604849 0.72390074 0.9138145 1.015095 0.8713944 0.9259348
1.0324306 1.3397197 1.0823691 0.82889855 0.8196833 0.9396003 1.3268774 1.0212402
0.7596463 1.0123748 0.95770085 1.0156183 0.98828393 0.9288277 1.1065407 1.1373277
0.9939804 1.1397613 0.8230943 1.1025901 0.9363833 0.8323193 1.2562175 0.85172844
2.692224 0.86815405 1.1092085 2.6433675 0.90526474 1.2376195 0.9712792 0.7384536
00000000: 0475 7c3f 0bc6 883f 3083 9d3f c0a9 233f
00000010: 710d 463f 2f29 8e3f e331 9d3f 0a5d 9b3f
00000020: e9b1 913f 7752 623f 5dbf 5b3f e792 623f
00000030: c8a0 763f 8773 933f 13fa 793f b806 8c3f
00000040: 112e 713f 62c8 883f 19f3 573f b185 903f
00000050: 5ff7 8d3f 0a70 8e3f 0be9 5f3f c79c 1b40
00000060: f14d 603f abab 3d3f ea31 963f 7aa3 3d3f
00000070: 7d09 8c3f 743f 803f 8ff1 7d3f 0304 833f
00000080: e79c 6f3f e660 693f ecfd 8e3f 6155 533f
00000090: 4703 a53f aaca 8d3f 89de 903f d727 8b3f
000000a0: d7b0 833f 4f0f 563f 06aa 8a3f e933 733f
000000b0: 6b44 723f 0936 813f 9860 653f f093 4c3f
000000c0: 8957 523f 0a09 973f 60d8 8d3f 3611 4c3f
000000d0: 9057 623f ec55 3b40 c575 903f e28a 583f
000000e0: fc1d 6d3f 5ac5 8c3f 9e2a 7a3f 02a7 853f
000000f0: 4639 5a3f 0053 593f 347c 6e3f 4293 863f
00000100: 4816 533f 3c5b a23f 3dae 663f 6fef 593f
00000110: 7bae 6b3f 14f8 7c3f 836a 653f 7226 753f
00000120: b5e6 783f 0fa2 503f e992 4840 a6b2 6f3f
00000130: 18d9 953f c72d 483f 08ab 8a3f 0ed2 843f
00000140: 0059 6e3f a996 a53f c14a 693f 6e31 673f
00000150: 4d1b 833f 3461 883f c07e 893f eaaf 703f
00000160: 3f04 893f f77c 583f 57e2 753f 8f51 393f
00000170: bfef 693f a2ee 813f b413 5f3f 100a 6d3f
00000180: b026 843f ef7b ab3f 128b 8a3f b232 543f
00000190: c4d6 513f a589 703f 1ed7 a93f 00b8 823f
000001a0: 2e78 423f 7f95 813f e22b 753f c8ff 813f
000001b0: 2d00 7d3f a7c7 6d3f 20a3 8d3f f493 913f
000001c0: 8075 7e3f b3e3 913f 4fb6 523f ac21 8d3f
000001d0: d1b6 6f3f e112 553f bccb a03f e00a 5a3f
000001e0: 664d 2c40 583f 5e3f 8bfa 8d3f ef2c 2940
000001f0: 6ebf 673f 516a 9e3f c1a5 783f 4c0b 3d3f

net.2.bias f4 [128]
0.124341145 0.1040973 0.33472425 -0.3293959 -0.16652729 0.2262634 0.23190828 0.26486656
0.31963035 0.039079398 0.08975626 -0.02123697 0.08003629 0.15274467 0.22352467 0.1460861
0.12658197 0.251277 0.08254934 0.26564592 0.30554903 0.2466229 -0.10371794 0.9636372
-0.079002835 -0.33612937 0.36408752 -0.39855334 0.18498175 0.10931132 0.12484021 0.097591385
0.017424617 -0.029090254 0.20435877 -0.23985124 0.43550193 0.20416391 0.24955362 0.13116576
0.22420973 -1.2239321 0.21308188 0.101406015 -1.2599124 0.13395478 0.09318752 0.097243585
0.089611374 0.379831 0.24586065 0.027602267 0.07340418 1.1975685 0.12186616 0.016364533
0.17594968 0.21033753 0.04670952 0.02298762 -0.13119557 0.0967281 0.034415834 0.19075505
-0.03685003 0.38585034 0.012952878 -1.1375294 -0.027510379 0.15860501 0.024345186 0.13387546
-0.008739929 -0.10870785 -5.610575 0.08366915 0.33353737 -0.110454164 0.146282 0.14001907
0.045632742 0.18399432 0.21500109 0.062382266 0.056335524 0.063663125 0.27062523 -0.0010739919
0.11831926 0.026518304 0.15936224 -0.4091627 0.048684567 0.1664173 0.07430498 0.11403891
0.15825413 0.32359773 0.14639802 -0.24997726 -0.024111014 0.1849152 0.3975291 0.13860649
0.0393494 0.27085748 -0.058467418 0.1984309 0.09573653 0.13127819 0.17113753 0.20246542
0.22169138 0.17368491 -0.12378115 0.20338535 -1.2815051 0.02310313 0.2758517 -2.5028834
1.0623902 -0.030953143 0.25610402 1.0077825 0.011221502 0.3458366 0.20163846 -0.42211935
00000000: 92a6 fe3d f730 d53d fa60 ab3e 94a6 a8be
00000010: 2186 2abe 98b1 673e 5d79 6d3e 979c 873e
00000020: 97a6 a33e b811 203d 21d2 b73d 27f9 adbc
00000030: 11ea a33d 1969 1c3e a7e3 643e 9897 153e
00000040: b49e 013e 61a7 803e a10f a93d be02 883e
00000050: ec70 9c3e b78a 7c3e 126a d4bd edb0 763f
00000060: 3dcc a1bd 2619 acbe ae69 ba3e 2f0f ccbe
00000070: db6b 3d3e 9dde df3d 39ac ff3d fedd c73d
00000080: 12be 8e3c af4e eebc 6d43 513e 909b 75be
00000090: 1cfa de3e 5810 513e fc8a 7f3e 5150 063e
000000a0: 3c97 653e cfa9 9cbf 2332 5a3e f5ad cf3d
000000b0: cf44 a1bf 712b 093e 19d9 be3d a527 c73d
000000c0: 2b86 b73d 3579 c23e e5c2 7b3e 261e e23c
000000d0: ee54 963d ed49 993f f794 f93d ea0e 863c
000000e0: 272c 343e b962 573e 7b52 3f3d 8950 bc3c
000000f0: 2258 06be 6219 c63d 9ef7 0c3d 4b55 433e
00000100: 0ff0 16bd 2d8e c53e 4f38 543c 909a 91bf
00000110: 725d e1bc 5a69 223e 8e6f c73c a616 093e
00000120: eb31 0fbc 39a2 debd d589 b3c0 bb5a ab3d
00000130: 69c5 aa3e cb35 e2bd f3ca 153e 2961 0f3e
00000140: 66e9 3a3d 0269 3c3e 3f29 5c3e 8c84 7f3d
00000150: 14c0 663d d061 823d 648f 8a3e 30c5 8cba
00000160: 5e51 f23d ea3c d93c db2f 233e c67d d1be
00000170: 7869 473d 4c69 2a3e 362d 983d 3b8d e93d
00000180: 5f0d 223e 9aae a53e 5de9 153e 0afa 7fbe
00000190: 7684 c5bc 695a 3d3e ef88 cb3e dcee 0d3e
000001a0: d62c 213d d5ad 8a3e 887b 6fbd 7831 4b3e
000001b0: 8411 c43d ca6d 063e ad3e 2f3e 1853 4f3e
000001c0: 1103 633e 75da 313e f980 fdbd 4044 503e
000001d0: 5c08 a4bf c642 bd3c 6f3c 8d3e 3e2f 20c0
000001e0: 67fc 873f 7291 fdbc 1120 833e 04ff 803f
000001f0: 64da 373c 7f11 b13e 507a 4e3e 0720 d8be

net.3.weight f4 [128, 128]
0.30304512 0.22066113 -0.46297616 0.16076458 0.10628395 0.43240112 0.100182876 0.39978278
0.48470056 -0.1591632 -0.3204277 -0.17803125 0.036141682 -0.14544228 0.25659698 -0.3898606
-0.46094355 -0.42328742 -0.10754245 -0.1435675 -0.32687092 -0.30338988 0.5796308 -0.051954906
-0.45316938 0.5482923 -0.025215771 0.5319844 0.47762817 0.4922353 0.027068397 0.19896281
-0.11736683 0.49161682 0.31428692 0.64941496 -0.08753781 0.43247774 -0.61683106 0.40122822
-0.008866496 0.4663107 -0.2720832 0.7900198 0.8620648 0.31895024 0.23653898 -0.0629008
-0.5671245 -0.29993257 0.119921714 -0.5532765 0.926548 -0.71348274 0.34707293 0.32301995
-0.7884588 0.19213 0.88879853 0.29946533 -0.37921426 -0.24611162 0.13756509 -0.39310306
0.31138498 -0.6536701 0.9593178 -0.2618381 0.16763853 0.23669766 0.37608242 -0.40387827
-0.44788685 -0.9320267 0.9630826 0.17300609 0.5678571 -0.5722466 0.81287295 0.036549233
-0.7389742 0.14736813 0.39077938 0.02283591 -0.49541873 -0.3069321 -0.10300406 0.6807277
-0.28778318 0.94240636 -0.5763948 0.13866955 0.540705 0.4508518 -0.14495178 0.3450626
-0.14383955 0.24573249 -0.35128933 -0.36499074 0.35576054 -0.07033476 0.26043355 -0.51081485
0.30687916 0.15045917 -0.4007126 0.04857781 0.13849667 0.24647716 -0.43978262 0.017749649
-0.9019974 0.64735156 0.5845993 -0.061832894 0.6432604 0.2668521 -0.006559333 0.25593102
-0.3212913 -0.23205031 -0.097067155 -0.6736009 0.054142676 -0.1176196 0.07293476 -0.43444133
-0.26864865 -0.39342642 -0.32856622 0.31681684 -0.16025148 0.10531035 0.18193032 -0.32285845
-0.34825143 0.46423307 -0.71330196 -0.21365044 0.3837852 0.03262543 0.43959355 0.20072426
-0.08000948 0.29382437 0.23264696 0.6234433 -0.012122399 -0.40012836 0.76026416 -0.14980572
0.9291418 0.24608122 0.46861753 0.13133593 0.30279663 0.07981728 -0.45662734 0.21470203
-0.6219377 0.4090443 0.36477748 -0.61249286 0.31869784 -0.014876664 0.25144202 -0.14457671
0.13423844 -0.06511713 -0.41060895 0.24090265 0.51417786 0.02393533 -0.5494818 -0.23919058
0.18612038 0.19094916 1.4594823 0.01679481 -0.23341691 0.69901526 -0.33957127 0.41926548
-0.56839603 0.52742857 0.08747346 0.46019918 -0.23880124 -0.111714885 0.11637833 -0.3443956
0.30215088 0.16689743 -0.6782906 0.78793883 0.45099244 0.35895556 -0.19741002 0.13949211
-0.37874532 0.19786255 0.98868805 0.26275384 -0.18584472 0.39598936 -0.43652678 0.167453
0.49023467 0.4433217 -0.41245314 -0.26721478 0.010638575 -0.096388176 0.3415283 0.28231424
0.048134923 -0.32250577 0.44490656 0.33105275 0.08965464 -0.2867614 -0.19994648 0.21588287
0.6139666 -0.47089428 -0.18263514 -0.04878604 0.0797412 -0.01970105 -0.052021958 -0.21644787
0.17804782 0.08573919 -0.30293122 -0.11028641 -0.044004116 -0.036149 -0.40670973 -0.9096439
-0.19068407 1.0587827 0.2937579 0.5331254 0.064199306 -0.0930289 0.59670746 0.2111654
-0.38443986 0.051664997 0.0077602225 -0.23130983 0.13000406 0.3257957 0.1320759 0.026563045
00000000: bb28 9b3e fef4 613e 360b edbe 789f 243e
00000010: 66ab d93d ae63 dd3e ae2c cd3d 54b0 cc3e
00000020: ac2a f83e aefb 22be 190f a4be d34d 36be
00000030: 4d09 143d d2ee 14be ae60 833e cf9b c7be
00000040: cb00 ecbe 21b9 d8be 373f dcbd 5c03 13be
00000050: a05b a7be eb55 9bbe af62 143f abce 54bd
00000060: d105 e8be e25c 0c3f 4e91 cebc 2130 083f
00000070: ae8b f43e 4406 fc3e 8bbe dd3c e8bc 4b3e
00000080: 055e f0bd 33b5 fb3e 37ea a03e 0f40 263f
00000090: 0647 b3bd b96d dd3e a4e8 1dbf c96d cd3e
000000a0: c844 11bc 47c0 ee3e 7d4e 8bbe bd3e 4a3f
000000b0: 47b0 5c3f 724d a33e 4637 723e 22d2 80bd
000000c0: 122f 11bf c390 99be 8499 f53d 87a3 0dbf
000000d0: 4032 6d3f cea6 36bf 8bb3 b13e df62 a53e
000000e0: 70d8 49bf babd 443e 4d88 633f 8553 993e
000000f0: 5f28 c2be af04 7cbe dddd 0c3e ce44 c9be
00000100: da6d 9f3e ec56 27bf da95 753f a50f 86be
00000110: 6fa9 2b3e df60 723e e08d c03e 22c9 cebe
00000120: 6d51 e5be 4d99 6ebf 958c 763f 8228 313e
00000130: 155f 113f c17e 12bf 7118 503f a6b4 153d
00000140: 6a2d 3dbf ace7 163e 3c14 c83e 6012 bb3c
00000150: 86a7 fdbe 3426 9dbe cbf3 d2bd 2c44 2e3f
00000160: 5158 93be 8b41 713f 9c8e 13bf 64ff 0d3e
00000170: a56b 0a3f 0cd6 e63e 3d6e 14be 0cac b03e
00000180: ad4a 13be 4ca1 7b3e 32dc b3be 11e0 babe
00000190: 3f26 b63e ac0b 90bd 8c57 853e c3c4 02bf
000001a0: 441f 9d3e f811 1a3e 342a cdbe 87f9 463d
000001b0: 12d2 0d3e 8264 7c3e 302b e1be b667 913c
000001c0: 4de9 66bf d5b8 253f 4da8 153f 7d44 7dbd
000001d0: b7ac 243f d7a0 883e acef d6bb 6409 833e
000001e0: 4b80 a4be 999e 6dbe 25cb c6bd 1c71 2cbf
000001f0: b6c4 5d3d 8be2 f0bd d25e 953d 186f debe
00000200: 518c 89be 306f c9be d539 a8be d135 a23e
00000210: f718 24be f4ac d73d f14b 3a3e b44d a5be
00000220: 034e b2be f5af ed3e f59a 36bf 2ec7 5abe
00000230: 7e7f c43e 3ea2 053d 6812 e13e a98a 4d3e
00000240: 03dc a3bd 2670 963e 013b 6e3e fb99 1f3f
00000250: 079d 46bc a0dd ccbe aca0 423f ac66 19be
00000260: 3ddc 6d3f b7fc 7b3e a3ee ef3e ed7c 063e
00000270: 2908 9b3e 3e77 a33d 0fcb e9be d9da 5b3e
00000280: 4f37 1fbf 416e d13e 1dc4 ba3e 55cc 1cbf
00000290: 5d2c a33e 40bd 73bc 02bd 803e eb0b 14be
000002a0: cd75 093e 215c 85bd 563b d2be 2faf 763e
000002b0: 29a1 033f 0614 c43c d7aa 0cbf 60ee 74be
000002c0: 5796 3e3e 2d88 433e 51d0 ba3f 4595 893c
000002d0: d804 6fbe aaf2 323f 49dc adbe f7a9 d63e
000002e0: 6782 11bf 8f05 073f 4925 b33d 3a9f eb3e
000002f0: 5088 74be c6ca e4bd c357 ee3d 9f54 b0be
00000300: 85b3 9a3e 29e7 2a3e 74a4 2dbf 5cb6 493f
00000310: 7be8 e63e 06c9 b73e da25 4abe 05d7 0e3e
00000320: e8ea c1be 7b9c 4a3e a91a 7d3f ac87 863e
00000330: 144e 3ebe 1ebf ca3e 7080 dfbe cd78 2b3e
00000340: 0a00 fb3e 10fb e23e 0f2d d3be 60d0 88be
00000350: 6b4d 2e3c 2a67 c5bd ccdc ae3e 7e8b 903e
00000360: 2029 453d 7a1f a5be cbca e33e bf7f a93e
00000370: da9c b73d 64d2 92be c5be 4cbe 6610 5d3e
00000380: ea2c 1d3f 0e19 f1be b504 3bbe dfd3 47bd
00000390: 5b4f a33d 1964 a1bc fa14 55bd 83a4 5dbe
000003a0: 2b52 363e 0798 af3d cd19 9bbe d7dd e1bd
000003b0: a93d 34bd f910 14bd 423c d0be 6cde 68bf
000003c0: af42 43be 3186 873f 6f67 963e e87a 083f
000003d0: ed7a 833d f085 bebd d2c1 183f be3b 583e
000003e0: 4dd5 c4be ad9e 533d 7749 fe3b 7cdc 6cbe
000003f0: c91f 053e b2ce a63e e83e 073e be9a d93c

net.3.bias f4 [128]
-0.2543839 -0.11056269 -0.21332 -0.0902243 -0.22957319 -0.1802576 -0.18304542 -0.22540326
-0.08963493 -0.16543064 -0.10101486 -0.2636026 -0.19420846 -0.32130998 -0.23423122 -0.120765805
-0.16306667 -0.21112742 -0.21355434 -0.2491138 -0.17369208 0.23261464 -0.2161315 -0.18915921
-0.23312232 -0.16452233 -0.15213199 -0.16193801 -0.015235398 -0.38383314 -0.20333974 -0.24150424
-0.18739438 -0.10304592 -0.18132743 -0.13713318 -0.06820722 -0.3793477 0.20387189 -0.10772393
-0.43777815 -0.18930922 -0.2445643 -0.14894293 -0.19257028 -0.13903955 -0.20980749 -0.19260918
-0.2724355 -0.24545652 -0.18161997 -0.11604019 -0.18739995 -0.110405065 -0.20628765 -0.15429734
-0.1844611 -0.2163022 -0.096443854 -0.1695776 -0.35999253 -0.27030137 -0.13572666 -0.18593071
0.27832556 -0.11887107 -0.23526251 -0.22484273 -0.21794719 -0.169267 -0.24426919 -0.11406955
-0.031185426 0.17882903 0.051948924 -0.027902335 -0.2034405 -0.12788314 -0.19477078 -0.027634995
-0.21577579 -0.1385934 -0.2168236 -0.10355894 -0.20327353 -0.11644268 -0.1948295 -0.16061023
-0.2468697 -0.13175844 -0.24522606 -0.20822838 -0.18796451 -0.24376667 0.08160309 -0.12113218
-0.14247724 -0.08220356 -0.12213309 -0.15230893 -0.15612154 -0.29092842 -0.19166265 -0.1478403
-0.13549466 -0.0086374935 -0.12955055 -0.16777271 -0.11671862 -0.13427082 -0.035415042 -0.14332896
-0.14109606 -0.16176379 -0.1358838 -0.0571986 -0.21950771 0.028376363 -0.17929794 -0.08332025
-0.090608805 -0.1115638 -0.11107208 -0.115140155 -0.20723927 -0.18786094 -0.27955994 -0.13610491
00000000: 9b3e 82be b16e e2bd 8f70 5abe 85c7 b8bd
00000010: 3c15 6bbe 7395 38be 4270 3bbe 1dd0 66be
00000020: 8592 b7bd a666 29be e1e0 cebd ecf6 86be
00000030: 95de 46be be82 a4be 4fda 6fbe 1054 f7bd
00000040: f3fa 26be c931 58be fdad 5abe b017 7fbe
00000050: 56dc 31be 8832 6e3e 9351 5dbe f4b2 41be
00000060: 9eb7 6ebe 8b78 28be 7dc8 1bbe 14d3 25be
00000070: e49d 79bc c785 c4be 4b38 50be e34c 77be
00000080: 50e4 3fbe bd09 d3bd e6ad 39be a46c 0cbe
00000090: 3ab0 8bbd dd39 c2be cbc3 503e 5d9e dcbd
000000a0: 7524 e0be 47da 41be 106f 7abe 7f84 18be
000000b0: 2531 45be 6260 0ebe c6d7 56be 573b 45be
000000c0: aa7c 8bbe f458 7bbe 96fa 39be 7ba6 edbd
000000d0: c6e5 3fbe 0d1c e2bd 123d 53be 1f00 1ebe
000000e0: 5fe3 3cbe 537e 5dbe 5b84 c5bd c0a5 2dbe
000000f0: f150 b8be f164 8abe eefb 0abe 9f64 3ebe
00000100: b080 8e3e ad72 f3bd a8e8 70be 2c3d 66be
00000110: 8c2d 5fbe 5454 2dbe b421 7abe 4c9d e9bd
00000120: 9478 ffbc f51e 373e 65c8 543d 7093 e4bc
00000130: b552 50be ccf3 02be fe71 47be c962 e2bc
00000140: 54f4 5cbe 6eeb 0dbe 0107 5ebe b616 d4bd
00000150: f026 50be 8079 eebd 6281 47be 0277 24be
00000160: 69cb 7cbe afeb 06be 8a1c 7bbe d239 55be
00000170: c579 40be f89d 79be 851f a73d 2614 f8bd
00000180: 8ee5 11be 575a a8bd ea20 fabd dff6 1bbe
00000190: 53de 1fbe 92f4 94be 3743 44be 7363 17be
000001a0: 1dbf 0abe 4684 0dbc e6a8 04be 9ccc 2bbe
000001b0: 2c0a efbd 4a7e 09be 5d0f 11bd d4c4 12be
000001c0: 7c7b 10be 68a5 25be 1f25 0bbe 1449 6abd
000001d0: a1c6 60be 8c75 e83c e199 37be cfa3 aabd
000001e0: 1c91 b9bd 907b e4bd c279 e3bd 9ace ebbd
000001f0: 8836 54be 9e5e 40be 7b22 8fbe 165f 0bbe

net.5.weight f4 [128]
-0.22735429 -0.35133678 0.22562061 0.24924462 0.4035969 0.4374406 0.29804525 0.72709125
0.46357724 -0.19198391 -0.23886025 0.65961987 0.45100418 0.8737202 0.15331315 0.5081837
-0.6012039 0.6220619 0.42497706 0.4395311 -0.33446202 0.472593 0.8076508 0.30801806
-0.228678 -0.9493471 0.36513868 0.5405936 0.1858913 0.4719802 0.524848 0.3575377
0.19012271 5.4750957 0.38037002 -0.4640667 -0.12174118 0.2562602 0.35486725 0.2034883
0.20692919 0.56903404 -0.1519469 0.28661215 -0.22291675 0.12056039 0.94111425 0.18916997
0.35624325 0.36625287 0.27474022 -0.2271028 -0.21021502 -0.22757153 0.53109175 0.33507097
-0.38574582 -0.8063113 0.27565768 0.2161468 0.4090529 -0.87378544 0.23791745 0.5193294
0.4036179 0.2884978 0.37378442 0.30941314 0.350635 0.45008543 0.40370885 0.28042018
-0.22310399 0.4623573 0.43371242 0.35045844 -0.58852226 0.17271116 0.35238573 -0.21110713
-0.27504614 -0.29531145 0.40534803 0.123363204 0.22964974 0.26604736 0.20493238 -0.33765924
0.64174086 -0.15394458 0.2143012 0.38556916 0.3245365 -0.4018225 0.46163118 0.10352147
0.705512 -0.42304185 0.16326249 0.30166197 0.48945436 0.7760577 -0.21646066 0.13891433
-0.87302107 0.31653073 0.26194555 0.27048108 0.25971538 0.2778513 0.31606233 0.33590108
-0.80915254 -0.23365308 0.24493356 0.2991154 0.21611668 -0.13068715 0.2784806 0.1727907
0.5766794 4.9542174 0.3184315 0.31007493 0.25397316 -0.63066244 0.26535982 -0.3266167
00000000: 90cf 68be 6ae2 b3be 1709 673e fb39 7f3e
00000010: 41a4 ce3e 37f8 df3e 6399 983e a722 3a3f
00000020: ff59 ed3e 6e97 44be c897 74be d9dc 283f
00000030: 05ea e63e 21ac 5f3f 1ffe 1c3e 5418 023f
00000040: 80e8 19bf 733f 1f3f 9896 d93e 380a e13e
00000050: 9b3e abbe b6f7 f13e 34c2 4e3f 8bb4 9d3e
00000060: 912a 6abe 6908 73bf 75f3 ba3e 5864 0a3f
00000070: 4a5a 3e3e 64a7 f13e 705c 063f 2e0f b73e
00000080: 87af 423e fc33 af40 dcbf c23e 279a edbe
00000090: 7153 f9bd 8934 833e 29b1 b53e 3d5f 503e
000000a0: 3fe5 533e 37ac 113f f897 1bbe d4be 923e
000000b0: 4a44 64be 5ee8 f63d ddec 703f c6b5 413e
000000c0: 8465 b63e 7f85 bb3e c0aa 8c3e a38d 68be
000000d0: 9b42 57be 8308 69be a1f5 073f 6c8e ab3e
000000e0: 7a80 c5be 6b6a 4ebf 0123 8d3e 9655 5d3e
000000f0: 626f d13e 67b0 5fbf a2a0 733e c6f2 043f
00000100: 01a7 ce3e fcb5 933e ac60 bf3e 666b 9e3e
00000110: 6e86 b33e 9971 e63e edb2 ce3e 3c93 8f3e
00000120: 5f75 64be 19ba ec3e 8e0f de3e 4a6f b33e
00000130: 65a9 16bf 32db 303e e76b b43e 782c 58be
00000140: d9d2 8cbe 1033 97be c789 cf3e d9a5 fc3d
00000150: 4d29 6b3e 5c37 883e cbd9 513e ace1 acbe
00000160: 2149 243f a6a3 1dbe c671 5b3e 5269 c53e
00000170: a629 a63e aebb cdbe ec5a ec3e 1103 d43d
00000180: 6f9c 343f f198 d8be 482e 273e 7073 9a3e
00000190: c399 fa3e b8ab 463f dda7 5dbe 8f3f 0e3e
000001a0: 4f7e 5fbf 5110 a23e ba1d 863e 7f7c 8a3e
000001b0: 6af9 843e 8742 8e3e ecd2 a13e 3afb ab3e
000001c0: 9f24 4fbf c142 6fbe ddcf 7a3e a725 993e
000001d0: b14d 5d3e dad2 05be 0295 8e3e 0cf0 303e
000001e0: 43a1 133f f388 9e40 7409 a33e 24c2 9e3e
000001f0: c508 823e 1873 21bf 3edd 873e 4e3a a7be

net.5.bias f4 [128]
-0.026052942 -0.077735744 0.032874912 0.0054565244 0.05739762 0.07160934 0.02615167 0.14450501
0.066086024 -0.035026077 -0.03866235 0.115175545 0.073067725 0.15756792 0.027494784 0.13907741
-0.106453896 0.099083275 -1.7687832 0.08413027 -0.008754365 -0.11802216 0.15742885 0.038966432
-0.04728031 -0.21562003 0.06606474 0.118410334 0.021939997 0.07320572 0.11313378 0.047279987
0.012366128 1.0697682 0.06833572 -0.0876105 -0.02112772 0.008297861 -0.2187128 0.03548466
0.025597384 0.05585915 -0.009316419 0.03539417 -0.03400219 0.026024366 0.18597044 0.031289257
0.04660846 0.06792975 0.046814453 -0.052221876 -0.037295457 -0.030009687 0.06717188 0.036021326
-0.06804763 -0.11648046 0.01509829 0.022424174 -1.7124505 -0.12298748 0.02738708 0.0031412323
-0.12671308 0.039125696 0.08212233 0.053766802 0.058868676 0.0758552 -1.6036865 0.03164289
-0.037395395 -0.14325249 -0.1119604 0.061692588 -0.09924821 0.049710356 0.05473798 -0.02845325
-0.03531048 -0.032701153 0.043005932 0.026631728 0.037868284 0.028504578 0.015421104 -0.03104402
0.10233665 -0.020112745 0.045140892 0.058338962 0.029244993 -0.070603035 -0.16044174 0.018183362
0.10697092 -0.055601597 0.032205626 0.050038308 0.063481644 0.16866799 -0.029684715 0.015615991
-0.15648232 0.025559226 0.045151465 0.033890948 0.04391965 0.028396344 0.029891267 0.046152502
-0.15147397 -0.024397431 0.03944682 0.022317514 0.030248024 -0.011100354 0.044016957 0.016014943
0.095883615 0.9749314 0.07076867 0.04177516 0.031596936 -0.1324646 0.040298752 -0.06237543
00000000: fb6c d5bc eb33 9fbd d8a7 063d a5cc b23b
00000010: c419 6b3d eba7 923d 073c d63c 1ff9 133e
00000020: 1c58 873d 8177 0fbd 6a5c 1ebd 28e1 eb3d
00000030: 88a4 953d 7c59 213e be3c e13c 4f6a 0e3e
00000040: 8004 dabd 2cec ca3d 7d67 e2bf 7e4c ac3d
00000050: 786e 0fbc 9ab5 f1bd 0735 213e 449b 1f3d
00000060: 00a9 41bd 7fcb 5cbe f34c 873d 1e81 f23d
00000070: 82bb b33c e1ec 953d afb2 e73d a9a8 413d
00000080: 4d9b 4a3c 2aee 883f 99f3 8b3d 226d b3bd
00000090: 0a14 adbc c0f3 073c 40f6 5fbe 5d58 113d
000000a0: 9bb1 d13c 90cc 643d e5a3 18bc 7af9 103d
000000b0: e145 0bbd 0d31 d53c 096f 3e3e 2a29 003d
000000c0: 83e8 3e3d c11e 8b3d 83c0 3f3d 9be6 55bd
000000d0: 1fc3 18bd e0d6 f5bc 6991 893d 198b 133d
000000e0: 8e5c 8bbd 4f8d eebd d15e 773c e7b2 b73c
000000f0: 9431 dbbf dce0 fbbd df5a e03c 22dd 4d3b
00000100: 13c1 01be 4442 203d c12f a83d 943a 5c3d
00000110: 4820 713d f959 9b3d 9945 cdbf fa9b 013d
00000120: ea2b 19bd c8b0 12be 7f4b e5bd 5eb1 7c3d
00000130: a542 cbbd 169d 4b3d ef34 603d ca16 e9bc
00000140: b9a1 10bd a5f1 05bd fd26 303d c82a da3c
00000150: c61b 1b3d 6f82 e93c cca8 7c3c 0750 febc
00000160: e195 d13d 7cc3 a4bc a8e5 383d d6f4 6e3d
00000170: 3293 ef3c 5398 90bd d74a 24be 46f5 943c
00000180: 9213 db3d 80be 63bd 0cea 033d f8f4 4c3d
00000190: aa02 823d 4db7 2c3e 5c2d f3bc 37da 7f3c
000001a0: e73c 20be 9561 d13c bef0 383d 3cd1 0a3d
000001b0: 17e5 333d 739f e83c 88de f43c 680a 3d3d
000001c0: fe1b 1bbe 1fdd c7bc fd92 213d 38d3 b63c
000001d0: b4ca f73c 42de 35bc 204b 343d c531 833c
000001e0: a15e c43d 1b95 793f 2aef 903d 6e1c 2b3d
000001f0: ca6b 013d cda4 07be 4e10 253d 617d 7fbd

net.6.weight f4 [5, 128]
0.102009065 0.029889362 0.048849832 -0.37614685 -0.13221274 0.08087157 -0.20142414 0.15594974
0.28348726 0.18969984 0.20865104 0.226686 0.24634038 0.5949202 -0.21252981 0.07602679
-0.2687535 -0.049804516 0.4175709 0.08955196 0.05889999 -0.6573278 -0.16933873 -0.01340994
0.16599433 0.69510823 0.06145857 0.210483 -0.18758307 0.20100783 0.14560866 0.09879934
-0.023711154 -4.894833 0.05116753 -0.13928223 -0.02870094 -0.37320942 -0.29790914 -0.00701424
-0.07397049 -0.32245025 -0.065265685 0.15399286 0.02332313 -0.031839695 -0.6588948 -0.2252314
0.2084603 -0.043178063 0.110252984 0.111164905 0.050563987 -0.20843612 -0.07606258 0.12255522
-0.13126734 -0.28492308 -0.24644229 0.0108304545 0.5004047 -0.45749316 0.06157555 -0.096748024
-0.19197518 0.022072822 0.04552716 -0.008449334 0.011928799 -0.038432587 0.2961341 -0.028758356
0.108261816 -0.6657984 -0.6342758 0.021618877 -0.1310767 0.04394209 -0.13780612 0.13835816
0.074363954 -0.084263824 0.2449439 -0.19559227 -0.007756161 -0.17106481 0.0016903622 0.35855582
0.26529852 0.1021889 -0.11090467 -0.079174705 0.104392774 -0.04865631 -0.7838191 -0.15553819
0.035061598 0.035665534 0.0733544 0.11056123 0.061626986 0.20227206 -0.04504171 -0.113975205
-0.32957292 -0.099337764 0.047559146 -0.029974448 -0.09935623 0.08763635 -0.041276246 -0.22689924
-0.25687313 0.23007365 0.05166303 -0.18943813 -0.13095771 -0.09610865 0.002128649 -0.16012877
0.18849225 -4.3230643 -0.018271623 0.11610223 -0.20891239 -0.07023945 0.10208155 -0.037950236
0.27311984 -0.1608814 -0.26722354 -0.10847028 -0.07670011 -0.3602578 -0.3323523 -0.0115728425
0.067099534 -0.117125764 -0.18093087 -0.49885595 -0.28608757 -0.4026327 0.05262665 0.10879715
-0.12938336 -0.32922176 -0.22092968 -0.24038966 0.46273106 0.3177074 -0.060691543 -0.04727156
-0.20660336 -0.07094957 -0.007997484 0.1322964 0.16406909 -0.02060305 -0.3448668 -0.25762066
-0.11861612 1.2063379 -0.09506086 0.11294198 -0.10658071 0.0083896015 -0.26522687 0.04028205
-0.0035121841 -0.2809913 0.2505178 -0.16958196 0.051737797 -0.031950884 -0.047533978 -0.017953565
-0.21621555 -0.042554837 0.01568323 -0.19926754 0.008543786 -0.1508753 -0.39047363 -0.38945025
0.13037606 -0.028563885 -0.2661214 -0.27872807 -0.6390532 0.48965392 0.049969144 -0.6464503
0.41495565 0.11930713 0.058198314 -0.02546907 -0.0023466856 0.02740582 0.6339797 -0.21192545
0.08910879 0.34258464 0.20982063 0.0805507 0.48421746 -0.16840273 -0.084788576 -0.17168011
0.22654861 0.22433598 -0.40590036 -0.0079565905 -0.24370709 0.021261476 0.075623766 -0.049758483
-0.34011102 -0.08397323 0.1378775 0.012665232 -0.18483175 0.371409 -0.29740986 0.017065134
-0.50688106 -0.17450255 -0.13407266 -0.041398875 0.16128351 0.2810222 -0.15470536 -0.10184934
0.33364367 -0.14384733 -0.25308007 -0.19448784 -0.13435087 -0.010332728 -0.4744876 0.15395747
0.54195267 -0.04499619 0.03660199 -0.19686952 -0.096404925 0.09171163 -0.12775908 0.049312204
0.20617823 1.0575117 0.09177836 0.07962139 -0.0032124612 0.11076896 -0.04409992 -0.018971756
00000000: 21ea d03d 89da f43c c316 483d 5296 c0be
00000010: c762 07be fe9f a53d 2142 4ebe 4ab1 1f3e
00000020: 3e25 913e ad40 423e 9ea8 553e 6020 683e
00000030: a740 7c3e b14c 183f 6aa1 59be efb3 9b3d
00000040: 0f9a 89be d2ff 4bbd dacb d53e 0567 b73d
00000050: 1e41 713d a246 28bf 2267 2dbe 5db5 5bbc
00000060: 6bfa 293e 9df2 313f fbbb 7b3d db88 573e
00000070: c715 40be ffd4 4d3e 701a 153e 4f57 ca3d
00000080: e53d c2bc 79a2 9cc0 0b95 513d 00a0 0ebe
00000090: 3c1e ebbc 4e15 bfbe 8c87 98be b6d7 e5bb
000000a0: d77d 97bd 3318 a5be 04aa 85bd 4eb0 1d3e
000000b0: 2610 bf3c 576a 02bd 54ad 28bf 0fa3 66be
000000c0: 9e76 553e 7bdb 30bd 51cc e13d 6daa e33d
000000d0: 2f1c 4f3d 4770 55be b3c6 9bbd 3bfe fa3d
000000e0: f26a 06be 70e1 91be 5e5b 7cbe 3872 313c
000000f0: 861a 003f 8b3c eabe a536 7c3d d423 c6bd
00000100: 2495 44be 10d2 b43c b07a 3a3d 136f 0abc
00000110: 0271 433c 7d6b 1dbd e49e 973e a596 ebbc
00000120: 5fb8 dd3d c471 2abf e65f 22bf 121a b13c
00000130: f838 06be 9ffc 333d 0c1d 0dbe c3ad 0d3e
00000140: 214c 983d 8392 acbd 93d2 7a3e 5749 48be
00000150: 6527 febb 9d2b 2fbe 258f dd3a a194 b73e
00000160: 35d5 873e 6a48 d13d fd21 e3bd 5926 a2bd
00000170: e1cb d53d d74b 47bd 5ea8 48bf 6745 1fbe
00000180: c09c 0f3d 0616 123d d53a 963d ed6d e23d
00000190: 946c 7c3d 6820 4f3e a87d 38bd d56b e9bd
000001a0: c8bd a8be 9971 cbbd 61cd 423d f98c f5bc
000001b0: 477b cbbd b07a b33d 4811 29bd 4658 68be
000001c0: e084 83be 6d98 6b3e 9d9c 533d 12fc 41be
000001d0: c719 06be 9dd4 c4bd ce80 0b3b ccf8 23be
000001e0: 1d04 413e 8b56 8ac0 5fae 95bc 02c7 ed3d
000001f0: 21ed 55be b3d9 8fbd 2210 d13d b571 1bbd
00000200: 5dd6 8b3e 18be 24be 86d1 88be ab25 debd
00000210: f314 9dbd b673 b8be 152a aabe 059c 3dbc
00000220: 7b6b 893d a2df efbd f145 39be 0c6a ffbe
00000230: 127a 92be e025 cebe 0b8f 573d 0ad1 de3d
00000240: 127d 04be c18f a8be 643b 62be b528 76be
00000250: 16eb ec3e 8baa a23e b297 78bd d39f 41bd
00000260: d58f 53be 024e 91bd e107 03bc b578 073e
00000270: ba01 283e bac7 a8bc 6292 b0be dbe6 83be
00000280: 02ed f2bd 4869 9a3f 45af c2bd 204e e73d
00000290: fd46 dabd 8a74 093c d1cb 87be cafe 243d
000002a0: ac2c 66bb 17de 8fbe de43 803e e5a6 2dbe
000002b0: 03eb 533d eede 02bd fdb2 42bd 5b13 93bc
000002c0: 9c67 5dbe fb4d 2ebd 1e7a 803c ca0c 4cbe
000002d0: 3cfb 0b3c 0e7f 1abe 29ec c7be 0666 c7be
000002e0: 4d81 053e cffe e9bc 1041 88be 72b5 8ebe
000002f0: fe98 23bf ebb3 fa3e 72ac 4c3d c47d 25bf
00000300: 1175 d43e 4c57 f43d 5b61 6e3d 83a4 d0bc
00000310: daca 19bb 2c82 e03c 7e4c 223f fc02 59be
00000320: ab7e b63d 4167 af3e 38db 563e c4f7 a43d
00000330: 5aeb f73e c471 2cbe a2a5 adbd e9cc 2fbe
00000340: 5cfc 673e 55b8 653e 2cd2 cfbe 5c5c 02bc
00000350: 5a8e 79be 8c2c ae3c a2e0 9a3d 8dcf 4bbd
00000360: 0823 aebe 28fa abbd c22f 0d3e d581 4f3c
00000370: 8944 3dbe 5229 be3e 1b46 98be 2ecc 8b3c
00000380: f5c2 01bf ccb0 32be 584a 09be de91 29bd
00000390: 8127 253e 24e2 8f3e 156b 1ebe 6396 d0bd
000003a0: 58d3 aa3e b74c 13be b693 81be d227 47be
000003b0: 4693 09be 9a4a 29bc 0af0 f2be 07a7 1d3e
000003c0: 69bd 0a3f ed4d 38bd f8eb 153d 2a98 49be
000003d0: f26f c5bd 4fd3 bb3d 47d3 02be 98fb 493d
000003e0: 6320 533e 8b5c 873f 4bf6 bb3d 8a10 a33d
000003f0: 2888 52bb d6da e23d 1ea2 34bd a86a 9bbc

net.6.bias f4 [5]
-0.16761316 -0.021293316 0.061509088 0.07701627 0.006688003
00000000: c9a2 2bbe 526f aebc f4f0 7b3d b5ba 9d3d
00000010: 0927 db3b
