RL code/models/checkpoint_episode_410000.pth (torch, 801255 bytes, 40 tensors)

net.0.weight f4 [256, 22]
000000 8d 0e 7d bd fc c9 bb 3d cd d2 b5 3d bf 97 83 bb
       -0.061781455 0.09169385 0.08878098 -0.0040158923
000010 f9 fe c5 3d 25 7a 94 3b 17 6f 95 bc bf da 49 bd
       0.09667773 0.0045311623 -0.018241448 -0.04928088
000020 b6 ca 7d bc 64 c8 e6 ba 16 21 2f 3d 43 81 a0 bd
       -0.015490225 -0.0017607328 0.042756163 -0.07837155
000030 11 6c 86 3d fa 4d c7 3c e7 83 d6 3d 89 f3 b8 bc
       0.06563581 0.024329174 0.10474377 -0.022577064
000040 3d e4 83 bc f2 30 a5 bd b6 ca 7d 3c 64 c8 e6 3a
       -0.016100043 -0.08065976 0.015490225 0.0017607328
000050 8d 0e 7d bd fc c9 bb 3d 3d e9 67 3d 5b 3f a1 3d
       -0.061781455 0.09169385 0.056618918 0.07873412
000060 82 86 88 3d 1b cc 32 bd ed 25 82 bc 1a 06 96 3c
       0.0666628 -0.04365168 -0.015887225 0.018313456
000070 6b a3 2d 3d ae bf d9 3c 51 5a 02 bd 78 70 d5 3c
       0.042392176 0.026580658 -0.031824414 0.026054606
000080 0f 1a 68 be e8 7c e5 bc 63 35 8c 3d 39 76 80 bd
       -0.2266619 -0.028013662 0.0684612 -0.06272549
000090 14 93 73 bb 06 b6 18 3d ea 31 5d 3d 70 cd 36 3d
       -0.0037166523 0.037282966 0.05400268 0.044629514
0000a0 51 5a 02 3d 78 70 d5 bc 3d e9 67 3d 5b 3f a1 3d
       0.031824414 -0.026054606 0.056618918 0.07873412
0000b0 10 a3 1b 3e 10 86 03 3e 8e b7 3a 3e 65 9d 2b 3e
       0.15198922 0.1284411 0.18234083 0.1675926
0000c0 d8 9b 22 be 6d 82 25 be 07 56 2d be 9f 7c 39 be
       -0.15879762 -0.16163035 -0.16927348 -0.18113945
0000d0 dc 50 ad be 06 b4 b4 be 79 34 8a be e9 14 81 be
       -0.33850753 -0.35293597 -0.26993158 -0.25211266
0000e0 2d bc 23 be 15 04 3c be 33 5c 24 3e a8 88 2d 3e
       -0.15989752 -0.18360932 0.16050796 0.16946661
0000f0 aa d5 22 3e 77 50 2a 3e d9 50 ad 3e fd b3 b4 3e
       0.15901819 0.16632257 0.33850744 0.3529357
000100 59 69 1b 3e 36 3e 03 3e 0b 9c d2 3c f0 cd 8c 3d
       0.15176906 0.128167 0.025709173 0.06875217
000110 8a a9 b9 bd 5e 27 ca 3d 8b 6e c6 bd b1 43 9f bd
       -0.0906554 0.0987079 -0.09689053 -0.07776583
000120 42 10 0f bc d2 bf 1e 3d 00 f0 8d bd 13 f1 47 bd
       -0.0087319035 0.038757153 -0.06930542 -0.04881389
000130 6b e1 47 bd 7d 54 43 bd 18 85 1d be 91 9e b3 3d
       -0.04879896 -0.047687996 -0.15382802 0.087704785
000140 1c 2a 1d bd 07 32 98 bd e9 4b 5d 3d 6d 9a 39 3d
       -0.038370237 -0.07431417 0.05402747 0.045313288
000150 00 f0 8d 3d 13 f1 47 3d 0b 9c d2 3c f0 cd 8c 3d
       0.06930542 0.04881389 0.025709173 0.06875217
000160 05 e5 b3 bd a9 94 f7 bb 78 63 04 3d 02 0e 6d 3c
       -0.087839164 -0.0075555635 0.032321423 0.014468672
000170 ef 09 e4 b9 b3 9c bc bd de d2 81 bc 9d 01 65 3d
       -0.0004349495 -0.092095755 -0.01584762 0.05590974
000180 ee 4b 8d bc 88 5b 4c bc 9f 35 82 3d 5d e9 08 be
       -0.01724812 -0.012472995 0.06357884 -0.13370271
000190 f6 e9 22 3d 3d 77 70 3b 7f 04 b0 bb 20 4d 99 bd
       0.039773904 0.0036692165 -0.0053716297 -0.074854136
0001a0 a2 ea 9e bc cf 50 92 3d ee 4b 8d 3c 88 5b 4c 3c
       -0.019398991 0.07144319 0.01724812 0.012472995
0001b0 05 e5 b3 bd a9 94 f7 bb 61 fa a3 bd be df de bc
       -0.087839164 -0.0075555635 -0.0800674 -0.027206298
0001c0 33 a8 95 bd 0f b6 05 3d c1 71 bd bd 39 79 c9 3d
       -0.07307472 0.032644328 -0.092502125 0.098375745
0001d0 43 bd b2 bd 30 c5 20 bd 02 90 08 be 29 77 a1 bc
       -0.08727505 -0.039250553 -0.13336185 -0.01971014
0001e0 c1 75 1d bd 9a 26 39 3d ad 51 2c be 1a 17 43 3d
       -0.038442377 0.04520283 -0.16828032 0.047629453
0001f0 72 c5 38 3c 43 db 8d 3d dd 4e 89 3b dc 03 8d bd
       0.011277543 0.069265865 0.0041903094 -0.06885502
000200 02 90 08 3e 29 77 a1 3c 61 fa a3 bd be df de bc
       0.13336185 0.01971014 -0.0800674 -0.027206298
000210 4a 9d a6 bd d4 12 a2 bc 5d 89 91 be dc ec 12 bb
       -0.08135469 -0.019784369 -0.28425112 -0.0022419011
000220 94 1c 05 3d 09 9f 92 3c 3c 97 df 3c f8 84 d1 bb
       0.032497957 0.0178981 0.027293794 -0.006394025
000230 1e ed 9a 3d 01 44 37 bc f7 55 84 3c 32 b0 82 bb
       0.07564758 -0.011185647 0.016154272 -0.0039882893
000240 3e 9b 5a be 96 b3 09 bc f6 69 2f bd 62 c9 a3 3c
       -0.21348283 -0.008404633 -0.04282566 0.019993488
000250 b0 39 50 bd 94 da be bb 1e ed 9a bd 01 44 37 3c
       -0.050836265 -0.0058243964 -0.07564758 0.011185647
000260 47 9d a6 bd d6 12 a2 bc 57 36 3a bd 06 74 82 bd
       -0.08135467 -0.019784372 -0.04546198 -0.06369786
000270 c5 c5 02 3c b7 c5 20 be 05 37 a0 bb ae 21 ec bd
       0.007981722 -0.15700422 -0.0048893713 -0.115298614
000280 8f dc 82 3d af f1 a3 bb fc 3c 10 bb 49 ac b5 3d
       0.063897245 -0.005003176 -0.0022009006 0.088707514
000290 ef 01 36 3e 3c ba f1 bb 40 1c 07 3c d9 06 00 be
       0.17774175 -0.007376937 0.008246481 -0.12502612
0002a0 67 1b 18 bc 0b 43 0e be ef d2 4c 3d d5 c4 e4 bc
       -0.009283877 -0.13892762 0.05000585 -0.027925888
0002b0 fc 3c 10 3b 49 ac b5 bd 57 36 3a bd 06 74 82 bd
       0.0022009006 -0.088707514 -0.04546198 -0.06369786
0002c0 d9 c7 15 bd 10 7f 6c bc 26 41 1c bd d0 ec 4e bc
       -0.036567543 -0.014434591 -0.038148068 -0.012629703
0002d0 9f 83 03 3c 0a 1f 79 3d 80 9a 2c be d5 3b 85 bc
       0.008026986 0.060820617 -0.16855812 -0.016263882
0002e0 4c 35 94 bd 67 b8 bf bc de 86 07 be 46 e8 80 3d
       -0.07236728 -0.02340336 -0.13235041 0.06294303
0002f0 06 84 99 bd 10 4c 16 3c 00 6c 30 3d 0c b4 b0 3c
       -0.074958846 0.009173408 0.043071747 0.021570228
000300 73 ed 01 be c5 4d 4f bd 4c 35 94 3d 67 b8 bf 3c
       -0.12688236 -0.050611276 0.07236728 0.02340336
000310 d8 c7 15 bd 10 7f 6c bc ac 9d dd 39 91 7f 56 3c
       -0.03656754 -0.014434591 0.0004226988 0.013091938
000320 b2 b0 32 3d 95 38 72 be b7 99 31 3d 1c 5b 75 bd
       0.04362554 -0.23654397 0.043359485 -0.05990134
000330 bd 23 5a bc 04 23 d1 bc 34 59 49 bc 82 d6 12 3c
       -0.013314185 -0.025529392 -0.012289334 0.008962275
000340 01 31 6e 3d c9 a1 b4 bc 03 e7 02 3c 6d 67 7c be
       0.058152203 -0.022049801 0.007989648 -0.24648829
000350 dc 86 90 3d 54 52 88 bd 67 b1 bb 3c 6e 92 03 bd
       0.070569724 -0.06656328 0.02291174 -0.032122068
000360 34 59 49 3c 82 d6 12 bc ac 9d dd 39 9b 7f 56 3c
       0.012289334 -0.008962275 0.0004226988 0.013091947
000370 b9 7d af bc 38 de cf 3d 3a 20 73 bd 75 1b 0d 3d
       -0.021422254 0.10149807 -0.059356906 0.034450013
000380 9e 8a 91 bd c3 03 0f 3b 64 39 ba 3c 54 86 44 3c
       -0.07106517 0.002182231 0.022732444 0.011994917
000390 28 18 bd 3d 4c a9 1b 3d ec 1c 27 3e cc 28 6c bd
       0.09233123 0.03800325 0.16319627 -0.057656094
0003a0 49 80 77 bd 36 a6 b4 3d 7b 85 9a bd bb 14 44 bd
       -0.060425077 0.08820765 -0.07544991 -0.047871333
0003b0 2f 08 b2 3c ff c4 20 bd 28 18 bd bd 4c a9 1b bd
       0.021732418 -0.03925037 -0.09233123 -0.03800325
0003c0 b9 7d af bc 38 de cf 3d e2 c4 7c 3c 4d 85 ba 3c
       -0.021422254 0.10149807 0.0154278 0.02276864
0003d0 88 77 00 be d4 f9 b2 bb 4e 18 b5 bd 34 fd 7d 3d
       -0.12545598 -0.0054619107 -0.088425264 0.06200905
0003e0 4d 27 bf bd bb 31 61 3b fb 96 88 bd b1 56 1e 3b
       -0.09333668 0.0034361917 -0.06669422 0.0024160559
0003f0 e7 58 2b 3e e2 a9 e0 bc 6d 4c 43 be 4f 14 a7 3c
       0.16733132 -0.027424756 -0.19072123 0.020395426

net.0.bias f4 [256]
000000 51 30 53 be 0c a8 82 be db cf 18 be de 9c 95 be
       -0.206239 -0.25518835 -0.1492304 -0.29221243
000010 a6 56 93 be 77 21 8b be 32 81 b6 be 3e e3 67 be
       -0.28777045 -0.2717397 -0.35645443 -0.2264528
000020 1c c4 85 be d6 11 87 be 87 aa 7b be 96 05 85 be
       -0.26126182 -0.26380795 -0.2457677 -0.25980824
000030 84 e4 29 be 58 fd 1e bf 10 2e 84 be 6b 28 c4 be
       -0.16591078 -0.6210532 -0.25816393 -0.38312086
000040 5e 04 6e be 14 e3 eb be 82 2c b9 be b6 df 40 be
       -0.23243853 -0.46071684 -0.3616677 -0.18835339
000050 ef 6b 9d be 19 09 6e be b8 d5 5e 3d 21 41 0b be
       -0.3074641 -0.23245658 0.054403037 -0.13599063
000060 2b f6 4e be c0 b2 38 be 61 bc 74 be 1e b5 8f be
       -0.20211093 -0.18036938 -0.23899986 -0.2806787
000070 12 8e 8e be 48 35 4e 3e 2a 16 94 be db 06 70 be
       -0.27842766 0.20137513 -0.2892316 -0.23440115
000080 fe 7d 5f be 6f b2 9a be 19 13 13 bf 94 4e 9f be
       -0.21825406 -0.3021426 -0.57451016 -0.31114638
000090 ae 86 8a be 3d 64 30 be 38 2b 1d bf 02 61 c3 be
       -0.27055877 -0.17225738 -0.6139407 -0.3815995
0000a0 89 80 54 be 03 d9 48 be 3b 78 0a bf fd c3 02 bf
       -0.20752157 -0.19614033 -0.5408971 -0.51080304
0000b0 01 72 3e be 32 0a a2 be 52 ce ae be 5d 1f 8e be
       -0.18598177 -0.31648403 -0.34141785 -0.27758303
0000c0 95 62 3e be f8 ed 88 be 91 6d 88 be c1 bf d2 be
       -0.18592294 -0.26744056 -0.26646093 -0.41161922
0000d0 60 06 54 be 52 07 f3 bd 36 ec 4f be 09 c9 40 be
       -0.20705557 -0.118666306 -0.20304951 -0.18826689
0000e0 6e 3d a1 be 97 44 9f be 08 d7 a0 be 4b d7 a0 be
       -0.3149218 -0.31107017 -0.31414056 -0.31414255
0000f0 69 51 71 be 60 32 84 be 19 0d 75 be e4 de 40 be
       -0.23566212 -0.25819683 -0.23930778 -0.18835026
000100 33 85 63 be 81 9a 87 3b c4 bb a3 be b8 a9 82 be
       -0.2221878 0.0041382913 -0.3197919 -0.2552011
000110 6a ec 3a be 6d 80 91 be 37 47 45 be ec 29 a3 be
       -0.18254247 -0.28418294 -0.19265448 -0.3186792
000120 bb 06 a6 be e4 14 9e be 58 aa 60 be 48 d5 48 b3
       -0.3242701 -0.30875313 -0.21939981 -4.6760107e-08
000130 46 c0 7b be 18 b4 67 be 6d 2f 93 be 6a ef 99 be
       -0.24585065 -0.22627294 -0.2874712 -0.3006547
000140 9b 68 94 be 6e 7a 45 be 64 93 7c be 7f 9b 4b be
       -0.28986058 -0.19284984 -0.246656 -0.19883536
000150 b0 6a 9e be 79 66 7c be 31 2d 5f be b9 b9 d7 be
       -0.3094077 -0.24648465 -0.21794583 -0.42133883
000160 88 38 8e be 9a a7 8b be a2 ea 8d be 65 ca db bc
       -0.27777505 -0.27276307 -0.27718073 -0.026829908
000170 ba 28 96 be 9c ce 02 bf 4e b4 36 be 20 3b 93 be
       -0.29327947 -0.5109651 -0.17842218 -0.28756046
000180 ae 98 60 be 38 dc 4b 3e 20 eb b8 be f7 5e b0 be
       -0.21933243 0.19908226 -0.36116886 -0.34447452
000190 0c d4 81 be 3e d2 d4 be 52 9d 68 be 64 1c 1e bf
       -0.2535709 -0.41566652 -0.22716263 -0.6176207
0001a0 5e aa d7 bc c3 aa 24 be 6b ed 6f be 16 bb a5 be
       -0.026326355 -0.16080765 -0.23430412 -0.32369298
0001b0 63 d6 99 be 9e 30 9c be 83 73 95 be b1 2d 55 be
       -0.30046377 -0.30505842 -0.2918969 -0.20818211
0001c0 ca 2d 80 be 7e 30 bb be b8 18 46 be 5c e8 8c 3d
       -0.25034934 -0.36560434 -0.19345367 0.068802565
0001d0 d2 a6 39 be 40 86 8a be 35 4b 7e be 0a 99 5d be
       -0.18130043 -0.2705555 -0.24833377 -0.21640411
0001e0 0f b8 9b be f4 3c 9f be d8 90 8e be 38 55 b4 be
       -0.30413863 -0.3110119 -0.27844882 -0.35221267
0001f0 75 4c a9 be 07 ed 4d 3e f0 c1 aa be 55 4b 3e be
       -0.33066145 0.2010995 -0.33351088 -0.18583424
000200 13 81 8e be 57 d2 63 be b4 8c 66 be ba 95 86 be
       -0.2783285 -0.22248207 -0.22514611 -0.26286107
000210 c6 15 8e be 97 68 95 be 73 2e a3 be 20 ce 96 be
       -0.27750987 -0.29181358 -0.31871375 -0.29454136
000220 c8 7a 54 be 85 26 90 be eb 13 85 be c1 2e 86 be
       -0.20749962 -0.28154388 -0.2599176 -0.26207545
000230 99 3c 4b be 72 fc 56 be ab 17 b5 bd da 03 a3 bd
       -0.19847335 -0.20994738 -0.08842405 -0.07959719
000240 55 a4 4e 3e 35 92 6e be e6 e1 46 be d2 6b 52 be
       0.20179875 -0.23297961 -0.19422111 -0.20548943
000250 5c 92 3f be 37 46 86 be b2 8d 87 be f3 c4 88 be
       -0.18708175 -0.26225445 -0.26475292 -0.2671276
000260 b5 a8 5e be c6 7b 14 bf 0e a6 7d be 6d b4 59 be
       -0.21744044 -0.58001363 -0.24770376 -0.21260233
000270 99 46 82 be 00 b3 65 bd f5 d5 20 be 33 82 86 be
       -0.25444487 -0.05607891 -0.15706618 -0.2627121
000280 4e e3 81 be 07 8d 7b be 19 23 d4 be 0f 78 36 be
       -0.25368732 -0.24565516 -0.41433027 -0.17819236
000290 f8 ed 40 be 8a 1d 95 be eb 73 8f 3d 89 2e 74 be
       -0.18840778 -0.291241 0.070045315 -0.23845877
0002a0 2b 1d 96 be d9 be 1b bf 19 ed 73 be 47 c2 e7 be
       -0.29319128 -0.60838085 -0.23820914 -0.4526541
0002b0 5a 64 00 be 98 36 84 be 63 16 36 be a8 0e 46 be
       -0.12538281 -0.25822902 -0.17781977 -0.19341528
0002c0 5e 67 a7 be 0e 38 9c be 83 ec 6a be 3f a8 15 bf
       -0.3269605 -0.30511516 -0.22941785 -0.5845985
0002d0 e7 cd 47 be a1 fb b1 3d a9 2e 87 be c2 57 ad be
       -0.1951214 0.086905725 -0.26402786 -0.33856016
0002e0 7e fd 79 be a6 b3 52 be 34 88 75 be 6f 88 30 be
       -0.24413106 -0.20576343 -0.23977739 -0.17239545
0002f0 77 97 90 be cc 03 9d be 13 08 2a be af 49 79 be
       -0.28240559 -0.3066696 -0.16604643 -0.24344514
000300 d9 ed 8a be 72 72 c3 be a8 e6 66 be 06 28 4f 3e
       -0.27134588 -0.38173252 -0.22548926 0.20230111
000310 13 df 64 be b1 69 80 be 1e be 45 be c1 8b 42 be
       -0.22350721 -0.25080636 -0.19310805 -0.18998624
000320 42 44 85 be 2f cb 1f be 64 0f 80 be 91 0c 68 be
       -0.2602864 -0.15604852 -0.25011742 -0.22661044
000330 3b 65 11 bf a8 69 5c be 99 d7 82 be ba 79 a2 be
       -0.5679509 -0.2152468 -0.25555113 -0.31733495
000340 3e cb 84 be 71 43 81 be 2e 7b 4e 3e 1c a1 98 be
       -0.2593631 -0.25246766 0.20164177 -0.29810417
000350 8d b4 10 bf 0f 79 bf be 54 30 7e be 3f fb 19 be
       -0.565255 -0.37397048 -0.24823123 -0.15037249
000360 38 91 8a be 0e cb cb be 62 14 74 be 50 eb 8a be
       -0.27063918 -0.39803356 -0.238359 -0.27132654
000370 b0 cb 5c be 2d 0b 9e be d4 a0 13 bf b6 c6 25 be
       -0.21562076 -0.308679 -0.5766728 -0.16189083
000380 3f 1d 67 be 30 b5 59 be d2 d7 9a be 85 a3 5b be
       -0.2256975 -0.21260524 -0.30242783 -0.21449097
000390 ca 68 7b be 27 25 0e be 73 36 97 be 47 fc 84 be
       -0.24551693 -0.1388136 -0.2953373 -0.25973722
0003a0 81 7d 63 be 3f 9f 95 be 55 3f 5b be f0 3e 66 be
       -0.22215845 -0.29223058 -0.21410878 -0.22484946
0003b0 bb a5 93 be 79 61 ab be 45 7a 9b be 00 40 8a be
       -0.2883738 -0.33472803 -0.30366722 -0.27001953
0003c0 9b 1b 87 be 51 a3 96 be 40 1e 4e 3e 97 ed 89 be
       -0.2638825 -0.29421476 0.20128727 -0.2693908
0003d0 27 b5 31 be 07 18 82 be 9a b8 97 be 01 7f 43 be
       -0.1735426 -0.25408956 -0.29633027 -0.19091417
0003e0 0f f3 7a be ae 09 95 bd 0e f1 06 bf ba 2e 71 be
       -0.24506782 -0.07277237 -0.5271157 -0.23552981
0003f0 00 36 99 be 0c 6b 90 be 44 8a e3 be c7 02 90 bd
       -0.2992401 -0.2820667 -0.44441426 -0.0703178

net.2.weight f4 [256]
000000 4d e0 09 3e 95 ba 25 3e a1 fc 29 3e a6 77 63 3e
       0.1346447 0.16184457 0.16600277 0.22213611
000010 38 54 6c 3e c0 62 41 3e 82 90 23 3e 1f c6 21 3e
       0.23079002 0.18885326 0.15973094 0.15798233
000020 70 33 18 3e 1e c2 57 3e f3 ce ec 3d ae 3a 27 3e
       0.14863372 0.21070144 0.1156291 0.16330978
000030 84 96 9a 3d 96 1b 8f 3e 55 f8 10 3e e5 ef 76 3e
       0.0754824 0.27950734 0.14157231 0.2411495
000040 57 7d 0d 3e 25 96 76 3e fd 64 84 3e 47 a0 f0 3d
       0.13817345 0.24080713 0.25858298 0.117493205
000050 e8 90 3e 3e b8 80 be 3d 67 a8 1f 3d 85 3a f9 3d
       0.18609965 0.09301895 0.03897896 0.12169365
000060 1e 54 7b 3e c0 c1 52 3e 50 28 22 3e a3 8b 77 3e
       0.24543807 0.20581722 0.1583569 0.24174361
000070 8a f7 2d 3e a1 77 23 3e 44 31 b7 3d f9 5b 05 3e
       0.1698896 0.15963604 0.089449435 0.13023366
000080 03 3c 2e 3e d7 69 58 3e 5a 27 86 3e 4c 9b 08 3e
       0.1701508 0.21134125 0.26201898 0.13340491
000090 a6 2b a3 3d 8a c4 1c 3e 62 54 9c 3e 3e 28 9f 3e
       0.0796731 0.15309349 0.3053313 0.3108539
0000a0 26 e8 34 3e d1 74 60 3e 2b 89 b6 3e 67 bf 90 3e
       0.17666683 0.21919562 0.35651526 0.28271028
0000b0 06 d9 b1 3d 54 26 1f 3e c0 32 72 3e 3c 93 3b 3e
       0.08683972 0.15541965 0.23652172 0.18317884
0000c0 bd be 64 3e 13 ac 5d 3e 39 6d f4 3d 7f 43 7b 3e
       0.22338386 0.21647672 0.11934895 0.24537466
0000d0 29 87 8f 3d e1 a4 0b 3f 4f 1f 74 3e e3 5e 3e 3e
       0.07008202 0.5454846 0.23840068 0.18590884
0000e0 55 d0 45 3e 32 4c 31 3e 46 e7 0c 3e 69 3b 99 3e
       0.19317754 0.17314222 0.13760099 0.2992814
0000f0 16 5d df 3d 52 fb f4 3d a3 aa 09 3e ba 12 75 3e
       0.109064266 0.11961998 0.13443999 0.23932925
000100 9d 5e 35 3e 57 b9 e1 3c a7 12 0f 3e 3b b3 d1 3d
       0.17711873 0.027554197 0.13971959 0.102392636
000110 4a 64 32 3e a6 d1 42 3e 28 29 5a 3e ff 90 07 3f
       0.1742107 0.19025287 0.21304762 0.5295562
000120 a1 a4 49 3e 73 ea 68 3e 82 12 27 3e df e4 e5 3e
       0.19691707 0.22745685 0.16315654 0.44901177
000130 6e c6 10 3e 4d d2 14 3e 9c 26 3f 3e fe 0a 05 3e
       0.14138195 0.14533348 0.18667072 0.12992474
000140 ae a0 1b 3e 8c 9b fd 3d b1 3a 2e 3e ea bf 52 3e
       0.15198013 0.12383184 0.17014576 0.20581022
000150 0e ed 38 3e b9 4e 4d 3e 75 1e 56 3e 2e c2 09 3e
       0.18059179 0.20049562 0.20910056 0.1345298
000160 12 62 65 3e 38 61 e8 3d a5 c0 c6 3d a4 50 fe 3e
       0.22400692 0.11346668 0.09704713 0.496709
000170 5c b3 3a 3e 1a 17 03 3f d1 4f 34 3e 2f 9c 08 3e
       0.18232483 0.51207125 0.17608573 0.1334083
000180 32 15 09 3e f1 89 22 3e 19 93 89 3e 95 fd 72 3e
       0.13386992 0.15872933 0.2687004 0.23729546
000190 38 51 7b 3e 81 a5 7e 3e 46 cc b2 3d 73 bd 9b 3e
       0.24542701 0.24867822 0.08730368 0.30417976
0001a0 18 05 10 3f 84 fa 21 3e bc ba 42 3e c7 c3 24 3e
       0.5625777 0.1581822 0.19016546 0.16090308
0001b0 42 82 6d 3e 59 cf 49 3e a7 6b 30 3e e3 a5 51 3e
       0.2319422 0.19708003 0.17228566 0.20473437
0001c0 22 72 d7 3d 9b c4 71 3e ff 5f 07 3e 76 c2 05 3d
       0.10519816 0.23610155 0.13220213 0.032656156
0001d0 b9 57 04 3f 73 5a 47 3e 10 77 24 3e 6a e8 44 3e
       0.51696354 0.19468097 0.16061044 0.19229284
0001e0 14 0d 88 3e 78 82 52 3e 01 5b 12 3e 59 eb 09 3e
       0.26572478 0.20557582 0.14292528 0.13468684
0001f0 bf 09 4c 3e 89 18 26 3e ba 36 48 3e dd 71 ff 3d
       0.19925593 0.16220297 0.19552127 0.124728896
000200 b6 09 06 3e aa 0c 0c 3e 06 74 c8 3d 2f 56 19 3e
       0.13089642 0.13676706 0.09787755 0.14974283
000210 78 6c 06 3e e9 28 1e 3e da 8a 15 3e 76 68 1c 3e
       0.13127315 0.15445293 0.14603749 0.15274224
000220 92 94 73 3e 93 24 74 3e ab 4b 23 3e 9f 60 3c 3e
       0.23787144 0.23842077 0.15946834 0.18396233
000230 f5 f7 6c 3e dc ae c7 3d 31 36 16 3e da 5a 19 3e
       0.23141463 0.09750149 0.1466911 0.14976063
000240 53 18 20 3e f7 06 24 3e 01 ce 19 3e f3 8a fc 3d
       0.15634279 0.16018282 0.1501999 0.1233119
000250 a5 18 6b 3e fc 56 3b 3e 43 43 34 3e c9 77 0b 3e
       0.2295862 0.182949 0.17603783 0.13619913
000260 05 fc 0c 3e 21 3f 0e 3f 14 fe cf 3d 44 9c 7e 3e
       0.13768013 0.5556508 0.101558834 0.24864298
000270 89 0b e9 3d 92 f4 2d 3e f1 67 0b 3e 1f c1 3b 3e
       0.11379153 0.16987827 0.13613869 0.18335389
000280 de e9 58 3e 9a 3f 17 3e aa 0f ec 3e 6c 65 17 3e
       0.21182963 0.14770356 0.461057 0.14784783
000290 59 25 f2 3d 14 9c 01 3e 2d 23 21 3d a9 e5 1b 3e
       0.1182353 0.12657195 0.039340187 0.15224327
0002a0 05 2e 73 3e f7 ec 0d 3f a1 46 12 3e f2 45 e5 3e
       0.23748024 0.55439705 0.14284755 0.44779927
0002b0 23 5d 19 3e 04 65 23 3e d4 9c ea 3d 0a b9 65 3e
       0.14976935 0.15956503 0.11455694 0.22433868
0002c0 98 d0 2e 3e d2 4d 09 3e 92 a7 ac 3d ae a1 09 3f
       0.1707176 0.13408592 0.08430399 0.5376233
0002d0 2d 1d 5a 3e a5 fa df 3c 17 20 3a 3e 6c 79 13 3e
       0.21300192 0.027341196 0.18176304 0.14401788
0002e0 dd 94 20 3e d3 13 09 3e e6 54 10 3e fa df 21 3e
       0.15681787 0.13386469 0.14094886 0.15808097
0002f0 94 42 46 3e 62 4b 47 3e e4 a8 e3 3d ff 35 db 3d
       0.19361335 0.1946235 0.11116198 0.10703658
000300 e4 37 cc 3d 80 3b 4c 3e 41 29 34 3e a1 6d 24 3e
       0.09971598 0.19944572 0.17593862 0.16057445
000310 47 4e 26 3e 9d 31 01 be db 29 03 3e 2a 30 5f 3e
       0.16240798 -0.12616582 0.12808935 0.21795717
000320 ab 6e 01 3e 1a 8a 8d 3d 1e 6e f6 3d fb a1 ff 3d
       0.12639873 0.069111064 0.12032722 0.12482067
000330 2d da 8a 3e 2a 32 7a 3d 08 ea 44 3e 56 7b 7d 3e
       0.2711958 0.061082996 0.19229901 0.2475408
000340 35 22 2c 3e e8 84 4b 3e 08 74 20 3e 4f 16 84 3e
       0.16809924 0.19874918 0.15669262 0.2579827
000350 ef da 99 3e 46 fb 30 3e ba 2d bf 3d 7b 11 b1 3d
       0.30049846 0.17283353 0.093348935 0.08645912
000360 b8 b3 21 3e 1a de 36 3e 25 4b 2f 3e c1 98 2a 3e
       0.15791214 0.17858163 0.17118509 0.16659833
000370 1c f8 32 3e b8 69 32 3e 47 7f 90 3e 66 0d ff 3d
       0.17477459 0.17423141 0.28222105 0.124537274
000380 6e 7a ff 3d 30 a0 cb 3d 3a 3b 3c 3e 6a 6f bc 3d
       0.124745235 0.09942663 0.18381968 0.09200938
000390 b4 a5 01 3e 1c d9 cb 3d 2c 71 32 3e 12 e9 1d 3e
       0.12660867 0.0995352 0.17425984 0.1542094
0003a0 84 79 c5 3d b5 0b 38 3e f4 35 e9 3d 45 87 fe 3d
       0.09642318 0.17973216 0.11387244 0.12428144
0003b0 92 ec d2 3d d2 be 4b 3e 98 ac 6f 3e f0 73 d2 3d
       0.102990285 0.19897011 0.23405683 0.102760196
0003c0 15 a1 12 3e ce bd 3a 3e 6e e0 1e 3e a9 c5 d7 3d
       0.1431926 0.18236467 0.155153 0.105357476
0003d0 c8 5c 69 3d ce a7 14 3e 05 c1 23 3e 9a c1 29 3e
       0.05697325 0.14517137 0.159916 0.1657776
0003e0 66 42 17 3e 43 20 fc 3d dd e7 64 3e c3 97 34 3e
       0.14771423 0.12310841 0.22354074 0.17636018
0003f0 52 fe 5b 3e eb df 40 3e 74 77 48 3e 18 17 00 3e
       0.21483734 0.18835418 0.19576818 0.1250881

net.2.bias f4 [256]
000000 54 93 c2 3c 82 a7 1a 3d 89 dc 71 3c 05 0b 49 3d
       0.023751892 0.037757404 0.014762052 0.049082775
000010 cd d8 5c 3d 76 50 35 3d da 30 d1 3c c8 0f 1e 3d
       0.053917695 0.044266187 0.02553599 0.03858927
000020 f2 d8 10 3d 25 e1 52 3d 91 bf c7 3c c2 3a 33 3d
       0.035363145 0.051484246 0.024383338 0.043757208
000030 9f 3c 91 3b 97 c2 8b 3d 59 3f c7 3c c3 3f 69 3d
       0.0044322754 0.068242244 0.024322199 0.056945574
000040 a9 98 2e 3c 3a 65 82 3d c4 ad 93 3d c7 c3 bc 3c
       0.010656514 0.06366964 0.072108775 0.023042573
000050 fd 91 4c 3d 3e ca 3a 3c 5d f4 91 bd 79 20 dd 3b
       0.049943913 0.011400757 -0.07126687 0.006748256
000060 55 e8 43 3d 43 42 1f 3d 69 b9 c5 3c 18 be 5c 3d
       0.04782899 0.03888155 0.024136262 0.053892225
000070 ea a1 35 3d 3d 45 06 bf 9f a4 d3 3c f8 dc 14 3d
       0.044343866 -0.524494 0.025835333 0.036343545
000080 f6 f1 06 3d 66 12 5d 3d ce ba 51 3d 53 00 1a 3d
       0.032945596 0.053972624 0.05120354 0.037597965
000090 db 72 58 3c b3 6b a0 3c cd dd 96 3d 13 77 b8 3d
       0.013210977 0.019582605 0.07366524 0.090070866
0000a0 26 74 32 3d 9a ea 0e 3d a8 69 ae 3d 94 34 85 3d
       0.0435678 0.034891702 0.08516246 0.06504169
0000b0 22 d5 44 3c 46 0b 22 3d 6e 03 61 3d 6c dc 3b 3d
       0.012013705 0.039561532 0.05493491 0.045864508
0000c0 3c 9a 22 3d 21 f6 47 3d 67 16 af 3c 67 09 80 3d
       0.03969787 0.04881871 0.021372987 0.06251793
0000d0 ef 27 a4 3b 08 b6 19 3e 23 45 1f 3d 0c 75 a5 3c
       0.0050096433 0.15010846 0.038884293 0.020197414
0000e0 6d 4c 5a 3d f4 c9 58 3d d8 5a f5 3c 5e 7e 9f 3d
       0.05329554 0.052926973 0.029950544 0.077877745
0000f0 f2 98 8d 3c b2 0d 09 3d a6 07 df 3c c0 20 0b 3d
       0.017284844 0.033460326 0.027225327 0.03396678
000100 56 9e 39 3d ab 0d 5c bd 81 5b c9 3c 90 18 8e 3c
       0.045317017 -0.053723972 0.024579765 0.017345697
000110 4d 82 00 3d a9 f8 1e 3d cd 4e 05 3d 4e 65 13 3e
       0.031374265 0.03881136 0.032545853 0.14394113
000120 2d 4f 63 3d 86 c5 7c 3d c7 8d 1b 3d a7 f6 02 3e
       0.05549543 0.06171181 0.037977006 0.12789403
000130 84 5e 18 3d a7 66 03 3d 2d 8a 20 3d e2 fb bd 3c
       0.037199512 0.03208032 0.039194275 0.023191396
000140 d5 7d 57 3c f9 de 8e 3c 2a 7d 17 3d 5c 54 0a 3d
       0.013152559 0.017440306 0.0369846 0.033771858
000150 f8 af 17 3d 67 f0 5e 3d f9 42 1f 3d db 51 5e 3c
       0.03703305 0.054428484 0.03888223 0.013569321
000160 cf 80 6b 3d 2a 0f 2c 3c 1c d8 a5 3b cf a8 0b 3e
       0.05749589 0.010501662 0.0050611626 0.13638614
000170 8c 2e 3f 3d 5f 64 06 3e 4f 24 05 3d ec de ef 3c
       0.04667525 0.13124226 0.03250533 0.029281102
000180 8b 5a 08 3d de 5d 01 bf 38 92 93 3d c3 f9 77 3d
       0.033289474 -0.50533855 0.072056234 0.060540926
000190 05 58 7a 3d 83 90 68 3d 94 27 40 3c 7e 38 8d 3d
       0.0611191 0.056778442 0.011728186 0.06895541
0001a0 33 5b 1f 3e e7 94 cd 3c 4a 59 36 3d 1f d5 09 3d
       0.15562133 0.025095416 0.044518746 0.033650514
0001b0 ef e9 86 3d 87 f7 3c 3d 99 49 f3 3c da 40 1a 3d
       0.06587588 0.046134498 0.02969818 0.037659504
0001c0 5f d4 96 3c 7f 03 74 3d e1 e9 9c 3c b4 cd 42 bd
       0.018411813 0.059573647 0.01915449 -0.047559455
0001d0 8f b0 11 3e 28 f7 fc 3c 89 10 fa 3c a4 63 11 3d
       0.14227508 0.030879572 0.030525463 0.035495415
0001e0 f0 d9 8c 3d 26 c7 4d 3d a0 bc b8 3c c8 2c 9f 3c
       0.06877506 0.05023875 0.02255088 0.019430533
0001f0 15 23 4a 3d 04 e8 08 bf 58 94 41 3d 14 6a 8c 3c
       0.049349863 -0.5347903 0.047260612 0.017140426
000200 07 99 11 3d 16 b2 fd 3c 03 cf 66 3c d1 74 d8 3c
       0.03554633 0.030968707 0.014087441 0.02642289
000210 52 f5 11 3d 39 0c 13 3d 69 d1 d1 3c e3 de 0c 3d
       0.035634346 0.03590033 0.02561255 0.03439225
000220 98 03 14 3d 0b ef 85 3d fd 23 24 3d 6b 63 27 3d
       0.03613624 0.065397345 0.040073384 0.040866297
000230 c7 a6 21 3d 0f 61 62 3c f9 b6 48 bb 34 a9 d3 3b
       0.039465692 0.013817086 -0.0030626638 0.0064593796
000240 2e f3 03 bf de 03 11 3d 10 c5 9e 3c 98 4a 63 3c
       -0.5154294 0.03540408 0.019381076 0.013872765
000250 42 05 03 3d 7f 0f 4c 3d 7a c6 1c 3d a9 80 e0 3c
       0.031987436 0.049819466 0.03827522 0.0274051
000260 91 27 90 3c aa 00 12 3e 6a d3 c0 3c d7 5c 21 3d
       0.017596992 0.14258066 0.02353831 0.03939518
000270 c8 be a3 3c bd b0 c9 3b f9 95 c3 3c e4 03 39 3d
       0.019988433 0.006155102 0.023875223 0.045169726
000280 8a 81 46 3d dd 19 f3 3c 52 09 05 3e 2a 3b ab 3c
       0.04846338 0.029675419 0.12991837 0.020902235
000290 0e 5c c9 3c e3 91 0b 3d f7 48 8c bd f8 27 06 3d
       0.024580028 0.034074675 -0.068498544 0.03275296
0002a0 3a a0 6e 3d df af 14 3e ff 35 e8 3c 67 f5 fa 3d
       0.058258273 0.14520214 0.02834606 0.12253838
0002b0 d4 8e 9f 3c 36 83 2c 3d 1a a4 96 3c 99 f8 09 3d
       0.019477285 0.04211732 0.018388797 0.033684347
0002c0 f3 2c 1b 3d f0 2d 75 b9 27 7a 37 3c a2 85 0f 3e
       0.037884664 -0.00023382134 0.011198557 0.1401582
0002d0 45 ba 0c 3d be 72 9a bd ca 47 49 3d 7d 3a b5 3c
       0.034357328 -0.075414166 0.04914073 0.022122616
0002e0 5f 3d c1 3c b6 46 be 3c 46 dc 20 3d 49 a3 8e 3c
       0.023588834 0.023227077 0.03927257 0.017411845
0002f0 71 5e 3b 3d fa 38 44 3d 12 3c 2e 3c ff b6 4c 3c
       0.045744363 0.0479059 0.010634439 0.012494802
000300 d0 6a 4d 3c f4 7e 28 3d 6d 40 0e 3d fd 23 04 bf
       0.012537673 0.041136697 0.03472941 -0.51617414
000310 85 a8 e5 3c ad 05 e6 bc ae 60 e6 3b 76 ec 08 3d
       0.028034458 -0.028078878 0.007030568 0.03342863
000320 e2 fe 1a 3d a3 4b 14 ba e3 b5 e6 3c bb f6 c6 3c
       0.03784073 -0.00056570227 0.028162902 0.024287572
000330 05 32 8c 3d 1c 20 fd ba ed 7c 1b 3d 62 76 7f 3d
       0.06845478 -0.0019311938 0.037960935 0.062368758
000340 55 79 3b 3d 9c 46 1b 3d 03 a9 02 bf c6 40 7b 3d
       0.045770008 0.037909135 -0.5103914 0.06134107
000350 a2 d6 87 3d 30 31 c2 3c ad cf c8 3c b0 64 f9 3a
       0.06632735 0.023705095 0.02451309 0.00190272
000360 23 3d 11 3d de dc 12 3d 32 00 f8 3c 81 d6 3a 3d
       0.035458695 0.035855167 0.03027353 0.045614723
000370 b3 24 f5 3c 1f fe 49 3d 05 62 9f 3d bc 16 a4 3c
       0.029924726 0.049314614 0.077823676 0.020030372
000380 a8 22 42 3c ce 3f a0 3c 01 ee 48 3d c2 ff 45 3c
       0.011849083 0.019561674 0.049055103 0.012084903
000390 0a 6e 95 3c 9b bc 60 3b d8 46 0c 3d c0 98 fd 3c
       0.018240947 0.0034292105 0.03424725 0.030956626
0003a0 49 94 30 3c 1e d1 49 3d 6f 35 42 3c 9b 8c 21 3d
       0.010777541 0.049271695 0.01185356 0.039440732
0003b0 4a 03 ce 3c 24 f9 51 3d bc fa 5e 3d 14 b4 ac 3c
       0.025148053 0.05126299 0.054438338 0.021081962
0003c0 e6 ba 39 3c 89 73 16 3d e0 e6 01 bf 91 82 94 3c
       0.011336064 0.036731277 -0.5074291 0.018128665
0003d0 ee e2 19 bc b2 f7 d9 3c 5a e3 ba 3c 3e 10 07 3d
       -0.009392483 0.026607368 0.022813488 0.032974474
0003e0 44 45 21 3d ac 04 0f bc 6d 82 35 3d 88 ee 27 3d
       0.039372697 -0.008729141 0.044313837 0.040998966
0003f0 57 09 3c 3d 3e ee 29 3d 31 f8 30 3d 4a 60 17 3b
       0.045907345 0.04148697 0.043205444 0.0023098164

net.4.weight f4 [256, 256]
000000 29 67 09 bb 1d 0d fe 3a 8c 35 f2 ba f1 67 37 3b
       -0.002096603 0.001938257 -0.0018479093 0.0027985538
000010 1a 23 1b 3c 69 dd c2 3b de 83 04 bc c4 77 ea bb
       0.009468818 0.0059468043 -0.00808808 -0.0071553905
000020 9d 61 8e bb 06 2d 52 bc a7 06 8b 3b 18 f4 51 bb
       -0.0043451325 -0.012828117 0.0042427364 -0.003203636
000030 72 56 69 3b e0 38 ae 3c 62 c3 61 bc 6b 59 2f 3b
       0.0035604504 0.021267354 -0.013779493 0.0026756178
000040 a6 3c 2f 3b dd 0a 3d bc 19 83 11 bb 10 42 9b bb
       0.002673903 -0.011538235 -0.0022203384 -0.0047381
000050 9e 5e 77 3b 12 e7 50 bb 19 c9 fe bb 63 4c 6e 3c
       0.0037745605 -0.003187601 -0.0077754376 0.014544579
000060 ef db 08 bc 85 b5 a1 bb 78 c1 35 3c f0 0f ef 3b
       -0.0083532175 -0.004934969 0.01109349 0.007295601
000070 29 8e d9 3b 33 13 85 3c 2e c8 82 3b 2c e8 93 bb
       0.0066392613 0.016244506 0.0039911484 -0.004513761
000080 5b 44 1c 3c 73 9c bb 3b f5 0c 3d 3b 13 74 04 3b
       0.009537782 0.0057254373 0.0028846834 0.0020210787
000090 d0 39 69 3b 51 36 ba ba e7 d8 09 3c 40 2c 30 3c
       0.0035587437 -0.0014206861 0.00841353 0.0107527375
0000a0 e9 ae 0e 3c 10 30 31 bc 07 11 92 3c db c9 a4 3a
       0.008708694 -0.010814682 0.017830385 0.0012572365
0000b0 c2 8d c7 ba e0 70 b1 3b 27 48 d5 bb 5d fd 8f 3b
       -0.0015224742 0.005415067 -0.0065088454 0.004394217
0000c0 48 58 8a bb b6 96 33 3b 93 d9 03 bb 0e 52 96 3b
       -0.0042219497 0.0027403063 -0.0020118698 0.0045874184
0000d0 0f 95 92 3b 95 2f 7e 3b b3 0c 4b bc d4 dd 23 3b
       0.0044733356 0.0038785685 -0.012393164 0.0025004046
0000e0 b4 c6 d3 3b 76 1a 9c bc 9c e6 c0 3b 8a 67 a7 bb
       0.0064628962 -0.019055586 0.005886866 -0.0051087784
0000f0 44 f7 ef bb d6 b6 fc ba b8 71 3e bc f2 ce 25 bc
       -0.0073231775 -0.0019280564 -0.011623792 -0.01012014
000100 a6 71 74 bc da 35 b5 3b f6 03 2d 3c e7 f6 96 3b
       -0.014919674 0.0055301012 0.010560026 0.00460707
000110 e1 32 12 3a 55 29 e5 bb 02 e8 2f bc b3 93 b7 39
       0.00055770396 -0.0069934526 -0.010736467 0.00035014524
000120 09 e2 85 3c 17 45 40 bb 83 0e 4a bc 77 d2 9d 3b
       0.016343134 -0.0029338056 -0.012332561 0.004816349
000130 5b 6e d2 3a 87 34 6d bb e3 44 db 39 05 7b e6 3b
       0.0016054617 -0.0036194639 0.0004182226 0.007033708
000140 54 6e 80 3c b1 a2 21 3c 68 0c d4 3c 2d 4f b2 bc
       0.015677609 0.009865449 0.025884822 -0.02176627
000150 bc 9a 1e 3b b1 13 8d 3b 90 52 65 ba 6b 1c 32 3c
       0.0024201116 0.004305326 -0.00087479595 0.010871033
000160 54 f9 bd 3b 9c bd 9a 3a 7e 7b 5a bb d0 03 ea 3b
       0.0057975445 0.0011805776 -0.0033337767 0.0071415678
000170 05 7d 49 bb 24 ef 7c 3c 5a d3 69 bc b7 f9 2e 3c
       -0.0030744683 0.015437875 -0.014271582 0.010679654
000180 f8 30 45 bc 08 e6 3b 3c 93 ba 3a 3b c6 b7 03 3c
       -0.012035601 0.011468418 0.0028492555 0.0080394205
000190 14 d8 54 3b 42 35 0e 3b 74 70 87 bb 80 bd 11 bb
       0.0032477425 0.0021699225 -0.0041332785 -0.0022238195
0001a0 2b e1 8d 3b a5 85 2c 3c b8 ef 17 3c 29 56 80 bc
       0.0043298206 0.01052991 0.009273462 -0.015666084
0001b0 fe 14 c4 ba 7a dd 95 3a 29 7f 97 ba 95 2b 2a 3c
       -0.001495987 0.0011433803 -0.0011558282 0.010386367
0001c0 8e 23 4e 3c 70 39 d1 bb 57 3e b9 3b fd c1 8f bc
       0.012581719 -0.006385021 0.0056531834 -0.017548556
0001d0 05 dd 37 3c 25 fb 3e 3c d9 1b 00 3c 3a 2a 04 bb
       0.011222129 0.011656557 0.007819139 -0.002016677
0001e0 4e 22 a8 3c 4c 3a 90 3b a1 5b 38 3c 73 8f a1 3b
       0.02052417 0.004401481 0.011252315 0.0049304306
0001f0 98 6b a3 3c a1 37 4c 3c 6f fe 2b 3a 23 10 83 bc
       0.019948766 0.012464435 0.0006561046 -0.015998906
000200 14 52 1d bc c9 f8 92 39 ab 2c 05 bb f4 e4 06 bb
       -0.0096020885 0.0002803265 -0.0020320814 -0.0020583244
000210 55 2b 1e bb 78 69 3c bb a2 d2 06 bc 6b ed 2a bb
       -0.0024134715 -0.0028749388 -0.00822893 -0.0026081454
000220 d4 0c d0 3a 40 fc 46 3b da 72 dc ba ec 6d 4b bb
       0.0015872964 0.0030362755 -0.0016818896 -0.003104086
000230 b3 88 67 bc 28 3d bb 3c bc 0d 26 bc 1c 23 ba bb
       -0.014131713 0.02285631 -0.0101351105 -0.005680455
000240 e8 6d 8d 3c 27 28 a1 3b 4e aa d1 38 ee 4a 35 3b
       0.017264321 0.0049181166 9.997618e-05 0.002766307
000250 d3 f9 b3 bb 97 aa c0 38 46 7f 6c bc d1 a9 dd b9
       -0.005492428 9.187048e-05 -0.014434641 -0.00042278928
000260 c8 ba 47 3b b2 01 ba 3b 09 7e ba 3c 92 fc 66 bc
       0.003047632 0.0056764716 0.022765176 -0.014098303
000270 99 b6 fe bb 31 47 b2 3b c3 8e 12 3c 41 4d 3a 3c
       -0.007773232 0.0054406156 0.00894517 0.011370958
000280 98 96 9f bb a6 85 df 3b eb ac fe bb 33 c1 d0 3b
       -0.004870247 0.006821352 -0.0077720783 0.0063706874
000290 49 39 11 3b 1a d4 97 bc d2 31 13 bb f0 52 cc bb
       0.0022159389 -0.018533755 -0.0022460115 -0.006235473
0002a0 85 00 b5 3b d7 69 83 3c 36 7d 56 3b 60 84 16 3c
       0.0055237436 0.01604168 0.003272844 0.009186834
0002b0 94 fd 95 3b 08 8e 4c bb 8b a6 c4 bb 7f b6 4a bc
       0.004577348 -0.0031212587 -0.006001299 -0.012372612
0002c0 23 76 d5 3b 22 ab c4 ba 2f 4a 36 ba 4d 5b 5a 3c
       0.006514327 -0.0015004615 -0.0006953803 0.013327432
0002d0 45 aa b6 3b 6e 83 15 3c 46 ec c4 bb 2c 1d aa 3b
       0.005574497 0.009125574 -0.0060096113 0.005191466
0002e0 44 4f 27 3c 9b ab 63 bb 6b 8b 0f 3c e8 d3 f0 3c
       0.0102117695 -0.0034739736 0.008761267 0.02939792
0002f0 bf 25 f0 bb 47 a4 87 3c a2 fd 5b 3c 14 c0 23 3c
       -0.0073287184 0.016557826 0.01342717 0.009994525
000300 66 12 63 3b 4b a7 3b 3c 1e 47 c0 bb 37 39 33 3b
       0.0034648417 0.01145346 -0.005867853 0.0027347335
000310 55 96 b9 3b f2 56 e7 ba de b9 45 bc 63 4f 9e bc
       0.005663673 -0.0017649813 -0.01206824 -0.019324964
000320 98 6b fd bb 72 87 07 3b 0d 9f 40 bb ac 9c 6c 3b
       -0.0077337734 0.0020680097 -0.0029391677 0.0036104126
000330 03 9d 34 bc 78 58 d0 ba 32 a2 bb 3b 7d e7 06 bc
       -0.011023763 -0.0015895506 0.0057261223 -0.008233902
000340 f2 96 a8 bb ce 7a ba 3b 38 8e 21 3c 02 3a c1 3b
       -0.005144947 0.005690909 0.009860568 0.0058968076
000350 8b 3a d4 3b 61 b2 f0 3c 3d d9 db 3b 95 47 02 bc
       0.0064767054 0.029381933 0.0067092464 -0.007951637
000360 5a 0f e0 3b 13 ab 85 3b 8a 30 52 3a cd 88 b3 bb
       0.0068377675 0.0040792315 0.0008018097 -0.0054789544
000370 89 5d 4f bc 48 74 3b 3b da 9a e1 3a 8c 69 da 3b
       -0.012656578 0.0028603245 0.0017212287 0.006665414
000380 a7 2c fc bb 2f 2f a3 3b 03 22 ac b7 6b 19 d7 3a
       -0.0076957527 0.00497999 -2.0519836e-05 0.0016410773
000390 f7 b5 0e bc c1 6a 32 3c 14 cc e2 3b 69 6b 18 bb
       -0.008710376 0.01088971 0.0069213007 -0.002325738
0003a0 7f ec 08 3c 56 ea b0 bb a2 91 a8 3a 3b e7 06 3c
       0.008357166 -0.005399029 0.0012860785 0.008233841
0003b0 8f ec 94 bb 26 64 5c bc 0e d0 af ba ed f6 f1 ba
       -0.0045448015 -0.013451612 -0.0013413446 -0.001846043
0003c0 76 ba 9f 3b dc 08 8e ba 9c 69 b1 3c 0e 88 94 3b
       0.004874523 -0.001083638 0.021656804 0.0045328205
0003d0 83 15 b9 3c 28 83 c5 bc cf 2d 37 3c 5b 6c 08 3c
       0.022593265 -0.024110392 0.011180355 0.008326615
0003e0 14 1b 4f 3a 19 1e 2a 3b f0 50 33 bc 16 d4 57 ba
       0.00079004583 0.002595788 -0.01094459 -0.00082332024
0003f0 f4 3b ae 3c 79 a4 ea 3b 8c 90 c3 bb e0 d0 02 bc
       0.021268822 0.00716072 -0.005968159 -0.00798437

net.4.bias f4 [256]
000000 e0 5e 6f bd 05 a4 84 bd 47 99 ba bd ae 31 aa bc
       -0.05844009 -0.06476597 -0.091112666 -0.020775642
000010 3c 7c 5b bd 60 56 04 be 12 b2 9f bd d1 62 b3 bd
       -0.053585276 -0.12923574 -0.07797636 -0.08759082
000020 11 a3 4d bd 5b 7a 85 bd 6c 59 ee bd e5 65 92 bd
       -0.05020434 -0.06517478 -0.116381496 -0.07148341
000030 74 f4 39 bd a3 ff cd bd 5a 7d 83 bd 07 1b e5 bd
       -0.045399144 -0.100585245 -0.06420393 -0.11186796
000040 49 c7 21 be b2 16 e0 bd 6e 80 16 be 4b 79 9f bd
       -0.15798678 -0.10941829 -0.1469743 -0.07786807
000050 40 e5 c7 bd 98 c3 07 be d4 c0 10 be c0 c3 3b bd
       -0.09760523 -0.13258207 -0.14136058 -0.04584098
000060 20 92 74 ba b6 71 e9 bc 2c 89 aa bd fe 44 05 be
       -0.00093296356 -0.028496604 -0.08326945 -0.130146
000070 64 1c fc bd ff 32 a2 bd af a8 a6 bd b2 8f f6 bd
       -0.123101026 -0.07919883 -0.081376426 -0.120391265
000080 50 d3 12 bd ab 4d f9 bc 3e ba 9d bd 04 ad d1 bd
       -0.035846055 -0.030432543 -0.077015385 -0.10238078
000090 65 87 7b b0 ec 6d b3 bb 66 bc f6 bd 8c 6d 04 be
       -9.1505675e-10 -0.00547575 -0.12047653 -0.12932414
0000a0 d6 c4 ae bd 19 43 c1 bd c3 99 4d bd d2 64 d2 bc
       -0.08533637 -0.09436626 -0.050195467 -0.02568284
0000b0 74 6e e6 bd 05 d7 83 bd c9 3d 53 bd 08 ea a9 bd
       -0.11251536 -0.06437496 -0.051572595 -0.08296591
0000c0 e1 77 59 bd 96 74 ad bd c4 22 24 bd 10 fe 70 a0
       -0.05309284 -0.08469503 -0.040072218 -2.0412853e-19
0000d0 21 31 c1 bd d4 da d2 bd 9a 83 47 be a0 cd d8 bd
       -0.09433199 -0.102956444 -0.19483796 -0.10586095
0000e0 96 5d a7 bd 0f 99 8b 3c 65 b8 e7 bd 38 82 ac bd
       -0.08172147 0.017040757 -0.11314467 -0.08423275
0000f0 ea e1 49 bd 7c 13 ba bd e9 3f 89 bd 75 a3 b4 bd
       -0.049287714 -0.090857476 -0.06701643 -0.088202395
000100 a8 f4 5d bd e4 14 f5 bd 1d c2 c6 bd 76 8c ea bd
       -0.0541884 -0.11966875 -0.09704993 -0.11452572
000110 d6 75 d2 bd 1d 43 40 bd ac f7 b7 bd 05 91 d4 bd
       -0.10276382 -0.046939004 -0.089827865 -0.10379223
000120 1c 5a ae bd 17 66 a3 bd e2 08 09 bd 37 7e ea bd
       -0.08513281 -0.079784565 -0.033455737 -0.11449855
000130 53 26 93 bd 15 cf 23 bd 29 4d 65 bd c1 b8 b4 bd
       -0.07185044 -0.03999241 -0.05598179 -0.088243015
000140 6c 0f 04 be 87 3d 8e bd 45 f8 bf bd 24 db 3c be
       -0.12896508 -0.06945329 -0.093735255 -0.1844297
000150 ae 36 84 bd 23 a3 c0 bc 3f ef ab bd cd 96 f4 bd
       -0.06455742 -0.02351529 -0.08395242 -0.119428255
000160 21 b0 bf bd b3 4e 4e bd fa 5e 0d bd 44 7e 01 be
       -0.09359766 -0.050368022 -0.034514405 -0.12645823
000170 ad 1c 87 bd 74 ec a1 bd cb 77 4b bd 80 4e 9e bd
       -0.06597266 -0.07906428 -0.04967479 -0.077298164
000180 89 62 e3 bd 4c 14 ae bb 9d 87 6b bd ac bd 99 bd
       -0.111027785 -0.005312478 -0.057502378 -0.0750688
000190 e3 c1 5c bd 39 8d 04 bd e4 aa 24 bd d9 11 d5 bd
       -0.053895842 -0.032361243 -0.040202036 -0.10403795
0001a0 32 30 14 be 43 9a 0e bc 7d ea b8 bd f5 d7 8a bd
       -0.1447151 -0.008703771 -0.090291 -0.06779472
0001b0 6e 2a e4 bd 11 fd 8b bd 62 21 d3 3b 22 20 bb bd
       -0.11140905 -0.06835378 0.0064431885 -0.09136988
0001c0 ce dd b0 bd f1 ac 04 be cb e2 71 bd 79 00 5e bd
       -0.08636056 -0.12956597 -0.059054177 -0.05419967
0001d0 83 dd 9e bb ee 3b 85 bd dd 2c b9 bd 43 d2 7a bd
       -0.0048481836 -0.06505571 -0.0904176 -0.061235677
0001e0 3f 04 db bd 5d 39 ab bc 4b be 9a bd ea 82 82 bd
       -0.10694169 -0.020901376 -0.07555827 -0.06372626
0001f0 69 a7 22 bd 6e 0b 99 bd 0f eb c8 bd 16 94 98 bd
       -0.039710436 -0.07472883 -0.09810459 -0.0745012
000200 92 7a f8 bd 18 7b eb bd ad 93 97 bd c3 3b ba bc
       -0.121327534 -0.11498088 -0.07401214 -0.022733575
000210 b1 72 ce bd 34 3d 0b be c6 3d 14 bd c5 65 01 be
       -0.100804694 -0.13597566 -0.036191724 -0.12636478
000220 75 cd b8 bd d1 5d dd bd c4 23 92 bd 1b 03 88 bd
       -0.09023563 -0.1080891 -0.07135728 -0.06641217
000230 b6 09 f1 bd eb f7 68 bd ca 37 a7 bd 1a 5a 17 be
       -0.1176943 -0.056877058 -0.08164938 -0.14780465
000240 7d cc f8 bd 3e a7 a0 bd 9a fe 29 bd 46 a7 b6 bd
       -0.12148378 -0.07844399 -0.041502573 -0.089186236
000250 34 2c 19 be 4e 86 2a be fd 02 14 be 99 3c 91 bd
       -0.14958268 -0.16652796 -0.14454265 -0.07091636
000260 05 73 56 bd d6 a9 84 bd 00 3b ca bd 2f 65 35 be
       -0.052355785 -0.06477706 -0.098745346 -0.1771438
000270 af 31 b4 bd 56 63 04 bd 19 9e e2 bd 45 31 d3 bb
       -0.08798539 -0.032321297 -0.11065311 -0.0064450824
000280 7f 48 aa bd 04 29 4b bd 20 73 5f bd d4 dc 7e bd
       -0.08314609 -0.049599662 -0.05455315 -0.062222317
000290 70 cd c0 bd 62 14 d3 bd 5d f7 c6 bd 5d c6 02 be
       -0.09414184 -0.10306622 -0.097151496 -0.12770982
0002a0 7a aa 8e bd 5a eb b2 bc 60 36 d2 bd 40 6a d0 bd
       -0.069661096 -0.02184074 -0.102642775 -0.101765156
0002b0 a8 4b bd bd 8b 06 93 bd 91 db 05 be 40 cc fd bc
       -0.09242946 -0.07178982 -0.13072039 -0.030981183
0002c0 c5 4a a5 bd 20 c1 78 bd 69 21 a5 bd 8f 81 7f bd
       -0.08070902 -0.060731053 -0.08063013 -0.062379416
0002d0 57 60 7b 3b e7 87 55 bd e2 ea a1 bd 38 50 1f bd
       0.0038356984 -0.05213156 -0.079061285 -0.038894862
0002e0 74 be 77 bd b7 5e 16 be 4b b8 d6 bd f5 a1 dc bd
       -0.060484365 -0.14684568 -0.1048437 -0.10773078
0002f0 44 b6 fe bd 54 b1 b4 bd d3 e5 f1 bd bf b2 84 ba
       -0.12437108 -0.08822885 -0.118114136 -0.0010124071
000300 7e e6 6f bd 92 27 23 be d0 69 71 bd ce d5 d0 bd
       -0.058569424 -0.15933064 -0.0589388 -0.1019703
000310 35 08 18 bd 91 e1 c4 bd fe 2a af bd 27 b4 0c be
       -0.0371172 -0.09613336 -0.08553122 -0.13740598
000320 53 37 74 bd 42 c2 21 bd 7e 6e 93 bd e7 ab 9b bd
       -0.059623074 -0.0394919 -0.07198809 -0.07601147
000330 6d d7 90 bd 13 fe 88 bd c9 87 2c bd 0d 24 27 be
       -0.07072339 -0.06689086 -0.042121682 -0.16322346
000340 c6 9a 27 bd db d0 cf bd ea fd 92 bd 39 44 88 bd
       -0.040919088 -0.10147258 -0.071773365 -0.066536374
000350 66 2c 7f bd 19 c5 88 bd f1 30 5c bd a1 f1 97 bc
       -0.0622982 -0.066782184 -0.05375761 -0.018547835
000360 18 99 76 bd 26 2d 46 bd 52 6e 13 be 85 d5 bf bd
       -0.060204595 -0.0483829 -0.14397553 -0.093668975
000370 09 a3 d4 bd b1 08 d5 bd e4 a1 07 be 42 14 10 be
       -0.10382659 -0.104020484 -0.1324535 -0.14070228
000380 65 51 9a bd 67 09 44 bd 2f f1 85 bd 8f b3 b1 bc
       -0.07535056 -0.04786053 -0.06540143 -0.021692066
000390 a7 67 6a bd 89 9d f9 bd fb 11 f6 bd 3b f2 15 bd
       -0.057227757 -0.121882506 -0.12015148 -0.036607962
0003a0 46 4d e7 bb 6b 46 db bd e5 82 bb bd ce 59 aa bd
       -0.0070587723 -0.107067905 -0.091558255 -0.0831791
0003b0 34 85 a3 bd 2c f0 4b bc 30 5e 8f bd 2a ab ac bd
       -0.07984391 -0.012447398 -0.07000387 -0.084310845
0003c0 c4 56 c2 bd e0 e5 3c bd 55 1f df bd 56 4b f4 bd
       -0.094892055 -0.046117663 -0.10894648 -0.11928432
0003d0 d5 4c b8 bd d6 d4 1d be 9f 85 c5 bd d2 3a f2 bd
       -0.089990295 -0.15413222 -0.09644627 -0.11827625
0003e0 ba c1 a8 bd 00 cc ae bd 2d c1 88 bd e2 6e 40 be
       -0.082400754 -0.08535004 -0.0667747 -0.18792298
0003f0 39 ae 0c be b1 b9 ed bd 56 29 88 bd 8a 04 01 bd
       -0.13738336 -0.116076834 -0.06648509 -0.03149847

net.6.weight f4 [256]
000000 4b e2 e1 3e e2 8e b7 3e 85 8c 53 3e 1f 4f 6e 3e
       0.4411796 0.35851198 0.20659073 0.2327237
000010 d9 f5 a7 3e 52 45 f4 3e ee 2b 94 3e 91 03 8d 3e
       0.32804754 0.47709137 0.28939766 0.27541783
000020 16 fb 96 3e 46 a7 9e 3e b6 84 94 3e 8f d4 93 3e
       0.29488438 0.30986995 0.290075 0.28873107
000030 08 65 e4 3e 63 7d aa 3e 82 d5 95 3e a4 ae b0 3e
       0.4460833 0.33298787 0.29264456 0.3450824
000040 6d ac ea 3e a5 60 9f 3e 2e e9 07 3f fb f3 85 3e
       0.45834675 0.3112842 0.5309018 0.26162705
000050 70 19 a0 3e 54 fb fb 3e 2e 19 e2 3e 6b 96 b9 3e
       0.31269407 0.49215186 0.44159836 0.36247572
000060 73 99 f3 3e 3f 16 a6 3e 00 d6 82 3e e3 a9 0a 3f
       0.4757801 0.32438847 0.25553894 0.54165477
000070 5b 31 8b 3e a3 ea 9e 3e 04 c7 8c 3e 43 53 f3 3e
       0.27186093 0.3103839 0.27495587 0.4752446
000080 af 03 9b 3e 7e 1a a5 3e 9b 19 91 3e 52 a7 e3 3e
       0.30276248 0.32246774 0.28339848 0.44463593
000090 77 62 f0 3e a9 c4 9d 3e b9 34 cd 3e 73 23 ad 3e
       0.46950123 0.30814102 0.40079287 0.33816108
0000a0 9b 9c a0 3e d9 04 e7 3e 59 b3 94 3e 6e 3f 95 3e
       0.3136948 0.45120886 0.2904308 0.29149956
0000b0 d0 c7 b0 3e ec 68 82 3e f5 12 97 3e 7c f2 f9 3e
       0.34527445 0.25470674 0.2950665 0.48817813
0000c0 58 e3 b2 3e 12 c4 9e 3e 97 c9 e5 3e 81 2a d7 3e
       0.34939075 0.31008965 0.44880363 0.42024615
0000d0 84 ef 3c 3e 3f 6c 8b 3e 72 d2 12 3f 57 86 de 3e
       0.18450743 0.27231023 0.57352364 0.43461868
0000e0 1c ed 92 3e b6 3b 3c 3d 9e ac a9 3e 9c 72 86 3e
       0.28696525 0.045955382 0.3313951 0.26259315
0000f0 50 52 87 3e a5 66 a1 3e d9 11 91 3e 78 8a 87 3e
       0.26429987 0.31523624 0.2833393 0.2647283
000100 22 a4 b8 3e 41 6c a1 3e 54 ec 91 3e 95 ee 88 be
       0.36062723 0.31527904 0.28500617 -0.26744524
000110 78 a0 b7 3e 2d c1 fa 3e 06 53 e4 3e 4b 22 e6 3e
       0.35864615 0.48975506 0.44594592 0.44948038
000120 bf 21 a7 3e d7 b8 dc 3e 04 7d f1 3e 4f c3 f9 3e
       0.32642934 0.43109772 0.47165692 0.4878182
000130 e4 1b 70 3e 3e f0 8f 3e 8f 7d 9a 3e 7b 72 98 3e
       0.2344814 0.28112978 0.3017392 0.29774842
000140 fb 5e e4 3e 4a c9 3d 3e b3 42 85 3e 09 65 da 3e
       0.44603714 0.18533817 0.2602745 0.4265521
000150 df 8e a0 3e 4b bf f3 3e 86 b4 a2 3e c0 5d 0a 3f
       0.31359002 0.47606882 0.31778353 0.540493
000160 28 78 b5 3e 93 5f 01 3f 95 74 8a 3e 75 f3 0a 3f
       0.35443234 0.5053646 0.2704207 0.54277736
000170 78 da a3 3e 70 1a 8b 3e 7f 46 58 3e 06 f0 85 3e
       0.32002616 0.27168608 0.21120642 0.26159686
000180 b1 df aa 3e 9b 88 8e 3e fe a5 99 3e 83 c8 c2 3e
       0.33373788 0.27838597 0.30009454 0.38043603
000190 0d 8f 91 3e 98 2e 67 3e 47 69 b7 3e 0f bd e6 3e
       0.28429452 0.22576368 0.35822508 0.45066115
0001a0 e3 e8 01 3f b7 2a 0a 3e 29 c7 a1 3e 51 26 df 3e
       0.5074598 0.13492857 0.3159726 0.4358392
0001b0 1a 8c d1 3e 04 10 94 3e de 4b 93 3e 18 ab c2 3e
       0.40927202 0.2891847 0.2876882 0.3802116
0001c0 2d 58 a3 3e 10 12 f9 3e 48 49 86 3e 5f f4 7d 3e
       0.3190321 0.48646593 0.26227784 0.24800251
0001d0 bc e7 92 3e d7 6c cb 3e 77 44 8c 3e 18 f0 90 3e
       0.28692424 0.39731476 0.27395985 0.28308177
0001e0 35 cd aa 3e 8e 35 88 3e 89 de ab 3e 5f 9f 89 3e
       0.33359686 0.2660336 0.33568218 0.26879403
0001f0 46 f9 8e 3e 14 2c b3 3e 4a b1 ee 3e 3a 92 97 3e
       0.27924556 0.34994566 0.46619636 0.2960375
000200 a6 3e d4 3e 1a b8 a3 3e e0 4d ee 3e 5e 24 82 3e
       0.41454047 0.31976396 0.4654379 0.2541837
000210 dc e0 ad 3e 6c 38 e1 3e 27 fa 7d 3e 7e 50 d4 3e
       0.33960617 0.4398836 0.24802457 0.4146766
000220 c0 f3 9c 3e 59 12 7a 3e a3 e1 c6 3e 08 ec bb 3e
       0.30654716 0.24421062 0.38844022 0.36703515
000230 0c d9 f1 3e b8 b5 e0 3e 89 bf 94 3e 63 74 bd 3e
       0.47235906 0.4388864 0.2905238 0.3700286
000240 19 79 bb 3e 0a 53 74 3e 1d 1f 81 3e 86 d6 5c 3e
       0.36615828 0.23859802 0.2521905 0.21566209
000250 de 98 08 3f 2a 4a 08 3f d4 2b fc 3e 3d 7e 86 3e
       0.53358257 0.53238165 0.49252188 0.26268187
000260 4f 53 eb 3e 3c 55 aa 3e 50 17 eb 3e 00 83 84 3e
       0.45961997 0.33268154 0.45916224 0.25881195
000270 c4 f8 8c 3e 6e 17 9a 3e 78 d0 85 3e d9 54 11 3e
       0.27533543 0.30096 0.26135612 0.14192523
000280 bd 13 82 3e db 69 90 3e a4 f8 86 3e b2 40 b7 3e
       0.25405684 0.2820576 0.26361573 0.35791546
000290 38 77 6d 3e 23 8d 97 3e 1f d5 a0 3e 97 91 04 3f
       0.2319001 0.29599866 0.31412598 0.5178465
0002a0 a9 4a 7c 3e 1b fa 9a 3e 13 64 db 3e 7e 16 a1 3e
       0.24637856 0.3026894 0.42849788 0.31462473
0002b0 55 eb c5 3e 6c c7 92 3e be 5a b4 3e fa 88 96 3e
       0.38656107 0.28667772 0.3522548 0.2940138
0002c0 8d c8 89 3e 4f 6e a9 3e a0 fc db 3e 52 d0 e2 3e
       0.2691082 0.3309197 0.42966175 0.4429956
0002d0 50 95 d4 3d ab a8 a4 3e 99 9e f9 3e 8c e2 9e 3e
       0.103800416 0.32159933 0.48753813 0.31032217
0002e0 8f 9e de 3e 3e ec 07 3f 50 2d e4 3e ad 03 86 3e
       0.43480346 0.5309485 0.4456582 0.2617468
0002f0 04 12 fe 3e da 3a ce 3e 59 1b 83 3e bb 09 02 3e
       0.4962312 0.40279275 0.25606802 0.12699024
000300 cb bf fb 3e 36 8a d3 3e 07 82 d1 3e 35 92 75 3e
       0.49169764 0.41316384 0.40919515 0.23981555
000310 85 b4 a2 3e 8d 1a ad 3e bb e1 a8 3e b8 7d 90 3e
       0.3177835 0.3380932 0.3298472 0.28220916
000320 05 c7 8d 3e f9 0e 45 3e 4e 77 8d 3e f7 71 90 3e
       0.27690902 0.19243993 0.27630085 0.28211948
000330 2a ed 94 3e dc d7 cb 3e 2d d7 8c 3e 4b 5b 01 3f
       0.29087192 0.39813125 0.27507916 0.50529927
000340 8c 99 9e 3e 6e 94 af 3e cf 4e b1 3e 20 66 96 3e
       0.30976522 0.3429293 0.3463044 0.2937479
000350 e8 5f 38 3e 40 c3 eb 3e 50 52 51 3e c0 05 ea 3e
       0.18005335 0.460474 0.20441556 0.45707512
000360 40 85 c7 3e a8 94 90 3e 42 f4 8c 3e 08 27 c6 3e
       0.3896885 0.28238416 0.27530104 0.38701653
000370 b2 9b b2 3e 03 fa b5 3e 36 a1 8b 3e a6 3c e5 3e
       0.3488441 0.35542306 0.27271432 0.44772834
000380 1e 42 80 3e 64 24 e4 3e 1a 90 97 3e b0 a3 e7 3e
       0.25050443 0.44559014 0.29602128 0.4524207
000390 b2 45 a7 3e 20 3d ea 3e 58 12 ac 3e 13 84 5a 3e
       0.3267036 0.4574976 0.33607745 0.21339445
0003a0 86 8a 7c 3e ea a2 ca 3e 41 63 9b 3e 26 ce 26 3e
       0.24662217 0.3957742 0.30349162 0.16289577
0003b0 ef f1 b2 3e 1b 9e aa 3e d5 42 8f 3e 8c e0 a7 3e
       0.34950206 0.3332375 0.27980676 0.32788503
0003c0 7c 19 f1 3e b4 ea 89 3e 40 89 85 3e 1d 39 71 3e
       0.47089756 0.26936877 0.26081276 0.23556943
0003d0 bd ac df 3e bf c5 ea 3e d2 e5 06 3f c9 d7 9c 3e
       0.43686476 0.45853993 0.5269443 0.3063338
0003e0 ac 4e ad 3e 4a ad 62 3e 1f f7 46 3e e9 4d 02 3f
       0.33849084 0.22136417 0.19430207 0.5090013
0003f0 9d 81 06 3f 4b 7a e7 3e af 51 9d 3e 9e 61 95 3e
       0.52541524 0.4521049 0.30726382 0.29176039
