RL code/models/checkpoint_episode_850000.pth (torch, 801255 bytes, 40 tensors)

net.0.weight f4 [256, 22]
000000 57 e1 fe bd 64 8f 06 3e e4 c8 a9 3c e1 9c 99 bc
       -0.12445324 0.13140637 0.020725675 -0.018751564
000010 5b 69 6e bb 96 fc c6 bb 05 a8 e0 bc 01 e9 21 bd
       -0.0036378715 -0.006072591 -0.027423868 -0.03952885
000020 70 41 d2 bd 1d c1 62 3c d9 98 7f 3d 81 cc 2b bd
       -0.102663875 0.013839987 0.062401626 -0.041943077
000030 22 76 09 bd 9b d6 a4 bc 5f 8b 12 3d ce ae 0d bb
       -0.033559926 -0.020121863 0.035777446 -0.0021619084
000040 2c a0 2a 3c 90 c8 08 bd 70 41 d2 3d 1d c1 62 bc
       0.0104141645 -0.033394396 0.102663875 -0.013839987
000050 57 e1 fe bd 64 8f 06 3e 51 41 b9 3a ba 7c 35 3d
       -0.12445324 0.13140637 0.0014133846 0.0443084
000060 e8 58 0f 3d a5 1f ae bc 07 d3 92 bd a6 76 80 bc
       0.034996897 -0.021255324 -0.071691565 -0.015681576
000070 81 0b 24 3e c6 14 56 bd 5f 0d 8b 3b 34 a3 8b bd
       0.16020013 -0.052265905 0.0042435373 -0.06818238
000080 e3 fb 25 3d 26 83 9a bb 3f 00 d4 3c 50 be b7 bd
       0.04052342 -0.004715341 0.025879024 -0.08971846
000090 02 0b 89 bd b6 ef 3a 3d e5 49 30 3e 20 22 05 3c
       -0.06691553 0.045638762 0.17215689 0.008125812
0000a0 5f 0d 8b bb 34 a3 8b 3d 51 41 b9 3a ba 7c 35 3d
       -0.0042435373 0.06818238 0.0014133846 0.0443084
0000b0 4b 8a 02 3e 02 15 00 3e 45 0a 39 3e 19 d5 10 3e
       0.12748067 0.12508014 0.18070324 0.1414379
0000c0 7b 46 33 be f1 ba 31 be 87 65 2f be 88 e5 39 be
       -0.17507355 -0.17356469 -0.17128573 -0.18153965
0000d0 0d 1b a9 be 1e f9 b9 be a0 08 84 be 8a 92 7f be
       -0.3302845 -0.36322874 -0.2578783 -0.24958244
0000e0 0d 44 31 be 62 77 56 be 6f 59 36 3e b8 ac 29 3e
       -0.17311116 -0.20943978 0.17807554 0.16569793
0000f0 a7 10 3a 3e 47 36 23 3e 0d 1b a9 3e 1e f9 b9 3e
       0.18170415 0.15938674 0.3302845 0.36322874
000100 2c 89 02 3e b9 13 00 3e e4 55 b2 bb ad d3 4e 3c
       0.1274764 0.12507524 -0.005442368 0.01262371
000110 11 98 10 3d b1 89 9a bd 51 87 c5 bd d6 33 36 bc
       0.03530127 -0.07545794 -0.0964495 -0.011120757
000120 0d 02 d2 bd c0 f2 f0 bc a6 92 7c bd 0c a7 86 bd
       -0.102542974 -0.029412627 -0.061663292 -0.065748304
000130 c9 42 41 3d ab fb 10 3e 6c 2b 34 bd 40 7f ba bd
       0.047182832 0.14158504 -0.043986723 -0.09106302
000140 5b 34 94 bc 4f 2e d5 bb 3a 07 af bc 3c 50 dc bc
       -0.018091371 -0.0065057646 -0.02136575 -0.026893727
000150 a6 92 7c 3d 0c a7 86 3d e4 55 b2 bb ad d3 4e 3c
       0.061663292 0.065748304 -0.005442368 0.01262371
000160 2f e8 1b 3d bd 48 8b bd 3f e9 0e 3e 86 14 f0 3d
       0.038063224 -0.06800983 0.13956164 0.117226645
000170 12 51 0c 3e 2d e1 d5 bc 73 98 08 bd 5c ac b5 3d
       0.13702801 -0.026108349 -0.033348512 0.088707656
000180 ff 85 0a 3c fd d8 01 bc 81 26 0f bd f8 54 b6 bd
       0.008454799 -0.007925269 -0.03494883 -0.08902925
000190 01 54 12 3e 82 8e ff 3d fa 18 03 3e 67 18 d3 bc
       0.14289857 0.12478353 0.12802497 -0.025768472
0001a0 0b b2 3a bd 40 c4 b0 3d ff 85 0a bc fd d8 01 3c
       -0.04557995 0.08631182 -0.008454799 0.007925269
0001b0 2f e8 1b 3d bd 48 8b bd 8f ba fe 3c 99 4c 5f 3c
       0.038063224 -0.06800983 0.031094817 0.013629102
0001c0 4c a9 fd bb 88 a3 e5 bc e0 65 e7 bc 23 41 36 be
       -0.007741129 -0.02803208 -0.02824682 -0.17798285
0001d0 6a 39 b1 3c 8a 61 59 3d 61 37 6d 3c 23 c3 d6 3c
       0.021633822 0.053071536 0.014478535 0.026216095
0001e0 54 f5 ce 3c 42 bf f5 bd eb 5b 25 bb ae 7f 4f bc
       0.025263466 -0.1199937 -0.002523179 -0.012664719
0001f0 9a 23 2a bd ff be 3b be 45 e0 00 3b 5b 7f 33 3d
       -0.04153786 -0.18334578 0.0019664925 0.043822628
000200 61 37 6d bc 23 c3 d6 bc 8f ba fe 3c 99 4c 5f 3c
       -0.014478535 -0.026216095 0.031094817 0.013629102
000210 52 3a 3a bc 02 96 d1 3b 4f c5 1b be ed e4 ce bc
       -0.011366444 0.006396056 -0.15211986 -0.025255645
000220 71 dd 0b bc b5 99 32 bc ed 07 85 3d d6 70 e5 bb
       -0.008536682 -0.010900904 0.06495652 -0.0070019765
000230 af 49 21 bd eb 4c 14 3d db 64 fc 3c c3 e5 3e bd
       -0.03937691 0.036206167 0.03080981 -0.046605837
000240 06 02 eb bd 58 80 8d bc ad fb 4a bd 5a c8 86 bc
       -0.11474995 -0.017273113 -0.049556423 -0.016452957
000250 00 18 b0 3c 7d 33 8d bc af 49 21 3d eb 4c 14 bd
       0.02149582 -0.017236466 0.03937691 -0.036206167
000260 52 3a 3a bc 02 96 d1 3b 00 86 be 3c f0 69 9e 3c
       -0.011366444 0.006396056 0.023257256 0.019337624
000270 70 ee 6e 3d c7 f7 06 be 8c 98 41 3d 02 4e 01 bd
       0.05833286 -0.13180457 0.04726462 -0.031568535
000280 b8 fd 85 3c ff d5 eb bd d7 2c 94 3d 6d 12 39 3c
       0.016356334 -0.11515426 0.07235115 0.011295897
000290 50 b3 bc 3d 3d 47 7b bd fc 68 c3 3d 7b e9 e7 bd
       0.09213889 -0.061347235 0.095415086 -0.1132383
0002a0 1d 9d 77 3c 56 10 75 bd b3 ff ab bc cf 6b 0e be
       0.015113142 -0.059830032 -0.02099595 -0.13908313
0002b0 d7 2c 94 bd 6d 12 39 bc 00 86 be 3c f0 69 9e 3c
       -0.07235115 -0.011295897 0.023257256 0.019337624
0002c0 a7 25 95 3b 6a c2 cd bd 38 b0 2d be d2 a8 9b bc
       0.0045516076 -0.10046847 -0.16961753 -0.019001398
0002d0 19 6c 71 bc f9 d7 d9 bd f8 54 91 bb 59 40 5c 3d
       -0.014735245 -0.10636897 -0.004435178 0.053772304
0002e0 b7 50 35 3d 67 82 54 bd d5 b9 90 3d 7b ac 5c be
       0.04426643 -0.051882174 0.07066695 -0.21550171
0002f0 5b da f8 bd 32 29 f4 bc 4b 12 88 bd 00 af dc bd
       -0.12151023 -0.0298048 -0.06644114 -0.10775566
000300 ec c8 61 bd 26 bb 65 3d b7 50 35 bd 67 82 54 3d
       -0.055123255 0.05608668 -0.04426643 0.051882174
000310 a7 25 95 3b 6a c2 cd bd 38 fd 8e bd 7e 6d 65 bd
       0.0045516076 -0.10046847 -0.069818914 -0.056012623
000320 15 e2 a6 bd 80 87 54 bd 9d 5d f1 bd 97 4f 64 3c
       -0.081485905 -0.051887035 -0.117854334 0.013934991
000330 8d 4b ff 3a 8d 93 06 bd 04 54 5f bd 58 11 21 bc
       0.0019477472 -0.03285556 -0.054523483 -0.009830795
000340 e1 ff ca 3c eb 61 f3 bd c3 9e e1 bd 69 91 48 bb
       0.024780216 -0.11883911 -0.110166095 -0.003060425
000350 1f 5c b8 bd 7c a1 06 bd 10 28 d7 3c f0 b1 b1 bd
       -0.09001946 -0.032868847 0.02626422 -0.08676517
000360 04 54 5f 3d 58 11 21 3c 38 fd 8e bd 7e 6d 65 bd
       0.054523483 0.009830795 -0.069818914 -0.056012623
000370 e8 71 12 3d 23 6c 08 bd 51 3c 21 3d 61 7c 86 3b
       0.03575316 -0.033306252 0.039364163 0.0041041826
000380 0f 93 a2 3c 2e a4 ab bd b7 7e d2 3d 10 3e 89 3d
       0.019845514 -0.08380924 0.10278075 0.067012906
000390 a6 ec 2d 3d 1b b8 3d bd 82 d6 e5 3d c6 e9 8c bd
       0.042462014 -0.046318155 0.11222555 -0.06880526
0003a0 b9 ee 8c 3d 43 a1 c7 bc e7 6d cd bb 41 90 3b bd
       0.0688147 -0.024368888 -0.006269205 -0.045791868
0003b0 32 1c 95 3d 3a 9a d6 3d a6 ec 2d bd 1b b8 3d 3d
       0.072807685 0.10478635 -0.042462014 0.046318155
0003c0 e8 71 12 3d 23 6c 08 bd 99 47 68 bd ff 76 af bc
       0.03575316 -0.033306252 -0.056708906 -0.021419046
0003d0 e2 29 ef bc 8e da c0 bc 9d 6c 81 bc 0c 55 d4 3b
       -0.029194776 -0.023541715 -0.015798861 0.006479865
0003e0 62 ab a3 bd d6 15 88 bd df 0a 8e 3d 55 58 2f 3d
       -0.07991673 -0.0664479 0.06935667 0.04280885
0003f0 32 bb ec bd 41 a9 99 bd 26 07 8b 3a fd 0f a4 bb
       -0.11559142 -0.07502986 0.0010606989 -0.0050067888

net.0.bias f4 [256]
000000 24 ef 85 be 7d 97 94 be 2c 5e 19 be 6a 2f 8e be
       -0.26159012 -0.29021826 -0.1497733 -0.2777055
000010 62 30 50 be f0 7e a1 be 38 75 f4 be d6 31 88 be
       -0.20330957 -0.31542158 -0.4774568 -0.26600522
000020 88 77 78 be 4e d4 85 be 89 53 9c be 5a 93 89 be
       -0.24264348 -0.26138538 -0.30532482 -0.26870233
000030 9d a0 44 be 5f f3 fa be bb b3 8e be ba ab 70 be
       -0.19201894 -0.49013802 -0.27871498 -0.23503008
000040 01 c4 8f be 38 02 f0 be 2d f8 a4 be 40 38 78 be
       -0.28079227 -0.46876693 -0.32220593 -0.24240208
000050 aa d3 86 be 97 9e 28 be 09 6f 68 3d 3e 7d a4 be
       -0.26333362 -0.16466747 0.056746516 -0.32126802
000060 c5 ef 4a be d8 09 4c be e8 7f 6b be 41 a0 7e be
       -0.19818027 -0.1992563 -0.22998011 -0.2486582
000070 e0 ee 76 be c2 df 55 3e 78 09 ed be 9f b0 4d be
       -0.24114561 0.20886138 -0.46296287 -0.20086907
000080 06 b6 01 bf 59 b4 84 be 98 b3 22 bf 4d 6a 59 be
       -0.5066837 -0.25918844 -0.6355529 -0.21231957
000090 1c af 1d bf fb c8 9b be 3a 12 38 bd f8 47 64 be
       -0.6159532 -0.30426773 -0.044939257 -0.22293079
0000a0 92 fb 72 be 3f 0e 4c be 38 22 31 be 96 88 3c be
       -0.23728779 -0.1992731 -0.1729821 -0.18411478
0000b0 28 ba 70 be bc c9 90 be 5c 12 63 be ae 1f 87 be
       -0.23508513 -0.2827891 -0.22174972 -0.26391357
0000c0 30 6f 42 be 59 ff 7d be c2 53 c4 be 11 f4 8f be
       -0.18987727 -0.24804439 -0.38345152 -0.28115895
0000d0 1f d9 80 be 38 2d e8 bc 53 56 53 be b7 e2 83 be
       -0.2516565 -0.028341874 -0.20638399 -0.25758907
0000e0 a5 7a 78 be 6d bc 88 be ce a3 c9 be f6 5c 66 be
       -0.24265535 -0.26706257 -0.39382786 -0.224964
0000f0 b4 e9 70 be b7 19 8f be a0 12 70 be 65 a5 4f be
       -0.2352665 -0.27949306 -0.23444605 -0.20277937
000100 ea 71 97 be 9a 33 1d 3d d1 86 90 be e9 8b 74 be
       -0.29579097 0.03837929 -0.28227857 -0.23881496
000110 df 92 28 be d6 bc 55 be 38 34 3f be 55 29 48 be
       -0.16462277 -0.20872816 -0.18672264 -0.19547017
000120 8e 87 b0 be 58 66 5c be 40 9f 77 be 7d fc b1 be
       -0.3447842 -0.21523416 -0.24181843 -0.34762946
000130 99 26 98 be f3 72 c8 be c6 7d 6c be 81 e9 b2 be
       -0.29716948 -0.391502 -0.23094854 -0.34943774
000140 b7 ea 86 be 42 59 8b be 41 48 a3 be e9 99 5b be
       -0.26350948 -0.27216536 -0.31891063 -0.21445431
000150 08 5f 87 be ba a1 62 be f9 be 4f be 10 80 07 bf
       -0.2643969 -0.22132006 -0.20287694 -0.5292978
000160 07 c7 69 be fe f1 ed be 3b 01 bb be 5d ad 8d be
       -0.22829829 -0.46473688 -0.36524376 -0.27671328
000170 2f 96 94 be 26 ee b5 be 1a 11 89 be 53 b1 75 be
       -0.2902083 -0.35533255 -0.2677086 -0.23993425
000180 8d fc 7c be f6 92 55 3e 84 05 8e be 15 8f 5c be
       -0.24705715 0.20856842 -0.27738583 -0.21538956
000190 32 05 99 be 00 4a 76 be d5 80 81 be 65 c9 11 bf
       -0.29886776 -0.24051666 -0.25293604 -0.5694793
0001a0 7f 90 7f be 73 16 88 be ca b7 6c be 5f 89 6b be
       -0.24957465 -0.26579627 -0.23116985 -0.23001622
0001b0 fd c6 8e be 07 41 9e be c7 06 8f be 72 49 89 be
       -0.2788619 -0.30908987 -0.27934858 -0.26813847
0001c0 97 3c 7f be 79 e3 11 bf 35 7b 91 be 60 89 a4 3d
       -0.24925457 -0.5698772 -0.28414312 0.08034015
0001d0 5f 32 5e be ba da 9a be 98 99 9b be 9a ba a2 be
       -0.21698903 -0.30245 -0.3039062 -0.3178299
0001e0 36 29 68 be 47 4f af be d2 9c 92 be ab e7 72 be
       -0.2267197 -0.3424017 -0.2863527 -0.23721187
0001f0 0d 75 8f be 79 e3 55 3e b4 54 9c be 4c 83 17 bf
       -0.2801899 0.20887555 -0.30533373 -0.5918472
000200 19 ca 38 be e0 f7 73 be 06 d1 62 be 37 b6 a5 be
       -0.18045844 -0.23825026 -0.22150049 -0.3236558
000210 5b 7b 78 be f1 7c b5 be 58 9a 77 be a9 91 64 be
       -0.24265806 -0.35446885 -0.24179971 -0.2232119
000220 99 43 40 be 15 06 3d be 27 51 9d be 32 21 8a be
       -0.18775786 -0.18459351 -0.30725977 -0.2697845
000230 96 d1 5a be ae d1 41 be dd b3 ca bd d6 63 5d bd
       -0.21369013 -0.18927643 -0.098975874 -0.05405029
000240 5e d5 56 3e 95 81 76 be 3b b0 ca bd d9 14 42 be
       0.2097983 -0.24072869 -0.098968945 -0.18953265
000250 85 c7 42 be db d3 84 be fa 61 9b be 18 f3 64 be
       -0.19021423 -0.25942883 -0.30348188 -0.22358358
000260 15 53 91 be 0c 6a 89 be 37 4f 87 be 0e 14 4e be
       -0.283837 -0.2683872 -0.26427624 -0.20124838
000270 37 4c 6e be 81 6a bc bd b0 55 66 be 83 d9 8b be
       -0.23271261 -0.092000015 -0.22493625 -0.27314386
000280 9b 9e 79 be db 62 85 be 7b db 7f be 6c 06 be be
       -0.2437691 -0.26051983 -0.24986069 -0.37114275
000290 e0 42 15 be c8 35 ae be 5d f3 b8 3d e2 b6 80 be
       -0.14576292 -0.34025407 0.09030793 -0.2513953
0002a0 97 f3 8b be 7e 33 23 bd 09 95 49 be db e4 49 be
       -0.27334282 -0.03984403 -0.19685759 -0.19716208
0002b0 02 c6 9a be 11 b0 9e be 70 ab b6 be d8 fb 4b be
       -0.30229193 -0.30993703 -0.3567767 -0.1992029
0002c0 d7 7d 3c be ec 17 9f be 43 b4 96 be 61 48 87 be
       -0.18407379 -0.31072938 -0.29434404 -0.26422408
0002d0 75 8e 4e be 0e 3b ce 3d d5 3d 83 be da 52 68 be
       -0.2017153 0.100698575 -0.25633112 -0.22687855
0002e0 be 23 8d be 8f 5a 9e be 78 c2 bb be 93 75 b9 be
       -0.27566332 -0.30928466 -0.36671805 -0.36222515
0002f0 2d a9 5e be 28 03 8a be 6f 26 83 be da 17 98 be
       -0.21744223 -0.26955533 -0.2561526 -0.29705697
000300 3c 7f 8d be 93 e2 22 bf eb a6 3f be 59 a5 58 3e
       -0.27636135 -0.63626975 -0.18716018 0.21156825
000310 9f f5 33 be e9 fc 52 be 91 a9 93 be fa 15 4c be
       -0.17574166 -0.2060429 -0.28840306 -0.19930258
000320 22 4e 54 be 11 32 9e be 2b 34 86 be 58 fc 67 be
       -0.2073293 -0.30897573 -0.26211676 -0.22654855
000330 1f 32 97 bc 5e 05 9b be 94 3a 84 be e7 b5 65 be
       -0.018456517 -0.30277532 -0.25825942 -0.22432671
000340 79 bb ab be b6 a5 52 be 94 58 55 3e aa 81 87 be
       -0.33541468 -0.20571026 0.20834571 -0.26466113
000350 0e 98 14 bf ab f5 ad be a1 f2 53 be c6 e2 76 be
       -0.5804452 -0.33976492 -0.20698024 -0.24109945
000360 e7 ae 8f be 57 e5 59 be c3 03 90 be 79 58 49 be
       -0.28063127 -0.21278892 -0.2812787 -0.19662656
000370 8f 73 4a be 6a c1 7b be e2 55 f4 be 57 6c b5 bd
       -0.19770645 -0.245855 -0.47721773 -0.08858555
000380 e7 36 8d be fe b6 9d be b0 b4 68 be d0 46 66 be
       -0.2758095 -0.30803674 -0.22725177 -0.2248795
000390 75 c0 a2 be 81 08 52 be 0e d6 94 be 7e 93 93 be
       -0.31787458 -0.20511056 -0.2906956 -0.28823465
0003a0 46 6c 54 be 94 1b 8f be 2b 6d bd be b6 e3 4e be
       -0.20744428 -0.27950728 -0.3699735 -0.20204052
0003b0 e0 c3 97 be ad b7 86 be ff 8c 67 be 11 48 7a be
       -0.29641628 -0.26312009 -0.2261238 -0.24441554
0003c0 01 31 93 be ad 68 89 be 9f 40 56 3e 3f 57 b8 be
       -0.28748325 -0.26837674 0.20923088 -0.36004063
0003d0 3e 51 63 be 32 2a 92 be cf 7c 76 be 07 37 5e be
       -0.2219896 -0.28547817 -0.24071048 -0.21700679
0003e0 c7 42 91 be 5d 21 79 bd da a4 15 bf db dc 7a be
       -0.2837126 -0.060822833 -0.5845467 -0.24498312
0003f0 c8 35 84 be b5 00 83 be f0 36 1d bf 2d 89 80 bd
       -0.25822282 -0.25586477 -0.6141195 -0.06276164

net.2.weight f4 [256]
000000 aa 17 5c 3e ff fd 17 3e 27 1e 86 3e 39 a4 d4 3d
       0.21493402 0.14842986 0.2619488 0.103828855
000010 3b b0 dc 3d 2a 5d 53 3e 8f 94 12 3f f1 68 37 3e
       0.10775801 0.20641008 0.5725793 0.17911126
000020 25 da b1 3d 82 c6 0d 3e 89 04 20 3e c7 9c 38 3e
       0.08684186 0.13845256 0.1562673 0.18028556
000030 00 8a 06 3e 56 e8 15 3f ff 27 86 3d 31 e8 0d 3e
       0.1313858 0.5855764 0.065505974 0.13858105
000040 1a 19 46 3e d8 e0 5a 3e c6 83 3a 3e fb 74 f1 3d
       0.19345513 0.21374834 0.1821433 0.117898904
000050 e3 ef 0b 3e 81 4e c3 3d 14 3b ea 3c b4 11 35 3e
       0.13665728 0.09536458 0.028592624 0.17682534
000060 39 7e 7b 3e 81 20 70 3e 7b 79 b5 3d e0 f9 3f 3e
       0.24559869 0.234499 0.08861061 0.18747663
000070 d4 a3 14 3e a2 df 24 3e de ed 62 3e fe 7c 18 3e
       0.1451562 0.16100934 0.22161052 0.1489143
000080 f6 75 71 3e 52 a7 30 3e d6 ab b0 3e 3c 4d ad 3d
       0.23580155 0.17251328 0.345061 0.08461997
000090 53 52 d5 3e 27 f6 3d 3e dd 7a 08 3f b1 c4 ec 3d
       0.4166437 0.18550931 0.53312474 0.115609534
0000a0 36 bb 21 3e 0c f5 67 3e 55 41 02 3f de 14 a1 3d
       0.15794072 0.22652072 0.5088094 0.07865308
0000b0 b4 6b f0 3d 7b f3 51 3e af 8b 8c 3d 10 b1 00 3e
       0.11739293 0.20503037 0.0686258 0.12567544
0000c0 16 d3 70 3e df a2 38 3e 89 23 84 3e e7 8c 2b 3e
       0.23518023 0.1803088 0.2580836 0.16752969
0000d0 f8 27 fd 3d 48 6b 0a 3f 4c ed 6d 3e 1c 5b c9 3d
       0.12361139 0.5406995 0.23235053 0.09831831
0000e0 cf 71 13 3e d3 4c 17 3e ab ed 3b 3e 01 6f 47 3e
       0.14398883 0.147754 0.18352382 0.19475938
0000f0 37 8e 24 3e 16 c7 1c 3e c6 80 0c 3e ec 69 75 3e
       0.16069876 0.1531032 0.13720998 0.23966187
000100 97 94 36 3e 1d 14 01 3d 18 9c 35 3e 23 06 2c 3e
       0.1783012 0.031513322 0.17735326 0.16799216
000110 7f 3d 64 3e 0e fe 29 3e 35 ad 63 3e 5c b3 90 3d
       0.22289084 0.1660082 0.22234042 0.0706546
000120 17 36 2f 3e 3a b8 fc 3d 4d 69 03 3e 04 07 51 3e
       0.17110477 0.12339826 0.12833138 0.20412832
000130 fd 32 65 3e fc 37 3a 3e bf 15 09 3e 82 ba 20 3e
       0.22382732 0.18185419 0.13387202 0.15696147
000140 37 28 5d 3e 7e f4 2d 3e 9e 13 30 3e f0 e2 68 3e
       0.21597372 0.16987798 0.17194983 0.2274282
000150 b8 6e 46 3e 58 a9 76 3d 57 cb b2 3d 1a 35 6d 3e
       0.19378173 0.060220093 0.0873019 0.23164788
000160 4f ed bd 3d c0 55 8b 3e fa 3a 43 3e bb 6b 39 3e
       0.09273779 0.2721386 0.19065467 0.18107502
000170 68 b1 55 3e 0f 48 1b 3e 50 ff 85 3e 66 e5 1d 3e
       0.20868456 0.15164207 0.2617135 0.1541954
000180 6d 2f e0 3d 49 e2 23 3e 2d 59 b1 3d ee fe 33 3e
       0.10946546 0.1600429 0.08659587 0.17577717
000190 87 dd e9 3d fe ac 52 3e 8c 08 ed 3d 26 c2 f8 3e
       0.11419206 0.20573804 0.11573896 0.48585624
0001a0 a2 15 f3 3d 63 23 61 3e 86 dd 25 3e b3 b0 43 3e
       0.118693605 0.21986155 0.16197786 0.19110374
0001b0 37 f5 41 3e 60 ac 1b 3e 91 99 4e 3e 0c f5 c7 3d
       0.18941198 0.15202475 0.20175768 0.09763536
0001c0 8a 90 15 3e 9c cf 75 3e 28 df 2b 3e 93 35 dc 3c
       0.14605919 0.24004978 0.16784346 0.026881015
0001d0 e8 e2 0a 3e 43 5d 48 3e 66 51 3f 3e 47 16 67 3e
       0.1356312 0.19566827 0.18683395 0.22567092
0001e0 52 98 0e 3e 9d 5a 94 3e 11 57 5f 3e 3f c3 c6 3d
       0.13925293 0.28975382 0.21810557 0.09705209
0001f0 d8 7c 64 3e a9 d5 25 3e 47 b8 ea 3d 20 70 d4 3e
       0.22313249 0.16194786 0.11460929 0.41491795
000200 c5 89 ac 3d e5 3d 08 3e 80 54 f5 3d af 3f 05 3e
       0.08424715 0.13304861 0.11979008 0.13012575
000210 41 fa 33 3e c4 a3 28 3e f2 24 1a 3e f3 0c 20 3e
       0.17575933 0.16468722 0.15053156 0.1562994
000220 82 05 63 3e 67 94 22 3e ba 90 77 3e dc d9 14 3e
       0.2217007 0.15876924 0.24176303 0.14536232
000230 f6 73 6d 3e d7 7d f1 3d db 46 1a 3e 50 f7 11 3e
       0.23188767 0.1179158 0.15066092 0.14254498
000240 1b 5b 23 3e 85 4a 32 3e 98 bb f7 3d 4d 1e 0b 3e
       0.15952723 0.1741124 0.120963275 0.13585778
000250 eb c7 65 3e d8 47 36 3e f0 c8 06 3e aa 4c 29 3e
       0.22439544 0.17800844 0.13162589 0.16533151
000260 29 ee 0d 3e 12 cb cc 3d b9 f0 21 3e 62 30 47 3e
       0.13860382 0.0999967 0.15814485 0.1945205
000270 86 98 17 3e 77 e3 1a 3e c8 10 21 3e 0d 0e 39 3e
       0.14804277 0.15125833 0.15729058 0.18071766
000280 3d b4 1c 3e a2 62 83 3d a6 0d 1b 3e 97 9f 95 3e
       0.1530313 0.06415297 0.15141925 0.2922332
000290 3c 64 0a 3e 4b a3 3c 3e 57 a5 20 3d e7 78 b9 3d
       0.13514799 0.18421666 0.03922018 0.090562634
0002a0 e1 18 4b 3e 17 5f 09 3f 66 35 3e 3e aa 78 b1 3d
       0.1983371 0.5366072 0.18575057 0.08665593
0002b0 05 a1 89 3e c8 61 24 3e 8b a7 a4 3e d4 f4 5d 3e
       0.2688066 0.16052926 0.32159075 0.21675426
0002c0 39 65 fb 3d 26 0f 4e 3e a6 f6 88 3e a9 20 0e 3e
       0.12275166 0.20122966 0.26750678 0.13879646
0002d0 38 e1 76 3e a2 36 c8 3c 81 f7 ef 3d e2 cb 0b 3e
       0.24109352 0.024440113 0.117171295 0.13651994
0002e0 5b 99 68 3e 8c 8f 29 3e 9d f9 9a 3e e6 6e 13 3e
       0.2271475 0.16558665 0.30268565 0.14397773
0002f0 c5 29 b7 3d b8 23 4a 3e 4d 95 8d 3d 8b 46 05 3e
       0.08943514 0.19740188 0.069132425 0.13015191
000300 7e f4 2c 3e a8 66 a9 3e d0 2e ef 3d 4f 1d 20 3e
       0.16890141 0.33086133 0.11678851 0.1563618
000310 76 ca da 3d 0f 4a c1 bd 79 a1 15 3e 87 74 80 3e
       0.106831476 -0.09437954 0.14612378 0.25088903
000320 e6 05 9a 3d 84 d3 50 3e 96 ab 25 3e a3 62 f8 3d
       0.07520656 0.20393187 0.16178736 0.121281885
000330 c3 45 fc 3e 07 87 2c 3e c4 8e 50 3e 26 39 5c 3e
       0.49271974 0.16848384 0.20366961 0.21506175
000340 54 42 80 3e b9 fd 1e 3e 1b 49 1d 3e 10 a4 2a 3e
       0.25050604 0.15526475 0.15359919 0.16664147
000350 fa 6c e5 3e db 7b 45 3e 82 a2 96 3d 03 2a 8a 3d
       0.44809705 0.19285528 0.07355215 0.06746294
000360 da 30 37 3e 8b 82 06 3f 48 fd 31 3e 94 31 32 3e
       0.17889729 0.5254294 0.17381775 0.17401725
000370 09 f5 c8 3d 56 38 30 3e 3f 66 e6 3e 55 42 06 3e
       0.09812362 0.1720899 0.44999883 0.13111241
000380 a8 49 2e 3e 13 6b 77 3e 3f 6a 40 3e 2b 2e 14 3e
       0.17020285 0.2416194 0.1879053 0.14470737
000390 4a 00 8c 3e f6 0a 17 3e 08 2f 60 3e 01 db 98 3e
       0.2734397 0.14750275 0.21892941 0.29854587
0003a0 12 30 23 3e 33 5c 44 3e 59 24 30 3e 78 be 3a 3e
       0.15936306 0.19175796 0.17201366 0.1823672
0003b0 8c da 15 3e 81 04 0c 3e f0 d9 1a 3e 7e 67 17 3e
       0.1463415 0.13673593 0.15122199 0.14785573
0003c0 38 d6 5c 3e c0 8e 06 3e c9 a5 23 3e a1 a4 2b 3e
       0.21566093 0.13140392 0.15981211 0.1676202
0003d0 9a b4 28 3e 0c ca 4a 3e da 43 fc 3d f3 f7 e0 3d
       0.16475144 0.19803637 0.12317629 0.109847926
0003e0 e6 7a 3d 3e bf e0 30 3e b8 54 a5 3e ee cc 3a 3e
       0.18503913 0.17273234 0.32291198 0.18242237
0003f0 37 56 3a 3e 1e 2f 14 3e 45 1e 9f 3e f4 fa 19 3e
       0.18196951 0.14471099 0.3107778 0.15037137

net.2.bias f4 [256]
000000 20 53 22 3d ce bf 1d 3d 02 60 d9 3c 39 fb 5b 3c
       0.039630055 0.038512997 0.026535038 0.013426595
000010 06 58 52 3c 32 1c 2a 3d ad d6 1c 3e b6 49 24 3d
       0.012838369 0.041530795 0.15316267 0.04010936
000020 98 41 7f 3b f7 f2 0d 3d 6b 4f 07 3d f9 f3 0c 3d
       0.003894901 0.034655537 0.033034723 0.034412358
000030 1d a2 b3 3c 57 a2 24 3e 45 cb 39 3c a1 a9 0f 3c
       0.021927888 0.16077553 0.011339967 0.00876847
000040 cd 8d 6b 3d f6 1d 31 3d 77 39 19 3d 31 18 a3 3c
       0.05750828 0.043241464 0.03740832 0.019908996
000050 62 bc 13 3d 25 47 a6 3b 00 c7 78 bd 3f bb 19 3d
       0.036068328 0.005074399 -0.060736656 0.037532087
000060 55 63 21 3d 57 14 06 3d 16 f2 0a 3c db 9b 25 3d
       0.03940137 0.03273424 0.008480569 0.04043184
000070 b7 8e 79 3c bf ab 03 bf 25 06 5e 3d 3b e2 c8 3c
       0.01523178 -0.5143394 0.05420508 0.024521938
000080 18 08 6e 3d c8 d9 5d 3d 0f c0 9f 3d 86 44 2a bc
       0.058113188 0.05416277 0.07800304 -0.010392314
000090 65 a6 eb 3d 5d c4 46 3d ba e0 19 3e 94 83 e1 3c
       0.115063466 0.04852711 0.15027133 0.027528562
0000a0 c3 49 01 3d 67 3d 10 3d c2 09 17 3e 0c f5 2f 3c
       0.031564485 0.035214808 0.14749816 0.010739576
0000b0 69 47 d3 3c 20 b2 31 3d a5 7b fd 3b 97 a3 f7 3c
       0.025790887 0.043382764 0.007735687 0.030229373
0000c0 4a b5 2e 3d ad a3 1d 3d 5f 13 91 3d 04 0a 3c 3d
       0.04265336 0.03848617 0.07083773 0.04590799
0000d0 02 cd a6 3c 6a 56 1c 3e 28 ab 0f 3d e5 68 99 3c
       0.020361427 0.1526734 0.035075337 0.018726775
0000e0 80 d5 e1 3c 91 e1 02 3d a7 3e 21 3d 9d d5 3d 3d
       0.027567625 0.0319534 0.03936639 0.046346296
0000f0 9e 95 0e 3d 1d ea fe 3c 78 6e e1 3c a6 0c 2f 3d
       0.034810655 0.031117493 0.027518496 0.042736672
000100 13 30 3f 3d 23 05 87 bd 78 d8 23 3d 73 2c ec 3c
       0.046676707 -0.065927766 0.040001363 0.028829789
000110 bd af 3d 3d 01 41 e9 3c e7 f7 18 3d d8 4b c5 3a
       0.046310175 0.02847338 0.037345793 0.001505251
000120 47 5b d2 3c 60 f5 8d 3c 86 66 b3 3c f1 f6 55 3d
       0.02567829 0.017328918 0.021899473 0.052237455
000130 c9 8b 46 3d 49 66 10 3d 7f 80 8e 3c fa ee 1c 3d
       0.048473153 0.035253797 0.017395256 0.038313843
000140 22 00 33 3d fa 02 27 3d c4 30 02 3d c5 f3 06 3d
       0.0437013 0.040774323 0.031784788 0.03294732
000150 f8 35 20 3d 42 39 08 b7 43 83 43 3b 51 fa 63 3d
       0.03911397 -8.119563e-06 0.0029832877 0.055658642
000160 8b cd 15 3c 89 4d 97 3d a7 24 23 3d b0 45 2f 3d
       0.009143244 0.073878355 0.039829876 0.04279107
000170 47 9b 47 3d 89 2c 12 3d f0 75 7c 3d e1 ad 11 3d
       0.04873207 0.035687003 0.06163591 0.035566214
000180 f4 20 c9 3c 95 af 06 bf e6 69 5f 3c 44 2f 0c 3d
       0.024551846 -0.52611667 0.013636088 0.034224764
000190 91 63 76 3c be 05 3e 3d 15 36 09 3d 77 2d 07 3e
       0.015038387 0.046392195 0.033498842 0.13200937
0001a0 91 33 d1 3c d0 ff 2d 3d c6 ea e0 3c 06 e5 0f 3d
       0.025537284 0.04248029 0.027455699 0.035130523
0001b0 55 bf 26 3d 0b 68 12 3d b9 84 31 3d 12 e8 c8 ba
       0.040709812 0.035743754 0.043339465 -0.0015327951
0001c0 d7 23 10 3d 62 67 73 3d 97 d0 00 3d e6 d4 82 bd
       0.03519043 0.059424765 0.031448927 -0.063882634
0001d0 22 14 ab 3c 6a 65 77 3d 36 de 3e 3d f9 0d 74 3d
       0.020883624 0.06039945 0.046598636 0.059583638
0001e0 62 d9 d5 3c 67 4e a0 3d d3 86 37 3d da 20 c7 3b
       0.026104633 0.07827454 0.044806313 0.0060769143
0001f0 a7 e7 6d 3d ba ec 08 bf 4e f7 93 3c d7 a6 e0 3d
       0.05808225 -0.53486216 0.01806226 0.10969322
000200 6e e7 37 3a af b2 df 3c 4b 1b 06 3d a7 4a ad 3c
       0.00070153817 0.027306883 0.032740872 0.021153761
000210 2d 50 21 3d a4 2b df 3c 7a f2 11 3d 98 0e 1a 3d
       0.039383102 0.02724249 0.035631634 0.037611574
000220 e8 2c 1b 3d 1e 34 eb 3c d0 a2 61 3d ad 72 dd 3c
       0.037884623 0.028711375 0.05508691 0.02703222
000230 ba fc 0a 3d 9e 55 85 3c 79 b1 d5 bb 5d d8 05 bb
       0.033932425 0.016276177 -0.0065214005 -0.0020423152
000240 02 1d 06 bf 0d 86 29 3d f5 f0 51 bb 99 79 0b 3d
       -0.5238801 0.041387606 -0.003203449 0.03405151
000250 53 2a 14 3d 0b 3c 22 3d d0 18 c7 3c d4 92 2b 3d
       0.036173176 0.039608043 0.024303824 0.041888073
000260 a0 e3 eb 3c 63 1d de 3c 08 51 1d 3d ff ca 1f 3d
       0.028795063 0.027113622 0.038407356 0.03901195
000270 ec 6f 09 3d fa 93 11 3c ee 10 08 3d 64 5c 1a 3d
       0.033554003 0.008885378 0.03321927 0.037685767
000280 05 67 e1 3c e9 fa 33 3b 47 93 08 3d 43 54 a5 3d
       0.027514944 0.0027462787 0.03334358 0.08072712
000290 30 20 ce 3c bd 90 2e 3d 88 be 3d bd 02 8e d6 3b
       0.025161833 0.042618502 -0.046324283 0.0065476904
0002a0 ee e1 37 3d fe aa 1e 3e 50 14 0f 3d c4 5c 1a 3c
       0.044893198 0.15494916 0.03493148 0.009421531
0002b0 73 72 85 3d 01 f4 14 3d d8 b4 b0 3d 91 8d 07 3d
       0.0651597 0.036365513 0.08628243 0.033093993
0002c0 a3 38 a7 3c d1 de 68 3d 35 cb 93 3d c4 e2 e9 3c
       0.020412749 0.05685312 0.07216493 0.028550513
0002d0 a4 a3 34 3d d8 7a 52 bd a4 61 86 3c 4e 30 96 3c
       0.044101372 -0.051386684 0.01640398 0.01833358
0002e0 b9 3f 4e 3d f7 74 f0 3c e3 09 9a 3d 41 2a 84 3c
       0.05035374 0.029352648 0.07521417 0.01613343
0002f0 7a b9 c7 3b 7f 8b 3c 3d 11 f7 3b 3c 95 b7 d3 3c
       0.0060951086 0.04603147 0.011472479 0.025844375
000300 5d fe 43 3d 04 cc ac 3d 6d 29 0f 3b b1 70 05 bf
       0.04785 0.084373504 0.002184476 -0.5212508
000310 bf d6 bf 3c 5e 95 76 bc 01 9e 1c 3d 46 63 2a 3d
       0.023417829 -0.01505026 0.03823662 0.04159858
000320 cb ce 79 3a 84 59 6a 3d df b6 31 3d 62 6a 89 3c
       0.0009529411 0.057214275 0.04338729 0.01677436
000330 81 81 0d 3e a1 b1 23 3d 4b ca 3e 3d 34 87 2a 3d
       0.13818933 0.039964322 0.04657964 0.041632846
000340 d7 c1 7c 3d 57 6f c8 3c 57 4b 05 bf 04 2c 21 3d
       0.061708298 0.024467153 -0.52068084 0.039348617
000350 91 90 f3 3d bc 08 6d 3d ae e8 ba 3b 7a 3f e1 ba
       0.11892808 0.057869658 0.005704007 -0.0017185055
000360 51 04 4e 3d 3b 1f 18 3e 43 6f 2d 3d dd ce e2 3c
       0.050297085 0.14855663 0.042342436 0.02768653
000370 40 a6 9c 3c 96 49 27 3d bb c1 03 3e b4 f4 39 3c
       0.019122243 0.04084166 0.12866871 0.011349846
000380 2a 45 28 3d c5 9d 92 3d 6c 81 33 3d 94 bf ef 3c
       0.041081585 0.071589984 0.0438246 0.029266156
000390 8e 9d 9a 3d 70 b6 d0 3c f4 e1 60 3d bf 85 a7 3d
       0.075495824 0.025477618 0.054902986 0.08179807
0003a0 91 45 fb 3c 11 d0 02 3d 78 25 ab 3c b9 00 16 3d
       0.03067282 0.03193671 0.02089189 0.036621783
0003b0 b9 0d ff 3c 63 0e 0f 3d fb 42 f4 3c 60 56 2b 3d
       0.031134473 0.03492583 0.029817095 0.04183042
0003c0 76 7a 35 3d 3a 53 9b 3c 9b 45 07 bf 31 a4 29 3d
       0.04430624 0.018960584 -0.52840585 0.04141635
0003d0 4c d1 f6 3c 25 2e 3f 3d 55 09 f2 3c ef e1 18 3c
       0.030129097 0.046674866 0.029545465 0.0093312105
0003e0 72 a6 30 3d 0c 8f 89 3c 24 0e 97 3d 93 7b 4d 3d
       0.043127485 0.016791843 0.07375744 0.050166678
0003f0 8d 55 2e 3d ff 85 12 3d c2 a4 8c 3d c8 9e 3d 3c
       0.042562056 0.03577232 0.068673626 0.011573501

net.4.weight f4 [256, 256]
000000 a1 55 82 bc 8f 74 ea bb 2a 15 13 bd c9 74 1e 3c
       -0.015909972 -0.007155008 -0.035908855 0.009671398
000010 e5 3b 7e 3d 55 37 57 bc 82 b9 8f bc 41 3d 6f bc
       0.06206884 -0.013135751 -0.017544512 -0.014602006
000020 94 6d ad 3d 45 8d 08 bb 65 86 ae bc fb b4 1d 3d
       0.08468166 -0.0020836156 -0.021304319 0.038502675
000030 d8 85 64 ba 71 9c 29 3b d2 d0 73 bb 46 bf fd 3c
       -0.0008717454 0.00258806 -0.0037203324 0.030974995
000040 8d 9a 26 bc ed a4 be 3c 07 6c f6 bb 27 c5 5e bc
       -0.010168684 0.023272002 -0.007520202 -0.0135968095
000050 74 d5 3b bb 54 c1 b5 bb eb 3d da 3c aa 3d ec 3c
       -0.0028661164 -0.005546728 0.026640853 0.028837997
000060 70 61 16 bc bc 3d cb bc c3 fb fa bb ce 0a 26 3d
       -0.009178504 -0.02480971 -0.007659407 0.040537648
000070 a6 16 b5 bc 89 37 90 3a 98 fb 53 3a aa 6b 47 bb
       -0.022105526 0.0011002879 0.00080865016 -0.0030429163
000080 36 34 03 3b 1e eb 18 3c 10 81 af bc 5f 4e 5d bb
       0.0020020134 0.0093334 -0.021423846 -0.0033768637
000090 75 7a 82 3b e8 cc 74 bc 9c 53 d0 bb 6d 1f 87 3c
       0.003981883 -0.014941432 -0.0063576233 0.016494477
0000a0 73 42 fe 3c 33 20 61 bc 9d bd 81 bc 16 93 63 bc
       0.031037545 -0.013740587 -0.015837485 -0.0138900485
0000b0 f7 38 a9 3c ac 8b 6f bc 63 78 87 bb 40 10 25 bd
       0.020657046 -0.014620703 -0.0041342243 -0.0402987
0000c0 f2 1d f3 b9 db f8 ec bc f7 bd ea 3a ea b5 84 3c
       -0.00046370883 -0.028927257 0.0017909397 0.016200025
0000d0 03 35 2b 3c 0c 2a a3 bc 80 ff 12 bd 73 dd 57 3d
       0.010449651 -0.01991751 -0.035888195 0.052701425
0000e0 25 6c 62 3c 7e f1 34 bd d5 b1 80 bb ae 59 a3 3c
       0.013819729 -0.044175617 -0.003927449 0.019940224
0000f0 ed 6d 06 bb 37 b3 2b bc 52 62 84 bc 92 c4 39 3a
       -0.0020512298 -0.01047974 -0.016160164 0.0007086481
000100 b6 39 4f 3d 65 12 c8 3c 99 6e cc bb cc bd 24 3d
       0.050592147 0.024422834 -0.00623877 0.040220067
000110 43 fd 77 bd 35 af 38 3d 8b 9e 5e bd 21 d1 e5 ba
       -0.060544264 0.045088965 -0.054350417 -0.0017533639
000120 a6 c5 51 3d cc 28 74 3d 6d 36 00 3b f1 a2 38 bc
       0.051213883 0.05960922 0.001956369 -0.011269317
000130 63 fb d9 3b 78 09 2a bb b2 26 db 3c f1 4d 55 3c
       0.006652282 -0.0025945585 0.02675185 0.013019071
000140 45 32 6e 3c 65 8e 4a 3d 4f e6 cf 39 81 bd 21 bd
       0.014538352 0.049452204 0.0003965371 -0.039487366
000150 81 48 33 bc 35 db fc bb a0 f2 17 bd c2 0c 51 bc
       -0.010942579 -0.007716561 -0.03709662 -0.012759389
000160 d4 b1 5d 3c 15 0b 81 bb c6 1e 7b 3c c5 e2 61 bc
       0.013531167 -0.0039380887 0.015327161 -0.013786976
000170 5d cd a7 bc fe 08 e2 3b 72 18 6c 3d a7 d8 0c 3d
       -0.020483667 0.0068980446 0.0576405 0.034386303
000180 1a e0 41 3d 39 3f 41 3c cc 6c 73 3c ed 65 5a bc
       0.04733286 0.011794859 0.014857482 -0.013329965
000190 2b cf f4 ba c7 46 3c 3c c6 89 7c bd cd 55 5f ba
       -0.0018677464 0.011491484 -0.06165483 -0.000851956
0001a0 ae 5e 2d 3c ee ad cf 3c 52 ce ac bc 75 fe d9 bc
       0.010581655 0.02535149 -0.021094475 -0.026610592
0001b0 79 c3 2b bd 74 0e 8c bb 3a ab c6 3c e9 fa 3b 3d
       -0.041934464 -0.004274184 0.024251569 0.045893583
0001c0 8f fc 66 bc 78 8f 7e 3a 0d 3d fc bb 60 cc 6b bb
       -0.014098301 0.00097107096 -0.0076977075 -0.0035979971
0001d0 b9 54 9c bc 9c 65 d3 3c f2 11 36 bc c4 bc de bc
       -0.019083368 0.025805287 -0.011112677 -0.02718962
0001e0 6e 1c d5 bb 83 c2 76 3d 08 02 59 3c ed a2 9e bb
       -0.006503633 0.060244095 0.013245113 -0.0048411996
0001f0 7c 58 34 3c 61 9a 8b 3c 8d 2c d9 3c 94 3b 98 3c
       0.011007424 0.017041387 0.026510501 0.018583097
000200 4c 87 11 3c 13 cb 14 3b 07 80 c4 3b 51 cd 47 3b
       0.008882355 0.002270405 0.0059967074 0.0030487368
000210 2c b7 a2 bb 05 71 7b 3b 4c 18 3a bc 25 48 5d 3a
       -0.0049656834 0.0038366925 -0.011358332 0.00084412313
000220 e5 b2 70 bc d3 e6 ff 3c 6b 2f 44 bc ec fb 5f 3c
       -0.014691089 0.031237995 -0.011974196 0.013670903
000230 4f 75 f0 3b de 43 31 bc 96 66 f6 bc 99 64 19 bd
       0.007338203 -0.010819403 -0.030078214 -0.037449453
000240 78 5f b3 3b 6a 61 ac bb 5f d5 3b 3c c4 50 26 3b
       0.0054740272 -0.005260636 0.011464446 0.002537773
000250 71 29 74 bc 8f 1b ea 3c 7b 87 29 3d 6f e0 7c 3c
       -0.0149024585 0.028577594 0.04138897 0.0154343685
000260 b1 00 a4 bb 6d 7d fb bb 3d 41 0d bc a5 25 c8 bc
       -0.0050049652 -0.007674864 -0.008621511 -0.024432013
000270 ff 07 f1 bc cb 98 35 3d 5f 12 e6 b9 0b 7a e7 3b
       -0.029422758 0.044335168 -0.00043882706 0.007064109
000280 e4 9d 06 bc a4 79 35 3b fc 98 86 bc 4d 9d 11 bc
       -0.008216355 0.0027690912 -0.01643037 -0.008887601
000290 f1 3c b8 bc 00 26 54 3d 1d 7c 1c 3c b8 80 e6 3c
       -0.022489997 0.051794052 0.009551075 0.02813755
0002a0 97 8f 88 3c 3e ab 11 bc 48 4f 1f 3b a4 e2 68 bc
       0.016670031 -0.008890925 0.002430873 -0.014214192
0002b0 b3 c0 c4 3b e4 36 97 bc 4c f3 59 bb eb e1 de bc
       0.006004417 -0.018458791 -0.0033256589 -0.027207335
0002c0 c3 ae af bb a6 fa 79 3c 64 b5 bf ba 47 08 1e 3d
       -0.0053614094 0.015257513 -0.0014626202 0.038582113
0002d0 47 57 90 bd f1 8c 5c bb 5d 89 87 3c 31 37 cb bc
       -0.07047897 -0.0033653344 0.016544992 -0.02480659
0002e0 57 b0 ba 3b cc d2 64 3d b1 2c d7 3c aa 78 1b bb
       0.005697291 0.055865094 0.026266428 -0.0023723044
0002f0 ad da fc 3b 93 b2 d3 3b 2a 1d 5f 3d 07 e7 16 3c
       0.007716498 0.0064604967 0.054471172 0.009210355
000300 03 98 23 bb 29 81 09 3d f1 63 03 bd 34 4d 94 3b
       -0.0024962432 0.033570442 -0.032077733 0.004525805
000310 28 d8 79 3b e5 74 e7 bb eb 37 77 bb 66 55 29 bd
       0.0038123224 -0.0070634955 -0.0037722539 -0.041341208
000320 80 fb 8f bb 60 fc 56 bc 8e d4 08 3d 48 f9 14 bd
       -0.004393995 -0.013121694 0.033405833 -0.036370546
000330 cd d9 9e bb 28 86 9b 3b e2 75 ff 3b 0a 26 80 3c
       -0.004847741 0.0047462173 0.007796035 0.015643138
000340 73 4c c7 ba 20 9a 24 bc 17 48 54 bb 7f d9 8b 3c
       -0.0015205279 -0.010046512 -0.0032391602 0.017071484
000350 67 65 34 3b 79 61 73 3c 75 11 f3 3c f7 70 22 3c
       0.002752626 0.014854782 0.02967141 0.009914628
000360 d3 29 06 3d d7 1d 42 bb 86 88 ff 3c c2 92 0f bc
       0.03275473 -0.0029619837 0.03119303 -0.008763017
000370 56 f6 98 bb a2 34 87 3a 56 7a 99 bc 8b a0 9e 3c
       -0.0046680374 0.0010315368 -0.018735092 0.019363662
000380 9f e0 32 ba 65 d3 a6 ba 32 54 ec bc d2 db 08 bc
       -0.0006823632 -0.0012727795 -0.028848741 -0.0083531905
000390 26 96 03 bc fd a4 be 3b 76 76 72 3a 5a ea 35 bd
       -0.008031404 0.005818008 0.00092492194 -0.04441295
0003a0 73 3a cb bc af 22 31 3c 9d 63 b7 ba 2a d3 42 3d
       -0.024808144 0.010811492 -0.0013991479 0.047564663
0003b0 2a 72 60 3b 03 ff ba bb 47 a7 2f bc a9 27 02 bc
       0.0034247735 -0.0057066693 -0.010721034 -0.007944026
0003c0 65 a3 1d bd 1b c4 48 bd 06 bc d6 bb 8b a4 b1 3c
       -0.038485903 -0.049015146 -0.006553176 0.021684906
0003d0 09 8a f5 bb 8b ee ec 3a b6 a2 b3 bb cb f0 dd bc
       -0.0074932617 0.0018076462 -0.005482043 -0.027092358
0003e0 f7 78 a7 3b 9e b9 8a b9 99 d9 6f 3d 06 7a 51 bc
       0.0051108557 -0.00026459707 0.058557127 -0.01278544
0003f0 ca 6c 75 bc e4 ce 09 bd 8b 78 e6 3c 8a 6e 25 bd
       -0.014979551 -0.033644572 0.028133651 -0.04038862

net.4.bias f4 [256]
000000 aa de c5 bd 91 a5 b7 bd 7d 20 e8 bd 95 74 50 bd
       -0.096616104 -0.08967126 -0.11334322 -0.05089243
000010 45 f2 f9 bd 09 cc 90 bd 59 36 33 bd 6c 39 26 bd
       -0.12204412 -0.070701666 -0.043753 -0.040582106
000020 2f 2b f2 bd 96 0a b6 bd ab 65 b3 bd 86 9f dc bd
       -0.11824643 -0.08888738 -0.08759626 -0.10772614
000030 e9 87 ae bd 4c 2f d3 bd 45 44 45 bd 00 62 be bd
       -0.085220166 -0.103117555 -0.04816081 -0.09296036
000040 ae 17 fa bd e9 98 a2 bd 0e 63 6f bc 87 eb b6 bd
       -0.12211548 -0.079393215 -0.014611019 -0.08931642
000050 1f 01 c3 bd bf ae 99 bd d7 17 d1 bd 89 6d d7 bd
       -0.09521698 -0.07504033 -0.10209625 -0.10518939
000060 23 df 0d be 74 20 8b bd 5a be 30 be fc 56 fb bc
       -0.13854651 -0.06793299 -0.17260113 -0.030681126
000070 87 31 b5 bd d1 c4 81 bd 6d 79 02 be 1e 28 a6 bd
       -0.08847337 -0.06336368 -0.12741633 -0.081131205
000080 59 20 57 bd 12 89 6b bd e1 02 8b bd ce 19 52 bc
       -0.052521084 -0.057503767 -0.067876585 -0.012823535
000090 8f bb 4a bd aa ac d2 bd b3 e7 49 bd a9 14 df bd
       -0.049495276 -0.10286839 -0.04929323 -0.108926125
0000a0 77 6d 8a bc 4b f4 fd bd dc 66 ad bd 69 f4 07 be
       -0.0168979 -0.12400111 -0.084668845 -0.13276829
0000b0 09 56 62 bd 70 e8 19 3b 67 55 e5 bd 68 ee 38 bd
       -0.05525783 0.002348449 -0.1119793 -0.045149237
0000c0 8f 18 28 bd 57 e1 8c bd cc 45 0c be 86 ca b9 bd
       -0.041039046 -0.06878918 -0.136985 -0.090718314
0000d0 02 1e 1f bd 6c cd 2b bd c5 75 2c ba c5 e0 21 bd
       -0.038846977 -0.041943952 -0.00065788283 -0.039520998
0000e0 33 a8 8c bd 4e 14 4f 3c fe 7a fa bd 12 de 00 be
       -0.06868019 0.012639118 -0.1223049 -0.12584713
0000f0 21 43 c4 bd 7d 65 01 be 77 18 75 bd 34 a8 a2 bd
       -0.09583116 -0.12636371 -0.059837785 -0.079422385
000100 ca d7 b5 bc ff c8 ec bd 9d 97 f3 bd 0f ef f9 bd
       -0.022197623 -0.115617745 -0.11894152 -0.122038
000110 a7 16 82 bd 0a 3e 90 bd 61 f1 04 bd 04 5c af bd
       -0.06351977 -0.07043083 -0.03245676 -0.085624725
000120 bf 0c 81 bd ee b3 7b bd f8 ee a3 bd d0 d0 74 bd
       -0.06301259 -0.06145089 -0.08004564 -0.05976945
000130 d8 5c bf bd 2f 0a b2 bd d4 be 8a bd 94 2f c5 bd
       -0.093438804 -0.086933486 -0.06774679 -0.096282154
000140 a0 f2 14 bd 70 bf c2 bd 58 2a 8a bd e5 d3 94 bc
       -0.036364198 -0.0950917 -0.06746358 -0.018167445
000150 a3 d1 0b bd 28 fa 99 bd 34 3a da bd 8f 1c 88 bd
       -0.034135472 -0.07518417 -0.106556326 -0.06646072
000160 25 fc a9 bd e4 64 b2 bd c9 12 74 bd cc 54 13 be
       -0.08300046 -0.087106496 -0.059588227 -0.14387816
000170 01 45 80 bd 84 74 d7 3b b7 95 7f bd 4b 4f 0f bd
       -0.062631615 0.006575169 -0.06239864 -0.03498773
000180 ab c3 2d bd 47 41 26 bd ed 45 4e bd 74 7d 19 be
       -0.04242293 -0.040589597 -0.050359655 -0.14989263
000190 dc d6 e4 bd 3b f9 36 be 35 60 09 be cb e0 44 bd
       -0.11173794 -0.17868511 -0.13415606 -0.04806594
0001a0 25 31 af bd 80 68 cc bc 3b e2 bc bd d6 a6 57 bd
       -0.085542955 -0.024952173 -0.092228375 -0.05264934
0001b0 50 6f d1 bd ec 61 3b bd f5 f9 c3 bd c8 a7 0d be
       -0.10226309 -0.045747682 -0.0956916 -0.13833535
0001c0 60 1c a5 bd 7c 46 35 be 23 07 03 be 7b 92 ef bd
       -0.08062053 -0.17702669 -0.12795691 -0.11697861
0001d0 31 f5 70 bd c3 d0 9c bd ec e2 dd bd 7a 3b cf bd
       -0.058827583 -0.07657006 -0.108342975 -0.10118766
0001e0 76 a6 a4 bd 98 fd aa bd a9 59 9f bd 3a d5 b2 bd
       -0.080395624 -0.083491504 -0.07780773 -0.08732076
0001f0 52 4f f9 bd cc e9 5f bd 5b b5 c4 bd fc d6 df bd
       -0.12173332 -0.054666325 -0.09604903 -0.10929677
000200 31 68 ea bd a9 e6 6b bd 8d 0c ab bd 8e 4b f5 bd
       -0.11445654 -0.05759302 -0.08352003 -0.119773015
000210 89 83 04 be a7 fa f0 bd 9b 4a 7a bd 12 b2 cb bd
       -0.12940802 -0.11766558 -0.061106306 -0.099460736
000220 14 72 ba bc 7c 0c 02 be 72 b6 a9 bd 50 6b ab b7
       -0.022759475 -0.12700075 -0.08286752 -2.043476e-05
000230 75 3a a2 bd b8 3d f7 bd 77 51 a0 bd 95 98 b4 bd
       -0.07921306 -0.12072319 -0.07828038 -0.08818165
000240 16 75 f8 bd 6e e6 f7 bc f0 a0 0a be e9 bd f0 bd
       -0.12131707 -0.030261245 -0.13537955 -0.117549725
000250 7f 00 92 bd c4 fa a1 bd ef 35 af bd f7 20 80 bd
       -0.07129001 -0.07909158 -0.08555209 -0.062562875
000260 dd 44 f3 bc 46 bf 80 bd a7 b3 af bd 25 80 14 be
       -0.029695923 -0.062864825 -0.08579188 -0.14502008
000270 59 b0 05 be ed 67 51 be db a8 83 bd ed 0b 51 bb
       -0.13055553 -0.20449801 -0.06428691 -0.0031897977
000280 40 f0 07 be ea e9 11 be b1 5a 9c bd 44 3c de bd
       -0.13275242 -0.14249387 -0.076344855 -0.108513385
000290 82 d7 df bc c1 f4 6d bd 31 6a 35 bd c0 47 0a be
       -0.027324442 -0.058094744 -0.044290725 -0.13503933
0002a0 d5 3e f9 ba 6a f7 b4 bc 85 a1 30 be 54 e6 80 bd
       -0.0019015918 -0.022090632 -0.17249115 -0.062939316
0002b0 c4 3b 84 bd 8a d2 e7 bd 10 46 e1 bd 34 65 b5 bd
       -0.06456712 -0.11319454 -0.109996915 -0.088571936
0002c0 98 ef b4 bd f4 67 d0 bd c3 ea 95 bd 48 1a e1 bd
       -0.088347614 -0.101760775 -0.07320168 -0.10991341
0002d0 f8 68 e2 bd db 58 89 bd ad ac 30 91 48 19 a9 bd
       -0.110551775 -0.06706401 -1.3937162e-28 -0.08256775
0002e0 a6 3e 63 bd c0 1c 2e 3c 64 5d 30 bd 0b a7 f3 bd
       -0.055479668 0.010626972 -0.043057814 -0.11897095
0002f0 91 70 b3 bd 75 e0 4a bd 80 97 87 bb 18 7b 40 bd
       -0.08761705 -0.049530465 -0.0041379333 -0.04699239
000300 94 bc 82 bd 47 c6 5a bd c8 84 23 be bf 57 49 bd
       -0.06383625 -0.05341175 -0.15968621 -0.049155947
000310 d1 f5 44 bd 6f 66 d8 bd 1c e4 d8 bd f0 3e 8b bd
       -0.04808599 -0.10566413 -0.105903834 -0.06799114
000320 93 9d 06 be 9f 74 c7 bd b2 dd 04 be 1e a7 12 be
       -0.13146047 -0.097390406 -0.12975195 -0.14321563
000330 d4 32 d2 bd 9c a6 1c bd 24 de 98 bd 53 bb 17 be
       -0.10263601 -0.03824483 -0.07464245 -0.14817552
000340 29 ee e5 bd 4a d3 33 be f5 6d aa bd 44 fa d1 bd
       -0.11227066 -0.17561069 -0.08321754 -0.102528125
000350 a4 79 ab bd ec 3d e8 bd ac 2b 03 bd 6c 2c 56 bd
       -0.083728105 -0.11339936 -0.03202407 -0.052288458
000360 da e0 2f bd a3 16 1c bd eb d2 ba bd c0 21 54 bd
       -0.042939045 -0.038107526 -0.09122261 -0.05179
000370 53 66 6f bd 32 f7 46 93 aa 3d 11 be 8f 2a 41 bb
       -0.058447193 -2.511299e-27 -0.14183679 -0.002947483
000380 6a e2 80 bd 02 22 fb bd 8f 22 f8 bc e7 1f dd bd
       -0.06293185 -0.12262346 -0.030289916 -0.107971005
000390 d8 8b d4 bd f2 67 ec bd 85 38 fd bd b2 2c 85 bd
       -0.103782356 -0.115432635 -0.12364296 -0.065026656
0003a0 80 fc bd bd 26 90 b8 bd c0 9f 1e 3c e0 31 a2 bd
       -0.09276676 -0.09011869 0.009681642 -0.07919669
0003b0 40 c3 9a bd eb 66 d2 bd c7 ee da bd f7 a4 96 bd
       -0.07556772 -0.10273536 -0.106900744 -0.07355683
0003c0 84 4e 06 b2 6f e0 4e bd 81 eb 95 bd 85 42 b1 bd
       -7.817679e-09 -0.050507005 -0.073203094 -0.08655266
0003d0 b8 fd 63 bd 5e ee 74 bd 2e 6a ae bd 2c d1 b1 bd
       -0.055661887 -0.059797637 -0.08516346 -0.086824745
0003e0 73 0e 0b bd af 02 8d bd 03 a7 b4 bd 90 c2 eb bd
       -0.033949327 -0.068852775 -0.088209175 -0.11511719
0003f0 52 ec 8a bd bb 79 c9 bd c2 43 89 bd 6e 28 da bd
       -0.06783356 -0.09837671 -0.06702377 -0.106522426

net.6.weight f4 [256]
000000 98 3a 9b 3e 34 44 9d 3e 50 5d 86 3e 2d d7 9e 3e
       0.3031814 0.30716097 0.26243067 0.3102354
000010 75 55 89 3e 8d 29 a7 3e c3 69 9b 3e ff f8 9a 3e
       0.2682301 0.32648888 0.30354127 0.30268094
000020 10 9f 00 3f 48 c5 85 3e e9 4c b5 3e d0 32 b4 3e
       0.5024271 0.26127076 0.3541024 0.35195017
000030 db 5c ba 3e 52 93 cf 3e 9b 8e 83 3e 49 ae cb 3e
       0.36398968 0.40542084 0.25694737 0.39781407
000040 fa b2 90 3e 6e 8c 9c 3e 27 9a 97 3e 1f 37 c0 3e
       0.28261548 0.3057589 0.29609796 0.37542054
000050 cd 4f 88 3e 6d d6 c8 3e 30 55 df 3e ab 8d ae 3e
       0.26623383 0.39226094 0.4361968 0.3409246
000060 3c ce 08 3f b6 8b 84 3e e9 67 95 3e 37 28 8b 3e
       0.5343969 0.2588784 0.2918084 0.2717912
000070 51 d5 bd 3e e6 68 9a 3e db d7 a5 3e aa 4b f0 3e
       0.3707681 0.30158156 0.32391247 0.46932727
000080 64 c6 aa 3e 02 de bc 3e 45 3e 9f 3e 58 5e da 3e
       0.33354485 0.3688813 0.31102195 0.42650104
000090 48 82 a6 3e a2 d1 6f 3e 98 49 e1 3e a6 5a bb 3e
       0.32521272 0.23419812 0.4400146 0.36592597
0000a0 9a 6a e2 3d c3 19 e3 3e 42 b6 e2 3e 11 15 d2 3e
       0.11055489 0.44355592 0.44279677 0.41031697
0000b0 3e 74 9a 3e e8 18 91 3e 57 cf 8c 3e 7f a2 79 3e
       0.3016681 0.28339314 0.27501938 0.24378394
0000c0 32 49 84 3e 3e 26 85 3e ec 3c d3 3e 00 6b d6 3e
       0.25837094 0.2600574 0.41257417 0.4187851
0000d0 5a 13 a5 3e 8b d5 9b 3e cd b0 df 3e 13 75 ee 3e
       0.32241327 0.30436358 0.43689576 0.46573696
0000e0 a5 fc 78 3e ac 9d 36 3d d6 6e e2 3e 3f 2d fa 3e
       0.24315126 0.04458396 0.44225186 0.48862645
0000f0 ff 23 c1 3e 68 4d d4 3e 21 50 73 3e 41 82 9b 3e
       0.37722775 0.41465306 0.23761036 0.30372813
000100 45 35 9f 3e 58 db ac 3e f1 a6 a3 3e 1e 2a 87 be
       0.3109533 0.33761096 0.31963304 -0.2639932
000110 ef 5a 97 3e ba 70 8f 3e 37 10 86 3e 12 e1 b1 3e
       0.29561564 0.2801569 0.26184246 0.34742028
000120 a1 b9 7d 3e b3 2c ca 3e 57 b8 60 3e 0e 8f 91 3e
       0.24777843 0.39487228 0.2194532 0.28429455
000130 56 d7 b6 3e d9 bb 84 3e 3e b4 71 3e ab dd 7b 3e
       0.35711163 0.25924566 0.23603913 0.24596278
000140 f8 aa e1 3e 33 58 b6 3e bd 92 b6 3e e9 9c 9a 3e
       0.4407575 0.35614166 0.35658827 0.30197838
000150 aa 13 61 3e 83 50 a1 3e 04 8d 81 3e 4a 18 d7 3e
       0.21980157 0.31506738 0.253029 0.4201072
000160 4a 7c 54 3e cd 79 82 3e 69 2c 9d 3e 21 67 e7 3e
       0.20750538 0.25483552 0.30697945 0.4519587
000170 93 95 97 3e f7 c1 80 3e 61 5d 99 3e 29 45 42 3e
       0.29606304 0.25147983 0.29954055 0.18971695
000180 24 12 9e 3e 21 38 b0 3e 5a 67 85 3e fd cf 51 3e
       0.30873215 0.34417823 0.26055413 0.20489497
000190 42 24 01 3f 57 b1 fd 3e 53 9c 91 3e c7 f1 68 3e
       0.5044595 0.49549362 0.28439578 0.2274848
0001a0 7b 4a c2 3e 5c e5 15 3e 8e ae 8a 3e be ea 8b 3e
       0.3794745 0.14638275 0.270863 0.27327532
0001b0 42 d7 8d 3e 72 7e 88 3e 69 0d cc 3e 5c b0 f0 3e
       0.2770329 0.2665897 0.3985398 0.47009552
0001c0 5c c1 68 3e ce 24 fc 3e ff b4 e6 3e 36 84 cb 3e
       0.22730011 0.4924683 0.45059964 0.39749306
0001d0 b8 69 b8 3e 27 51 8f 3e 74 24 a5 3e cd 2b f4 3e
       0.36018157 0.27991602 0.32254374 0.47689667
0001e0 6c 8d 7d 3e de fa 99 3e 7e 7c a7 3e b8 5f ab 3e
       0.2476098 0.3007421 0.32712168 0.33471465
0001f0 a3 81 dc 3e 45 ac 85 3e a6 0b ed 3e 79 14 d4 3e
       0.43067655 0.26107994 0.4629795 0.4142187
000200 54 b1 b9 3e d1 23 a1 3e 60 87 a3 3e b9 45 ea 3e
       0.36268103 0.31472638 0.3193922 0.4575632
000210 17 61 07 3f d0 58 f8 3e e3 f7 86 3e 81 72 e6 3e
       0.5288252 0.4850526 0.26360998 0.45009235
000220 2a 57 76 3e 2e d9 98 3e 97 b2 61 3e 32 2c d3 3e
       0.24056688 0.29853195 0.22040783 0.41244656
000230 09 18 b9 3e 8c 43 e6 3e 95 80 90 3e e9 ee b0 3e
       0.3615115 0.4497341 0.282231 0.34557274
000240 89 c8 ea 3e 70 9a 8b 3e 5d 2d 04 3f 98 81 97 3e
       0.4585612 0.27266264 0.5163172 0.2959106
000250 f9 64 65 3e fa c8 b7 3e e6 75 dc 3e 3c 04 5f 3e
       0.224018 0.3589552 0.430587 0.21778959
000260 b8 92 c8 3e 73 a2 7f 3e 23 f2 8c 3e af 9a 6a 3e
       0.39174438 0.24964313 0.27528486 0.2291057
000270 08 45 93 3e df fb d5 3e 79 2f b1 3e 64 a1 e3 3d
       0.28763604 0.41793725 0.3460653 0.11114767
000280 0b 88 97 3e 08 b8 eb 3e 5a 7d 93 3e 0a ed ad 3e
       0.2959598 0.46038842 0.28806573 0.3396991
000290 88 43 98 3e c9 d0 92 3e 2d 19 9d 3e da 10 da 3e
       0.29739022 0.28674915 0.3068327 0.42590982
0002a0 1a b1 80 3e a6 28 92 3e 30 2c f1 3e cc 64 aa 3e
       0.25135118 0.28546637 0.47104025 0.33280027
0002b0 ca 35 88 3e a9 8c 95 3e c1 78 c6 3e 03 9b 95 3e
       0.26603538 0.29208878 0.38764003 0.29219827
0002c0 82 d1 97 3e 40 78 83 3e 54 19 dc 3e ef 91 65 3e
       0.2965203 0.2567768 0.42988074 0.2241895
0002d0 21 db 86 3e 0d a8 8e 3e 0e 9b ea 3e f8 d7 8d 3e
       0.26339057 0.27862588 0.45821422 0.27703834
0002e0 28 5b 98 3e 49 35 9e 3e 30 4d fe 3e f6 3e ef 3e
       0.29757047 0.30900028 0.49668264 0.46727723
0002f0 57 9e e0 3e 9a ab 9d 3e 8b 17 e1 3e 1d 18 21 3e
       0.43870804 0.30794984 0.43963274 0.15731855
000300 ec c3 d5 3e e8 da cf 3e d7 f9 86 3e 26 57 85 3e
       0.4175104 0.405967 0.26362488 0.2604305
000310 97 22 7f 3e 57 a2 a2 3e ec bf ab 3e 71 13 80 3e
       0.24915539 0.3176448 0.33544862 0.25014833
000320 af b2 09 3f 25 55 a8 3e dc 04 ec 3e a1 e6 fc 3e
       0.53788275 0.3287746 0.46097457 0.49394706
000330 55 95 94 3e d1 3c 90 3e b8 bd a7 3e 11 8e fa 3e
       0.2902018 0.281714 0.3276193 0.48936513
000340 ab 76 7d 3e c0 db 17 3f e2 89 3a 3e 94 15 df 3e
       0.247523 0.59319687 0.1821666 0.4357115
000350 5c 1c 93 3e a8 40 dd 3e d1 dc bb 3e bf 4f e1 3e
       0.28732574 0.4321339 0.36691907 0.44006154
000360 09 52 81 3e 04 63 78 3e b6 eb 92 3e e6 01 e2 3e
       0.252579 0.24256521 0.28695458 0.44142073
000370 11 b0 70 3e 3f 26 01 3f 11 ce 8c 3e 73 90 e8 3e
       0.23504664 0.50448984 0.27500966 0.45422706
000380 fc 51 99 3e 84 a8 b4 3e 5c 0b 67 3e 5b 53 f7 3e
       0.29945362 0.35284817 0.22562927 0.48305783
000390 dc be 72 3e 4c cb c0 3e 89 74 8f 3e 4e d4 98 3e
       0.2370562 0.37655103 0.28018597 0.29849476
0003a0 b8 8c 7b 3e b6 b4 8f 3e 8a 1d c5 3d a5 23 83 3e
       0.24565399 0.2806756 0.09624775 0.25613132
0003b0 d7 50 ae 3e f3 13 cc 3e 72 27 c1 3e a1 d0 9a 3e
       0.3404605 0.3985897 0.37725407 0.30237296
0003c0 6f cb db 3e c5 2a 8b 3e f7 63 b4 3e 84 33 8c 3e
       0.42928645 0.27181068 0.35232517 0.27383053
0003d0 e2 f8 dd 3e a7 5b 88 3e 6f 38 9b 3e 78 ad ac 3e
       0.43353945 0.26632425 0.30316493 0.33726096
0003e0 7c 55 91 3e a1 12 99 3e ad c8 98 3e f5 a2 ee 3e
       0.28385532 0.29897025 0.29840603 0.466087
0003f0 6d 0f e5 3e 2e 4f 9c 3e b1 83 a5 3e 04 05 9f 3e
       0.4473833 0.3052916 0.32327035 0.31058514
