RL code/models/checkpoint_episode_990000.pth (torch, 801255 bytes, 40 tensors)

net.0.weight f4 [256, 22]
0	0xbca977ba	-0.020686973
1	0xbcc82de4	-0.024435945
2	0x3ce50c9c	0.027960114
3	0xbde6803c	-0.112549275
4	0x3d1dc9d0	0.03852254
5	0xbbd41e25	-0.00647332
6	0x3c3d6809	0.011560448
7	0xbd810736	-0.063002035
8	0x3c196f70	0.009364948
9	0xbd195a3f	-0.03743958
10	0xbd6c50d4	-0.05769427
11	0x3e8acd7a	0.2710989
12	0xba566f99	-0.00081800815
13	0xbe05e509	-0.13075651
14	0x3d95110e	0.072786435
15	0xba36494e	-0.0006953672
16	0x3d36b2bc	0.044604048
17	0xbd79bd13	-0.06097133
18	0xbc196f70	-0.009364948
19	0x3d195a3f	0.03743958
20	0xbca977ba	-0.020686973
21	0xbcc82de4	-0.024435945
22	0x3c131906	0.008978134
23	0xbcc1f2ff	-0.02367544
24	0xbe1bbc2a	-0.15208498
25	0x3c5ba96e	0.013407094
26	0xbdff4a01	-0.12465287
27	0xbc35a172	-0.011085855
28	0xbd8f73e0	-0.07004523
29	0x3d5a391c	0.05327712
30	0x3ca13cc3	0.019682294
31	0x3db927a5	0.09040765
32	0x3b43247b	0.0029776383
33	0xbe01ae2e	-0.126641
34	0xbe2720bc	-0.16321081
35	0x3db90f86	0.09036164
36	0xbdef3031	-0.11679114
37	0xbd88d70c	-0.06681642
38	0xbd8a37ff	-0.06748962
39	0xbb9f3372	-0.0048584277
40	0xbca13cc3	-0.019682294
41	0xbdb927a5	-0.09040765
42	0x3c131906	0.008978134
43	0xbcc1f2ff	-0.02367544
44	0x3e0357ba	0.12826434
45	0x3e0ad50a	0.1355783
46	0x3e277dec	0.16356629
47	0x3e3080e0	0.17236662
48	0xbe4709a8	-0.19437277
49	0xbe203851	-0.15646483
50	0xbe332335	-0.17493899
51	0xbe25ff50	-0.16210675
52	0xbec39581	-0.382
53	0xbeaefb30	-0.34176016
54	0xbe8084f0	-0.25101423
55	0xbe6adc7d	-0.22935672
56	0xbe4a3669	-0.19747318
57	0xbe22daf2	-0.15903834
58	0x3e268276	0.16260704
59	0x3e394248	0.1809169
60	0x3e3caf01	0.18426134
61	0x3e30bf64	0.1726051
62	0x3ec39581	0.382
63	0x3eaefb30	0.34176016
64	0x3e03575f	0.12826298
65	0x3e0ad4b6	0.13557705
66	0xbd8d6047	-0.06903129
67	0x3dde310c	0.10849199
68	0x3d9b7315	0.075903095
69	0x3c8c4146	0.017120969
70	0x3d96e113	0.07367148
71	0x3c66710d	0.014065039
72	0xbcf835b5	-0.030299047
73	0x3db48e34	0.088161856
74	0x3d41a6df	0.04727828
75	0x3e0c372e	0.13692924
76	0xbce7f622	-0.028315607
77	0xbd4713c3	-0.04860283
78	0x3d8b53a7	0.06803065
79	0x3d9cf637	0.07664149
80	0x3db4dd20	0.08831239
81	0xbd068b7e	-0.032847874
82	0xbc322e3b	-0.01087528
83	0x3cfe2ead	0.031028116
84	0xbd41a6df	-0.04727828
85	0xbe0c372e	-0.13692924
86	0xbd8d6047	-0.06903129
87	0x3dde310c	0.10849199
88	0x3c8a258d	0.016863609
89	0xbcd0713a	-0.025444616
90	0x3e23b55a	0.15987149
91	0x3deec6de	0.11659025
92	0xbb6d0170	-0.0036164187
93	0x3e111040	0.14166355
94	0x3cd45a3c	0.025921933
95	0x3be0987b	0.0068541146
96	0xbc700e4a	-0.014651844
97	0x3d2ac379	0.041690324
98	0xbd90581e	-0.07048057
99	0x3c8c1623	0.0171004
100	0x3e02a14f	0.12756847
101	0x3e09501c	0.13409466
102	0x3d03cfbf	0.032180544
103	0x3dfcb6b0	0.123395324
104	0x3d74d614	0.059774473
105	0xbc8944b4	-0.016756393
106	0x3c700e4a	0.014651844
107	0xbd2ac379	-0.041690324
108	0x3c8a258d	0.016863609
109	0xbcd0713a	-0.025444616
110	0xbd7a1a36	-0.061060153
111	0x3a07fd39	0.00051875744
112	0xbe637ae0	-0.22214842
113	0xbcc4b567	-0.02401228
114	0x3ca9fbd8	0.020749971
115	0xb9a60f04	-0.00031673175
116	0x3d1861ea	0.037202753
117	0xbc11735b	-0.008877601
118	0x3d80b142	0.06283809
119	0x3c52aea8	0.012859024
120	0x3d726f51	0.05918819
121	0xbd0ba892	-0.034096308
122	0xbe35b476	-0.17744622
123	0xbcfa0584	-0.030520208
124	0xbd0b40c8	-0.033997327
125	0x3c0925f6	0.008370867
126	0xbcb65804	-0.022258766
127	0xbc18f204	-0.009335045
128	0xbd80b142	-0.06283809
129	0xbc52aea8	-0.012859024
130	0xbd7a1a36	-0.061060153
131	0x3a07fd39	0.00051875744
132	0x1b64f5a8	1.8939094e-22
133	0x14c69dec	2.005518e-26
134	0xa185a147	-9.05512e-19
135	0x26355cb0	6.2922605e-16
136	0x2694e658	1.0331998e-15
137	0x2c88aa53	3.8842623e-12
138	0x26e6ecbd	1.6023624e-15
139	0x2cab61d4	4.8709734e-12
140	0x00056012	4.93641e-40
141	0x800557d6	-4.90687e-40
142	0x9e196c56	-8.122156e-21
143	0x23a5ba16	1.7968146e-17
144	0x98e1f901	-5.8412567e-24
145	0x21d6f26b	1.4565372e-18
146	0x246bbdad	5.1118164e-17
147	0x2aaf333d	3.1121798e-13
148	0xa3873140	-1.4657588e-17
149	0x2c80bdde	3.6590583e-12
150	0x80056012	-4.93641e-40
151	0x000557d6	4.90687e-40
152	0x1b64f5a8	1.8939094e-22
153	0x14c69dec	2.005518e-26
154	0xbbb06e68	-0.005384255
155	0x3d262555	0.040562946
156	0xbda4e4ed	-0.08051477
157	0xbc52e197	-0.012871168
158	0x3d9d5088	0.07681376
159	0xbcf4887b	-0.029850235
160	0xbdf1a6bd	-0.11799381
161	0x3bb410bb	0.0054951585
162	0xbd5d4082	-0.054016598
163	0xbd0f7df3	-0.035032224
164	0x3e10fc6e	0.14158794
165	0x3d203b57	0.03911909
166	0xbe063fe5	-0.13110311
167	0x3b45bb7f	0.003017157
168	0x3de6c553	0.11268105
169	0xbd4dcaea	-0.050242342
170	0xbda76768	-0.0817402
171	0xbc00c262	-0.0078588445
172	0x3d5d4082	0.054016598
173	0x3d0f7df3	0.035032224
174	0xbbb06e68	-0.005384255
175	0x3d262555	0.040562946
176	0xbd4bdbdf	-0.049770232
177	0x3c9696f4	0.018382527
178	0x3bb3cea2	0.005487279
179	0x3c1db4c6	0.009625619
180	0xbcf6e94d	-0.030140543
181	0xbc2fe30e	-0.010735286
182	0xbd800166	-0.06250267
183	0xbbfbcd1e	-0.007684364
184	0x3d553685	0.052053947
185	0x3d3f9cfd	0.046780575
186	0xbc2e3c7a	-0.010634536
187	0xbe025d46	-0.12730893
188	0x3d122a0c	0.03568463
189	0x3d1759a9	0.03695074
190	0xbd502ec0	-0.050825834
191	0xbcb93157	-0.022606535
192	0xbda5d5d7	-0.08097427
193	0xbcba9a65	-0.0227787
194	0xbd553685	-0.052053947
195	0xbd3f9cfd	-0.046780575
196	0xbd4bdbdf	-0.049770232
197	0x3c9696f4	0.018382527
198	0xbcfa816b	-0.03057929
199	0xbcf3be67	-0.029753877
200	0xbcd4ae40	-0.025961995
201	0xbdb84306	-0.08997159
202	0x3d0abd03	0.033871662
203	0x3d3553ad	0.044269253
204	0xbd157f37	-0.036498275
205	0xbe03a5c3	-0.12856202
206	0xbd7d372d	-0.061820198
207	0x3d036002	0.032073982
208	0xbe086b59	-0.133222
209	0xbd6b1e09	-0.05740169
210	0xbcbf5000	-0.023353577
211	0xbd59b04d	-0.05314665
212	0x3d117502	0.035511978
213	0x3bb932ed	0.005651823
214	0xbd234042	-0.039856203
215	0xbe2949df	-0.16532086
216	0x3d7d372d	0.061820198
217	0xbd036002	-0.032073982
218	0xbcfa816b	-0.03057929
219	0xbcf3be67	-0.029753877
220	0x3cdd933e	0.02704775
221	0x3c836dd4	0.016043581
222	0xbdcc8097	-0.09985464
223	0xbdf2e12f	-0.118593566
224	0xbd06065f	-0.03272092
225	0x3ce1561d	0.027506882
226	0xbd029b0c	-0.031886145
227	0xbe1d24f8	-0.15346134
228	0xbd093b7b	-0.03350399
229	0xbd3e514f	-0.04646426
230	0x3d1072ed	0.03526585
231	0xbc4eace9	-0.012614467
232	0xbe13a4e1	-0.14418365
233	0xbe1c687e	-0.15274236
234	0x3c07eff5	0.008296956
235	0x3d26c725	0.040717263
236	0x3c34f5c3	0.011044922
237	0xbe00e4d7	-0.12587295
238	0x3d093b7b	0.03350399
239	0x3d3e514f	0.04646426
240	0x3cdd933e	0.02704775
241	0x3c836dd4	0.016043581
242	0x3c9940f1	0.018707724
243	0x3cc2d0c8	0.023781195
244	0x3d6f2b45	0.058390874
245	0xbe104f44	-0.14092737
246	0x3dabee85	0.08395103
247	0xbd6b23b4	-0.057407096
248	0xbdb060d7	-0.08612221
249	0xbdb0b4b5	-0.08628217
250	0xbd97afc9	-0.07406575
251	0xbd54082b	-0.051765602
252	0xbc493a35	-0.012281944
253	0xbd45850d	-0.04822259
254	0x3d39f4e2	0.045399554
255	0xbe18b69c	-0.1491341

net.0.bias f4 [256]
0	0xbe706c4c	-0.23478812
1	0xbe457f1a	-0.19286767
2	0xbe1c07d5	-0.15237363
3	0xbe707bc1	-0.23484708
4	0xbe5b0c14	-0.21391326
5	0xbe912855	-0.28351083
6	0xaeac0ffb	-7.824493e-11
7	0xbe806c16	-0.25082463
8	0xbe726322	-0.23670629
9	0xbe946e20	-0.2899027
10	0xbe244f56	-0.1604589
11	0xbe9bd07c	-0.30432498
12	0xbe727cc4	-0.23680407
13	0xbe4cfa3d	-0.20017333
14	0xbe3f94bb	-0.1870908
15	0xbe67ab13	-0.22623853
16	0xbe8c2e00	-0.27378845
17	0xbf1dd4d2	-0.61652863
18	0xbe883515	-0.26602998
19	0xbe8ee9b2	-0.2791267
20	0xbe990393	-0.2988554
21	0xbe9749e5	-0.29548565
22	0x3d91bb23	0.071157716
23	0xbea4f1f6	-0.32215852
24	0xbe47235b	-0.19447081
25	0xbe4b621e	-0.19861647
26	0xbe82650e	-0.25467724
27	0xbea70e0c	-0.32627904
28	0xbea98619	-0.3311012
29	0x3e59d214	0.21271545
30	0xbedf8499	-0.4365585
31	0xbe950568	-0.29105687
32	0xbf17ced8	-0.59299994
33	0xbe627dc8	-0.22118294
34	0xbf191902	-0.59803784
35	0xbea11e72	-0.3146854
36	0xbf180f63	-0.5939848
37	0xbe774573	-0.24147587
38	0xb29d3fdd	-1.8306247e-08
39	0xbe9b2cc0	-0.3030758
40	0xbe9aa4b5	-0.30203786
41	0xbe3dedf3	-0.18547802
42	0xbe8bfb78	-0.27340293
43	0xbe7d5f4d	-0.24743386
44	0xbe97844d	-0.29593125
45	0xbe92c42a	-0.28665286
46	0xbe7ce607	-0.24697123
47	0xbe6f0baa	-0.23344293
48	0xbe465194	-0.19367057
49	0xbe4b462b	-0.19850986
50	0xbeae7806	-0.34075946
51	0xbe812694	-0.25224745
52	0xbe6f25a5	-0.23354204
53	0xbe512e36	-0.20427784
54	0xbe42e334	-0.19031984
55	0xbe45bb59	-0.19309749
56	0xbe96d84e	-0.29461902
57	0xbe87cfb2	-0.26525646
58	0xbed6a037	-0.4191911
59	0xbe5be4e9	-0.21474041
60	0xbe580493	-0.21095495
61	0xbea49766	-0.32146758
62	0xbe3bf1b2	-0.18353918
63	0xbe49f189	-0.19721045
64	0xbe8e8324	-0.27834427
65	0x3db5708d	0.08859358
66	0xbe9194d4	-0.2843386
67	0xbe886ba5	-0.26644626
68	0xbe268c65	-0.16264494
69	0xbe810176	-0.25196427
70	0xbe56eed9	-0.2098955
71	0xbe9173f1	-0.2840877
72	0xbf0a0898	-0.53919363
73	0xbe7c3379	-0.2462901
74	0xbece5a52	-0.40303284
75	0xbe50bfa7	-0.2038561
76	0xbe63df71	-0.22253205
77	0xbe8cecef	-0.27524516
78	0xbe2e71c5	-0.17035587
79	0xbeb8cae9	-0.36092308
80	0xbed3e02c	-0.41381967
81	0xbe33cce3	-0.17558627
82	0xbea5b24f	-0.323626
83	0xbe43887f	-0.19095038
84	0xbe93c745	-0.28862968
85	0xbe812758	-0.2522533
86	0xbe4accbe	-0.19804665
87	0xbf11b865	-0.5692199
88	0xbea684e1	-0.32523254
89	0xbe5310db	-0.20611899
90	0xbf106774	-0.56407857
91	0xbe83220a	-0.25611907
92	0xbe403eb2	-0.18773916
93	0xbe9c9886	-0.30585116
94	0xbe66cbe3	-0.22538714
95	0xbe8463d3	-0.2585741
96	0xbea73fd1	-0.32665876
97	0x3e5ed51f	0.21760987
98	0xbe8bbb0d	-0.27291146
99	0xbe5ec16a	-0.21753469
100	0xbf0a8718	-0.54112387
101	0xbe93f6a2	-0.28899103
102	0xbe8b66d4	-0.2722689
103	0xbf0309a5	-0.5118659
104	0xbe569cd6	-0.20958266
105	0xbe876557	-0.26444504
106	0xbe78a68c	-0.24282283
107	0xbe8c2483	-0.27371606
108	0xbe9b1d9d	-0.3029603
109	0xbe83b0c2	-0.25720793
110	0xbe96c414	-0.2944647
111	0xbee69c70	-0.45041227
112	0xbec2feed	-0.38085118
113	0xbf1a933a	-0.603809
114	0xbe814586	-0.25248355
115	0x3db48cbd	0.08815906
116	0xbe693d53	-0.227773
117	0xbe9bf365	-0.30459133
118	0xbe735b6b	-0.23765342
119	0xbe4f6ac7	-0.20255576
120	0xbe860a2a	-0.2617963
121	0xbeac8e40	-0.33702278
122	0xbe8c6f8b	-0.2742885
123	0xbe66bacc	-0.22532195
124	0xbead51e3	-0.33851537
125	0x3e60acda	0.21940938
126	0xbe814f4f	-0.2525582
127	0xbf0eb5c2	-0.5574609
128	0xbea47d63	-0.32126912
129	0xbe9d7480	-0.30752945
130	0xbe391b3f	-0.180768
131	0xbee37779	-0.44427088
132	0xbe7d74ff	-0.24751662
133	0xbf053336	-0.52031267
134	0xbe9bb15e	-0.30408758
135	0xbe9cca2a	-0.3062299
136	0xbe56edc5	-0.2098914
137	0xbe9f93e0	-0.31167507
138	0xbe545443	-0.20735268
139	0xbe9465c9	-0.28983906
140	0xbe39fd34	-0.18162996
141	0xbead124c	-0.33803022
142	0xbdd9a23c	-0.10626647
143	0xbd27ff91	-0.04101521
144	0x3e5bcbcf	0.21464466
145	0xbe925c4b	-0.2858604
146	0xbe160e86	-0.14653978
147	0xbe76022c	-0.24024266
148	0xbe448731	-0.19192196
149	0xbe775160	-0.24152136
150	0xbea43998	-0.3207519
151	0xbe7927e6	-0.24331626
152	0xbe90bc79	-0.28268793
153	0xbea9990b	-0.33124575
154	0xbe903ad0	-0.2816987
155	0xbe571f8c	-0.21008128
156	0xbe8e292b	-0.27765784
157	0xbd83f19e	-0.06442569
158	0xbea9859f	-0.33109757
159	0xbe48be8b	-0.19603936
160	0xbe61151f	-0.21980713
161	0xbe3ad875	-0.18246634
162	0xbe8a72a9	-0.27040604
163	0xbe71ad91	-0.23601367
164	0xbe80b534	-0.25138247
165	0xbe80cf61	-0.25158218
166	0x3d8512f4	0.06497756
167	0xbe4910e1	-0.19635345
168	0xbe913242	-0.28358656
169	0xafc1d2e6	-3.5256348e-10
170	0xbe92db8a	-0.2868312
171	0xbe58eab5	-0.21183284
172	0xbe9313a2	-0.28725916
173	0xbedc9aaa	-0.4308675
174	0xbe736512	-0.23769024
175	0xbe41826b	-0.18897407
176	0xbea0ddad	-0.31419125
177	0xbea0f17e	-0.31434244
178	0xbe966803	-0.2937623
179	0xbe6f00ba	-0.23340121
180	0xbe40edcd	-0.18840714
181	0x3dfdc696	0.12391393
182	0xbeaa47e7	-0.33257982
183	0xbdfed856	-0.124436066
184	0xbe8f3d1f	-0.2797632
185	0xbebae63f	-0.3650379
186	0xbe930da8	-0.28721356
187	0xbe81067d	-0.25200263
188	0xbe3fd506	-0.18733606
189	0xbe80caec	-0.25154817
190	0xbe8d778b	-0.27630267
191	0xbe9a4b2f	-0.30135486
192	0xbea8d780	-0.32976913
193	0xbca9b90d	-0.020718122
194	0xbe7e3dda	-0.24828282
195	0x3e566bf2	0.20939615
196	0xbe8edd08	-0.27903008
197	0xbe670f33	-0.22564392
198	0xbe375391	-0.17902972
199	0xbe49ebd4	-0.19718868
200	0xbe7b562f	-0.24544595
201	0xbe523d02	-0.20531085
202	0xbe82e523	-0.25565442
203	0xbe990406	-0.29885882
204	0xbe88d3f0	-0.26724195
205	0xbe6672a6	-0.22504672
206	0xbe8d8a45	-0.27644554
207	0xbe6bd912	-0.23032025
208	0xbe008097	-0.12549053
209	0xbe68182a	-0.22665468
210	0x3e55e0b1	0.20886494
211	0xbe9f65c8	-0.3113234
212	0xbe98154f	-0.29703757
213	0xbe96363d	-0.29338256
214	0xbe853c19	-0.26022413
215	0xbe87d12c	-0.26526773
216	0xbe9fc2b1	-0.31203225
217	0xbe93cacf	-0.28865668
218	0xbe849442	-0.25894362
219	0xbe8208c9	-0.25397328
220	0xbe8b0434	-0.27151644
221	0xbe997aea	-0.29976588
222	0xbebcb120	-0.36853886
223	0xbdee8a65	-0.116474904
224	0xbeb08109	-0.34473446
225	0xbe8117ae	-0.2521338
226	0xbe876857	-0.26446792
227	0xbe73f00d	-0.23822041
228	0xbe856a1b	-0.26057515
229	0xbe89dc74	-0.26926005
230	0xbe5eb368	-0.21748126
231	0xbe8d96e4	-0.27654183
232	0xbe580202	-0.21094516
233	0xbe28037b	-0.16407578
234	0xbeadb3ef	-0.3392634
235	0xbe2a00ee	-0.16601917
236	0xbedd073b	-0.4316958
237	0xbea01b05	-0.31270614
238	0xbe8a5b20	-0.27022648
239	0xbe583681	-0.21114542
240	0xbe8e795a	-0.2782696
241	0xbe528bf0	-0.20561194
242	0x3e53d6f2	0.20687464
243	0xbe6525d5	-0.22377713
244	0xbea9c3bc	-0.33157146
245	0xbe88d2b8	-0.26723266
246	0xbe91f63a	-0.28508168
247	0xbe99bf0d	-0.30028573
248	0xbef985b2	-0.48734814
249	0xbd89f0b3	-0.06735363
250	0xbf1d8dae	-0.6154431
251	0xbe8523a4	-0.26003754
252	0xbe56176c	-0.20907372
253	0xbe7d5088	-0.24737751
254	0xbee4f08c	-0.44714773
255	0xbd9243f2	-0.07141866

net.2.weight f4 [256]
0	0x3e24ad53	0.16081743
1	0x3decc134	0.11560288
2	0x3e4c542c	0.19953984
3	0x3e289d9b	0.16466372
4	0x3e233116	0.15936694
5	0x3e0b3870	0.13595748
6	0x3f06a5f5	0.5259698
7	0x3de4d64b	0.11173686
8	0x3e043968	0.12912524
9	0x3e468e24	0.1939016
10	0x3e019845	0.12655742
11	0x3e2aefc0	0.1669302
12	0x3dfb3791	0.12266458
13	0x3e152640	0.14565372
14	0x3e47a313	0.19495802
15	0x3daaa11e	0.08331512
16	0x3e2640ae	0.16235611
17	0x3e9db649	0.30803135
18	0x3dea1735	0.11430208
19	0x3e1d91f8	0.15387714
20	0x3e3130d7	0.17303787
21	0x3e26ad01	0.16276933
22	0x3d0b8552	0.03406269
23	0x3e595125	0.2122236
24	0x3e446862	0.19180444
25	0x3e54b022	0.20770314
26	0x3e1dc99d	0.1540894
27	0x3e71e4c8	0.2362243
28	0x3e8001ed	0.2500147
29	0x3e27416e	0.16333553
30	0x3f0eedc3	0.55831546
31	0x3e1550c9	0.14581598
32	0x3ea674b8	0.32510924
33	0x3e0065b3	0.12538795
34	0x3e8fd089	0.28088787
35	0x3e52d8f2	0.2059057
36	0x3f038aaf	0.5138349
37	0x3e62d8a6	0.22152957
38	0x3f09dc0e	0.538514
39	0x3e2d596d	0.16928644
40	0x3e163a89	0.14670767
41	0x3e61546e	0.22004864
42	0x3e585d27	0.21129285
43	0x3e156bf7	0.14591967
44	0x3e110063	0.14160304
45	0x3dde624c	0.108585924
46	0x3e504031	0.20336987
47	0x3e47f921	0.19528629
48	0x3e56f233	0.20990829
49	0x3e4ad27e	0.19806859
50	0x3eb5f5ed	0.3553919
51	0x3e09587a	0.13412657
52	0x3dc721fa	0.097232774
53	0x3f0b5b83	0.5443651
54	0x3e4c1147	0.19928466
55	0x3d7c7d26	0.06164279
56	0x3e20354f	0.15645336
57	0x3e1cefdb	0.15325873
58	0x3e4ad918	0.19809377
59	0x3cc8f5f9	0.024531351
60	0x3dc34050	0.09533751
61	0x3e7a9d16	0.24473986
62	0x3d8421d4	0.06451765
63	0x3e553ce5	0.2082401
64	0x3e418ea0	0.18902063
65	0x3ce0a3cb	0.027421853
66	0x3d217e51	0.039427105
67	0x3e7b45e6	0.24538383
68	0x3e662b69	0.22477497
69	0x3e2e363b	0.17012875
70	0x3e59979a	0.21249238
71	0x3e2b2e82	0.1671696
72	0x3e93b04b	0.28845438
73	0x3e3b1acc	0.18271941
74	0x3eb045d2	0.3442827
75	0x3e18e2cb	0.14930265
76	0x3dab62de	0.08368467
77	0x3e321013	0.17388944
78	0x3e1963d9	0.14979495
79	0x3e8b847a	0.2724951
80	0x3e6a298b	0.2286741
81	0x3e15e334	0.14637452
82	0x3e2c2412	0.16810635
83	0x3e661bd5	0.22471555
84	0x3e1b90c6	0.15191945
85	0x3e208b32	0.15678099
86	0x3e18563e	0.14876649
87	0x3e8bac65	0.27279964
88	0x3e597bb5	0.21238597
89	0x3e49f255	0.19721349
90	0x3e8607f3	0.2617794
91	0x3e0cbf9e	0.13744971
92	0x3e19bacc	0.15012664
93	0x3e608df4	0.21929151
94	0x3dd0c409	0.10193641
95	0x3e346a20	0.17618608
96	0x3e885827	0.26629755
97	0x3e26ffe6	0.16308555
98	0x3db36f35	0.087614454
99	0x3e3f67a8	0.18691885
100	0x3ee7b406	0.45254534
101	0x3dec102b	0.11526521
102	0x3df8e41d	0.12152884
103	0x3ece7f34	0.40331423
104	0x3e58cb94	0.21171409
105	0x3e5094d6	0.20369276
106	0x3e1a2867	0.15054475
107	0x3e51fed6	0.20507368
108	0x3e5dd75a	0.21664181
109	0x3e292562	0.16518167
110	0x3e166121	0.14685489
111	0x3e866fb3	0.26257095
112	0x3e8f5b29	0.27999237
113	0x3ea19b3a	0.3156374
114	0x3dfcb459	0.12339086
115	0x3d00e58f	0.031468924
116	0x3e22566d	0.15853281
117	0x3e302d2a	0.17204729
118	0x3e53c4f1	0.20680596
119	0x3e1120a9	0.14172615
120	0x3e3872d2	0.1801255
121	0x3e13c600	0.14431
122	0x3e5058ca	0.2034637
123	0x3e5127c4	0.20425326
124	0x3e28f81b	0.16500895
125	0x3e26844c	0.16261405
126	0x3db0e3f2	0.08637227
127	0x3eb2c19c	0.34913337
128	0x3e1e771b	0.15475123
129	0x3e5f3b2d	0.21799918
130	0x3d721366	0.05910053
131	0x3e6c0c14	0.23051482
132	0x3e22b3f7	0.15888964
133	0x3efcd1ad	0.4937872
134	0x3e3a62a3	0.1820169
135	0x3e758bb8	0.2397908
136	0x3e55f4a7	0.20894109
137	0x3e87031b	0.26369557
138	0x3d802ede	0.06258939
139	0x3e1d8059	0.15380992
140	0x3e40e5c1	0.18837644
141	0x3e281485	0.16414078
142	0x3e23822e	0.15967628
143	0x3e1cbde1	0.15306808
144	0x3e255a75	0.16147788
145	0x3e6b5581	0.22981836
146	0x3e30cdf4	0.17266065
147	0x3dfcef4a	0.12350328
148	0x3e544eea	0.20733228
149	0x3e16dcd1	0.14732672
150	0x3de48940	0.11158991
151	0x3ded8666	0.115979
152	0x3e3899b6	0.18027386
153	0x3e67f954	0.22653705
154	0x3e2d5540	0.16927052
155	0x3e6cbb1f	0.23118256
156	0x3e17474d	0.14773293
157	0x3e0d6c46	0.13810834
158	0x3e270f71	0.16314484
159	0x3dca4931	0.098772414
160	0x3e0fa9f0	0.1402967
161	0x3db462b8	0.088078916
162	0x3e31cc8b	0.17363183
163	0x3e2982e7	0.16553842
164	0x3e222088	0.15832722
165	0x3e17a007	0.1480714
166	0x3d232961	0.039834384
167	0x3e10141b	0.1407017
168	0x3e32462d	0.17409582
169	0x3f087a75	0.53311855
170	0x3e65cefd	0.22442241
171	0x3dbd4f09	0.092435904
172	0x3e86fb3f	0.2636356
173	0x3e3df78a	0.1855146
174	0x3e1da02a	0.15393129
175	0x3e5fb06d	0.21844645
176	0x3e63940f	0.22224449
177	0x3e76590c	0.24057406
178	0x3e1f93a0	0.15583658
179	0x3dcc4bd5	0.09975401
180	0x3e5fb888	0.21847737
181	0x3cd77718	0.026301906
182	0x3e4beb72	0.19914034
183	0x3e0bdbf4	0.13658124
184	0x3de8a986	0.11360459
185	0x3e4a850f	0.1977732
186	0x3e192d0f	0.14958595
187	0x3deda302	0.11603357
188	0x3e4233d3	0.18965082
189	0x3e362bce	0.17790148
190	0x3dfedd1f	0.12444519
191	0x3e519b36	0.20469365
192	0x3e187304	0.14887625
193	0x3f054d3e	0.5207099
194	0x3e3a4e09	0.1819383
195	0x3e216e0d	0.15764637
196	0x3e517441	0.20454504
197	0xbddce70b	-0.107862554
198	0x3dbd13fe	0.09232329
199	0x3e5ff23f	0.21869753
200	0x3e12ef2b	0.14349048
201	0x3e39d9a0	0.18149424
202	0x3e17cd8b	0.14824502
203	0x3e41e6c2	0.18935683
204	0x3e07f173	0.132757
205	0x3e2cf8ae	0.16891739
206	0x3e76c39f	0.24098061
207	0x3e1e49e7	0.15457879
208	0x3e10a1cb	0.14124219
209	0x3dc777d0	0.09739649
210	0x3e203604	0.15645605
211	0x3e5232c5	0.2052718
212	0x3e3ba950	0.18326306
213	0x3e598c42	0.2124491
214	0x3d9856e2	0.074384466
215	0x3e3c749c	0.18403858
216	0x3e7aac7c	0.2447986
217	0x3e08ed2a	0.13371721
218	0x3e43b5fe	0.19112393
219	0x3e3d05cc	0.18459243
220	0x3e3dca3c	0.18534178
221	0x3e405dda	0.18785802
222	0x3e97fa47	0.29683134
223	0x3e20f90f	0.15720008
224	0x3e0e2b8a	0.13883796
225	0x3e5f2cef	0.21794485
226	0x3e425cd6	0.18980727
227	0x3db0515c	0.08609268
228	0x3e249b41	0.1607485
229	0x3e53fadc	0.20701164
230	0x3e0ef198	0.13959348
231	0x3e4b904e	0.19879267
232	0x3df62291	0.12018312
233	0x3ddad88f	0.106858365
234	0x3e2d1cbc	0.16905493
235	0x3d8fe40c	0.07025918
236	0x3ea09c05	0.31369033
237	0x3e4bb6ae	0.19893906
238	0x3e4b9a2a	0.19883028
239	0x3e1164ad	0.14198561
240	0x3e480e69	0.19536747
241	0x3e1a2969	0.15054859
242	0x3e226fbb	0.15862934
243	0x3e197bd2	0.1498864
244	0x3e39cd73	0.18144779
245	0x3e62ef0b	0.221615
246	0x3dcf86b0	0.101331115
247	0x3e1f9c8b	0.1558706
248	0x3ef89600	0.4855194
249	0x3e030503	0.1279488
250	0x3e95c04c	0.29248273
251	0x3e211810	0.15731835
252	0x3d8c51ea	0.06851561
253	0x3e1247a0	0.14285135
254	0x3e25b031	0.16180493
255	0x3e0349b5	0.12821086

net.2.bias f4 [256]
0	0x3d15a2d4	0.036532238
1	0x3caef6b2	0.021357868
2	0x3cca78db	0.024715832
3	0x3d20614b	0.039155286
4	0x3d07a573	0.03311677
5	0x3cb1bff9	0.021697985
6	0x3e1297b9	0.1431569
7	0x3ca4ec5f	0.020132242
8	0x3d02bb81	0.0319171
9	0x3d35a4ec	0.044346735
10	0x3c5562e7	0.013024068
11	0x3d27ce59	0.040968273
12	0x3ca96248	0.020676747
13	0x3cfe06ac	0.03100904
14	0x3d433083	0.047653686
15	0x3cb19f08	0.021682277
16	0x3d113c00	0.03545761
17	0x3d8af6e5	0.06785373
18	0x3cab6a5b	0.020924738
19	0x3d00f62d	0.03148477
20	0x3d1dfd3f	0.038571592
21	0x3d10c785	0.035346527
22	0xbd71ce8f	-0.05903488
23	0x3d5d05a8	0.053960472
24	0x3d260f1a	0.040541746
25	0x3d152f28	0.036421925
26	0x3d29010e	0.04126077
27	0x3d850097	0.06494253
28	0x3d8bac7a	0.06820007
29	0xbf08584e	-0.5325974
30	0x3e16ebad	0.1473834
31	0x3cc9b89e	0.024624165
32	0x3d9669fe	0.07344435
33	0x3cf0e167	0.029404355
34	0x3d79bf89	0.060973678
35	0x3d4423d2	0.047885723
36	0x3e0cae7f	0.1373844
37	0x3d56b658	0.05241999
38	0x3e1a15bd	0.15047355
39	0x3d0b8ce4	0.03406991
40	0x3d07a40b	0.033115428
41	0x3d02b44e	0.031910233
42	0x3d516477	0.0511212
43	0x3d101456	0.035175644
44	0x3d0d3f47	0.034484174
45	0x3cb006c0	0.021487594
46	0x3d475aa5	0.04867043
47	0x3d11e124	0.0356151
48	0x3d2caa57	0.042154636
49	0x3d4deaba	0.05027268
50	0x3db69979	0.08915991
51	0x3cbdde06	0.023177158
52	0x3c8e43c2	0.017366294
53	0x3e1366ab	0.14394633
54	0x3d0f026e	0.034914427
55	0xbbfd336d	-0.0077270777
56	0x3d0c8f6e	0.034316473
57	0x3d1f4021	0.038879517
58	0x3cea2113	0.028580224
59	0xbaae5865	-0.001330149
60	0x3c90916e	0.017647471
61	0x3d888b10	0.06667149
62	0x3b827596	0.0039813025
63	0x3d09918c	0.03358607
64	0x3d4595a1	0.0482384
65	0xbd588ca5	-0.052868504
66	0xbb6ea024	-0.003641137
67	0x3d8d4666	0.06898193
68	0x3d1cc247	0.038271215
69	0x3cf7cb75	0.030248383
70	0x3d1fb8c5	0.03899457
71	0x3d137793	0.036002707
72	0x3d88dafe	0.066823944
73	0x3d4d2b11	0.0500899
74	0x3db5d960	0.088793516
75	0x3d04f823	0.032463204
76	0xbc1a5ab6	-0.009421041
77	0x3d111d0c	0.035428092
78	0x3ccebfbb	0.025237909
79	0x3d6c9072	0.05775494
80	0x3d340d25	0.043957848
81	0x3c5274d4	0.012845237
82	0x3d24e844	0.04026057
83	0x3d1ddebe	0.0385425
84	0x3d144b42	0.036204584
85	0x3d33d5db	0.04390512
86	0x3d10dc29	0.03536621
87	0x3d7ad80a	0.061241187
88	0x3d4e14bd	0.050312746
89	0x3d2d8f9e	0.042373292
90	0x3d70768c	0.058706805
91	0x3cce31f4	0.025170304
92	0x3ceb5a9c	0.02872973
93	0x3d3c5a21	0.04598439
94	0x3b18c98b	0.0023313488
95	0x3d2e18da	0.04250417
96	0x3d8ebb68	0.06969339
97	0xbf0d27e4	-0.55138993
98	0x3c3c631d	0.01149824
99	0x3d33d40a	0.043903388
100	0x3def9234	0.11697808
101	0x3cf1e71e	0.02952915
102	0x3c934595	0.017977515
103	0x3dd9ec18	0.106407344
104	0x3d41e0dc	0.047333583
105	0x3d5c0e52	0.053724594
106	0x3ce57ea4	0.028014489
107	0x3d5d5f38	0.054045886
108	0x3d710c4f	0.05884963
109	0x3d16f186	0.03685143
110	0x3cf93c15	0.030424157
111	0x3d649ccc	0.055813596
112	0x3d8c957a	0.06864448
113	0x3d89c0fa	0.067262605
114	0x3cd3856a	0.025820453
115	0xbd595c0c	-0.0530663
116	0x3cba9df5	0.022780398
117	0x3d1811b6	0.037126265
118	0x3d3c3d17	0.045956697
119	0x3ce15cb6	0.027510028
120	0x3d421a59	0.04738841
121	0x3d1b8769	0.037970934
122	0x3d3d79b6	0.04625865
123	0x3d276228	0.040865093
124	0x3ce7b224	0.028283186
125	0xbf0b5311	-0.54423624
126	0x3b99affc	0.0046901684
127	0x3dae9cb2	0.08525981
128	0x3cb657d3	0.022258675
129	0x3d3ea44c	0.046543404
130	0xbc7a6d7c	-0.015284892
131	0x3d5220dd	0.051300872
132	0x3cec1183	0.028816944
133	0x3e050eaa	0.12993875
134	0x3d3d8f49	0.046279225
135	0x3d747971	0.059686128
136	0x3d0c41ca	0.03424243
137	0x3d97d601	0.07413865
138	0xbc0b0dd2	-0.008487182
139	0x3cf22e70	0.029563159
140	0x3cfd38c2	0.030910853
141	0x3d25a4ed	0.04044049
142	0x3bfe23a2	0.0077557126
143	0x38d532c6	0.00010166089
144	0xbf068be8	-0.5255723
145	0x3d360d2d	0.04444616
146	0x3ce7c0a4	0.0282901
147	0x3d00935b	0.03139053
148	0x3ce073fa	0.027399052
149	0x3d08da0a	0.033411063
150	0x3c49f265	0.012325858
151	0x3cb0b390	0.021569997
152	0x3d2252df	0.039629813
153	0x3d54e0ba	0.05197213
154	0x3d374cf9	0.04475114
155	0x3d013db4	0.031552985
156	0x3c9f4b4c	0.019445084
157	0x3c1909a8	0.009340681
158	0x3d128e48	0.03578022
159	0x3cb94d02	0.022619728
160	0x3cf00174	0.029297568
161	0x3b9fe625	0.0048797303
162	0x3d046fc1	0.03233314
163	0x3d23b809	0.03997043
164	0x3ca6d151	0.020363482
165	0x3cb90eba	0.02259003
166	0xbd6e876e	-0.058234625
167	0x3c9acd54	0.018896736
168	0x3cd992ba	0.026559222
169	0x3e172e3f	0.14763735
170	0x3d6dab21	0.05802453
171	0xb98c1903	-0.00026721516
172	0x3d83ec8b	0.06441601
173	0x3d07dbde	0.033168666
174	0x3cfd4960	0.030918777
175	0x3d208d1c	0.039197072
176	0x3d5a2519	0.053258035
177	0x3d6e3a57	0.058161106
178	0x3d06208d	0.032745887
179	0x3caf4c13	0.02139858
180	0x3d0ffeaa	0.035154976
181	0xbd8839d2	-0.06651653
182	0x3d5c2f08	0.05375579
183	0x3c18828f	0.009308471
184	0x3ce46986	0.027882349
185	0x3cfec51c	0.031099848
186	0x3d199359	0.037494037
187	0x3cb61180	0.022225142
188	0x3d271e2e	0.040800266
189	0x3d2c1f04	0.042021766
190	0x3cbf74ac	0.023371063
191	0x3d43e328	0.047824055
192	0x3d13e9ea	0.03611175
193	0x3e1348e2	0.14383271
194	0x3d275b5c	0.04085861
195	0xbf03325d	-0.51248723
196	0x3d43db03	0.047816288
197	0xbca32c5d	-0.019918615
198	0x3c5c3039	0.013439232
199	0x3cce86bc	0.02521073
200	0x3af783db	0.00188839
201	0x3d10607f	0.035248276
202	0x3ce379f0	0.027768105
203	0x3d41f680	0.04735422
204	0x3cec1f18	0.02882342
205	0x3d0ec2bc	0.034853682
206	0x3d4c656f	0.049901422
207	0x3cf29faf	0.029617159
208	0x3bced158	0.006311577
209	0x3c99fe53	0.018798029
210	0xbf03ca32	-0.514804
211	0x3d6d209d	0.05789243
212	0x3d34230e	0.043978743
213	0x3d574826	0.05255904
214	0x3c65bbd8	0.014021836
215	0x3d28509c	0.0410925
216	0x3d6d5e6b	0.057951372
217	0x3cb7099b	0.022343447
218	0x3d366afc	0.044535622
219	0x3d347033	0.044052314
220	0x3d33654c	0.043797776
221	0x3d17e826	0.03708663
222	0x3da175a1	0.07883764
223	0x3c95409e	0.018219288
224	0x3ca0296d	0.019551003
225	0x3d41e47d	0.047337044
226	0x3d3815e7	0.044942763
227	0x3c4ed2c4	0.012623493
228	0x3d2f96df	0.04286849
229	0x3d2f96c6	0.042868398
230	0x3cf7e0e1	0.030258598
231	0x3d0ba749	0.034095082
232	0x3cabcc58	0.020971462
233	0x3c8b4312	0.016999755
234	0x3d11f0e8	0.035630137
235	0xbae27053	-0.0017275907
236	0x3da23a1a	0.07921238
237	0x3d4bffdd	0.049804557
238	0x3d56320f	0.052293833
239	0x3cb2c3ef	0.021821944
240	0x3d1c21ef	0.0381183
241	0x3ccd58c6	0.025066745
242	0xbf02eacf	-0.5113954
243	0x3d01d16b	0.031693857
244	0x3d3341ea	0.043764032
245	0x3d601f25	0.0547172
246	0x3c863085	0.016380558
247	0x3d1edd9a	0.038785554
248	0x3dfe884b	0.124283396
249	0x3b54e48b	0.0032484855
250	0x3d873246	0.06601386
251	0x3d039a9a	0.03212986
252	0x3b8dd0eb	0.0043278835
253	0x3cf8173a	0.030284513
254	0x3ca00563	0.019533819
255	0xbb34cfe3	-0.002758973

net.4.weight f4 [256, 256]
0	0xbd16fd27	-0.03686252
1	0xbcc04612	-0.023470912
2	0xbd4f39b7	-0.05059215
3	0xbc59ebed	-0.013300878
4	0x3c38b530	0.011273667
5	0x3c2c7223	0.010525259
6	0x3d224461	0.039615992
7	0xbc1bb30d	-0.009503138
8	0x3cad9d8f	0.021193294
9	0x3b0f09ab	0.002182583
10	0xbbd4d774	-0.0064954106
11	0x3d1cafe1	0.03825367
12	0x3cbd45d7	0.023104591
13	0x3b735524	0.0037129605
14	0x3cd2623c	0.025681607
15	0xbc09cc69	-0.008410552
16	0x3ca551f4	0.02018068
17	0xbc900bf3	-0.017583823
18	0x3bb7ffaa	0.0056151943
19	0xbd244028	-0.040100247
20	0xbcbda5a0	-0.023150265
21	0x3b59a5ff	0.0033210514
22	0x3cdc1e3c	0.026869886
23	0x3d326328	0.043551594
24	0xbc87772f	-0.016536323
25	0xbc3e8667	-0.011628724
26	0xbb4bc4a5	-0.003109255
27	0x3caeb49c	0.021326356
28	0xba76af24	-0.0009410253
29	0x3d4bb589	0.049733672
30	0x3d26eb9d	0.040752042
31	0x397e8669	0.000242734
32	0x3d63d5ab	0.05562369
33	0x3cf9548c	0.030435823
34	0x3c73b195	0.014873882
35	0xbc6211e9	-0.013798215
36	0x3d41aca0	0.04728377
37	0xbcb42bfc	-0.02199363
38	0x3d4512c5	0.048113603
39	0x3d0af9b6	0.03392955
40	0x3c813d72	0.01577637
41	0xbd173386	-0.03691437
42	0x3cc79b03	0.024365908
43	0x3c5e0777	0.013551584
44	0xbb794703	-0.003803671
45	0x3ad160e3	0.0015974309
46	0x3c83d873	0.016094422
47	0x3cadd4f1	0.021219702
48	0xbd0a85b7	-0.033818927
49	0xbd10615b	-0.035249095
50	0x3d30cd0a	0.04316429
51	0x3a0eb242	0.00054434326
52	0x3c7a652f	0.015282913
53	0x3d1c272f	0.038123306
54	0xbd8717b1	-0.06596316
55	0xbcb9e393	-0.022691524
56	0x3c34eb75	0.011042465
57	0x3d9e6b26	0.07735281
58	0xbb3d1f8e	-0.002885792
59	0xbd018101	-0.03161717
60	0x3ce47cdb	0.027891567
61	0x3aad6f6d	0.001323206
62	0xbcd73071	-0.026268216
63	0xbd804aef	-0.062642924
64	0x3c4d9f67	0.0125502115
65	0xbadcf332	-0.0016857146
66	0xbd1a55cf	-0.03767949
67	0xb984b8d2	-0.00025314704
68	0xbcfbd610	-0.030741721
69	0xbc9bffd5	-0.019042889
70	0xbd0ca9e0	-0.034341693
71	0x3d068dfa	0.032850243
72	0x3d3954fd	0.045247067
73	0xbbc02fec	-0.0058650877
74	0x3d741fcc	0.059600636
75	0xbca1295e	-0.019673046
76	0xbc7ac73a	-0.015306288
77	0xbd1c570f	-0.038168963
78	0x3b9658f7	0.004588242
79	0x3c8ff712	0.017573867
80	0x3cd2d156	0.025734585
81	0x3d0b88af	0.0340659
82	0x3b5c7424	0.003363856
83	0xbc7923fc	-0.015206333
84	0x3c99defc	0.018783085
85	0x3d1c9b7d	0.038234223
86	0xbcc28d21	-0.023748936
87	0x3ca47351	0.020074518
88	0xbab2ff2d	-0.001365637
89	0xbc439873	-0.011938202
90	0x3d4f5f85	0.050628204
91	0x3bdd1f65	0.0067481273
92	0x3c909952	0.017651234
93	0x3cf5f30d	0.030023122
94	0xbd2c313e	-0.04203915
95	0x3da2521b	0.079258166
96	0x3c87c6ff	0.01657438
97	0x3d200f93	0.039077353
98	0xbb11737e	-0.0022194083
99	0x3c0f5d3f	0.008750259
100	0x3d576a80	0.0525918
101	0xbd4632c3	-0.048388254
102	0x3cb076c0	0.021541
103	0x3d2b4121	0.04181016
104	0x3d81a18d	0.063296415
105	0xbb9a7b01	-0.0047143702
106	0x3c3199a3	0.0108398525
107	0xbd170a95	-0.036875326
108	0x3d19143d	0.037372816
109	0x3ca1055d	0.019655878
110	0x3d113dc2	0.035459287
111	0x3b80f41a	0.003935349
112	0x3d6450dd	0.05574118
113	0x3d25cb0d	0.040476847
114	0xbadab8b6	-0.0016687128
115	0x3c478175	0.012176861
116	0xbc524586	-0.0128339585
117	0x3b99fb49	0.004699145
118	0x3d2215c6	0.039571546
119	0xbd2ab3e4	-0.041675463
120	0xbc000df0	-0.007815823
121	0x3be09914	0.006854186
122	0x38b12665	8.447169e-05
123	0xbcb5e669	-0.022204595
124	0xbaeb8bcb	-0.0017970739
125	0x3d715640	0.058920145
126	0xbcf7d2f7	-0.030251963
127	0x3ca5d136	0.020241361
128	0xbc25351d	-0.010083464
129	0x3a41f377	0.0007398645
130	0xbd203442	-0.039112337
131	0x3d43b747	0.04778221
132	0xbd1d4182	-0.03839255
133	0x3d45a304	0.048251167
134	0x3ce6927f	0.028146027
135	0x3cb98425	0.02264602
136	0x3cc9f263	0.024651712
137	0xbb97485b	-0.0046167797
138	0x3cafb0c5	0.021446595
139	0x3d8fcb9c	0.07021257
140	0xbdb985c5	-0.09058718
141	0xbd1484ab	-0.036259335
142	0x3d42743c	0.04747413
143	0xbd2fa1c1	-0.04287887
144	0x3cf57686	0.029963743
145	0x3c5d94a0	0.0135242045
146	0x3d088a6f	0.033335146
147	0xbc917503	-0.01775599
148	0x3c43c296	0.011948248
149	0xbd381b0d	-0.044947673
150	0xbd20f1e1	-0.039293174
151	0x3c9705af	0.018435327
152	0x3b453b7f	0.0030095277
153	0x3d27d99a	0.040979005
154	0x3c1b954b	0.009496043
155	0xbd6584b4	-0.05603476
156	0x3c618522	0.0137646515
157	0x3c706910	0.014673486
158	0x3bfb6fa2	0.00767322
159	0x3d2c12b3	0.04201002
160	0x3b4fd6af	0.0031713655
161	0xbcd53eae	-0.026030865
162	0xbcdc9c28	-0.02692993
163	0x3d9aeddf	0.075649016
164	0xbb849b45	-0.00404683
165	0x3c7beffa	0.015377039
166	0x3b97856d	0.00462406
167	0xbc505211	-0.012714879
168	0xbc629078	-0.013828389
169	0x3d65d0d9	0.056107376
170	0xbb0c7a12	-0.0021435064
171	0xbd4ac88f	-0.049507674
172	0x3bb1e377	0.0054287273
173	0xbcc00ade	-0.023442682
174	0xbb2b64d5	-0.002615263
175	0xbc448602	-0.011994841
176	0xba371988	-0.00069847004
177	0x3c7dbfe1	0.015487642
178	0xbcf331fd	-0.029686922
179	0xbd9ea624	-0.077465326
180	0x3b62ccc5	0.0034606915
181	0x3ce35057	0.02774827
182	0x3bebf14a	0.0072003948
183	0xbd9a23ec	-0.07526383
184	0xbc24e0b9	-0.010063344
185	0x3cafa59f	0.021441279
186	0x3bdd4c4b	0.0067534796
187	0x3d11df5b	0.0356134
188	0xbc71185c	-0.01471528
189	0xbc4784c6	-0.012177652
190	0x3c8954fb	0.016764155
191	0x3c6455b2	0.013936447
192	0xbc67d30b	-0.014149438
193	0x3d1fa6cb	0.038977426
194	0x3c43d674	0.011952985
195	0x3d00d246	0.031450532
196	0x3c2b9465	0.010472392
197	0x3d7ff22a	0.062486805
198	0x3c48ccf1	0.012255893
199	0xbd693a16	-0.05694016
200	0x3d131bb4	0.03591509
201	0x3d3fad7f	0.04679632
202	0xbd2162c9	-0.03940085
203	0x3d376dd9	0.044782493
204	0x3d291abc	0.04128526
205	0x3cc7379e	0.024318513
206	0x3cf44403	0.029817587
207	0xbb1bf053	-0.0023794367
208	0xbd5601e6	-0.052247904
209	0xbad56ccd	-0.0016283036
210	0x3d45880c	0.048225448
211	0x3bc84111	0.006111272
212	0xbc2015ad	-0.009770793
213	0x3cc7e2ee	0.0244002
214	0x3b2b6dc5	0.0026157957
215	0xbc183403	-0.009289744
216	0xbbb5a5ba	-0.005543438
217	0xbc1ac47d	-0.0094462605
218	0xbc86ccf1	-0.016455146
219	0x3d1b6ad9	0.037943695
220	0x3d8d8eca	0.069120005
221	0x3d2cd387	0.042193916
222	0x3ca130a2	0.01967651
223	0xbbbdb74a	-0.005789672
224	0x3ca8dbdd	0.020612651
225	0x3c8170b3	0.01580081
226	0xbc170fcc	-0.009220075
227	0x3cebd309	0.028787153
228	0xbd2a6a0d	-0.041605044
229	0x3d51e8c7	0.051247384
230	0x3ca4c947	0.020115508
231	0xb9c1375a	-0.0003685307
232	0xbd77ab14	-0.060465887
233	0xbd0d9637	-0.034567084
234	0x38ac5ac9	8.218509e-05
235	0x3ca3d87c	0.020000689
236	0x3da59979	0.08085913
237	0x3cffb0e5	0.03121228
238	0x3d2b718b	0.04185633
239	0x3d68a0f9	0.05679414
240	0xba5d235a	-0.0008435749
241	0x3d448e1b	0.047987085
242	0x3d31fa0b	0.04345135
243	0x3cc298d4	0.023754515
244	0xbc8aeabb	-0.016957631
245	0x3ceac4b7	0.028658254
246	0xbd1aec70	-0.03782314
247	0x3bf8590c	0.0075789746
248	0x3cf10465	0.02942104
249	0xbd11638d	-0.03549533
250	0x3ca04674	0.019564845
251	0xbc9a49be	-0.018833991
252	0xbd267fbf	-0.040649172
253	0x3c96593f	0.018353103
254	0x3b7e1b44	0.0038773576
255	0xbd487dfb	-0.04894827

net.4.bias f4 [256]
0	0xbd96b6a7	-0.07359057
1	0xbd436fb6	-0.047713958
2	0xbdb56da8	-0.08858806
3	0xbd8c32eb	-0.06845649
4	0xbb4d1107	-0.0031290667
5	0xbd5d3ee9	-0.054015074
6	0xbd93783a	-0.07200666
7	0xbda5ba5a	-0.08092184
8	0xbd95e79d	-0.07319567
9	0xbda706af	-0.08155572
10	0xbdf187d2	-0.11793484
11	0xbd99ff0f	-0.07519352
12	0xbd290657	-0.04126581
13	0xbdff7024	-0.12472561
14	0xbda96274	-0.082707316
15	0xbdd845b5	-0.105601706
16	0xbdbb3de3	-0.09142663
17	0xbddfd54e	-0.109293565
18	0xbdb0b96d	-0.08629117
19	0xbdd63d7c	-0.10460946
20	0xbdced474	-0.10099116
21	0xbdba63f3	-0.09101095
22	0xbde77b30	-0.11302793
23	0xbddd358d	-0.108012296
24	0xbdab8bce	-0.08376275
25	0xbdb9f3f8	-0.090797365
26	0xbd652f3a	-0.055953242
27	0xbdc0d202	-0.09415056
28	0xbd8b1de6	-0.06792812
29	0xbd507785	-0.050895233
30	0xbd99302a	-0.0747989
31	0xbd769683	-0.060202133
32	0xbdb9b9f0	-0.09068668
33	0xbd8461e3	-0.06463983
34	0xbd23ffe4	-0.04003896
35	0xbde68c60	-0.11257243
36	0xbd8e6bb5	-0.06954137
37	0xbd320fe2	-0.04347218
38	0xbcb02469	-0.021501737
39	0xbdd27eee	-0.10278116
40	0xbc11c0a6	-0.008896029
41	0xbc445dbc	-0.011985239
42	0xbd1eab89	-0.038737807
43	0xbdd25887	-0.102707915
44	0xbd309d63	-0.043118846
45	0xbda0e93c	-0.07856986
46	0xbd8daca2	-0.06917693
47	0xbdb2c338	-0.08728641
48	0xbdb403c0	-0.08789778
49	0xbda1d09c	-0.07901117
50	0xbcb5450a	-0.022127647
51	0xbddf984c	-0.1091772
52	0xbd69fd63	-0.057126414
53	0xbd7f5e4e	-0.062345795
54	0xbe230808	-0.15921032
55	0xbdd70465	-0.10498885
56	0xbddd106f	-0.1079415
57	0x3c8a27d3	0.016864693
58	0xbda912bd	-0.08255527
59	0xbe1087b2	-0.14114264
60	0xbdcf69e8	-0.10127622
61	0xbd364be6	-0.044505976
62	0xbd72e3ba	-0.05929921
63	0xbd63a4c6	-0.055577062
64	0xbca8a12c	-0.020584665
65	0xbd8a06ce	-0.06739579
66	0xbd5ca8cd	-0.05387192
67	0xbd8bf271	-0.068333514
68	0xbd6a75f8	-0.05724141
69	0xbe043421	-0.1291051
70	0xbd40d53a	-0.04707835
71	0xbdf23717	-0.11826914
72	0xbd46eed7	-0.04856762
73	0xbd6df316	-0.058093153
74	0xbdfeaab0	-0.124349
75	0xbd87570f	-0.06608402
76	0xbd7fba00	-0.062433243
77	0xbd996d2e	-0.074915275
78	0xbdf7c1fb	-0.12097546
79	0xbdcebcb4	-0.10094586
80	0xbd75e5c8	-0.06003359
81	0xbd6ed8a7	-0.058312085
82	0xbd802967	-0.06257897
83	0xbc773212	-0.015087621
84	0xbdc7a3cf	-0.09748041
85	0xbd2fe0f6	-0.04293915
86	0xbd9f816b	-0.077883564
87	0xbd5ef2a9	-0.054430638
88	0xbe2df854	-0.16989261
89	0xbdd1dd7d	-0.10247324
90	0xbd2ce0bd	-0.042206515
91	0xbe2e898a	-0.17044654
92	0xbd988f0e	-0.074491605
93	0xbd918977	-0.071062975
94	0xbd5a0e85	-0.053236503
95	0xbd9ac026	-0.07556181
96	0xbdd52985	-0.1040831
97	0xbd58f257	-0.05296549
98	0xbdaf1130	-0.085482
99	0xbe1f169f	-0.15535973
100	0xbe16e90b	-0.14737336
101	0xbb197a39	-0.0023418798
102	0xbe2225f7	-0.15834795
103	0xbdb10b1c	-0.08644697
104	0xbe06fe6f	-0.13182996
105	0xbb87ef9c	-0.0041484367
106	0xbdb25d13	-0.08709159
107	0xbda7e38b	-0.08197697
108	0xbde670df	-0.11251997
109	0xbde277d9	-0.110580154
110	0xbd7c4d96	-0.06159743
111	0xbdd5077e	-0.1040182
112	0xbdffe728	-0.124952614
113	0xbdc44c87	-0.09584909
114	0xbd735995	-0.059411604
115	0xbd94e07f	-0.07269382
116	0xbcc2c255	-0.023774305
117	0xbd9410a7	-0.07229739
118	0xbdf3ff6c	-0.11913952
119	0xb4654ba8	-2.135481e-07
120	0xbde1cbde	-0.11025213
121	0xbe028c57	-0.12748848
122	0xbd79cd16	-0.0609866
123	0xbd90af31	-0.07064665
124	0xbde95c6a	-0.1139458
125	0xbd20da17	-0.039270487
126	0xbd8f3394	-0.069922596
127	0xbd93e3ee	-0.072212085
128	0xbdcb48f1	-0.09926022
129	0xbdbd0785	-0.0922995
130	0xbd99401a	-0.074829295
131	0xbd8309f6	-0.06398384
132	0xbdd65e10	-0.1046716
133	0xbdf62536	-0.12018816
134	0xbd83c3ba	-0.06433816
135	0xbd8cdfc8	-0.068786204
136	0xbd98d0ff	-0.07461738
137	0xbd2fbffd	-0.042907704
138	0xbe311717	-0.17293964
139	0xbe0f0fb8	-0.1397084
140	0xbd3c33bf	-0.045947786
141	0xbe12cf65	-0.14336927
142	0xbd7f3b75	-0.062312562
143	0xbd9ae1f7	-0.075626306
144	0xbe0d36dc	-0.13790458
145	0xbd855c5c	-0.06511757
146	0xbda1af0a	-0.07894714
147	0xbd654024	-0.055969372
148	0xbd65b1e1	-0.05607784
149	0xbd7b99a6	-0.061425827
150	0xbdbab712	-0.09116949
151	0xbd6d6d79	-0.05796573
152	0xa58fa865	-2.4920654e-16
153	0xbccaff00	-0.024779797
154	0xbd9cc6ed	-0.076551296
155	0xbe10e26f	-0.14148878
156	0xbe9bedfb	-0.30455002
157	0xbd9ce442	-0.07660724
158	0xbd95f098	-0.0732128
159	0x3c1342ad	0.008988065
160	0xbd8f354c	-0.069925874
161	0xbdce2d55	-0.1006724
162	0xbdbe48d9	-0.09291238
163	0xbdd291f5	-0.10281745
164	0xbd9a6174	-0.07538119
165	0xbd0e28c5	-0.03470685
166	0xbdf63f69	-0.12023813
167	0xbd0cb63a	-0.034353472
168	0x3c9a05bb	0.01880156
169	0xbca66c3b	-0.02031528
170	0xbe2a71f3	-0.1664503
171	0xbd5b26f7	-0.053503957
172	0xbd583352	-0.052783318
173	0xbd221371	-0.039569322
174	0xbd88b75d	-0.06675599
175	0xbe16de97	-0.14733349
176	0xbd97b28a	-0.074071005
177	0xbdab56c8	-0.083661616
178	0xbde6c2c2	-0.11267616
179	0xbd8dcefd	-0.069242455
180	0xbd67558d	-0.056478072
181	0xbd6f000a	-0.058349647
182	0xbd0851f3	-0.033281278
183	0xbd98e125	-0.07464818
184	0xbda79a90	-0.08183777
185	0xbba11af1	-0.0049165417
186	0xbd4483fb	-0.04797743
187	0xbdc616b1	-0.09672297
188	0xbcfa9161	-0.0305869
189	0xbd6a3e50	-0.057188332
190	0xbd87b15f	-0.06625628
191	0xbe141e3f	-0.14464663
192	0xbd32558a	-0.043538608
193	0xbdce7232	-0.10080375
194	0xbdc88727	-0.09791403
195	0xbde427ac	-0.11140379
196	0xbd501ff7	-0.050811734
197	0xbd924a90	-0.07143128
198	0xbe2b2888	-0.1671468
199	0xbdd63211	-0.10458768
200	0xbe01c006	-0.12670907
201	0xbdba7ac4	-0.09105447
202	0xbdf96845	-0.12178091
203	0xbe4e940e	-0.20173666
204	0xbcd8856f	-0.026430814
205	0xbe07a1c2	-0.132453
206	0xbdb94f25	-0.09048299
207	0xbdd604a5	-0.104501046
208	0xbd88a509	-0.06672103
209	0xbdf12532	-0.117746726
210	0xbe792b87	-0.2433301
211	0xbd09a909	-0.03360847
212	0xbdbfd01d	-0.09365866
213	0xbd4c3aad	-0.049860645
214	0xbde410f4	-0.11136046
215	0xbd1c7b2e	-0.03820341
216	0xbd9672c8	-0.073461115
217	0xbd80e915	-0.06294457
218	0x3a699ea3	0.00089118833
219	0xbd86daae	-0.065846786
220	0xbde11ced	-0.10991845
221	0xbd6c2e7f	-0.05766153
222	0xbdeaad1a	-0.11458798
223	0xbdeff092	-0.11715807
224	0xbd82fcc3	-0.06395867
225	0xbe278ab4	-0.16361505
226	0xbc1b28cb	-0.009470175
227	0xab0e0867	-5.0460195e-13
228	0xbddb8ff4	-0.10720816
229	0xbe08c616	-0.13356814
230	0xbdb82538	-0.08991474
231	0xbc8ca847	-0.017170085
232	0xbcb21881	-0.0217402
233	0xbd921110	-0.07132161
234	0x3b61918f	0.0034419035
235	0xbdcce595	-0.10004727
236	0xbd655669	-0.05599061
237	0xbd9bec77	-0.076134615
238	0xbd6d6f03	-0.057967197
239	0xbd510b75	-0.051036317
240	0xbd3ec865	-0.04657783
241	0xbe0e6eef	-0.13909505
242	0xbd3cf575	-0.046132524
243	0xbda5d282	-0.08096792
244	0xbdf222d4	-0.11823049
245	0xbcb4e51e	-0.022081908
246	0xbddc554c	-0.107584566
247	0xbd56ef42	-0.052474268
248	0xbdb8de63	-0.09026792
249	0xbd8eeae6	-0.06978397
250	0xbe18966b	-0.1490113
251	0xbd43636e	-0.047702245
252	0xbd7da060	-0.061920524
253	0xbd9d7fe2	-0.07690407
254	0xbd5a182c	-0.05324571
255	0xbdc4ca2d	-0.096088745

net.6.weight f4 [256]
0	0x3ef22d11	0.47300008
1	0x3eaa2333	0.3322998
2	0x3e929d4d	0.28635636
3	0x3ea5c272	0.32374913
4	0x3e9c3171	0.3050647
5	0x3eb2eed4	0.34947836
6	0x3e9890e0	0.2979803
7	0x3ea06c77	0.31332752
8	0x3eac4522	0.33646494
9	0x3e970a65	0.29500118
10	0x3ec10826	0.3770153
11	0x3e9f1627	0.31071588
12	0x3e9e0a63	0.308673
13	0x3f07c070	0.5302801
14	0x3eb00c62	0.34384447
15	0x3ec2fd83	0.3808404
16	0x3eb6d724	0.35711014
17	0x3ec6378a	0.38714248
18	0x3eb1452d	0.3462309
19	0x3ee56bf7	0.44808933
20	0x3edd5818	0.43231273
21	0x3e869084	0.26282132
22	0x3eefd257	0.46840164
23	0x3e235910	0.15951943
24	0x3ef41d03	0.47678384
25	0x3e985f1d	0.29760066
26	0x3ecbd4f6	0.39810914
27	0x3eb269f6	0.34846467
28	0x3ead160f	0.33805892
29	0x3e8f420f	0.27980086
30	0x3e954b16	0.2915885
31	0x3e9cc92d	0.30622235
32	0x3ea9a49c	0.331334
33	0x3e880668	0.26567388
34	0x3e81fb04	0.25386822
35	0x3ee89a22	0.45430094
36	0x3e895eae	0.26830047
37	0x3ee85146	0.45374507
38	0x3ed81bae	0.42208618
39	0x3ef64e04	0.48106396
40	0x3df7398e	0.120715246
41	0x3e970964	0.29499352
42	0x3ee45c82	0.44601828
43	0x3eebc7ef	0.46050975
44	0x3e99f420	0.30069065
45	0x3ed35e86	0.41283053
46	0x3ea26462	0.3171721
47	0x3e9a3b3c	0.30123317
48	0x3e9626f2	0.29326588
49	0x3e8421de	0.2580709
50	0x3eeb6d6a	0.45981914
51	0x3f04f8f8	0.51942396
52	0x3e96de7a	0.2946661
53	0x3ea03fef	0.31298777
54	0x3ef9aaf2	0.48763233
55	0x3efb9cb1	0.49142984
56	0x3ece6856	0.40313977
57	0x3d3ffd7e	0.04687261
58	0x3e92f2a1	0.28700736
59	0x3f05d9b8	0.5228534
60	0x3eeca26f	0.46217677
61	0x3eef6159	0.46753958
62	0x3e8ee665	0.27910152
63	0x3ec14a25	0.3775188
64	0x3e963497	0.29336998
65	0x3ee13ebd	0.43993178
66	0x3ea1b73a	0.31585103
67	0xbe759121	-0.23981144
68	0x3e99370d	0.29924813
69	0x3eb3ccab	0.35117087
70	0x3e95dfd6	0.29272336
71	0x3edbd45c	0.42935455
72	0x3ea941d2	0.3305803
73	0x3ee83b8a	0.45357925
74	0x3e93cbc7	0.28866407
75	0x3e8cb30f	0.2748036
76	0x3ea3fb8e	0.32027858
77	0x3e74fb85	0.23924072
78	0x3ec34967	0.3814194
79	0x3ebaf854	0.36517584
80	0x3e16c51c	0.14723629
81	0x3e8ca80b	0.27471957
82	0x3e9ccf1f	0.3062677
83	0x3e9cba60	0.30610943
84	0x3e7c8923	0.24661689
85	0x3e9152a0	0.2838335
86	0x3e21d69c	0.15804523
87	0x3ee3e78d	0.44512597
88	0x3e9bcf2b	0.30431494
89	0x3ee32ce5	0.4437019
90	0x3ea8bb00	0.3295517
91	0x3f053194	0.52028775
92	0x3eda991f	0.42694947
93	0x3ea857f3	0.328796
94	0x3e977845	0.29583946
95	0x3e8d6acf	0.2762055
96	0x3e95bb9b	0.29244694
97	0x3eb56c09	0.35433987
98	0x3e88bdce	0.2670731
99	0x3eb54208	0.3540194
100	0x3eed244a	0.4631675
101	0x3ee38e1b	0.44444355
102	0x3ea4daec	0.32198274
103	0x3e9565ad	0.29179135
104	0x3f003b5f	0.50090593
105	0x3dfae256	0.122502014
106	0x3e94cf3a	0.2906435
107	0x3e96b964	0.29438317
108	0x3e85ba9d	0.26118937
109	0x3ea9877d	0.33111182
110	0x3edf9209	0.43666103
111	0x3ee52aad	0.44759122
112	0x3f002078	0.50049543
113	0x3eeb1dd2	0.4592119
114	0x3eff4a59	0.4986141
115	0x3ed58282	0.41701132
116	0x3e9c1db5	0.30491415
117	0x3ea30495	0.31839433
118	0x3e9f98cb	0.3117126
119	0x3ef00f40	0.46886635
120	0x3e96d32e	0.29457992
121	0x3eb1b6e2	0.3470984
122	0x3e909a21	0.2824259
123	0x3ea14a48	0.31501985
124	0x3f09343f	0.53595346
125	0x3e8e260f	0.2776341
126	0x3ea89ef1	0.32933763
127	0x3e9492e5	0.29018322
128	0x3e8619fb	0.26191697
129	0x3ebfaa29	0.3743451
130	0x3ee946d0	0.45561838
131	0x3ea04a90	0.31306887
132	0x3ed001d8	0.40626407
133	0x3edfebcd	0.4373459
134	0x3ed6b183	0.41932306
135	0x3ef7985f	0.48358437
136	0x3ea307db	0.3184193
137	0x3e972723	0.29522046
138	0x3e9e843d	0.30960265
139	0x3ef79f3b	0.4836367
140	0x3e940ca7	0.28915903
141	0x3ef37282	0.475483
142	0x3e69dea7	0.22838841
143	0x3ea3cc9a	0.31992036
144	0x3ee36d74	0.44419444
145	0x3e9b0dca	0.30283958
146	0x3ec73922	0.38910776
147	0x3e4c8d21	0.19975711
148	0x3e79ea3a	0.24405757
149	0x3e6a442b	0.22877567
150	0x3eedd510	0.46451616
151	0x3eb45530	0.35221243
152	0x3eef7cc9	0.4677489
153	0x3ea60fbf	0.32433888
154	0x3eab4c1b	0.334565
155	0x3ec008be	0.3750667
156	0x3f09d682	0.5384294
157	0x3ea794d0	0.32730722
158	0x3e80974f	0.2511544
159	0x3db627c7	0.08894306
160	0x3e96db8c	0.29464376
161	0x3ed926cf	0.4241242
162	0x3e8f5473	0.27994117
163	0x3eaf3e96	0.34227437
164	0x3e8ff6e8	0.28118062
165	0x3e73a6a5	0.23794039
166	0x3e96dc47	0.29464933
167	0x3e942ef8	0.28942084
168	0x3e7b1e45	0.24523266
169	0x3e969e36	0.2941758
170	0x3ef34fba	0.47521764
171	0x3e983600	0.297287
172	0x3e4f641f	0.20253037
173	0x3eec54aa	0.46158344
174	0x3e8194b7	0.25308773
175	0x3efc64a8	0.49295545
176	0x3e99676d	0.2996172
177	0x3ea7716c	0.32703722
178	0x3ef10324	0.4707271
179	0x3ea06cc1	0.31332973
180	0x3e64b1c5	0.22333439
181	0x3e705ecd	0.23473664
182	0x3edc419d	0.4301881
183	0x3e46ed80	0.19426537
184	0x3e8a66b7	0.2703149
185	0x3e3c837a	0.1840953
186	0x3ef42a3f	0.4768848
187	0x3efaba0f	0.48970076
188	0x3f043b53	0.5165302
189	0x3ea2a2e5	0.31764904
190	0x3eecb6eb	0.46233305
191	0x3e93519b	0.28773198
192	0x3ec18bcc	0.3780197
193	0x3ecb02b3	0.39650497
194	0x3ebec2e3	0.37258062
195	0x3ea6d52d	0.32584515
196	0x3e929834	0.28631747
197	0x3e709676	0.23494896
198	0x3edc47bb	0.43023476
199	0x3ea607f4	0.32427943
200	0x3eb9aca9	0.36264542
201	0x3e911b59	0.28341177
202	0x3f025ae9	0.5091997
203	0x3f10ebc0	0.56609726
204	0x3e8c94b9	0.27457216
205	0x3e911cd3	0.28342304
206	0x3eb3287b	0.34991822
207	0x3f097ed8	0.53709173
208	0x3e72f0f6	0.23724732
209	0x3eee69d6	0.4656512
210	0x3ed019be	0.4064464
211	0x3ed8609e	0.42261213
212	0x3e99b3fd	0.30020133
213	0x3eaaac4e	0.33334583
214	0x3efa69a4	0.48908722
215	0x3ede4540	0.4341221
216	0x3e8b031d	0.27150813
217	0x3eab4556	0.33451337
218	0x3e839541	0.2569981
219	0x3ef044d4	0.46927512
220	0x3f065bb0	0.52483654
221	0x3ef710f6	0.48255128
222	0x3ee4e087	0.4470255
223	0x3eded74b	0.4352363
224	0x3e67849b	0.22609179
225	0x3f0708ae	0.5274762
226	0x3e83b20e	0.25721782
227	0x3ebf69a6	0.3738529
228	0x3ec3e0c3	0.38257417
229	0x3edbaaca	0.4290374
230	0x3e85125e	0.25990576
231	0x3ef34d55	0.47519937
232	0x3e81e8a5	0.25372806
233	0x3e7638ef	0.24045156
234	0x3e06c71f	0.13161896
235	0x3e871882	0.26385885
236	0x3f02afc8	0.5104947
237	0x3e833b1b	0.2563103
238	0x3efcb2dd	0.49355212
239	0x3e8c853c	0.274454
240	0x3ea490fc	0.32141864
241	0x3ef0fe49	0.47069004
242	0x3e914e3b	0.28379998
243	0x3e885fbe	0.26635545
244	0x3ef47339	0.47744158
245	0x3ea28d21	0.31748298
246	0x3eddc9ad	0.4331793
247	0x3e8d783d	0.27630797
248	0x3ea9230a	0.33034545
249	0x3ebcb86b	0.3685945
250	0x3ea898f3	0.3292919
251	0x3e7996cb	0.24373929
252	0x3e948b01	0.29012302
253	0x3e94a7fb	0.2903441
254	0x3e90684e	0.28204578
255	0x3ecd5319	0.4010246
