RL code/models/checkpoint_episode_610000.pth (torch, 801255 bytes, 40 tensors)

net.0.weight f4 [256, 22]
00000000: 5304 b43a fc0e c33d 942f b13d 682d 84bd
00000010: 0d0d 483c 6d7e 04bd def9 2b3d 9dd5 3ebd
00000020: eb96 483d 71ef babd 0348 c4bd babe 4c3e
00000030: 1217 e03d 8d18 e0bd b7a1 bc3a 2fe8 523b
00000040: c73c f93c 2846 03bb eb96 48bd 71ef ba3d
00000050: 5304 b43a fc0e c33d 8744 21bd 1334 b5bd
00000060: e973 273d 0faa 19bd 472c e1bc 06c5 c53b
00000070: 17c0 de3c 4bfd 93bd bd1e 3f3d cfc1 78bd
00000080: f75a 80be 2db6 11bc 19df 603d ecb9 2bbd
00000090: 6531 1bbd 5321 bd3c 74e4 383c f400 87bd
000000a0: bd1e 3fbd cfc1 783d 8744 21bd 1334 b5bd
000000b0: 43c4 0e3e 7aea 0f3e 64d6 1a3e 3fb8 263e
000000c0: c871 37be 4e56 28be f89c 2cbe 8fef 2bbe
000000d0: f572 a8be e225 a7be a169 8abe 1fc5 8dbe
000000e0: bb8b 52be 0a2b 2dbe 5f0f 263e 1d58 253e
000000f0: 536b 383e 0ce9 253e f572 a83e e225 a73e
00000100: 81ba 0e3e 05df 0f3e d720 e9bc 622b 623c
00000110: 7cf5 22be 18e1 2f3e 687c 38bd e9d2 283d
00000120: aec8 2a3d 5a80 9cbb 6f03 123b 6393 d9bc
00000130: 97cb 8c3c 2e08 b4bc ba39 ebbd 8a12 2d3e
00000140: ffa1 a6bd c85b 6f3d 5dbc 463c dd91 913a
00000150: 6f03 12bb 6393 d93c d720 e9bc 622b 623c
00000160: c521 94bb ad6e b43c 832c 6ebd e7c0 603e
00000170: 281a c6bd 9c1c 3d3c e0db 09bd 19ed 213d
00000180: f99f c3bd b46b 8f3d e1fa 173e 0d29 8bbd
00000190: ec18 cfbd 0d9f 573e 349d 8fbd 50d5 073d
000001a0: 2d95 8138 6688 5d3d f99f c33d b46b 8fbd
000001b0: c521 94bb ad6e b43c d206 96bb 8235 75bd
000001c0: 15c4 14be f4f4 31be 6ebe c4bc 7dc5 25bd
000001d0: bad4 533c b7c3 3cbd 809a 9d3d d86f 7bbd
000001e0: 8176 a33c a7e7 5c3c f882 c5bd 6f7e 38be
000001f0: 3818 a8bd 8d71 1abd 1a40 2fbd e43b 32bd
00000200: 809a 9dbd d86f 7b3d d206 96bb 8235 75bd
00000210: 0b6d dfbd f7ec 2a3b c1d5 91be 0667 ed3c
00000220: 5873 bd3d 9bed cabc a772 59bc 91ac dc39
00000230: 71f4 c53d c5f9 a6bd 915d 6c3d 4e72 3cbc
00000240: 90d0 41be c752 f4bc 8fd2 4c3b d76b 943c
00000250: d042 bdbd 02d2 4e3d 71f4 c5bd c5f9 a63d
00000260: 0b6d dfbd f7ec 2a3b af72 673d ae23 95bc
00000270: df99 293e 50a5 35be 17fc 073d 7b05 6bbd
00000280: f297 683b c3c7 57bb 858b 0bbc 7c70 1d3d
00000290: a4f5 7b3d 3625 a33c a383 3b3e 1656 25be
000002a0: 0de4 fb3c a658 a8bd 5c6b 01bb 6076 cfbc
000002b0: 858b 0b3c 7c70 1dbd af72 673d ae23 95bc
000002c0: 611e f63c fe57 6c3d bc12 5b3b e8e6 243e
000002d0: 180b 7e3d 88eb 8c3b b430 363d 15c0 9b3d
000002e0: 270c 7f3d d003 91bc 5b5a b33b b9df e239
000002f0: bd65 833d 1fcd 193e ceae ac3b fb9f 4f3c
00000300: e19e 25bc 3eaa c13d 270c 7fbd d003 913c
00000310: 611e f63c fe57 6c3d f439 703c 921e 77bd
00000320: f912 933d 2905 39be 2b20 973c 7d1a 113c
00000330: 8b6b 8a3c 6fd6 d9bd 7be2 f53c 203a 063e
00000340: c16e 57bd eb6e 4d3c 928b 753d 2997 b7bd
00000350: 814a 243d a683 77bd 57e6 0b3d b41e 34be
00000360: 7be2 f5bc 203a 06be f439 703c 921e 77bd
00000370: fde2 4a3c 1d21 983b e98e 3d3e ab1c f9bd
00000380: cb5c 853d dd8b 05bd dfe2 e73d dab9 a93c
00000390: 52ec 1a3d cbc7 943d cd29 acbc 6e46 b23d
000003a0: c238 6f3e e56b 93bd c11f 303d 8b4b b9bd
000003b0: 01d1 b83d 4a10 09bd 52ec 1abd cbc7 94bd
000003c0: fde2 4a3c 1d21 983b 798b 0fbd 64a1 3fbd
000003d0: f38d 6abd de76 87bd edbf 64bd 2ec5 b2bd
000003e0: 58b3 963c 89d1 24bd 8256 8fbd cb41 ccbd
000003f0: f866 fb3d 1049 b6bd 0ecd 09be d0e2 fdbd
0.0013734199 0.095243424 0.08651653 -0.06453973 0.012210143 -0.03234713 0.04198634 -0.046590436
0.04897205 -0.09127701 -0.09584048 0.19994631 0.109419 -0.10942183 0.0014391456 0.003218185
0.030424489 -0.002003083 -0.04897205 0.09127701 0.0013734199 0.095243424 -0.039371993 -0.08847823
0.040882025 -0.037515696 -0.027486933 0.00603545 0.027191205 -0.07226046 0.046660174 -0.060731705
-0.250694 -0.008893532 0.054900263 -0.041925356 -0.037888903 0.02308718 0.011284936 -0.06591979
-0.046660174 0.060731705 -0.039371993 -0.08847823 0.13942055 0.1405429 0.15120846 0.16281222
-0.17914498 -0.16439173 -0.16856754 -0.16790603 -0.32900205 -0.3264609 -0.27033713 -0.27689454
-0.20561115 -0.1691095 0.16216801 0.16146894 0.18009691 0.16202182 0.32900205 0.3264609
0.13938333 0.14049919 -0.028458042 0.013804289 -0.15913957 0.1717571 -0.045040518 0.041216765
0.04169529 -0.004776043 0.0022279879 -0.026559537 0.017186923 -0.021976557 -0.1148562 0.16901603
-0.08136367 0.05843714 0.01212987 0.0011106093 -0.0022279879 0.026559537 -0.028458042 0.013804289
-0.004520627 0.02202543 -0.05814792 0.21948586 -0.09672958 0.011542466 -0.033656955 0.039532755
-0.09551997 0.070029646 0.14841796 -0.06794939 -0.10112175 0.21056767 -0.07012406 0.033162415
6.1789855e-05 0.054085158 0.09551997 -0.070029646 -0.004520627 0.02202543 -0.0045784498 -0.059865482
-0.14527924 -0.17378598 -0.024016585 -0.040471543 0.012929136 -0.046085086 0.07695484 -0.06138596
0.019953968 0.013482965 -0.09644121 -0.1801698 -0.08207744 -0.037705947 -0.04278574 -0.043514147
-0.07695484 0.06138596 -0.0045784498 -0.059865482 -0.1090947 0.0026081183 -0.28483394 0.02897979
0.09250516 -0.024771502 -0.013271964 0.00042090242 0.09665764 -0.081531085 0.05770642 -0.011501862
-0.18927217 -0.029824628 0.0031253432 0.018117828 -0.09241259 0.050493248 -0.09665764 0.081531085
-0.1090947 0.0026081183 0.056505855 -0.01820549 0.16562603 -0.17738843 0.033199396 -0.057378273
0.0035490957 -0.0032925464 -0.008517151 0.03843735 0.061513558 0.019915204 0.18311934 -0.1614612
0.030748392 -0.08220033 -0.001974783 -0.025325 0.008517151 -0.03843735 0.056505855 -0.01820549
0.030043783 0.057701103 0.0033427915 0.16103709 0.0620223 0.0043005385 0.04448004 0.07604996
0.06226745 -0.017702013 0.0054734177 0.00043272765 0.064158894 0.15019654 0.005269862 0.01267242
-0.01010868 0.09456299 -0.06226745 0.017702013 0.030043783 0.057701103 0.014662255 -0.06033189
0.07181353 -0.18068375 0.018447956 0.008856413 0.016896984 -0.10636603 0.03001522 0.1310811
-0.052595858 0.012538652 0.059947558 -0.089643784 0.040110115 -0.060428284 0.034155216 -0.17589837
-0.03001522 -0.1310811 0.014662255 -0.06033189 0.01238322 0.0046426193 0.18511547 -0.12163671
0.065118395 -0.032604087 0.11322569 0.020718504 0.03782303 0.0726467 -0.021016026 0.0870484
0.23361495 -0.071983136 0.042999033 -0.09047612 0.09024239 -0.0334628 -0.03782303 -0.0726467
0.01238322 0.0046426193 -0.03504512 -0.046784773 -0.05726428 -0.06614469 -0.055847097 -0.08729015
0.018396065 -0.04023889 -0.06998922 -0.099734865 0.12275499 -0.08900654 -0.13457128 -0.12396777

net.0.bias f4 [256]
00000000: 85a6 32be ed0d 65be 3748 11be b951 8cbe
00000010: 811c 6dbe 4b14 9bbe c5e8 13bf 05a2 9abe
00000020: 6665 30be 2409 81be cd42 3fbe 3239 3abe
00000030: 265f 97be ddb5 26bf 15f4 88be 6b73 81be
00000040: 0516 86be d147 b5be 66d9 a4be 058f 51be
00000050: 6414 8bbe 8ca5 9dbe 0e77 523d eb12 57be
00000060: cd49 42be 285d 4dbe 5974 70be deb2 86be
00000070: e778 9ebe 8284 4d3e 7337 5fbe 052d 7bbe
00000080: 5ecc 71be 73e6 7dbe eab6 13bf 6769 93be
00000090: 3e28 dbbe 09c8 57be 58a0 4fbe 7203 82be
000000a0: 09e7 59bd ae4c 42be 5917 10bf f4eb 87be
000000b0: 5933 46be 5d7c 7ebe 91be 87be 843a 56be
000000c0: d592 37be e737 74be 842f 7dbe 8baf 63be
000000d0: 05d4 86be ebd3 e7bc 2908 3ebe f9b3 7bbe
000000e0: 37aa 93be bb9f 65be 22e9 90be 14e6 94be
000000f0: 9579 8fbe bf5e 46be 97e4 56be 2830 43be
00000100: a74a 7dbe 09f5 0c3d 740e 50be 9e9f 6abe
00000110: c35d 27be 5e76 8abe f220 4ebe 8412 5fbe
00000120: af19 84be bcc3 8bbe 93fe 8fbe 134a 92be
00000130: 1619 89be e11b 95be 0c7d 85be bc0d 70be
00000140: 7242 95be 27a6 37be 10ad 86be 7bec 4bbe
00000150: d7f6 88be 21ea 82be f154 83be 3715 17bf
00000160: fb5e 82be 6256 86be a903 8bbe 823d 21bd
00000170: 66f3 79be 1146 e9be 64fb 6dbe 9c73 9ebe
00000180: ab1f 44be 18e6 523e afc8 a6be 5cc8 a1be
00000190: 81cd 82be b2a5 50be 05a9 76be 3ab4 1abf
000001a0: 54d1 a7be ae4b 97be 7b0a 98be 26aa 94be
000001b0: 1cd7 98be f15c 99be c68c 75be 67d7 17be
000001c0: 80ca 73be 6340 e3be 0d95 5abe 9784 b63d
000001d0: 3c71 66be 0c44 86be ee24 4cbe 0040 fabd
000001e0: 61c0 87be 93b4 77be e0d5 73be 6458 86be
000001f0: 756c 57be 5bf9 4e3e 1aea 4cbe 7661 c0be
00000200: 7abe 86be e839 70be 3ec6 50be 9d00 90be
00000210: facb 43be c7eb 90be 4ec4 81be a9e1 85be
00000220: ac85 4ebe 917e 7dbe d530 7dbe 28a8 b3be
00000230: 4bf7 34be 5439 8fbe b088 e7bd 50ad b7bd
00000240: fd96 563e 22b1 46be df39 10be f7b7 92be
00000250: 2e3d 41be 8b9c 6bbe 891b 8bbe b718 7ebe
00000260: 65d4 88be 4a41 8fbe 876c 28be 1b06 48be
00000270: 9bd9 91be c90b abbc 50b8 12be 8f23 51be
00000280: 5f2a 4bbe b21a 90be a056 73be 47a3 80be
00000290: e186 a7be 0673 a2be ad3d 873d ec53 6dbe
000002a0: db39 84be 8c8d ddbb e2d5 82be 85b4 91be
000002b0: a997 4fbe f237 6dbe a5ac 42be 32fa 3bbe
000002c0: 4072 6abe 7a50 3dbe a936 8fbe 38c3 debe
000002d0: d50c 32be 49b8 c03d 9522 68be 08bd 3dbe
000002e0: 999a 70be c751 92be e80a 90be a906 9ebe
000002f0: 509a 92be 7e88 8dbe 6985 67be 92e6 9fbe
00000300: 749b 4abe eb57 13bf a5a2 92be b631 593e
00000310: d228 80be cfe7 8fbe 8bac 85be 8bf6 43be
00000320: e93e 65be a75b cabe cd2e 97be fe60 70be
00000330: 4f8f 1ebf 35ac a5be 8854 6ebe 27e7 85be
00000340: fa1a 83be 2742 75be 495e 5a3e e92e 49be
00000350: 404f 16bf d40e 5cbe 7cfd 85be d964 5cbe
00000360: 2143 86be 1d4f 0fbf 8604 8ebe 3ac3 8ebe
00000370: dc62 8dbe cdf5 84be 8bf9 f5be 33a5 b6bd
00000380: bdf3 7ebe c7f1 83be f020 85be 447c 86be
00000390: fb7c 78be fe7b 8fbe d583 4abe 1961 81be
000003a0: 69f4 ccbe 8e41 4fbe 1bad bdbe 1af2 a6be
000003b0: d609 92be d3d8 a9be 113c 8cbe 64d0 35be
000003c0: 179c adbe 9bfe 45be aad1 513e 4943 63be
000003d0: d69b 83be 6236 4cbe 161e 81be 6d2a 9dbe
000003e0: 4bf1 49be 70de 9bbd 682a 06bf eaf6 6ebe
000003f0: e20e 90be 935d 8cbe 2c26 1cbf af68 6ebd
-0.17446335 -0.22368594 -0.14187704 -0.274061 -0.23155405 -0.3028892 -0.57777053 -0.30201736
-0.1722618 -0.25202286 -0.18677826 -0.18185881 -0.2956478 -0.6512125 -0.2674872 -0.2528337
-0.26188675 -0.35406354 -0.32197112 -0.20464714 -0.27163994 -0.30790365 0.05138307 -0.2100331
-0.18973465 -0.20055068 -0.23481883 -0.2630834 -0.30951616 0.20070079 -0.21798496 -0.24528892
-0.23613116 -0.2479494 -0.5770098 -0.28791353 -0.4280414 -0.21072401 -0.2027601 -0.25393254
-0.053198848 -0.18974563 -0.56285626 -0.26547205 -0.19355525 -0.24852128 -0.26512578 -0.2092076
-0.17927106 -0.2384945 -0.24725157 -0.22234933 -0.26333633 -0.028299293 -0.185578 -0.24580373
-0.288408 -0.22424214 -0.28302866 -0.29081786 -0.28022447 -0.1937208 -0.20985638 -0.19061339
-0.24735509 0.03441337 -0.20318013 -0.22912452 -0.16344361 -0.27043432 -0.20129755 -0.21784407
-0.25800845 -0.2729777 -0.28123912 -0.2857214 -0.26776952 -0.29122832 -0.26071966 -0.23442739
-0.29152256 -0.17934476 -0.2630391 -0.19914429 -0.26750824 -0.2556925 -0.25650743 -0.59016746
-0.2546309 -0.2623778 -0.2715123 -0.0393653 -0.24409255 -0.4556127 -0.23240429 -0.30947578
-0.19152705 0.20595586 -0.32574984 -0.31598175 -0.25547412 -0.20375708 -0.24087913 -0.60431254
-0.32776892 -0.29549927 -0.29695496 -0.29036063 -0.29851615 -0.2995372 -0.23979482 -0.14828263
-0.23807716 -0.4438506 -0.21345921 0.08912008 -0.22504133 -0.2622379 -0.19935963 -0.12219238
-0.2651396 -0.24189977 -0.23812056 -0.26239312 -0.21037467 0.20212309 -0.20011178 -0.37574357
-0.26317197 -0.2345959 -0.20388123 -0.28125468 -0.1912078 -0.28304884 -0.2534508 -0.26148728
-0.2016818 -0.24755313 -0.24725659 -0.3508923 -0.1767246 -0.27973425 -0.11305368 -0.089686036
0.20956035 -0.19403508 -0.14084576 -0.2865598 -0.18870994 -0.23008935 -0.27169445 -0.24814115
-0.26724544 -0.279795 -0.1644765 -0.19533579 -0.28486332 -0.020879643 -0.14328122 -0.20423721
-0.19840382 -0.28145367 -0.23763514 -0.2512457 -0.32720092 -0.3172838 0.066035606 -0.23176545
-0.2582539 -0.0067612585 -0.25553805 -0.28458038 -0.20272698 -0.23165873 -0.19011171 -0.1835716
-0.22895145 -0.1848773 -0.2797139 -0.43508315 -0.17387708 0.094101496 -0.22669442 -0.18529141
-0.23496474 -0.28578016 -0.2813332 -0.30864456 -0.28633356 -0.27643198 -0.22609486 -0.312306
-0.19785863 -0.5755603 -0.28639713 0.2121037 -0.25031143 -0.28106543 -0.26108202 -0.19137017
-0.2238728 -0.3952305 -0.29527894 -0.234745 -0.6193742 -0.32357946 -0.23274434 -0.26152918
-0.2560652 -0.23951016 0.2132503 -0.19646801 -0.58714676 -0.21490031 -0.26169956 -0.21522845
-0.2622309 -0.5598009 -0.27737826 -0.2788332 -0.27614486 -0.2596878 -0.4804195 -0.08918228
-0.24897666 -0.257704 -0.26001692 -0.26266682 -0.24266426 -0.28024286 -0.19776852 -0.25269392
-0.4003022 -0.20239851 -0.37046131 -0.32606584 -0.2852313 -0.33173236 -0.27389577 -0.17755276
-0.3390815 -0.19335406 0.20490137 -0.22193636 -0.2570483 -0.1994262 -0.25218266 -0.3069643
-0.19720952 -0.07610786 -0.52408457 -0.23336378 -0.28136355 -0.2741514 -0.60995746 -0.058205303

net.2.weight f4 [256]
00000000: 7ed2 bb3d 4442 023e ab95 543e 37a9 103e
00000010: dd10 983d 8269 833e bf5a d13e d76f 493e
00000020: de3a ce3d 7951 4d3e 8c9f 4e3e 857a 0b3e
00000030: ebab 213e 35a8 a03e 46ad f73d 0760 093e
00000040: 0a31 443e 2726 123e 9b4c 203e 34a5 fb3d
00000050: 8b2e 253e 623f 4d3e 5c34 ed3c 045c 163e
00000060: 5a4e 5c3e 81da 663e 1935 223e 10f0 3f3e
00000070: 83f1 463e 577d 233e fbca 293e f5bb 343e
00000080: 2dd8 c23d 8f18 ad3d 40b0 9f3e a6f4 473e
00000090: 3960 223e bf90 0a3e 74b6 f43e a202 983d
000000a0: 2125 103e fdb6 4e3e c68d 0b3f cd02 113e
000000b0: 4168 3d3e e0fb 333e bcf7 573e 97d8 233e
000000c0: 911d 573e b11a 103e ca65 0f3e 1215 253e
000000d0: 5282 f13d b171 023f a855 6a3e 679c 273e
000000e0: 08e1 fc3d 421a 4d3e d6d1 483e df05 ba3d
000000f0: 2292 613e 6cf0 cb3d 62e3 213e 82fd 5a3e
00000100: 4ba1 3a3e c315 f73c 68ce 233e 33fe 303e
00000110: b52d 513e 069a 3d3e fc5e 533e 575b 033e
00000120: 783c 403e f988 713e fb1a 373e 7ab3 573e
00000130: 6939 2b3e 19b2 eb3d 3f31 2c3e 248e 043e
00000140: cabc e93d d0ba 273e 206c 5c3e 159c 613e
00000150: d51c 383e 84a8 db3d 7a3f 043e 2f2b ac3e
00000160: 3c5a 133e 4b0c 293e f655 2e3e cb21 053f
00000170: 2643 143e d2e6 0f3f 9a2c 3a3e 6883 e33d
00000180: 03c1 dd3d 6e0b 243e c4c5 1f3e f115 713e
00000190: 931f 183e 977f f13e a6ef 2a3e 9421 ce3e
000001a0: 4872 1c3e f9cd 123e b79d 753e 2c14 333e
000001b0: a738 1e3e f9cc 033e 9986 7e3d c9ac 323e
000001c0: 6ee6 e13d c39f 803e 15d8 0e3e e448 103d
000001d0: 2182 173e c74c c93d efb0 c03d 1971 e03d
000001e0: f5aa 533e 36c7 083e f7e5 413e 99c6 fd3d
000001f0: 05bc 063e 7c17 263e 9c61 053e cdf7 343e
00000200: 81bb 1b3e aa12 3e3e 6413 8f3e 168c 153e
00000210: 41aa 9d3d 75a6 393e 96d5 cd3d 50ac 9b3d
00000220: e74d 613e c781 3a3e 8012 ae3d ea40 383e
00000230: 6ee2 473e 78c2 223e 2646 563e 6bc8 323e
00000240: 233c 243e 5b33 b23d 9f5d 303e e9be 1c3e
00000250: 78f4 5e3e b747 093e 790f 483e 43b1 f73d
00000260: 79f5 3c3e c845 d33e 3bf2 143e 1adf 693e
00000270: 31c4 6e3e ec14 083e 253f ee3d ca20 153e
00000280: 6620 723d 978e 4a3e c984 5c3e eb79 e53d
00000290: d040 823e 6fd0 a53d a02b 263d 1bb2 793e
000002a0: cda0 253e e8d0 073f 2269 293e ec91 de3d
000002b0: 6f93 053e f5b1 363e a1fd ea3d 93c6 503e
000002c0: 2b22 ca3d ffc9 7f3d 8718 003e c0ba f53e
000002d0: 4188 523e d792 063d f689 213e 9ba9 a63d
000002e0: 580e e33d e4f7 443e 5db0 283e f4e3 303e
000002f0: 94a0 603e d30d 003e fb6d 8f3d 4be4 393e
00000300: be8f 093e f816 8b3e 61b1 643e 7c40 1e3e
00000310: 3864 013e 8377 0ebe 68ff 5e3e 521e 6c3e
00000320: 67f4 2a3e ccb6 d73e 4936 443e edec 1d3e
00000330: efb1 123f 3a90 4c3e 5166 2f3e 01f4 2d3e
00000340: 924c 123e da1d e33d 1019 203e 820a 2f3e
00000350: 01ce 993e feee 843d 42af 2c3e 7cda 163e
00000360: 59e2 4f3e e0b1 ee3e c302 da3d 0973 113e
00000370: 6a6f 2e3e afbe 133e c242 843e 93b5 d63d
00000380: 4207 8e3d 1db1 143e 7e6a 043e e6d5 343e
00000390: 2712 de3d 364f 663e 26d3 393e 0d5c 2e3e
000003a0: c9e2 463e 1a28 e03d 8a2d 2b3e e10a 343e
000003b0: 54d1 d43d 6497 413e e2ed 583e be84 1e3e
000003c0: 648d 363e f9d4 1b3e 769e 213e 87f2 0b3e
000003d0: c4cb 443e fabf 1e3e 7d31 2f3e 5d54 6c3e
000003e0: 4c9c 0d3e 12d1 053e c8f8 6b3e 317a 523e
000003f0: 6d13 443e 467f 2a3e 4500 a43e 27f8 233e
0.091710076 0.12720591 0.20760219 0.1412705 0.074250914 0.25666434 0.40889546 0.1967157
0.10069822 0.2005061 0.2017805 0.13620956 0.15788238 0.31378332 0.12093596 0.13415538
0.19159332 0.14272366 0.15654223 0.12287369 0.16131036 0.2004371 0.028955631 0.14683539
0.21514264 0.2254429 0.15840568 0.1874392 0.19428067 0.15965782 0.16581337 0.17649825
0.095138885 0.0845195 0.31189156 0.1952692 0.15857019 0.13531779 0.4779545 0.07422377
0.14076664 0.20186992 0.54513204 0.14161225 0.18496801 0.17576551 0.21090597 0.16000591
0.21007372 0.14072682 0.14003673 0.16121319 0.11792435 0.5095473 0.22884238 0.16368257
0.12347609 0.20029548 0.19611296 0.09083151 0.22028401 0.09957966 0.15809396 0.21385768
0.18225591 0.030161744 0.15996706 0.1728447 0.20427592 0.18515787 0.20641702 0.12827812
0.18773067 0.23587407 0.17881386 0.21064559 0.16721119 0.11508579 0.16815661 0.12944847
0.11412962 0.16379857 0.21525621 0.22032197 0.17979749 0.10725501 0.1291484 0.33626696
0.1438989 0.16508596 0.17024979 0.5200469 0.1447874 0.5621158 0.18181077 0.11109048
0.1082783 0.16019985 0.15602785 0.23543526 0.14855795 0.47167656 0.16692981 0.40259993
0.1527797 0.14336385 0.23985945 0.17488164 0.15451299 0.1287116 0.06214008 0.17448725
0.11030279 0.2512189 0.13949616 0.035225764 0.14795734 0.09829097 0.094087474 0.10959072
0.20670684 0.13357243 0.18935381 0.12391395 0.13157661 0.16219896 0.13025516 0.17672653
0.15208246 0.18561807 0.2794448 0.1460422 0.07698489 0.18129905 0.10050504 0.076012254
0.22002374 0.18213569 0.08499622 0.17993513 0.1951997 0.15894496 0.20925197 0.17459266
0.16038565 0.087012015 0.17223214 0.15307201 0.21772945 0.13406263 0.19537152 0.12094357
0.18453015 0.41264176 0.14545529 0.22839013 0.23317029 0.13289231 0.116331376 0.1456329
0.05911293 0.19780956 0.21535029 0.11204895 0.25440073 0.08096396 0.040568948 0.24384348
0.16174622 0.5305314 0.16544011 0.10867676 0.13044523 0.17841323 0.11474157 0.2038825
0.09869798 0.062448498 0.12509356 0.4799404 0.20559789 0.03285488 0.15775284 0.081378184
0.1108672 0.19235188 0.16473527 0.17274457 0.21936256 0.12505274 0.07003399 0.18153493
0.1343374 0.2716596 0.2233329 0.15454286 0.12635887 -0.13912778 0.21777117 0.23058441
0.16694795 0.4213165 0.19161333 0.15422411 0.57302755 0.19976893 0.17128874 0.16987611
0.14287022 0.11089678 0.1563456 0.17093852 0.3003998 0.06490897 0.1686373 0.14731783
0.20301189 0.46620083 0.10645058 0.14204039 0.17034689 0.14428209 0.25832182 0.10483851
0.06934978 0.14520688 0.12931249 0.17659721 0.10843306 0.22491154 0.18146953 0.17027302
0.19422449 0.10945149 0.1671659 0.17582275 0.10391489 0.18905407 0.21184495 0.15480325
0.17827374 0.15217961 0.15783104 0.13666736 0.19218355 0.15502921 0.17108722 0.23079057
0.13829154 0.13068035 0.23044121 0.20554425 0.19148035 0.16650113 0.32031456 0.16012631

net.2.bias f4 [256]
00000000: 2998 fa38 ab74 be3c ab80 993c 91a1 c23c
00000010: 6ace 9d3c 32e7 683d 8c3f de3d 067f 2a3d
00000020: a3c4 973c 9c1d 3d3d 4cfd 443d e005 c63c
00000030: 672e 2a3d 7750 9e3d b848 c23c 3f14 eb3c
00000040: 332a 3f3d 9d84 013c 1e80 353d 4f22 743c
00000050: 08e8 2a3d c1f1 563d 74f6 87bd 3ae4 003d
00000060: 577d 083d 6c56 143d 4c62 db3c d313 4e3d
00000070: 8ef2 4c3d 5f11 07bf b8e0 ff3c bece 0d3d
00000080: 2ab6 2d3c 4ac4 8d3c 004f 933d d21e 193d
00000090: 0676 ac3c b563 8a3c 15ab 0c3e 5488 873b
000000a0: 9948 ce3b 36b1 d13c 8ac4 1b3e 908c e43c
000000b0: 9c0f 453d a375 0a3d 0b11 373d 56e0 153d
000000c0: 62eb cc3c 397e e83c cfb3 de3c 0df4 de3c
000000d0: 8e08 053c b128 123e 46a3 293d e2a2 253d
000000e0: 922d 843c 1f58 3f3d 63d5 4f3d 0989 e6b9
000000f0: 336d 703d f317 bf3c 5d90 133d bce0 083d
00000100: c2ef 373d ee6e 4dbd 8204 de3c 67cd fe3c
00000110: b77e dc3c 35bb 6f3d 59e1 f53c d8e1 123d
00000120: b68e 303d 5dd3 383d 18d5 453d a8f9 793d
00000130: d048 063d 3815 cb3c c411 083d 2bbc a23c
00000140: 587b b23c 9efc 1b3d c4dc 523d 1693 103d
00000150: 6bde 433d a4bf d83c e972 db3c 6a35 9a3d
00000160: 848c 113d 44e7 d53c 4dff 2f3d bf6d 153e
00000170: 9258 073d 96ad 1b3e 083f 473d c00e e93c
00000180: d800 953a 2f65 04bf 9ef7 113d 4db5 643d
00000190: 706d 203d c322 083e 3f08 e23c 7884 dc3d
000001a0: 6b89 263d db91 163d 66ed 763d bac4 163d
000001b0: 22bd 2d3d e6e4 f03c 6e52 313c fc13 ff3c
000001c0: 71cd 833c 3dc9 393d 4b35 e53c fc16 72bd
000001d0: 716f 113d 0f2f b03c 04ea 413b 94bb 153c
000001e0: 7697 533d d5e8 cf3c 103a 153d c73a ee3c
000001f0: ed52 8d3c 8942 0bbf 9cb9 c73c 767c 233d
00000200: fdf0 193d 9558 193d eda3 9e3d b579 683c
00000210: aeb2 933c 7584 263d bc79 613c e566 903c
00000220: 2a12 1d3d d1d1 293d 33cc 6e3c 6e2c 1b3d
00000230: 6f2e 0c3d 2335 1f3d 47c9 c83c 1af2 ad3c
00000240: 11a8 04bf e805 2f3c 5ecf f33c 5d9f 023d
00000250: 2e58 d33c 8cee e93c c351 373d d5e3 b33c
00000260: b075 313d d17c e53d 5c74 133d 37b2 243d
00000270: f527 793d 3ff0 41bc 5e8d 7e3c a7da 1c3d
00000280: a790 31bb 8c49 393d 8ac7 1e3d 8422 d738
00000290: fedb 603d a91c 4f3b 964e 8abd 3b79 593d
000002a0: d591 283d 92f4 173e 834a 1c3d 79df 5b3c
000002b0: b99f b63c 456c 2e3d 05e3 7d3c c1b1 023d
000002c0: a498 813c c53c 8a3b 8fec 9a3c d9e6 033e
000002d0: f840 ad3c ed1a 54bd 36cf 1c3d b3f9 213c
000002e0: 88bc fc3c 47a0 133d b825 f43c ae6e 363d
000002f0: 09c3 763d 43e6 4a3c 77ab 5b3c 8d45 243d
00000300: 58fb ec3c 1efd 6a3d 33fb 503d 9a76 05bf
00000310: bac1 213c f166 05bd c63f 2f3d 2023 423d
00000320: 280b 2f3d 7dc8 d83d 4455 563d 6612 0d3d
00000330: acb2 193e 48a2 563d 1651 ff3c 74d5 233d
00000340: 5e01 083d e9cb b83c d6ff 03bf cdf8 143d
00000350: d6a7 913d 5db5 21bc b6be 133d 94aa fb3c
00000360: 5885 5e3d 5a3c 003e 19db fd3c c39c 2c3d
00000370: ec9b 103d 49fe 093d e188 753d 9362 513b
00000380: 78ce e93b 977b a03c 210a 003d bea4 213d
00000390: 3cef 923c cb98 4d3d d204 183d 381b 143d
000003a0: 06c9 0c3d 216b e23c 4058 ba3c d4ab 583d
000003b0: 3001 ae3c bb65 2c3d 750d 5a3d 818b fa3c
000003c0: 1d35 183d af9a 113d aa41 04bf 4e79 f53c
000003d0: cb9b 4a3d 53a0 133d 1132 1c3d 62be 853d
000003e0: 0224 cf3c a3fd 173c eeb2 513d c478 123d
000003f0: 3857 263d 34d6 dc3c d112 9d3d 4999 103c
0.00011949271 0.023248991 0.018738111 0.023758681 0.019263465 0.05686111 0.10851964 0.041625045
0.01852638 0.046170816 0.048093125 0.024172723 0.04154816 0.07730191 0.023716316 0.028696178
0.046671104 0.007905153 0.044311635 0.014900758 0.04172519 0.05247665 -0.06638804 0.031467654
0.03332266 0.03621523 0.02678027 0.050311875 0.050036006 -0.5276088 0.031235084 0.034620993
0.010602513 0.017305512 0.071928024 0.03738291 0.021052372 0.016893247 0.13737138 0.0041361246
0.0062952754 0.025597196 0.15211692 0.027899057 0.04811059 0.033803593 0.044693988 0.036590897
0.025014583 0.0283805 0.027185349 0.027215982 0.008119715 0.14273335 0.041415475 0.04043854
0.01613501 0.0467149 0.05074061 -0.00043971118 0.05869789 0.02332685 0.036026347 0.03341745
0.044906385 -0.05015462 0.027101759 0.031103803 0.026915891 0.058528144 0.03001468 0.035859913
0.04310485 0.045123447 0.048298925 0.061029106 0.032784283 0.024790391 0.033220068 0.019865116
0.02178733 0.03808271 0.05148007 0.035296522 0.047819536 0.026458569 0.026788192 0.07529719
0.035534397 0.026111253 0.042968083 0.14592646 0.03304345 0.15202937 0.048644096 0.028449416
0.0011368049 -0.51716894 0.035636537 0.055836964 0.039166868 0.1329451 0.027591823 0.10767454
0.040658396 0.036760192 0.060284995 0.036808707 0.0424167 0.029406022 0.010822875 0.031137459
0.016089173 0.04535793 0.027979514 -0.05910395 0.03550667 0.021506814 0.0029588947 0.00913896
0.051658116 0.025379578 0.036432326 0.029080762 0.017251456 -0.543984 0.024380498 0.039913617
0.03758334 0.037437994 0.0774611 0.0141891735 0.018029537 0.040653665 0.013761934 0.017627189
0.0383474 0.041459862 0.014575052 0.03788417 0.03422397 0.038869034 0.024510039 0.021233607
-0.5181895 0.0106825605 0.029761966 0.031890262 0.025798883 0.02855613 0.04475571 0.021959225
0.043325126 0.112054475 0.03599964 0.04020902 0.06082912 -0.011837064 0.015536634 0.03829446
-0.0027094276 0.045236155 0.038764514 0.00010258428 0.0548973 0.0031602776 -0.0675327 0.05309413
0.0411547 0.1483939 0.038156997 0.013419979 0.022292959 0.042583723 0.01549602 0.0319078
0.015819855 0.00421867 0.018911628 0.1288103 0.021149144 -0.05178349 0.03828355 0.009886193
0.030851617 0.036041524 0.029803142 0.044539146 0.060244594 0.012384 0.01340758 0.04010539
0.028928444 0.057370298 0.051020812 -0.52134097 0.009872848 -0.032568876 0.04278543 0.04739678
0.04273525 0.10585115 0.05232741 0.034441374 0.15009564 0.052400857 0.031166594 0.039998487
0.03320443 0.02255817 -0.5156225 0.036370087 0.0711209 -0.0098699005 0.036070548 0.030720986
0.054326385 0.12523022 0.030988263 0.042141687 0.03530495 0.03368977 0.05994499 0.0031949624
0.0071352087 0.019590182 0.03125966 0.03946375 0.017936341 0.050194543 0.037113972 0.03615877
0.0343714 0.027638974 0.022747159 0.052898243 0.0212408 0.042089205 0.05323549 0.030584099
0.037160028 0.03554791 -0.51662695 0.02996507 0.049464982 0.03604157 0.038133685 0.06530453
0.025285725 0.00927678 0.05119603 0.035759702 0.040610522 0.026957609 0.076696046 0.0088256085

net.4.weight f4 [256, 256]
00000000: 5dcb f4bc 764a 93bc 6e78 ebbb b6de a63d
00000010: ce8a ed3c a509 c73d b56a 5abc b104 0f3d
00000020: d320 03bd 7bbc 2c3b b9b7 a8ba e4fa 36bc
00000030: 8a80 7c3d 3366 853d 1ee4 1a3d 2fdb 1d3d
00000040: 84c9 fcbb efcb 843d 3f93 b03b 3ba3 adb9
00000050: 94cd 36bc b8de 8a3b eeba 91bc ee31 f8bc
00000060: 651b 2ebd 58d4 c3bc 6c13 4ebd c365 903b
00000070: bd82 21bd d9f7 3a3c 2d42 05bd 8a33 243d
00000080: 911a 8bba e03f 32bc fbb3 823d 5098 79bb
00000090: 3bc7 a73d c426 2abd 0fbf 013b f2f9 72bb
000000a0: 9703 023b 26ab eabb 1c43 f4bb 4da8 c03c
000000b0: 81cf aebc bbe9 13bd 7c60 69bb c02e 883b
000000c0: 72cb 81bd 6f75 0b3d 0eaf 01bd dede 373d
000000d0: 864a 0ebd 9fff 36b9 49de 11bc 73d4 c63c
000000e0: 13af 803b ca3f 97bc 448b 883d 6087 b83c
000000f0: 1b8c 793c 76d3 b03d 086f bf3c 0636 173c
00000100: 3850 10bc 90b7 ae3c f08b d1bc ebd3 0c3d
00000110: 4895 19bd 3055 62bd efdd 48bd 6b60 093b
00000120: 59b0 24bc 5626 063d 5a15 823b b39a 0b3d
00000130: 7216 4bbc 163d 80bb 9440 81bd 2572 b33c
00000140: c079 1abc 48b9 d93c 386c 8a3b 3591 0d3d
00000150: 9c31 a0bb b966 e6bc 782b abbc 5735 fc3c
00000160: e292 dc3c 8eab a03c a9fa 4c3c ac02 9539
00000170: b4b9 0d3b 312e edbc 1e6f adbc e265 6fbc
00000180: 5b7a bf3c c662 a637 37d6 973c 7420 743d
00000190: 95fe 40bd e882 c3bb 4191 673c 655f dfbc
000001a0: 3854 41bc 2fff f63a 8caf f63c 0ff3 07bc
000001b0: 83b5 83bd 1501 833d 27f5 023b 7ce0 573c
000001c0: 3d35 003c f1af 1d3c f51b 90bd ed3d 95bc
000001d0: 9591 9cbc 35cc 50bc 4a25 913b 01e7 0dbc
000001e0: fefe 97bd cb03 00bc a32a 28bd 8a4d 67bd
000001f0: 06b6 8bbb 2656 8d3c 8a1b ccbc 9171 a33d
00000200: 404e 2ebd cc47 aabc 3678 32bd ac3b 823c
00000210: 21df e43c c240 f9bb 80e1 8dbd fa24 4e3c
00000220: 994b 4cbc 3c7c adbb e6a2 263d fc36 a33b
00000230: 375b bb3c ee64 7c3b 837a 5ebd 90a2 70ba
00000240: d759 993c fb8d 333d b8c6 7cbc 3dcd 883b
00000250: 3c7b c6bb dff9 2abc 0098 973b 04b9 6c3c
00000260: 4aa5 75bd da40 16bd ca9f b8bc 1b2c f33b
00000270: 397d 6a3d 80b5 95bd 65c3 23bc b0de 46bc
00000280: f6bd 9f38 6a38 6bbd 2658 893d 5a81 33bc
00000290: 681f c2bc 587b ce3c 6a60 233c 5822 91bc
000002a0: 33c8 12bc 29a0 533b b67d 0abc 476a 9b3d
000002b0: 9ea2 b5ba 1c79 273d adab efbb 8e29 96bc
000002c0: 009b 4b3c e1ee 8abc 8367 38bd a90a 74bc
000002d0: b064 423c 3e73 233c 05cf 2a3c 53b1 b73c
000002e0: 167e 18bc 3009 c53d d873 bcbb e612 6fbc
000002f0: 1363 aebb 62ba c6bc e6f1 3d3d 4574 f5bc
00000300: 704a e7bb 879a af3d 5028 d63b 028d 283d
00000310: df84 b3bb 805f 993b fc49 0c3d 428b d9bc
00000320: 4d4e 833c 78a1 513d ab39 29ba 61fa 58bc
00000330: 1182 2c3c ea2e 173c d08e 0c3b 7632 6a3d
00000340: d54a 873d 203f 423d 5eb9 2a3d da59 4f3d
00000350: 87f9 71bd ef5f 6e3d 75cd 98bc e506 4e3d
00000360: b224 1dbc fe9a 94bc b5db a23a a000 ca3c
00000370: c2d7 f6bb 9729 0c3d d4fe c3bc 49e2 b5bc
00000380: af34 ad3c 422b 79bd 6fbe ec3a 6108 9c3c
00000390: 7266 823c 3edf aa3c c684 c13a 2470 613c
000003a0: acb1 f73c 73f0 eab9 165b 943d c0ce c5bb
000003b0: 8b87 463d b1ee d8bc 3200 e53b 0c05 1b3d
000003c0: 51f9 5bbc a804 753c 23ce 833c 1a2c b43b
000003d0: 133a 78bb a87f 3c3d 0bbd 2fbd e1da 97bc
000003e0: e321 a0bc 7869 03bc c3ef f5bc 4e01 9ebc
000003f0: fb26 3fbc 4404 21bc 49fc 13bd 48f8 afbc
-0.029882127 -0.017979842 -0.007185987 0.081479475 0.028996851 0.097186364 -0.013331105 0.034916583
-0.032013725 0.002635746 -0.0012872136 -0.011168215 0.061646022 0.065136336 0.037815206 0.038539108
-0.007714452 0.0648421 0.005388647 -0.00033118748 -0.011157412 0.004237976 -0.01778933 -0.030297246
-0.042506594 -0.023904964 -0.05031149 0.004406662 -0.039431322 0.011411631 -0.032533813 0.040088214
-0.0010612776 -0.010879487 0.06381985 -0.003808517 0.08192297 -0.041540876 0.0019797718 -0.0037075249
0.0019838565 -0.0071615158 -0.007454289 0.023517752 -0.02133918 -0.036111575 -0.0035610488 0.0041559637
-0.06337632 0.03404754 -0.031661086 0.044890277 -0.03473904 -0.00017452099 -0.008903095 0.024271226
0.0039271205 -0.018463034 0.06667188 0.02252549 0.015231158 0.08634083 0.023368374 0.009229189
-0.008808188 0.021327764 -0.025579423 0.03438179 -0.03749588 -0.055257022 -0.049039777 0.002096201
-0.01005181 0.032751404 0.0039698305 0.03408308 -0.012395488 -0.003913532 -0.063111454 0.021905014
-0.0094284415 0.026577607 0.0042243265 0.03456231 -0.0048887264 -0.028125154 -0.020894751 0.030787153
0.026925508 0.019613054 0.012510934 0.00028421485 0.002162558 -0.02895269 -0.021171149 -0.014611693
0.023373773 1.9834737e-05 0.018534763 0.059601262 -0.04711779 -0.005966533 0.014133752 -0.027267167
-0.0117998645 0.0018844361 0.030113004 -0.008297696 -0.06431105 0.06396691 0.0019982548 0.01317608
0.007825193 0.009624467 -0.070365824 -0.018218005 -0.019112388 -0.012743999 0.004429494 -0.008661033
-0.07421683 -0.007813404 -0.041056287 -0.05647043 -0.0042636422 0.017252993 -0.024915475 0.079806454
-0.042555094 -0.020786189 -0.043571673 0.015897594 0.027938427 -0.0076065967 -0.06927776 0.012582058
-0.012469196 -0.005294351 0.040682696 0.00498092 0.022870643 0.0038512307 -0.054316055 -0.0009179497
0.018719597 0.043836575 -0.015428238 0.004174857 -0.006057171 -0.0104355505 0.004626274 0.014448408
-0.059972085 -0.03668294 -0.02253713 0.0074210293 0.057248328 -0.07310009 -0.009995316 -0.012138054
7.617094e-05 -0.057426848 0.06706266 -0.010956133 -0.023696616 0.0252053 0.009971717 -0.017716572
-0.008958864 0.0032291508 -0.008452823 0.0758863 -0.0013857668 0.040886983 -0.0073141665 -0.018330362
0.012427092 -0.01695961 -0.04502059 -0.01489512 0.011864826 0.009976206 0.010425334 0.022423422
-0.009307405 0.09620893 -0.0057511143 -0.014591908 -0.005321869 -0.024258796 0.04637327 -0.029962668
-0.007058434 0.085743956 0.0065355673 0.0411501 -0.005478486 0.004680574 0.034250244 -0.026555661
0.016028548 0.05117938 -0.00064554316 -0.013243289 0.010529057 0.009227494 0.0021447428 0.05717703
0.0660607 0.047423482 0.041680686 0.0506228 -0.05907586 0.05819696 -0.018652657 0.050299544
-0.009591268 -0.018140312 0.0012425097 0.024658501 -0.0075330446 0.03421935 -0.023925222 -0.022202628
0.021143286 -0.06083227 0.0018062125 0.019046964 0.01591799 0.020858403 0.0014764301 0.013759647
0.030236088 -0.00044811107 0.07243936 -0.0060366094 0.048469108 -0.026481004 0.0069885487 0.03784661
-0.013426141 0.014954723 0.016089505 0.0054984214 -0.0037876412 0.04602018 -0.042904895 -0.018536987
-0.019547408 -0.008020751 -0.030021554 -0.019287731 -0.0116670085 -0.009827677 -0.03612927 -0.021480694

net.4.bias f4 [256]
00000000: af2e 00be 7b7c e1bd 9778 86bd b8fb 75bd
00000010: b929 143a d5ff ebbd 2f68 babd 824b 8abd
00000020: 785c 5dbd c78a 9dbd bf4c 9ebd 6468 6dbd
00000030: 25c8 e3bd 9bbf 94bd 4219 ffbd ed33 673c
00000040: 157b 1ebd db02 eabd 2feb 0bbe 4a41 abbd
00000050: bde5 8bbd f4ed a1bd 20a5 f5bc 6377 c0bd
00000060: e6b4 cabd b1e2 8bbd 1a97 6ebd 150e 07bd
00000070: 1575 b6bd e9c2 5bbd 685c 8ebd f188 1d8a
00000080: 2482 cdbd 9430 f5bd 86fe b4bd 7aa0 96bd
00000090: 3cec 90bd 2d3e 0ebd fea3 03be ae43 91bd
000000a0: dfb2 8fbd ed5c d4bd 93f6 07bd e407 a5bd
000000b0: 0ce6 27bd f926 05be 8729 b3bd 9af7 dfbd
000000c0: 1c5f 6abd 84e3 29bd d218 abbd 79e5 a4bd
000000d0: b333 96bd 2c79 a0bd 0236 a8bd 7680 8791
000000e0: e3ad 7fbd 7bef 853c 4e00 6abd 8396 cebc
000000f0: c754 d4bd fbe7 04be 953b 7fbd 54df 87bd
00000100: 46eb babd 3f4e a4bd ce1c 9abd b5c8 babd
00000110: b0f5 01bd 8f60 8bbd 3856 0fbe f3c2 01be
00000120: eed3 1ebe ec3e df8e 07b1 f8bc d228 87bd
00000130: f676 86bd 6ac6 e5bd ad3c 71bd d490 f5bc
00000140: ef71 3cbd 91a4 9fbd 569c 56bd bcfc 92bc
00000150: 8637 a1bd 886a 68bd d79c bcbd f4f1 14be
00000160: 1e3f afbd a39f dcbc 95f4 c5bd 8de0 0abd
00000170: 1a15 c3bd 718b 95bd 9c1f 1dbd 9460 10be
00000180: a11d d0bd cde9 3fbd cb93 c1bd 0d87 a9bd
00000190: 854e 77bd 7591 62bd 4f97 2d3c 9ecf 35bd
000001a0: b98b d7bd 3f33 52bc 7e19 83bd 48f2 43bd
000001b0: d5a0 ffbd 98ff 82bd 1bf2 97bd bdfb e7bd
000001c0: 4267 84bd 9a58 c6bd 8f8e 42bd 54ab f4bd
000001d0: 2e18 8bbc 9fde cdbd eb1d d5bd 0f83 c0bc
000001e0: 186a 9cbd 0752 debd 03fd 45bd d31c 8bbd
000001f0: b25d 0ebe 2e02 c6bd aea5 e2bd 001d 04be
00000200: e19c 50bd 6222 88bd df95 91bd deac a5bd
00000210: cc28 50bd abe9 9abc d2d9 f6bc 2b07 b193
00000220: 8938 9dbd 28fa 8abd 811c bcbd fef0 87bd
00000230: ac72 05be cf57 0bbd 72b6 ecbd 1a62 97bd
00000240: 13c9 1cbe 85bd 44bd 9620 f7bc 94ae d7bd
00000250: 63bb 74a1 593b 44bd c9da 42bd 7bc5 a4bd
00000260: 9467 84bd c908 a0bd aeec 84bd a4ca 73be
00000270: 6ef2 babd a8a1 febd e36f 1bbd 18fb b1bc
00000280: ae06 abbd b011 9fbd b940 d9bd 4f33 e0bd
00000290: 046e f6bd 2e91 8dbd 13a0 82bd 3496 93bd
000002a0: 430c 99bd e538 73bc dd07 07be 7304 7dbd
000002b0: 2fea a5bd e7de 65bd 60c0 18be bbcd 5abd
000002c0: 7a1c c8bd 6f53 52bd dd80 1abe 214a 45be
000002d0: f969 1c3c 5395 e9bd 6104 3ea9 4ffa 8cbd
000002e0: a4f8 90bd 3125 3dbe 8546 a7bd 1349 9bbd
000002f0: 3d80 b6bd dbcb 9dbd 42e3 40bd 776d 22bc
00000300: 5a2a a6bd 7b27 0cbe 5414 d1bd 58bd 0ebd
00000310: f094 9ebd a9dc 6cbd f54f dfbd 3b48 82bd
00000320: 4c37 cebd 5a96 9ebd dfac b2bd 8f3e 67bd
00000330: e4b3 d2bd d689 10bd a770 10bd af42 f5bd
00000340: cb21 e4bd ba29 c4bc ebe9 6dbd ffe8 e9bd
00000350: e107 17be 8b09 0cbe 71ac 2abe 2c2c f9bd
00000360: e3cf 83bd 048c aabd 6ebc dabd 319b 09be
00000370: 5317 3cbd e619 8ebd 061c f4bd ba6f 96bd
00000380: 05a5 04be cdfe f3bd 7453 60bd bdd9 8ebd
00000390: 4736 4dbd 733e 02be 4c58 d9bc 9d29 88bd
000003a0: eac7 61bd 77ae c6bd 2ea3 6abd 7405 59be
000003b0: 595a aebc 5911 b6bd 032f 88bd b2db cfbd
000003c0: 0f4a f4bd 45fa b9bd bd88 50bd 8e6c 9dbd
000003d0: 2181 c1bd cae9 09be b35d 8fbd baf9 c1bd
000003e0: ec44 9bbd d79e 27bd 4548 05be 370a 07bd
000003f0: 9f1e 15bd 7b6d 65bd 7a07 f0bd a4ce 40bd
-0.12517808 -0.11010071 -0.065659694 -0.06005451 0.0005651969 -0.115234055 -0.09101903 -0.06752683
-0.054043263 -0.07692485 -0.07729482 -0.057960883 -0.11122159 -0.07263108 -0.124559894 0.014111501
-0.0386916 -0.11426326 -0.13663934 -0.08362062 -0.068309285 -0.07906714 -0.029985964 -0.09397771
-0.09897785 -0.06830347 -0.05824957 -0.032972414 -0.089090504 -0.053652678 -0.06951219 -7.585031e-33
-0.10034588 -0.11972156 -0.08837609 -0.07354827 -0.07076308 -0.034727264 -0.12855527 -0.07092987
-0.07016539 -0.10369287 -0.033194136 -0.08058146 -0.040990874 -0.13003148 -0.08748155 -0.10935898
-0.05721961 -0.04147674 -0.083543435 -0.08051581 -0.073340796 -0.07835612 -0.08213426 -2.1378415e-28
-0.06242169 0.016349545 -0.057129197 -0.025218254 -0.103677325 -0.12979119 -0.06231268 -0.06634393
-0.09126906 -0.08022737 -0.07525025 -0.09120313 -0.031728446 -0.068055265 -0.13997734 -0.12672023
-0.15510532 -5.5034336e-30 -0.03035785 -0.06599583 -0.06565659 -0.11219485 -0.058895756 -0.029976286
-0.046007093 -0.077950604 -0.052395187 -0.017942779 -0.078719184 -0.05674222 -0.09209602 -0.14545423
-0.085569605 -0.02693159 -0.09665791 -0.033905555 -0.09525509 -0.07301987 -0.038360223 -0.14099342
-0.10161901 -0.04685383 -0.094520174 -0.08277712 -0.060377616 -0.0553145 0.010595157 -0.044387452
-0.10524697 -0.012829601 -0.064013466 -0.04783848 -0.12481848 -0.06396407 -0.07419225 -0.11327312
-0.06465007 -0.09684868 -0.047499236 -0.11946741 -0.016979303 -0.10052227 -0.10406097 -0.023499994
-0.07637423 -0.10855489 -0.048336994 -0.06792607 -0.1390293 -0.096683845 -0.11066757 -0.12901688
-0.05093086 -0.06647183 -0.07108664 -0.080896124 -0.050820157 -0.01891025 -0.030133162 -4.468815e-27
-0.07676799 -0.06785995 -0.09185124 -0.066377625 -0.13032025 -0.034019288 -0.11558236 -0.07391758
-0.15311079 -0.048032302 -0.030166905 -0.10531345 -8.291842e-19 -0.04790816 -0.04757193 -0.08045479
-0.064650685 -0.07814176 -0.064904556 -0.2380777 -0.09128271 -0.12433177 -0.0379485 -0.021726176
-0.083508834 -0.077670455 -0.10608048 -0.10947286 -0.120327026 -0.069124565 -0.06378188 -0.07206383
-0.07473042 -0.014845108 -0.13186593 -0.06177182 -0.081013076 -0.05612078 -0.14917135 -0.053418856
-0.097710565 -0.0513491 -0.1508822 -0.19266559 0.00954675 -0.114054345 -4.2192273e-14 -0.0688368
-0.070786744 -0.18471219 -0.081677474 -0.07582297 -0.08911178 -0.07704898 -0.04709173 -0.009913794
-0.08113547 -0.13686936 -0.102089554 -0.03484854 -0.07743251 -0.057827625 -0.109039225 -0.06361433
-0.10069141 -0.07743521 -0.08724379 -0.056456145 -0.10288218 -0.0352877 -0.035263684 -0.119756095
-0.11139258 -0.023945678 -0.05808441 -0.114213936 -0.147491 -0.13675515 -0.16667344 -0.12166628
-0.064361356 -0.08327487 -0.10680471 -0.13438107 -0.04592068 -0.069385335 -0.119194075 -0.07345529
-0.12953575 -0.11913834 -0.054767087 -0.06975124 -0.05010059 -0.12719135 -0.026531361 -0.06648562
-0.055122294 -0.09701245 -0.057284527 -0.21193486 -0.021283315 -0.088900276 -0.06649592 -0.101493254
-0.11928188 -0.09080938 -0.050911654 -0.07686721 -0.094484575 -0.1346809 -0.070002936 -0.0947146
-0.07581505 -0.040922966 -0.1301585 -0.032968726 -0.036406156 -0.05601261 -0.11720176 -0.047072068

net.6.weight f4 [256]
00000000: ef1b c03e 79e3 943e 80d9 463e f661 913e
00000010: 0582 5c3e f3af af3e cf63 853e e25b 6a3e
00000020: 2803 753e 8271 933e bc0b 933e dd85 943e
00000030: 2075 b43e 7cc0 bc3e 7c83 c03e c81e 883e
00000040: cdaa d83e d599 a73e ffa8 e63e 3144 6e3e
00000050: 0dcb 933e 6df7 e63e 0072 543e ed00 973e
00000060: 46da cb3e 5a93 be3e fee9 8d3e fae5 b73e
00000070: 4985 cc3e 6cc6 983e 15bf 903e 0208 e53e
00000080: 6e40 823e 1182 c43e d4f2 b23e ffb2 dc3e
00000090: c031 bc3e 5d37 943e f8c5 ff3e 7750 923e
000000a0: 203f a73e 7a41 9b3e 2288 da3e 6f32 a53e
000000b0: d195 8f3e 33bf 6d3e 1627 8e3e d129 dd3e
000000c0: 5f46 be3e 75ff 773e f55f a33e 9ee8 d63e
000000d0: c776 803e 6b78 8a3e 40a4 c63e 8da4 e13e
000000e0: f70d 863e 8152 403d 11e4 7b3e 3765 f83e
000000f0: ab63 523e 566a 093f d79b 8a3e e9c9 973e
00000100: 9163 9a3e a816 893e a1bd 8b3e 0333 5bbe
00000110: 10b5 7d3e 4ef4 d63e 01b6 f43e 0533 013f
00000120: 737b f33e 2ce1 e83e 4536 d13e c4fd 803e
00000130: a3cd 883e 653f ae3e 4376 873e a4a6 7c3e
00000140: 99df e73e 2ab2 943e 7f9d 403e 3fdd a43e
00000150: 3700 923e bfdd e03e 043b 973e 0b94 003f
00000160: 2569 9b3e 965e 903e 9487 d03e 2d09 013f
00000170: 6b2e a03e 2a6e a23e bd7a 633e 86ac 893e
00000180: 5550 833e a939 9d3e 7eb5 cd3e 8665 943e
00000190: 5008 f23e 8d09 a73e b678 6f3e c8c3 893e
000001a0: db80 d23e 8ef6 1c3e 66d6 8c3e 7aad 863e
000001b0: f70b db3e 607f 8a3e d77c b13e 7ad7 b93e
000001c0: 5921 533e ca82 ee3e c466 993e e8b6 f43e
000001d0: 24e9 8d3e 00c3 8c3e b7de 893e 7a69 853e
000001e0: 0c91 a63e a286 e63e 5a3e a23e 3acd 733e
000001f0: 2ebf 013f 6dc4 8b3e 7e21 da3e c961 863e
00000200: fe39 a23e 72d2 9e3e b95b de3e d4d1 983e
00000210: 27f0 9c3e 0302 e13e 8fe0 8e3e 5635 e03e
00000220: 54d9 813e 46c7 743e 6f8d a73e 4696 9b3e
00000230: cc40 f33e bdac d43e 95ed 773e 8f2b 923e
00000240: dbe9 073f 9c87 833e 5d4b 933e 76cd cb3e
00000250: 29ce ee3e cb39 d53e 1ac5 fd3e 9dd6 723e
00000260: 5fa7 c13e 5071 ad3e d2fd 833e 50d7 d43e
00000270: 767d 863e 78fb 973e 7b83 a23e 4761 193e
00000280: a6fb 883e 5a2b 903e b102 a83e f3b9 a33e
00000290: 7e39 8b3e 455d 793e 5f2a 8c3e 5e2f b53e
000002a0: 3bf6 413e e548 893e 4137 e93e d448 a23e
000002b0: 76a9 c83e 84fe df3e 2092 f83e 0cc4 9c3e
000002c0: d41c 6a3e 65b5 8e3e 3cc7 f23e f856 c53e
000002d0: 9244 d93d f476 983e 8369 e23e c779 8a3e
000002e0: fbe6 b63e c605 fb3e db70 a53e dfbe 733e
000002f0: 53b4 8a3e 7544 8a3e b391 933e ba4d d93d
00000300: 2534 033f 20b2 fb3e 3dac ea3e 1c5b 8f3e
00000310: b511 a63e 005d 953e cadb ce3e c8aa 843e
00000320: 8f3a 9a3e 27be 893e 03b0 9e3e aeaf 963e
00000330: 5b44 8f3e c368 953e 94b3 d03e a3a5 cf3e
00000340: 5fd4 903e 0cc9 8f3e 1005 383e cdc8 f13e
00000350: f407 ad3e a0cc f83e 377d ac3e c5b4 093f
00000360: a12e 863e f7e3 923e a3ea 663e 4f8e ba3e
00000370: e5c7 7f3e 83c4 a53e e02a 903e dc52 df3e
00000380: 168e e43e e19f dd3e d236 993e 0850 aa3e
00000390: 222d 653e 2cb7 013f 76bd 853e 9978 933e
000003a0: d5d9 9b3e accc 9d3e b05a 593e 118a b63e
000003b0: e704 ab3e 5cd9 9f3e ed5e 7f3e 934d a33e
000003c0: 84e7 f03e c73a 8d3e 152c 923e 3f61 973e
000003d0: 0919 d63e 1b75 e23e 23af 9a3e 62a7 973e
000003e0: 22a3 713e d9ed 7a3e 8888 c43e d344 db3e
000003f0: 11b9 db3e 444d 7f3e 40fa 973e ea1b ce3e
0.37521312 0.29079798 0.19418907 0.2839505 0.21533974 0.34313926 0.2605271 0.22886613
0.23926985 0.28797537 0.2871989 0.2900838 0.3524561 0.36865604 0.37600315 0.26585984
0.4231781 0.32734552 0.4505081 0.232682 0.28865853 0.45110646 0.20746613 0.29492894
0.39814967 0.37221795 0.27717584 0.35917646 0.39945439 0.29838884 0.28270784 0.44732672
0.2543978 0.38380483 0.34950888 0.43105313 0.36756706 0.2894849 0.49955726 0.28577015
0.32665348 0.30323392 0.42681986 0.3226504 0.28043988 0.23217468 0.27764195 0.43195966
0.37163064 0.24218543 0.31909147 0.41974348 0.2509062 0.27044997 0.38797188 0.44070855
0.2618253 0.04695368 0.24598719 0.4851472 0.20545833 0.5367788 0.2707202 0.29646233
0.30154088 0.26775098 0.27293113 -0.21406178 0.24776101 0.41983265 0.47795108 0.50468475
0.47555122 0.45484293 0.40861717 0.25193608 0.26719388 0.3403274 0.26457414 0.24672943
0.4528778 0.29042178 0.1881008 0.32200047 0.2851579 0.4391918 0.29537213 0.50225896
0.30353656 0.28197163 0.40728438 0.50404626 0.31285414 0.31724674 0.2221479 0.26889437
0.25647226 0.30708054 0.4017753 0.28983706 0.47271967 0.32624474 0.23385891 0.26907182
0.41113934 0.15328428 0.27507323 0.26304227 0.42782566 0.27050304 0.34665558 0.36297208
0.2061819 0.4658416 0.29961216 0.47795796 0.27716935 0.27492523 0.2692773 0.26057035
0.32532537 0.45024592 0.31688195 0.23808756 0.5068234 0.27298298 0.42603678 0.2624648
0.3168487 0.31019932 0.43429354 0.29847586 0.30651972 0.43946847 0.279057 0.43790692
0.2536112 0.23904142 0.32725093 0.30388087 0.47510374 0.4153804 0.24211724 0.28548858
0.5309121 0.256894 0.28768435 0.39805192 0.46641663 0.41645655 0.4956444 0.23714681
0.37823007 0.33875513 0.25779587 0.4157052 0.26267594 0.29684043 0.31740937 0.14978515
0.26754493 0.28158075 0.32814553 0.31977805 0.271923 0.24351986 0.27376077 0.353877
0.18941586 0.26813427 0.45549968 0.31696188 0.39191788 0.43748868 0.48548985 0.30618322
0.2286256 0.27872768 0.4741763 0.38542914 0.10608782 0.29778254 0.44221124 0.27046034
0.357231 0.49027842 0.32312664 0.2380328 0.270907 0.27005354 0.28822097 0.10610528
0.5125144 0.49159336 0.45834532 0.27999198 0.32435384 0.29172516 0.4040206 0.25911546
0.30122802 0.26902887 0.3099366 0.29430908 0.2798184 0.2918149 0.40762007 0.40556058
0.28287026 0.28083074 0.17970681 0.4722351 0.3379513 0.48593616 0.3368928 0.5379146
0.2620745 0.28689548 0.22550444 0.36436698 0.24978597 0.3237649 0.2815771 0.43617904
0.44639653 0.4328604 0.29924637 0.33264184 0.22380498 0.50670123 0.2612111 0.28802946
0.3043963 0.30820215 0.21226001 0.3565221 0.33402178 0.3122052 0.24938555 0.31895122
0.47051632 0.27583906 0.28549257 0.2956638 0.41815975 0.4422997 0.30211744 0.2961989
0.23597386 0.24504794 0.38385415 0.42825946 0.42914632 0.24931818 0.29683113 0.40255672

net.6.bias f4 [256]
00000000: e9ff cf3c b4a1 b33c 476a 403c 56cf 673c
00000010: a6f6 e73b 979e ec3c 3785 8c3c 6c8a 093c
00000020: c5ed 8c3c ab36 b03c 9711 ac3c b718 693c
00000030: 626d b63c 956f f83c 7ffa f13c f264 e0bb
00000040: 9e58 093d 8592 ac3c 9407 0f3d e946 983c
00000050: b05a 9a3c 0d82 203d 4560 5b3c 152b 973c
00000060: 0d79 053d 14aa ca3c 57dc 8b3c e858 d13c
00000070: 1d59 bc3c 2e25 383c c52c 5d3c 8587 153d
00000080: ae99 943c 0459 df3c 0ab1 ba3c 4b1e 023d
00000090: 1312 fd3c 9cec 443c ef0a 223d 1b4b ae3c
000000a0: 2b41 b03c 0d31 b83c 1274 1c3d c6d6 9c3c
000000b0: 0567 bd3c 80a3 1e3c 8d6a bd3c ff32 f63c
000000c0: d120 f83c 6595 463c 5355 b03c 6235 0b3d
000000d0: b777 613c c41d 8f3c d375 003d 5eb6 1f3d
000000e0: 329e 363c 2c0d 33bf 1c60 5b3c 4da0 143d
000000f0: 3e89 593c e217 223d 2b32 973c 65db 9e3c
00000100: 4ddd 8d3c 5264 b63c 92f1 943c 6160 52bc
00000110: 4705 833c 5530 103d 3cd0 223d e87c 2f3d
00000120: 3044 203d 149e 173d 4a5a 033d 0069 b23c
00000130: 25c1 7e3c db2e a63c 4f48 a73c 045c 4e3c
00000140: a004 0e3d 137d c43c 1cfd 093c 0789 663c
00000150: ddd0 983c a919 1e3d cc43 d93c 5de1 243d
00000160: fffa 863c b706 6c3c 123a 023d a80d 1d3d
00000170: 26cd 733c 8cad c63c 2117 da3b 7262 4d3c
00000180: c450 113c a551 813c 7ee5 fa3c 2baa ea3c
00000190: a1d8 223d 5168 ae3c beef 50bb 8a3f 6b3c
000001a0: 2c5a 013d 5dfb bdbc 3538 f63b d511 a43c
000001b0: cc55 0c3d b8bb 293c d506 ec3c ac7e b23c
000001c0: 7c4d 603c 8a14 323d 8b90 a93c 91a2 223d
000001d0: 0f03 853c a03b bd3c 7c98 9b3c 887f 4b3c
000001e0: 3913 a13c 5ef1 053d e1ac 803c 2f13 133c
000001f0: e3de 243d 0e36 753c 8aa2 1d3d c9c2 b73c
00000200: df93 c43c 3bc2 b73c dfe6 043d 8789 b23c
00000210: 21a0 943c ab6a 043d 20fd 093c 8577 133d
00000220: f696 653c fb7d 1b3c f6b9 bd3c 6617 c83c
00000230: 665b 073d 8903 063d 7e48 663c f7e5 bb3c
00000240: e0d6 2c3d 9597 2a3c cd84 303c 1554 023d
00000250: 574f 113d 8286 083d d69b 1d3d 0e3e 953c
00000260: da32 ed3c c803 b23c 9675 463c 076c 123d
00000270: 1b39 493c 6b97 bc3c 45df 863c 80c3 24bc
00000280: 65a0 993c 2389 c43c 392f f83c aa6c 8c3c
00000290: c15d a73c e588 3c3c 5fe3 cc3c f5a6 0c3d
000002a0: bfcf 063c 5648 743c e384 093d 6aa5 a53c
000002b0: 3c18 de3c 45bd 053d a3d7 113d 7313 993c
000002c0: 9c0a 593b e3cc 8b3c ffa7 053d fe4b ef3c
000002d0: 1eb7 dcbc e869 d73c 8ffe f33c af86 013c
000002e0: 49a6 9d3c d5f8 2e3d e473 d23c ef76 c13c
000002f0: 0347 733c c7b6 933c 7d60 9d3c ff3a e5bc
00000300: b61e 2b3d 5ed2 393d 1813 233d 1bb0 983c
00000310: c74f e53c 4e47 363c c36d 063d 0cb9 953c
00000320: 8949 b43c c188 a63c ebf3 a33c 522c ad3c
00000330: a22c c53c 01cf 573c 6247 0b3d 3bc3 063d
00000340: f20b 833c 9951 943c 6640 8cbc dc34 063d
00000350: 0bd9 a43c dbe1 173d 3e3d d53c ca28 323d
00000360: 091b 323c e582 a53c 799c 713c 55de fb3c
00000370: 1d49 a33c 6fd5 9c3c 8869 633c 60f4 103d
00000380: 5147 163d d956 0f3d b552 ad3c 8bff e03c
00000390: 527b c03c 677f 393d 0d1e 623c b287 b83b
000003a0: 5979 b33c 7503 c33c f0ad 663c 6363 e43c
000003b0: b4dd 703c d935 ab3c 24cb 883c afbc b83c
000003c0: 481e 183d 8597 643c 2fdc 683c 543f 7c3c
000003d0: f8b0 193d 17e3 f53c ccd5 893c 4b15 a13c
000003e0: 7571 5a3c 37ca 453c 2690 053d ec2f 1a3d
000003f0: 65bb 0f3d e996 4b3c c251 ba3c 5710 013d
0.025390582 0.021927692 0.0117440885 0.014148554 0.0070789633 0.028884215 0.017153366 0.008394819
0.017203221 0.021510443 0.021004481 0.014227084 0.022268955 0.030326644 0.029538391 -0.006847971
0.033531778 0.02106596 0.034919336 0.0185885 0.018842071 0.039186526 0.013389652 0.01845316
0.032586146 0.024739303 0.01707284 0.02555509 0.022991711 0.011239333 0.013499443 0.036506195
0.018139686 0.027264126 0.022789497 0.03176717 0.030892408 0.012019303 0.03956121 0.021276047
0.02151545 0.022484327 0.03819663 0.01914538 0.023120413 0.009682536 0.023122096 0.030053614
0.030289086 0.012120579 0.02152506 0.033986457 0.013761452 0.017470248 0.031362366 0.03899228
0.011146115 -0.69941974 0.0133896135 0.036285687 0.01327735 0.039573558 0.01845654 0.019391725
0.017317438 0.022264633 0.018181596 -0.012840361 0.015993727 0.035202343 0.03974937 0.04284373
0.03912753 0.03701599 0.03206853 0.021778584 0.015548979 0.020286014 0.020420222 0.01259518
0.03467238 0.023985421 0.008422162 0.014070756 0.018654281 0.03859869 0.026521586 0.040253986
0.016477106 0.014405898 0.03179366 0.0383431 0.014880454 0.024252675 0.006655589 0.012535678
0.008869354 0.015786001 0.030627009 0.028645596 0.039757375 0.021289976 -0.0031881179 0.014358411
0.031580135 -0.023191148 0.0075140246 0.020028034 0.03426151 0.010359697 0.028811852 0.021788917
0.013690349 0.04347662 0.020698806 0.039705817 0.01623681 0.02309972 0.018993609 0.012420543
0.019662486 0.03270089 0.015707435 0.008976742 0.040251624 0.014966501 0.038485087 0.022431748
0.023996292 0.022431483 0.03244674 0.021794094 0.018142762 0.03232829 0.008422166 0.036002655
0.014013043 0.009490485 0.023159962 0.02442522 0.03304615 0.032718215 0.014055369 0.022936804
0.04219711 0.010412117 0.01077385 0.031818468 0.035476055 0.0333314 0.038478695 0.018218067
0.028954912 0.021730319 0.012112996 0.035747554 0.012281681 0.02302142 0.016463885 -0.010056376
0.01875324 0.023991173 0.030295955 0.017141659 0.020430448 0.011507248 0.025010763 0.03433891
0.0082282415 0.014909824 0.033573996 0.020220477 0.027111165 0.032651205 0.035606038 0.018686032
0.0033117896 0.017065471 0.032630917 0.02921104 -0.026942786 0.026295617 0.029784469 0.007905646
0.01924433 0.042717773 0.025690027 0.023616282 0.0148484735 0.018031491 0.019211048 -0.027982233
0.041777335 0.045366637 0.03981313 0.018638661 0.027992142 0.011125399 0.03281952 0.018276714
0.02200772 0.020328881 0.02001377 0.021139298 0.024069134 0.013171912 0.034003623 0.03290103
0.015996907 0.018105315 -0.017120551 0.032765254 0.020123025 0.037080627 0.02603018 0.04349593
0.0108707035 0.020204017 0.014746779 0.030745665 0.019932324 0.019144742 0.013880141 0.035389304
0.036689106 0.034994934 0.021157602 0.027465602 0.023496304 0.045287516 0.01380111 0.0056314105
0.021908449 0.02380536 0.014079556 0.027879423 0.014701296 0.0208997 0.016698427 0.022550909
0.037138253 0.013952141 0.014212652 0.015395958 0.037522286 0.030015511 0.01682558 0.019663474
0.013332714 0.012072138 0.032608174 0.037643358 0.035090823 0.0124261165 0.022744063 0.031509724
