RL code/models/checkpoint_episode_570000.pth (torch, 801255 bytes, 40 tensors)

net.0.weight f4 [256, 22]
-0.038518384 0.031679697 0.094368786 -0.0781187 -0.018395666 0.024018332 0.052240558 -0.06675743
0.018922662 -0.030440992 -0.089994065 0.16027331 0.10915397 -0.08623288 -0.023585806 0.025338393
0.04821681 -0.0711246 -0.018922662 0.030440992 -0.038518384 0.031679697 0.00023407485 0.017295884
0.094143175 -0.047271542 -0.020390045 -0.0953505 0.03479092 -0.046526153 -0.046232607 -0.08966611
-0.22708601 -0.060734145 0.07634549 -0.11369723 -0.017593782 -0.039655544 0.035687733 0.0033317797
0.046232607 0.08966611 0.00023407485 0.017295884 0.13849476 0.13413396 0.18019053 0.16177167
-0.16679525 -0.15968531 -0.17147204 -0.1765015 -0.33769786 -0.3080158 -0.30287078 -0.26633897
-0.17671472 -0.16586068 0.17561685 0.16313204 0.17891054 0.15076268 0.33769786 0.30801576
0.13843966 0.13407095 -0.02682974 -0.00024393592 -0.21361214 0.14431633 -0.06741509 0.011830743
0.027355336 0.057445813 0.105615765 -0.015692236 0.03799543 0.0744677 -0.14651889 0.15779987
-0.12756419 0.012339758 -0.024335252 0.050909236 -0.105615765 0.015692236 -0.02682974 -0.00024393592
-0.022899376 0.032687217 -0.09170925 0.19388764 -0.088470794 0.0979744 -0.0799453 0.055789117
-0.08710614 0.011552045 -0.08809114 -0.052381165 -0.1299563 0.21717647 -0.07052413 0.0917427
-0.06826209 0.036884155 0.08710614 -0.011552045 -0.022899376 0.032687217 0.027183218 0.0065377727
-0.1600868 -0.13676599 -0.041902807 -0.030528385 -0.054166265 -0.04441691 0.03093464 0.06991918
-0.015128598 -0.026911868 -0.16831435 -0.1314332 -0.043842368 -0.028365912 -0.04484348 -0.044488948
-0.03093464 -0.06991918 0.027183218 0.0065377727 -0.04769845 0.013593735 -0.3433472 -0.0033430792
0.06277563 -0.008810737 0.049303684 0.0042876205 0.11785327 0.014625633 0.024037188 -0.007148389
-0.24488334 -0.0018733477 -0.037117448 -0.010399682 -0.05264144 -0.00018702603 -0.11785327 -0.014625633
-0.04769845 0.013593733 -0.020238908 0.081185065 -0.048295613 -0.11624725 0.0016875385 -0.14852491
-0.020695863 0.026590293 -0.008625747 -0.0101737045 0.032512657 -0.0848207 -0.046645798 -0.12819621
0.00011077751 -0.14951843 -0.024107592 0.02851687 0.008625747 0.0101737045 -0.020238908 0.081185065
-0.005290788 0.050549243 0.035509907 0.15534164 0.07996013 0.032999408 0.043609355 -0.05607521
0.0875492 0.054542307 -0.111873254 -0.106409624 0.08385586 0.12812297 0.04572779 0.064359926
0.005465595 -0.027508475 -0.0875492 -0.054542307 -0.005290788 0.050549243 0.013605697 -0.014039785
0.09352856 -0.21822183 -0.010786162 -0.12760659 0.016962893 0.024467455 -0.0361309 0.018315483
0.042680725 -0.027449286 0.04060614 -0.1845838 0.036259715 -0.1658468 0.066111006 -0.019902024
0.0361309 -0.018315483 0.013605697 -0.014039785 0.034024462 0.13142869 0.046422295 0.029982269
0.103499725 0.03355975 -0.029619694 0.046835653 0.034726955 0.032506928 0.044534836 0.09573685
0.050832946 0.040156953 0.11589516 0.015876524 -0.025675293 0.031027015 -0.034726955 -0.032506928
0.034024462 0.13142869 -0.070802584 -0.04742946 0.008083371 -0.05818571 -0.054020427 0.025942106
0.0021677297 0.009415946 -0.10977782 -0.013072126 0.19092426 -0.10744196 -0.077219956 -0.038248356
00000000: 74c5 1dbd 92c2 013d 6c44 c13d b2fc 9fbd
00000010: 82b2 96bc 18c2 c43c 32fa 553d 1fb8 88bd
00000020: b303 9b3c 635f f9bc cf4e b8bd b01e 243e
00000030: 1e8c df3d dd9a b0bd 0537 c1bc 7692 cf3c
00000040: fd7e 453d c6a9 91bd b303 9bbc 635f f93c
00000050: 74c5 1dbd 92c2 013d fd71 7539 19b0 8d3c
00000060: 23ce c03d ce9f 41bd 0609 a7bc 1f47 c3bd
00000070: ec80 0e3d 3592 3ebd 675e 3dbd dea2 b7bd
00000080: 3c89 68be 5ec4 78bd 065b 9c3d 18da e8bd
00000090: d620 90bc da6d 22bd 4d2d 123d fd59 5a3b
000000a0: 675e 3d3d dea2 b73d fd71 7539 19b0 8d3c
000000b0: 92d1 0d3e 6a5a 093e de83 383e 79a7 253e
000000c0: 60cc 2abe 8c84 23be 5e96 2fbe cfbc 34be
000000d0: bce6 acbe 3fb4 9dbe e111 9bbe 955d 88be
000000e0: b4f4 34be 62d7 29be e7d4 333e 160c 273e
000000f0: 5334 373e 8861 1a3e bce6 ac3e 3eb4 9d3e
00000100: 20c3 0d3e e549 093e 0bca dbbc 0dc9 7fb9
00000110: 24bd 5abe a9c7 133e ec10 8abd bcd5 413c
00000120: 4c18 e03c 4d4c 6b3d 144d d83d 018d 80bc
00000130: 19a1 1b3d 8682 983d 0c09 16be 4a96 213e
00000140: 30a0 02be b22c 4a3c b95a c7bc 3486 503d
00000150: 144d d8bd 018d 803c 0bca dbbc 0dc9 7fb9
00000160: 7997 bbbc 08e3 053d 0fd2 bbbd 7b8a 463e
00000170: 2d30 b5bd cda6 c83d 5dba a3bd 2183 643d
00000180: b464 b2bd ca44 3d3c 2169 b4bd a28d 56bd
00000190: 4413 05be 8263 5e3e f46e 90bd 99e3 bb3d
000001a0: ffcc 8bbd d713 173d b464 b23d ca44 3dbc
000001b0: 7997 bbbc 08e3 053d 57af de3c d03a d63b
000001c0: cbed 23be 620c 0cbe 47a2 2bbd aa16 fabc
000001d0: 72dd 5dbd 81ee 35bd a46a fd3c c931 8f3d
000001e0: f0dd 77bc 4776 dcbc 995a 2cbe 6d96 06be
000001f0: 0e94 33bd a15f e8bc ccad 37bd 0b3a 36bd
00000200: a46a fdbc c931 8fbd 57af de3c d03a d63b
00000210: 735f 43bd 42b8 5e3c 34cb afbe 9017 5bbb
00000220: 8290 803d e95a 10bc a9f2 493d 2b7f 8c3b
00000230: 0e5d f13d 5aa0 6f3c a3e9 c43c 083d eabb
00000240: b3c2 7abe 1e8b f5ba 7708 18bd 6e63 2abc
00000250: 8d9e 57bd 6b1c 44b9 0e5d f1bd 5aa0 6fbc
00000260: 735f 43bd 40b8 5e3c 11cc a5bc 5b44 a63d
00000270: 9fd1 45bd 0a13 eebd 6530 dd3a ea16 18be
00000280: 5f8a a9bc e3d3 d93c 0153 0dbc 9caf 26bc
00000290: fe2b 053d 7ab6 adbd aa0f 3fbd de45 03be
000002a0: 3951 e838 5c1b 19be 497d c5bc 369c e93c
000002b0: 0153 0d3c 9caf 263c 11cc a5bc 5b44 a63d
000002c0: 595e adbb b90c 4f3d d672 113d e111 1f3e
000002d0: 23c2 a33d 632a 073d b99f 323d 1faf 65bd
000002e0: ff4c b33d c167 5f3d ce1d e5bd 4aed d9bd
000002f0: 9fbc ab3d ab32 033e 104d 3b3d 23cf 833d
00000300: bc18 b33b 7459 e1bc ff4c b3bd c167 5fbd
00000310: 595e adbb b90c 4f3d 6eea 5e3c 2007 66bc
00000320: e78b bf3d 8b75 5fbe 71b8 30bc 4dab 02be
00000330: c4f5 8a3c f96f c83c fffd 13bd 5a0a 963c
00000340: fcd1 2e3d 53dd e0bc a052 263d 8903 3dbe
00000350: 1185 143d bed3 29be 3565 873d 9209 a3bc
00000360: fffd 133d 5a0a 96bc 6eea 5e3c 2007 66bc
00000370: 3c5d 0b3d 3e95 063e 4e25 3e3d 609d f53c
00000380: aaf7 d33d f375 093d 00a5 f2bc bed6 3f3d
00000390: da3d 0e3d fc25 053d 296a 363d ae11 c43d
000003a0: 3536 503d 9e7b 243d 715a ed3d 7c0f 823c
000003b0: fe54 d2bc 5e2c fe3c da3d 0ebd fc25 05bd
000003c0: 3c5d 0b3d 3e95 063e f200 91bd 6545 42bd
000003d0: 1e70 043c 2454 6ebd 8644 5dbd 8a84 d43c
000003e0: 7810 0e3b 5745 1a3c 32d3 e0bd 782c 56bc
000003f0: a681 433e 880a dcbd 7f25 9ebd 4faa 1cbd

net.0.bias f4 [256]
-0.24276076 -0.192869 -0.11003527 -0.31479838 -0.22390026 -0.18938646 -0.5671599 -0.23832797
-0.29325867 -0.27318466 -0.2754124 -0.22021203 -0.2858864 -0.5978532 -0.166636 -0.21021171
-0.31486666 -0.37945867 -0.29428583 -0.241992 -0.2664748 -0.30394742 0.01783415 -0.20355196
-0.20617028 -0.19817874 -0.26645628 -0.21617378 -0.25377196 0.20757638 -0.21664591 -0.19094795
-0.31609893 -0.2601695 -0.5842824 -0.26840785 -0.37691873 -0.28173208 -1.321743e-10 -0.27934784
-0.031144772 -0.19347905 -0.5563101 -0.2787303 -0.17690021 -0.19853623 -0.24193078 -0.24410167
-0.19599274 -0.23497856 -0.265214 -0.17585047 -0.21261999 -0.006895012 -0.19615579 -0.23520072
-0.2960235 -0.25312734 -0.31159186 -0.33966592 -0.28237793 -0.17175941 -0.28611004 -0.20347108
-0.27977622 0.0016928639 -0.29224786 -0.25873253 -0.16971725 -0.26854435 -0.19694367 -0.27807075
-0.2968298 -0.22929327 -0.20869666 -0.28795946 -0.31312746 -0.3012567 -0.2549784 -0.23670283
-0.26826343 -0.3155908 -0.18789352 -0.18595996 -0.20946285 -0.22538283 -0.28104612 -0.56416845
-0.26036447 -0.22813329 -0.23489349 -0.16262072 -0.25387907 -0.5596999 -0.24860443 -0.29885715
-0.24742563 0.21249008 -0.29377806 -0.31274024 -0.23342489 -0.4602717 -0.26592118 -0.59874165
-0.33263898 -0.3473799 -0.18780385 -0.2690686 -0.19958413 -0.2828476 -0.30936596 -0.24989873
-0.18998197 -0.34085017 -0.21355858 0.0979677 -0.23497678 -0.28684345 -0.25140482 -0.20096898
-0.27892286 -0.2553775 -0.28697458 -0.24994677 -0.23456113 0.21403685 -0.20921439 -0.31359932
-0.24699081 -0.18666027 -0.3834171 -0.2650468 -0.19475852 -0.26428613 -0.25904295 -0.21313691
-0.18568179 -0.26887932 -0.21509579 -0.27669838 -0.2068934 -0.2514784 -0.08526354 -0.053621463
0.21533097 -0.22925279 -0.10073088 -0.32510796 -0.18965676 -0.30605426 -0.2508088 -0.23532893
-0.28162473 -0.0059758266 -0.20932493 -0.18944176 -0.2033733 -0.049411017 -0.11214184 -0.16324896
-0.29359606 -0.2616457 -0.24460836 -0.26065236 -0.23231825 -0.42098525 0.04982773 -0.24237098
-0.27319604 -0.043951895 -0.24350189 -0.27326182 -0.22255516 -0.23442654 -0.20215145 -0.20842493
-0.17898269 -0.23529945 -0.28499272 -0.34087822 -0.18532306 0.114095114 -0.26134735 -0.1578468
-0.21151839 -0.31868953 -0.3062072 -0.28569397 -0.2959295 -0.30899388 -0.1982203 -0.2843322
-0.19160149 -0.5423216 -0.23443866 0.21381623 -0.25340998 -0.30390403 -0.25006342 -0.20369181
-0.20843491 -0.41721025 -0.24925387 -0.20375936 -0.5506668 -0.28166997 -0.2414935 -0.24615014
-0.3536696 -0.29597995 0.21435685 -0.20716037 -0.5665646 -0.25674272 -0.28717023 -0.23268747
-0.25658232 -0.5506784 -0.17595072 -0.31439516 -0.2923182 -0.27770877 -0.41049314 -0.12234268
-0.2840451 -0.28170943 -0.2448568 -0.23666191 -0.25164595 -0.21258055 -0.2194262 -0.2473444
-0.2901919 -0.18726355 -0.3289364 -0.2564311 -0.23128642 -0.3288975 -0.23687793 -0.2175856
-0.30322587 -0.25412813 0.21269783 -0.29685915 -0.27093035 -0.24172404 -0.29518688 -0.27755302
-0.23169395 -0.087170094 -0.50068545 -0.25506058 -0.24904662 -0.29315045 -0.57134616 -0.052184775
00000000: 4796 78be 737f 45be 2c5a e1bd 412d a1be
00000010: 1c46 65be 86ee 41be 6431 11bf 3f0c 74be
00000020: 0026 96be dcde 8bbe db02 8dbe 437f 61be
00000030: b45f 92be e80c 19bf a1a2 2abe bd41 57be
00000040: 3436 a1be 6848 c2be a2ac 96be c0cc 77be
00000050: 636f 88be ff9e 9bbe ec18 923c ed6f 50be
00000060: 4d1e 53be 5eef 4abe f56c 88be a95c 5dbe
00000070: 66ee 81be e78e 543e 6dd8 5dbe dc87 43be
00000080: b8d7 a1be f034 85be 8893 15bf c16c 89be
00000090: 7efb c0be 303f 90be c253 11af ae06 8fbe
000000a0: 5223 ffbc 5f1f 46be 576a 0ebf bdb5 8ebe
000000b0: 5425 35be 154d 4bbe b4bc 77be caf5 79be
000000c0: 52b2 48be 389e 70be 21ca 87be 2512 34be
000000d0: 0eb9 59be 8eef e1bb 10dd 48be 75d8 70be
000000e0: 6490 97be e899 81be f888 9fbe b1e8 adbe
000000f0: d793 90be b3e1 2fbe 047d 92be b95a 50be
00000100: d43e 8fbe 16e3 dd3a 83a1 95be 9778 84be
00000110: 5cca 2dbe a57e 89be 9aab 49be 4a5f 8ebe
00000120: 13fa 97be dbcb 6abe 94b4 55be 6c6f 93be
00000130: 3e52 a0be 513e 9abe 878c 82be 3a62 72be
00000140: d359 89be 1e95 a1be 2967 40be 4a6c 3ebe
00000150: 6e7d 56be c2ca 66be 47e5 8fbe 586d 10bf
00000160: 7e4e 85be c69b 69be eb87 70be 0c86 26be
00000170: 70fc 81be 7e48 0fbf 2992 7ebe ce03 99be
00000180: 255d 7dbe 0097 593e 146a 96be 7d1f a0be
00000190: ef06 6fbe bba8 ebbe d226 88be 2247 19bf
000001a0: a84f aabe c7db b1be a74f 40be 5cc3 89be
000001b0: c85f 4cbe 67d1 90be 3765 9ebe 74e5 7fbe
000001c0: a28a 42be ea83 aebe 1aaf 5abe 4aa3 c83d
000001d0: c19d 70be 25dd 92be 22b8 80be d0ca 4dbe
000001e0: face 8ebe d7c0 82be 55ee 92be 0cf2 7fbe
000001f0: cb30 70be 7a2c 5b3e 4c3c 56be 1790 a0be
00000200: 29eb 7cbe df23 3fbe 3f4f c4be 37b4 87be
00000210: c76e 47be 8350 87be 47a1 84be 9040 5abe
00000220: 5e23 3ebe 8daa 89be 1242 5cbe 69ab 8dbe
00000230: dddb 53be c7c1 80be a79e aebd 2ea2 5bbd
00000240: b97f 5c3e 3ec1 6abe fe4b cebd 8d74 a6be
00000250: 6235 42be 25b3 9cbe 036a 80be 11fa 70be
00000260: 1e31 90be ded0 c3bb 4659 56be 05fd 41be
00000270: 1741 50be 3563 4abd 9faa e5bd bc2a 27be
00000280: 3952 96be 6df6 85be 9d7a 7abe 3a74 85be
00000290: d6e4 6dbe 618b d7be 2918 4c3d 1930 78be
000002a0: 5ae0 8bbe e706 34bd 8f58 79be f9e8 8bbe
000002b0: 80e5 63be 830d 70be ca00 4fbe 586d 55be
000002c0: 3d47 37be 57f2 70be 91ea 91be 9787 aebe
000002d0: 54c5 3dbe b3aa e93d 52cf 85be 97a2 21be
000002e0: 4798 58be 462b a3be 31c7 9cbe 7b46 92be
000002f0: 1284 97be 7234 9ebe 43fa 4abe fd93 91be
00000300: 2e33 44be 97d5 0abf b010 70be a4f2 5a3e
00000310: f4be 81be 4f99 9bbe 5008 80be 9694 50be
00000320: f66f 55be 959c d5be 683c 7fbe 4ba6 50be
00000330: 80f8 0cbf 0c37 90be 124a 77be c80e 7cbe
00000340: 2f14 b5be af8a 97be 5d80 5b3e d921 54be
00000350: 610a 11bf c873 83be fa07 93be a045 6ebe
00000360: c25e 83be 42f9 0cbf 6d2c 34be 67f8 a0be
00000370: bbaa 95be d82f 8ebe 282c d2be cd8e fabd
00000380: 5c6e 91be 383c 90be bebb 7abe 8057 72be
00000390: bdd7 80be b7ae 59be 43b1 60be da47 7dbe
000003a0: 0894 94be 04c2 3fbe 5a6a a8be f04a 83be
000003b0: 59d6 6cbe 4165 a8be 2190 72be c2ce 5ebe
000003c0: 6c40 9bbe 151d 82be 76cd 593e ecfd 97be
000003d0: 62b7 8abe 8286 77be bc22 97be 6e1b 8ebe
000003e0: 2e41 6dbe 3c86 b2bd ec2c 00bf 4d97 82be
000003f0: 1406 7fbe d117 96be be43 12bf b4bf 55bd

net.2.weight f4 [256]
0.1627519 0.16070263 0.20075303 0.19848356 0.23143533 0.09113315 0.30130425 0.20249811
0.19617803 0.18728733 0.17893946 0.07101311 0.21041256 0.2724885 0.1406878 0.041083526
0.2040361 0.16846056 0.1689294 0.15945782 0.2862786 0.26087186 0.038668398 0.11626862
0.2048548 0.19704476 0.13273677 0.1269831 0.14759548 0.16551684 0.16031256 0.15211166
0.15394527 0.10961951 0.34053218 0.1292486 0.1560306 0.21968836 0.48726803 0.09200958
0.1339702 0.24120542 0.5095837 0.16337702 0.18013783 0.06260961 0.12235504 0.09172593
0.19006826 0.1621655 0.22984919 0.11999578 0.072982706 0.53551114 0.23686515 0.119634494
0.18296126 0.17183128 0.13767813 0.21360566 0.25465444 0.10616247 0.22026901 0.21624374
0.14778748 0.032821495 0.22438401 0.17779848 0.25220385 0.12952492 0.2268071 0.18951328
0.1640574 0.12263601 0.16376972 0.25497943 0.16823375 0.23144561 0.21126828 0.14811464
0.15841451 0.18878353 0.12614688 0.23566264 0.18037187 0.09292857 0.12519948 0.2591192
0.18517978 0.06522745 0.1651703 0.54026127 0.15440325 0.58237314 0.19807418 0.16635905
0.14203817 0.1633319 0.10861493 0.20955907 0.10578405 0.24168892 0.23431233 0.3448314
0.30769587 0.24453095 0.12633044 0.20531268 0.17680483 0.20338228 0.08668207 0.14872389
0.10699572 0.10832162 0.15293239 0.026944047 0.20048629 0.12456701 0.05729137 0.13984868
0.14438906 0.15018897 0.11144973 0.09361812 0.1990273 0.16612889 0.13091315 0.13160849
0.1572021 0.109086536 0.49378183 0.14347912 0.07978699 0.18855362 0.21535665 0.13256642
0.2202807 0.17686516 0.11170027 0.16716637 0.21736836 0.15259641 0.14716817 0.16507761
0.16203457 0.19678962 0.122517176 0.17999609 0.22111592 0.14642128 0.14820084 0.09956602
0.22084484 0.52085227 0.15475889 0.2195296 0.12841853 0.15766305 0.10833796 0.1472326
0.14127487 0.14303647 0.19758844 0.15233324 0.19377795 0.18873167 0.042351887 0.12525682
0.22193944 0.56971765 0.104980804 0.17159112 0.14885037 0.21032135 0.12775527 0.22622474
0.1173602 0.060585443 0.24857005 0.42507482 0.20721775 0.03211266 0.17565 0.062440727
0.07582632 0.18697318 0.23661268 0.13676229 0.22475067 0.15385969 0.14746764 0.16782522
0.072984636 0.27838093 0.14575829 0.16126268 0.118096635 -0.23576689 0.11177582 0.20909818
0.08624459 0.38064387 0.18848504 0.16301231 0.49127355 0.17544483 0.10799688 0.1434621
0.18967785 0.14460598 0.1618039 0.19409907 0.2657595 0.11422672 0.22394025 0.15508562
0.20433392 0.41026348 0.13699026 0.29038274 0.1410939 0.2190316 0.18187143 0.102961764
0.1346525 0.19174081 0.17912103 0.13666286 0.16785072 0.16063185 0.17121854 0.17841469
0.13097982 0.057539154 0.1441836 0.1712315 0.061309244 0.19245304 0.16899922 0.06178584
0.19220161 0.12780902 0.15961607 0.20279306 0.16486253 0.1544584 0.20584242 0.18622495
0.10942615 0.1392665 0.22145349 0.12847555 0.18879418 0.18363288 0.3191777 0.11213497
00000000: 6fa8 263e 3b8f 243e 3492 4d3e 463f 4b3e
00000010: 62fd 6c3e 04a4 ba3d 8d44 9a3e aa5b 4f3e
00000020: e5e2 483e 40c8 3f3e e83b 373e 526f 913d
00000030: 6476 573e 9d83 8b3e 7610 103e 3347 283d
00000040: d7ee 503e ed80 2c3e d4fb 2c3e e948 233e
00000050: 1c93 923e ff90 853e c162 1e3d 3e1e ee3d
00000060: 75c5 513e 1ac6 493e 26ec 073e dc07 023e
00000070: 4523 173e 3f7d 293e fa28 243e 29c3 1b3e
00000080: d4a3 1d3e 3280 e03d 3c5a ae3e bf59 043e
00000090: 7cc6 1f3e fcf5 603e 327b f93e 856f bc3d
000000a0: 7c2f 093e 8efe 763e 1474 023f 4e4c 273e
000000b0: 0d76 383e 7839 803d 4795 fa3d ceda bb3d
000000c0: 41a1 423e b60e 263e 965d 6b3e 59c0 f53d
000000d0: f577 953d 4217 093f c78c 723e ee02 f53d
000000e0: 325a 3b3e 8af4 2f3e 7ffb 0c3e 71bb 5a3e
000000f0: 1162 823e b66b d93d 338e 613e 006f 5d3e
00000100: 9a55 173e d56f 063d ecc4 653e ce10 363e
00000110: dd20 813e 2ea2 043e 1f40 683e c50f 423e
00000120: aafe 273e 9728 fb3d 40b3 273e aa8c 823e
00000130: 7845 2c3e 1400 6d3e b656 583e 5dab 173e
00000140: 6a37 223e 7850 413e a62c 013e 8c51 713e
00000150: 67b3 383e 5651 be3d 4b34 003e 46ab 843e
00000160: c59f 3d3e f895 853d 6722 293e 904e 0a3f
00000170: e31b 1e3e 6816 153f f5d3 4a3e 075a 2a3e
00000180: 7472 113e 7a40 273e 8171 de3d a796 563e
00000190: 4fa5 d83d 4d7d 773e 92ef 6f3e be8d b03e
000001a0: 508a 9d3e 5266 7a3e c45c 013e 7d3d 523e
000001b0: 530c 353e 7243 503e 5e86 b13d 134b 183e
000001c0: 9220 db3d bad7 dd3d 4f9a 1c3e c3b9 dc3c
000001d0: 474c 4d3e fd1c ff3d 5baa 6a3d 7e34 0f3e
000001e0: bada 133e 23cb 193e c23f e43d dbba bf3d
000001f0: d0cd 4b3e b11d 2a3e 190e 063e 60c4 063e
00000200: 96f9 203e c368 df3d f9d0 fc3e 31ec 123e
00000210: 5d67 a33d 3314 413e 7486 5c3e 7ebf 073e
00000220: 4491 613e 241c 353e 1cc3 e43d a92d 2b3e
00000230: d095 5e3e 3c42 1c3e 41b3 163e 1b0a 293e
00000240: 64ec 253e 3883 493e 49ea fa3d e550 383e
00000250: 366c 623e 76ef 153e f6c1 173e 45e9 cb3d
00000260: 2625 623e 9356 053f 1d79 1e3e 5ecc 603e
00000270: 2680 033e 6c72 213e 4be0 dd3d 25c4 163e
00000280: 5caa 103e 2778 123e a054 4a3e 3ffd 1b3e
00000290: ba6d 463e e042 413e 2c79 2d3d 5343 003e
000002a0: 1844 633e 04d9 113f 2d00 d73d 95b5 2f3e
000002b0: 3b6c 183e 7b5e 573e 47d2 023e 75a7 673e
000002c0: 8b5a f03d 7128 783d 2689 7e3e 68a3 d93e
000002d0: e430 543e 9188 033d 98dd 333e d9c1 7f3d
000002e0: d44a 9b3d e675 3f3e 984a 723e 6a0b 0c3e
000002f0: 0a25 663e 658d 1d3e c201 173e 60da 2b3e
00000300: f878 953d f287 8e3e a941 153e 0b22 253e
00000310: a6dc f13d e06c 71be b9ea e43d d51d 563e
00000320: 01a1 b03d c1e3 c23e 3902 413e b3ec 263e
00000330: 3588 fb3e cfa7 333e 782d dd3d bbe7 123e
00000340: e93a 423e 9713 143e ecaf 253e e8c1 463e
00000350: a111 883e b3ef e93d 9850 653e c4ce 1e3e
00000360: e93c 513e 0e0e d23e 2d47 0c3e 0cad 943e
00000370: eb7a 103e d249 603e 813c 3a3e 9edd d23d
00000380: 58e2 093e b457 443e 816b 373e 59f1 0b3e
00000390: 0fe1 2b3e ad7c 243e ea53 2f3e 57b2 363e
000003a0: 931f 063e 2dae 6b3d dea4 133e 4f57 2f3e
000003b0: 671f 7b3d 6912 453e 220e 2d3e 2613 7d3d
000003c0: 80d0 443e 5ee0 023e 6572 233e fca8 4f3e
000003d0: b9d1 283e 582a 1e3e 5bc8 523e c1b1 3e3e
000003e0: d11a e03d e19b 0e3e b4c4 623e 188f 033e
000003f0: 4353 413e 420a 3c3e 426b a33e 05a7 e53d

net.2.bias f4 [256]
0.034866225 0.029757418 -0.0013295972 0.046861485 0.06086113 0.024961157 0.07413936 0.057345618
0.050019793 0.049793944 0.044554703 0.01165302 0.05468862 0.06044987 0.033582646 -0.0064622746
0.05983717 0.032068785 0.031594004 0.03106703 0.079317085 0.07270022 -0.060182724 0.018142309
0.030936945 0.03712371 0.03369781 0.023107344 0.036083613 -0.53800005 0.03291926 0.031274594
0.03704019 0.020313198 0.08454183 0.03242686 0.022284554 0.05819342 0.13781478 0.022104604
-0.003621074 0.046912573 0.13421266 0.043871447 0.037643068 0.009382023 0.01661913 0.015830617
0.03056245 0.029875148 0.06240243 0.0205133 0.014247846 0.15545943 0.051665142 0.033973943
0.048379652 0.038187783 0.036105137 0.047994733 0.07386198 0.006915403 0.04638012 0.02932977
0.036153022 -0.047529217 0.05031843 0.041814912 0.052330807 0.020412602 0.0401163 0.034239937
0.045527752 0.029914998 0.038776703 0.071959905 0.047672644 0.06490026 0.05657887 0.030831806
0.027940826 0.04110054 0.026375785 0.03403747 0.02778482 0.015549262 0.029532129 0.06427759
0.048769973 0.012673079 0.029550463 0.15176508 0.033328783 0.16116057 0.046738856 0.041796047
0.025226891 -0.5223462 0.020546127 0.05640933 0.009506864 0.060104948 0.056357276 0.09106366
0.084363304 0.06676455 0.015989374 0.05255686 0.035870615 0.04959255 0.023565799 0.034552537
0.012865355 0.007489603 0.033270683 -0.04185661 0.03667013 0.029996589 0.0021062428 0.028684795
0.031303126 0.03779609 0.017313642 0.014616654 0.049297452 -0.543956 0.023801051 0.022631874
0.040605824 0.010759813 0.14079627 0.025367843 0.012625227 0.041147776 0.049862087 0.02028274
0.028823774 0.03899178 0.027061772 0.03986132 0.03462575 0.033369876 -0.00042415876 0.017508455
-0.5342793 0.04231591 0.0047880164 0.04793575 0.033667084 0.040135898 0.031490948 0.018280527
0.062922284 0.14651838 0.030724788 0.0332059 0.02099758 0.018328307 0.0047328006 0.039011966
0.032016296 0.021485735 0.047661114 0.016727662 0.06062632 0.04352911 -0.041985143 0.030358383
0.0581898 0.16367689 0.023218986 0.039500322 0.017197207 0.047251333 0.02325566 0.037576728
0.019073946 0.0042493795 0.061942887 0.113036476 0.031425994 -0.07052175 0.04158322 -0.0051460913
0.003753612 0.05209098 0.06398838 0.024827693 0.059737455 0.037632897 0.04147384 0.043536473
0.006375315 0.06849721 0.025268462 -0.5226632 0.010319681 -0.06524992 0.023637548 0.032716848
-0.0008015017 0.099637695 0.04515849 0.042337302 0.1277109 0.0346751 0.021872174 0.03685557
0.038212296 0.031230126 -0.51891446 0.047534913 0.057781473 3.4246825e-06 0.061673954 0.03633603
0.058590826 0.111976855 0.01985038 0.07610202 0.032592632 0.05046295 0.032993563 -0.0024301358
0.020166272 0.04758083 0.049079012 0.03281347 0.043756902 0.03272864 0.04212553 0.04477962
0.0043476177 -0.003360173 0.022266679 0.039959237 -0.006153211 0.04494139 0.040107563 0.0076068067
0.04535486 0.024233183 -0.5257826 0.05398025 0.027478153 0.029269941 0.05960402 0.047184285
0.022665273 0.015175963 0.04890019 0.03280356 0.033326723 0.036785487 0.07928617 -0.0012899555
00000000: e3cf 0e3d d4c5 f33c e145 aeba d4f1 3f3d
00000010: 8549 793d 577b cc3c 60d6 973d 3de3 6a3d
00000020: 8ee1 4c3d bcf4 4b3d fe7e 363d 4fec 3e3c
00000030: 2d01 603d 489a 773d f58d 093d 7dc1 d3bb
00000040: d217 753d 8f5a 033d b768 013d 4980 fe3c
00000050: ff70 a23d dae3 943d 2982 76bd 2e9f 943c
00000060: 7a6f fd3c 080f 183d b706 0a3d 9d4b bd3c
00000070: 69cc 133d 5fba 09bf 59d6 063d ca19 003d
00000080: 74b7 173d dd67 a63c 4424 ad3d 07d2 043d
00000090: 198e b63c 395c 6e3d 511f 0d3e b714 b53c
000000a0: 8a4f 6dbb 6627 403d 0b6f 093e 8cb2 333d
000000b0: 9e2f 1a3d 0eb7 193c d724 883c 36af 813c
000000c0: 1a5e fa3c babc f43c b199 7f3d 820b a83c
000000d0: cc6f 693c c230 1f3e d49e 533d 4328 0b3d
000000e0: be29 463d cb6a 1c3d fbe2 133d 2096 443d
000000f0: f344 973d 9b9a e23b 15f9 3d3d fc44 f03c
00000100: 3115 143d ffad 42bd b31a 4e3d 1d46 2b3d
00000110: d458 563d 5438 a73c fd50 243d 2d3f 0c3d
00000120: 4f7b 3a3d 4c10 f53c 52d4 1e3d b75f 933d
00000130: 6444 433d 6dea 843d 3fbf 673d fc92 fc3c
00000140: 29e4 e43c 0a59 283d 0812 d83c e06a 0b3d
00000150: fe9c e33c 55c2 7e3c 5ded f13c f8a3 833d
00000160: 06c3 473d bfa2 4f3c d013 f23c 4e68 1b3e
00000170: c383 083d 4707 253e 3e71 3f3d 5532 2b3d
00000180: a0a8 ce3c 7bb8 05bf 5a50 a83c 780d 673d
00000190: adc2 1b3c 9b30 763d e3d6 663d 967f ba3d
000001a0: abc6 ac3d dabb 883d 26fc 823c dd45 573d
000001b0: 11ed 123d 8f21 4b3d 100d c13c f686 0d3d
000001c0: 36c9 523c 586b f53b d746 083d d671 2bbd
000001d0: 6b33 163d 68bb f53c e408 0a3b 60fc ea3c
000001e0: b537 003d 13d0 1a3d 57d5 8d3c b17a 6f3c
000001f0: 20ec 493d b340 0bbf 6cfa c23c 7b66 b93c
00000200: 4b52 263d ed49 303c e62c 103e 39d0 cf3c
00000210: 0ada 4e3c 928a 283d 303c 4c3d fd27 a63c
00000220: d61f ec3c d8b5 1f3d a6b0 dd3c a045 233d
00000230: bbd3 0d3d daae 083d a061 deb9 e46d 8f3c
00000240: 87c6 08bf 7353 2d3d cbe4 9c3b 4758 443d
00000250: 7fe6 093d 8a65 243d a7fc 003d 0bc1 953c
00000260: 66dd 803d ea08 163e 8db2 fb3c e902 083d
00000270: 1e03 ac3c 3f25 963c 9c15 9b3b 03cb 1f3d
00000280: 8523 033d da02 b03c 4d38 433d 7308 893c
00000290: 4e53 783d 944b 323d 9df8 2bbd 25b2 f83c
000002a0: 6d58 6e3d ea9a 273e be35 be3c 17cb 213d
000002b0: 28e1 8c3c 9d8a 413d a782 be3c 0eea 193d
000002c0: f740 9c3c 613e 8b3b d3b7 7d3d ab7f e73d
000002d0: 8bb8 003d b56d 90bd 2b53 2a3d 8ba0 a8bb
000002e0: 29ff 753b 5a5d 553d 570c 833d 7263 cb3c
000002f0: 43af 743d f424 1a3d 79e0 293d 4d53 323d
00000300: 05e8 d03b 4448 8c3d ceff ce3c 41cd 05bf
00000310: e113 293c c0a1 85bd 88a3 c13c 1a02 063d
00000320: de1b 52ba d90e cc3d 1cf8 383d e169 2d3d
00000330: a5c6 023e 7a07 0e3d 462d b33c def5 163d
00000340: 7f84 1c3d 52d6 ff3c 94d7 04bf f8b3 423d
00000350: 44ac 6c3d 99d3 6536 d49d 7c3d 17d5 143d
00000360: effc 6f3d 1f54 e53d 449d a23c 60db 9b3d
00000370: da7f 053d 3db2 4e3d 4224 073d ea42 1fbb
00000380: bd33 a53c 1ee4 423d 1307 493d 6b67 063d
00000390: 703a 333d 770e 063d d28b 2c3d d66a 373d
000003a0: 7676 8e3b 5936 5cbb 9c68 b63c 4cac 233d
000003b0: e0a0 c9bb 7714 383d d447 243d 8542 f93b
000003c0: 05c6 393d ab84 c63c b099 06bf 651a 5d3d
000003d0: dd19 e13c 84c7 ef3c 5823 743d 4f44 413d
000003e0: 86ac b93c 9aa4 783c 914b 483d 075d 063d
000003f0: 9a81 083d 61ac 163d ca60 a23d b913 a9ba

net.4.weight f4 [256, 256]
0.031986106 -0.0074879574 -0.0016466541 -0.02366312 -0.055952452 0.05630505 0.04285323 -0.045051612
-0.08169468 -0.009553177 0.023544913 0.022380302 0.057665784 0.016459018 -0.043740008 0.041422315
-0.0050864206 0.030924255 -0.012305455 -0.0073895645 0.011085292 0.0126256 -0.026623704 -0.030026624
-0.011493542 -0.023984775 -0.034394797 0.024994839 -0.019181158 -0.047972508 0.010672275 0.017496035
0.0040821685 -0.00038902072 0.026645495 -0.01416863 -0.009505955 0.045339838 0.0041343793 -0.029600577
0.01158826 -0.030179324 0.01651551 0.019361643 0.010497221 -0.029839024 0.033019878 -0.008179926
0.007994771 -0.014664857 0.0064448374 0.0065445104 0.037311584 -0.00425886 -0.063129514 0.021488108
-0.014102205 0.012354336 -0.015189822 0.0129613085 -0.038226105 -0.026086709 0.05674895 -0.03661607
0.009863052 -0.00063352427 0.032127608 -0.009617939 -0.03406645 0.0072250604 -0.026203869 0.015921153
0.0031103597 -0.0087578185 -0.0038594485 0.024465524 -0.0035192322 -0.048019573 -0.01075595 0.01951928
0.02262028 0.008705863 -0.008911939 -0.0018737421 0.037072185 -0.028522946 -0.06590589 0.03201733
0.005902448 0.0020281377 0.0070124283 -0.009511141 0.000875404 0.054495767 -0.005217893 -0.0082566105
-0.028609283 0.015027228 0.0128091285 -0.020910993 -0.009099926 0.05572412 0.019340198 0.05919624
0.018357165 -0.05724382 0.0065884776 0.05506027 0.007815578 -0.016922126 -0.048602875 0.00021169343
-0.024832284 0.029733185 -0.025481062 -0.018734502 0.04779563 -0.0015326382 0.04833669 -0.05500884
-0.021200452 0.0075527555 0.027280506 0.0040126913 -0.014538529 -0.019656744 0.024503317 0.06735194
0.023446491 -0.04354574 -0.025144363 -0.021618178 0.0066122906 -0.02254264 -0.02957611 -2.2386865e-05
-0.037386958 -0.044533767 0.014559687 -0.018038053 -0.031340268 -0.0161617 -0.03590981 -0.012213923
-0.0030532575 -0.0050496943 -0.030474147 -0.00343425 -0.03414229 -0.017559897 -0.0835005 -0.029326381
0.029922426 0.002749605 0.060312603 -0.015228001 0.012025361 -0.0129434485 -0.0060938303 0.007634019
0.01972164 0.021765638 0.059352454 0.075816564 0.015726376 0.028996266 -0.012335713 -0.022165943
-0.0142620765 -0.02506024 0.020266682 -0.013862112 0.01039424 -0.016277771 -0.03750737 -0.012116523
-0.043598913 -0.0099327415 0.0010952209 -0.029129725 0.0014084514 0.011179647 0.06265835 0.022738555
-0.0077339835 0.03444887 -0.01645139 -0.03364248 -0.026463656 0.006982649 0.039797742 -0.059894707
-0.021915304 0.022840198 -0.019635519 -0.0058601964 0.05918279 -0.02869399 0.0025619518 0.0048063695
-0.0067273565 0.03788576 -0.0021330297 -0.02537507 0.066170245 0.031231452 0.029022738 -0.01599322
-0.0206921 -0.025075598 -0.007182654 -0.025318703 0.013912891 0.018395273 0.06895227 0.008197382
-0.0036284425 0.02336426 0.041702464 -0.013068916 0.02006031 -0.008028876 0.028601639 0.0013006544
0.049599238 0.008469335 -0.037075847 -0.0075003942 -0.024018355 -0.0071267523 0.02034848 -0.028182995
0.060106147 0.03289741 0.022514693 -0.07422102 -0.023758888 -0.07153798 -0.07267506 0.0030693396
-0.015151129 -0.020196822 -0.020841174 0.021739922 0.03144742 0.07273136 -0.024762332 0.021669913
0.028464496 -0.057994183 0.055349145 0.020069767 0.013212303 0.036803402 0.034028962 -0.01141445
00000000: dd03 033d 8a5d f5bb 8bd4 d7ba 29d9 c1bc
00000010: 662e 65bd 20a0 663d de86 2f3d 0a88 38bd
00000020: 8a4f a7bd ee84 1cbc 43e1 c03c e556 b73c
00000030: f532 6c3d 10d5 863c b928 33bd 72aa 293d
00000040: fdab a6bb dd54 fd3c d29c 49bc 2924 f2bb
00000050: 169f 353c 9bdb 4e3c f419 dabc 65fa f5bc
00000060: 694f 3cbc b87b c4bc 8fe1 0cbd fac1 cc3c
00000070: ce21 9dbc d27e 44bd c4da 2e3c d853 8f3c
00000080: b6c3 853b 7af5 cbb9 a747 da3c 8b23 68bc
00000090: ddbe 1bbc 44b6 393d b079 873b e97c f2bc
000000a0: afdc 3d3c a13a f7bc 894b 873c 4f9c 9e3c
000000b0: 89fc 2b3c f870 f4bc da3f 073d 1905 06bc
000000c0: 80fc 023c de44 70bc 372f d33b 5573 d63b
000000d0: 08d4 183d e88d 8bbb 0c4a 81bd d407 b03c
000000e0: ef0c 67bc d769 4a3c bbde 78bc ab5b 543c
000000f0: fa92 1cbd cbb3 d5bc 9671 683d bbfa 15bd
00000100: a398 213c 1813 26ba 3d98 033d 8f94 1dbc
00000110: 4389 0bbd 33c0 ec3b 7fa9 d6bc 146d 823c
00000120: 2dd7 4b3b f47c 0fbc cdee 7cbb ec6b c83c
00000130: eba2 66bb 2cb0 44bd b939 30bc e6e6 9f3c
00000140: 2a4e b93c 09a3 0e3c 6203 12bc 5a98 f5ba
00000150: 01d9 173d f4a8 e9bc abf9 86bd 9b24 033d
00000160: 5369 c13b 81ea 043b 83c8 e53b 9ed4 1bbc
00000170: 5e7b 653a f436 5f3d dcfa aabb bc46 07bc
00000180: 045e eabc c334 763c 61dd 513c 884d abbc
00000190: db17 15bc fa3e 643d 566f 9e3c c277 723d
000001a0: c461 963c 7f78 6abd 28e4 d73b e186 613d
000001b0: e90c 003c 45a0 8abc cf13 47bd 06fa 5d39
000001c0: 136d cbbc 0293 f33c a9bd d0bc 1979 99bc
000001d0: 5ac5 433d cee2 c8ba b1fc 453d f350 61bd
000001e0: 92ac adbc 1b7d f73b 5e7b df3c e57c 833b
000001f0: 0333 6ebc 2e07 a1bc 2ebb c83c d0ef 893d
00000200: db12 c03c 055d 32bd 8dfb cdbc 9b18 b1bc
00000210: eaab d83b 58ab b8bc 9949 f2bc 6dcb bbb7
00000220: 1123 19bd 0a69 36bd c18b 6e3c 8ac4 93bc
00000230: a75e 00bd 8b65 84bc 2a16 13bd e81c 48bc
00000240: 2919 48bb e877 a5bb eba4 f9bc 2711 61bb
00000250: c9d8 0bbd c6d9 8fbc 4f02 abbd e13d f0bc
00000260: e01f f53c b832 343b 590a 773d de7e 79bc
00000270: 0506 453c c210 54bc c1ae c7bb cb26 fa3b
00000280: 478f a13c da4d b23c 8f1b 733d b745 9b3d
00000290: 9ad4 803c 9489 ed3c bb1b 4abc 5a95 b5bc
000002a0: 7cab 69bc 224b cdbc 5006 a63c e91d 63bc
000002b0: 9a4c 2a3c f658 85bc 54a1 19bd 6284 46bc
000002c0: c694 32bd f0bc 22bc 848d 8f3a 76a1 eebc
000002d0: c99b b83a d72a 373c 0553 803d 3546 ba3c
000002e0: 5b6d fdbb 421a 0d3d 11c5 86bc b2cc 09bd
000002f0: 4fca d8bc b5ce e43b f502 233d 2754 75bd
00000300: b987 b3bc 5e1b bb3c abda a0bc e406 c0bb
00000310: a769 723d a90f ebbc 6be6 273b c07e 9d3b
00000320: 2871 dcbb 192e 1b3d 4dca 0bbb 61df cfbc
00000330: 4484 873d 1ad9 ff3c 18c1 ed3c 3704 83bc
00000340: 7b82 a9bc 576b cdbc 785c ebbb 2b69 cfbc
00000350: e5f2 633c afb1 963c d936 8d3d 504e 063c
00000360: 2acb 6dbb 6866 bf3c 34d0 2a3d 021f 56bc
00000370: 8555 a43c 8c8b 03bc fc4d ea3c b87a aa3a
00000380: 9228 4b3d f7c2 0a3c d8dc 17bd dec5 f5bb
00000390: 24c2 c4bc 8887 e9bb dbb1 a63c 06e0 e6bc
000003a0: dd31 763d 6fbf 063d bc70 b83c 3101 98bd
000003b0: 00a2 c2bc 8182 92bd a9d6 94bd f926 493b
000003c0: 713c 78bc ce73 a5bc 1cbb aabc ec17 b23c
000003d0: 03cf 003d 2ef4 943d 60da cabc 1a85 b13c
000003e0: 602e e93c 4f8b 6dbd c9b5 623d 5a69 a43c
000003f0: 6a78 583c 2abf 163d f461 0b3d ac03 3bbc

net.4.bias f4 [256]
-0.12752809 -0.08304817 -0.15658334 -0.09623708 -0.02658501 -0.12342729 -0.07987566 -0.07559548
-0.048002735 -0.09128767 -0.10293221 -0.09035387 -0.11176617 -0.10770721 -0.07595386 -0.003203815
-0.07425889 -0.13126947 -0.13719025 -0.09542797 -0.0892302 -0.09991948 -0.06224953 -0.05016338
-0.09637986 -0.043564055 -0.14927779 -0.12556444 -0.076211266 -0.08460616 -0.084200054 -7.86579e-23
-0.06443566 -0.12017565 -0.08289926 -0.051122896 -0.101540096 -0.016177323 -0.13416502 -0.03629423
-0.06714704 -0.106889635 -0.0075612725 -0.09507708 -0.08017607 -0.150443 -0.046699952 -0.11409675
-0.05109289 -0.07432986 -0.03326077 -0.048350867 -0.13051428 -0.07631164 -0.013230555 -0.00574623
-0.076382555 0.0076407073 -0.07125045 -0.12093724 -0.06367143 -0.13740441 -0.06222732 -0.094988
-0.061404962 -0.06680309 -0.088652164 -0.02682432 0.004331211 -0.10731202 -0.12552999 -0.13243003
-0.059978735 -0.094080694 -0.14512083 -0.08655833 -0.08812237 -0.080917306 -0.085200734 -0.07278313
-0.064141594 -0.0479226 -0.072562434 -0.032379717 -0.0836227 -0.17868908 -0.052816764 -0.13393168
-0.11690695 -0.032518856 -0.089872524 -0.05337182 -0.12567772 -0.071032874 -0.06470088 -0.048540097
-0.13897386 0.0056635602 -0.1263 -0.08122425 -0.11691612 -0.0738806 -0.0058735977 -0.026966643
-0.12890017 -0.0081036575 -0.07267653 -0.03216823 -0.1689141 -0.065575115 -0.07495899 -3.741e-08
-0.049530614 -0.07120977 -0.0849296 -0.045495596 -0.0317951 -0.12471947 -0.07533864 -0.08402739
-0.06831498 -0.112381764 -0.042985752 -0.10248366 -0.09747843 -0.08023913 -0.05272244 -0.066205114
-0.071154416 -0.08343065 -0.100921646 -0.08689874 -0.054475337 -0.1354675 -0.12051387 -0.07905872
-0.03332714 -0.025793664 -0.058665015 -0.053332005 -3.3440182e-28 -0.13932315 -0.083775386 -0.072738186
-0.1465158 -0.08703321 -0.1085578 -0.07743653 -0.13123026 -0.10070254 -0.17795862 -0.054221902
-0.0947461 -0.08492202 -0.07397033 -0.073006056 -0.013812996 -0.1270969 -0.017913247 -0.0067853564
-0.101452954 -0.087882444 -0.07897867 -0.18298383 -0.11494137 -0.11096443 -0.06463769 -8.825894e-08
-0.119529985 -0.01496538 -0.10686825 -0.068928815 -0.063564755 -0.11280861 -0.058425523 -0.0877228
-0.12062388 -0.056556944 -0.11696109 -0.08084791 -0.01341793 -0.12048875 -0.08384302 -0.081293836
-0.05255401 -0.1412102 -0.078486994 -0.083231464 -0.10219586 -0.055953212 -0.011408408 -0.016995195
-0.08209269 -0.110737614 -0.16699514 -0.02849034 -0.06540514 -0.10226807 -0.12130773 -0.09750844
-0.07671044 -0.058713328 -0.0701592 -0.08634638 -0.11601311 -0.058676183 -0.12838134 -0.09465687
-0.12079918 5.5223634e-05 -0.08568697 -0.12060467 -0.096936345 -0.10661785 -0.08833404 -0.047996547
-0.08749408 -0.12914355 -0.07955013 -0.00233952 -0.08731452 -0.065689616 -0.13331431 -0.086610444
-0.13175043 -0.09803887 -0.046769205 -0.16624601 -0.08887349 -0.01327405 -0.05965859 -0.07363834
-0.06427505 -0.05583569 -0.10965665 -0.064726785 -0.10154321 -0.07500034 -0.031078743 -0.14789598
-0.064014636 -0.031927448 -0.031197045 -0.06711595 -0.1348102 -0.0990146 -0.04846773 -0.065109976
-0.047231603 -0.05467513 -0.09308904 -0.0886759 -0.12203486 -0.103716016 -0.053049006 -0.1337588
00000000: b996 02be 2915 aabd 6257 20be f217 c5bd
00000010: cfc8 d9bc 72c7 fcbd da95 a3bd ced1 9abd
00000020: 849e 44bd 08f5 babd 1fce d2bd 730b b9bd
00000030: a9e5 e4bd 9995 dcbd b38d 9bbd 19f7 51bb
00000040: 0b15 98bd 816b 06be 9a7b 0cbe bd6f c3bd
00000050: 53be b6bd 96a2 ccbd 5df9 7ebd 1e78 4dbd
00000060: ce62 c5bd 3970 32bd 47dc 18be f793 00be
00000070: a714 9cbd ff45 adbd 1471 acbd e22e be9a
00000080: d8f6 83bd a71e f6bd 16c7 a9bd 3e66 51bd
00000090: 41f4 cfbd 4e86 84bc 8e62 09be 42a9 14bd
000000a0: 6384 89bd f4e8 dabd 8dc4 f7bb c6b7 c2bd
000000b0: 5a33 a4bd bb0d 1abe 7348 3fbd 8fab e9bd
000000c0: c746 51bd 413a 98bd 723c 08bd 8f0b 46bd
000000d0: 89a5 05be 4749 9cbd f8c4 58bc df4a bcbb
000000e0: 756e 9cbd e65e fa3b c2eb 91bd f2ad f7bd
000000f0: 2b66 82bd beb3 0cbe 13e2 7ebd 1289 c2bd
00000100: c583 7bbd 0fd0 88bd 448f b5bd adbe dbbc
00000110: d5ec 8d3b 68c6 dbbd ef8a 00be bd9b 07be
00000120: 43ac 75bd 61ad c0bd 8e9a 14be 7e45 b1bd
00000130: 8079 b4bd f9b7 a5bd b97d aebd 520f 95bd
00000140: ab5c 83bd 7d4a 44bd 9d9b 94bd 98a0 04bd
00000150: 6142 abbd 45fa 36be 6456 58bd 6325 09be
00000160: e96c efbd 7e32 05bd 160f b8bd 699c 5abd
00000170: a9b1 00be af79 91bd e581 84bd fbd1 46bd
00000180: 2a4f 0ebe 6395 b93b ca54 01be e658 a6bd
00000190: b871 efbd b64e 97bd 4f77 c0bb 26e9 dcbc
000001a0: 68fe 03be 34c5 04bc 6fd7 94bd d5c2 03bd
000001b0: d1f7 2cbe 3f4c 86bd 1984 99bd bbac 20b3
000001c0: 9de0 4abd 6ed6 91bd 92ef adbd 9759 3abd
000001d0: 943b 02bd ec6c ffbd 254b 9abd 8d16 acbd
000001e0: b9e8 8bbd 6928 e6bd d411 30bd f4e2 d1bd
000001f0: c5a2 c7bd 6a54 a4bd 7cf3 57bd 8c96 87bd
00000200: 68b9 91bd b0dd aabd 02b0 cebd f7f7 b1bd
00000210: 8821 5fbd feb7 0abe facf f6bd 8ae9 a1bd
00000220: 0a82 08bd 3c4d d3bc ba4a 70bd a972 5abd
00000230: ccf3 d391 baaa 0ebe 6e92 abbd c2f7 94bd
00000240: 3d08 16be 783e b2bd 8d53 debd 0b97 9ebd
00000250: 3a61 06be 223d cebd c93a 36be c917 5ebd
00000260: 3e0a c2bd 99eb adbd c27d 97bd 3384 95bd
00000270: e84f 62bc b125 02be cdbe 92bc b257 debb
00000280: 91c6 cfbd b6fb b3bd 92bf a1bd 1d60 3bbe
00000290: 6266 ebbd 5241 e3bd c460 84bd de88 bdb3
000002a0: 23cc f4bd 5a31 75bc bedd dabd 8d2a 8dbd
000002b0: 3d2e 82bd 3308 e7bd 9a4f 6fbd 03a8 b3bd
000002c0: a709 f7bd 41a8 67bd 4c89 efbd 9793 a5bd
000002d0: e1d6 5bbc cec2 f6bd e4b5 abbd 627d a6bd
000002e0: e042 57bd 6899 10be cabd a0bd 4275 aabd
000002f0: 104c d1bd 322f 65bd 55ea 3abc 8239 8bbc
00000300: 3620 a8bd 67ca e2bd c600 2bbe 9364 e9bc
00000310: 21f3 85bd ec71 d1bd 3070 f8bd 81b2 c7bd
00000320: 5d1a 9dbd 637d 70bd a0af 8fbd 5fd6 b0bd
00000330: 4898 edbd 7056 70bd 6676 03be 76db c1bd
00000340: 8f65 f7bd ed9f 6738 a67c afbd 95ff f6bd
00000350: 9086 c6bd 765a dabd 7ae8 b4bd 0798 44bd
00000360: 1930 b3bd 353e 04be 2eeb a2bd a252 19bb
00000370: f4d1 b2bd 4788 86bd 8c83 08be d160 b1bd
00000380: 96e9 06be 9ac8 c8bd 1191 3fbd 653c 2abe
00000390: 4e03 b6bd 677b 59bc 915c 74bd b3cf 96bd
000003a0: a3a2 83bd f7b3 64bd aa93 e0bd 7a8f 84bd
000003b0: e3f5 cfbd c799 99bd d998 febc 0b72 17be
000003c0: 1b1a 83bd 5bc6 02bd f290 ffbc 1674 89bd
000003d0: af0b 0abe 2bc8 cabd 1986 46bd 6158 85bd
000003e0: ed75 41bd 07f3 5fbd 77a5 bebd b69b b5bd
000003f0: 6aed f9bd 1069 d4bd ea49 59bd 11f8 08be

net.6.weight f4 [256]
0.45955756 0.21353611 0.27175915 0.24346687 0.29245716 0.42838854 0.28147227 0.3266684
0.24543437 0.27896032 0.2737114 0.39431426 0.38856792 0.24838023 0.41842324 0.21357585
0.4658679 0.41038507 0.47617304 0.30335093 0.283257 0.46040016 0.28397146 0.15194076
0.33674988 0.34503713 0.26397842 0.38990983 0.35036385 0.25372365 0.30087554 0.44552267
0.34540945 0.35592213 0.35712036 0.43556678 0.4516096 0.31557623 0.5461284 0.27787757
0.3064912 0.3808079 0.4465255 0.30346078 0.2745918 0.26834196 0.25612473 0.40423325
0.33243537 0.26877666 0.42685857 0.3709205 0.30580693 0.37886673 0.4657004 0.49093604
0.29605287 0.043308895 0.30564106 0.48339722 0.21578364 0.50384814 0.33522364 0.2818056
0.26367933 0.21440619 0.30381516 -0.26806426 0.2763358 0.41588545 0.48529828 0.5166716
0.42111707 0.3828961 0.459293 0.2844651 0.25651765 0.37146035 0.24220169 0.27145246
0.44053772 0.31890148 0.24699114 0.36100778 0.3477114 0.44258013 0.3200325 0.5460513
0.4836802 0.24478324 0.2819162 0.4613473 0.25412112 0.25617167 0.3551336 0.18283387
0.3727752 0.27023286 0.48233134 0.35236216 0.439241 0.2810034 0.27570072 0.27312425
0.46588445 0.12845166 0.30282488 0.4478537 0.49986887 0.25612342 0.25246286 0.46890777
0.33850005 0.39725527 0.2572804 0.35007226 0.328406 0.33830592 0.2687609 0.26907223
0.30224752 0.37249345 0.2910614 0.28574044 0.35290006 0.23593932 0.4748791 0.3348479
0.2920646 0.280024 0.38411388 0.30969033 0.2839098 0.49297488 0.31256658 0.30713612
0.2791464 0.15644296 0.26002932 0.2886642 0.4136343 0.4740396 0.21546692 0.29245856
0.5453662 0.34349406 0.2835304 0.29184896 0.44835177 0.38829944 0.55526763 0.23750184
0.30156723 0.30421138 0.30986956 0.26262745 0.29074535 0.28776604 0.27011046 0.1275242
0.26140577 0.41339943 0.36092496 0.31651956 0.3002003 0.31596363 0.2920789 0.45061892
0.24457516 0.29368743 0.40841454 0.24489291 0.4918069 0.4695469 0.45247504 0.2991843
0.21018137 0.27429193 0.32631242 0.35625505 0.12028601 0.2864653 0.42755413 0.2960989
0.26218298 0.4555068 0.2894706 0.29330444 0.39360875 0.284416 0.2772507 0.13851961
0.46543774 0.46011597 0.4776827 0.34138635 0.3230141 0.33550373 0.4462386 0.2823755
0.47891498 0.26327333 0.25438964 0.33289754 0.2907805 0.29576027 0.4202103 0.41965616
0.32622188 0.2699628 0.2012203 0.36043885 0.21279816 0.42745686 0.23901348 0.4404217
0.33475167 0.3783969 0.2955669 0.48240095 0.2802325 0.41245198 0.34635144 0.43163148
0.39406255 0.44124794 0.25027725 0.46366468 0.23380004 0.42827532 0.28681225 0.30377838
0.28608382 0.33692583 0.28236115 0.1846945 0.32720342 0.28325734 0.26601776 0.2924102
0.4507791 0.2972099 0.32744583 0.35371944 0.46783802 0.44462708 0.32879072 0.23105603
0.2609989 0.3622212 0.4053528 0.44811475 0.49949288 0.27978438 0.2992331 0.48108646
00000000: 214b eb3e 36a9 5a3e 0424 8b3e 614f 793e
00000010: f2bc 953e be55 db3e 221d 903e 1541 a73e
00000020: 2653 7b3e e3d3 8e3e e723 8c3e 8fe3 c93e
00000030: 60f2 c63e 6357 7e3e 923b d63e a1b3 5a3e
00000040: 3d86 ee3e fe1d d23e f4cc f33e d050 9b3e
00000050: 1007 913e 92b9 eb3e b564 913e 5c96 1b3e
00000060: 7b6a ac3e b5a8 b03e 2e28 873e 43a2 c73e
00000070: e462 b33e 11e8 813e 5c0c 9a3e 8c1b e43e
00000080: 82d9 b03e 6d3b b63e 7bd8 b63e 9c02 df3e
00000090: 6039 e73e 3593 a13e 12cf 0b3f f845 8e3e
000000a0: 6aec 9c3e 41f9 c23e fe9e e43e 365f 9b3e
000000b0: 4c97 8c3e 1e64 893e c822 833e a9f7 ce3e
000000c0: f834 aa3e 189d 893e 358d da3e 4be9 bd3e
000000d0: ba92 9c3e d2fa c13e 4870 ee3e f85b fb3e
000000e0: 3e94 973e ab64 313d fc7c 9c3e d77f f73e
000000f0: 63f6 5c3e 31fc 003f 6fa2 ab3e d348 903e
00000100: fa00 873e 4c8d 5b3e a98d 9b3e b83f 89be
00000110: e37b 8d3e f0ee d43e 0479 f83e 9744 043f
00000120: a89c d73e f50a c43e 7428 eb3e 69a5 913e
00000130: 4856 833e 0d30 be3e b803 783e d1fb 8a3e
00000140: 298e e13e 0e47 a33e 3feb 7c3e 03d6 b83e
00000150: 3b07 b23e dd99 e23e 4ddb a33e 05ca 0b3f
00000160: eea4 f73e 75a8 7a3e 5257 903e b735 ec3e
00000170: 2a1c 823e ef28 833e 12d4 b53e cd38 3b3e
00000180: 64dc be3e f65b 8a3e 22f4 f63e d068 b43e
00000190: 32e4 e03e addf 8f3e a528 8d3e f1d6 8b3e
000001a0: 6888 ee3e d588 033e dd0b 9b3e 154d e53e
000001b0: d0ee ff3e 9c22 833e d042 813e ae14 f03e
000001c0: e14f ad3e 0b65 cb3e 42ba 833e ac3c b33e
000001d0: d524 a83e 6f36 ad3e 079b 893e d6c3 893e
000001e0: 30c0 9a3e 76b7 be3e 0006 953e 924c 923e
000001f0: 51af b43e 149a 713e 5a23 f33e 2f71 ab3e
00000200: 7e89 953e 4e5f 8f3e 93aa c43e bb8f 9e3e
00000210: a05c 913e 3467 fc3e ba08 a03e f240 9d3e
00000220: 47ec 8e3e 9532 203e 9022 853e cbcb 933e
00000230: e0c7 d33e 52b5 f23e 5ca3 5c3e 21bd 953e
00000240: 1f9d 0b3f 74de af3e e62a 913e 3a6d 953e
00000250: 5d8e e53e 2fcf c63e 0526 0e3f af33 733e
00000260: 0567 9a3e 98c1 9b3e 39a7 9e3e 1b77 863e
00000270: 93dc 943e 1256 933e eb4b 8a3e b495 023e
00000280: fad6 853e 17a9 d33e 28cb b83e da0e a23e
00000290: dbb3 993e fcc5 a13e 5e8b 953e 86b7 e63e
000002a0: e971 7a3e 335e 963e b61b d13e 35c5 7a3e
000002b0: 1dce fb3e 7468 f03e cfaa e73e af2e 993e
000002c0: c939 573e fe6f 8c3e 6c12 a73e 1067 b63e
000002d0: 8358 f63d 94ab 923e 60e8 da3e 469a 973e
000002e0: d93c 863e 3038 e93e 7e35 943e 002c 963e
000002f0: 1687 c93e f99e 913e cef3 8d3e 16d8 0d3e
00000300: db4d ee3e 5294 eb3e d492 f43e 31ca ae3e
00000310: 1b62 a53e 25c7 ab3e 6379 e43e 8693 903e
00000320: 5834 f53e c3cb 863e 5c3f 823e 8c71 aa3e
00000330: 2fe1 943e e46d 973e ce25 d73e 2cdd d63e
00000340: 8e06 a73e 9038 8a3e b20c 4e3e 718b b83e
00000350: c3e7 593e a0db da3e f3bf 743e f47e e13e
00000360: 9264 ab3e 3dbd c13e 8b54 973e 42fd f63e
00000370: a27a 8f3e e82c d33e fa54 b13e cdfe dc3e
00000380: 91c2 c93e 40eb e13e 5724 803e 7565 ed3e
00000390: 4769 6f3e e746 db3e 0ed9 923e d788 9b3e
000003a0: 9479 923e 8b81 ac3e a491 903e 8e20 3d3e
000003b0: 3587 a73e 1b07 913e 7b33 883e cab6 953e
000003c0: 85cc e63e e52b 983e fba6 a73e b71a b53e
000003d0: 7788 ef3e 29a6 e33e 4257 a83e f499 6c3e
000003e0: a6a1 853e 0f75 b93e 678a cf3e 4c6f e53e
000003f0: 88bd ff3e e63f 8f3e 1535 993e f750 f63e

net.6.bias f4 [256]
0.036981866 0.020083085 0.026280718 0.021748565 0.012588566 0.037994962 0.020011574 0.021202834
0.014353256 0.028317561 0.024089372 0.037867106 0.03360502 0.018625539 0.030316593 0.0043686666
0.03733322 0.032510962 0.034025803 0.026110593 0.01695686 0.033971135 0.02008153 -0.00650176
0.021431766 0.022897866 0.009942631 0.03029863 0.025703775 0.009960968 0.026818058 0.03555529
0.022327071 0.030430797 0.027436394 0.03327137 0.03213832 0.01696209 0.04394217 0.016972397
0.02201033 0.032624837 0.038255453 0.024303947 0.020952433 0.0246861 0.018467227 0.029876756
0.02547472 0.021081382 0.034446537 0.02726026 0.027256621 0.027933618 0.038846254 0.037257783
0.015801227 -0.6679242 0.02753762 0.03578893 0.0144865485 0.03772583 0.016735302 0.020194516
0.022271026 0.013595197 0.02075573 -0.01162054 0.014122282 0.0369674 0.03689195 0.04588773
0.030263573 0.030616742 0.038204677 0.021322522 0.016433328 0.031145828 0.02029579 0.013742315
0.036072455 0.011792836 0.01951307 0.019658623 0.024198309 0.03117582 0.026655141 0.046299353
0.03881111 0.015165681 0.026032152 0.03747928 0.019378237 0.0016847046 0.018044457 -0.0041073402
0.03622803 0.0056598377 0.04020265 0.0208369 0.033929963 0.014986969 0.008167522 0.022976762
0.039570615 -0.045435403 0.02239556 0.033000454 0.041355684 0.0149058355 0.019179616 0.03809532
0.019988233 0.03309566 0.02307826 0.029307839 0.019270323 0.029433005 0.012430684 0.022055311
0.018632278 0.036880583 0.0065318085 0.015801013 0.024743874 0.023107221 0.03622643 0.019759739
0.012708205 0.023670735 0.029597871 0.02340229 0.020948526 0.037577074 0.025742784 0.02479302
0.011936984 0.0023293847 0.014595644 0.02362844 0.03342498 0.038522605 0.020051176 0.018198363
0.045967486 0.02506467 0.027388029 0.027305793 0.03819408 0.023504656 0.04109113 0.016469834
0.016468743 0.025762245 0.026458807 0.006347108 -5.575536e-05 0.024866913 0.01671792 -0.029851433
0.023473645 0.027407879 0.027752362 0.025482316 0.033539962 0.02288687 0.01729211 0.038005255
0.014602196 0.012558528 0.035793852 0.0075531914 0.03713575 0.036066517 0.038791534 0.02161227
0.012304332 0.017695606 0.01699938 0.019366737 -0.024542518 0.027521748 0.037739936 0.008969741
0.013767994 0.034110103 0.011685639 0.022661444 0.029344717 0.02186369 0.005982945 -0.020218391
0.03698627 0.03666824 0.033315495 0.019750318 0.021058869 0.026746832 0.034328006 0.023364555
0.037196096 0.008788473 0.02211629 0.02504961 0.021184996 0.0100227855 0.0287802 0.034941535
0.023527464 0.016871018 0.004224608 0.029956667 0.009738153 0.028539898 0.017612895 0.034416135
0.026546339 0.03833689 0.0202752 0.040791012 0.020174991 0.03306155 0.02456584 0.034896594
0.030636163 0.03291236 0.007380895 0.03799038 0.013074745 0.038796365 0.01106913 0.027873788
0.0071947244 0.018183831 0.023151435 0.0021767162 0.022896273 0.026569307 0.012497957 0.022495648
0.038510416 0.014582696 0.021925613 0.013773544 0.036583554 0.033145435 0.02566799 0.026498474
0.009882002 0.02827251 0.026024459 0.03827845 0.040002417 0.022934396 0.017104361 0.03310348
00000000: 4c7a 173d 4885 a43c a94a d73c 0c2a b23c
00000010: 4640 4e3c 9ba0 1b3d 50ef a33c 91b1 ad3c
00000020: eb29 6b3c 3bfa e73c 1357 c53c 8a1a 1b3d
00000030: 6ba5 093d 9694 983c 815a f83c 0827 8f3b
00000040: b8ea 183d 372a 053d a45e 0b3d e2e5 d53c
00000050: 1de9 8a3c 5125 0b3d 0582 a43c b70c d5bb
00000060: ac91 af3c 4e94 bb3c 6be6 223c d534 f83c
00000070: b990 d23c 5433 233c 8bb1 db3c 6ca2 113d
00000080: 43e7 b63c 024a f93c 4ac2 e03c 8f47 083d
00000090: 79a3 033d 15f4 8a3c b4fc 333d b209 8b3c
000000a0: 024f b43c 9fa1 053d c0b1 1c3d 1219 c73c
000000b0: 70a4 ab3c 813a ca3c 9548 973c 19c0 f43c
000000c0: 5cb0 d03c ddb2 ac3c d017 0d3d e950 df3c
000000d0: 4749 df3c 0bd5 e43c 401d 1f3d 9e9b 183d
000000e0: 9371 813c 15fd 2abf 9396 e13c 6a97 123d
000000f0: fd58 6d3c 6686 1a3d 7918 893c f86e a53c
00000100: ba71 b63c 64be 5e3c ec07 aa3c 1464 3ebc
00000110: 2561 673c 216b 173d 031c 173d c6f4 3b3d
00000120: 50eb f73c f6cf fa3c 827c 1c3d 92ac ae3c
00000130: 309f 863c 8925 ff3c 5b43 a63c 7227 613c
00000140: b6c0 133d bd36 413c e0d9 9f3c 1f0b a13c
00000150: 883b c63c 6f64 ff3c e25b da3c 64a4 3d3d
00000160: 66f8 1e3d 7a79 783c 6141 d53c e083 193d
00000170: 1cbf 9e3c 4ed1 dc3a f8d1 933c de96 86bb
00000180: d863 143d 2976 b93b 89ab 243d 26b2 aa3c
00000190: 25fa 0a3d e78b 753c 12d1 053c c339 bc3c
000001a0: cc14 223d 791a 3abd e576 b73c 7c2b 073d
000001b0: 9464 293d 9b37 743c 921e 9d3c d709 1c3d
000001c0: 5dbe a33c 518f 073d 9e0e bd3c fe16 f03c
000001d0: ccdc 9d3c 7c1d f13c 11aa 4b3c 57ad b43c
000001e0: b8a2 983c 1810 173d c808 d63b 2071 813c
000001f0: aab3 ca3c 5b4b bd3c 2a62 143d 2ddf a13c
00000200: 1336 503c 21e9 c13c 3c77 f23c 29b6 bf3c
00000210: 3e9c ab3c 6bea 193d 88e2 d23c bb1a cb3c
00000220: 5793 433c 97a8 183b 9122 6f3c 6e90 c13c
00000230: a2e8 083d e1c9 1d3d 5d42 a43c bc14 953c
00000240: 6748 3c3d 6c54 cd3c dc5c e03c 66b0 df3c
00000250: 6571 1c3d d68c c03c 2c4f 283d bfeb 863c
00000260: 75e9 863c 580b d33c 24c0 d83c 67fb cf3b
00000270: ddda 69b8 b2b5 cb3c 05f4 883c fe8a f4bc
00000280: cd4b c03c 7d86 e03c ec58 e33c 4ac0 d03c
00000290: 3361 093d 3f7d bb3c 2fa8 8d3c 66ab 1b3d
000002a0: 0d3e 6f3c 49c2 4d3c 939c 123d c380 f73b
000002b0: a81b 183d 7cba 133d dfe3 1e3d 370c b13c
000002c0: 1c98 493c 60f6 903c 4942 8b3c fea6 9e3c
000002d0: 640d c9bc 4a75 e13c 3195 1a3d d2f5 123c
000002e0: 2793 613c 09b7 0b3d 1f75 3f3c 7ea4 b93c
000002f0: 5564 f03c 7b1b b33c 950c c43b 0aa1 a5bc
00000300: ea7e 173d 7031 163d d475 083d 6bcb a13c
00000310: a683 ac3c 2c1c db3c 869b 0c3d 0667 bf3c
00000320: ef5a 183d 87fd 0f3c 392d b53c d734 cd3c
00000330: 288c ad3c 9c36 243c 74c4 eb3c db1e 0f3d
00000340: abbc c03c 1735 8a3c 956e 8a3b af67 f53c
00000350: c68c 1f3c 81cc e93c eb48 903c eff7 0c3d
00000360: b577 d93c 2507 1d3d 2d18 a63c 7a14 273d
00000370: 0646 a53c 8c6b 073d 4d3e c93c bbef 0e3d
00000380: b1f8 fa3c 1ccf 063d 6fdb f13b cd9b 1b3d
00000390: 7537 563c f0e8 1e3d 4c5b 353c 9257 e43c
000003a0: b9c1 eb3b 42f6 943c 14a8 bd3c 3da7 0e3b
000003b0: f790 bb3c e0a7 d93c 3bc4 4c3c cb48 b83c
000003c0: 19bd 1d3d 43ec 6e3c 589d b33c 6eaa 613c
000003d0: a3d8 153d 82c3 073d ad45 d23c 5413 d93c
000003e0: 1fe8 213c c09b e73c 3f31 d53c ddc9 1c3d
000003f0: 93d9 233d eae0 bb3c 721e 8c3c 8497 073d
