RL code/models/checkpoint_episode_720000.pth (torch, 801255 bytes, 40 tensors)

net.0.weight f4 [256, 22]
0	0x3d066f3b	0.03282092
1	0x3a10ce03	0.0005523862
2	0x3de2ecb3	0.11080303
3	0xbe51604a	-0.20446888
4	0x3d5a0274	0.053224996
5	0xbda3d7bd	-0.08000133
6	0x3c8f292e	0.01747569
7	0xbc98fbed	-0.018674815
8	0x3d8bae8c	0.068204015
9	0x3d1ced00	0.03831196
10	0xbd87e116	-0.066347286
11	0xbd51c29a	-0.051210977
12	0x3e23d0fb	0.15997688
13	0xbe4e770b	-0.20162599
14	0x3c12be00	0.008956432
15	0xbdd39513	-0.10331168
16	0xbcb27560	-0.021784484
17	0xbc6a8cab	-0.014315764
18	0xbd8bae8c	-0.068204015
19	0xbd1ced00	-0.03831196
20	0x3d066f3b	0.03282092
21	0x3a10ce03	0.0005523862
22	0xbdabf395	-0.08396069
23	0xbd1c2ad3	-0.038126778
24	0x3d527ce9	0.051388655
25	0xbd7ee218	-0.06222734
26	0xbde36ecc	-0.11105117
27	0x3ba79cca	0.0051151263
28	0x3e07a60b	0.13246934
29	0xbd230179	-0.039796326
30	0x3cf3afdd	0.029746944
31	0xbd769726	-0.06020274
32	0xbe034bfb	-0.12821953
33	0xbc97e2fb	-0.01854085
34	0x3d85ca65	0.06532744
35	0xbdb32fca	-0.087493494
36	0xbe00fc09	-0.12596144
37	0x3cc8d688	0.024516359
38	0x3df5de5d	0.12005303
39	0xbc8868ce	-0.016651537
40	0xbcf3afdd	-0.029746944
41	0x3d769726	0.06020274
42	0xbdabf395	-0.08396069
43	0xbd1c2ad3	-0.038126778
44	0x3e11f777	0.14254557
45	0x3e13544b	0.14387624
46	0x3e45d55a	0.19319668
47	0x3e219d3f	0.15782641
48	0xbe346850	-0.17617917
49	0xbe362a36	-0.1778954
50	0xbe272d34	-0.16325837
51	0xbe2dd337	-0.16975103
52	0xbeb638b9	-0.3559015
53	0xbeb18cf9	-0.34677866
54	0xbe8b8f0e	-0.2725758
55	0xbe80da68	-0.2516663
56	0xbe28bb86	-0.16477785
57	0xbe371bcc	-0.17881697
58	0x3e36e151	0.17859389
59	0x3e1a8bb4	0.15092355
60	0x3e491e9d	0.19640584
61	0x3e2529fc	0.16129297
62	0x3eb638b9	0.3559015
63	0x3eb18cf9	0.34677866
64	0x3e11f3c7	0.1425315
65	0x3e134ff4	0.14385968
66	0xbd8470bf	-0.06466817
67	0x3c1686d3	0.009187418
68	0xbcd483f3	-0.025941825
69	0x3d2e4848	0.0425494
70	0xbc9b8618	-0.01898484
71	0xbd0b82ed	-0.034060407
72	0x3c29303b	0.01032644
73	0xbb80cfcd	-0.003931022
74	0x390baab9	0.00013319672
75	0x3ccc1010	0.024910003
76	0x3dcad58f	0.09904014
77	0x3e23cffa	0.15997306
78	0xbd858138	-0.06518787
79	0x3d078ea8	0.033095032
80	0x3c874836	0.016513925
81	0xbd087e8e	-0.033323817
82	0x3d215401	0.039386753
83	0xbb87f536	-0.0041491045
84	0xb90baab9	-0.00013319672
85	0xbccc1010	-0.024910003
86	0xbd8470bf	-0.06466817
87	0x3c1686d3	0.009187418
88	0xbd222f89	-0.039596114
89	0x3dae12be	0.084996685
90	0xbd06dec5	-0.032927293
91	0x3e397349	0.18110384
92	0x3d67add7	0.05656227
93	0xbd608020	-0.05480969
94	0xbd1c7fc5	-0.038207788
95	0x3d69a74f	0.057044324
96	0x3d8c203c	0.06842086
97	0x3bbf20bb	0.005832759
98	0xbd9ec7ca	-0.077529505
99	0x3ce679e7	0.0281343
100	0x3bc36cad	0.005963883
101	0x3e0c746d	0.13716288
102	0x3cfbe04c	0.030746602
103	0xbc0c2940	-0.008554757
104	0xbda7087c	-0.08155915
105	0x3dd90a5d	0.1059768
106	0xbd8c203c	-0.06842086
107	0xbbbf20bb	-0.005832759
108	0xbd222f89	-0.039596114
109	0x3dae12be	0.084996685
110	0x3d61a468	0.05508843
111	0xbdfd1dce	-0.123592004
112	0x3de6af8a	0.1126395
113	0xbdbe43b5	-0.09290258
114	0xbbb4a156	-0.005512397
115	0xba85b07a	-0.0010199689
116	0xbc1f772e	-0.0097330045
117	0x3d7714b6	0.060322486
118	0xbdd947c1	-0.10609389
119	0x3bda617f	0.0066644545
120	0x3e164e39	0.14678277
121	0xbcb301af	-0.021851389
122	0x3d20023a	0.039064623
123	0xbd33da7c	-0.043909535
124	0x3d935b61	0.071951635
125	0xbd52fae3	-0.051508795
126	0x3d83c7c6	0.06434588
127	0x3c9c3569	0.019068437
128	0x3dd947c1	0.10609389
129	0xbbda617f	-0.0066644545
130	0x3d61a468	0.05508843
131	0xbdfd1dce	-0.123592004
132	0xbd810777	-0.06300252
133	0x3c279737	0.0102289235
134	0xbe4be69d	-0.1991219
135	0x3da84713	0.08216681
136	0x3d92c949	0.07167298
137	0xbc55e00f	-0.013053908
138	0x3d0f633f	0.035006758
139	0x3a00a84d	0.0004907891
140	0x3d824f2f	0.06362759
141	0xbd8862bf	-0.06659459
142	0x3c765350	0.015034512
143	0xbcd9e3eb	-0.026597938
144	0xbe1b9552	-0.1519368
145	0x3d45291b	0.048134904
146	0x3d0aa6e9	0.033850584
147	0x3c18c6dd	0.009324756
148	0xbca0cafd	-0.019628042
149	0x3d0c28d2	0.034218617
150	0xbd824f2f	-0.06362759
151	0x3d8862bf	0.06659459
152	0xbd810777	-0.06300252
153	0x3c279737	0.0102289235
154	0xbd59daa7	-0.05318704
155	0x3ce07fd7	0.027404709
156	0x3d37e024	0.04489149
157	0xbde04f83	-0.10952666
158	0x3ce7bf0e	0.028289344
159	0x3d98cb5f	0.07460665
160	0x3d02773b	0.03185199
161	0xbdeb49b7	-0.11488669
162	0xbd0eb8da	-0.034844257
163	0x3bb696b9	0.0055721668
164	0x3dc94fe1	0.09829689
165	0x3d388b1b	0.045054536
166	0x3cad49fb	0.02115344
167	0xbdb7ee08	-0.08980948
168	0x3d37d95c	0.044885024
169	0x3d8692e1	0.06570984
170	0x3d4badc8	0.049726278
171	0xbdf643d3	-0.12024655
172	0x3d0eb8da	0.034844257
173	0xbbb696b9	-0.0055721668
174	0xbd59daa7	-0.05318704
175	0x3ce07fd7	0.027404709
176	0xbd042703	-0.032263767
177	0x3d712011	0.05886847
178	0x3d30c998	0.043161005
179	0x3b822a6d	0.0039723427
180	0xbd273d42	-0.040829904
181	0x3d27f729	0.041007195
182	0x3dc99be2	0.098441854
183	0xbd52162a	-0.05129067
184	0xbc4d3040	-0.012523711
185	0x3cfdde64	0.030989833
186	0x3daf2e82	0.085537925
187	0xbe29b797	-0.1657394
188	0x3d9bf7c4	0.07615617
189	0x3c9c26c0	0.019061446
190	0xbdb9e62c	-0.09077105
191	0x3cf73715	0.030177632
192	0x3d8ad4bc	0.06778857
193	0xbd987f87	-0.07446199
194	0x3c4d3040	0.012523711
195	0xbcfdde64	-0.030989833
196	0xbd042703	-0.032263767
197	0x3d712011	0.05886847
198	0x3d8a0017	0.067382984
199	0x3bbcf75e	0.005766793
200	0xbd969e66	-0.07354431
201	0xbcc91b01	-0.02454901
202	0xbd57726d	-0.05259936
203	0x3cca2158	0.024674103
204	0x3d237f3c	0.039916262
205	0xbe1f9fdf	-0.1558833
206	0x3da46316	0.08026712
207	0xbd1fc5ae	-0.03900688
208	0x3d867a6b	0.06566318
209	0x3d32527a	0.043535687
210	0xbd313a30	-0.043268383
211	0xbca4ad5f	-0.020102201
212	0xbd94c8b7	-0.07264846
213	0x3ce293b8	0.027658328
214	0x3c9eb4e8	0.019373372
215	0xbe289096	-0.16461405
216	0xbda46316	-0.08026712
217	0x3d1fc5ae	0.03900688
218	0x3d8a0017	0.067382984
219	0x3bbcf75e	0.005766793
220	0xbbe181b0	-0.006881915
221	0xbca6e2d8	-0.02037184
222	0x3e23339f	0.1593766
223	0xbe218d35	-0.15776522
224	0x3dfd1b04	0.123586684
225	0x3b89da6c	0.004206946
226	0x3d3da30d	0.046298075
227	0xbd5f4456	-0.05450853
228	0x3db07c9e	0.08617519
229	0xbcc6b91b	-0.024258187
230	0x3d2fc498	0.042912096
231	0xbb8809ca	-0.0041515576
232	0x3e400083	0.18750195
233	0xbe25ee28	-0.1620413
234	0x3dd0043c	0.10157058
235	0x3c15089c	0.009096291
236	0x3cd77f63	0.02630586
237	0xbd557aec	-0.05211918
238	0xbdb07c9e	-0.08617519
239	0x3cc6b91b	0.024258187
240	0xbbe181b0	-0.006881915
241	0xbca6e2d8	-0.02037184
242	0xbd0632dd	-0.03276335
243	0x3e0873df	0.13325451
244	0xbcd63342	-0.026147489
245	0xbddaa4c5	-0.106759585
246	0xbc60162a	-0.013677159
247	0xbbd98c13	-0.0066390126
248	0xbcbac320	-0.022798121
249	0x3d3342a5	0.04376473
250	0xba56f5b6	-0.0008200066
251	0x3d994422	0.074836984
252	0x3e08b23b	0.1334924
253	0x3c8e26d6	0.017352503
254	0xbd0543fc	-0.032535538
255	0xbd2bee97	-0.041975584

net.0.bias f4 [256]
0	0xbe8b1969	-0.27167824
1	0xbe7553d2	-0.23957756
2	0xbe2862b7	-0.16443907
3	0xbe937d69	-0.28806618
4	0xbe6de33c	-0.23231214
5	0xbe9facd2	-0.3118654
6	0xbf1c3557	-0.6101889
7	0xbe9e8be1	-0.30966094
8	0xbe9cd46b	-0.30630812
9	0xbeafd9ea	-0.34345943
10	0xbe8265cf	-0.254683
11	0xbe6df697	-0.23238598
12	0xbe980741	-0.29693034
13	0xbf087ff9	-0.5332027
14	0xbe7ba95e	-0.24576327
15	0xbe77771c	-0.2416653
16	0xbe72e728	-0.23720992
17	0xbed62a7d	-0.4182929
18	0xbe9c599e	-0.30537122
19	0xbe69e308	-0.22840512
20	0xbead3545	-0.33829704
21	0xbea2dfb0	-0.31811285
22	0x3d826540	0.06366968
23	0xbe271819	-0.16317786
24	0xbe4f42dc	-0.20240349
25	0xbe43b703	-0.19112782
26	0xbe76f495	-0.24116738
27	0xbe879b61	-0.26485732
28	0xbea19276	-0.31557053
29	0x3e50a4b2	0.20375326
30	0xbe8727a7	-0.2639744
31	0xbe82f85c	-0.25580108
32	0xbec25964	-0.37958825
33	0xbe998316	-0.29982823
34	0xbf17c128	-0.5927911
35	0xbe857d1a	-0.26072007
36	0xbedd089e	-0.43170637
37	0xbe9cf0ae	-0.30652374
38	0xbcf0e420	-0.029405653
39	0xbe668b95	-0.22514184
40	0xbda2b1c8	-0.07944065
41	0xbe4dd70b	-0.20101564
42	0xbf15fa04	-0.5858462
43	0xbe8fb986	-0.2807123
44	0xbe7aaf57	-0.2448095
45	0xbe773a4d	-0.24143334
46	0xbea529be	-0.3225841
47	0xbe59f29f	-0.21283959
48	0xbe44cc83	-0.1921864
49	0xbe38d3a9	-0.18049492
50	0xbe6a350e	-0.22871801
51	0xbe893cb9	-0.2680414
52	0xbe9d4af6	-0.30721253
53	0xbd20745f	-0.03917348
54	0xbe46d9b7	-0.19418989
55	0xbe759a5c	-0.23984665
56	0xbe596832	-0.21231154
57	0xbe680627	-0.22658597
58	0xbe76c3b3	-0.24098091
59	0xbe863fb0	-0.26220465
60	0xbe4e7626	-0.20162258
61	0xbe5fe215	-0.21863587
62	0xbe7f73a0	-0.24946451
63	0xbe508479	-0.20363034
64	0xbe834001	-0.2563477
65	0x3c01f00d	0.007930768
66	0xbe7547be	-0.23953149
67	0xbea0f8de	-0.3143987
68	0xbe320d7f	-0.17387961
69	0xbe41f28b	-0.18940179
70	0xbe4e405c	-0.20141739
71	0xbe8c2d4a	-0.27378303
72	0xbed9059b	-0.4238709
73	0xbe882d90	-0.2659726
74	0xbe8a17d6	-0.2697131
75	0xbe838d69	-0.25693825
76	0xbe5257d2	-0.20541313
77	0xbee5f1fc	-0.44911182
78	0xbeb3d8c0	-0.35126305
79	0xbe77166b	-0.24129646
80	0xbe801d57	-0.25022385
81	0xbe80f9d8	-0.25190616
82	0xbeae7a7d	-0.34077826
83	0xbe454d46	-0.19267759
84	0xbe4fe3b3	-0.20301704
85	0xbe88d8a6	-0.2672779
86	0xbe441632	-0.19149092
87	0xbf1a43e2	-0.6025983
88	0xbe9dc444	-0.308138
89	0xbe87805a	-0.26465112
90	0xbea76570	-0.32694578
91	0xbe836a19	-0.25666884
92	0xbe56d8d8	-0.20981157
93	0xbee962f3	-0.45583305
94	0xbea0b693	-0.31389293
95	0xbe6f0d93	-0.23345022
96	0xbe9bf14a	-0.30457526
97	0x3e4c546a	0.19954076
98	0xbe79e7be	-0.24404809
99	0xbe299be7	-0.16563378
100	0xbec45dfc	-0.38352954
101	0xbe844329	-0.2583249
102	0xbea834de	-0.32852834
103	0xbef0bc74	-0.47018778
104	0xbe954847	-0.29156706
105	0xbe40dc97	-0.18834148
106	0xbe62a3d0	-0.22132802
107	0xbe9ddbf1	-0.30831864
108	0xbe3f5261	-0.18683769
109	0xbe583374	-0.21113378
110	0xbe87fdfc	-0.26560962
111	0xbdd8af72	-0.105803385
112	0xbec022d2	-0.37526566
113	0xbf0a40b5	-0.54004985
114	0xbe8abcd4	-0.2709719
115	0x3d8bc7da	0.06825228
116	0xbe82e443	-0.25564775
117	0xbe8a7549	-0.27042606
118	0xbe8fd167	-0.2808945
119	0xbe69742d	-0.22798224
120	0xbe82b56b	-0.25529036
121	0xbe63c18b	-0.222418
122	0xbe96a811	-0.294251
123	0xbe5e420f	-0.21704887
124	0xbea4d0ed	-0.32190648
125	0x3e53b0ab	0.20672862
126	0xbe4ecfa4	-0.20196396
127	0xbf0ac7ad	-0.5421093
128	0xbe6042e3	-0.21900515
129	0xbe8c8488	-0.27444863
130	0xbe5641f3	-0.20923595
131	0xbeafdb0e	-0.34346813
132	0xbe989453	-0.29800662
133	0xbe5c64cc	-0.21522826
134	0xbe5f6486	-0.2181569
135	0xbe9196d3	-0.28435382
136	0xbe4effb4	-0.2021473
137	0xbe43288d	-0.19058438
138	0xbe34c493	-0.17653112
139	0xbe99459b	-0.29935917
140	0xbe4b72b9	-0.19867982
141	0xbea04216	-0.3130042
142	0xbddcf0a7	-0.10788088
143	0xbd3de695	-0.04636248
144	0x3e525b19	0.20542563
145	0xbe592303	-0.21204762
146	0xbe08a5ee	-0.13344547
147	0xbe76a3f3	-0.24085979
148	0xbe4e5b9a	-0.2015213
149	0xbe8830ac	-0.26599634
150	0xbe7d1d3e	-0.24718186
151	0xbe511218	-0.20417058
152	0xbe869072	-0.26282078
153	0xbe9b324b	-0.30311808
154	0xbe924841	-0.2857075
155	0xbe52f8f1	-0.20602776
156	0xbeac03ce	-0.33596653
157	0xbd1599f4	-0.036523774
158	0xbe343122	-0.17596868
159	0xbe8669f4	-0.2625271
160	0xbe9a853d	-0.30179778
161	0xbe6b4edf	-0.22979306
162	0xbe6fb730	-0.23409724
163	0xbe8b868b	-0.27251086
164	0xbe16bc01	-0.14720155
165	0xbe9af854	-0.30267584
166	0x3d48a473	0.048984956
167	0xbe8b459d	-0.27201548
168	0xbe962495	-0.29324785
169	0xbd0480cd	-0.032349396
170	0xbe855621	-0.26042274
171	0xbeac3c35	-0.33639684
172	0xbe54e782	-0.20791438
173	0xbe70d772	-0.23519686
174	0xbe7c9a05	-0.24668129
175	0xbe4d8979	-0.20071973
176	0xbe7581e2	-0.23975328
177	0xbe86f3b0	-0.26357794
178	0xbe991b58	-0.29903674
179	0xbe94ab58	-0.29036975
180	0xbe40dfee	-0.18835422
181	0x3dc8b6e1	0.098005064
182	0xbed2a9d2	-0.41145188
183	0xbe60d399	-0.21955718
184	0xbe79bc61	-0.24388267
185	0xbe8652fa	-0.2623518
186	0xbe89a264	-0.26881707
187	0xbe94ebe3	-0.29086217
188	0xbe8ab2e6	-0.27089614
189	0xbe803506	-0.25040454
190	0xbe9aa632	-0.30204922
191	0xbe5a974d	-0.21346779
192	0xbea70807	-0.32623312
193	0xbf156817	-0.58361953
194	0xbe7b7d61	-0.24559547
195	0x3e570ee7	0.21001779
196	0xbe83dd35	-0.25754705
197	0xbe8d411a	-0.2758873
198	0xbe8dc7c8	-0.27691483
199	0xbe52c0c0	-0.20581341
200	0xbe9cc73c	-0.30620754
201	0xbea6479e	-0.32476515
202	0xbe9dcf18	-0.30822062
203	0xbe9197dd	-0.28436175
204	0xbf04f737	-0.5193972
205	0xbe8da913	-0.27668056
206	0xbe862cff	-0.26206204
207	0xbe591929	-0.21201004
208	0xbed84ee4	-0.4224769
209	0xbe3b92cb	-0.18317716
210	0x3e54b2bb	0.20771305
211	0xbe7f1a95	-0.24912484
212	0xbf1ea3c7	-0.61968654
213	0xbe80ee20	-0.25181675
214	0xbe63676c	-0.22207421
215	0xbe7b4291	-0.24537112
216	0xbe9d5ed0	-0.307364
217	0xbee3b762	-0.44475847
218	0xbe41668a	-0.18886772
219	0xbe796e44	-0.24358469
220	0xbe817a5a	-0.2528866
221	0xbe819da2	-0.25315577
222	0xbf10878e	-0.5645684
223	0xbe5e8cdd	-0.21733423
224	0xbe7bdb61	-0.24595405
225	0xbe997957	-0.29975387
226	0xbe82c4d4	-0.25540793
227	0xbe884569	-0.26615456
228	0xbe8d22cc	-0.2756561
229	0xbe8d98f4	-0.27655756
230	0xbe989366	-0.29799956
231	0xbe6fc246	-0.23413953
232	0xbebc3a9c	-0.36763465
233	0xbe856905	-0.26056686
234	0xbebcf987	-0.36909124
235	0xbe88e520	-0.26737309
236	0xbe61a4e7	-0.22035562
237	0xbe81e016	-0.25366277
238	0xbe47e948	-0.19522583
239	0xbe5e15d8	-0.2168802
240	0xbe6482c1	-0.22315504
241	0xbea4d66d	-0.32194844
242	0x3e553946	0.2082263
243	0xbe5b7f35	-0.21435244
244	0xbe9464d2	-0.2898317
245	0xbea3da00	-0.32002258
246	0xbe5b66be	-0.21425912
247	0xbe8bd070	-0.27307463
248	0xbe53b7f8	-0.20675647
249	0xbd4dd48d	-0.050251532
250	0xbf0b0180	-0.54299164
251	0xbe2e15ec	-0.1700055
252	0xbe94f1df	-0.29090783
253	0xbe9780c5	-0.2959043
254	0xbf214fd2	-0.6301242
255	0xbdb044aa	-0.08606847

net.2.weight f4 [256]
0	0x3e283984	0.1642819
1	0x3df4b4d8	0.11948556
2	0x3e41dc28	0.18931639
3	0x3e1368bb	0.1439542
4	0x3db8446f	0.08997428
5	0x3e17670e	0.14785406
6	0x3f177470	0.59162045
7	0x3e49c761	0.19704963
8	0x3e79285f	0.24331807
9	0x3e15a03b	0.14611904
10	0x3e5ac136	0.21362767
11	0x3e47bc06	0.19505319
12	0x3e8b05a8	0.27152753
13	0x3e97c936	0.296457
14	0x3e571262	0.21003106
15	0x3e35be17	0.17748295
16	0x3e43ce7c	0.19121736
17	0x3e475d20	0.19469118
18	0x3e1f0826	0.15530452
19	0x3e1507c0	0.14553738
20	0x3e429067	0.19000398
21	0x3dd5b70f	0.10435306
22	0x3cefa4e6	0.029253434
23	0x3dd99ebd	0.1062598
24	0x3e67c8ae	0.22635147
25	0x3e480306	0.19532403
26	0x3da0e8ec	0.07856926
27	0x3e25d9ba	0.16196337
28	0x3e2ed1f3	0.17072277
29	0x3e253847	0.1613475
30	0x3df991a8	0.12185985
31	0x3e3dddf1	0.18541695
32	0x3e2dc04e	0.1696789
33	0x3e4f1b3c	0.20225233
34	0x3ea9ba11	0.3314977
35	0x3de6ec94	0.112755924
36	0x3e2527da	0.16128483
37	0x3e1544d4	0.14577037
38	0x3f0422d7	0.5161566
39	0x3da30d9a	0.07961579
40	0x3dc2394d	0.094835855
41	0x3e6af6b2	0.2294567
42	0x3f045152	0.51686585
43	0x3e378114	0.17920333
44	0x3e2823a1	0.16419841
45	0x3e12c060	0.14331198
46	0x3e3e147f	0.18562506
47	0x3e292260	0.1651702
48	0x3e6bdfb2	0.23034552
49	0x3dc40b52	0.09572472
50	0x3e3630ab	0.17792003
51	0x3e60320f	0.21894096
52	0x3e230f35	0.1592377
53	0x3f0e68c4	0.5562861
54	0x3e496d86	0.19670686
55	0x3e00697d	0.1254024
56	0x3e0ded2b	0.13860004
57	0x3de21731	0.1103958
58	0x3e6038d9	0.21896686
59	0x3e167d51	0.14696242
60	0x3d616836	0.055031024
61	0x3da41bc5	0.08013109
62	0x3def55cf	0.116862886
63	0x3e5f361d	0.21797986
64	0x3e41cca5	0.18925722
65	0x3ceb7bb5	0.028745512
66	0x3e4097fd	0.18807979
67	0x3e6c2d76	0.23064217
68	0x3e54d69c	0.20784992
69	0x3e190eab	0.14947002
70	0x3e60c0ab	0.21948497
71	0x3ddbd0f5	0.10733215
72	0x3e7063c3	0.23475556
73	0x3e3fba15	0.18723328
74	0x3e189461	0.14900352
75	0x3e12b8a9	0.14328255
76	0x3e4a6574	0.19765264
77	0x3e7c2841	0.2462473
78	0x3e455377	0.1927012
79	0x3e5e2338	0.21693122
80	0x3e711af1	0.23545434
81	0x3e23fed6	0.16015181
82	0x3e475705	0.19466789
83	0x3e6613d4	0.22468501
84	0x3e112c2f	0.14177011
85	0x3e1a0b9b	0.1504349
86	0x3d6bc067	0.057556536
87	0x3e8cc689	0.2749522
88	0x3e7f29ce	0.24918291
89	0x3e2c579d	0.16830297
90	0x3de58db2	0.11208667
91	0x3e19fbad	0.15037413
92	0x3e0f7be5	0.14012106
93	0x3f16fcfb	0.5897977
94	0x3e67db44	0.22642237
95	0x3dcd8801	0.10035706
96	0x3e20f72f	0.15719293
97	0x3e253443	0.16133218
98	0x3db2f5c1	0.0873828
99	0x3dfeec67	0.12447434
100	0x3e46bd21	0.19408084
101	0x3e592759	0.21206416
102	0x3e4022c4	0.18763262
103	0x3f05adb5	0.5221818
104	0x3e42c028	0.19018614
105	0x3e4f5d86	0.2025052
106	0x3e0b6b28	0.13615096
107	0x3e125a3e	0.14292237
108	0x3e2a83de	0.16651866
109	0x3dcb9688	0.09940821
110	0x3df9b4f0	0.12192714
111	0x3dbd33b8	0.0923838
112	0x3e297457	0.16548286
113	0x3ea60e32	0.32432705
114	0x3e6c2d73	0.23064213
115	0x3d14a41b	0.036289316
116	0x3de8dc80	0.11370182
117	0x3e5810d4	0.2110017
118	0x3e8ee6c7	0.27910444
119	0x3e21ef5b	0.15813963
120	0x3e5d646f	0.21620344
121	0x3d8cb006	0.06869511
122	0x3e43d506	0.1912423
123	0x3da714c8	0.081582606
124	0x3e1f2e03	0.15544896
125	0x3e279506	0.16365442
126	0x3e07bbdc	0.13255256
127	0x3ec6c341	0.38820842
128	0x3e0b8745	0.1362582
129	0x3e382d23	0.17985968
130	0x3dc9679c	0.09834215
131	0x3e065a0c	0.13120288
132	0x3e43de60	0.19127798
133	0x3e2fc610	0.17165399
134	0x3e2966c4	0.16543108
135	0x3e83170e	0.25603527
136	0x3e649840	0.22323704
137	0x3e229722	0.15877965
138	0x3d85dd13	0.06536307
139	0x3e5d0c23	0.21586661
140	0x3e630af2	0.22172144
141	0x3e5a9e15	0.21349366
142	0x3e0db7e0	0.13839674
143	0x3e072d2c	0.13200825
144	0x3e21bebd	0.15795417
145	0x3df59acf	0.11992418
146	0x3e01d7c9	0.12679972
147	0x3e59a13b	0.21252911
148	0x3e601dcd	0.21886368
149	0x3e36c3b6	0.17848095
150	0x3e165988	0.14682591
151	0x3dc6f272	0.097142115
152	0x3deab3d1	0.114600785
153	0x3e33215b	0.17493193
154	0x3e1d62d0	0.15369725
155	0x3e6ae539	0.22939004
156	0x3e87191c	0.26386344
157	0x3e0e13b6	0.13874707
158	0x3e13dbc9	0.1443931
159	0x3dcdc0be	0.10046528
160	0x3e1cd192	0.1531432
161	0x3dfb2864	0.12263563
162	0x3db7725e	0.08957361
163	0x3e3c9a34	0.18418199
164	0x3e11d61e	0.14241835
165	0x3e36affe	0.17840573
166	0x3d3b2f33	0.04569931
167	0x3db9dfd4	0.09075895
168	0x3e50554d	0.2034504
169	0x3f0cde56	0.5502676
170	0x3e03a169	0.12854542
171	0x3e93480c	0.28765905
172	0x3e230b58	0.15922296
173	0x3df3f9a9	0.11912853
174	0x3e2db614	0.16963989
175	0x3e641a01	0.22275545
176	0x3e222884	0.15835768
177	0x3e3bcca0	0.18339777
178	0x3e84ece1	0.25961974
179	0x3e9ce7b8	0.30645537
180	0x3e6a5670	0.22884536
181	0x3cebcd05	0.028784284
182	0x3eb8e0b8	0.36108947
183	0x3df9b814	0.12193313
184	0x3e3bed9f	0.18352364
185	0x3e0acda1	0.13555004
186	0x3e22de16	0.15905032
187	0x3e525579	0.20540418
188	0x3e0c5dc0	0.13707638
189	0x3e0d36b9	0.13790406
190	0x3e6b6fd5	0.2299188
191	0x3e2d0f68	0.16900408
192	0x3e6759b1	0.22592808
193	0x3e8c56c7	0.27409956
194	0x3e31b166	0.17352828
195	0x3e27b1cb	0.16376416
196	0x3dc90966	0.09816246
197	0xbe6d85fe	-0.23195645
198	0x3e3324b3	0.17494468
199	0x3e4dda4a	0.20102802
200	0x3e26f518	0.16304433
201	0x3e903d43	0.2817174
202	0x3e6211b4	0.22077066
203	0x3e6d1341	0.23151876
204	0x3f10c90f	0.5655679
205	0x3df55960	0.119799376
206	0x3e298196	0.1655334
207	0x3e4f967d	0.2027225
208	0x3e936c7d	0.28793707
209	0x3dfe5bde	0.12419866
210	0x3e2546d5	0.16140302
211	0x3e081815	0.13290437
212	0x3ea1929e	0.31557173
213	0x3e217527	0.15767346
214	0x3e03f5bc	0.12886709
215	0x3e479331	0.19489743
216	0x3e5a5433	0.21321182
217	0x3f0ccb33	0.5499756
218	0x3e0c9e44	0.13732249
219	0x3e191c7c	0.14952272
220	0x3e25972c	0.16170949
221	0x3dfbd81b	0.12297078
222	0x3ed592cd	0.41713563
223	0x3e2020e6	0.1563755
224	0x3df82c49	0.12117822
225	0x3ea1a52f	0.31571338
226	0x3dc88453	0.09790864
227	0x3e4e4d57	0.2014669
228	0x3e28f15a	0.16498318
229	0x3e544f46	0.20733365
230	0x3e31db15	0.1736873
231	0x3e1a9126	0.15094432
232	0x3dd7d30a	0.105382994
233	0x3e677260	0.22602224
234	0x3e33ba09	0.17551436
235	0x3e01f82a	0.12692323
236	0x3e455cc5	0.1927367
237	0x3dfc420a	0.123172835
238	0x3e0cedcb	0.13762586
239	0x3e2c600c	0.16833514
240	0x3ddab0b2	0.10678233
241	0x3e49ca6e	0.19706127
242	0x3e244978	0.16043651
243	0x3e10adbf	0.14128779
244	0x3e3bced1	0.18340613
245	0x3e6c7bc4	0.23094088
246	0x3dac1c07	0.08403783
247	0x3de137b3	0.10996952
248	0x3dba1551	0.09086097
249	0x3dd9cf20	0.10635209
250	0x3e96f2f5	0.29482237
251	0x3e041209	0.12897505
252	0x3e56b1dc	0.20966285
253	0x3e2c98c1	0.16855146
254	0x3ea622ab	0.32448325
255	0x3e258676	0.16164574

net.2.bias f4 [256]
0	0x3d2c5424	0.04207243
1	0x3cd658c7	0.02616538
2	0x3ca3beb7	0.0199884
3	0x3cfb3c30	0.030668348
4	0x3c4e0632	0.012574719
5	0x3d1826a7	0.037146237
6	0x3e23fc6a	0.16014257
7	0x3d68c8da	0.056832172
8	0x3d8dc788	0.06922823
9	0x3cff056f	0.03113052
10	0x3d626772	0.055274434
11	0x3d392cba	0.04520867
12	0x3d904814	0.07044998
13	0x3d7e30e5	0.06205835
14	0x3d67d32f	0.056597885
15	0x3cdfab51	0.02730337
16	0x3d1ad90e	0.037804656
17	0x3d1702bb	0.03686784
18	0x3d33c8de	0.043892734
19	0x3cc15411	0.023599656
20	0x3d22bf93	0.03973348
21	0x3cbc0549	0.022951739
22	0xbd8964b1	-0.067086585
23	0x3c0c6d78	0.008571021
24	0x3d13f765	0.036124606
25	0x3ca546c8	0.020175353
26	0x3c12718f	0.008938207
27	0x3d2ffadc	0.042963848
28	0x3d22c31a	0.039736845
29	0xbf09e3f4	-0.53863454
30	0x3cbed543	0.02329505
31	0x3d2e3cb7	0.04253837
32	0x3cfd2308	0.030900493
33	0x3d6261f3	0.055269193
34	0x3d91e580	0.07123852
35	0x3cd919ff	0.026501654
36	0x3ca40c73	0.020025468
37	0x3d09bd60	0.033627868
38	0x3e1944c4	0.14967638
39	0x3a96643d	0.0011473965
40	0xbc92e279	-0.017930256
41	0x3d16ec05	0.03684618
42	0x3e0f0bde	0.1396937
43	0x3d4ad002	0.049514778
44	0x3d1673de	0.036731593
45	0x3cf20d15	0.029547254
46	0x3cf4f5d8	0.029902384
47	0x3c8ebf63	0.017425245
48	0x3cebb86f	0.028774468
49	0x3b6ae648	0.0035842825
50	0x3d244d32	0.04011268
51	0x3d6399b7	0.055566516
52	0x3d226c2e	0.03965395
53	0x3e22fefc	0.15917581
54	0x3cedbdce	0.02902117
55	0x3cc24e2a	0.023718912
56	0x3cfa39b6	0.030545097
57	0x3b86eb29	0.0041173887
58	0x3d4c0b1a	0.049815275
59	0x3cee3ba3	0.029081171
60	0x3c0ccd4f	0.008593871
61	0xbb330cff	-0.0027320979
62	0x3c9fa49f	0.019487677
63	0x3cf95547	0.030436171
64	0x3d44011f	0.04785263
65	0xbd5e2f69	-0.054244433
66	0x3d4996da	0.04921613
67	0x3d48da5c	0.04903637
68	0x3cd0dc38	0.025495633
69	0x3cd53737	0.026027305
70	0x3cf26c72	0.029592726
71	0x3c37eac2	0.011225404
72	0x3d517c70	0.051144063
73	0x3d01ca1b	0.031686883
74	0x3d0f72cc	0.03502159
75	0x3d147559	0.036244724
76	0x3d343114	0.043992117
77	0x3d6903c5	0.05688836
78	0x3d4f7ac1	0.050654177
79	0x3d5dc19f	0.05413973
80	0x3d60ab34	0.054850772
81	0x3d0c8b1a	0.034312345
82	0x3d190d3b	0.037366133
83	0x3cd46c9b	0.025930693
84	0x3cd71488	0.026254907
85	0x3d162a85	0.036661644
86	0xbba8d79b	-0.0051526553
87	0x3d757170	0.059922636
88	0x3d64e59a	0.055883028
89	0x3d33ccc6	0.04389646
90	0x3c6d8efa	0.01449942
91	0x3cddd6ff	0.027080057
92	0x3ce56ded	0.028006518
93	0x3e2d0346	0.1689578
94	0x3d7de248	0.061983377
95	0x3c70a513	0.014687794
96	0x3d1ac7fb	0.037788372
97	0xbf06dfa5	-0.52685004
98	0x3b63ae39	0.0034741296
99	0xba833226	-0.0010009452
100	0x3d15ebfd	0.03660201
101	0x3d620112	0.055176802
102	0x3d2e4f64	0.04255618
103	0x3e10be43	0.14135079
104	0x3d3930a1	0.04521239
105	0x3d218e79	0.039442513
106	0x3cdd1f06	0.026992332
107	0x3d0cb018	0.034347624
108	0x3caeacf3	0.021322703
109	0x3c6d89b0	0.014498159
110	0x3c71162b	0.014714758
111	0xbc65bdb6	-0.014022281
112	0x3cfc7a94	0.030820169
113	0x3da4c657	0.08045643
114	0x3d89f268	0.067356884
115	0xbd71e2ba	-0.059054114
116	0x3cc28d02	0.023748878
117	0x3cd9b8f6	0.026577454
118	0x3d912d0e	0.070886716
119	0x3cf84c9a	0.030309964
120	0x3d5b983c	0.05361198
121	0x3c132123	0.008980068
122	0x3d34b423	0.044117104
123	0x3caa160c	0.020762466
124	0x3d3f2724	0.046668187
125	0xbf0b85c7	-0.54501003
126	0x3cd590b8	0.026069984
127	0x3ddf25fd	0.108959176
128	0x3c9be553	0.019030249
129	0x3d27b25e	0.04094159
130	0x3bf73632	0.0075443024
131	0x3c2fb9f9	0.010725492
132	0x3d2939f1	0.041315023
133	0x3d1ddec1	0.038542513
134	0x3d0e884d	0.034797955
135	0x3d8d8b66	0.06911354
136	0x3d13b17a	0.036057927
137	0x3cf2152d	0.029551113
138	0xbb0c7aa0	-0.0021435395
139	0x3d54d0b6	0.051956855
140	0x3d0e1fa7	0.034698155
141	0x3d816f10	0.063200116
142	0x3be72070	0.0070534274
143	0xbc5e44ca	-0.013566205
144	0xbf07356b	-0.52815884
145	0x3cf9311b	0.030418923
146	0x3c2c57db	0.010518993
147	0x3d15b7a9	0.036552105
148	0x3ce103d3	0.027467644
149	0x3d1ac9a6	0.037789963
150	0x3d211308	0.03932479
151	0x3c96c23e	0.018403169
152	0x3cd4665f	0.02592772
153	0x3d5181e5	0.051149268
154	0x3d223f47	0.039611127
155	0x3d2a8d50	0.041638672
156	0x3d6f8a7d	0.058481682
157	0xbaa3a0c5	-0.0012483826
158	0x3d0b3ea2	0.03399528
159	0x3cae9dc0	0.021315455
160	0x3d17aefb	0.03703211
161	0x3c93a416	0.018022578
162	0x3cac1077	0.021003945
163	0x3d1550c8	0.036453992
164	0x3ccbf975	0.024899224
165	0x3d36f361	0.044665698
166	0xbd86cc2e	-0.06581913
167	0x3c9381d7	0.018006248
168	0x3d3dcd2c	0.046338245
169	0x3e1b7024	0.15179497
170	0x3d07be7e	0.033140652
171	0x3d8cca7b	0.068745576
172	0x3ca9433b	0.02066194
173	0x3b07a784	0.0020699212
174	0x3d027219	0.031847093
175	0x3d081cbf	0.03323054
176	0x3ce2d3ad	0.027688826
177	0x3d387dbb	0.04504178
178	0x3d8a1b8d	0.06743536
179	0x3d9d24d8	0.07673043
180	0x3d18f651	0.03734428
181	0xbd6bc91b	-0.057564836
182	0x3dcdd9d6	0.100513145
183	0x3cc9d978	0.02463983
184	0x3d0ee2b4	0.03488417
185	0x3cb678d1	0.022274407
186	0x3d0eae77	0.03483435
187	0x3d3dcdb8	0.046338767
188	0x3cc83739	0.024440395
189	0x3d124237	0.03570768
190	0x3d5e1b67	0.05422535
191	0x3d1b99e4	0.03798856
192	0x3d7355fd	0.059408177
193	0x3d5df560	0.054189086
194	0x3d0df92d	0.03466146
195	0xbf0665b8	-0.5249896
196	0x3cca19a1	0.024670424
197	0xbd805312	-0.062658444
198	0x3d4627f4	0.048377946
199	0x3d10aacc	0.035319135
200	0x3d31615f	0.04330575
201	0x3da36424	0.07978085
202	0x3d67fc0d	0.05663686
203	0x3d6c0729	0.057624016
204	0x3e0e54f2	0.13899592
205	0x3cc1f444	0.023676045
206	0x3d28a9f6	0.041177712
207	0x3d11f65c	0.035635337
208	0x3d9edfa9	0.077575035
209	0x3ceefe87	0.029174102
210	0xbf0803a8	-0.5313058
211	0x3d2c61f4	0.042085603
212	0x3d96920c	0.07352075
213	0x3cec722d	0.028863037
214	0x3ccccb80	0.02499938
215	0x3d563a88	0.052301913
216	0x3d759c25	0.059963364
217	0x3e199d50	0.15001416
218	0x3cadf6ec	0.021235906
219	0x3d04de4e	0.03243857
220	0x3d2b3fbe	0.041808836
221	0x3ce84f62	0.028358165
222	0x3de11f1a	0.1099226
223	0x3d05c393	0.032657217
224	0x3cef12cd	0.02918377
225	0x3d9e77b5	0.07737676
226	0x3ca80b25	0.020513127
227	0x3d333c14	0.043758467
228	0x3d1a7c1d	0.03771602
229	0x3d435c78	0.047695607
230	0x3d033ead	0.032042194
231	0x3d1508ac	0.036385223
232	0x3ab7d9f3	0.0014026746
233	0x3d5ff07a	0.054672696
234	0x3c690d36	0.014224341
235	0x3ce2af38	0.027671441
236	0x3d35a7e0	0.04434955
237	0x3c9298d6	0.017895143
238	0x3c780f0f	0.015140309
239	0x3d188dd6	0.03724464
240	0x3b7618aa	0.0037551322
241	0x3d3691d6	0.044572674
242	0xbf03c99f	-0.51479524
243	0x3c75209a	0.014961386
244	0x3d201c13	0.039089274
245	0x3d79e1ae	0.06100624
246	0x3bb5ea2d	0.0055515976
247	0x3c524729	0.012834349
248	0x3c08916e	0.008335454
249	0xbc154d35	-0.009112646
250	0x3d7c6d07	0.061627414
251	0x3cd039ef	0.02541825
252	0x3d3675ea	0.044546045
253	0x3d2bb06b	0.041916292
254	0x3da18fc9	0.07888753
255	0x3bed6c82	0.007245601

net.4.weight f4 [256, 256]
0	0xad8f3871	-1.6282283e-11
1	0xb70cde9d	-8.3964815e-06
2	0xb3945d5d	-6.90877e-08
3	0xa43a68fe	-4.0421253e-17
4	0xb73b822c	-1.1176377e-05
5	0xa683795a	-9.122843e-16
6	0xb1bcf88a	-5.4997757e-09
7	0xa6cda178	-1.4268499e-15
8	0xa8759942	-1.36334645e-14
9	0xa514e197	-1.2913387e-16
10	0xb4020705	-1.2109747e-07
11	0xa8b26546	-1.980589e-14
12	0xafa56f6e	-3.00925e-10
13	0x3a46ad24	0.00075789005
14	0xb18951d7	-3.996529e-09
15	0xa9246c02	-3.6508997e-14
16	0xabf8958e	-1.766297e-12
17	0x39de6470	0.0004241797
18	0xa2c6b922	-5.3864025e-18
19	0xb1f42389	-7.1053745e-09
20	0xab51b16d	-7.4497944e-13
21	0xb467c101	-2.1583766e-07
22	0x3852e3c6	5.0280032e-05
23	0xb5db8e45	-1.6358177e-06
24	0x3b868025	0.0041046315
25	0xb9ddae8f	-0.0004228246
26	0x394d3952	0.00019571677
27	0x945f8ea5	-1.12867545e-26
28	0xaa5a4788	-1.9387107e-13
29	0x37b73c1c	2.184329e-05
30	0xa423c133	-3.5508637e-17
31	0xa1dfbff0	-1.5161873e-18
32	0xb17884ac	-3.6164165e-09
33	0xb7201664	-9.541956e-06
34	0xb1016ff3	-1.8835606e-09
35	0xa3fc831b	-2.737742e-17
36	0x3a68d768	0.00088821957
37	0xa4b48d37	-7.8301784e-17
38	0xb027cd64	-6.1046124e-10
39	0x361def1b	2.3534e-06
40	0x3a86ee34	0.0010294379
41	0x3a734673	0.0009280212
42	0xb08556a9	-9.701654e-10
43	0xa4bdcd2f	-8.231328e-17
44	0xa86eae88	-1.32494994e-14
45	0xad7045d3	-1.3657925e-11
46	0xae660e96	-5.23089e-11
47	0xac847e5c	-3.7656944e-12
48	0x3a7e6dad	0.0009705674
49	0xb04b5590	-7.397256e-10
50	0xb7edb5c9	-2.8337252e-05
51	0x3c1b2e13	0.009471434
52	0xa4b3bada	-7.7945414e-17
53	0xb10f7ea0	-2.0881217e-09
54	0xbaed20f1	-0.0018091482
55	0xa2af29c1	-4.7478054e-18
56	0x37a880f7	2.0087215e-05
57	0xb53569f8	-6.758196e-07
58	0xa688c5f8	-9.490555e-16
59	0x3a2e9131	0.00066592084
60	0xb114d779	-2.1659317e-09
61	0xb21b0d0d	-9.025155e-09
62	0x37d81fbd	2.5763986e-05
63	0x379b2c70	1.8498133e-05
64	0x39436594	0.0001863449
65	0xb50a4919	-5.151538e-07
66	0xb9095260	-0.00013096025
67	0xaa3d9247	-1.6837322e-13
68	0xb2de5eaa	-2.588725e-08
69	0x382ec61a	4.166933e-05
70	0xb9261fa5	-0.00015842782
71	0xb486f465	-2.5137265e-07
72	0xb08fe213	-1.0468874e-09
73	0xa88280b4	-1.4488715e-14
74	0xa675404a	-8.508858e-16
75	0xabc02a9f	-1.365425e-12
76	0xb331cb5a	-4.139597e-08
77	0xa901f995	-2.8860232e-14
78	0xab413fb7	-6.8655796e-13
79	0xa98d014c	-6.261883e-14
80	0xb09a62b1	-1.1233025e-09
81	0xa3e17849	-2.4445492e-17
82	0xb15e3ffb	-3.234162e-09
83	0xb3933a45	-6.85582e-08
84	0xa389dd38	-1.494726e-17
85	0xa588ebf8	-2.3752138e-16
86	0xabd8934c	-1.5388606e-12
87	0xaa8fa5d1	-2.551696e-13
88	0xab24465c	-5.836215e-13
89	0xa42f82e8	-3.8057958e-17
90	0x381c824c	3.7314647e-05
91	0xab178a0f	-5.383757e-13
92	0xa926d4fa	-3.7044132e-14
93	0xae5ee89a	-5.0683548e-11
94	0xb343c39d	-4.5579885e-08
95	0xac826f6c	-3.7071925e-12
96	0xb61d164a	-2.3407797e-06
97	0x390d2879	0.00013461885
98	0xa64d7ed7	-7.129556e-16
99	0xb52425ff	-6.115005e-07
100	0xba2d3778	-0.0006607692
101	0xba2c2013	-0.0006566059
102	0xa8a1be3b	-1.795709e-14
103	0xb106be82	-1.9607858e-09
104	0xab55b431	-7.5922867e-13
105	0xabeeb0a3	-1.6959944e-12
106	0x9d044c33	-1.7509449e-21
107	0x9fc35d68	-8.274024e-20
108	0x9cda24c9	-1.4435539e-21
109	0xabba6840	-1.324503e-12
110	0xaa15954b	-1.3285655e-13
111	0x342c7488	1.6061142e-07
112	0x3b575139	0.003285481
113	0xb7bc8aab	-2.2475919e-05
114	0x37fe23e7	3.0295878e-05
115	0xb4b6c994	-3.404681e-07
116	0xa30802a3	-7.373133e-18
117	0x365cc4ae	3.2897037e-06
118	0xac9c99c6	-4.450859e-12
119	0x3a1bca3b	0.00059429154
120	0xb38031ea	-5.969544e-08
121	0xa4817e02	-5.61583e-17
122	0x3c8af603	0.01696301
123	0xae2d7d0e	-3.9446717e-11
124	0xa57b5591	-2.179977e-16
125	0x39284a26	0.00016049351
126	0xb191c184	-4.2420556e-09
127	0xae532729	-4.8010627e-11
128	0x338e6635	6.6309816e-08
129	0xa8d79147	-2.3932799e-14
130	0xaf8b2d96	-2.5316343e-10
131	0xb156c9b5	-3.1255756e-09
132	0xaa5fc688	-1.9875258e-13
133	0x362d8a46	2.5859495e-06
134	0xb69a95ec	-4.607011e-06
135	0x383a0cb8	4.43577e-05
136	0x3b89a280	0.0042002797
137	0xaa270756	-1.4835125e-13
138	0x3a8f26eb	0.0010921633
139	0xa8ccec53	-2.2751039e-14
140	0xb48f1c39	-2.665636e-07
141	0xb9424e8d	-0.00018530544
142	0xb5750f9c	-9.1292327e-07
143	0x3814708d	3.539077e-05
144	0x38525a14	5.0151793e-05
145	0xa89bf22e	-1.7313486e-14
146	0x3a36d37e	0.0006974264
147	0x39519c7d	0.0001999009
148	0x383deb0e	4.5280023e-05
149	0x3bb5d304	0.0055488367
150	0xaf660928	-2.0921631e-10
151	0x35eea213	1.7779552e-06
152	0xabfae62c	-1.7827454e-12
153	0xa31c4fd2	-8.4736796e-18
154	0xa91f1800	-3.532591e-14
155	0xb9028a48	-0.0001244928
156	0xa9fc73de	-1.1211148e-13
157	0xb2718d68	-1.4060198e-08
158	0xa8864930	-1.4908729e-14
159	0xaa5d5115	-1.9656874e-13
160	0x9feaa4f1	-9.937573e-20
161	0xae58d467	-4.9301365e-11
162	0xb53518a3	-6.7463606e-07
163	0xa7592d23	-3.0139268e-15
164	0xab62ea29	-8.061629e-13
165	0xa7d49456	-5.9002646e-15
166	0xb694b553	-4.4318526e-06
167	0xa646365c	-6.876872e-16
168	0xacb885d5	-5.244453e-12
169	0xb08b92b9	-1.0155282e-09
170	0xaf805439	-2.3342908e-10
171	0xb1f81d5a	-7.221087e-09
172	0xb08e85a9	-1.0369848e-09
173	0x3b146e69	0.0022648817
174	0x387e1e2f	6.058643e-05
175	0xb7d708fa	-2.5634177e-05
176	0xb1062120	-1.9518396e-09
177	0x0fcd450d	2.0241158e-29
178	0x3acdbb9c	0.0015696171
179	0xaca6bf60	-4.7392507e-12
180	0xb3f30daf	-1.1318058e-07
181	0x380b2c5f	3.3181506e-05
182	0xad8dcf75	-1.6121974e-11
183	0xabc57a48	-1.4031632e-12
184	0x3b0db87f	0.002162486
185	0xae79ea24	-5.6824004e-11
186	0xafcaf166	-3.691511e-10
187	0x38f6914c	0.00011757258
188	0x38342f0d	4.2959164e-05
189	0xac602101	-3.1850635e-12
190	0xab6174f4	-8.0098363e-13
191	0xb08e73fc	-1.0364825e-09
192	0x397313a0	0.00023181597
193	0x3b88e7cc	0.004178023
194	0xae9c952c	-7.120557e-11
195	0x39afe526	0.0003354933
196	0xa485b10c	-5.7979485e-17
197	0xb4be8e4f	-3.54938e-07
198	0xa14adf69	-6.8735943e-19
199	0xb975f944	-0.0002345788
200	0xb90be67e	-0.00013341938
201	0xaaa2e6d6	-2.8937155e-13
202	0xb43c994a	-1.756463e-07
203	0xaa3eedea	-1.6957933e-13
204	0xb33ec1af	-4.4413976e-08
205	0xb34ac2b4	-4.720887e-08
206	0x370a57ce	8.245885e-06
207	0x38a2c07f	7.760617e-05
208	0xac90bace	-4.1134656e-12
209	0x9a9a86e2	-6.391082e-23
210	0x39ba8641	0.00035576712
211	0xb40e2d7a	-1.3241325e-07
212	0xad498969	-1.1456038e-11
213	0x3a00272a	0.00048886484
214	0xb4c7834f	-3.7162178e-07
215	0xae8c3e7c	-6.3775624e-11
216	0xad01918c	-7.365119e-12
217	0xb0f8f819	-1.8114888e-09
218	0xb3942266	-6.898044e-08
219	0x16a3ec7c	2.6483313e-25
220	0xaf088205	-1.241532e-10
221	0xa7a2b6b0	-4.5162103e-15
222	0xb05e8c58	-8.096257e-10
223	0xb48c9c85	-2.6190915e-07
224	0xa3471200	-1.0791623e-17
225	0xadd504f0	-2.4217489e-11
226	0xad19f37c	-8.7511075e-12
227	0xa39c012f	-1.6914055e-17
228	0xa955ca5a	-4.7471013e-14
229	0xb213b95e	-8.598674e-09
230	0xa31fe67d	-8.668215e-18
231	0x371ac092	9.223952e-06
232	0xab74b999	-8.694378e-13
233	0x3826a2aa	3.9728977e-05
234	0xafafb020	-3.195746e-10
235	0xa9cf1973	-9.1970614e-14
236	0xa56e6030	-2.0675799e-16
237	0xab91a045	-1.0347353e-12
238	0xb51b9102	-5.7953014e-07
239	0xa51f7052	-1.3829107e-16
240	0x1d701aac	3.1777525e-21
241	0xb604456e	-1.9709946e-06
242	0x3689635e	4.094486e-06
243	0xaa8848dc	-2.420901e-13
244	0x9fc8400b	-8.4809245e-20
245	0x381e4eaa	3.7743397e-05
246	0xac3bf632	-2.6710964e-12
247	0x381043b7	3.439534e-05
248	0x386e9614	5.6883393e-05
249	0x380136d5	3.0807063e-05
250	0xaff9fc41	-4.5472073e-10
251	0xb74a89f6	-1.207226e-05
252	0xb5971d6f	-1.1258943e-06
253	0xa55f39db	-1.9361769e-16
254	0xb12e59bb	-2.5371338e-09
255	0xb4438e3c	-1.8212535e-07

net.4.bias f4 [256]
0	0xbd5a079b	-0.05322991
1	0xbd65d931	-0.056115333
2	0xbd68d255	-0.056841213
3	0xbd622c4b	-0.055218022
4	0xbd38408c	-0.04498343
5	0xbdcd56d8	-0.1002633
6	0xbd9988ba	-0.07496782
7	0xbd680387	-0.05664399
8	0xbd809182	-0.062777534
9	0xbd921081	-0.07132054
10	0xbdc3232e	-0.09528194
11	0xbdae37b7	-0.085067205
12	0xb61e75f0	-2.3612483e-06
13	0xbd559e97	-0.052153196
14	0xbdca180b	-0.09867867
15	0xbd599aae	-0.05312603
16	0xbdf9fb41	-0.12206126
17	0xbdb5e107	-0.08880811
18	0xbd387647	-0.045034673
19	0xbe011864	-0.1260696
20	0xbd73143e	-0.059345476
21	0xbde64504	-0.112436324
22	0xbda74d93	-0.08169093
23	0xbdcef536	-0.10105364
24	0xbdb4fb41	-0.088369854
25	0xbd80346c	-0.06259999
26	0xbd894a86	-0.06703667
27	0xbd65f476	-0.05614134
28	0xbd5986e8	-0.053107172
29	0xbd90f8bb	-0.070786916
30	0xbd6278db	-0.055291038
31	0xbdb076c1	-0.086164005
32	0xbd045b8c	-0.03231387
33	0xbd7c9b45	-0.061671514
34	0xbd05680d	-0.032569934
35	0xbddbea31	-0.10738028
36	0xbb3fd287	-0.0029269771
37	0xbd6a9efb	-0.05728052
38	0xbe242739	-0.16030587
39	0xbdc0b2f4	-0.094091326
40	0xbd9deff4	-0.07711783
41	0xbdaed5ff	-0.0853691
42	0xbd353b62	-0.044246085
43	0xbdf75f71	-0.12078751
44	0xbd0d4e2b	-0.034498375
45	0xbdc368d8	-0.09541482
46	0xbd8c7d44	-0.0685983
47	0xbd791d22	-0.0608188
48	0xbd2d91ff	-0.04237556
49	0xbd9149a0	-0.07094121
50	0xbe0a2bde	-0.13493297
51	0xbe0e481d	-0.13894697
52	0xbd97eda2	-0.07418372
53	0xbb984c60	-0.0046477765
54	0xbde37032	-0.11105384
55	0xbdbe7ecd	-0.09301529
56	0xbd6fe92e	-0.058571987
57	0x3c0e77f9	0.008695596
58	0xbd6be222	-0.057588704
59	0xb307d05a	-3.162163e-08
60	0xbd2069ea	-0.039163508
61	0xbdf5a43f	-0.11994218
62	0xbdb0348b	-0.08603772
63	0xbd50c837	-0.05097219
64	0xbddd1c31	-0.10796393
65	0xbdea8120	-0.1145041
66	0xbdb80b8f	-0.089865796
67	0xbd835e0d	-0.06414423
68	0xbd55ad29	-0.05216709
69	0xbdca9b62	-0.09892918
70	0xbd92b3f5	-0.0716323
71	0xbdf474d0	-0.11936343
72	0xbdedd2eb	-0.11612495
73	0xbdb2a01c	-0.08721945
74	0xbdada0ab	-0.084779106
75	0xbc626598	-0.013818167
76	0xbe004bef	-0.12528966
77	0xbdef0d7f	-0.11672496
78	0xbcab2784	-0.020892866
79	0xbd49f60f	-0.049306925
80	0xbded20b9	-0.11578507
81	0xbd93e3f1	-0.07221211
82	0xbdb49b2a	-0.08818658
83	0xbc60f4af	-0.013730212
84	0xbd823ce5	-0.06359271
85	0xbd9fdbfb	-0.0780563
86	0xbd95f182	-0.073214546
87	0xbdced439	-0.10099072
88	0xbd9bc600	-0.07606125
89	0xbdeb28d9	-0.114824004
90	0xbd85c931	-0.06532515
91	0xbe04093d	-0.12894149
92	0xbc369e6d	-0.01114617
93	0xbdd8837a	-0.10571952
94	0xbd5d4f6e	-0.05403083
95	0xbdadffed	-0.084960796
96	0xbd91cc44	-0.07119039
97	0xbd8aa0c7	-0.06768947
98	0xbc174c34	-0.009234477
99	0xbdb2aaa2	-0.08723952
100	0xbe0219af	-0.1270511
101	0xb30f6004	-3.3382108e-08
102	0xbdb2ee69	-0.087368794
103	0xbdac4c91	-0.084130414
104	0xbdaa39b1	-0.08311785
105	0xbcab11b8	-0.020882472
106	0xbd3ba7ae	-0.04581421
107	0xbdbc0290	-0.09180176
108	0xbe405a7a	-0.18784514
109	0xbd3d7cae	-0.046261482
110	0xbdcdfd32	-0.10058059
111	0xbe0cb934	-0.13742524
112	0xbd513847	-0.05107906
113	0xbdc3165b	-0.09525748
114	0xbdbabb8c	-0.09117803
115	0xbd9d2aea	-0.07674201
116	0xbcaa163f	-0.02076256
117	0xbd445ae9	-0.04793826
118	0xbd2a2f31	-0.04154891
119	0xbdfc6746	-0.12324385
120	0xbd9e070a	-0.07716186
121	0xbe22efb9	-0.1591176
122	0xbda0bd55	-0.07848612
123	0xbd834db6	-0.064113066
124	0xbdaa7fe0	-0.083251715
125	0xbd9c3af0	-0.07628429
126	0xbe19ba67	-0.15012513
127	0xbd6cba07	-0.057794597
128	0xbc878299	-0.016541766
129	0xbd7aaa2b	-0.06119744
130	0xbca5fa0e	-0.020260837
131	0xbe1564cb	-0.1458923
132	0xbdc8b77a	-0.098006204
133	0xbdbcc6f5	-0.092176355
134	0xbd5a3d8f	-0.053281363
135	0xbdbf3016	-0.093353435
136	0xbd7fd7db	-0.062461715
137	0xbdd51b46	-0.104055926
138	0xbda359e2	-0.07976128
139	0xbda47165	-0.08029441
140	0xbd67a22a	-0.056551136
141	0xbdc60531	-0.09668959
142	0xbda7e8e1	-0.08198715
143	0xbdecd490	-0.115639806
144	0xbe0bd2ad	-0.13654585
145	0xbd9dcf6d	-0.07705579
146	0xbe48a10b	-0.19592683
147	0xbda52256	-0.0806319
148	0xbda7c521	-0.08191896
149	0xbd8cd935	-0.068773665
150	0xb510edfd	-5.39905e-07
151	0xbda16e99	-0.07882423
152	0xbd21d3e8	-0.03950873
153	0xbda1661b	-0.07880803
154	0xbd7c5861	-0.061607722
155	0xbe3962da	-0.18104115
156	0xbdaec9e3	-0.085346006
157	0xbe00aa30	-0.12564921
158	0xbc50d0f6	-0.012745133
159	0xbbe7eb43	-0.007077606
160	0xbd947e2c	-0.07250628
161	0xb8857357	-6.363418e-05
162	0xbd4e26b7	-0.05032989
163	0xbdef21a2	-0.11676337
164	0xbd9f4a24	-0.07777813
165	0xbdfd09e3	-0.12355401
166	0xbd89c4d0	-0.06726992
167	0xbe063974	-0.13107854
168	0xbdd75dc0	-0.10515928
169	0xbd057a79	-0.032587502
170	0xbdb2428d	-0.087041
171	0xbdaf02bf	-0.08545446
172	0xbd9081a8	-0.0705598
173	0xbdd89841	-0.10575915
174	0xbd772dc0	-0.060346365
175	0xbdab0775	-0.08351032
176	0xbd4a7404	-0.049427047
177	0xbda9c121	-0.082887895
178	0xbd4c6a25	-0.049905915
179	0xbe0f025f	-0.13965748
180	0xbc0308eb	-0.007997732
181	0xbdd39e2f	-0.103329055
182	0xbe3a67a3	-0.18203597
183	0xbd90c975	-0.07069675
184	0xbd2868b4	-0.041115478
185	0xbdd370ba	-0.10324235
186	0xbdbffe29	-0.09374649
187	0xbd663df3	-0.056211423
188	0xbdee938f	-0.11649238
189	0xbc113e4e	-0.008864952
190	0xbd15297c	-0.036416516
191	0xbc0e3dc8	-0.008681722
192	0xbdfd6da2	-0.123744264
193	0xbdeb34ad	-0.114846565
194	0xbdbf7f7b	-0.09350487
195	0xbdc18f3a	-0.094511464
196	0xbd86cff9	-0.065826364
197	0xbd64c6eb	-0.055853765
198	0xbd7da322	-0.061923154
199	0xbd886d7b	-0.06661507
200	0xbdde1931	-0.10844649
201	0xbdd11782	-0.10209562
202	0xbdebe8f0	-0.11519039
203	0xbda9d2e5	-0.08292178
204	0xbdd5c64b	-0.10438212
205	0xbdb0cc39	-0.086327024
206	0xbde56a8e	-0.11201964
207	0xbe066436	-0.13124165
208	0xbdd2caaf	-0.10292565
209	0xbdcd1872	-0.10014428
210	0xbd39798e	-0.04528194
211	0xbe32618e	-0.17420027
212	0xbe288c09	-0.16459669
213	0xbccd9bd7	-0.025098724
214	0xbd24fea1	-0.040281896
215	0xbe08d95a	-0.13364163
216	0xbda43543	-0.08017971
217	0xbda1a3a2	-0.078925386
218	0xbdfd991e	-0.123827204
219	0xbddf67a1	-0.109084375
220	0xbd7dc70f	-0.061957415
221	0xbde41dc7	-0.11138492
222	0xbe309d78	-0.1724757
223	0xbdacbac6	-0.08434062
224	0xbde4f271	-0.111790545
225	0xbe1cd5a4	-0.15315872
226	0x3bbbbd84	0.005729379
227	0xbdf6c6d9	-0.12049646
228	0xbdd3cdb6	-0.103419706
229	0xbbe04b7a	-0.006844935
230	0xbd033374	-0.03203149
231	0xbc4d4337	-0.012528232
232	0xbd6705ca	-0.056402005
233	0xbda442d8	-0.08020562
234	0xbdc5f371	-0.096655734
235	0xbe25dad2	-0.16196755
236	0xbd159d75	-0.036527116
237	0xbdaabf32	-0.08337249
238	0xbdddc058	-0.10827702
239	0xbd1f59f5	-0.03890415
240	0xbe36a767	-0.17837296
241	0xbdcb4c7d	-0.09926698
242	0xbdd2d17b	-0.102938615
243	0xbd359c9d	-0.04433881
244	0xbd833d93	-0.06408229
245	0xbd3d117e	-0.04615926
246	0xbd9fbe29	-0.07799942
247	0xbdaff5d9	-0.085918136
248	0xbd928c77	-0.07155698
249	0xbcfd0853	-0.030887758
250	0xbd60c483	-0.05487491
251	0xbe05c696	-0.13064036
252	0xbe28ba04	-0.1647721
253	0xbd9ee6ee	-0.0775889
254	0xbd17a21f	-0.037019845
255	0xbe12ec31	-0.14347912

net.6.weight f4 [256]
0	0x3eb8cacd	0.36092225
1	0x3ea736ce	0.32659
2	0x3e90fbf2	0.2831722
3	0x3ea23818	0.3168342
4	0x3e8e9683	0.27849206
5	0x3ed06c87	0.407078
6	0x3ea6a1f6	0.3254544
7	0x3ea75ac0	0.32686424
8	0x3e81a313	0.25319728
9	0x3e93b9b1	0.2885261
10	0x3e6dcb06	0.23221979
11	0x3e8b6e38	0.27232528
12	0x3ec90086	0.39258212
13	0x3ecfcea2	0.40587336
14	0x3e8a41e6	0.27003402
15	0x3e901897	0.2814376
16	0x3ef2abbd	0.4739665
17	0x3ecdd7cf	0.4020371
18	0x3edbc923	0.42926893
19	0x3e83fbe9	0.2577813
20	0x3e8953c1	0.26821712
21	0x3ef0a4a7	0.4700062
22	0x3e95b6c4	0.29241002
23	0x3ea122e7	0.3147194
24	0x3ec716e0	0.3888464
25	0x3ebf8880	0.3740883
26	0x3e7da908	0.24771512
27	0x3e543b78	0.2072581
28	0x3e91fe1f	0.28514192
29	0x3e6ff678	0.23433864
30	0x3e6e772e	0.23287651
31	0x3edd549f	0.43228623
32	0x3e8c11ea	0.27357417
33	0x3e743973	0.2385004
34	0x3e8c202e	0.273683
35	0x3ede0717	0.43364784
36	0x3edd8237	0.4326341
37	0x3e8c3ca3	0.27390012
38	0x3ef249c6	0.4732191
39	0x3e9082df	0.28224847
40	0x3e2fca7f	0.1716709
41	0x3e96e781	0.29473498
42	0x3edfe5f3	0.43730125
43	0x3ee248eb	0.44196257
44	0x3e8e2d9b	0.2776917
45	0x3e907261	0.28212264
46	0x3e7fcd73	0.24980716
47	0x3ee7c02a	0.45263797
48	0x3e9a1d43	0.3010045
49	0x3e7e2f62	0.24822763
50	0x3ee2b723	0.44280347
51	0x3efdf008	0.49597192
52	0x3e80a332	0.25124508
53	0x3e4feb25	0.20304544
54	0x3eee29de	0.46516317
55	0x3edb1375	0.42788282
56	0x3ec6304d	0.38708726
57	0x3d3f36ec	0.046683237
58	0x3e7fb55f	0.24971531
59	0x3ed0096c	0.40632188
60	0x3eda40c8	0.4262755
61	0x3ee93b48	0.4555304
62	0x3e8f35a4	0.27970612
63	0x3ed90e77	0.42393848
64	0x3ea6e46b	0.32596144
65	0x3e8e6b68	0.2781632
66	0x3e991a92	0.29903084
67	0xbe9f01dc	-0.31056106
68	0x3e720b93	0.23637228
69	0x3e9908eb	0.29889616
70	0x3edb31d2	0.42811447
71	0x3f05904c	0.52173305
72	0x3eee3eb3	0.4653221
73	0x3ebfb5ad	0.37443295
74	0x3eac91da	0.33705026
75	0x3e9a4866	0.3013336
76	0x3ea4f199	0.32215574
77	0x3e58afd6	0.21160826
78	0x3ea8566c	0.32878435
79	0x3ec89f02	0.39183813
80	0x3ecbbfa8	0.3979466
81	0x3e88db67	0.2672989
82	0x3e8b04ce	0.27152103
83	0x3e9f8ac8	0.3116057
84	0x3e8632fa	0.26210767
85	0x3e580eb7	0.21099363
86	0x3ea258fe	0.3170852
87	0x3ee069b9	0.4383066
88	0x3ea8f9b7	0.33003017
89	0x3e700eae	0.234431
90	0x3e63a24f	0.22229885
91	0x3ee1bc90	0.44089174
92	0x3e9f7dfd	0.3115081
93	0x3eb2dedc	0.34935653
94	0x3e5f771b	0.21822779
95	0x3e7ff68d	0.24996395
96	0x3eb87ce8	0.36032796
97	0x3e8e81b0	0.2783332
98	0x3ed95d60	0.42454052
99	0x3e7f1130	0.249089
100	0x3ec0c402	0.37649542
101	0x3ed41997	0.41425774
102	0x3e8fa0f4	0.28052485
103	0x3e716601	0.23574068
104	0x3ece7f71	0.40331605
105	0x3df56200	0.11981583
106	0x3e902c10	0.28158617
107	0x3ebcbb8a	0.3686183
108	0x3ec8dc58	0.3923061
109	0x3e9ca163	0.30591878
110	0x3eee86d8	0.46587253
111	0x3efbbd59	0.49167898
112	0x3ea2e0fb	0.3181227
113	0x3ef5416e	0.4790148
114	0x3ed10848	0.4082663
115	0x3e958802	0.29205328
116	0x3ea1cade	0.31600088
117	0x3e7035c8	0.23458016
118	0x3e91d862	0.284854
119	0x3ec82034	0.3908707
120	0x3e901e46	0.28148097
121	0x3f0812ed	0.5315388
122	0x3ea7139b	0.32632145
123	0x3ec132ab	0.3773397
124	0x3eef5b24	0.46749222
125	0x3e93269c	0.28740394
126	0x3ef06dd0	0.4695878
127	0x3e6a249d	0.2286553
128	0x3e71fa59	0.23630656
129	0x3e7b5724	0.2454496
130	0x3ef9c99a	0.48786622
131	0x3edfe8b3	0.43732223
132	0x3efb0133	0.49024352
133	0x3eeac327	0.45852014
134	0x3e922504	0.28543866
135	0x3ef12ee1	0.47106078
136	0x3e8ba41b	0.2727364
137	0x3ea1d65c	0.31608856
138	0x3eb9cc04	0.36288464
139	0x3e9f6b1c	0.31136405
140	0x3eb3058c	0.3496517
141	0x3ed4ec66	0.41586608
142	0x3e941032	0.28918606
143	0x3e9a54a9	0.30142716
144	0x3edf3516	0.4359519
145	0x3ead6f25	0.3387386
146	0x3ef959a7	0.48701212
147	0x3e955404	0.2916566
148	0x3e989c89	0.29806927
149	0x3e89665d	0.2683591
150	0x3ee1a2ba	0.44069463
151	0x3ea03deb	0.3129724
152	0x3e96f994	0.29487288
153	0x3e8c8c12	0.27450615
154	0x3e929477	0.28628895
155	0x3ed1cd66	0.4097702
156	0x3e8570cc	0.2606262
157	0x3ed6016a	0.41797954
158	0x3e969cb9	0.29416445
159	0x3e046f18	0.12933004
160	0x3e6f06ab	0.23342387
161	0x3edc8724	0.43071854
162	0x3e93fa04	0.28901684
163	0x3e585378	0.21125591
164	0x3ea762ed	0.32692662
165	0x3eec457b	0.4614676
166	0x3ead630c	0.3386463
167	0x3ed8764a	0.42277747
168	0x3eac1c0d	0.3361515
169	0x3eadfad9	0.33980444
170	0x3ed8c180	0.4233513
171	0x3ea109d2	0.31452805
172	0x3ea8af26	0.32946128
173	0x3ecfbaf9	0.40572336
174	0x3e84020e	0.25782818
175	0x3e804c01	0.25057986
176	0x3e9efb3e	0.31051058
177	0x3e608345	0.21925075
178	0x3ed28a1c	0.41120994
179	0x3eaa443c	0.33255184
180	0x3e036b95	0.12834008
181	0x3eb201f0	0.34767103
182	0x3f0327fc	0.51232886
183	0x3e973688	0.29533792
184	0x3e97312f	0.29529712
185	0x3edaffdb	0.42773327
186	0x3ed8f6a0	0.4237566
187	0x3e8d1e5d	0.27562228
188	0x3eb280d0	0.348639
189	0x3e8c5fb6	0.27416772
190	0x3e9880ca	0.29785758
191	0x3df4af62	0.11947514
192	0x3ef1dcf6	0.47238892
193	0x3ee28d87	0.44248602
194	0x3e9f3b2c	0.31099832
195	0x3e9630e4	0.29334176
196	0x3e791e5c	0.24327987
197	0x3e814454	0.25247443
198	0x3ecd7bee	0.40133613
199	0x3ea851c7	0.3287489
200	0x3edb8eac	0.42882288
201	0x3ec37b21	0.38179877
202	0x3ea39f39	0.31957415
203	0x3ec4976e	0.38396782
204	0x3e95a7bc	0.29229534
205	0x3e90e221	0.28297523
206	0x3edf392d	0.4359831
207	0x3eca131e	0.3946771
208	0x3eb1e9b9	0.3474863
209	0x3ea7351d	0.3265771
210	0x3e2510e6	0.16119727
211	0x3efd7d5e	0.4950971
212	0x3eb85aed	0.3600687
213	0x3e89d200	0.2691803
214	0x3e94c774	0.2905842
215	0x3efede19	0.49778822
216	0x3eb9c83a	0.36285573
217	0x3e8f8d9c	0.28037727
218	0x3e7f42eb	0.24927871
219	0x3ee6760c	0.45011938
220	0x3e9c4f84	0.30529416
221	0x3ee90f32	0.45519406
222	0x3eb1df81	0.34740832
223	0x3e9ee0f4	0.31031
224	0x3ecf0ddf	0.4044027
225	0x3ee083cb	0.4385055
226	0x3e8eff2f	0.27929065
227	0x3eccb610	0.39982653
228	0x3e9cf80b	0.30657992
229	0x3edd43b4	0.43215716
230	0x3ea4b6e0	0.32170773
231	0x3e9af6fa	0.30266553
232	0x3e7e95ef	0.24861883
233	0x3e99cc51	0.30038694
234	0x3e60a98d	0.21939678
235	0x3ee7ee8c	0.45299184
236	0x3ee42634	0.44560397
237	0x3e77608d	0.24157925
238	0x3e9ab49e	0.30215925
239	0x3e96fd72	0.29490238
240	0x3f090089	0.5351644
241	0x3e5d2226	0.21595058
242	0x3eb68b1e	0.35653013
243	0x3ea9b7ec	0.33148134
244	0x3ea40918	0.32038188
245	0x3e800002	0.25000006
246	0x3e71109f	0.23541497
247	0x3e3ce9ed	0.1844861
248	0x3e87e440	0.26541328
249	0x3e9d179b	0.30682072
250	0x3ec328e7	0.38117144
251	0x3eb3e010	0.35131884
252	0x3ef2408f	0.4731488
253	0x3eb81342	0.35952193
254	0x3e86d068	0.26330876
255	0x3ef0417d	0.46924964
