RL code/models/checkpoint_episode_110000.pth (torch, 801255 bytes, 40 tensors)

net.0.weight f4 [256, 22]
00000000: 8c73 31bb a878 86bd fbde 943d 5fb0 4b3e
00000010: 020d 893d 2f89 56bc 1865 d03b 6e31 1f3d
00000020: 8e2b 9a3d aebc 1fbd 7a44 6ebd 559b 0e3b
00000030: 525f fc3d fe24 2c3e 238a 883c b49f 0b3d
00000040: 471f fcbc 72aa b33d 632b 9abd 7fba 1f3d
00000050: 8bc8 25bb 75f4 85bd 9406 99bd 0e8d 4b3d
00000060: a899 2a3d b41b 79bc e9b7 053d 9c51 6b3d
00000070: 5179 7e3d a56f 233c a24c 7d3d a831 debd
00000080: 1275 e7bb 9f89 043e 82e4 833d 1c78 43bd
00000090: 33a6 343c e875 993d facd 213d f49a dd3c
000000a0: 884c 7dbd 9d31 de3d 73f7 98bd b9f6 4b3d
000000b0: 05f2 233e 1f11 193e c608 333e e91a ce3d
000000c0: cf67 9fbd 4af6 a1bd b0de dbbd 3078 f1bd
000000d0: 6b70 f6be 3edd ccbe 549a b9be c9e6 8bbe
000000e0: 8e9a 34be 7ea4 bbbd a16d ba3d 625f 913d
000000f0: e495 fa3d 6b5c f33d 18b2 f53e 7dec cb3e
00000100: e5ec 1f3e f600 143e 39fa 7d3d 056c 973d
00000110: 5186 1bbd 7d85 b8bd 0686 903c c8e7 f53b
00000120: f6bb 5f3d 77d2 99ba 409b 8ebc 06af 303d
00000130: 479c 5a3d 35ff 9dbc 147f 70bd 2b6d 5bbd
00000140: 27cd 093d 8256 aebc a54b 773d e5b1 e5bc
00000150: 159e 8e3c 5aae 30bd 1cd5 7e3d 26d0 973d
00000160: 396e b23d fb7d 80bd 0a84 e13d e18f a8bd
00000170: db65 8a3d 6a33 963d f402 37bd d16e 94bb
00000180: 2d66 e8bb 6ab1 543d 1218 ccbd 2343 f1bd
00000190: ed7e ad3d 3503 2939 8577 a93d 70d9 ba37
000001a0: 7f4a aabc b5dd a9bd ee60 e83b caa2 54bd
000001b0: 6d30 b23d 3e76 80bd 7fb6 4ebc 4758 b63d
000001c0: 438b e33d f296 56bd b8d0 613c a37b 9bbc
000001d0: 078f 903d 6732 cdbc 0444 fbbc 5122 75bd
000001e0: 5793 90bd a5b9 67be 7721 d23d 39e2 a6bd
000001f0: 286e 903c 4e1f 7aba db51 a93d 4aef 78bc
00000200: c043 fb3c 8d20 753d 2bc6 4ebc 9863 b63d
00000210: 8b3c 263d d163 023c 1dfd eabb 7ad9 383e
00000220: 00a9 4a3d fcc0 a03d f25c abbc 7248 a53d
00000230: cb47 883d 9b6b 0dbc e3d5 7f3d 7ef3 cd3c
00000240: 5a25 a83c 2c37 433e bba4 eb3c b4ce b83d
00000250: eaf4 52bd 0d9a a93d d647 88bd 7468 0d3c
00000260: dd5b 273d fb5c fa3b 49c3 913d 58e9 0cbd
00000270: cdc4 b8bc 020d a23c 6693 193d 516b e83c
00000280: fd92 a0bc 3742 0fbd ab91 033d 9ae4 febb
00000290: fcb8 42be b5a1 23bd a7d5 60bd 377e b63c
000002a0: e186 8f3d c1d7 013d 63ce ca3a 3afc fdbc
000002b0: a791 03bd fae4 fe3b 75fb 913d 5e13 0dbd
000002c0: 91d3 813d 60f6 5a3c d4bc 9ebc d2f8 e53d
000002d0: b8a0 a23c c24d a0bc dc7c 3ebd 4b2f 23ba
000002e0: 38a0 72bc 1fd2 bb3d 31c3 543d b506 1bbe
000002f0: 30cf 48bd fa42 053e f317 363d da9b a4bc
00000300: e7ed c9bc 2b29 03bc 30a0 723c 33d2 bbbd
00000310: faf0 813d fdcf 5a3c a032 e8bb d342 b4bd
00000320: 7032 ad3a 528c 74be fc31 ae3b d55e 763c
00000330: 160f 08bd 912b d4bb cc90 8dbd d0fa 9839
00000340: 4aaf e3bc cc04 f03d ba04 4cbd 012b 3ebe
00000350: fa47 6b3d c03d 38bd 353f a73c d134 75bd
00000360: c695 8d3d d58b ffb9 104a e1bb a99e b2bd
00000370: b0f7 88bd 9ea0 9f3c 87e4 d1bd 1850 20bc
00000380: 99f5 dabd 59bb a23b 7011 67bd 5a90 86ba
00000390: b606 75bd 9bf0 f3bc bfce af3d ea32 013e
000003a0: bc5b 0ebe dde5 10bc b697 a0bd 40f8 22bc
000003b0: dcc5 03bd c599 083c be07 753d a7ef f33c
000003c0: ddad 88bd 6d70 a23c 30b5 64bc 12a0 2abc
000003d0: 6a8e 9b3d 2795 35bd b4df 8c39 1a2f 3bbd
000003e0: 2f02 b93c 5cbf 9fbb 2637 ca3b 6224 2ebd
000003f0: f1ec 0bbe de83 503e eaf6 863d dd97 cbbd
-0.0027076928 -0.06565982 0.07269093 0.19891499 0.06691934 -0.013094231 0.0063597076 0.0388655
0.07527839 -0.0389983 -0.058170773 0.0021760066 0.123228684 0.16810986 0.016667431 0.03408785
-0.030776633 0.08772744 -0.075278066 0.038996216 -0.0025296535 -0.06540767 -0.07471958 0.049695067
0.041650444 -0.015204359 0.032646094 0.057450876 0.062127415 0.009975349 0.06184066 -0.10849315
-0.0070635164 0.12943123 0.06440069 -0.047721967 0.011025953 0.07493192 0.039503075 0.027051426
-0.061840564 0.10849307 -0.07469072 0.04979584 0.16010292 0.14947937 0.17483816 0.100637265
-0.07783472 -0.07908304 -0.10735834 -0.11790502 -0.48132643 -0.40012544 -0.36250556 -0.27324513
-0.17637083 -0.09162234 0.09102941 0.07098271 0.122356206 0.11882862 0.47987437 0.39828864
0.15617712 0.14453492 0.06200621 0.0739365 -0.03796989 -0.09009836 0.017642032 0.007504437
0.054622613 -0.0011735697 -0.017408013 0.043135665 0.053371694 -0.019286731 -0.05871494 -0.053570908
0.033642914 -0.021281485 0.060374875 -0.028038928 0.017409364 -0.043135025 0.062214956 0.07412748
0.087124296 -0.06274029 0.110115126 -0.08230568 0.06757709 0.07334025 -0.04468055 -0.004529812
-0.0070922584 0.051927008 -0.099655285 -0.117803834 0.08471475 0.0001611829 0.0827475 2.227418e-05
-0.020787476 -0.082942404 0.007091633 -0.05191306 0.08700643 -0.06272553 -0.012616753 0.08903556
0.111105464 -0.052390046 0.013782673 -0.018979853 0.0705853 -0.025048448 -0.03067208 -0.05984718
-0.07059353 -0.22629412 0.10260289 -0.08148617 0.017630652 -0.0009541408 0.08267566 -0.01519377
0.030671954 0.059845496 -0.012620489 0.08905715 0.040585082 0.007958368 -0.0071712867 0.1805171
0.049477577 0.07849309 -0.020918343 0.080704585 0.066543184 -0.008631612 0.062459838 0.02514052
0.020525623 0.19064015 0.028765073 0.090238005 -0.0515031 0.08281336 -0.066543266 0.008630861
0.040859092 0.0076404787 0.07117326 -0.03440222 -0.02255478 0.019781593 0.037494086 0.028371485
-0.01960134 -0.034975257 0.03212134 -0.0077787163 -0.19015878 -0.039949138 -0.054891255 0.02227698
0.07008148 0.0316999 0.0015472885 -0.03100406 -0.032121327 0.007778761 0.0712804 -0.034442298
0.06339181 0.013364404 -0.01937715 0.11229099 0.019852027 -0.019568328 -0.046505794 -0.0006225004
-0.014808707 0.09170937 0.05194396 -0.15139277 -0.049025714 0.13013831 0.044456434 -0.020093847
-0.024649573 -0.008005421 0.0148086995 -0.09170952 0.06344791 0.013355252 -0.007086113 -0.08801808
0.0013213884 -0.23881653 0.005316017 0.015037258 -0.033217512 -0.00647492 -0.069123834 0.0002917857
-0.027793545 0.11719665 -0.049809195 -0.18571092 0.05744169 -0.044980764 0.020415882 -0.059864823
0.06913333 -0.00048741573 -0.006875284 -0.08721668 -0.06687868 0.019485768 -0.10248666 -0.009784721
-0.10691375 0.0049661812 -0.056413114 -0.0010266409 -0.059820853 -0.029777816 0.085843556 0.12617078
-0.13902181 -0.008843866 -0.078414366 -0.009946883 -0.032171115 0.008337443 0.059821837 0.029777361
-0.06673787 0.019829 -0.013959214 -0.01041414 0.07595523 -0.044331696 0.00026869553 -0.045699216
0.022584049 -0.0048751067 0.006171125 -0.042515166 -0.13664605 0.20362803 0.06590064 -0.09941075

net.0.bias f4 [256]
00000000: e10d 82be c25e 93be 184a cabd 863b 8dbe
00000010: d134 76be 535f 61be 9172 4abe c921 77be
00000020: b12b 71be 4f55 afbe c95e 6ebe 80e1 36be
00000030: 5e08 abbe 8144 09bf 18fe 9dbe 6a0f cdbe
00000040: d1e7 76be 480e 82be 172c 17bf 4991 06be
00000050: 7bb0 85be 17d9 5cbe c788 553a cac2 63be
00000060: 7e84 39be ab8c 4cbe 0325 25be 200f 54be
00000070: 25c3 50be 544f 1b3e faf1 97be ee2c 83be
00000080: b3e5 2ebe 030d 93be dbd5 ccbe 1ba8 6dbe
00000090: 90e9 86be 80de 06bd bbfa 0cbf 3507 90be
000000a0: 29e5 8cbe 5e6b 04be 2a2d 96be a76a 60be
000000b0: 7392 41be 4eb9 57be 93a1 3cbe a277 6bbe
000000c0: 3709 45be 089a 91be a82f 5cbe e90f 90be
000000d0: abef 34be fbe3 e9bc 6ed7 3abe 862c 41be
000000e0: 6c6a 94be 382e 50be 0084 84be fb2f 50be
000000f0: 33e9 7fbe bf20 03bf e872 a9bd e01e 47be
00000100: 32df 84be 78c0 ae3b 77fb 68be 28de 8dbe
00000110: 2920 19be 4283 eebe 7f41 49be 1c12 cdbe
00000120: b3c5 5bbe 089b 2dbe 3c2e 86be 65b6 f0be
00000130: b8b6 91be a0f1 79be b0aa 83be e0c5 48be
00000140: cec7 5fbe 70a5 bebe 7e3c 6abe ff04 3dbe
00000150: 9c97 59be ae78 88be 19b2 69be 16c8 57be
00000160: 7caa a0be c82c 95be 6c04 9bbe eff2 0bbf
00000170: cc16 7fbe fe59 1cbf f813 70be 41da 89be
00000180: c6d2 48be d496 373e ad0a 65be d51d 86be
00000190: 3f93 40be 7c1c 83be d6b0 81be 8d43 0fbf
000001a0: 4c56 00bf 4dc9 90be 6678 3dbe 73e2 32be
000001b0: 5afb 6abe adcb 6ebe 2f01 60be f855 50be
000001c0: a7fb 83be 30e8 8dbe 1f30 4fbe dc14 90bc
000001d0: d39b 04bf dc87 30be 6a36 9dbe 4447 81be
000001e0: 7feb 92be 6c7e 83be 8565 2cbe b93a 84be
000001f0: d825 5fbe 624a 3a3e ccc8 61be b49c 33be
00000200: a379 84be 00f1 b5be 1a29 8ebe 51f6 83be
00000210: 3592 86be 4b73 8cbe c120 68be acdd 89be
00000220: 654e 58be a6de 62be e880 79be ccef 3ebe
00000230: cfc9 56be fb7b 31be bf6f c3bd 0c8e ddbd
00000240: 0b45 3a3e 770f 91be 9102 80be 8965 4dbe
00000250: ac4d 3ebe 6175 72be 53a5 58be 2920 29bd
00000260: f1a8 54be c2cc a0be 8177 8abe f567 54be
00000270: 2a82 5abe c6e6 2bbe 7be0 9bbd c5b3 93be
00000280: 39b6 34be 64b4 73be f4c2 dabe 7de1 45be
00000290: fc03 e7bd 9a78 53be a2d9 6f3b 0de6 9abd
000002a0: 12fa 78be 4440 c5be 07c4 d0be 1547 70be
000002b0: 9483 8fbe ef83 3cbe b4ff 49be 5cef 48be
000002c0: ceba 5dbe 8ff1 83be ef91 19be f0a2 13bf
000002d0: 0b94 91bd b7bb 0b3d d66c 82be bee2 0abd
000002e0: 908c 61be 11b3 5ebe 225f 73be 6ebc 88be
000002f0: 52df 85be 8832 9ebe f362 4cbe 50e7 6ebe
00000300: 57c4 79be 021d 09bf 8281 5ebe 40a7 3b3e
00000310: 2c56 88be f5eb 87be a3f1 20be 24b4 45be
00000320: 7279 82be 557c b6be 14f4 80be 105a 8cbe
00000330: 3834 6fbe e1d7 93be 8289 89be daff 6dbe
00000340: 535d 86be a933 5cbe 50aa 343e 07fe 80be
00000350: 78be c8be 443b 9abe 0b7c 86be ead6 8ebe
00000360: fa61 7abe 2609 41be 9f09 33be dfd7 65be
00000370: d57b 7cbe 20a5 9bbe 84c9 0fbf 3419 8ebe
00000380: 2e5b 5dbe 482b 37be 2033 8bbe c6af 87be
00000390: d79c 68be f83a b8be 9dc2 6cbe a14a 8abe
000003a0: 23be 8bbe 0e17 8dbe 0315 7abe bad7 82be
000003b0: 5cb3 82be 67da 85be 4b3b 94be 47d3 2cbe
000003c0: 3e2d 63be 6006 9cbe 518b 323e 083b 45be
000003d0: c489 5bbe 0b4d 8dbe 8ae9 6cbe 07c8 43be
000003e0: b1bb 52be 8ad8 86be ee55 01bf 5fb1 86be
000003f0: bda0 5abe 7bc4 8cbe bb7b 8abe e4b2 1ebe
-0.25401214 -0.28783232 -0.098774135 -0.27584475 -0.24043585 -0.2200902 -0.19770266 -0.24133982
-0.23551823 -0.34244773 -0.23278345 -0.17859459 -0.3340482 -0.53620154 -0.3085792 -0.40050822
-0.24111868 -0.2540152 -0.5905165 -0.1314136 -0.26111206 -0.21567188 0.00081456866 -0.22242275
-0.18116948 -0.19975536 -0.161274 -0.20708895 -0.20386942 0.1516698 -0.296768 -0.25620216
-0.17079811 -0.28720865 -0.4000691 -0.23208658 -0.2635007 -0.032927036 -0.55070084 -0.281305
-0.27518585 -0.12931582 -0.29331332 -0.21915685 -0.18903522 -0.21066782 -0.1842101 -0.22994855
-0.19241796 -0.2843783 -0.21502554 -0.28137138 -0.17669551 -0.028551092 -0.18246242 -0.1886464
-0.28987443 -0.20330131 -0.25881958 -0.20330803 -0.24991302 -0.5122184 -0.0827387 -0.19445372
-0.25951535 0.0053330027 -0.22752176 -0.27708554 -0.14953674 -0.46584517 -0.19653891 -0.4005288
-0.21462135 -0.16953671 -0.2620715 -0.47014156 -0.28459716 -0.24408579 -0.25716162 -0.19606733
-0.21853563 -0.37235594 -0.22874638 -0.18458937 -0.2124924 -0.2665457 -0.22821845 -0.2107242
-0.3138007 -0.29135728 -0.3027681 -0.5466756 -0.2491104 -0.6107482 -0.23445117 -0.26924327
-0.19611654 0.1792863 -0.22367354 -0.26194635 -0.1880617 -0.2560767 -0.25330228 -0.5596245
-0.5013168 -0.2827858 -0.1850296 -0.17469196 -0.22947446 -0.23319884 -0.21875452 -0.20345294
-0.25777933 -0.27716208 -0.202332 -0.017588072 -0.5180027 -0.17239326 -0.30705577 -0.25249684
-0.28695294 -0.2568239 -0.16835602 -0.25826052 -0.2179178 0.18192437 -0.22049254 -0.17540246
-0.2587405 -0.3553543 -0.27765733 -0.25773862 -0.26283422 -0.27431712 -0.22668745 -0.26926935
-0.21123655 -0.22155246 -0.2436558 -0.18646163 -0.20975421 -0.17332451 -0.09542798 -0.10818109
0.181904 -0.2833211 -0.25001958 -0.20058264 -0.18584317 -0.23677589 -0.21156816 -0.041290436
-0.20767571 -0.31406218 -0.270443 -0.20742781 -0.21338716 -0.16787252 -0.076111756 -0.2884809
-0.17647637 -0.23799282 -0.42726862 -0.19324298 -0.11280057 -0.20651475 0.0036598225 -0.0756341
-0.24314144 -0.38525593 -0.40774557 -0.23464616 -0.28030074 -0.18409704 -0.19726449 -0.19622558
-0.21653292 -0.25770232 -0.14997075 -0.576705 -0.07108315 0.034114566 -0.2547366 -0.033907644
-0.22026277 -0.21747996 -0.23766759 -0.2670626 -0.26146942 -0.30897927 -0.19959621 -0.23330426
-0.24391304 -0.5355989 -0.21729091 0.1832552 -0.26628244 -0.26547208 -0.15717177 -0.19307
-0.2548328 -0.35641733 -0.25186217 -0.27412462 -0.23359764 -0.2887564 -0.26862723 -0.23242131
-0.26243076 -0.21504082 0.17643094 -0.25193807 -0.39207816 -0.3012334 -0.26266512 -0.2789834
-0.24451438 -0.18851146 -0.17484139 -0.2244563 -0.24656613 -0.30399418 -0.56166863 -0.27753603
-0.21616814 -0.17887604 -0.27187443 -0.26501292 -0.2271608 -0.3598249 -0.23121114 -0.27010062
-0.272935 -0.27556652 -0.24422078 -0.2555521 -0.25527465 -0.2614319 -0.28951487 -0.16877471
-0.22185227 -0.30473614 0.17435957 -0.192608 -0.21439272 -0.27597842 -0.23135963 -0.19119273
-0.20579411 -0.2633708 -0.50521743 -0.26307198 -0.2135038 -0.27493653 -0.27047524 -0.15497929

net.2.weight f4 [256]
00000000: 974f 393e 0788 193e 1b76 e53d 53a6 fe3d
00000010: bba2 963d e450 353e 8865 243e 7d97 023e
00000020: c251 143e 5d82 7b3e 2154 073e 9d5c ea3d
00000030: 23e4 653e 5ed9 a13e d000 513e ff05 da3e
00000040: 4a7b 393e 79d7 ec3d 47b5 1d3f 686b 553d
00000050: 4f3a d83d 9107 d83d 91fd 4c3d 41d0 0a3e
00000060: 3fef 333e 63e3 673e 8c31 a13d 3fbc ef3d
00000070: a12d 1a3e 6ca2 c43d 9a5b 553e f53a 243e
00000080: 1c83 de3d aac7 413e b24c 593e 63cc b33d
00000090: 73ea 203e 980d b03d e962 943e 529e 7e3e
000000a0: fdeb 483e 2839 303e ade0 223e d694 2a3e
000000b0: 1030 ea3d 723d cd3e 8de2 c03d c8cc e33d
000000c0: 9621 523e 52ce 243e 6cc5 953d ec9a 2a3e
000000d0: dae7 f93d 731d fd3e e091 583e 01ea f63d
000000e0: 73f9 543e 913f ec3d 5a2e 083e 0c9d 973d
000000f0: 1f38 f73d 0228 bc3e c59f d13d aefc 443e
00000100: 9e28 423e 9a2f 2a3d 51a2 343e 3bd0 443e
00000110: 60f8 563e 9550 b23e 3c1d 643e a8c1 193e
00000120: 4aa1 1c3e 7522 d13d 4a1f 563e 4b94 8f3e
00000130: b45f 9b3d d382 2a3e b8ab 203e 2761 e13d
00000140: 7122 253e 5fc4 d73e ec16 ed3d 7ee5 5c3e
00000150: 5719 1d3e 7670 183e 8f80 903d f3a2 303e
00000160: ddb7 213e b196 b43d 118d 803e 03f7 9a3e
00000170: d25d 283e b257 db3e 6b24 d63d af4c fe3d
00000180: ea56 2e3e 65ec 093e 29a1 5a3d 7978 3e3e
00000190: eebd d83d 6ac5 ae3d 50d9 483e ba31 923e
000001a0: 3b58 7b3e bf40 563e b59e 983d fa26 123e
000001b0: 4f75 073e 13e3 db3d 8b0b 393e 8f48 e73d
000001c0: e152 503e 5792 f63d 5d49 083e a247 2e3d
000001d0: 5683 ef3e 5846 1f3e 573d 483e 56e5 0d3e
000001e0: e92c 443e 03a5 503e c1dd d43d 5aa3 753e
000001f0: cb12 e43d 49a4 0b3e ef72 2a3e f6ed 073e
00000200: c18b 9c3e 4bbc 1c3e 411b 1f3e 542f 3c3e
00000210: 0c88 073e aba1 5e3e 0519 c83d 6479 ff3d
00000220: 4dfb 473e a671 1b3e 0803 2b3e 0f22 f23d
00000230: 26d3 363e cb0a e23d 8a25 ff3d ce34 b53d
00000240: 5866 0c3e 0d3d 443e 15af 133e cc61 ff3d
00000250: 027c 413e 8c5b 683d 6eab 123e e401 053f
00000260: 4ed1 a23d 39b2 853e 83c0 493e dca6 443e
00000270: 58b5 433e 8833 ee3d cc8e a93d 3558 533e
00000280: e8c7 f53d 0ec2 bd3d ed97 423e 276f 0c3e
00000290: d2e7 9b3d 5d4f 183e 6f8e 3b3d 07be a53d
000002a0: 89d5 433e e17d 083e 0678 b93e e136 dd3d
000002b0: dbcd 393e 04f9 ea3d 80f2 f13d c039 543e
000002c0: d11e 183e 944d 603e 7471 1f3e b4ef fa3e
000002d0: de6f d73d 499d 133d 4435 f13d 28b8 f83e
000002e0: 9183 4e3e 3599 e63d 7987 1a3e 8643 403e
000002f0: 8a72 723e 0dba aa3e 5613 d43d 4248 033e
00000300: 7872 053e 75b3 893e 08f1 3f3e cc5b 0b3e
00000310: 43d5 303e e511 45be 5e5c a93d d76b 543e
00000320: 0ca9 063e 88f4 553e 1c4f 473e c3fb 0f3e
00000330: 25ef 123e 1fa9 443e 8e68 033e f933 353e
00000340: 6686 3f3e 2b18 be3d 469e 073e cc2d fc3d
00000350: 7cad 433e 08da 073e 4bbf 003e c86b f33d
00000360: 9b6a 963d bb3e a33d 933a 423e 5aff 163d
00000370: 3b86 553e e7be fb3d d3a9 943e e9d4 e83d
00000380: 906a d83d c0a6 fc3d 397f 193e a1a1 f73d
00000390: 91aa 403e da89 ae3e 36d4 a33d 36d9 4c3e
000003a0: 2ba3 243e 8f81 c83d 5f83 033e 5178 2a3e
000003b0: 3beb 283e 8dea e83d b915 603e a802 023e
000003c0: b1ef ce3d eadd 623e a114 f43d 1d9f 233e
000003d0: 9691 e63d 49c1 443e 6ccc c13d 4d28 553d
000003e0: c2ef 183e 0c51 143e 640b 813e 3b98 293e
000003f0: 0646 0c3e 3f9d 423e d7be 4c3e 43c5 df3d
0.18096767 0.14993297 0.112041675 0.124340676 0.07355257 0.17706639 0.16054356 0.127531
0.14484313 0.24561448 0.13215686 0.11443446 0.22450309 0.3161115 0.20410466 0.425827
0.18113437 0.11564536 0.6160473 0.052104384 0.105579965 0.10548318 0.050046507 0.13556005
0.17571734 0.22645335 0.078707784 0.11705827 0.15056469 0.09601292 0.20835724 0.16038115
0.10864851 0.18923822 0.21220663 0.08779218 0.15714435 0.08596343 0.28981712 0.24865082
0.19621272 0.17209303 0.1590602 0.16658339 0.114349484 0.40085942 0.09418211 0.11123043
0.20520625 0.1609433 0.07313046 0.1666066 0.12202425 0.4943653 0.21149397 0.120563515
0.20798282 0.11535562 0.13298932 0.07403001 0.12071251 0.36749274 0.10235552 0.19237015
0.18960807 0.041549303 0.17640044 0.19220059 0.20993185 0.34827104 0.22276777 0.1501528
0.15295902 0.1021165 0.20910373 0.28042826 0.07586613 0.16651468 0.15690506 0.110048585
0.1612642 0.42142007 0.115766376 0.2157192 0.15341698 0.1488665 0.070557706 0.1724966
0.15792795 0.088178046 0.25107625 0.3026658 0.1644204 0.42840344 0.10456165 0.1241697
0.17025343 0.13469084 0.05337635 0.18600644 0.10583101 0.085337475 0.19614148 0.28553563
0.24545376 0.20923136 0.07452146 0.14272681 0.13228343 0.1073667 0.1807081 0.11293136
0.20344116 0.12039631 0.13309236 0.042548783 0.4677989 0.15554178 0.1955465 0.13857016
0.19157757 0.20375447 0.10393859 0.23988095 0.11136397 0.13636889 0.16645406 0.13274369
0.30575374 0.15306203 0.1553774 0.18377429 0.13235492 0.21741359 0.09770397 0.12474325
0.19529457 0.15180072 0.16700375 0.118229024 0.17853984 0.11037215 0.12458332 0.08847962
0.13710916 0.19163914 0.14422257 0.12469825 0.18894961 0.05672793 0.14323208 0.5195601
0.07950078 0.26112536 0.19702344 0.19204277 0.19112146 0.116309226 0.082791895 0.20639117
0.1200102 0.092655286 0.19003268 0.13714276 0.076125756 0.14874025 0.045790132 0.080928855
0.19124426 0.13329269 0.36224383 0.10801483 0.18144934 0.11473277 0.11813831 0.20725155
0.14855506 0.21904594 0.15570623 0.49011004 0.10519384 0.03603867 0.11777738 0.48578
0.20167376 0.11259691 0.15090741 0.18775758 0.23676506 0.3334507 0.103552505 0.12820533
0.13031948 0.26894727 0.1874429 0.13609236 0.17268853 -0.19245107 0.08269571 0.20744263
0.13150424 0.20894063 0.19463772 0.14060883 0.14349039 0.1920514 0.12832853 0.17695607
0.18703613 0.092819534 0.1324397 0.123134226 0.19109148 0.13266766 0.12572972 0.11885792
0.07344552 0.07970949 0.18967657 0.036864616 0.20851986 0.12292271 0.29035816 0.113687344
0.105672 0.123364925 0.14989938 0.12091375 0.18815066 0.34089547 0.079994604 0.20004734
0.16077869 0.09790336 0.12843083 0.1664746 0.16495983 0.11372862 0.21883287 0.12696326
0.10104311 0.22154966 0.11917997 0.15978666 0.11258237 0.19214357 0.094628185 0.052040387
0.1493521 0.14484042 0.25204003 0.16561978 0.13698587 0.19005297 0.19994675 0.109262966

net.2.bias f4 [256]
00000000: 85f9 273d f844 2b3d bb76 5dbb fce9 fd3c
00000010: 1fcc 913c 4b6b 3c3d a915 d73c 0b35 0b3d
00000020: 5eec 153d a7fc 8b3d 2824 053d 0ad9 153c
00000030: 86e9 763d 3d4d 933d 2129 3d3d 84f4 fb3d
00000040: b5bb 143d 1828 cfbb b843 2e3e 1302 44bc
00000050: 0f69 7b3c e159 893c e2f9 5dbd cc82 f93c
00000060: f298 b83c 9242 0b3d ccde 713c 8eb5 8d3c
00000070: 9b86 d83c 2513 92be 8514 4f3d 3967 de3c
00000080: 916f 163c 5a62 313d 6a33 433d 0ad3 d43b
00000090: 85d5 043d 151a eebc 2f86 893d 36fc 823d
000000a0: a172 633d a01e 973c 2852 ee3c 3e72 f23c
000000b0: 50f2 5f3c 7c72 e63d eee8 1a3c 39ac 983c
000000c0: c7e1 db3c 7935 383d a18f 133c d716 2b3d
000000d0: 3d9c 9f3c edb9 0e3e 0480 a93c c7f6 ca3c
000000e0: d88e 653d 29a9 e53c 77ba 023d 5202 d83a
000000f0: bbe8 c83c a0eb c43d 83f4 f6bb 2aaf 093d
00000100: 27b6 3e3d 57e8 96bd 9f72 e03c cd08 4b3d
00000110: 2c25 f33c fb59 a93d 2772 fa3c 8a0b 543c
00000120: dcf0 033d e8ce 893c 05e1 433d 4b91 8d3d
00000130: 0bcc 0e3c b34a 083d 7094 e43c e6e3 313c
00000140: 1874 1f3d 8787 da3d 5d3e 9c3c ccdd fc3c
00000150: 3ac3 f33c dada 133d 0cb2 423c dcc9 123d
00000160: 6df7 0d3d a924 6a3c 0012 723d 0088 a83d
00000170: 3556 2c3d 057f e83d 3cd4 983c 4aa3 b63c
00000180: 44ea 293d 3f0e fabe 9f0e 763b 6e35 613d
00000190: 4582 a03c 77de eb3b de87 373d 5bdd 853d
000001a0: 6ea0 693d f61e 573d b6f6 0f3c 9ab7 f23c
000001b0: 4380 f53c d30a 363c 2652 f53c d8c2 c73c
000001c0: 6b6e 6a3d a2bd a73c cf59 d93c 9222 52bd
000001d0: 9971 043e e550 d53c 250c 4d3d 0f6e 213d
000001e0: 74c2 623d 6325 513d cdf8 be3b 9a25 953d
000001f0: 3c83 c33c 8185 fdbe 8500 1c3d 4f6d ec3b
00000200: a924 af3d 9007 c53c 610d 323d 9148 2d3d
00000210: 53eb 0b3d 61a0 813d 9684 823c 4593 103d
00000220: 365e d73c 3424 153d adea 243d 4356 be3c
00000230: 0af4 023d d1dc b33c 72a1 3abc 40dd 0f3c
00000240: af8b fcbe 0585 403d 359e 2b3d 3260 ca3c
00000250: e867 103d 6bfe 313c 57e7 c93c f924 183e
00000260: 9b17 a13c a1e5 8d3d c943 2e3d 6d8e b83c
00000270: 11e0 393d 6b56 2b3c cb73 e439 2488 763d
00000280: 202e b23c b305 713c b636 2d3d 6d8f da3c
00000290: 03b2 7e3a f5cd c53c 96ad 2cbd 79b9 3ebc
000002a0: 18c7 103d 38f2 993c bf22 ca3d 07db 8a3c
000002b0: 81cc 4b3d 5dae 8539 8a99 b53c bdab 493c
000002c0: ed2e ae3c 8a41 553d a7c7 d53c 5d9f 053e
000002d0: 4233 0d3b 7f09 83bd c96a f93c 6ca5 0d3e
000002e0: f71c 283d 2957 793c e5aa 133d 5d12 3d3d
000002f0: 6dc8 713d d242 be3d 665f 683c 4399 c13c
00000300: a0aa eb3c 6c2d 883d 4655 343d e96c f4be
00000310: 2b05 1a3d b6f5 43bd 3a4f 8e3a 883a 183d
00000320: a8c5 b13c 70be 593d 19ea 3c3d 20f9 173d
00000330: 4eb7 123d 5157 123d bb3f ab3c 848d 303d
00000340: 13af 4e3d 4c6c 90bc 9d55 f0be 17cb c83c
00000350: 6eca 423d f42b 713c b05d 1c3d 49ae f33c
00000360: e437 833c 7a10 023c 48b5 393d 8079 073b
00000370: 9183 2f3d 724f 1e3d 0b68 8b3d 48a1 8c3c
00000380: 7f2a c43c ea37 833c 8720 273d 12f3 003d
00000390: 2c03 2c3d 9204 bd3d 958f 543c dbb6 483d
000003a0: 5e84 243d 0192 a23c 3b7e f13c c00f 3e3d
000003b0: f21d 203d c42f be3c 8439 593d bac9 933c
000003c0: 5210 cd3c 884a 643d c6b7 cfbe 83c6 0e3d
000003d0: 5838 c23c 479d 4a3d 7fd5 993c acf9 963b
000003e0: 0990 013d 3292 1e3d 4447 753d 1feb 1d3d
000003f0: 9d4e 0d3d 8713 463d 066c 3a3d 0ee7 5d3c
0.041009445 0.04181382 -0.0033792693 0.030995362 0.017797528 0.04600076 0.026255446 0.033986133
0.03660237 0.06835299 0.032505184 0.009145984 0.0602813 0.071924664 0.0461818 0.12302497
0.036311824 -0.006321918 0.1701802 -0.011963385 0.015344872 0.01676649 -0.054193385 0.030457877
0.022533868 0.033999033 0.014762592 0.017298486 0.026431372 -0.2853023 0.05055668 0.02714883
0.009181873 0.043306686 0.047656454 0.0064948844 0.03243019 -0.029065171 0.067150466 0.06395762
0.05552924 0.01844722 0.02909191 0.02959549 0.013668612 0.11252305 0.009454949 0.01863681
0.026841057 0.04497287 0.009006412 0.04176983 0.01948368 0.13938113 0.020690925 0.024775876
0.05604443 0.028034763 0.031916108 0.0016480184 0.024525037 0.096152544 -0.0075364723 0.033614315
0.046560433 -0.07368534 0.027398406 0.04956894 0.02968081 0.082691155 0.03057201 0.012942204
0.032212123 0.016822293 0.047822017 0.06912478 0.00871564 0.033274364 0.027902812 0.010857558
0.038929075 0.10670381 0.019072706 0.03086748 0.029756177 0.036097385 0.01188327 0.03583704
0.03465979 0.014290967 0.059099197 0.08229065 0.0420744 0.11352352 0.018655889 0.02229466
0.04148318 -0.48838994 0.0037545336 0.054982595 0.019593367 0.0071981507 0.044807307 0.06536361
0.057037763 0.05251976 0.008786848 0.029628564 0.029968387 0.011110979 0.029946398 0.0243849
0.05723421 0.020476166 0.026532082 -0.0513025 0.12933959 0.02603955 0.05006041 0.0394116
0.055361226 0.051061045 0.005827999 0.072825626 0.023866288 -0.49515918 0.038086433 0.007215179
0.08551914 0.024051458 0.04346979 0.042305533 0.03415997 0.06329418 0.015932363 0.035296697
0.02629004 0.03641148 0.040262867 0.023234492 0.031971015 0.02195588 -0.011391031 0.008780777
-0.4932532 0.047001857 0.041898925 0.024704073 0.035255343 0.010863881 0.024646444 0.14857854
0.019664576 0.06928564 0.042545114 0.022528851 0.045379702 0.010457615 0.0004357382 0.060188428
0.02175051 0.014710831 0.042288505 0.026679719 0.0009715857 0.02414606 -0.042157732 -0.0116409
0.03534612 0.018792257 0.098699085 0.016950144 0.049755577 0.00025497648 0.02216794 0.012309012
0.02126261 0.052064456 0.026096178 0.13049074 0.0021545445 -0.063982956 0.030446427 0.13832635
0.041043248 0.0152185345 0.03605165 0.04616009 0.05902903 0.09290089 0.014182901 0.023632651
0.028767884 0.066492885 0.044026636 -0.47739342 0.037602585 -0.04784175 0.0010857352 0.037165195
0.021700695 0.05316013 0.04612169 0.03710282 0.035819344 0.035727803 0.020904412 0.04310371
0.050459933 -0.017629765 -0.46940318 0.024510903 0.047556333 0.014719952 0.038175285 0.029746192
0.016017862 0.007938499 0.0453389 0.0020671785 0.04285008 0.038649984 0.06806954 0.017166749
0.023946045 0.016017873 0.040802505 0.03148181 0.041995212 0.09229387 0.012973686 0.04900251
0.040165298 0.01984501 0.029479137 0.04640174 0.039091058 0.023216136 0.053033367 0.018040527
0.025032196 0.05573514 -0.40569896 0.034857284 0.023708507 0.049466398 0.01877856 0.0046074
0.031631503 0.03871364 0.059882417 0.038554307 0.0344988 0.048358466 0.045513175 0.013543857

net.4.weight f4 [256, 256]
00000000: 0a68 0ebd 748e 613b 6db8 a9bd dd89 80bd
00000010: 492a c5bb 69b8 ac3b 1048 d93c 36b3 a5bc
00000020: f692 f4bb c34e bd3a a762 54bd 7734 2fbc
00000030: ce50 58ba 770c acbd c85c b0bc a0cd 39bc
00000040: 982b 43bd 0801 45bc 16d9 8a3c 16cc 4ebb
00000050: 6780 21bd 9fd3 f2bc 30d4 953a 00ff 51bc
00000060: f14b a8bd eb3a d4bc 3716 3e3d 9aa3 a1bc
00000070: 0411 00bd c51e f93a 5288 b7ba 9364 7c3d
00000080: f41f 95bd 5f40 f3bc ef37 5d3c 1b54 203c
00000090: 704c 1e3d a680 043d ae41 44bc 5c4e c43d
000000a0: d991 4cbd f5d3 cbbc 2377 f33c 5bdb acbc
000000b0: 2643 adbc 096a c13c fc62 cbbd 3bca 9bbd
000000c0: 0c2c 55bd ef2a 6ebb c465 bd3a d55f 6dbd
000000d0: 750c 91bd 6c96 633c 9f9c 4dbd 12c5 0cbd
000000e0: b3e4 77bc 2871 74bc 49df dbbd 3b8a 7ebc
000000f0: a50f 0bbd 300c cd3a 24e1 b93c 62e9 bb3b
00000100: 15c4 023c fd4f 663b 62fb a3bd a195 913d
00000110: b7e6 0bbe c65d e83c c2d7 c5bd cb18 90bc
00000120: 9cdb 54bd efd0 50bc 74c7 3e3d f899 84bd
00000130: 0976 99bd e556 5b3b f15f 2a3d 024c 783c
00000140: b3f4 40bd fb53 163d ff4d 543d 9767 6f3c
00000150: 7ea2 233d 9f2b 443b da5a 85bd c20f f33c
00000160: 9a89 173c 6c6e dfbb 5534 64bd d080 be3c
00000170: ce92 a83c 3792 95bb 1446 6ebc 72ec f5bc
00000180: ad6a a23d 8fe8 043d f628 c43c 8169 0f3d
00000190: 0246 f2bb 8c95 e0bb fc99 8fbc b8f1 443d
000001a0: 1a81 cbbc 72c1 70bc 78f3 86bd 6b6e 06bd
000001b0: eaa6 dabc abf0 94bc 63c8 a9bb d3e1 06bb
000001c0: d881 1abd 1b7a 90bc 1284 2d3c 7af3 6cbd
000001d0: cd00 ce3c 8ffc dabd 140e be3d f8ee f7bc
000001e0: 69ca 42bb b6f3 f2bc a3c2 80bc 0016 03bc
000001f0: c32e dc3c 99a4 a23c 1105 78bd c85b 67bd
00000200: c22e 283c cd70 503b 4990 c3bd f790 1bbd
00000210: 22b3 7f3c 82cf 02bd 0deb fbbc 9fda 04bb
00000220: 3b70 7abd 9319 74bd 5598 a3ba 5be1 fd3c
00000230: c8b1 193c 2fa2 8e3d 35a4 9c3b bdc3 54bd
00000240: a412 053d 2dbb 393d 396f 3abd 236e 9fba
00000250: 2d6c 9b3c 87c9 af3c 00c7 85bd 2700 513c
00000260: f232 f0bb 973b 8d3c bca7 68bd 2752 8dbc
00000270: d51a 03bc 2f59 813d 9bec aebc 5f2c 36bc
00000280: 21b2 a93c 8b6e a8bd 7182 31bd d7bd 733c
00000290: eba8 b63c 95f4 4bbd fc44 3fbe 395c 58bc
000002a0: 958a 3f3c 2fd3 da3c a26a 50bc bc00 80bb
000002b0: dfe0 65bc 833d b43d 0506 2fbd de13 3739
000002c0: 318a e73d 5c06 a43d 5aef f53b 58be 193c
000002d0: 06f9 843c 4c3d ed3c 7492 a13b 198d 743c
000002e0: 727f 4c3d 838b b03b 863b bfbd ff28 13bd
000002f0: cdc8 433c b686 73bd a82d 973c 25f5 e4bb
00000300: a572 d63b 7859 1bbe f909 00bb eb77 6a3d
00000310: 148a b9bc 415b 68bb f8ff ed3c 6f05 2bbb
00000320: d7cb 9a39 3cc4 a73c 57bd d73c 97f2 c2bc
00000330: 935c c8bc d20c 183c 5edd 213c db88 cdbb
00000340: 249f 2abd e645 c1bc 9a41 c23d b8e1 24bd
00000350: 0cdb c23c 3755 42bd dfbd e2bd 3e34 cbba
00000360: c7b5 13bb 4cfe 953c 5c80 78bd b4cd 813c
00000370: 8488 b5bc 7e97 cabc 3d2b 1fbd d9ff 6bbd
00000380: 59f1 1c3d 5642 573d 9667 c73b b186 a6bd
00000390: d86d cb3c 143e ae3c 1aa4 9a3d 5647 92bc
000003a0: bfa1 f23c a81b 38bb 988c bcbc b77f 333b
000003b0: aca5 33bd 8a80 b1bc 4f67 78bd f2df 13bc
000003c0: 188c 64bd cca8 f33c c664 463c 5804 66bb
000003d0: ee0f 12bc 626c 533d 73ab 17bc 4899 ecbc
000003e0: 71d4 dfbc 26e8 52bc ea5f 813c 629b 98bc
000003f0: 221c 6c3b e886 6f3c 889d 383d 4095 583b
-0.034767188 0.0034417184 -0.082871296 -0.06276295 -0.0060170037 0.005271007 0.02652362 -0.020227056
-0.007463808 0.0014443028 -0.051851895 -0.010693661 -0.0008251787 -0.08400815 -0.021528617 -0.011340529
-0.047648996 -0.012024172 0.016949218 -0.003155475 -0.039429095 -0.029641924 0.0011431035 -0.012817144
-0.0821761 -0.025907 0.046407904 -0.019731332 -0.031266227 0.0019006362 -0.0014002419 0.061619353
-0.07281485 -0.02969378 0.013502105 0.009785677 0.038647115 0.03234925 -0.01197855 0.09585258
-0.04994378 -0.024881342 0.029719895 -0.02110069 -0.021150183 0.023610132 -0.09930989 -0.07606932
-0.05204396 -0.0036341508 0.0014449884 -0.05795272 -0.07082454 0.013890844 -0.050198194 -0.03436763
-0.01513021 -0.014919557 -0.10735948 -0.015535886 -0.033950467 0.0015643891 0.022690363 0.0057346085
0.00798132 0.0035142892 -0.08006932 0.071086176 -0.1366223 0.028365027 -0.09660293 -0.017589947
-0.05196725 -0.012745126 0.046576932 -0.0647468 -0.074932165 0.0033468541 0.041595403 0.01515484
-0.047108363 0.036701184 0.051832195 0.0146121 0.039949887 0.0029933227 -0.06511469 0.0296706
0.009249115 -0.0068185832 -0.05571397 0.023254782 0.020577814 -0.0045645493 -0.014543075 -0.030019972
0.07930503 0.032448348 0.023945313 0.035012726 -0.0073935995 -0.006853765 -0.01752948 0.048082083
-0.024841834 -0.014694558 -0.06589407 -0.032820147 -0.026690919 -0.018181166 -0.0051813587 -0.002058138
-0.037721485 -0.01763635 0.01059057 -0.057849385 0.025146866 -0.10692703 0.09280029 -0.030265316
-0.0029722697 -0.029657226 -0.01571781 -0.008000851 0.026877766 0.019853877 -0.060551707 -0.056484014
0.010265054 0.0031805516 -0.095490046 -0.037980046 0.015606673 -0.031936176 -0.03075173 -0.002027191
-0.061142188 -0.059594702 -0.0012481312 0.030991247 0.009380765 0.06964528 0.004780317 -0.051944483
0.03248848 0.04534452 -0.045516226 -0.0012163561 0.01897248 0.0214584 -0.06532097 0.012756384
-0.007330292 0.017240329 -0.05680059 -0.017251087 -0.008002003 0.063158385 -0.021353057 -0.011118977
0.020714821 -0.082242094 -0.04333729 0.014876804 0.022297343 -0.0497938 -0.18678659 -0.013205581
0.011690755 0.026712028 -0.012720736 -0.0039063375 -0.014030664 0.08800795 -0.04273035 0.00017459641
0.11305655 0.080090255 0.0075053396 0.00938376 0.016232025 0.028959893 0.0049307887 0.014926218
0.04992623 0.005387725 -0.09337525 -0.03592777 0.01194973 -0.059454642 0.018454388 -0.0069872313
0.0065444284 -0.15170848 -0.0019537194 0.05724327 -0.022648849 -0.0035454782 0.02905272 -0.0026095768
0.00029525041 0.020479314 0.026335401 -0.023797316 -0.024458205 0.0092804 0.009879438 -0.006272418
-0.041655675 -0.0235929 0.09485169 -0.040254325 0.02378609 -0.04744455 -0.11071371 -0.001550324
-0.0022538768 0.018309735 -0.060669288 0.015845157 -0.022159822 -0.02473044 -0.038859595 -0.057617042
0.038316105 0.052553497 0.0060853465 -0.08131159 0.024832651 0.021269836 0.07550831 -0.017856281
0.029618142 -0.0028092656 -0.02301626 0.0027389356 -0.04385917 -0.021667738 -0.060645398 -0.009025561
-0.055797666 0.029743575 0.012108987 -0.0035097804 -0.008914931 0.051617034 -0.009257185 -0.028881684
-0.02732298 -0.012872731 0.015792806 -0.01862878 0.003602751 0.0146195665 0.04507211 0.0033047944

net.4.bias f4 [256]
00000000: 3834 01bd a605 80bd fa19 8fbd 898c 9fbd
00000010: 9a00 bbbc 19e0 dcbd a695 6fbd acc9 a2bd
00000020: d6ad 45bd 587a 4fbd 78d8 c7bc cdc7 cdbd
00000030: 6d6e 02be 4fcc 96bd 028c 52bd 9e35 cabd
00000040: 4131 9abd 5353 8fbd 464b 4caa fecf 95bd
00000050: 2a8e 8bbd 818b 2bbc b308 0cbe 489e c1bd
00000060: baab 02be 00e3 35bd 0efa a9bc 4355 90bd
00000070: 180d 7fbd eceb aabd f48d 87bd d42e b6bd
00000080: e57e 52bd 0c0e 8abd ae18 12be d666 37be
00000090: f280 00bd d264 79bc d085 8abd 7dfb b7bd
000000a0: f00f 79bd fe0d dfbd d0db 30bd 02ef 21be
000000b0: ecf9 2cbe dc97 70bd b754 59bd 0ad2 74bd
000000c0: 5514 93bd 011f a0bd 979d f0bd 29d0 ebbd
000000d0: dd78 4fbe 0876 c7bd a683 febd 30a9 e0bd
000000e0: 04c3 8dbd abfd a439 9b59 6ebd a718 83bd
000000f0: 586a 3ebd 2e0b f0b8 5e51 adbd b666 73bd
00000100: b48f a8bd b449 f3bd 0d65 a0bd 6be4 85bd
00000110: 6b13 33bd 951f 75bd 8792 3eb1 f355 67bd
00000120: 1f80 c7bd 1550 9ebd b2a7 48bd 8203 74bd
00000130: fdf8 8cbd d734 fbbd 0c71 4abd 8ba6 27bd
00000140: cba2 ebbd 3f4e 5bbd cdc0 c4bd 9bd6 9fbd
00000150: f3f5 90bd 4002 85bd 9416 dbbd faa9 bdbd
00000160: 323c cfbd 9ae0 3fbd db3d 81bd 9b84 2ebd
00000170: 1354 a6bd b5fc 9abd 5435 01bd cad2 83bd
00000180: 04a1 97bd 964e 93bd 190b aabd 5664 ebbd
00000190: 053e 3fbd ba41 c2bd 3e3f 95bd 515b 29bd
000001a0: ae00 adbd 2d53 b9bc 42d3 1ebb e8aa a1bd
000001b0: 1045 c7bd 80b4 8abd c70a a2bd e1db 8abd
000001c0: 950c aebd 47e6 0dbe 6c86 97bd 0cb1 7dbd
000001d0: 6b51 abbc eee5 adbd f89e 23be 7b95 5ebd
000001e0: edde d1bd 186a cdbd 8db6 52bd 7473 efbd
000001f0: 84e3 a0bb c1c3 cabd 3d74 bcbd effb 88bd
00000200: 5a35 86bd b9a0 a0bc 3b8c 37bd 2095 5cbc
00000210: f6ee 37bd 8d16 80bd f7f1 e1bd 2b94 06bd
00000220: 1032 d59e f075 a5bd e155 6abd 4d71 91bd
00000230: d12c d3bd c7ad 54bb 5510 8fbd 4738 50bd
00000240: 49af 04ae 3408 a5bd 7738 95bd 0f02 93bd
00000250: 46f0 d6bd 717a bdbc 8ac9 00be 87a3 37bd
00000260: f8e1 0cbe c967 a6bd 35e5 33be 7e88 58bd
00000270: 621d 4bbd 952d e5bd 4ed0 38bd 0af6 a7bc
00000280: 3299 00be c716 37bd 5cbb f4bd b81e 7dbd
00000290: f7ed b5bd afc6 65bd c3e1 dabd 55e8 94bd
000002a0: 14ab dbbd 1971 8dbc d625 c2bd d74e d7bd
000002b0: 25cf d3bd 5ec6 a5bd 84db ebbc 9093 8ebd
000002c0: 40c7 b7bd af63 f9bd 1dc7 1abd c066 7fbd
000002d0: c563 a5bd 6636 a1bd 15b0 8cbd 4411 91bd
000002e0: 6c40 c7bd e15a 71a9 97e8 bdbd 8374 4ebd
000002f0: 1405 60bd 9998 c8bd e387 a7bd 8414 07bd
00000300: a462 0bbd c4e8 8dbd 82c4 84bd 6373 8dbd
00000310: 4469 15be b8df 32bd 6d27 38bd 3cad 56bd
00000320: 0959 79bd d60d afbd b28d 51bd f3a2 bbbd
00000330: 6b6c 02be b3aa bcbd 7e26 55bd 11b7 dab8
00000340: d3a3 82bd 2679 dabd 5a70 b4bd d6de 56bd
00000350: 7337 febd d722 eabd eb05 a1bd 01c0 96bd
00000360: 960d 96bd 4eea 2abe 8e0e 26be 326b 77bd
00000370: e476 19bd 016c 84bd 39d4 21bd 2492 96bd
00000380: 1ed2 8cbd 9343 dfbc bbca 96bd e3fe 81bd
00000390: 9f21 03be 145c 54bd 96eb cabd 16f4 8bbd
000003a0: bc64 28bb c2bf afbd 3835 d1bd 5906 b2bd
000003b0: cc95 83bd f30f bdbd 34e9 74bd 7bd8 97bd
000003c0: 63b5 a6bd 2311 6bbc 79c8 8fbd e1bf 7bbd
000003d0: ce77 fbbd 4077 90bd dd8d a9bd bbde 40bd
000003e0: ff4e b8bd c975 a7bd 924d f6bc ae51 cbbd
000003f0: 594e 25be 5aff b6bd 6b4d 4fbd 3a5e f6bd
-0.03154394 -0.06251077 -0.069873765 -0.07790477 -0.022827435 -0.10784931 -0.058492325 -0.07948622
-0.048261486 -0.050653785 -0.024395213 -0.100478746 -0.12737437 -0.073631875 -0.051403053 -0.09873508
-0.07528926 -0.06998315 -1.8144955e-13 -0.07315062 -0.06814225 -0.010470272 -0.13675193 -0.09454018
-0.12760821 -0.044405937 -0.020749118 -0.070475124 -0.062268347 -0.0834578 -0.06618872 -0.088956505
-0.051390547 -0.067409605 -0.14267227 -0.17910323 -0.03137297 -0.015221791 -0.06763804 -0.089835145
-0.060806215 -0.10891341 -0.04317838 -0.1581383 -0.16892213 -0.058738574 -0.053059306 -0.05977062
-0.071816124 -0.078184135 -0.11748808 -0.11514313 -0.2026095 -0.097393095 -0.12427454 -0.1096977
-0.06921962 0.00031469515 -0.058190923 -0.064011864 -0.046488136 -0.00011446174 -0.08462785 -0.059424125
-0.08230534 -0.11879292 -0.07831774 -0.06537708 -0.04371969 -0.059844572 -2.773193e-09 -0.056478452
-0.09741234 -0.07730118 -0.04898805 -0.059573658 -0.06883428 -0.12265938 -0.049424216 -0.040930312
-0.1150566 -0.05354142 -0.09607086 -0.078046046 -0.07078161 -0.0649457 -0.10697666 -0.09260936
-0.10118903 -0.046845056 -0.06310626 -0.04260693 -0.08121505 -0.07567731 -0.031545 -0.06436689
-0.07403758 -0.071927235 -0.08302898 -0.11493747 -0.046690006 -0.094851926 -0.07287453 -0.04134685
-0.08447395 -0.02262267 -0.0024234806 -0.07893926 -0.097299695 -0.06772709 -0.07912212 -0.0678022
-0.084984936 -0.13857375 -0.07398686 -0.061936423 -0.020912847 -0.08491121 -0.1597861 -0.054341774
-0.10247598 -0.100300014 -0.051443625 -0.11691943 -0.0049099345 -0.09900618 -0.09201858 -0.066886775
-0.06553145 -0.019607889 -0.04481147 -0.013463289 -0.044905625 -0.06254301 -0.11032479 -0.032856148
-2.2572958e-20 -0.080791354 -0.057210807 -0.071016885 -0.103112824 -0.0032452212 -0.06985537 -0.05083492
-3.016901e-11 -0.08058205 -0.072861604 -0.07178127 -0.10495047 -0.023129674 -0.12576881 -0.044833686
-0.13758075 -0.08125264 -0.17567904 -0.052864544 -0.04958857 -0.11190335 -0.04512053 -0.020503063
-0.1255844 -0.044699457 -0.119497985 -0.061796874 -0.08883279 -0.056097683 -0.10687592 -0.07270876
-0.1072599 -0.017265843 -0.09479873 -0.105130844 -0.10342244 -0.08094476 -0.028791197 -0.06961739
-0.08973551 -0.12177216 -0.037787545 -0.06235385 -0.0807567 -0.07871704 -0.068695225 -0.07083371
-0.09729084 -5.3591575e-14 -0.092728786 -0.050404083 -0.054692343 -0.09794731 -0.08180215 -0.03297855
-0.034029618 -0.06929162 -0.064827934 -0.06906774 -0.14590937 -0.043670386 -0.044959474 -0.052411303
-0.060875926 -0.08547561 -0.05116052 -0.091619395 -0.1273667 -0.09212246 -0.052038662 -0.00010429149
-0.06378903 -0.106676385 -0.08810492 -0.052458607 -0.1241292 -0.114324264 -0.07862457 -0.073608406
-0.0732681 -0.16690943 -0.1621649 -0.060404964 -0.0374669 -0.064659126 -0.039509032 -0.07352093
-0.06876014 -0.027253902 -0.073628865 -0.06347444 -0.12805794 -0.051845625 -0.09908216 -0.06833665
-0.0025694808 -0.08581497 -0.10215229 -0.08692617 -0.06425056 -0.09231558 -0.059792712 -0.07414337
-0.081400655 -0.014347347 -0.07020659 -0.061462287 -0.1227871 -0.07053995 -0.082790114 -0.047087412
-0.08999442 -0.081767626 -0.030066285 -0.099276885 -0.16143169 -0.08935423 -0.05061094 -0.12029691

net.6.weight f4 [256]
00000000: 8c47 7f3e 35cd 6e3e 6d9d 9f3e 8a67 8a3e
00000010: 0cf4 923e 0c7f d03e 9dd9 973e 8ddc b13e
00000020: da3b 963e 5e8b 9d3e 5069 8b3e 7630 af3e
00000030: c60b ed3e aec5 8f3e 44fa 843e 08da cd3e
00000040: 1504 963e 2d70 9b3e 90de d43e 69be 843e
00000050: 2f5d 993e d02b 853e d936 de3e 01fa 8c3e
00000060: 3d07 f83e 4a43 823e 896e 803e e12b cf3e
00000070: 7472 3a3e 9922 a13e 3a40 7a3e df52 e23e
00000080: cdc0 a13e 1751 9c3e 5f7b 9c3e ee6a f53e
00000090: 840b dd3e 74c4 863e 3b10 9d3e 85e2 913e
000000a0: 531f 8c3e e44d c83e 14dd 873e f770 f23e
000000b0: 0c4d ea3e 5df7 f73e 4d02 833e ac52 d43e
000000c0: 88a8 a13e 5924 a93e 80ad d23e 4cc0 d43e
000000d0: b48f fa3e 677b 9f3e b411 093f ef20 af3e
000000e0: 40ac 883e 3bcd 393d 0dfe d63e 813c 913e
000000f0: 0802 893e cda0 d03e 88c8 a93e 1a6e 713e
00000100: 9418 8c3e f4ef 013f 887d eb3e cf39 97be
00000110: d067 993e 169a 8b3e 8381 d63e 6f4f c13e
00000120: 575e cc3e 7e10 873e 72c1 9d3e 6535 bb3e
00000130: 3d85 833e abad f43e c979 a43e 016b db3e
00000140: 4d17 ed3e 20b8 8a3e 7565 a83e 1e5e 7b3e
00000150: 816f a93e e85b a73e 9026 653e 163a b73e
00000160: 3553 aa3e 06c0 e43e 722a a03e f773 c93e
00000170: 7917 ab3e b88b eb3e 4bbe 853e 1dc9 913e
00000180: 0c03 853e d3f0 7d3e 1c51 ad3e bb27 863e
00000190: aa32 ad3e c360 c73e 7673 5b3e ee5d 723e
000001a0: 873f 973e d583 173e e042 903e 9167 e03e
000001b0: b793 ba3e 30fd cc3e 998b 883e abe1 ac3e
000001c0: 2798 cb3e 5c5f d33e 0f6c 9b3e 2073 973e
000001d0: cd69 a23e 0efe 6d3e 5abb 993e 5748 ad3e
000001e0: eaf7 d23e 4bfe 8c3e a468 8c3e d96f 0a3f
000001f0: bd70 973e ef32 983e ca88 a13e de7b 753e
00000200: 5373 9c3e 8c89 883e 3b92 883e 5cfc 763e
00000210: 9ca6 9b3e 2a08 a73e 0973 0a3f f70a 943e
00000220: fe36 ea3e 08ab 923e 30ed 533e 39ba 923e
00000230: 0bcf c73e d95d a53e 7cf9 993e fc14 883e
00000240: 3612 e43e 9803 8c3e cf6f c13e 3835 a23e
00000250: 875d ee3e 5471 8b3e 9bac e53e e2ef a73e
00000260: b7fc e33e 6454 863e 0092 eb3e 8721 9c3e
00000270: 1298 823e 5cd3 803e 1217 8d3e 53e3 f53d
00000280: 83e0 e73e d56e 8e3e 0391 f03e 5841 953e
00000290: b78e 8b3e fdd0 a93e 2a1d 923e 58f4 d13e
000002a0: e369 793e e5b8 883e c158 df3e 1a19 ab3e
000002b0: d49e d83e 14cf cd3e 34c2 a23e d50e 893e
000002c0: 9b4b 953e ac85 023f 3945 db3e 986d e33e
000002d0: 7c72 523e 88d5 833e c1df cf3e a21a 9f3e
000002e0: ec5f 913e 8f71 bb3e 2533 cb3e 0adf a13e
000002f0: 067b d93e 57f8 b03e 697f 803e 07f9 103e
00000300: 4b16 bc3e 1d2f 963e e2ff 923e c61d b63e
00000310: bec1 ea3e 1a67 df3e 8e7c 7b3e 0831 9d3e
00000320: e092 a73e a02d 9f3e 5347 803e d2d6 963e
00000330: f12f 093f 8b38 d13e a308 6d3e dace d93e
00000340: 3a5d af3e 171a 033f 4ac9 903e 24c5 8f3e
00000350: 8c37 f13e 5fa5 f83e a74c 873e 5beb 9d3e
00000360: 26cb a33e a8fa cf3e 7cb6 f83e 3dc0 d23e
00000370: 4806 923e 8a94 af3e 08c8 9a3e 9559 ca3e
00000380: 09b0 8e3e 7704 6a3e 5c95 933e 2307 bf3e
00000390: 3623 ce3e 9a9f c63e c151 833e 8e5e ac3e
000003a0: 6b0a fd3d 9460 893e 53a4 893e 5f93 873e
000003b0: 8c73 a13e 5c76 ac3e 6ba7 883e 1578 a73e
000003c0: a8ea 8e3e f9b2 853e 64e1 993e ac80 963e
000003d0: 53f3 1b3f c534 7b3e 8dd5 d13e b3b1 f83e
000003e0: 80dd b93e 697f e53e 292d 893e 4630 e53e
000003f0: 1705 903e 844d 8d3e af77 8f3e 0218 ac3e
0.24929637 0.23320468 0.31174794 0.2703212 0.28701818 0.4072193 0.29658213 0.3473858
0.29342538 0.3077039 0.27228785 0.3421666 0.46298045 0.28080505 0.25972188 0.40205407
0.2929999 0.3035902 0.41576052 0.2592652 0.29953906 0.2600999 0.4340122 0.27534488
0.48443022 0.25441962 0.25084332 0.40463164 0.18207723 0.31471708 0.24438563 0.4420385
0.31592408 0.30530617 0.30562875 0.47933143 0.43172848 0.26321757 0.30676445 0.28493133
0.27367648 0.39121926 0.26535857 0.4735181 0.45761907 0.4843091 0.25587693 0.41469324
0.31573892 0.33035544 0.41147995 0.4155296 0.48937762 0.31148836 0.5354264 0.34204814
0.26693916 0.04536174 0.419907 0.28366473 0.26759362 0.4074768 0.33160806 0.23577157
0.27362502 0.50756764 0.4599421 -0.29536292 0.29962015 0.27265996 0.41895685 0.37755916
0.39915726 0.2637977 0.3081165 0.36564174 0.2568759 0.47788748 0.32124165 0.42855075
0.4630684 0.270936 0.32889906 0.24547622 0.33092883 0.32687306 0.22377992 0.35786504
0.33266607 0.44677752 0.31282383 0.39346287 0.33416346 0.46005034 0.26121745 0.2847375
0.25978887 0.24798898 0.33850944 0.26202187 0.33827716 0.3894101 0.21430764 0.23668644
0.29540655 0.14796384 0.28176022 0.43829015 0.36440822 0.40036917 0.26669005 0.3376592
0.3976452 0.4128369 0.3035588 0.2958002 0.31721345 0.23241445 0.3002575 0.33844253
0.41204768 0.2753776 0.27423584 0.54076916 0.295782 0.2972636 0.31549674 0.23973033
0.30556735 0.2666744 0.26674065 0.24119705 0.3040055 0.32623416 0.5408178 0.28914616
0.4574508 0.2864611 0.20695949 0.28657702 0.3902515 0.32298163 0.30073154 0.2657851
0.44545144 0.27346492 0.37780616 0.31681228 0.4655573 0.272349 0.4485825 0.32800204
0.44528744 0.2623626 0.46009827 0.3049433 0.25506645 0.25161254 0.27556664 0.12006249
0.45288476 0.27818933 0.46985635 0.29151416 0.2725732 0.33167258 0.28537875 0.41006732
0.24356799 0.26703563 0.436224 0.33417588 0.42308676 0.4019705 0.3178879 0.26769128
0.29159245 0.5098522 0.4282625 0.4441955 0.20551485 0.2574885 0.40600398 0.31075007
0.28393495 0.36610076 0.39687458 0.31615478 0.42476672 0.34564468 0.25097206 0.14157496
0.36735758 0.2933282 0.28710848 0.3556959 0.4585094 0.43633348 0.24559233 0.3070147
0.32729244 0.31089497 0.25054416 0.2946077 0.5358878 0.4086345 0.23147826 0.42540628
0.34250814 0.51211685 0.2827857 0.28080094 0.4711269 0.48563668 0.2642567 0.30843624
0.31990927 0.40620923 0.48576725 0.4116229 0.28520417 0.34293014 0.30230737 0.3952147
0.2786868 0.22853266 0.2882489 0.37310132 0.4026124 0.3879364 0.2564831 0.3366589
0.12355503 0.26831496 0.26883182 0.26479623 0.31533468 0.3368405 0.2669023 0.32708803
0.27913404 0.26113108 0.30054772 0.29395044 0.6091816 0.24531849 0.4098324 0.48573074
0.36301804 0.4482377 0.26792267 0.44763392 0.28128883 0.27598202 0.28021 0.33612067

net.6.bias f4 [256]
00000000: 58f8 95bb c6e7 813c 9f5f 963c 56ee 863c
00000010: e5a0 943c e306 e03c a495 963c 7159 073d
00000020: d855 b43c 7199 8a3c 8340 68ba 7d17 a53c
00000030: 8fb3 0a3d dd77 d93c bb80 773c a0cb 013d
00000040: 92b4 d63c 88aa c83c 43ad 0a3d 46c8 a43c
00000050: ee4d b93c 0c02 19bb 0b35 0b3d b90c ab3c
00000060: db86 053d 5a61 b83c 54eb 273c daec 0a3d
00000070: 1c59 b3bb c7ec a03c 7a12 903c cec2 fb3c
00000080: a049 9f3c 6877 d43c 2bb2 9c3c 71be 023d
00000090: 9422 113d f76e fe3b 22c1 5e3c cbce 943c
000000a0: 9460 a33c 74a2 f33c fc13 b73c 9459 153d
000000b0: 2123 113d 0263 1d3d 3375 773c 8756 0b3d
000000c0: 19e7 223c 79f1 bf3c 06e7 ff3c 245f fd3c
000000d0: 2da3 153d 34e6 dd3c 31da 1e3d ce2d bf3c
000000e0: 198a a53c 7839 29bf 788c 103d c8b3 2b3c
000000f0: 73b3 233c e77e cc3c 2987 c93c 09c3 b13c
00000100: f4be 9c3c 2745 2b3d b6a8 073d 5324 cabc
00000110: 223a 9f3c 6c75 533c d2cc 093d b275 b43c
00000120: 771f cc3c c159 6e3c 0cf5 b93c eceb d83c
00000130: b55f bc3c 60a5 093d c3d7 bb3c 5664 fe3c
00000140: ffa8 1f3d ea67 f03c dc0b 913c 178f ab3c
00000150: de3b 6c3c 32f6 d73c a0df 273c 169f 183d
00000160: 6413 c73c 1a3c e33c 2cb2 c63c 7842 ef3c
00000170: e2e1 d53c f7fa 043d 7846 ef3b 0c9f 593c
00000180: 4c74 cb3c 27eb 0b3c f6f4 c63c af7c 3a3c
00000190: 0f06 a33c 2624 003d 0d70 bb3c 8841 333c
000001a0: b620 af3c bb62 a0bc d493 5b3c d3d4 ee3c
000001b0: 2b4d c33c 7da6 013d e031 ac3c af08 af3c
000001c0: 0060 e53c 4041 053d b052 653c 0990 403c
000001d0: e564 b03c 73a7 b23c 6699 083d 9a49 bd3c
000001e0: 4ac4 ec3c 9e01 9c3c 47bf f23c 0a1e 1f3d
000001f0: 6e69 823c 2643 e13c ab5c 1f3c fa94 6d3c
00000200: 5dbe 843c a370 6939 343f 7d3c a898 f2b8
00000210: fcf4 593a c504 9c3c 36ab 1f3d a1b7 8f3c
00000220: 02b4 ee3c 17a8 863c cd9c 7d3c fc01 ad3c
00000230: 27df ee3c 51f3 9e3c 57d2 893c 092c d03b
00000240: 19c6 e33c 6bb5 9b3c c4c4 d23c b0d3 a23c
00000250: c8b8 083d aa4a 153c 35db 003d 9d9f cb3c
00000260: 8ad0 f23c 43c9 093c 6c2d 0f3d 1259 723c
00000270: a18b 823c 8c43 d83c c4ca 413c 1171 78bc
00000280: 36d2 053d ea36 863c d87e 113d 9553 bf3c
00000290: b111 7e3c b1f8 b53c 55af 973c dc24 123d
000002a0: cd1a 9b3c 9862 963c 1ddd 163d cc09 ba3c
000002b0: 8d00 fc3c 97d5 ef3c 319d cc3c 4a71 893c
000002c0: a5c8 b03c 8c70 293d bcad f63c ce4e 143d
000002d0: 841c 3a3c 8ce5 723c f5d3 f03c 8474 903c
000002e0: 74fe de3c f1cc c93c 5a37 e23c 2fa0 b03c
000002f0: f175 c83c dc09 eb3c b6ee 833c 0798 b7bc
00000300: 55b1 dd3c 64cd 903c 3960 d63c 2125 ea3c
00000310: 6f9d 0a3d 0257 033d b46e 993b 8db4 663c
00000320: e9ab c83c 580e e33c 9ddd 853c c3ea a83c
00000330: 464a 313d e459 f93c 4f20 323c 9aa0 fb3c
00000340: 4fe6 cf3c 5be2 1f3d 3bf4 ba3c 39f8 d73c
00000350: 5b17 1c3d e8f2 fb3c ad97 403c b544 9a3c
00000360: a02b fe3c 7285 e63c 6dfa 113d 00fc c53c
00000370: 6618 243c 8937 d73c 8316 933c 08d8 d33c
00000380: ef6f a13c 0d0f 6e3a 37a3 b03c 5ba8 e73c
00000390: 2fbc ca3c 16d3 cb3c 7ca6 753c 89ba 853c
000003a0: dd7a c0bc e4b0 a93c 3a54 c33c f79e 0f3c
000003b0: 01ff c13c 127c d43c 1f77 8d3c b7a3 b23c
000003c0: ae23 5e3c ce44 7f3b 1754 9a3c c9e1 d33c
000003d0: ad00 2d3d 8f82 6f3c 8c1b f43c e870 133d
000003e0: 3f4c f13c 1bba 053d 8110 933c 2921 0a3d
000003f0: 2586 7d3c 9f2e 7c3c a640 933c 3ec8 ce3c
-0.004576724 0.015857588 0.018356143 0.01647107 0.018143127 0.027347034 0.018381901 0.033044282
0.02201359 0.01691887 -0.00088597107 0.020152802 0.033862647 0.026546413 0.015106375 0.031688333
0.02620915 0.024495378 0.03385664 0.020115029 0.022620168 -0.0023347167 0.033986133 0.02088009
0.03259931 0.022507358 0.010248978 0.033917286 -0.005473269 0.019644154 0.017586935 0.030732539
0.019444287 0.025935844 0.019127926 0.0319199 0.035433367 0.007764693 0.013595851 0.018165013
0.019943513 0.02974055 0.022348396 0.03646238 0.035433892 0.0384245 0.015103626 0.034018066
0.009942793 0.023430573 0.03123809 0.030929156 0.03653257 0.027087308 0.038782302 0.023337271
0.020207452 -0.66103315 0.03529021 0.010479875 0.0099915145 0.024962856 0.024600582 0.021699445
0.019134022 0.041813996 0.03311988 -0.024675524 0.0194369 0.0129064135 0.033642597 0.022028778
0.024917347 0.014547766 0.022699855 0.026479684 0.022994855 0.03360498 0.022930032 0.031053703
0.038979527 0.029346425 0.01770585 0.020942254 0.01441857 0.026362512 0.010246187 0.03726109
0.024301238 0.02773862 0.02425488 0.0292065 0.026108686 0.0324659 0.0073021017 0.013282549
0.024835728 0.008539951 0.024286728 0.011382266 0.01990035 0.031284474 0.022880578 0.010940917
0.021377902 -0.019578328 0.013401944 0.029154217 0.023840507 0.031652916 0.021019876 0.021366445
0.027999878 0.03253293 0.013996765 0.011753091 0.021532485 0.021808362 0.033349417 0.023106385
0.028902192 0.01904374 0.029632224 0.038847007 0.015919413 0.02749784 0.009726684 0.014500851
0.016204054 0.00022262572 0.015456963 -0.00011567894 0.00083143986 0.019045243 0.03898164 0.017543616
0.029138569 0.016437573 0.015479279 0.02111911 0.029159142 0.019403132 0.01682393 0.0063529056
0.027804421 0.019007405 0.02572859 0.019876331 0.033379346 0.00911204 0.031459052 0.024856383
0.029640455 0.008409801 0.034955427 0.014791744 0.01593572 0.026399396 0.011828128 -0.015163676
0.032671176 0.016383607 0.03552136 0.023355285 0.015507148 0.022213312 0.018516222 0.035679683
0.018933678 0.01835756 0.036831964 0.02270975 0.030761981 0.029276652 0.024977298 0.016777653
0.02158005 0.0413671 0.03011214 0.036207967 0.011359338 0.014825236 0.029397944 0.017633684
0.027220942 0.024633856 0.027614284 0.021560756 0.024470301 0.028691225 0.016105037 -0.02241136
0.027062098 0.017676063 0.02616893 0.028582158 0.033841547 0.0320654 0.0046823863 0.014081133
0.024496036 0.0277168 0.016341025 0.020619756 0.043283723 0.030438371 0.010871961 0.03071623
0.025378374 0.03903423 0.022821536 0.026363479 0.03810821 0.030755475 0.011754912 0.01883159
0.031026661 0.028139804 0.035639215 0.024168015 0.010015583 0.026271598 0.01795507 0.025859848
0.019706694 0.0009081222 0.021562202 0.02827852 0.024747936 0.024880927 0.014993306 0.016324298
-0.023496086 0.02071423 0.023843873 0.0087659275 0.023681166 0.025938068 0.017268715 0.021806581
0.013558311 0.0038950923 0.018838925 0.025864499 0.042236973 0.01461853 0.029798292 0.035996348
0.029455302 0.032648187 0.017952206 0.03372303 0.015473877 0.015391975 0.017975163 0.025241967
