RL code/models/checkpoint_episode_350000.pth (torch, 801255 bytes, 40 tensors)

net.0.weight f4 [256, 22]
000000 07 e2 9b ba c2 76 28 bd bf 5a 3e 3e ff e5 35 3d
       -0.0011892923 -0.04112888 0.18589304 0.044408794
000010 f0 b4 c8 3d 64 92 ab 3c d5 dc 69 3d f5 da 91 3d
       0.09800136 0.020943828 0.057095367 0.07121841
000020 5a a1 ce 3d 5f 57 ae 3c d3 29 db bc 48 be fc 3d
       0.10089369 0.021281896 -0.026753342 0.12340981
000030 7f 2d 70 3e 46 6c 4c 3d 16 65 51 3d ca d0 fa 3b
       0.23454855 0.049907945 0.051121794 0.007654284
000040 4f e9 17 3c c7 bf 6d 3d 5a a1 ce bd 5f 57 ae bc
       0.009271934 0.05804422 -0.10089369 -0.021281896
000050 67 e1 9b ba b0 76 28 bd 50 b1 92 3d 28 e2 05 3e
       -0.0011892737 -0.041128814 0.07162726 0.13074553
000060 af bc b5 bd 51 81 b1 ba 25 08 c1 39 1a e2 a4 3c
       -0.08873879 -0.0013542568 0.00036817897 0.020127345
000070 c3 5f 89 bc 3b 2d bc 3c 99 cf 5b 3d 50 d9 fb bb
       -0.016769296 0.022970786 0.053664777 -0.007685818
000080 0d fa d6 bc f9 9c be bd 0e fe 4c bd c8 ab 84 bc
       -0.02624228 -0.09307284 -0.050046973 -0.016195193
000090 4f 07 04 bd e6 13 bd 3c fa d2 4e bd 84 a0 0e 3d
       -0.032233533 0.023080777 -0.05049417 0.03482105
0000a0 99 cf 5b bd 50 d9 fb 3b 51 b1 92 3d 28 e2 05 3e
       -0.053664777 0.007685818 0.07162727 0.13074553
0000b0 e7 2e 0a 3e 1d da 01 3e 6b 90 3c 3e a3 21 2c 3e
       0.13494454 0.1268086 0.18414466 0.16809706
0000c0 77 05 1c be 0b 38 21 be 65 64 2a be 65 5d 32 be
       -0.1523646 -0.15744035 -0.1663986 -0.1741844
0000d0 8f 2a ac be 7c 2e af be 8b 44 8f be b1 ca 8c be
       -0.3362622 -0.34215152 -0.27981982 -0.2749839
0000e0 ea f7 29 be 27 fb 2d be 8d aa 28 3e be c6 20 3e
       -0.16598478 -0.16990338 0.1647131 0.15700814
0000f0 e4 d6 27 3e 4b 0e 28 3e 6e 2a ac 3e 4d 2e af 3e
       0.16390568 0.16411702 0.3362612 0.34215012
000100 65 cf 09 3e 4a 62 01 3e c8 2b aa 3d cc 5d e9 bd
       0.13458021 0.1263515 0.08309132 -0.113948435
000110 bb e6 9c bc 59 6a 2e 3c 12 1e fa bd 8b eb 8a bc
       -0.01915299 0.010645472 -0.12212767 -0.016958019
000120 6c ac 28 bc 98 54 13 3d b5 94 ac bc fe 45 a4 3c
       -0.010295015 0.035969347 -0.021067003 0.020052906
000130 d2 86 81 3d 80 f8 44 be 75 03 a1 bd 1f aa 51 3d
       0.06324543 -0.1923542 -0.078619875 0.05118763
000140 cd 2e a3 bd 5c 89 4b bd e5 29 28 3d a8 49 49 3b
       -0.07967911 -0.049691543 0.04105558 0.0030714069
000150 b5 94 ac 3c fe 45 a4 bc c9 2b aa 3d c9 5d e9 bd
       0.021067003 -0.020052906 0.083091326 -0.11394841
000160 ed 6a 8a bc 69 82 14 bc 9b cf 90 3d 70 7b 71 3c
       -0.01689669 -0.009064295 0.070708476 0.014738902
000170 d9 3e 89 3d c2 a8 67 bd 46 33 95 bd 87 7f de 3c
       0.0670144 -0.056557424 -0.0728517 0.02716042
000180 4a 27 e9 bc 89 4c 0a bd 37 1d a6 3d d2 1d 20 be
       -0.028461117 -0.033764396 0.08111041 -0.15636376
000190 d1 e2 ab 3d 3f 42 b6 bb 99 09 7d 3d b9 37 25 bd
       0.08392871 -0.0055620964 0.06177673 -0.040336344
0001a0 76 f1 ae bd dd 88 30 3d 4a 27 e9 3c 89 4c 0a 3d
       -0.08542149 0.043099273 0.028461117 0.033764396
0001b0 ed 6a 8a bc 69 82 14 bc a5 93 97 bc de 6b 3c 3c
       -0.01689669 -0.009064295 -0.01850302 0.011500327
0001c0 58 de e0 bd 62 ae 7a 3d e8 ae c0 bd 6c 42 df 3c
       -0.10979909 0.06120146 -0.09408361 0.027253352
0001d0 83 1e e1 bc a8 81 3c 3d 2f b0 b9 bd e0 cc 11 3e
       -0.02748037 0.046022087 -0.090668075 0.1423831
0001e0 d9 cd 17 3d ef 78 9e bd 12 49 3d be 0e ca 05 3e
       0.037061546 -0.0773791 -0.18484905 0.13065359
0001f0 90 8c 8c bc c1 3f 0f bd 82 d3 20 3d aa 48 ae bc
       -0.01715687 -0.03497291 0.03926421 -0.021274883
000200 2f b0 b9 3d e0 cc 11 be a5 93 97 bc e2 6b 3c 3c
       0.090668075 -0.1423831 -0.01850302 0.011500331
000210 14 e5 b5 bd 9e 37 88 39 88 c7 8b be 73 b4 70 3c
       -0.08881584 0.0002598138 -0.27300668 0.01469146
000220 b1 62 b5 bc 76 47 99 3c d0 79 e0 3c 1e 0d 68 3c
       -0.022141786 0.018710833 0.027401835 0.014163284
000230 c1 10 8e 3d 94 6f c3 3b 31 fa ae 3c 53 72 0e 3d
       0.06936789 0.005964229 0.021359535 0.034776997
000240 b7 42 5a be 99 cc 7c 3c 5d 1f cd bd 1d f1 8a 3c
       -0.21314512 0.015429639 -0.10015748 0.016960675
000250 6b d8 2c bd 66 43 14 3c c1 10 8e bd 94 6f c3 bb
       -0.04219858 0.009049272 -0.06936789 -0.005964229
000260 0d e5 b5 bd fe 34 88 39 7d 5d 3f 3d a1 03 33 3d
       -0.088815786 0.00025979424 0.046720017 0.043704633
000270 6c fc 40 3c e5 ee db bd c4 c0 0f 3a c8 78 c5 bd
       0.011778932 -0.10738925 0.00054837414 -0.09642178
000280 aa 6f 2d bd 0e c3 54 3d 02 30 30 bd 34 aa c9 bc
       -0.04234282 0.05194383 -0.043014534 -0.024617292
000290 37 e0 88 3d 74 6e d6 3c f1 70 41 ba cd 47 07 be
       0.066833906 0.026175715 -0.00073791953 -0.13210984
0002a0 37 15 b1 bb 54 1b a8 bd 1c ff 6f bd de 86 93 3d
       -0.0054041403 -0.082083374 -0.0585929 0.07203458
0002b0 02 30 30 3d 34 aa c9 3c 84 5d 3f 3d 9f 03 33 3d
       0.043014534 0.024617292 0.046720043 0.043704625
0002c0 6c de 85 bc 8b ba d9 3d 6a 2a 6e bd 74 02 ac bb
       -0.01634141 0.106312834 -0.058145918 -0.005249316
0002d0 54 a0 35 bd 13 ae 1a 3d 83 30 4e bd f6 73 ca 3d
       -0.044342354 0.037763666 -0.050339233 0.09885399
0002e0 40 3f 1c bb 34 58 37 bb 95 76 0b be 2a e9 e0 3d
       -0.002384141 -0.0027976157 -0.13619454 0.109819725
0002f0 38 66 94 bd 1f e5 25 3d 96 a6 a6 bc d8 43 1a bc
       -0.07246059 0.04050171 -0.020343106 -0.009415589
000300 ad b3 fc bc 5d cb 60 3d 40 3f 1c 3b 34 58 37 3b
       -0.030847395 0.054881442 0.002384141 0.0027976157
000310 60 de 85 bc 8a ba d9 3d 87 cd 7f 3d 56 ba 80 bd
       -0.016341388 0.10631283 0.062451866 -0.06285541
000320 d8 f9 3e bb 63 43 e9 bd 5a 7b a5 3c fb ec 28 bd
       -0.0029140618 -0.11389806 0.02020042 -0.041241627
000330 80 ce b1 bd 2f dc 00 bd fa 51 be bc 3d 9b ab 3c
       -0.08681965 -0.031459983 -0.023232449 0.020948047
000340 1f 3c e6 bd ad 5c 9c bb a9 c2 08 3c 5f 1f 0b be
       -0.11241936 -0.00477179 0.008347192 -0.13586186
000350 2e 06 1c 3c bd 35 a9 bc 12 18 bd bd e8 1b 70 bc
       0.009522958 -0.020655507 -0.09233107 -0.014655091
000360 fa 51 be 3c 3d 9b ab bc 8b cd 7f 3d 4b ba 80 bd
       0.023232449 -0.020948047 0.06245188 -0.062855326
000370 8c d9 dc bd 51 52 47 bd 74 3b 27 bd 9e 61 67 3c
       -0.10783681 -0.048662487 -0.040828183 0.014122395
000380 51 84 a2 bc 4d 81 d6 3c ae 10 cf 3d 10 74 73 3d
       -0.019838484 0.026184702 0.10110603 0.059436858
000390 9a ef 93 3d 6c ca 15 3d cb 1f 0c bd 75 7e ed bd
       0.07223435 0.036569998 -0.034210008 -0.115963854
0003a0 6d 7c 84 3c d9 70 ae 3d 07 49 8b bd 99 a6 21 bd
       0.016172612 0.08517618 -0.06801038 -0.03946552
0003b0 82 30 9a 3d b9 11 5a ba 9a ef 93 bd 6c ca 15 bd
       0.075287834 -0.0008318681 -0.07223435 -0.036569998
0003c0 88 d9 dc bd 4d 52 47 bd f5 61 a7 bd 35 66 3d bd
       -0.10783678 -0.048662473 -0.08172981 -0.04624005
0003d0 0e ec bb bd 62 a8 01 bd 17 7d 83 bc 7a f8 07 3d
       -0.09175883 -0.031654723 -0.016050858 0.03319595
0003e0 e5 38 eb bb 88 7e 91 3d 2f 68 14 bc f7 bc ad 3d
       -0.007178413 0.07104212 -0.009058042 0.08483308
0003f0 bf 26 d3 3d f0 86 0e be b3 67 bb bd 29 84 59 3d
       0.103101246 -0.13918662 -0.091506384 0.053104553

net.0.bias f4 [256]
000000 7d 5c 55 be 66 f0 62 be e6 ca 02 be 0e 34 66 be
       -0.20836063 -0.22162017 -0.12772712 -0.22480795
000010 ae 8d 9a be 6e c4 69 be 44 b0 a7 be 30 25 97 be
       -0.30186218 -0.22828838 -0.32751667 -0.2952056
000020 3f 05 5c be b0 86 5e be e2 34 96 be 5a 90 61 be
       -0.21486376 -0.21731067 -0.2933722 -0.22027722
000030 66 d6 80 be 52 75 1a bf 4a 52 28 be 13 78 bd be
       -0.25163573 -0.60335267 -0.16437641 -0.37005672
000040 b6 2e 92 be ab da b3 be ab 0c 96 be c0 7b 92 be
       -0.28551263 -0.35127768 -0.2930654 -0.2861004
000050 32 ba a3 be cb 07 98 be 36 39 60 3d 63 25 19 be
       -0.31977993 -0.29693446 0.05474206 -0.14955668
000060 cd c2 4e be b4 dd 41 be a1 bf 83 be 8f 7c 93 be
       -0.20191498 -0.1893223 -0.2573214 -0.28805968
000070 86 df 28 be 48 bb 4a 3e 30 08 9b be e1 af 72 be
       -0.16491517 0.19798005 -0.30279684 -0.23699905
000080 9c 8f 6a be ad 09 94 be bb a1 0c bf 49 91 9b be
       -0.22906345 -0.28913632 -0.5493428 -0.3038428
000090 5f 18 7e be 7a 95 27 be 03 8a 1e bf 57 0d 68 be
       -0.24813984 -0.16365615 -0.6192934 -0.22661339
0000a0 87 e0 60 be 13 ba 48 be 9a cf ef be 30 e4 d5 be
       -0.2196065 -0.19602232 -0.46838075 -0.41775656
0000b0 13 e0 54 be f8 61 9d be 26 2e 47 be 53 25 95 be
       -0.20788603 -0.30738807 -0.19451198 -0.2913004
0000c0 99 f2 48 be eb d2 80 be ea 03 8b be d4 71 79 be
       -0.19623794 -0.25160918 -0.27151424 -0.24359828
0000d0 08 4d 92 be 84 ad 7c bd bb 05 3a be 21 6c 5a be
       -0.28574395 -0.061688915 -0.18166249 -0.2133031
0000e0 19 2e 67 be 8e 2f 7e be 57 00 98 be 23 0b b2 be
       -0.22576179 -0.24822828 -0.2968776 -0.34774122
0000f0 b2 17 88 be 31 58 a7 be 5c 42 66 be 8c 5d 3a be
       -0.26580578 -0.32684472 -0.22486252 -0.18199748
000100 47 ca 84 be 76 97 b0 3c 60 aa a8 be b0 f4 5a be
       -0.25935575 0.021556597 -0.32942486 -0.21382403
000110 2a 9a 1b be e3 6c 96 be e6 fc 41 be 2d ef ea be
       -0.15195528 -0.2937995 -0.1894413 -0.45885602
000120 68 e0 42 be 06 63 5d be 95 cf 79 be 24 b3 83 be
       -0.19030917 -0.21619806 -0.24395593 -0.2572261
000130 fa 47 7b be 65 a5 6d be e4 a2 4d be c8 c7 61 be
       -0.24539176 -0.23207624 -0.20081669 -0.22048867
000140 4c 1f 77 be 5c 5f 8e be bf 7b 8b be 5e 65 43 be
       -0.24133033 -0.27807128 -0.27242848 -0.19081637
000150 82 5f 4c be bd cb 58 be ef 94 8b be f3 a1 af be
       -0.19958308 -0.2117147 -0.27262065 -0.34303245
000160 8c ae 84 be ec fd 9c be c8 c3 6d be ee 7f 3f be
       -0.2591442 -0.30662477 -0.23219216 -0.18701145
000170 90 a1 7c be 54 c9 08 bf a7 52 51 be d1 37 84 be
       -0.24671006 -0.534322 -0.20441686 -0.25823835
000180 28 05 70 be 5e 01 53 3e 43 56 8f be 86 5b 95 be
       -0.23439467 0.2060599 -0.279955 -0.2917139
000190 46 11 7f be 70 b8 93 be 2b 80 38 be 92 e4 1b bf
       -0.24908933 -0.28851652 -0.18017642 -0.60895646
0001a0 83 98 60 be e2 cf 95 be e4 77 6a be c3 e5 6d be
       -0.21933179 -0.29260164 -0.22897297 -0.23232178
0001b0 d0 e8 28 be 2f 7f 8d be 87 fb 80 be fe f1 83 be
       -0.16495061 -0.27636096 -0.251919 -0.25770563
0001c0 f0 30 70 be 5d 57 78 be 1d d9 69 be d9 fa 28 3d
       -0.23456168 -0.24252076 -0.22836728 0.041254852
0001d0 55 11 2e be 3d b0 51 be 8a 51 8e be 74 47 8c be
       -0.16998799 -0.20477386 -0.27796584 -0.27398264
0001e0 c7 41 27 be 6c 78 98 be a3 21 59 be a8 c1 9d be
       -0.16333686 -0.29779375 -0.21204238 -0.3081181
0001f0 07 7f 9b be d6 a7 50 3e 4e 54 7d be 89 07 59 be
       -0.30370352 0.20376524 -0.24739191 -0.2119428
000200 4b f4 6c be db 0a 85 be 15 0b 90 be 88 94 87 be
       -0.23140065 -0.25984845 -0.28133455 -0.26480508
000210 11 a3 9b be f3 9f 94 be 31 6c 84 be f6 19 be be
       -0.30397847 -0.29028282 -0.25863793 -0.37129182
000220 df f5 55 be 3e aa b0 be 48 9a 6f be 82 e8 79 be
       -0.20894574 -0.34504884 -0.23398697 -0.24405101
000230 21 1f 43 be 47 4a 90 be 7b 87 96 bd 21 51 fe bc
       -0.19054843 -0.2818167 -0.073500596 -0.031044545
000240 7b 09 52 3e 85 f5 88 be 2c dc 60 be 8a df 74 be
       0.20511429 -0.26749817 -0.21958989 -0.23913398
000250 af f0 32 be 84 9e 93 be e9 ad 68 be d2 b3 92 be
       -0.17474626 -0.28831875 -0.22722591 -0.28652817
000260 d3 44 86 bd 4a 9f fc be d5 bf 85 be 75 03 49 be
       -0.06556096 -0.49340278 -0.2612292 -0.19630225
000270 e7 f4 77 be 23 29 5d bd 04 b2 32 be bf 79 39 be
       -0.24214517 -0.05399431 -0.1745072 -0.18112849
000280 2c 97 81 be e7 86 93 be 04 e3 1b bf 40 f8 21 be
       -0.25310647 -0.2881386 -0.60893273 -0.15817356
000290 ce 4d 92 be 31 93 98 be 40 ea 93 3d 18 cd 77 be
       -0.28574985 -0.29799798 0.07222414 -0.24199331
0002a0 ac 95 88 be 79 b5 12 bf f2 f3 35 be 69 51 09 bf
       -0.2667669 -0.57308155 -0.17768839 -0.5363985
0002b0 17 d3 3d be c2 cf 95 be d5 90 88 be 1b 22 51 be
       -0.18537556 -0.2926007 -0.26672998 -0.20423166
0002c0 f6 2a 3e be 0e 51 4c be 96 c9 85 be f3 d4 14 bf
       -0.18571076 -0.19952795 -0.2613036 -0.58137435
0002d0 06 89 3c be f8 15 b2 3d ce 81 51 be ae 3e e7 be
       -0.18411645 0.086955965 -0.20459673 -0.45165008
0002e0 24 c4 a0 be 72 d0 57 be cc 7b 8f be 94 a6 5b be
       -0.31399643 -0.2107561 -0.28024137 -0.21450263
0002f0 3a d6 ac be 47 4b 92 be e4 40 79 be 13 7c 82 be
       -0.33757192 -0.28573057 -0.2434116 -0.25485286
000300 cc ce 51 be 53 1b d8 be 06 22 6b be 0b 5b 4f 3e
       -0.20489043 -0.42208347 -0.22962198 0.20249574
000310 6b 3f 81 be 11 5f 87 be 3c f7 8f be 7f 10 42 be
       -0.25243697 -0.26439717 -0.28118312 -0.18951605
000320 e0 51 55 be 04 66 65 be 1c 21 95 be 93 ae 59 be
       -0.20832014 -0.22402197 -0.29126823 -0.21258001
000330 c5 3d ea be e5 1b 8d be be 9d 93 be d6 75 9c be
       -0.4575025 -0.27560344 -0.28831285 -0.30558652
000340 c3 ca 78 be b5 9a 59 be 0a 69 4b 3e d6 a8 70 be
       -0.24296097 -0.21250422 0.19864288 -0.23501906
000350 c0 56 0d bf 14 dc b3 be d5 1a 7f be 95 59 3c be
       -0.55210495 -0.35128844 -0.2491258 -0.18393548
000360 17 fa 9b be 01 04 bd be 3d 44 85 be 41 06 8e be
       -0.3046424 -0.36917117 -0.26028624 -0.27739146
000370 3d 2d 54 be c6 7d 84 be 08 32 27 bf 1e 55 22 be
       -0.20720382 -0.25877208 -0.65310717 -0.15852782
000380 46 62 41 be a1 40 88 be 9f af a9 be 23 2b 8b be
       -0.18885145 -0.26611808 -0.331418 -0.27181348
000390 43 90 95 be bb d4 68 be a8 cd 94 be 8d b0 9e be
       -0.29211625 -0.227374 -0.29063153 -0.30994073
0003a0 54 f8 36 be 41 b4 80 be 88 95 90 be b2 6b 91 be
       -0.17868167 -0.25137523 -0.28239083 -0.28402478
0003b0 d5 20 71 be a2 56 96 be ef 5a 95 be 87 1c 6d be
       -0.2354768 -0.2936297 -0.2917094 -0.23155414
0003c0 53 3f 65 be 7a 0e c5 be 3d 4f 52 3e 1d 3c 51 be
       -0.22387438 -0.38487607 0.2053804 -0.20433088
0003d0 89 47 a1 be 46 0b 99 be dd 99 92 be 28 bc 8a be
       -0.3149989 -0.29891413 -0.28633013 -0.27096677
0003e0 2b 5e 63 be f6 09 45 bd f3 ef fc be 83 f1 95 be
       -0.22203891 -0.048105203 -0.49401817 -0.2928582
0003f0 70 f6 6c be fe 21 72 be ed b1 b8 be a4 70 92 bd
       -0.23140883 -0.2364578 -0.36073247 -0.07150391

net.2.weight f4 [256]
000000 43 65 2c 3e d4 61 09 3e 45 1f 54 3e b1 fd 51 3d
       0.16835503 0.13416225 0.20715053 0.05126733
000010 6d 60 5d 3e 02 09 52 3e ed 88 2a 3e 03 31 17 3e
       0.21618815 0.20511249 0.16653796 0.1476479
000020 b3 bb 0b 3e 14 f2 1b 3e e0 e6 24 3e e4 46 c1 3d
       0.1364582 0.15229064 0.16103697 0.094373494
000030 4e 46 2a 3e f1 0c b3 3e 08 dc 3e 3d 5e 63 80 3e
       0.16628382 0.3497081 0.046596557 0.2507581
000040 9b c7 31 3e 18 da 59 3e af fb 19 3e 7f 98 5f 3e
       0.173613 0.21274602 0.15037416 0.21835516
000050 a6 52 d8 3d 6e e4 4f 3e 03 b1 d2 3c 39 52 12 3e
       0.10562639 0.20301983 0.025719171 0.14289178
000060 43 66 67 3e 2f 62 66 3e c7 0d 34 3e 56 9e 70 3e
       0.22597603 0.22498392 0.1758338 0.234979
000070 e9 0a f9 3d 7f 7d 23 3e bf f1 48 3e 37 bb 63 3e
       0.12160284 0.15965842 0.19623469 0.22239386
000080 e7 f9 3f 3e fe 1e 35 3e 48 f6 67 3e 21 c9 5f 3e
       0.18747674 0.17687604 0.22652543 0.21854068
000090 d6 96 33 3e d0 ca da 3d d2 e5 a2 3e cf 52 f6 3d
       0.17538008 0.10683215 0.31815964 0.12027513
0000a0 76 6b 2b 3e d2 86 71 3e 38 5f 58 3e a1 10 5f 3e
       0.16740212 0.23586586 0.21130073 0.21783687
0000b0 26 02 47 3e 02 8f 33 3e e1 04 24 3e d9 52 37 3e
       0.19434413 0.17535022 0.16017486 0.17902698
0000c0 30 a9 60 3e c9 80 88 3d 0f e5 4e 3e 23 37 ad 3d
       0.2193954 0.06665189 0.20204566 0.08457782
0000d0 31 df d7 3d be 2d 07 3f fc d8 82 3e b6 61 0f 3e
       0.10540617 0.5280417 0.2555617 0.14002118
0000e0 56 02 19 3e 0e 2e 01 3e bb 4c fd 3d 19 71 87 3e
       0.14942297 0.12615225 0.12368151 0.26453474
0000f0 b4 e3 17 3e f8 ce d1 3e 56 2b d2 3d e5 82 53 3e
       0.14832956 0.40978217 0.10262172 0.20655401
000100 c2 eb 36 3e b1 6d d5 3c 49 22 30 3e ab e9 a6 3d
       0.17863372 0.026053282 0.17200579 0.081500374
000110 31 38 6f 3e 2b cb c6 3e 38 22 66 3e ff 28 12 3f
       0.23361279 0.3882688 0.22473991 0.57093805
000120 73 4c 0f 3e a6 6b 0a 3e ed 3f 4c 3e ff 76 d9 3e
       0.13994007 0.13517627 0.19946261 0.424736
000130 a4 51 86 3d f5 b6 6b 3e 59 08 0a 3e 8a fb 04 3e
       0.065585405 0.23019011 0.13479747 0.1298658
000140 d2 3d 46 3e cd ba 08 3e 58 57 62 3e c6 a0 51 3e
       0.1935952 0.13352509 0.22103631 0.20471486
000150 0a 10 26 3e 64 98 2a 3e 63 5c 6a 3e 8e 37 3a 3e
       0.16217056 0.16659695 0.22886805 0.18185255
000160 b4 2d 32 3e a4 2e 55 3e b9 7c 3e 3e 28 a2 fc 3e
       0.17400247 0.20818573 0.18602265 0.49342465
000170 10 34 11 3e c6 dd cc 3e 1a 3e b3 3d 52 0d 37 3e
       0.14180017 0.4001295 0.08752079 0.17876175
000180 01 96 35 3e f0 ac 27 3e 8b 9f 3b 3e a1 b3 86 3e
       0.17733003 0.16374564 0.1832258 0.2630892
000190 7d 39 47 3e 65 45 bb 3d ca bc 3f 3d a4 df a1 3e
       0.19455524 0.09144095 0.046810903 0.31615937
0001a0 0d 2e 06 3f 0f 48 5b 3e 9a 92 5c 3e 36 5e 46 3e
       0.5241402 0.21414207 0.21540299 0.19371876
0001b0 1d 37 db 3d a0 08 54 3e c3 37 16 3e d3 f5 09 3e
       0.107038714 0.20706415 0.14669709 0.13472681
0001c0 cf 7d eb 3d 7f 33 31 3e d7 f1 f8 3d 03 ee 05 3d
       0.114986055 0.173048 0.12155502 0.03269769
0001d0 b0 ac 00 3f 79 9c 07 3e 10 43 06 3e c8 dd ef 3d
       0.502635 0.13243283 0.1311152 0.11712223
0001e0 42 31 19 3e 4c 08 14 3e c5 6e f7 3d 97 4c f1 3d
       0.14960197 0.1445629 0.120816745 0.117821865
0001f0 19 4d 6b 3e 88 3d 26 3e eb e4 41 3e e9 1b 7a 3e
       0.22978629 0.1623441 0.18934982 0.2442471
000200 88 64 92 3d 4e 80 36 3e b9 e5 4e 3e fe d0 15 3e
       0.07148081 0.17822382 0.2020482 0.14630505
000210 fc cd 02 3e 19 b7 52 3e 95 83 40 3e 7e b8 81 3e
       0.1277389 0.20577659 0.18800195 0.2533607
000220 e4 ae 74 3e 9b 8c 83 3e ae bc 2c 3e db ae 19 3e
       0.2389484 0.2569321 0.1686885 0.15008108
000230 36 e6 56 3e ce c3 19 3e 19 8a 25 3e f6 0f 0e 3e
       0.20986256 0.150161 0.16165961 0.13873276
000240 c7 44 25 3e 18 69 4f 3e 53 c7 0c 3e 00 cb 39 3e
       0.16139518 0.20254934 0.13747911 0.18143845
000250 cb af 55 3e a9 df 66 3e 72 8f 29 3e 74 3e 11 3e
       0.20867841 0.22546257 0.16558626 0.1418398
000260 71 17 f2 3d e2 21 15 3f 8b 28 dd 3d 6f 31 4d 3e
       0.11820877 0.58254826 0.107987486 0.20038389
000270 3f 5f 47 3e ec 86 15 3e 82 25 1e 3e de 6d 11 3e
       0.19469927 0.1460225 0.15443996 0.14202067
000280 58 f0 80 3e ce 02 58 3e b8 59 cf 3e 50 34 0d 3e
       0.25183368 0.2109482 0.40498137 0.13789487
000290 6b 5e 06 3e bc 96 23 3e 10 c9 0c 3d 44 29 2f 3e
       0.13121955 0.1597547 0.034371436 0.17105585
0002a0 9c 64 1d 3e db b4 af 3e 0c 78 15 3e 43 82 f5 3e
       0.1537041 0.3431767 0.14596575 0.47950944
0002b0 6e 9e 43 3e e2 77 35 3e 01 86 c2 3d fa 77 76 3e
       0.19103405 0.17721513 0.094982155 0.24069205
0002c0 86 7c a6 3d 21 ad c0 3d 51 ae 0f 3e f1 b1 03 3f
       0.0812922 0.09408022 0.1403134 0.5144339
0002d0 1a 1c 5a 3e 3e cd bc 3c 03 0e 1a 3e e2 58 ad 3e
       0.21299782 0.023047086 0.15044408 0.33856875
0002e0 3a e0 6b 3e a8 17 10 3e 26 a3 2d 3e d7 0e 36 3e
       0.23034754 0.14071524 0.16956767 0.17779098
0002f0 08 32 7c 3e fb 6c 4d 3e d0 90 40 3e 47 95 f4 3d
       0.2462846 0.20061104 0.18805242 0.11942535
000300 eb 77 af 3d fe b6 ae 3e bf 18 29 3e 9f 5c 1f 3e
       0.085677944 0.34123987 0.16513346 0.15562676
000310 43 83 ee 3d 98 6c 4a be b6 5d 23 3e 67 33 64 3e
       0.1164613 -0.19767988 0.15953717 0.22285233
000320 a1 58 0a 3e 7f 63 0c 3e 90 3b ab 3d 29 c4 bd 3d
       0.13510372 0.1370983 0.0836097 0.0926593
000330 ce 11 78 3e d3 77 28 3e 9f 4f e2 3d ef 5d 5e 3e
       0.24225542 0.1645196 0.11050343 0.2171552
000340 ac 26 1a 3e 80 d0 10 3e db f1 1e 3e 8d d8 33 3e
       0.15053815 0.14142036 0.15521948 0.17563076
000350 12 46 a1 3e ba 8c 40 3e 40 c9 0d 3e 40 05 25 3e
       0.31498772 0.18803683 0.13846302 0.16115284
000360 1d b5 60 3e 08 2f 1d 3e dc 7e 65 3d 62 5e 28 3e
       0.21944089 0.15349972 0.056029186 0.16442254
000370 be 2b c3 3d 32 69 12 3e 45 6b b8 3e 50 e3 91 3d
       0.095298275 0.14297941 0.3601934 0.071234345
000380 1c 25 c4 3d a3 bc fc 3d af 02 27 3e 96 c9 d4 3d
       0.095773906 0.12340667 0.16309617 0.10390012
000390 90 69 28 3e 4f 7e b7 3d 35 14 24 3e e0 7c 88 3e
       0.16446519 0.08959638 0.16023333 0.26657772
0003a0 3e 01 99 3d 60 a0 11 3e 68 14 21 3e 27 8f 23 3e
       0.0747094 0.14221334 0.1573044 0.15972577
0003b0 cb b6 a5 3d e5 bf 34 3e 69 1e 48 3e 62 ee 98 3d
       0.080915056 0.17651327 0.1954285 0.07467343
0003c0 dc ec 5e 3e f6 65 86 3e 6f 17 23 3e 93 d6 60 3d
       0.21770042 0.26249665 0.15926908 0.054892134
0003d0 d5 09 32 3e 3e 20 2c 3e 14 4c 1d 3e 79 f2 7f 3e
       0.17386563 0.16809174 0.15361053 0.2499484
0003e0 b4 c5 27 3e 2a f3 1b 3e 27 76 ae 3e 60 22 4b 3e
       0.16384012 0.15229478 0.34074518 0.19837332
0003f0 96 d5 40 3e 5d a2 f7 3d 8b 88 34 3e cf ac 19 3e
       0.18831477 0.12091515 0.17630212 0.15007327

net.2.bias f4 [256]
000000 44 c2 33 3d 33 24 23 3d a9 fd 81 3c 5a 93 59 ba
       0.043886438 0.039829444 0.015868025 -0.000829985
000010 e6 f8 5e 3d d2 28 47 3d 3f cb f0 3c 10 8c fe 3c
       0.054436587 0.048622914 0.02939379 0.031072646
000020 51 b0 e1 3c 19 bd e8 3c 5b 43 0b 3d 2a 90 ae 3c
       0.027549895 0.028410481 0.033999782 0.021308977
000030 91 3f 35 3d 12 9d b1 3d 2e 99 d0 38 c9 27 8d 3d
       0.044250075 0.08672537 9.946745e-05 0.06892354
000040 61 17 29 3d c1 7e 49 3d df e2 08 3d ce cc 54 3d
       0.04128206 0.049193148 0.033419486 0.05195313
000050 a6 7a c2 3c b3 b8 61 3d f6 95 54 bd ce f4 2e 3c
       0.023740124 0.055107784 -0.051900826 0.010678483
000060 d8 d8 16 3d 13 74 10 3d 35 1b 57 3d 3b 08 6e 3d
       0.036827892 0.035266947 0.05251618 0.058113318
000070 6b 1a af 3c 61 a3 06 bf 94 aa 55 3d 5d 41 72 3d
       0.021374902 -0.52593046 0.05216463 0.059144367
000080 db 9f 21 3d e3 e1 20 3d 9f bb 09 3d 47 9b 73 3d
       0.03945909 0.039277922 0.033626195 0.059474256
000090 e3 cf 34 3d d7 5a 23 3c 0c 9c 89 3d 4f 71 dd 3c
       0.04414357 0.009970388 0.06719217 0.027031569
0000a0 bd 79 0e 3d d9 c0 18 3d e5 94 42 3d 7f 43 5c 3d
       0.034784067 0.03729329 0.04750528 0.053775307
0000b0 00 ac 11 3d ce aa 31 3d 51 4a bf 3c 74 47 44 3d
       0.035564423 0.043375783 0.023350867 0.047919706
0000c0 95 51 e9 3c fd 71 68 3c 6b 9c 55 3d db e1 84 3c
       0.028481284 0.014187333 0.052151125 0.016220978
0000d0 e2 f9 58 3c 04 26 19 3e 13 e9 23 3d ac d0 b5 3c
       0.01324317 0.14955908 0.0400172 0.022194229
0000e0 19 b2 11 3d 18 b4 de 3c 1e 7b d7 3c e8 2a 8d 3d
       0.035570238 0.027185485 0.026303824 0.06892949
0000f0 72 d6 dd 3c 9c ba f8 3d 68 a0 8d 3c 19 b6 07 3d
       0.027079795 0.12144968 0.017288402 0.033132646
000100 2f d9 33 3d 7b d6 66 bd 25 2d 34 3d 08 58 67 3c
       0.043908294 -0.05635689 0.043988366 0.014120109
000110 87 73 3d 3d 98 3b df 3d ac 04 15 3d a8 bc 18 3e
       0.046252754 0.109000385 0.03638141 0.14915717
000120 9d 4d e4 3c 7a 3d c6 3c b8 bf 2c 3d 76 95 ee 3d
       0.02786904 0.024199236 0.042175025 0.11649601
000130 48 9f 9b bb 49 44 5a 3d dd 9f e1 3c 97 cd bf 3c
       -0.0047492124 0.053287778 0.027542049 0.023413463
000140 9d b0 39 3d 05 31 f9 3c 0b 83 3b 3d 62 ec 18 3d
       0.045334447 0.030418882 0.04577927 0.037334807
000150 d2 97 da 3c e5 68 05 3d 4c f1 85 3d d8 0f f3 3c
       0.026683722 0.03257074 0.06540164 0.02967064
000160 dd fb 19 3d fd 0b 61 3d 46 64 24 3d 4c 5b 0e 3e
       0.03759371 0.054943074 0.04013469 0.13902014
000170 30 bf 2d 3d 82 8b ce 3d 13 76 ad 3c ca ee 15 3d
       0.04241866 0.10085203 0.021174466 0.03660468
000180 f0 10 20 3d bb 65 03 bf a9 3f 30 3d d5 71 84 3d
       0.039078653 -0.51327103 0.04302946 0.06467024
000190 71 89 3f 3d 68 b2 b5 3a 44 4d 8b bb 04 e8 93 3d
       0.046761934 0.0013862373 -0.004251154 0.07221988
0001a0 79 0b 18 3e ab 68 6c 3d 93 40 7f 3d a5 4e 33 3d
       0.14848126 0.057717007 0.062317442 0.043776173
0001b0 0e a6 53 3c c2 df 5d 3d 95 79 ff 3c 8e 73 f2 3c
       0.0129180085 0.05416847 0.031185905 0.029596116
0001c0 1e 99 41 3c f6 20 1c 3d 83 81 b9 3c 25 c7 4f bd
       0.011816291 0.03811737 0.022644764 -0.05072703
0001d0 f2 ba 11 3e eb de 28 3d 66 6b 1e 3d 6a dd a0 3c
       0.1423147 0.041228216 0.038676642 0.019636828
0001e0 5a bd bd 3c 7b 06 09 3d 76 27 bd 3c b4 80 fb 3c
       0.023161579 0.033453446 0.023090106 0.030701019
0001f0 80 0c 65 3d 37 17 0d bf 21 fb 01 3d 07 09 5b 3d
       0.055920124 -0.5511355 0.031733636 0.053475406
000200 15 7b 2e bc 0b 25 de 3c 22 1b 3b 3d 6b a4 09 3d
       -0.010649462 0.027117273 0.045680173 0.033604067
000210 53 85 6b 3c 60 c9 5a 3d 31 25 44 3d ca 56 8c 3d
       0.014375049 0.053414702 0.04788703 0.06852491
000220 61 70 23 3d 84 7d 90 3d eb 32 32 3d e4 d9 32 3d
       0.039902095 0.0705519 0.04350559 0.043664828
000230 72 77 1e 3d e2 1c 16 3d 65 18 42 3b db 41 25 bb
       0.03868813 0.03664864 0.002961659 -0.0025216255
000240 35 7e 04 bf 9d 3d 39 3d 3e 36 ee 3c da 0f 36 3d
       -0.51755077 0.045224775 0.029078599 0.04444871
000250 30 e5 f8 3c c3 cd 5a 3d 5e 18 26 3d 1c 02 f7 3c
       0.030382723 0.053418886 0.040550582 0.030152373
000260 c1 82 cb b8 52 98 16 3e 6d 1e 7c 3c a6 88 fb 3c
       -9.704149e-05 0.14706543 0.015388113 0.030704807
000270 4a cb 49 3d bc f2 4d bb 31 c2 f0 3c f5 b4 91 3c
       0.049266137 -0.0031425199 0.029389473 0.017786482
000280 ec 5a 8c 3d 38 9f 4b 3d f7 e8 e1 3d 24 54 f1 3c
       0.068532795 0.04971239 0.11030763 0.029459067
000290 7e 22 de 3c 2b b9 2f 3d 36 b2 83 bd f5 f3 2c 3d
       0.027116057 0.0429012 -0.064304754 0.042224843
0002a0 81 8b 16 3d fc 6e a9 3d a6 86 0a 3d 17 6b 00 3e
       0.036754135 0.08273122 0.033819817 0.12540852
0002b0 dc f5 cc 3c f4 73 2a 3d fd 01 32 3c fd 53 06 3d
       0.025019579 0.041614488 0.010864732 0.03279494
0002c0 42 e9 16 3c 73 b5 83 3c f9 b7 a5 3c cc 1c 09 3e
       0.009210886 0.016077733 0.020229327 0.13389891
0002d0 32 8a 02 3d d7 87 45 bd 1c 90 b2 3c 82 9a bc 3d
       0.031870075 -0.04822525 0.021797232 0.092091575
0002e0 81 02 60 3d 9c 4c 84 3c 94 3e 32 3d 7e 6a 02 3d
       0.054689888 0.016149811 0.04351671 0.03183984
0002f0 17 a6 73 3d b8 65 46 3d 40 2f df 3c 50 b0 12 3d
       0.059484567 0.04843685 0.02724421 0.035812676
000300 fc 81 33 3c 9e 44 ce 3d c2 03 01 3d 4e bb 07 bf
       0.010956284 0.100716814 0.031497724 -0.5302018
000310 91 f8 9d 3c 2b af 51 bd 5d 89 28 3d 38 f7 df 3c
       0.019283565 -0.051192444 0.041146625 0.027339563
000320 2a fa b7 3c c6 bd e9 3c 98 6a 20 3c df b2 91 3c
       0.022458155 0.028532874 0.009791039 0.017785488
000330 c3 7a 36 3d b6 10 35 3d 58 c0 9f 3c 3b 30 5f 3d
       0.04455067 0.04420539 0.019500896 0.054489356
000340 fa ed 06 3d b8 53 fd 3c 2c 4f 03 bf b8 73 48 3d
       0.032941796 0.03092371 -0.5129268 0.048938483
000350 d2 07 9b 3d bf 93 fb 3c b3 39 0d 3d bc 9e 09 3d
       0.07569851 0.0307101 0.034478854 0.033598647
000360 a7 3b 4f 3d 6a be 47 3c c5 68 7d 3b 08 c0 05 3d
       0.050594 0.012191394 0.0038667184 0.03265384
000370 54 0a a6 3c b6 20 11 3d 17 bd a3 3d f5 7a 03 3c
       0.020268597 0.035431586 0.079950504 0.008024921
000380 2f a8 86 3b 57 e7 ca 3c 0a 14 d3 3c 17 0d e9 3c
       0.0041094045 0.024768515 0.025766391 0.028448625
000390 ee 1d 07 3d 0b d2 26 3c a2 96 f6 3b d0 ba 94 3d
       0.032987528 0.010181914 0.007525281 0.07262194
0003a0 91 1d 80 3c 97 16 19 3d 06 2f 06 3d c5 da 11 3d
       0.015639098 0.03737506 0.03275969 0.035609026
0003b0 ba 4b 2d 3c 52 41 16 3d d6 73 5a 3d b3 ef a1 bb
       0.010577137 0.036683388 0.053333126 -0.0049419045
0003c0 c0 79 4f 3d 7a ef 82 3d 9c 17 03 bf ee b3 f1 bb
       0.05065322 0.06393333 -0.512079 -0.0073761856
0003d0 5d 4b 29 3d d8 15 40 3d 64 c9 ee 3c 2b 3c 80 3d
       0.041331638 0.04689583 0.029148765 0.06261476
0003e0 ab 60 ff 3c dd 48 be 3c 56 f9 b1 3d 09 09 31 3d
       0.031174025 0.023228103 0.08690135 0.043221507
0003f0 44 65 41 3d a0 b3 94 3c 46 5e de 3c 97 f0 e4 bb
       0.047215715 0.018152058 0.027144562 -0.0069866884

net.4.weight f4 [256, 256]
000000 65 b3 86 bc f1 8f 8c bb 92 68 40 3b f6 30 bb bc
       -0.016442964 -0.00428962 0.0029359204 -0.022850495
000010 ab 34 45 bc 2d 56 b3 3c 3f 02 49 3d ba 77 94 bc
       -0.012036483 0.021891678 0.049074408 -0.018123496
000020 39 0f 25 3d d9 8b 82 3a 7d b9 c7 bc 2f 0e 04 bd
       0.04029772 0.0009959891 -0.02438044 -0.03224009
000030 86 35 a9 3c 98 e5 99 3d f7 61 af bc 60 60 7e 3c
       0.020655405 0.07514495 -0.021409018 0.015525907
000040 6b 1b 15 3c 3f fe 19 3d e1 64 0e bc 09 8d ae bb
       0.009100775 0.037595984 -0.008691044 -0.0053268713
000050 c8 72 23 3d 07 69 73 3b b5 5a 54 3b 79 68 91 bc
       0.039904386 0.0037141459 0.0032402698 -0.017750012
000060 95 a1 f3 bb ed 12 5b bc 83 2e bf bb 4e 92 b8 3b
       -0.0074350336 -0.0133712115 -0.005834402 0.0056326753
000070 73 ff 74 bd 5c 41 8d 3d 38 a6 a3 bc 2c 47 cc 3c
       -0.059813928 0.06897232 -0.01997672 0.024936281
000080 07 4e 4b 3c 27 d1 8a 3c b1 de 95 3d ac ca ce bc
       0.01240874 0.016945435 0.07317866 -0.025243126
000090 28 25 65 3c 3d b5 e1 bc eb b4 c8 3d 57 af 20 3d
       0.0139859095 -0.027552241 0.09800132 0.039229717
0000a0 ef 11 4a bd 9a a0 dc bc e6 f1 a5 ba 6e bf 84 3c
       -0.04933351 -0.02693205 -0.0012660592 0.016204562
0000b0 e2 0a 90 3b 6c ff 49 bc 43 d6 13 3d e9 1c 3e 3c
       0.0043958286 -0.012328964 0.036093008 0.011603572
0000c0 cb f4 85 bc ee 80 b9 3b c2 79 c1 bc 84 f2 58 39
       -0.016352078 0.0056611216 -0.023617629 0.0002068971
0000d0 f8 c4 b0 3b ce 65 0b 3d 3a 4c 3f bd aa fc c9 3b
       0.0053945743 0.034032635 -0.046703555 0.006164153
0000e0 0f 02 2a bc c3 88 5f bc cd 35 f5 3c e5 03 a3 bc
       -0.010376467 -0.013643446 0.02993288 -0.019899318
0000f0 8c cf 00 3d fa c1 7a 3d 8b 1b db 3c 1b 4e e2 b8
       0.031447932 0.061220147 0.026746532 -0.00010791068
000100 af 7d 1b 3c 7b 92 80 bd 90 11 b8 bc d9 c9 f4 3c
       0.0094904145 -0.06277939 -0.022469312 0.029881405
000110 94 53 b0 3c 65 f4 0f 3d c7 a0 e0 3b 83 76 34 3d
       0.021524228 0.035145182 0.0068551037 0.044058334
000120 3c 0b 92 bc 19 61 a1 3a e1 e2 bc 3c a6 23 e8 3c
       -0.017827623 0.0012312263 0.023057403 0.028337311
000130 57 b5 1d 3d f6 b4 61 3d 6b 29 6d 3c f9 c7 10 bd
       0.038503017 0.05510422 0.014475207 -0.03534696
000140 1c 46 4b 3b 88 0f b5 3b ac fc 0b 3c eb 44 4b bd
       0.003101713 0.005525533 0.008544128 -0.049626272
000150 65 b2 db bc bc bc 38 3b 53 ee ab 3c 27 f0 6b 3d
       -0.026818464 0.0028188666 0.020987665 0.057602074
000160 4e f7 68 3d e5 f9 1f 3d 07 59 1f bd 1f 17 f3 3c
       0.056876473 0.039056677 -0.038903262 0.029674111
000170 55 b3 be 3c 24 61 aa bb 67 f4 d8 bc 5d ac 4b bc
       0.023278872 -0.0051995683 -0.026483728 -0.012431231
000180 1c a0 fe 3c 47 42 c8 3d e9 bc 16 bc 9a b8 17 bc
       0.031082205 0.097782664 -0.009200313 -0.009260321
000190 6c da f0 bb 3d 87 11 3d 0b 0c a1 bb 95 5b 61 bc
       -0.0073502567 0.035529364 -0.0049147657 -0.013754745
0001a0 ff 68 87 3c c3 fe 46 3c c1 16 86 3c 1f 85 3d 3d
       0.016529558 0.012145701 0.016368272 0.046269532
0001b0 db 49 2b 3d c2 1d b0 3c f7 ad 5c bc 09 68 45 bd
       0.04181848 0.021498565 -0.013469211 -0.04819492
0001c0 e1 44 2b 3c d1 9c 4f 3a 1f 43 80 bd 60 39 1d bd
       0.010453434 0.0007919791 -0.06262802 -0.038384795
0001d0 71 ce d9 3c 0c 96 a8 bc d7 c7 0b 3c 74 e8 cb 3c
       0.026587697 -0.02057936 0.008531532 0.024891116
0001e0 54 09 57 3d 2c c6 71 bc f6 71 47 bc 05 ed 80 3c
       0.05249913 -0.0147567205 -0.0121731665 0.01573802
0001f0 97 40 26 3d 98 09 c1 3d 63 f3 ba 3c ce b3 19 bd
       0.04058894 0.09425658 0.022821134 -0.03752499
000200 40 02 f5 39 a2 c1 77 3d 8d 3c 24 bc ce d9 07 bd
       0.00046731718 0.060487397 -0.010024202 -0.0331667
000210 85 42 bc bc 0a a6 87 3b ed 84 b2 bb c2 b9 4d 3c
       -0.022980938 0.0041396664 -0.005447975 0.012556495
000220 7b 99 7f bc b7 38 04 3d a8 31 ba 3c 1f b7 93 bb
       -0.015600557 0.03228065 0.022728756 -0.0045079137
000230 65 51 15 bd 65 af d8 3a aa 4d ab bc f2 37 86 bd
       -0.036454577 0.0016531764 -0.020911057 -0.065536395
000240 41 10 80 3d e6 c5 fe 3c f6 52 ea bb 05 56 ff 3c
       0.062531 0.031100225 -0.007151003 0.031168947
000250 d3 0a e8 3b 5e 02 58 3d dd 87 a5 bb b6 a5 f9 3b
       0.0070813685 0.052736633 -0.0050515966 0.0076186312
000260 11 e4 ef bc 43 9e 58 3d 35 70 99 3c 8d 31 93 bd
       -0.029283555 0.052885305 0.018730262 -0.071871854
000270 12 17 52 3b db 5a b3 3c 4a 35 d5 3c ba 7a f3 bc
       0.0032057208 0.02189391 0.026026387 -0.029721607
000280 f5 8b 62 3d 13 3d 23 3d 0a 02 20 3d 34 90 12 3d
       0.055309255 0.039853167 0.039064445 0.035782054
000290 23 0f ae 3c dd ad 6c ba bf 3f 45 bb 71 da 93 3c
       0.021247452 -0.0009028593 -0.003009781 0.018048497
0002a0 48 5f 4b 3c 21 2d 84 3c cd 96 e5 3c 1b b0 60 3c
       0.012412854 0.0161348 0.028026009 0.013713862
0002b0 66 a6 4b 3c 5c bc a3 bc 01 84 cf 3c 6f 2d 52 bd
       0.012429809 -0.019987278 0.025331499 -0.05131286
0002c0 39 37 61 bc 08 e5 00 3a 93 78 c2 bc 52 e8 22 3d
       -0.013746076 0.0004916941 -0.023739135 0.03977234
0002d0 0e 6d 8a bd 27 30 a1 3c 9c 90 a0 3c 74 c0 54 bc
       -0.06759082 0.019676281 0.019600205 -0.0129853375
0002e0 08 15 c6 bb b8 1d 2a 3c 48 b4 4d bc 7e 99 8b 3d
       -0.0060449876 0.010383062 -0.012555189 0.06816386
0002f0 2f d5 23 3b 36 86 5f bc 9c 9e d6 bb 67 3d 6b bc
       0.0024998893 -0.013642838 -0.0065496694 -0.014357901
000300 a9 e9 33 3d 13 01 0c 3d 8e 67 98 ba bc 8f 87 3d
       0.043924008 0.034180712 -0.0011627541 0.06619212
000310 09 bf e0 3c eb 01 f9 bc ec f5 54 3c 88 14 a6 bd
       0.027434843 -0.030396422 0.0129980855 -0.08109385
000320 f8 a7 74 bc 1c 6e 53 bd 9b 31 44 bb b0 ab 31 3c
       -0.014932625 -0.05161868 -0.0029936794 0.010844156
000330 32 b9 14 3d e2 70 21 3d 4a 2c a2 39 84 b7 b9 bb
       0.03630943 0.039414294 0.00030932046 -0.0056676287
000340 8d c4 55 bc 08 0a af bc 6c 91 b8 3d 4f dc 1c 3d
       -0.01304735 -0.021367088 0.09012112 0.03829604
000350 52 6b 0c 3c c7 cb b1 3c 3b 34 4f bc e8 85 57 bd
       0.008570509 0.021703614 -0.01264673 -0.052617937
000360 2d 5a 1c 3d 19 e7 45 3d 54 22 d8 bc 64 7e 0b 3d
       0.038171936 0.048316095 -0.026383556 0.034056082
000370 db 0d a0 3b d8 41 38 3d 51 d7 d6 b9 49 cd fe bc
       0.004884464 0.04498467 -0.00040977684 -0.031103747
000380 9f 77 ba 3c 8c c2 f2 bc f6 de 69 bb d3 8e 4e 3c
       0.022762118 -0.029633783 -0.0035685874 0.012607294
000390 02 2b 5a bd 61 d6 6c bc 93 ea 74 3d e3 32 8a 3c
       -0.05326367 -0.014455409 0.05979402 0.016869968
0003a0 14 7b 37 3d ac 58 10 3d d1 7c c5 bc 29 f5 65 3c
       0.04479511 0.035240814 -0.024107369 0.0140355015
0003b0 d5 44 22 3c 18 e7 2e bd d8 73 27 3c 1b 53 08 3c
       0.009904106 -0.042700857 0.01022049 0.008320595
0003c0 00 87 03 3d ce 94 9a bb 0a 8b 60 3d 6a 38 e5 bc
       0.032111168 -0.004717446 0.054820098 -0.027981002
0003d0 38 b4 e1 bc f7 7b cf bb a3 ac 5d 3c d1 86 dd 3c
       -0.027551755 -0.0063319164 0.013529929 0.027041825
0003e0 c8 e2 0c 3d 85 b6 bb bc 10 dd 69 3c 53 2a 86 bc
       0.034395963 -0.02291418 0.014273897 -0.016377604
0003f0 73 62 6c 3b 0a 44 77 3d e5 12 b6 bc 2d 25 d5 3b
       0.0036069422 0.06036762 -0.022225806 0.006504676

net.4.bias f4 [256]
000000 59 b5 d8 bd 1e fb 34 bd e2 f6 b7 bd 92 ab b9 bd
       -0.10581464 -0.044184797 -0.08982636 -0.090659276
000010 e1 d7 43 bc 79 70 23 bd 2b 2b 8f bd 0c 00 66 bd
       -0.011953325 -0.039902184 -0.069906555 -0.05615239
000020 1b 8c b9 bd 9f 28 eb bd 86 36 af bd 1b d5 4e bd
       -0.09059926 -0.11482357 -0.085553214 -0.050496202
000030 33 b9 02 bd f0 ac ea bd 2f e1 03 bd 5b af 70 bd
       -0.0319149 -0.114587665 -0.032197174 -0.058760982
000040 6a c3 ed bc 1d 94 7d bd 66 7f af bd 95 41 84 bd
       -0.029023845 -0.06190883 -0.08569221 -0.06457821
000050 2c 9d bb bd 41 ab 44 be 9b 33 18 be 12 ce 40 bd
       -0.091608375 -0.19205953 -0.14863436 -0.047071524
000060 51 f8 a8 bd 1e df a7 bc 34 ae 2c bd 28 37 15 b6
       -0.082504876 -0.020492133 -0.04215832 -2.2234835e-06
000070 08 7e 93 bd 80 36 4b bd 19 42 cf bd 6e 43 04 be
       -0.07201773 -0.049612522 -0.10120029 -0.12916347
000080 10 39 3d bd 50 0f 6a bd 26 1f cd bd 75 e0 fc bc
       -0.046196997 -0.05714351 -0.10015707 -0.030868748
000090 1c 10 96 bd 46 7a e0 bc 32 91 c5 bd f3 3e c8 bd
       -0.07327291 -0.027402055 -0.096468344 -0.097776316
0000a0 6f 89 19 bd 1c 8d b8 bd fa 99 93 bd f9 fc 06 be
       -0.037484583 -0.090112895 -0.07207103 -0.13182439
0000b0 96 21 5a bd 38 0f 2d bd 27 e8 c8 bd 0b b5 74 bd
       -0.053254686 -0.04225084 -0.098099045 -0.05974297
0000c0 26 df 88 bd 53 03 a8 bd 7a 57 08 be b2 c3 f6 bd
       -0.06683187 -0.08203759 -0.1331462 -0.12049045
0000d0 62 74 44 be d6 54 1f be 1e 42 97 bc 99 fa 1d be
       -0.19185022 -0.15559706 -0.018464144 -0.15427627
0000e0 b2 a4 39 bd 98 33 1f bb e4 5f bc 84 c3 12 d6 bd
       -0.04532308 -0.0024292227 -4.428665e-36 -0.10452797
0000f0 b8 f2 4c bd 14 65 b6 bd a2 16 b1 bd 55 40 5b bd
       -0.050036162 -0.08905998 -0.08646895 -0.05352815
000100 ea 2f bf bd 9d 3f 84 bd ad 31 fc bd 04 fd d7 bd
       -0.09335311 -0.06457446 -0.123141624 -0.10546306
000110 74 fd 8f bd d9 87 ec bd e0 81 25 bc 68 7f af bd
       -0.07030764 -0.115493484 -0.010101765 -0.08569223
000120 17 f5 77 bd 5f 5e de bd 2e ad 9b bc 95 da d1 bd
       -0.06053647 -0.108578436 -0.019003477 -0.10246769
000130 0a b5 c1 bd 34 e0 ae bd 4b 5f 6e bd fb ed 89 bd
       -0.094583586 -0.08538857 -0.058196347 -0.06734844
000140 1b 47 b2 ba 82 d7 b1 bd 8b ed d1 bc de 21 28 be
       -0.0013601513 -0.08683683 -0.025625965 -0.1641917
000150 a3 f3 9a bd 76 8b 08 be d7 f0 40 be d3 61 d1 bd
       -0.07566001 -0.1333445 -0.18841873 -0.102237366
000160 c1 ea 36 bd 5c 37 bc bd 42 dc db bc 34 e4 f9 bd
       -0.044657473 -0.091902465 -0.026838426 -0.122017294
000170 ca fc 9e bd 9d ca 56 bd 2e 16 63 bd 40 b0 91 bd
       -0.077630594 -0.05243932 -0.055441074 -0.07113695
000180 6f 23 86 bd 0e 51 54 bd 46 21 0e bd cb 35 5b bd
       -0.06549727 -0.051835112 -0.0346997 -0.053518098
000190 49 b2 9e bd 4f c7 f4 bd 28 0f 68 bd 4a a0 d2 bd
       -0.07748849 -0.119520776 -0.05665508 -0.10284479
0001a0 2f 52 a7 bd d7 d1 00 bd fe 1d a8 bd 0e cf 03 be
       -0.08169972 -0.03145012 -0.082088456 -0.12871954
0001b0 8a 93 03 be c7 af 40 bd b7 79 06 bd d7 68 a1 bd
       -0.1284925 -0.047042634 -0.03283092 -0.07881325
0001c0 65 9f 65 bd 2d 20 dc bd 91 e3 9b bd d2 55 96 bd
       -0.056060214 -0.107483245 -0.07611764 -0.07340588
0001d0 3d 73 ce bc 75 b3 83 bd 43 4f 92 bd d9 e4 cb bd
       -0.025201434 -0.06430713 -0.07144024 -0.099557586
0001e0 36 b8 34 bd 0f 2f 4c bd ad 44 f1 bd 89 a7 70 bd
       -0.04412099 -0.049849566 -0.11780677 -0.058753524
0001f0 0f 20 b4 bd 25 15 21 bd 39 60 9a bd a9 f1 d5 bd
       -0.08795177 -0.039326806 -0.07537884 -0.10446484
000200 7b 9a 98 bd 47 22 61 bd ba 35 dd bd 96 06 4b bd
       -0.0745134 -0.05496433 -0.10801263 -0.049566828
000210 53 88 8a bd e3 e6 a0 bd 82 d4 06 ba 34 16 96 bd
       -0.06764283 -0.07856538 -0.00051433605 -0.07328454
000220 dc a9 bf bd 2b 38 70 bd 8e b4 72 bd de 4d 88 bd
       -0.0935857 -0.058647316 -0.05925422 -0.06655477
000230 c8 ba a9 bd 0c fd a5 bd 16 bd 83 bd 7d b7 40 bd
       -0.08287579 -0.081049055 -0.0643255 -0.047049988
000240 fe b3 69 bd 69 b4 80 bd 65 bc a8 bc 8d 91 9b bd
       -0.05705642 -0.062844105 -0.020597646 -0.07596121
000250 7f 55 0b be 8c af ab bd bb 5a 22 be 77 db b0 bd
       -0.13606833 -0.08383092 -0.15854923 -0.086356096
000260 b1 7d cd bd e6 c0 7b bd af e9 c8 bd fb 3d 45 be
       -0.10033739 -0.06146326 -0.098101966 -0.19261925
000270 16 a0 bc bd 8e fe 9e bd 13 63 fb bd 13 20 16 3b
       -0.092102215 -0.07763396 -0.12274756 0.0022907301
000280 12 9a e3 bd 2a 64 45 bd 4c 16 de bc ae 03 45 bd
       -0.11113371 -0.048191227 -0.027110241 -0.048099212
000290 0b e9 c2 bd 23 d3 c5 bd d6 76 a4 bd f0 c3 f0 bd
       -0.09517106 -0.09659412 -0.08030479 -0.11756122
0002a0 1b 30 8a bd c3 79 32 bd 4c 64 0a be bc 14 4b bd
       -0.06747457 -0.043573152 -0.13514823 -0.04958032
0002b0 b0 fb 5e bd a0 69 07 bd 5b ff a8 bd 65 69 63 bd
       -0.054439247 -0.033059716 -0.0825183 -0.055520434
0002c0 23 5a 76 bd 48 52 02 bd 1e a0 46 bd 6d 5f 94 ba
       -0.060144555 -0.03181675 -0.048492543 -0.0011319943
0002d0 90 c0 85 bc 3e ee c9 bd 32 f3 d8 bd 68 ad 9b bd
       -0.016327173 -0.09859894 -0.10593261 -0.07601434
0002e0 7c e5 be bd a3 b3 f5 bd aa fa a4 bd 12 c3 34 bd
       -0.093211144 -0.119971536 -0.08055623 -0.044131346
0002f0 2f ff d6 bd 16 f4 fb bd 60 b7 e8 bd c2 4d 82 3b
       -0.10497891 -0.12302415 -0.11363101 0.0039765546
000300 d4 0b 29 bd af c0 13 b9 f5 82 96 bd 6c 5b 66 bd
       -0.041271046 -0.00014090793 -0.07349197 -0.05623953
000310 26 2d 53 bd c1 fd 59 bd fc 52 97 bd f5 17 c5 bd
       -0.05155673 -0.053220514 -0.07388875 -0.0962371
000320 d3 f2 c9 b9 41 27 ae bd a3 3b dc bd 7d 55 d6 bd
       -0.00038518626 -0.08503581 -0.10753562 -0.10465524
000330 e7 cb b4 bd 3d aa 13 bd 4d d7 9b bc 29 d4 f5 bd
       -0.08827954 -0.036051024 -0.019023562 -0.12003357
000340 ab 6a 23 bd 9f 10 1d bd 0d f5 4d bd 8b 0c e6 bd
       -0.03989665 -0.03834593 -0.050282527 -0.11232861
000350 cc cd e3 bd 8c 12 20 ae f4 7e e2 bd 7c 46 e9 bd
       -0.11123237 -3.639626e-11 -0.11059371 -0.11390397
000360 58 f6 6a bd 09 23 bd bd 9f 68 71 bd cc 21 c8 bd
       -0.057363838 -0.09235198 -0.058937665 -0.09772071
000370 c8 2e 93 bd 72 05 04 bd fd 77 a5 bd 51 e8 cc bd
       -0.07186657 -0.032231756 -0.080795266 -0.10005248
000380 69 1c 1a bd 71 a4 b7 bd 02 d9 76 bd 66 bb fe bd
       -0.03762475 -0.089669116 -0.06026555 -0.12438087
000390 29 2c 8a bd c1 7a bf bd a1 1f 7a be 00 73 11 bd
       -0.06746704 -0.09349585 -0.24426128 -0.035510063
0003a0 af fb a9 bd 4e 4a 39 bd d0 26 25 bd 3d 7a fe bd
       -0.08299958 -0.045236878 -0.040320218 -0.12425659
0003b0 0f 7f 8b bd 7f eb 92 bd c3 e5 25 be 11 4f b2 bd
       -0.06811344 -0.071738236 -0.16200928 -0.08706487
0003c0 99 50 89 bd 06 57 c9 bd f6 7e 38 bd 7f 42 a7 bd
       -0.06704826 -0.098310515 -0.045042954 -0.0816698
0003d0 9a 39 e6 bd 04 6e eb bd cb a9 ca bd ee a9 a4 bd
       -0.112414554 -0.11495593 -0.09895667 -0.08040224
0003e0 19 85 a9 bd 0c 36 a3 bd 7b 91 9f bd 7c d0 d4 bd
       -0.082773395 -0.07969293 -0.0779142 -0.10391328
0003f0 11 bf fa bd fc c0 a2 b9 82 42 33 bd f3 7a 9e bd
       -0.12243474 -0.00031042832 -0.0437646 -0.077382945

net.6.weight f4 [256]
000000 02 7d db 3e 52 2c a2 3e c6 d9 6e 3e 80 99 18 3e
       0.4286881 0.3167444 0.23325261 0.14902306
000010 ec a9 89 3e 4b 79 dc 3e 1a 7a 5c 3e d7 5b 89 3e
       0.26887453 0.4306129 0.21530953 0.2682788
000020 7b 9d db 3e 48 f0 aa 3e 02 e0 9f 3e 9e b3 95 3e
       0.42893586 0.33386445 0.31225592 0.292386
000030 eb 16 d8 3e 1c 2f 9a 3e 34 78 7f 3e 87 b4 be 3e
       0.42204985 0.30114067 0.24948198 0.37247106
000040 5e e3 e9 3e dc 49 25 3e e5 d5 e1 3e d4 a4 3b 3e
       0.4568128 0.16141456 0.441085 0.18324596
000050 32 92 76 3e b5 94 04 3f 83 f2 cb 3e 0e e0 6e 3e
       0.24079207 0.5178941 0.3983346 0.23327658
000060 81 a7 d4 3e 50 5a 93 3e 09 84 8f 3e 94 52 eb 3e
       0.41534045 0.2877984 0.28030422 0.4596144
000070 c6 9d 44 3e 76 9c 66 3e 5f 8f af 3e a1 a0 d0 3e
       0.19200811 0.22520623 0.3428907 0.4074755
000080 e3 a7 7f 3e 67 cc 9f 3e f1 47 95 3e 91 0c d4 3e
       0.24966387 0.31210634 0.2915645 0.41415837
000090 c9 0d eb 3e 6b a5 9f 3e a1 44 b6 3e 53 3e 8c 3e
       0.45908955 0.3118089 0.35599235 0.273913
0000a0 aa 16 77 3e c5 ef bd 3e 21 d4 69 3e 07 44 d9 3e
       0.2412974 0.37096992 0.22834827 0.42434713
0000b0 01 02 c8 3e 50 7e 6a 3e 45 f8 6b 3e c8 5e e1 3e
       0.3906403 0.22899747 0.23043926 0.44017625
0000c0 58 4a 95 3e 73 c5 81 3e ad 70 04 3f 1b 1b c7 3e
       0.29158282 0.25345954 0.5173443 0.38887867
0000d0 01 a1 98 3e 17 15 a9 3e bb 11 de 3e 13 d2 e7 3e
       0.29810336 0.33023903 0.43372902 0.4527746
0000e0 db 03 9e 3e 58 13 3b 3d 4c 1b df 3e ff 80 77 3e
       0.30862316 0.045672745 0.43575513 0.24170302
0000f0 cc 48 89 3e 32 cb cd 3e b6 a0 a3 3e fd 74 9f 3e
       0.26813352 0.40194088 0.3195855 0.31143942
000100 53 26 8b 3e 3a 40 9d 3e 72 bd 9c 3e a7 17 88 be
       0.27177677 0.30713063 0.30613285 -0.26580545
000110 c8 2d 70 3e aa 03 b2 3e ec 2e ec 3e 37 2d c5 3e
       0.23454964 0.3476842 0.4612955 0.3851106
000120 7b dd 9b 3e 7c d2 af 3e 2a d4 fd 3e d1 de c8 3e
       0.30442414 0.34340274 0.4957593 0.39232495
000130 70 4e cb 3e a7 1b a1 3e 08 0f 99 3e 37 a7 97 3e
       0.3970828 0.3146641 0.2989428 0.29619762
000140 17 6e cd 3e 6f ea 89 3e 44 6c 79 3e f2 b9 af 3e
       0.40123054 0.2693667 0.24357706 0.34321553
000150 e5 e7 a3 3e 5a 91 e9 3e 26 8b db 3e 79 d9 ee 3e
       0.3201286 0.45618707 0.428796 0.46650293
000160 70 e8 a5 3e 02 67 c8 3e cd e8 82 3e 1c c9 02 3f
       0.32403898 0.3914109 0.25568238 0.5108812
000170 7a 86 95 3e af 03 a6 3e 28 a8 b2 3e 48 d8 99 3e
       0.2920416 0.32424685 0.34893918 0.30047822
000180 05 d0 a4 3e b7 f4 b9 3e 03 85 9f 3e 3e 4d 6a 3e
       0.32189956 0.36319515 0.31156167 0.22881028
000190 52 5e 85 3e 21 d1 b8 3e 18 94 80 3e 6e 10 a1 3e
       0.26048523 0.36097053 0.25112987 0.31457847
0001a0 63 5c e0 3e b0 fe 0c 3e a0 33 a7 3e c5 df ef 3e
       0.43820485 0.1376903 0.32656574 0.4685041
0001b0 d8 45 e8 3e 16 c5 7d 3e ed c6 9c 3e cc 01 b9 3e
       0.45365787 0.24782214 0.30620518 0.36134183
0001c0 f0 40 82 3e 2b 9f c5 3e 58 2e 9a 3e a1 65 87 3e
       0.25440168 0.38597998 0.30113482 0.26444724
0001d0 51 16 9f 3e 0f a9 bb 3e a4 37 8e 3e 19 f8 94 3e
       0.31071714 0.3665242 0.27776825 0.29095533
0001e0 fe 90 59 3e 35 22 ab 3e 0c c0 ca 3e 5a cc d2 3e
       0.21246716 0.33424535 0.39599645 0.41171533
0001f0 c6 65 90 3e 21 de 7e 3e 61 99 db 3e 49 de 7b 3e
       0.28202647 0.24889423 0.42890456 0.24596514
000200 07 6f bf 3e f4 4c 98 3e 6b 60 e5 3e 49 86 86 3e
       0.37389395 0.2974621 0.44800124 0.26274326
000210 45 c6 ab 3e 87 1e a1 3e 81 d6 8a 3e 31 f1 8b 3e
       0.33549705 0.31468603 0.27116778 0.27332452
000220 f9 5a ba 3e 89 9b 9d 3e 15 73 97 3e dc 95 66 3e
       0.36397532 0.30782726 0.29579988 0.22518104
000230 36 a3 e0 3e d9 5e cd 3e 42 1d 8d 3e 73 c6 2c 3e
       0.4387452 0.40111426 0.27561384 0.16872577
000240 00 a3 da 3e a5 75 53 3e 99 cf 90 3e ca 7c 8f 3e
       0.42702484 0.20650347 0.28283384 0.28024894
000250 98 c4 e2 3e d0 39 de 3e a7 b9 f7 3e 92 62 bb 3e
       0.44290614 0.43403482 0.4838383 0.3659864
000260 15 50 d5 3e df d4 99 3e ff 1a e3 3e 2c b6 c5 3e
       0.4166266 0.3004522 0.44356534 0.3861555
000270 a7 fd 8d 3e 8a 33 5c 3e 75 4b 9e 3e a0 df 11 3e
       0.27732584 0.21504036 0.30916944 0.14245462
000280 cc 7b ba 3e 39 94 8d 3e d5 3d dc 3e 25 90 8b 3e
       0.36422575 0.27652147 0.43015924 0.2725841
000290 9f 61 5f 3e 4f a2 85 3e 53 bc c8 3e 0f 3a d3 3e
       0.21814583 0.26100394 0.3920618 0.41255233
0002a0 6c 17 69 3e 56 43 a2 3e 75 71 0f 3f 00 71 8a 3e
       0.22762841 0.31691998 0.56032497 0.27039337
0002b0 c8 ab c6 3e b0 13 7e 3e 53 49 b6 3e f6 74 65 3e
       0.38802934 0.24812198 0.35602817 0.22407898
0002c0 3c 5e 95 3e 0d 30 91 3e cc fa df 3e 17 98 eb 3e
       0.29173458 0.28356972 0.4374603 0.46014473
0002d0 4c da f0 3d 17 44 b3 3e e9 5a bc 3e b0 38 9b 3e
       0.11760387 0.35012886 0.3678811 0.30316687
0002e0 af 18 d6 3e a4 3e ef 3e 8e 3e 8c 3e 4c df 7e 3e
       0.41815707 0.46727479 0.27391475 0.24889868
0002f0 80 7f f6 3e 33 5b 02 3f 06 34 88 3e 84 a7 0e 3e
       0.4814415 0.5092041 0.2660219 0.1393109
000300 17 9c e0 3e 36 75 e7 3e 30 9f bd 3e 56 49 85 3e
       0.43869087 0.45206612 0.37035513 0.26032513
000310 e0 74 92 3e 05 cd 94 3e ff 3c 9c 3e 9e 1f 97 3e
       0.28604794 0.29062667 0.30515286 0.2951631
000320 1f f9 95 3e 32 83 63 3e 0f 32 84 3e 60 f2 93 3e
       0.29291627 0.22218016 0.25819442 0.28895855
000330 6d a0 c4 3e 29 cc 03 3f 90 c4 87 3e ff 9d ea 3e
       0.38403645 0.514834 0.26517153 0.45823666
000340 8e 71 a8 3e 3c 69 ff 3e 4a 99 61 3e 49 23 4c 3e
       0.32899135 0.49884975 0.22031131 0.19935335
000350 84 2c de 3e b6 bc e5 3e 89 68 96 3e 23 d2 f3 3e
       0.43393338 0.44870538 0.2937663 0.4762126
000360 15 c5 8b 3e 70 0b 81 3e 9e 73 8c 3e 13 ee c5 3e
       0.272988 0.2520404 0.2743196 0.386582
000370 70 fe 9b 3e 2a 17 80 3e 2c de 80 3e 74 88 c6 3e
       0.30467558 0.25017673 0.25169504 0.3877598
000380 b7 f3 5a 3e b8 9d c8 3e 66 dd 6b 3e 14 ee de 3e
       0.21382032 0.3918283 0.23033676 0.43541014
000390 43 b1 a0 3e 43 df c5 3e 4b 81 b0 3e 38 c2 5a 3e
       0.3138524 0.38646898 0.34473643 0.21363151
0003a0 83 54 84 3e 2e 55 df 3e b6 27 8d 3e 5a 1b 95 3e
       0.25845727 0.43619674 0.2756936 0.2912243
0003b0 7b 7d 86 3e ee 47 8f 3e 3e c8 a5 3e db 51 96 3e
       0.2626761 0.27984565 0.32379335 0.29359326
0003c0 8d 3f d9 3e c0 e7 a8 3e 22 89 8e 3e 08 a6 a3 3e
       0.42431298 0.3298931 0.27839 0.3196261
0003d0 20 93 e3 3e 1c 27 d0 3e 8b 85 df 3e 15 31 9a 3e
       0.44448185 0.40654838 0.43656573 0.30115572
0003e0 91 cb 9c 3e 95 d1 96 3e a2 82 96 3e e8 02 dc 3e
       0.3062406 0.29456773 0.2939654 0.42970967
0003f0 6d b9 05 3f 32 ee cd 3e bd 76 81 3e d8 6d 8f 3e
       0.5223606 0.4022079 0.25285903 0.28013492
