RL code/models/checkpoint_episode_500000.pth (torch, 801255 bytes, 40 tensors)

net.0.weight f4 [256, 22]
00000000: dca0 67bd 886b ee3d 8bbc 4e3d 2b3b 51bd
00000010: 4f51 32ba 8c96 323c 8f03 69bd c49e a13c
00000020: 9bfa 3fbd c828 c03d 4000 99bd 439f b4bc
00000030: 95f3 ce3c 9c9e a93c bd27 733c fb2d 63bd
00000040: d261 07bd a70e 3abd 9bfa 3f3d c828 c0bd
00000050: dca0 67bd 886b ee3d d4d9 a0bd c58c a2bd
00000060: 7925 343e d75f f23c 1f6b 923d dde1 2e3c
00000070: 99e7 a53d 6d45 7cbd cd12 a03c a842 80bd
00000080: daea 0cbe fec1 afbd b4e5 3d3e bf30 cb3c
00000090: 926b 813d a445 453c 5891 9a3d 1aa7 65bd
000000a0: cd12 a0bc a842 803d d4d9 a0bd c58c a2bd
000000b0: 2c3b 0f3e 4be0 0b3e d067 283e 37a4 183e
000000c0: c1dd 3bbe 87da 20be e6a2 37be 6ef6 36be
000000d0: 7dd5 b7be 7b51 96be 7243 8bbe 4994 78be
000000e0: 4ffa 4cbe a0f3 37be a760 243e 077e 263e
000000f0: 46b3 303e 2124 163e 7dd5 b73e 7a51 963e
00000100: aa1f 0f3e 16c0 0b3e 1176 2e3c 10cc 5dbd
00000110: c176 1abe 7128 9c3d 58ff 1dbe 57b1 3f3d
00000120: 8c91 403c b477 1c3c e2ad d73c 67fd 89bc
00000130: 3895 3e3d a372 723d bbc3 26be 67e6 a13d
00000140: a930 0abe b8c1 453d e336 013d 806f 8e3b
00000150: e2ad d7bc 67fd 893c 1176 2e3c 10cc 5dbd
00000160: 573f 03ba f56f 993d a4cc 2dbd 1bb8 033d
00000170: bd0c debd 43df 62bd 7b7a 953c af8c 563d
00000180: 521a d43a 21b0 d8bc cd3a 1d3c 8b5c 403d
00000190: 6bad d0bc 79b4 f7bc 24ad 05be b489 feba
000001a0: 276a 2a3b e0ad db3d 521a d4ba 21b0 d83c
000001b0: 573f 03ba f56f 993d 08f0 b53d 74de 12bd
000001c0: 2b5a 33be b4bf 1abd 3db5 f0bc 61e1 a1bd
000001d0: f69f acbd af8a 04bd dfb7 223d 9166 fbbc
000001e0: 7990 53bc 705f a1bd 5d09 2bbe 7373 a3bd
000001f0: 4f40 d9bc 80b1 69bd 2d9e b0bd de12 3bbc
00000200: dfb7 22bd 9166 fb3c 08f0 b53d 74de 12bd
00000210: daaa 1cbd 9be9 b03a 66bc adbe bb70 90bb
00000220: 2340 393d 38da 2a3b 10a6 423d b841 793b
00000230: ee4c e03d b31f 4f3a 3a44 a13c b37f 773b
00000240: 4a3f 84be aaf4 e8bb e189 38bd 7d71 2f3b
00000250: 890c 3cbd 3304 c639 ee4c e0bd b31f 4fba
00000260: daaa 1cbd 8be9 b03a 9271 4a3d f0f1 643d
00000270: 6bee 85bd 06b0 6cbd f4c5 58bd 3b81 d4bd
00000280: 7d9c 213c b9a9 a0bc 0db5 92bc 674b 1e3d
00000290: f700 f2bd 4384 043e ceb1 39bd 3a16 5bbd
000002a0: 6c9e 97bd a074 d7bd 4a9c 89bc 08be e7bc
000002b0: 0db5 923c 674b 1ebd 9271 4a3d f0f1 643d
000002c0: d2e2 363a 2ac1 2d3d f02a 8a3d 5fe9 293e
000002d0: cd17 6c3d d080 b23d 58e5 5bbd e3ba 44bd
000002e0: 445d 00bd 390a 9dbd 4c28 23bd cf2c 69bd
000002f0: 149e 4d3d 0ef5 223e b994 ab3d 92a6 e73d
00000300: d1d2 c0bc ee9c 19bd 445d 003d 390a 9d3d
00000310: d2e2 363a 2ac1 2d3d e3a1 68bc c317 0ebd
00000320: 659a a23c e7b4 51be 8b37 113d 9e3a 833d
00000330: eee2 2f3a 87fc 63bc 9aac 983c db01 b33d
00000340: 5de2 52bc 11a0 8dbc ea47 943c da43 1dbe
00000350: 0fad 233d 4e42 cb3c 9ebf 453c c72d a3bd
00000360: 9aac 98bc db01 b3bd e3a1 68bc c317 0ebd
00000370: d125 793d a6ea a93c add9 be3d 4bd5 6c3d
00000380: 7827 cb3d 50d8 433d 83db 3cbd 2ecc 243d
00000390: 47ca 83bd eee6 993c 7ec7 043e ac9c 053d
000003a0: e3cd a23d 72e8 cd3d a975 043e 1cbf c2ba
000003b0: 92b8 f0bc d3e0 00bc 47ca 833d eee6 99bc
000003c0: d125 793d a6ea a93c 568a 4b3c 07b1 b5bd
000003d0: b9cb 2f3d 244d 8cbd cdb8 ebbb 4649 373d
000003e0: c9fd c3bc e3a5 38bd d93f 51bd c1c3 49bd
000003f0: b856 f03d b2b5 00bd b38e fc3b 53bc babd
-0.05654989 0.11641604 0.050472777 -0.051081818 -0.0006802277 0.010900151 -0.05688816 0.019729026
-0.046869855 0.093827784 -0.07470751 -0.022048598 0.025262633 0.020705514 0.014841017 -0.055463772
-0.033052273 -0.04542413 0.046869855 -0.093827784 -0.05654989 0.11641604 -0.078540474 -0.07937006
0.1759242 0.029586716 0.07149338 0.010673967 0.08100814 -0.061589647 0.019540215 -0.06262714
-0.13761464 -0.08581923 0.18544656 0.024803517 0.063193455 0.012040529 0.07547253 -0.056067564
-0.019540215 0.06262714 -0.078540474 -0.07937006 0.13987416 0.1365978 0.16445851 0.14906393
-0.18346311 -0.15708362 -0.17933235 -0.17867443 -0.35905066 -0.2935904 -0.27199894 -0.24275316
-0.2001736 -0.1796403 0.16052495 0.16259013 0.17255887 0.1466222 0.35905066 0.29359037
0.13976923 0.13647494 0.010648266 -0.054149687 -0.15084364 0.07624901 -0.15429437 0.046799984
0.011753451 0.009550024 0.026328031 -0.016844464 0.046529025 0.059191357 -0.16285603 0.07905274
-0.13495125 0.048280448 0.031546485 0.004346788 -0.026328031 0.016844464 0.010648266 -0.054149687
-0.0005006692 0.07492057 -0.04243149 0.032158 -0.108422734 -0.0553887 0.01824688 0.05238026
0.001618216 -0.026451172 0.009596539 0.046963256 -0.025473317 -0.030237423 -0.13054329 -0.0019419701
0.0026003213 0.107265234 -0.001618216 0.026451172 -0.0005006692 0.07492057 0.08883673 -0.03585668
-0.17514865 -0.03778048 -0.029383296 -0.07904316 -0.08428948 -0.03235882 0.039726134 -0.030688556
-0.012912863 -0.078795314 -0.1670279 -0.079810046 -0.026519923 -0.057054043 -0.0862392 -0.0114180725
-0.039726134 0.030688556 0.08883673 -0.03585668 -0.038248874 0.0013497354 -0.339328 -0.00440797
0.04522718 0.002607001 0.04752165 0.0038033556 0.10952173 0.0007901147 0.019685853 0.0037765324
-0.25829536 -0.0071092444 -0.045053367 0.0026770525 -0.045910392 0.00037768632 -0.10952173 -0.0007901147
-0.038248874 0.0013497336 0.049424715 0.055894792 -0.06539615 -0.057785057 -0.052923158 -0.10376211
0.00986397 -0.01961218 -0.017908597 0.038646128 -0.1181659 0.12941079 -0.045335583 -0.053487994
-0.074032634 -0.10520291 -0.016798157 -0.028288856 0.017908597 -0.038646128 0.049424715 0.055894792
0.0006976548 0.042420544 0.06746471 0.1659293 0.057639886 0.08715975 -0.053685516 -0.04802979
-0.031338945 -0.076679654 -0.039833352 -0.0569275 0.050199583 0.15913793 0.08377976 0.11311068
-0.023538025 -0.037503175 0.031338945 0.076679654 0.0006976548 0.042420544 -0.014198753 -0.03469063
0.019849012 -0.20479165 0.03545336 0.06407665 0.00067095354 -0.013915188 0.01863699 0.08740588
-0.012871352 -0.01728824 0.018100698 -0.15357915 0.039959963 0.02481189 0.012069611 -0.07967716
-0.01863699 -0.08740588 -0.014198753 -0.03469063 0.06082708 0.020741772 0.09318862 0.0578206
0.099196374 0.047813714 -0.04610778 0.040233783 -0.06435066 0.018786874 0.12966725 0.032620117
0.07949426 0.10054101 0.12935509 -0.001485798 -0.029384885 -0.007866102 0.06435066 -0.018786874
0.06082708 0.020741772 0.012423119 -0.08871656 0.042918894 -0.06850651 -0.007193661 0.044747613
-0.023924725 -0.045080077 -0.05108628 -0.04925895 0.1173529 -0.03142328 0.0077074408 -0.09117951

net.0.bias f4 [256]
00000000: e540 1dbe 2bee 85be 42e5 12be dbf2 6bbe
00000010: 5f72 81be 63d4 7ebe 01cd 08bf acb9 9abe
00000020: 0cb2 92be e65d b6be a974 95be 50e5 9dbe
00000030: 7460 60be 5fde 1fbf 824f 51be 0c5a 7ebe
00000040: 896b acbe 75f3 fdbe fd06 88be cc6e 86be
00000050: eac9 8fbe 8304 7ebe cb90 463d e08f 64be
00000060: 0333 53be a56a 4ebe eb08 9ebe eeeb 97be
00000070: 16f6 9cbe 6f68 523e 946a 9fbe c088 5fbe
00000080: 9d52 91be b67f 9ebe 277c 17bf 2b94 66be
00000090: 334d 86be 630a 20be cd92 1dbf ca6a a5be
000000a0: 3ef3 a9bd 4f70 4abe 525c e2be 7896 d9be
000000b0: 31c5 78be b6f6 5fbe f717 8fbe cb72 98be
000000c0: 96fb 48be 162a 93be 4541 a8be 6c55 63be
000000d0: 3b3a 60be d316 00bd d2f7 39be 5016 76be
000000e0: e88a 67be 036b 73be 0b11 73be 7b7f 9fbe
000000f0: c9de 66be d899 5ebe 429b 87be 7a04 4dbe
00000100: fc57 72be a12f 483c 81dd b3be c77b a8be
00000110: 4159 21be ef57 67be f731 47be b4a7 91be
00000120: 73a2 5fbe 99e2 74be a74e 8dbe 23b4 74be
00000130: 5d1c 82be 1613 91be 4d2c 92be c5a2 88be
00000140: 35e5 9cbe 323c 93be 85aa 85be 5ca1 56be
00000150: 6242 49be b260 5ebe 3cd7 b2be 84fc 0ebf
00000160: 6a15 8ebe ae06 86be ae04 43be 4d74 98bc
00000170: ac36 8bbe 101e f3be 12bc 42be aca5 7bbe
00000180: 8700 8dbe 846d 4c3e ba39 81be 4b38 b4be
00000190: 3972 91be 8e84 e5be a5be 4bbe f321 20bf
000001a0: 5297 80be 393c 82be 46fa 55be 82ce 39be
000001b0: 926b 50be aaa4 97be 261f 90be d802 1bbe
000001c0: 115d 01be f171 a0be ea97 1ebe fe11 a33d
000001d0: 507e 69be 08e0 5dbe 8c44 86be 5400 67be
000001e0: 826f 50be 1c20 58be 2a4b 98be 04d7 66be
000001f0: cde7 4ebe 1058 4f3e 74ad 98be 5478 91be
00000200: ef07 78be 2cb9 42be fb8b 00bf 0666 9bbe
00000210: e956 78be 45b7 7bbe 2c71 59be ccc3 9cbe
00000220: 0af3 45be 0c5c 87be 439f 77be 3191 3dbe
00000230: e4f6 58be adde 9ebe cb42 d9bd eeb9 7ebd
00000240: eb28 563e b3bf 21be 06f9 66bd f08f 81be
00000250: 6014 39be 0aa3 a5be 42ad 6ebe f2ff adbe
00000260: af74 79be 218e 66be a5b2 89be a4c2 4abe
00000270: aac4 7cbe 6705 10bd ce53 edbd cb96 8fbe
00000280: a5ba 9ebe 1178 78be 3906 89be a9d2 7ebe
00000290: 7f28 28be 369c b4be effc c73d 91c3 7bbe
000002a0: 9e51 92be a172 15bf 96aa 61be 8b94 2dbe
000002b0: 0ccb 62be 3ea5 89be 71fd 70be d2af 3dbe
000002c0: 45c3 b3be 200c 84be 85b4 98be c434 e0be
000002d0: 9336 51be d44a 6e3d 30ea 3cbe 2c83 a1be
000002e0: f7d7 56be 90e3 6bbe a323 87be 5724 a3be
000002f0: 7526 71be 6856 7cbe 8514 8abe 1d23 93be
00000300: 7ee9 9dbe 15e2 02bf ab79 83be 50cf 4f3e
00000310: 945c 90be 62e8 7bbe 2366 89be f3e8 4dbe
00000320: e6c3 6bbe 2e27 66be dbc6 79be 7acc 94be
00000330: 7ac8 0dbf 1f42 80be 7ef9 72be fd38 adbe
00000340: 745e 27be d2cd 98be 593b 4d3e ce58 32be
00000350: ce7a 09bf 48ca b2be 2f3a 40be 287c 47be
00000360: 9751 94be 7d11 cdbe 7378 87be 55dd 9dbe
00000370: c16b 8cbe f7f1 83be 064e 02bf 8890 89bd
00000380: a5e4 93be 6026 7bbe a1dd 84be 3476 68be
00000390: b4f6 98be 65c8 3bbe aec9 84be 7c97 9abe
000003a0: deac 9abe 8a93 98be 4a73 a0be 535c 82be
000003b0: 93a9 89be 0d23 9cbe 375f 6cbe 7459 86be
000003c0: 94d1 aabe e142 9abe be58 4f3e 0992 66be
000003d0: 68c7 90be 7267 7dbe 9237 8ebe 76da 8abe
000003e0: 97a7 98be 6e3c a7bd 9bfb 04bf 4297 5bbe
000003f0: 5a51 6dbe 80f0 3abe 913a fbbe f307 8abd
-0.15356787 -0.2615827 -0.14345267 -0.23041861 -0.2528257 -0.24885707 -0.5343781 -0.3021978
-0.28651464 -0.35618514 -0.29190567 -0.30839014 -0.21911794 -0.62448686 -0.20440486 -0.24839038
-0.33675793 -0.49599805 -0.26567832 -0.26256406 -0.28083736 -0.24806409 0.04847793 -0.22320509
-0.20624928 -0.20157869 -0.3086618 -0.29672188 -0.306565 0.20547651 -0.31136 -0.2182951
-0.2838334 -0.3095681 -0.59173816 -0.22517459 -0.26230773 -0.15628962 -0.61552125 -0.32308036
-0.08298348 -0.19769405 -0.4421106 -0.4249761 -0.24293973 -0.21871457 -0.2794797 -0.2977508
-0.19627222 -0.28743047 -0.32862297 -0.22200555 -0.21897213 -0.031271767 -0.18160942 -0.24031949
-0.22611582 -0.2377129 -0.2373697 -0.31151947 -0.22545923 -0.21738374 -0.2648564 -0.20021239
-0.23666376 0.012218387 -0.35129932 -0.32906935 -0.15756704 -0.22592138 -0.19452654 -0.2844826
-0.21839313 -0.23914565 -0.2759907 -0.23896842 -0.25412264 -0.28334874 -0.28549424 -0.26686683
-0.3064362 -0.28756863 -0.2610666 -0.20959991 -0.1965423 -0.21716574 -0.34929836 -0.5585406
-0.27750713 -0.2617697 -0.19044754 -0.018610144 -0.2719015 -0.47483873 -0.19017056 -0.24574918
-0.27539465 0.19963652 -0.25239354 -0.35199198 -0.28407457 -0.44827694 -0.19896944 -0.625518
-0.25115448 -0.2543657 -0.20896253 -0.18145183 -0.20353535 -0.29617816 -0.28148764 -0.15137804
-0.12633158 -0.3133693 -0.15487638 0.07962416 -0.2280209 -0.21667492 -0.26224172 -0.22558719
-0.20355037 -0.21105999 -0.29744846 -0.2254296 -0.20205612 0.20248437 -0.29819834 -0.28412116
-0.24221776 -0.1901595 -0.50213593 -0.30351275 -0.24251904 -0.2458163 -0.21234578 -0.3061813
-0.19330993 -0.26437414 -0.24181847 -0.18512417 -0.21187931 -0.31029263 -0.10608443 -0.062189035
0.20914046 -0.15795784 -0.05638983 -0.25305128 -0.18074179 -0.3235095 -0.2330828 -0.33984333
-0.24360918 -0.22515155 -0.26894107 -0.19800812 -0.24684396 -0.035161402 -0.1158825 -0.28044733
-0.31001773 -0.24264552 -0.2676256 -0.24885048 -0.16421698 -0.3527543 0.0976504 -0.24586321
-0.28577894 -0.58378035 -0.2203773 -0.16951196 -0.22147769 -0.26883882 -0.2353418 -0.18524101
-0.35109916 -0.257905 -0.29825225 -0.43790257 -0.20430975 0.05817683 -0.1844871 -0.3154539
-0.20980822 -0.23036027 -0.26394376 -0.31863663 -0.23549826 -0.24642336 -0.2696878 -0.28737727
-0.30842203 -0.51126224 -0.25678763 0.20293927 -0.28195632 -0.24600366 -0.26835737 -0.20108394
-0.23023948 -0.22475883 -0.24392264 -0.29062253 -0.5538403 -0.25050446 -0.23727986 -0.3383254
-0.16344625 -0.29844528 0.2004217 -0.17416689 -0.5370301 -0.34919953 -0.18772195 -0.19480956
-0.28968498 -0.40052405 -0.26459083 -0.30832925 -0.2742596 -0.25770542 -0.50900304 -0.0671702
-0.2888538 -0.24526358 -0.2595034 -0.22701341 -0.2987572 -0.18338163 -0.2593512 -0.30193698
-0.30210012 -0.29800063 -0.3133796 -0.25461063 -0.26887187 -0.30495492 -0.23083197 -0.26240122
-0.3336302 -0.3012915 0.20248696 -0.22516645 -0.28277135 -0.24746493 -0.27776772 -0.27119797
-0.2981536 -0.08165823 -0.5194642 -0.21444419 -0.23175564 -0.18255806 -0.4906812 -0.067397974

net.2.weight f4 [256]
00000000: 1844 023e 055d f13d 0031 553e 912c 203e
00000010: 605c 003e 1982 783e 21ee a93e 8dc2 3e3e
00000020: e44a 383e df14 4d3e 1a1f 243e 953c dd3d
00000030: ae05 1e3e adc7 9e3e 61f5 2d3e e2ce 173e
00000040: 74d9 843e f6c1 6a3e b1a9 373e 18d5 bf3d
00000050: ec3d 033e 8ad0 163e 49d4 e33c de79 2d3e
00000060: 0fb7 6e3e 1c20 703e c9be fb3d e5ad 2e3e
00000070: cd7e 863e 0724 223e 4f99 3b3e 552e f23d
00000080: 16d0 f43d 0f12 4c3e 1cae a83e 69c4 203d
00000090: 1b28 123e c9f6 413e ec64 fd3e bd5f 733e
000000a0: 02f7 083e 1df1 5f3e ba66 8d3e a74c ee3e
000000b0: 8848 373e d959 2e3e cdb2 523e 8ce1 2c3e
000000c0: 810f 703e 9522 ce3d 9f03 593e a759 043e
000000d0: 82cb c63d a326 053f ebff 6f3e 3b40 383e
000000e0: 31b8 103e 8b08 fb3d 6197 c63d 2e55 1d3e
000000f0: df04 1c3e 7338 aa3d 28ed 553e 2793 633e
00000100: d3bd e53d edfa d93c 3bb3 2b3e 0247 703e
00000110: 94ad 853e 8535 243e 3e68 5c3e fa1a 0a3e
00000120: f571 023e 3baf fd3d f3b4 2d3e 6ec1 673e
00000130: a031 043e 6461 1d3e 76c5 613e 9700 393e
00000140: d6c4 573e 38dc c03d 4ed5 143e 34d8 593e
00000150: d835 c23d 3409 293e cd5a a33e dafc 933e
00000160: 9cbf 9e3d 01fe 8e3d 4e6f c53d 6f15 023f
00000170: 86e9 233e e326 ed3e 65b8 143e 6d5b 303e
00000180: 1536 513e 130c 1f3e ead1 8f3d a174 873e
00000190: 71e5 7e3e de3a 333e 767c 323e 239b aa3e
000001a0: a680 ff3e 7e41 f13d 390d bd3d 155f 2c3e
000001b0: 0faa c83d 4c5d 1c3e 5b28 733e 89ea c23d
000001c0: ab2a 183e ab7f 823e 88c2 153e 2384 f13c
000001d0: 03b3 943e 89ff de3d ee5b 123e 3da0 063e
000001e0: 6ad2 513e ba54 a33d 6cf6 2e3e f0ed fa3d
000001f0: 9335 f33d 4e2f 223e 341e 0f3e 0d9d 4d3e
00000200: 706c b13d 4265 f53d f876 db3e 066b 143e
00000210: d3fa 243e 39fb 223e eb6d 1a3e 811d 493e
00000220: f17a 6f3e 5a3e 383e e3c2 4d3e 5ac6 c83d
00000230: 70f4 573e a46f 1a3e 0778 3c3e 9359 083e
00000240: e5eb 263e 4a80 1c3e d74e fe3d 8cdb 233e
00000250: 09b1 5f3e f3f0 ac3e f310 343e 4b08 ac3e
00000260: 37e6 3a3e 6b5b 133f 52c4 063e e30d 633e
00000270: 8274 3a3e cded 0e3e ed98 db3d 88c6 4c3e
00000280: 1925 023e 8052 0b3e 2329 5b3e 1fff 4b3e
00000290: bd9b e53d 4937 2f3e cc7b 2e3d 87f4 a73d
000002a0: 3daf 1f3e e805 003f 5a90 f83d fcbe f23e
000002b0: 3edb f23d 5bb7 3d3e bafa 403e 66b3 463e
000002c0: 1d21 fe3d 301c ee3d d8eb 633e 3d9a f83e
000002d0: 43a8 673e 4325 c73c e0e6 213e 0866 253e
000002e0: c755 d23d 0e8c 213e dbbb 1d3e 9738 4d3e
000002f0: 25dc e43d 2156 5e3e ff8d 4b3e 1f69 483e
00000300: 2ae3 af3d 20e3 633e 7a13 383e b8cf 223e
00000310: 7b67 483e f904 5bbe 86f4 483e 70cd 703e
00000320: 13ef 103e 3a9a 0a3e 9a80 243e 0ddb 7b3e
00000330: a6f6 f13e afc9 1b3e 6009 3f3e 509e 563e
00000340: 1e5b 153e fb6b 523e 4fc6 213e 11ec c93d
00000350: 097c 603e dd52 083e 37a8 fc3d 2bd3 3b3e
00000360: 5062 053e 6ca4 b93e 6f5f 173e 47d3 603e
00000370: 70d2 dd3d 4c5f 713e d15a 5c3e 3d0c 7e3d
00000380: 9cb6 713e f6a2 273e 0261 d33d 727d 193e
00000390: c2d5 4f3e c680 ff3d f03c 123e 1736 773e
000003a0: 2491 213e 1d7c 363e fa09 383e bea4 523e
000003b0: 3187 4a3e a2fd 263e fea2 273e 7190 073e
000003c0: 97c5 973e 4f61 643e dce3 1f3e 12d1 8c3d
000003d0: e6b6 2b3e f7ef 5a3e d4ad 353e 9c12 443e
000003e0: 08d9 a43d c492 133e ea19 5e3e 9eb8 353e
000003f0: ea0b 243e f05e 063e faca 613e 660b 1e3e
0.12721288 0.1178532 0.20819473 0.15642 0.12535238 0.24268378 0.3318949 0.18628903
0.17997319 0.20027493 0.1602749 0.10802571 0.15431854 0.31011716 0.16988136 0.14825013
0.25947154 0.22925553 0.17935826 0.09366816 0.1281659 0.14727989 0.027811186 0.1694102
0.23312019 0.23449749 0.12292249 0.17058523 0.26268616 0.15834056 0.18320201 0.118252434
0.11953752 0.19928764 0.32945335 0.03924981 0.14273112 0.18941797 0.4949106 0.2376699
0.13375476 0.21869321 0.27617437 0.46542856 0.17898762 0.17026462 0.2057602 0.16882914
0.23443414 0.1006519 0.21192788 0.12924825 0.09706785 0.5201208 0.23437469 0.17993252
0.14132763 0.12257489 0.09696842 0.15364525 0.15236233 0.08311548 0.20891249 0.22224103
0.11217847 0.026608909 0.1676759 0.23464587 0.26108992 0.16036041 0.2152414 0.13486853
0.12738784 0.12386938 0.16963558 0.22632381 0.12909555 0.15369183 0.22047982 0.18066631
0.2107118 0.094170034 0.14534494 0.21273881 0.09482926 0.16507417 0.31905213 0.28903848
0.0775139 0.06982041 0.0964037 0.50813955 0.16007051 0.4631873 0.14523466 0.17222376
0.20430787 0.1553195 0.0702246 0.26456168 0.24892212 0.17502925 0.1743029 0.33321485
0.49902838 0.1178007 0.09231038 0.16833146 0.09798061 0.15269965 0.23745863 0.0951739
0.14860027 0.25488028 0.14624989 0.029481953 0.29042825 0.10888583 0.14292881 0.13147064
0.20490423 0.07975145 0.1708619 0.12252414 0.11875453 0.15838358 0.13976365 0.20079441
0.08663261 0.11982204 0.42864203 0.14493951 0.16111307 0.15916146 0.15080993 0.19640161
0.23386742 0.17992535 0.20093875 0.098034576 0.2108934 0.1508165 0.18405162 0.1331542
0.16300924 0.15283313 0.12417381 0.16001719 0.21844877 0.3377758 0.1758459 0.33600077
0.18251882 0.5756137 0.13160828 0.22173266 0.18208507 0.13957901 0.10722528 0.19997609
0.12709464 0.1360569 0.21402411 0.1992154 0.11211345 0.17110933 0.04259853 0.08200937
0.15594192 0.5000901 0.12136908 0.47411335 0.118582234 0.18526976 0.18845645 0.19404373
0.124086596 0.1162647 0.22257936 0.48555174 0.2262278 0.02430976 0.15810728 0.16152203
0.10270267 0.15776083 0.15403692 0.20041119 0.11174802 0.21712543 0.19878386 0.1957135
0.0858825 0.2225461 0.1797618 0.15899551 0.19570725 -0.21388616 0.19624528 0.23515868
0.141537 0.13535395 0.16064683 0.2459528 0.4725849 0.15213655 0.1865592 0.20958829
0.1458554 0.20549004 0.15798305 0.09859479 0.21922316 0.1331286 0.12336772 0.18342273
0.13025784 0.36258256 0.14782499 0.21955596 0.108311534 0.23571509 0.21519019 0.06202339
0.23604816 0.16370758 0.10321237 0.1498926 0.20296386 0.124757335 0.14281058 0.24141727
0.15778023 0.17820783 0.17972556 0.20570657 0.19778134 0.1630769 0.1637077 0.13238694
0.29642937 0.22302745 0.15614265 0.068758145 0.16768989 0.21380602 0.17742091 0.19147724
0.08049208 0.14411455 0.21689573 0.17746207 0.1602017 0.13122153 0.22050086 0.15434036

net.2.bias f4 [256]
00000000: 405f 9d3c 6b89 e63c ed0e cf3c c626 113d
00000010: 077b c73c 4503 733d d149 923d a611 313d
00000020: a865 f83c 2fa2 373d 5530 f33c 86e9 e33c
00000030: 0733 1a3d f222 963d ff1b ef3c 29d4 1b3d
00000040: a1d4 883d ba91 783d 430c 5e3d 5c58 6a3c
00000050: 0f51 e33c e4ee ea3c d8a0 83bd 486b 183d
00000060: f8e2 263d 2439 273d 52ad 123d 7c62 1f3d
00000070: 5ff3 9a3d a02c 08bf 5456 303d 0b96 a63c
00000080: e16a e43c 4ba9 4b3d 7771 933d 063e 45ba
00000090: 52b3 523c b5a6 593d 09e3 f03d 88c6 4d3d
000000a0: f16f a13b a51c 0f3d 3d89 983d 64b6 033e
000000b0: dc44 fc3c 4844 f83c e9a2 483d c2e8 373d
000000c0: c80d 1e3d 39e8 8d3c 1631 623d f398 663c
000000d0: ca22 d13b 7faf 133e 8997 143d 4957 363d
000000e0: a6b7 223d e55e 6e3c d7fa 733b 9822 103d
000000f0: 35a3 fc3c 9fd4 4b3c 3ed2 3b3d 632a 0e3d
00000100: ca2d b63c 612b 76bd 34f0 a63c 0cc9 6a3d
00000110: 0973 573d a522 073d 8d46 053d 60db e73c
00000120: d8c1 be3c 40eb a53c 357a 313d c823 6c3d
00000130: 0708 f13c 0115 293d 2ee1 553d 9d89 243d
00000140: 38e2 423d 9767 983c 6ce6 153d 65ba 093d
00000150: 51c8 1f3b 29c0 1b3d ca34 a83d c022 8e3d
00000160: 0d9c 043c f641 1ebc 19cd 163c e9b9 143e
00000170: 08b3 003d 03dd f43d 06b1 d23c aa41 1f3d
00000180: 434c 433d d056 ffbe be07 803c a4af 903d
00000190: 83c1 663d 5819 c93c d1a4 ec3c f1cf a73d
000001a0: b1cb 0f3e fa94 203c 641e ba3c 5ae8 d53c
000001b0: d4ed 1e3c 0b1f 0c3d d200 5a3d 291a 2b3c
000001c0: 48d7 c23b 288f 723d 358c 7d3c cfb4 1cbd
000001d0: 846e 993d d6ad a83c d0a0 543c 4e05 0b3d
000001e0: e788 6c3d e6b3 163c f559 303d 4e11 a73c
000001f0: bbd4 9f3c abda 07bf 0abf f33c 862a 353d
00000200: 158f f33b 6b57 cb3c 8722 d53d afce ec3c
00000210: dba3 133d a157 d63c ed1c 003d 9831 5b3d
00000220: 7298 f23c 1eb2 2f3d 3c84 643d 725e 803c
00000230: 958a f83c 02dc 043d 6458 a23c 35f2 203c
00000240: 78df 06bf 9ab1 8a3c e531 223b 52c8 263d
00000250: 2dae 0f3d a67b b93d 3f15 1a3d 8385 be3d
00000260: 83e7 403d 16a8 253e 8d6d 023d b31f 0c3d
00000270: 0f12 3e3d 7cac 17bc b063 91bc d803 503d
00000280: 077d df3c 984a 0a3d 0c57 413d 05a0 243d
00000290: 4c9f 8b3c 63a1 f43c 7b55 88bd c8b8 c23b
000002a0: 483a 0a3d bad5 003e 0baf 7b3c 9673 013e
000002b0: 9b68 e23c 4001 313d f001 2d3d f39a 0e3d
000002c0: 5903 8a3c e2ad 783b 211a 783d d704 073e
000002d0: 0e1a 213d bf0a 86bd cb7c e03c e798 0a3d
000002e0: 7771 bc3b f87e e13c e8d6 0b3d 84f6 2f3d
000002f0: 5400 8d3c cf95 533d fc7e 213d 657a 5d3d
00000300: 2dfd 963c 78d8 453d b94e 303d f84a 02bf
00000310: 2fb9 263d 4b4e 4cbd 86de 2f3d 9afd 493d
00000320: 4a41 0c3d ec4a 163d 6dac 0d3d b87b 803d
00000330: d919 f33d e0da 063d f314 343d 74b4 5d3d
00000340: 38ea dc3c 9902 4f3d d26f 00bf 6ebe 963c
00000350: 6c03 2c3d 5aa6 b73c f6d3 bb3c 93d2 1c3d
00000360: 7603 cb3c e841 cc3d 1a0a 2c3d f450 533d
00000370: 2a03 633c 38b0 783d b43c 253d ee99 a1bc
00000380: aeb8 583d 6ad0 1b3d 6c11 b03c ff96 e53c
00000390: 112e 5b3d 80d6 963c 4295 283d d5bb 733d
000003a0: 652e 093d e998 2c3d 2f76 013d e383 2b3d
000003b0: 0c1a 453d 28ad 2c3d 0ace 2a3d 4bbb a53c
000003c0: 0bb2 893d 16d3 6e3d cc6b 04bf a26c c13c
000003d0: 317c 243d d115 533d d964 313d fc11 293d
000003e0: 3070 8b3c 41ca 163c 5e6d 513d d71d 1e3d
000003f0: fa38 fd3c bf1e c53c 5f8d 433d 633b 463c
0.019210458 0.028141698 0.025275672 0.035437368 0.024350656 0.05932929 0.071429856 0.04322972
0.030321911 0.044832405 0.029686132 0.027821314 0.03764632 0.07330884 0.029188154 0.03804413
0.06681181 0.06068585 0.054210912 0.014303293 0.027748613 0.028678365 -0.06427163 0.037211686
0.040743798 0.040825978 0.035809822 0.03891228 0.075659506 -0.5319309 0.04305108 0.020335218
0.027882995 0.049721997 0.07199376 -0.0007524196 0.012860136 0.0531375 0.117620535 0.050238162
0.0049266745 0.034939427 0.07448051 0.12862545 0.030794553 0.030305997 0.04898349 0.04489971
0.03858736 0.017322646 0.055222593 0.014074552 0.006382321 0.14422415 0.036277328 0.044516835
0.039725922 0.014548992 0.003722837 0.03518924 0.030839542 0.01244083 0.0458548 0.034708392
0.02223863 -0.060099963 0.02037821 0.05732064 0.05259994 0.032992024 0.032537986 0.028302848
0.023285791 0.020253778 0.043329436 0.05765131 0.029422773 0.041279797 0.0522167 0.0401703
0.04757902 0.018604083 0.0365967 0.033625025 0.0024380872 0.038025055 0.08213194 0.06940222
0.008093846 -0.009659281 0.0092041725 0.14524044 0.031420738 0.11956217 0.025719177 0.03888098
0.04768015 -0.4987092 0.015628692 0.07064751 0.05633689 0.024548218 0.028887184 0.081939586
0.14042546 0.009801144 0.02271957 0.02611177 0.009700257 0.034209292 0.05322344 0.010443249
0.0059460737 0.059218556 0.0154753225 -0.03825837 0.07491782 0.020590704 0.012977794 0.033940606
0.057747748 0.009198165 0.04305454 0.020393994 0.019510617 -0.53068036 0.02975418 0.044230007
0.007432828 0.024821958 0.10406976 0.028907148 0.036044937 0.026164832 0.031277586 0.053514093
0.029613707 0.042894475 0.05579017 0.015670035 0.030339519 0.03243638 0.019817539 0.009823372
-0.52684736 0.01693039 0.0024748978 0.040718384 0.035078216 0.09056787 0.037617918 0.09302809
0.047095787 0.16177401 0.031842757 0.03420992 0.04640394 -0.009257432 -0.01774773 0.050784916
0.027281297 0.033762544 0.047202155 0.04019167 0.017043732 0.029862111 -0.06656929 0.005942438
0.033746988 0.1258153 0.015361558 0.12641749 0.02763777 0.043214083 0.042238176 0.03481574
0.0168473 0.003794544 0.060571793 0.1318544 0.03933149 -0.065450184 0.027403256 0.033837225
0.0057508308 0.027526364 0.034140497 0.042959705 0.01721207 0.05165654 0.039427742 0.054071803
0.01843127 0.048302144 0.043043826 -0.50895643 0.04070395 -0.049879353 0.042936824 0.04931412
0.034241952 0.036692545 0.034588266 0.062735975 0.118701644 0.03292358 0.04396529 0.05412717
0.026967153 0.050539587 -0.50170624 0.01840135 0.04199545 0.02241819 0.02292822 0.038286757
0.024781924 0.09973508 0.04200182 0.051590875 0.013855735 0.06071493 0.040341094 -0.01972672
0.0529105 0.038040556 0.021492682 0.028026102 0.05351073 0.018412828 0.04115797 0.059505302
0.03349151 0.042138014 0.03160685 0.041873824 0.048120543 0.042157322 0.0417004 0.02023091
0.06723412 0.058306776 -0.51726985 0.02361137 0.0401575 0.051534478 0.043309066 0.041276917
0.017021269 0.0092034945 0.05112969 0.038602676 0.030910958 0.024062512 0.047742244 0.01209912

net.4.weight f4 [256, 256]
00000000: 5c25 52bc ff70 c0bc 8f68 80bc 3dec 23b9
00000010: 01e4 3e3d 2696 a5ba 347f da3c b400 993b
00000020: d51b 3d3d 91c7 543d 5c34 43bc a509 393d
00000030: d6e4 713c 88fb 543d 16ce 1abd 97a3 923c
00000040: aa9d 7b3a a3c7 853d 92c9 163c f0e7 fc3a
00000050: a87b a9b9 73c9 453d 5125 b53c 4a26 08bb
00000060: 4f50 833b d080 b7bd 0c42 e43c 33d3 46bc
00000070: da04 243d bc7a 37bc b598 853c b586 5ebc
00000080: 4ca6 5c3c 6b98 a23d 9a5b a53c 3487 40bc
00000090: 83ac fa3c 7f55 073d 312a e6bc a652 af3a
000000a0: 2b89 a2bb 60c6 01bd 4829 f43c ffbd a6bc
000000b0: 18a5 a53c 9684 7d3c 091c 993c d586 58bd
000000c0: 3590 31bd 552e 6a3c 493b 593b 5244 3e3c
000000d0: 09ba b83c 6be8 8cbc 8034 eebb 9944 103d
000000e0: 4aba 0cbd 29f4 e0bc b722 9a3c 770a 49bc
000000f0: ec53 ecbc 4c8b 88bc 9253 e83c f370 68bd
00000100: 3662 5dbc 8708 8abc 9ec7 0a3d d358 babb
00000110: 4d0e 8cbd c96d a73c 5055 92bd da6d 8cbc
00000120: 6538 323d fef1 7cbc 1c24 b93c d004 673a
00000130: e8e3 8b3b 5ee8 81bb b430 d6bb 9905 a23d
00000140: a332 30bb 0743 d23b 299a fd3b d17f 2bbb
00000150: caf9 c0bc 07e3 c3ba 80bb d5ba 73f7 103d
00000160: 6e1b 043d 5c1f 2e3d 4ae2 bfbc 758b 47bc
00000170: d5d4 0d3d 3faa beba 6253 513c ae92 e2bc
00000180: 605a d1bc 2a6d 5a3c c500 243d de50 1e3c
00000190: 8247 36bc 947e 783d 4411 f43b 5eab 5d3b
000001a0: 5897 14bd 8c0c 8c3c 6493 28bc 75fa 5c3d
000001b0: 6a4e a4bb 596a 583c 69f5 fcbc 0ead 20bc
000001c0: 8aad 453d 11b7 723c 285b e0bc 3c80 f2bc
000001d0: 1d0d 31bd 94ca aa3c 889f 0c3d 1877 973b
000001e0: 5ea6 bc3c 24e7 4fbc 0048 b5bc e5bc 1fbd
000001f0: 053c 113d a89e 14bc a141 d4ba c897 803a
00000200: b56f 89bc 62f3 1bbc 1441 503c 896e 83b8
00000210: 6198 6cbc 8aea 1f3d 0d0d 083b 56ed 623d
00000220: 434b 9d3b 49ec 8e3c 3be1 d93c 39ef afbc
00000230: 4264 313c 3b75 2b3c f27e a2bc db98 e83c
00000240: e89c 3dbc b4d3 68bc abb4 8e3c 89a5 19bb
00000250: 327d 9bbd 09cf ecbc 2115 133d eae1 46bc
00000260: 37cf 09bd b5be a1bc 5aec 19b8 6821 38bd
00000270: 12f5 95bc 465c 3abd b0fe ba3b 4ef3 35bc
00000280: 0e2f 56bb 7489 70b8 98ad 85bc 57b1 a83c
00000290: cb59 3cbc 6094 5a3d 73d8 4dbb d46b 433d
000002a0: 771b 84ba b455 083c 4ff9 5fbb fa63 d6bc
000002b0: 8013 183d 21a2 1d3d ae14 dbbc 35fd debc
000002c0: 9e66 59bc 8332 36bc 403e 51bc d6f3 28bc
000002d0: 550e c2bc 5d40 73bc b435 a33c 5560 193d
000002e0: 8c24 a23c c83c 3c3c 84bd f33c 8f8a 37bc
000002f0: 9dbc f4b8 0bb4 b03b 9d37 5abc fb83 2a3d
00000300: c5fd acba cc09 053d a2a6 e0bc b194 3bbc
00000310: 2396 813c 9658 3fbc 34a1 bfbb 6406 85bd
00000320: c4c8 6d3c 10f9 abbb 3f4c 84b9 c000 3ebb
00000330: 2396 563c 5054 e83c 4459 a1bc ff44 c53d
00000340: fec1 0dbc c17c 4a3c 83ca 87bc ceb4 fdbb
00000350: 3b65 203c 7a46 643d 7341 50bc ee3b 73ba
00000360: 7a5e 7ebc 1632 bd3a 60b0 123c 9a9a 82bc
00000370: 4c83 d1bc 255e 85bd 6593 b63c 55bc 293c
00000380: 74ab 92bb 1043 fb3c 4966 7bbc 1053 17bd
00000390: 1e12 c23a 61fd 2dbd 48c5 2abb 0163 253d
000003a0: fa97 1c3c b2d7 30bd 3686 013d f1c1 8b3b
000003b0: ceee be3c 5cce 17bc 9aa1 febb c0bd 1dbc
000003c0: c9ed 86ba 5ff5 7dbc b6cf 72bc cc42 70bc
000003d0: 2216 8b3c 3753 8fbc cbf8 4e3c 4eb0 0e3b
000003e0: 0006 c9bb dd38 043d a7b3 813d 99e8 c03b
000003f0: 7b32 c03c 3fe8 3d3d 1333 1d3d 5ae2 7c3c
-0.01282629 -0.02349138 -0.015674857 -0.00015632897 0.04660416 -0.0012633249 0.026671983 0.0046692733
0.04616912 0.051948134 -0.011914339 0.045175213 0.014764031 0.05199769 -0.037794195 0.017900271
0.0009598384 0.06532218 0.009203332 0.0019295197 -0.00032326323 0.04828782 0.02211252 -0.0020774775
0.0040073763 -0.08960116 0.027863525 -0.012135315 0.04004369 -0.011198696 0.016308168 -0.013581921
0.013467383 0.07939228 0.02018528 -0.011750985 0.030599838 0.03304052 -0.02809629 0.0013376072
-0.0049601994 -0.031683326 0.02980484 -0.02035427 0.020220324 0.0154735055 0.018690126 -0.05286296
-0.043350417 0.014293273 0.003314691 0.0116129685 0.022549646 -0.01720067 -0.007269442 0.03522167
-0.034357347 -0.027460175 0.018815381 -0.012270561 -0.02884861 -0.016667984 0.028360162 -0.05674834
-0.013512185 -0.01684977 0.033881776 -0.005686858 -0.06838665 0.020438092 -0.07145178 -0.017142225
0.043510813 -0.015438555 0.022600226 0.0008812668 0.004269112 -0.003964468 -0.0065365676 0.07911224
-0.002688565 0.0064166817 0.0077393246 -0.0026168714 -0.023556609 -0.0014944979 -0.001630649 0.035392236
0.03225272 0.042510375 -0.023423333 -0.012179245 0.0346268 -0.0014546587 0.012776228 -0.027657833
-0.02555579 0.013331691 0.040039796 0.009662835 -0.011125447 0.06066759 0.0074483473 0.0033824067
-0.036277145 0.017095827 -0.010289047 0.053949792 -0.0050142305 0.013208949 -0.03087874 -0.009806884
0.048261203 0.014814154 -0.027387217 -0.029602163 -0.043225396 0.02084855 0.03433183 0.0046223514
0.023028549 -0.012689386 -0.022129059 -0.038998503 0.03545763 -0.00907103 -0.0016193875 0.0009810859
-0.016776899 -0.009518476 0.012710828 -6.2671555e-05 -0.014440627 0.039042033 0.0020759732 0.055402122
0.0048002317 0.017446654 0.026596656 -0.021476375 0.010827126 0.010464962 -0.019835923 0.0283932
-0.011573054 -0.01421063 0.017420134 -0.0023444614 -0.075922385 -0.028907316 0.035908822 -0.012138823
-0.03364488 -0.019744257 -3.6698162e-05 -0.044953734 -0.018305335 -0.045498155 0.0057066306 -0.011105372
-0.0032681855 -5.7348472e-05 -0.016318128 0.020592375 -0.011496018 0.053364158 -0.0031409531 0.047710255
-0.0010078986 0.0083212145 -0.00341757 -0.02617072 0.03712797 0.038484696 -0.02674326 -0.027220348
-0.013269095 -0.011120441 -0.012771189 -0.010312041 -0.023688475 -0.014846888 0.019923069 0.037445385
0.019792818 0.011489101 0.029753454 -0.011202469 -0.000116699586 0.0053925565 -0.013318923 0.041629773
-0.0013198188 0.032480046 -0.027423207 -0.011449025 0.015818661 -0.011678835 -0.0058480743 -0.064953595
0.014513198 -0.0052481964 -0.0002523381 -0.0028992146 0.013097319 0.028360516 -0.019695885 0.096323006
-0.008652208 0.012358845 -0.016576057 -0.007742501 0.00978976 0.055731274 -0.012710917 -0.00092786446
-0.015525455 0.0014434482 0.008953184 -0.01594286 -0.025575303 -0.06512097 0.02228708 0.010359843
-0.004476005 0.030671626 -0.015344211 -0.03694445 0.0014806425 -0.04247797 -0.002605753 0.04037762
0.009557718 -0.043174453 0.031622134 0.004265063 0.02330723 -0.0092655085 -0.0077707293 -0.009627759
-0.0010294254 -0.015500396 -0.01482003 -0.014664363 0.016978327 -0.017495735 0.012632559 0.0021772566
-0.0061347485 0.03228079 0.06333094 0.005887103 0.023461571 0.046364065 0.038378786 0.015434826

net.4.bias f4 [256]
00000000: 1b1a 07be 6bda c7bd caee 77bd 24f2 90bd
00000010: bc8f 93bd 3cba b2bd b4bf a6bd e445 85bd
00000020: df30 94bd c88d 81bd 488f 05bc 6f3e c6bd
00000030: da8a 01be dd23 febc d9bd 3dbd 2d03 66bd
00000040: c75f f8bd 09c8 d2bd fe99 d9bc cf90 2abd
00000050: ce7d cabd 6b5f b3bd 7bfc 9abd 7421 c9bd
00000060: 84e5 1cbe 9d72 42bd adfb c1bd 0e25 a5bd
00000070: d4ef 11bd 3ec4 a0bd 6fe2 8bbd 827d 5bbb
00000080: 4bbe 57bd 9ce1 a2bd a25e c3bd 15ba c9bd
00000090: 95ba 69bd 8ae8 abbc 737a a2bd 3ce7 aabd
000000a0: 1eff 7dbd 8b3e a6bd 49b1 f1bd e55f 4ebd
000000b0: 4557 66bd 2bf3 c8bd defc 8abd 32a0 cabd
000000c0: 22ed 7dbd 5daf 83bd d025 40be 5de2 b8bd
000000d0: e970 10be 9eeb bdbd 5fcd 30be 42bf 10be
000000e0: 7064 9bbd fbf4 763c d306 92bd eff2 d0bd
000000f0: 9e1e 50bd 5059 ebbd a8ec bfbd aa2f 84bd
00000100: 716a 97bd 7588 b0bd 0c65 d9bd 167a 60bd
00000110: 7e20 12bd 0e01 92bd b0ac e9bd 5923 f9bd
00000120: 33a7 f6bd d743 26be 5a31 adbd a15a b2bd
00000130: b7a5 35bd 7905 72bd f05f 20bd 460b e0bd
00000140: 8b62 e3bd 51cb adbd f7a3 44bd a34a e7bc
00000150: 87d1 f2bc 6935 07be 2649 85bd 824a 90bd
00000160: 11d5 ddbd 7512 05be 01b1 28bd b2ff 00be
00000170: 12d9 15be 50f4 5bbd 27ed 9abd 3aef c5bd
00000180: 7ea0 a8bd 7348 01bc 618b d2bd ee02 4ebe
00000190: d351 16bd 563f 123c 69c8 83bd 412c 9cbd
000001a0: cffd cdbd 1e70 93bc e747 6fbd 256f d5bd
000001b0: 5dc7 90bc 7f7b d0bd 7bd1 d4bd 43ec 1cbe
000001c0: e59a 72bd 9816 2cbe 8880 94bd c65e 99bd
000001d0: 5276 56bb f6e5 fcbc 5157 5cbd 9e17 d5bc
000001e0: a3bd f53a 5bfc f7bd ef39 eebd 6f65 a6bd
000001f0: 7dad babd 53b7 85bd bd0b b8bd 5185 3dbd
00000200: 67a6 a9bd 14a2 bfbd c757 0dbe 05ef 4cbc
00000210: bc98 d0bd 437d 10be 117d 0cbd cd66 02be
00000220: 2072 a8bd eac7 90bd 07ca b4bd 19f7 8abd
00000230: b566 5dbd 53d9 1dbe 4596 ccbd 2da4 a8bd
00000240: af8d 0ebe 1887 bbbd 51f8 8ebd 0139 bcbd
00000250: 994a c5bd 69bd 46bd b88b cebd 842a b3bd
00000260: 6854 63bd bcdd 5dbd cb6f a3bd 378e 79bd
00000270: ad0a cabd f42e 10bd e5fa 50bd 22ae 21bb
00000280: b89f a3bd bb0c b8bd 213b b3bd b2da cfbd
00000290: abd1 c6bd 2059 68bd da56 13bd bb98 4bba
000002a0: 6109 a8bd 5d77 e3bb f71e e4bd 6f47 edbd
000002b0: 0177 c9bd 2a6b 82bd a2f3 e9bd 1613 6fbd
000002c0: 323d 80bd 3067 f6bd bc6a 17b1 20a9 febd
000002d0: 0f0c 81bc 205f b6bd b2f7 eabd 48ab 67bd
000002e0: f5d3 9dbd 4513 f9bd c09f d2bd 3132 b5bd
000002f0: 1f29 0ebe b967 51bd f29b f2bd 6ad2 85bc
00000300: d4aa 81bd 921f 26be 6b3e 60bd d2f4 e3bd
00000310: 71f9 23bc cb41 63bd 4a79 ddbd 9d80 babd
00000320: b252 c5bd c5c3 76bd 2911 c0bd bff6 81bd
00000330: 282c 58bd 0b63 70bd 3543 78bd 1df5 06be
00000340: 658a b4bd bc0e 8abd 1109 a8bd 2991 85bd
00000350: 0f8d 0bbe 4c0e 9dba 2fe7 42bd ce5b edbd
00000360: 974b 91bd 4530 adbd 1e26 1bbd c422 cebd
00000370: f9ed 24bd bfdf 09be ba14 70be fb27 fcbd
00000380: e0b3 a9bd c26e 89a6 9f50 8abd 2918 c9bd
00000390: bf13 f3bc 7c7e c0bd 6a91 48be 3a07 eebd
000003a0: 98f3 8abd 3e5f e3bd 60de c2bd bd15 f6bd
000003b0: 81ab 78bd c2c3 b5bd 6073 b9bd 4d14 2cbe
000003c0: e6e3 f6bd 9121 cbbc af87 96bd 96df d4bc
000003d0: 67c0 84bd d5c8 16be d32f 0dad b561 88bd
000003e0: 945f 92bd 5037 3dbd 3e6b d6bd 1889 04be
000003f0: c5dd 51bd 6f0f 5cbd d1b0 5dbd b806 6ebd
-0.13193552 -0.09758457 -0.06053046 -0.07077435 -0.072051495 -0.08726928 -0.08142033 -0.06507471
-0.07235884 -0.06325871 -0.008151837 -0.09679877 -0.12650624 -0.03102296 -0.04632363 -0.056155372
-0.12127643 -0.1029206 -0.026562687 -0.041642006 -0.098872766 -0.08758434 -0.07567688 -0.09820834
-0.15321928 -0.047472585 -0.094718315 -0.08063708 -0.03562911 -0.0784993 -0.06830298 -0.0033491557
-0.052671712 -0.07953188 -0.09539534 -0.098499455 -0.057062704 -0.020984907 -0.079335116 -0.08344886
-0.062010877 -0.08117398 -0.118013926 -0.05038442 -0.05623557 -0.098120056 -0.06786512 -0.09893836
-0.061993726 -0.06429932 -0.18764424 -0.0902755 -0.14105572 -0.09273456 -0.17265843 -0.14135459
-0.07587516 0.015073056 -0.07130208 -0.10202586 -0.05081045 -0.114916444 -0.093713105 -0.06454404
-0.07393349 -0.08619777 -0.10614976 -0.05480393 -0.03567552 -0.071291074 -0.11409891 -0.12164945
-0.120436095 -0.16236816 -0.08456679 -0.08708692 -0.04434749 -0.05908725 -0.039153993 -0.1093965
-0.1110278 -0.08486045 -0.04800793 -0.028233832 -0.029640926 -0.13203968 -0.065080926 -0.07045461
-0.10831655 -0.12995322 -0.04118443 -0.1259754 -0.14633587 -0.05369979 -0.075647645 -0.096647695
-0.082337365 -0.007890808 -0.10280491 -0.20118305 -0.036699127 0.008926233 -0.064347096 -0.07625628
-0.10058176 -0.017997798 -0.05841818 -0.1042159 -0.017673189 -0.10179805 -0.10391518 -0.15324502
-0.05922975 -0.16805494 -0.07251078 -0.0748878 -0.0032724333 -0.030871373 -0.05379421 -0.026012238
0.0018748533 -0.1210868 -0.11632144 -0.08124816 -0.091151215 -0.06529107 -0.08986614 -0.04626972
-0.08283692 -0.09357086 -0.13803016 -0.012508159 -0.10185382 -0.14110284 -0.03429896 -0.12734528
-0.082248926 -0.070693806 -0.08827596 -0.067854114 -0.054053027 -0.15414934 -0.09989599 -0.08234439
-0.13921236 -0.091566265 -0.06980956 -0.0919056 -0.09633369 -0.04852048 -0.10085243 -0.087483436
-0.055500418 -0.05416654 -0.07980307 -0.060926642 -0.098653175 -0.035201028 -0.05102052 -0.0024670442
-0.07989448 -0.08986803 -0.08751512 -0.10149135 -0.0970796 -0.05672562 -0.0359715 -0.0007766594
-0.08204914 -0.0069417194 -0.111387186 -0.115858905 -0.09837151 -0.06368096 -0.114234224 -0.05836781
-0.06261672 -0.120314 -2.2034063e-09 -0.12434602 -0.01575282 -0.089048624 -0.114730254 -0.05655983
-0.07706443 -0.121618785 -0.10284376 -0.08847464 -0.13882874 -0.05112431 -0.118461505 -0.016335685
-0.06331411 -0.1622298 -0.054747026 -0.1113068 -0.010008202 -0.055482667 -0.1081415 -0.09106562
-0.096349135 -0.060245294 -0.09378273 -0.06345891 -0.052776486 -0.058688205 -0.06061097 -0.13179441
-0.08815459 -0.067410916 -0.08204854 -0.06521828 -0.13628028 -0.001198241 -0.047583755 -0.11589776
-0.07094496 -0.08456472 -0.03787815 -0.10065225 -0.04026601 -0.13464259 -0.23445407 -0.12312313
-0.082862616 -9.536306e-16 -0.067536585 -0.09819061 -0.029672502 -0.09399125 -0.19586721 -0.11622472
-0.06784743 -0.111021504 -0.09515071 -0.12015865 -0.060710434 -0.088752285 -0.09055209 -0.16804619
-0.12055187 -0.02479628 -0.07350098 -0.02598552 -0.0648201 -0.14725049 -8.025541e-12 -0.06659261
-0.07147136 -0.04619533 -0.104696736 -0.12942922 -0.051236887 -0.053725656 -0.054123703 -0.058111876

net.6.weight f4 [256]
00000000: 3e9d bb3e edbe 7e3e 1acd 313e 0112 943e
00000010: ca48 853e 0094 e03e 3def 973e a78c 873e
00000020: e38f 9a3e 76ab b73e de58 803e 9339 a93e
00000030: 92c1 063f 2002 473e b353 903e 05b0 ad3e
00000040: 4c79 0e3f d1d0 e03e 84ff d33e b3ed 9d3e
00000050: db8c da3e c85b c63e 6ebe b03e 3c57 8c3e
00000060: 8319 c43e b3d9 b13e 3dcc 443e 2465 c73e
00000070: f2bd a33e 2ade a53e 72a8 a83e b54b d13e
00000080: 22cc af3e 59b3 8c3e f36f a73e 1097 ba3e
00000090: 85f7 e73e b176 9e3e 2887 ca3e b349 d83e
000000a0: 8291 a43e 5bcd c93e ef22 c73e f655 8d3e
000000b0: d440 983e 876d 963e 41b0 833e dc26 d23e
000000c0: f227 ae3e f15b 973e 5aaa 043f 2acd d93e
000000d0: 28d9 5a3e 106d 9c3e fc35 c63e 4b2d 043f
000000e0: 0d0d 963e aaea 373d b9a4 883e 6a76 c43e
000000f0: 54ff 563e 877a a93e 189c 613e e4f6 9a3e
00000100: 4b5b b63e f254 8e3e f6a6 843e 7716 9fbe
00000110: 8ad1 8e3e 9105 d73e df38 dc3e 20cd 053f
00000120: bf7a af3e a960 003f 5555 d03e e365 993e
00000130: 2a6b 8b3e f4ee a63e 3b81 893e 76d2 9a3e
00000140: 2805 f93e c7b1 923e 53e1 8e3e ee81 af3e
00000150: 6419 8a3e 1637 a13e ac3f 9a3e 237a e63e
00000160: bab1 d43e 7eae d03e 98cd 883e 29d5 dc3e
00000170: c0c2 983e d4fb 9c3e 91aa 9a3e f7ea 563e
00000180: 3a62 ab3e 2fdb 563e 35c3 b23e 55d6 b43e
00000190: bbcd dc3e b6e8 a83e b774 863e bf1e b33e
000001a0: 6a64 b03e 8e57 113e 9d96 953e b2ee ff3e
000001b0: fdda f83e a4f2 9e3e 8dbe d23e 4a70 f23e
000001c0: 6e86 803e 9f4f 053f 6d57 853e 1d12 a33e
000001d0: bc7a 8e3e 00b4 8e3e f99d 953e bea2 b43e
000001e0: 5529 7e3e 6c81 9e3e bed6 a43e 7c93 ad3e
000001f0: 32e9 803e 82dd 9d3e 9b29 db3e 27cc 903e
00000200: b10b dd3e c04b 8d3e da01 023f 43db 803e
00000210: a195 ad3e e0a1 db3e c963 a63e dd0e f93e
00000220: ecba 813e 3fe1 773e 24ee 993e e554 993e
00000230: ddb2 e03e 16c9 f33e 9bad 9c3e 576c 3b3e
00000240: 575e 013f f87d 8c3e d858 7f3e c261 943e
00000250: cd50 d93e 5e0e dc3e b182 ce3e 01b9 b03e
00000260: d026 d93e 8cbc 853e 5357 903e 4255 383e
00000270: eb04 903e 0499 813e eb17 a73e 51ba d03d
00000280: f765 a63e 3a40 953e eedd 973e 7153 443e
00000290: a916 a23e 998f 913e 6a44 9a3e defa c13e
000002a0: 1425 c13e cd94 953e 422f f73e 570b c83e
000002b0: 55fb c93e 0da5 8e3e a93d dc3e 6a19 8c3e
000002c0: ca78 9b3e cf77 bc3e a4b3 d43e bfc0 e73e
000002d0: 67ec 003e 3f29 953e ffb7 d73e 6807 a93e
000002e0: edd5 863e e4db f23e 3480 bf3e b52e a73e
000002f0: 04c3 143f 1731 883e 42e9 773e 0f72 bc3d
00000300: c5e2 c93e e611 fd3e cae8 cd3e f6a6 593e
00000310: 32b7 943e a322 803e 80eb 023f a671 833e
00000320: 29d4 913e 92bd c13e 3145 9a3e 2328 9b3e
00000330: 0f8f a13e 2267 b43e 6012 db3e 05b6 e93e
00000340: 395f 9c3e 08b0 993e 28a6 273e bf21 a33e
00000350: 2462 973e 53dd d63e 3ebf 8b3e 9e89 eb3e
00000360: 30d9 be3e 81cc 683e cc80 523e 5908 cf3e
00000370: 8a2b 8c3e db45 ea3e f5bf b23e 87b8 f73e
00000380: f6cd 9f3e 13fe cd3e 0eb8 803e 5936 a93e
00000390: ce64 813e 580b d53e 361f ab3e 7ec7 9b3e
000003a0: ab62 9e3e 7da2 a43e 50b5 d23e b8dd b53e
000003b0: 2b1e 8c3e af9f 683e e632 783e 043c 9e3e
000003c0: c461 ed3e a79a a73e 9a0d 893e a8c5 a13e
000003d0: 59ac e63e 20ef d23e 54c4 f93e a694 9c3e
000003e0: 6e49 943e 2018 8b3e 1b72 a63e ece0 f43e
000003f0: 0d1d c93e 7bbd c13e a19a a53e 8826 9e3e
0.36643404 0.2487752 0.17363396 0.28919986 0.26032096 0.43862915 0.29674712 0.26474497
0.30187902 0.35873002 0.250678 0.33051738 0.52639115 0.19434404 0.28188857 0.33923355
0.55653834 0.43909314 0.4140588 0.30845413 0.4268559 0.387419 0.34520286 0.27410305
0.38300714 0.34736404 0.19218536 0.38944352 0.31980854 0.3239606 0.32941014 0.40878072
0.34335428 0.2748058 0.32702598 0.36443377 0.4530603 0.3094993 0.3955624 0.42243728
0.32142264 0.39414486 0.3889384 0.27604645 0.2973696 0.29380438 0.2572041 0.41045272
0.3401485 0.29562333 0.51822436 0.4253934 0.21371901 0.30551958 0.38713062 0.5163161
0.29306832 0.044901527 0.26688173 0.38371593 0.20995837 0.33101293 0.22032201 0.30266488
0.35616526 0.27799183 0.2590863 -0.31071827 0.2789424 0.41996434 0.4301214 0.5226612
0.34273335 0.5014749 0.40690103 0.29960546 0.27230197 0.32604182 0.26856408 0.30238694
0.48636746 0.28651258 0.27906284 0.34278816 0.26972497 0.3148734 0.30126703 0.45015058
0.41541845 0.40758127 0.26719356 0.43131378 0.29836082 0.3066088 0.30208257 0.2098807
0.33473378 0.2098205 0.34914556 0.35319772 0.4312571 0.32990044 0.2626092 0.34984395
0.3445161 0.14193556 0.2921647 0.49986798 0.48604575 0.31044495 0.41161004 0.47351295
0.25102562 0.5207462 0.26043263 0.31849757 0.27828014 0.27871704 0.29222086 0.35280412
0.24820454 0.30958116 0.32195085 0.33901584 0.25177914 0.3083306 0.4280518 0.28280756
0.43172982 0.27596855 0.50784075 0.25167283 0.3390322 0.42896938 0.32498005 0.48644152
0.25337923 0.24207018 0.300645 0.29947582 0.43886462 0.47614354 0.306012 0.18303047
0.50534576 0.27439857 0.24936235 0.28980833 0.4244446 0.4297971 0.40334085 0.34516147
0.42412424 0.26120412 0.28191623 0.18001273 0.28128752 0.25312054 0.32635435 0.10191787
0.32499668 0.29150563 0.29661506 0.19172455 0.31657913 0.2842987 0.3013032 0.3788671
0.377236 0.29215088 0.48278242 0.39071152 0.39449564 0.278603 0.43015793 0.2736314
0.30365592 0.36810157 0.41543305 0.4526424 0.1259018 0.2913303 0.42132565 0.33013463
0.26335087 0.47433388 0.374025 0.32652822 0.5811007 0.26599953 0.24210075 0.092014425
0.39430824 0.49427718 0.40216666 0.21255097 0.29046017 0.25026426 0.51140594 0.25672644
0.28482178 0.37839943 0.30130914 0.3030406 0.31554458 0.35234934 0.42787457 0.45646682
0.305414 0.30017114 0.16371977 0.31861684 0.29567063 0.41965732 0.27294344 0.4600343
0.37275076 0.22734262 0.20556945 0.40436056 0.27376968 0.4575642 0.34912077 0.4838297
0.31211823 0.40232906 0.25140423 0.33049276 0.2527222 0.41610217 0.3342225 0.30425638
0.30934653 0.3215522 0.41153955 0.3552072 0.27366766 0.22717164 0.24238166 0.30905163
0.46363652 0.32735178 0.2676819 0.31596112 0.45053366 0.41198063 0.487826 0.3058216
0.28962272 0.27166843 0.3250893 0.47827852 0.39279976 0.37839875 0.32344535 0.30888772

net.6.bias f4 [256]
00000000: f6e9 e03c 6995 4f3c 942d 6ebc 739c a73c
00000010: 0555 a93c 236c 0b3d 6b2b bc3c 9cc0 853c
00000020: 2ace b93c f071 ba3c 35f0 ac3b 4ee5 d43c
00000030: e641 523d 9c99 b43b 4ca6 5e3c e192 d83c
00000040: ea17 3c3d 2616 023d 1bbf 073d 9ab4 ad3c
00000050: d5c7 0a3d eb9a dd3c d9c3 d93c 5dd0 4d3c
00000060: c2c3 fa3c 5cfa 923c d820 993b 84ab 173d
00000070: 87d9 ae3c 4c04 cb3c c342 bb3c 54f9 073d
00000080: 70c5 b33c 4d72 c03c 4d31 f23c f98f ed3c
00000090: b653 263d c92a 593c 0db7 e33c 8450 f83c
000000a0: 4495 9a3c e89c d53c 5023 f93c 06d4 853c
000000b0: 31a4 8b3c ca5b 9c3c 3138 a53c 04e3 163d
000000c0: ddec c13c ba5e 883c a54f 2a3d 782b 083d
000000d0: b2ef c53c ad71 da3c 5ad9 0c3d 951a 263d
000000e0: 1ce1 d83c a37b 29bf 0ba8 cb3c 320b f93c
000000f0: d8cf 373c e360 f63c f3e9 993c 259d a43c
00000100: 3343 e73c bdeb c73c 0518 873c 2ec4 8fbc
00000110: 8fad 5c3c e182 0c3d 6822 163d f0a9 333d
00000120: b751 f43c f485 203d f10a f63c f65c b33c
00000130: 6256 413c 7880 ea3c f497 673c 1291 903c
00000140: 9afa 2b3d 9188 933c fe85 9f3c b502 b43c
00000150: b7bb 723c ed56 b63c d417 a83c 5d7d 173d
00000160: 4306 113d b07f 023d be9f 823c 0281 1c3d
00000170: cbb4 833c 5a85 413c e85b 9f3c 719b 3c3b
00000180: d1b6 c13c 0904 23bc b920 df3c e08a 013d
00000190: c3ce 073d e863 7e3c 082b bf3c 209d e43c
000001a0: e0de b03c c418 adbc 9e5b 883c 3126 1f3d
000001b0: 2b9d 2b3d d6c4 b33c 9da1 f33c 65f2 0b3d
000001c0: 9523 d13b 4cfe 193d 55c8 aa3c 5c91 e43c
000001d0: 6629 6c3c 5d1b ac3c fc4f 903c 295a a93c
000001e0: 1b91 123c c1ae de3c f9de f43c 21da 933c
000001f0: fa4f b73c 353f 823c 07d0 013d 4ff6 9e3c
00000200: 4ad8 103d 2964 a13c ffbe 153d 36b6 1c3c
00000210: 633c 083d 16d8 123d b4b6 e43c 0369 1a3d
00000220: c007 ae3c a7a1 7f3c ccae c63c 11de be3c
00000230: 5df6 113d 22d2 1b3d 0351 8f3c 104a d83b
00000240: 2697 3a3d 6d78 ce3c 7bf8 2d3c e388 a63c
00000250: 026e 073d ef9a 0d3d 6585 033d adc8 e63c
00000260: 288e e23c b177 a93c 9ffd b33c 76db eebb
00000270: 5634 be3c 0a5a a33c 37ee bd3c f8ff d9bc
00000280: 2e75 c43c 5399 d73c df2c b03c e47f ef3b
00000290: 4e84 d73c 6de8 9e3c d77a 7a3c 7de0 e53c
000002a0: 9b6b 243d 44be 583c 4a4d 113d d25f 013d
000002b0: 6afd e63c 7477 863c 8c74 173d 2f98 8d3c
000002c0: f484 a83c 3445 e53c ab33 eb3c 6f2b 0c3d
000002d0: dc32 c4bc 560c da3c d170 213d e64f d43c
000002e0: 720c b43c 8d72 073d 208c 083d 3e9f f53c
000002f0: 0a19 553d eb2b af3c 763d 913c d169 edbc
00000300: 562e d93c 4638 1e3d 4a2f cd3c bdd8 6c3c
00000310: 64eb c3bb cc12 9b3c f479 233d c883 af3c
00000320: d71b b13c f825 df3c 1e61 a43c f8ef 933c
00000330: c8a7 da3c 32a0 bb3c dafb f23c 28c9 0b3d
00000340: b490 c23c e818 ab3c 4b62 e1bb 4aaa f13c
00000350: 6ac1 953c 8837 003d 034b a73b c186 1d3d
00000360: c213 f13c df32 823c d22e 1bbc be8a 013d
00000370: e8ed 123c 9d49 133d c956 003d 3d9f 0a3d
00000380: 4c13 7e3c 96d1 f23c 6d45 c93c df0b da3c
00000390: 4d7d 6c3c 0d7e e13c 1366 003d 3432 a83c
000003a0: d588 c33c b050 ed3c b6fe ea3c ae19 ee3c
000003b0: d878 9e3c 706e b13c cc77 6b3c 5978 df3c
000003c0: 6d47 2c3d 9410 ac3c 1988 353c 4c62 5f3c
000003d0: 9948 133d 7cc9 023d f982 193d d57e 7b3c
000003e0: 5e1e 7d3c 9379 843c c79a a63c 340d 233d
000003f0: e2b9 0b3d c827 e13c b428 a93c 559d a93c
0.027455311 0.0126698995 -0.014537234 0.020460343 0.020670423 0.034038674 0.022969922 0.016327195
0.022681314 0.022759408 0.0052776583 0.025988247 0.051332377 0.0055114757 0.013589453 0.026437225
0.045921244 0.031759404 0.033141237 0.021204282 0.03388198 0.02705141 0.026582645 0.012561885
0.030610923 0.017941646 0.0046731047 0.037028804 0.02134396 0.024782322 0.022858983 0.033196762
0.021944731 0.023492003 0.029564524 0.028999316 0.040607177 0.01325483 0.027797246 0.03031183
0.018870004 0.026075795 0.030412346 0.016336452 0.017046066 0.019086737 0.020168396 0.036837593
0.023672516 0.016646732 0.04157986 0.03324458 0.024162147 0.026665533 0.03438697 0.040552694
0.026474528 -0.6620428 0.024860403 0.030400846 0.011218987 0.030075496 0.018788313 0.020094464
0.028230285 0.024404401 0.016490946 -0.0175496 0.013469114 0.034304503 0.036653906 0.043863237
0.02982412 0.039190248 0.030034514 0.021894913 0.01180038 0.028625712 0.01413535 0.0176473
0.04198704 0.018009456 0.019473072 0.021973947 0.0148152625 0.022258246 0.020519175 0.03698479
0.035406362 0.031860054 0.015945312 0.03820897 0.01607742 0.011811579 0.019453004 0.0028779174
0.023646744 -0.0099496925 0.027237283 0.031626582 0.033156168 0.015526749 0.023335949 0.027906954
0.02159065 -0.021129973 0.016645249 0.03885478 0.041897934 0.021944445 0.02974015 0.034166712
0.0063824155 0.037596032 0.020847479 0.027901344 0.014414167 0.021009142 0.017616265 0.020672875
0.008945729 0.027182939 0.029891478 0.018048348 0.022377003 0.01589928 0.03169253 0.019404558
0.03536252 0.01970108 0.0365591 0.009564927 0.033260714 0.035850607 0.02791915 0.037697803
0.02124393 0.015602506 0.024253272 0.023299249 0.03563534 0.038042195 0.017494684 0.006600626
0.045554303 0.025203908 0.010618324 0.020328945 0.033063896 0.034571584 0.032109637 0.028171862
0.027655676 0.020686956 0.021971522 -0.0072893454 0.023218315 0.019940395 0.023184879 -0.026611313
0.023981657 0.026318228 0.021505771 0.007308947 0.026308205 0.019397939 0.015288076 0.028061146
0.040141683 0.013228957 0.0354741 0.031585522 0.02819701 0.016414382 0.036976382 0.01728448
0.02057121 0.0279871 0.02871116 0.03422111 -0.023950033 0.02661721 0.03941423 0.025917005
0.02197859 0.03306823 0.03333676 0.02998316 0.052025832 0.021383246 0.017729502 -0.028981121
0.026511353 0.038627885 0.025046963 0.014455971 -0.0059789885 0.018929861 0.039911225 0.021425143
0.02161972 0.027239785 0.02006584 0.018058762 0.026691332 0.022903536 0.029661108 0.034127384
0.02375064 0.0208859 -0.0068781725 0.029500145 0.018280704 0.03130296 0.0051053776 0.03845859
0.029428367 0.015893398 -0.009471612 0.031626455 0.008967854 0.035958875 0.031332765 0.033843268
0.01550753 0.029640954 0.024569238 0.026616989 0.014434171 0.027525926 0.031347346 0.020531751
0.023868958 0.028969139 0.028685909 0.02906498 0.019344732 0.021659106 0.0143718235 0.027279066
0.042060304 0.021003999 0.0110798115 0.013634276 0.035957906 0.03193043 0.03747842 0.015350063
0.015449135 0.016171252 0.020337475 0.039807513 0.03411282 0.02748479 0.020649292 0.020704905
