RL code/models/checkpoint_episode_380000.pth (torch, 801255 bytes, 40 tensors)

net.0.weight f4 [256, 22]
-0.095996775 0.014714187 0.15310924 0.0053553632 0.09808421 0.054741733 0.067414425 -0.011838115
-0.053726792 0.007651831 0.05058319 0.03650775 0.14673255 0.007675399 0.10651029 0.048021387
0.066193335 -0.025860325 0.053726792 -0.007651831 -0.095996775 0.014714187 0.050871298 0.10458992
-0.08838558 0.03676503 0.00015712704 -0.013548146 0.011226316 0.04029248 0.024676023 -0.0763154
-0.14674462 -0.07450205 -0.06268547 0.011095271 -0.0266799 0.00143827 -0.012816422 0.060243927
-0.024676023 0.0763154 0.050871298 0.10458992 0.12141984 0.13880253 0.15518464 0.16072822
-0.1626659 -0.16410731 -0.16181825 -0.1750195 -0.30466378 -0.3641181 -0.2405826 -0.25452307
-0.18801047 -0.19031416 0.14986639 0.16304137 0.16307597 0.17149512 0.30466345 0.3641174
0.121140845 0.13845101 0.010539199 0.019744875 -0.08224442 0.10295207 -0.13419953 -0.054394774
-0.032824267 0.031308968 -0.053315744 -0.01491972 -0.036213268 -0.08373196 -0.15125307 0.10219941
-0.080191076 -0.0573419 0.028247412 0.029682282 0.053315744 0.01491972 0.010539199 0.019744879
0.08319242 0.040819567 -0.003341163 0.019174153 -0.0019360703 -0.07412958 -0.06961806 0.016189981
0.019694112 -0.0064630215 0.12829405 -0.09638018 0.00020405854 0.0022734085 -0.013493722 -0.05598322
-0.08244708 0.027405147 -0.019694112 0.0064630215 0.08319242 0.040819567 -0.04073741 0.030714478
-0.19058347 0.06663218 -0.09072958 0.09220593 -0.045015585 0.031016747 -0.013700045 0.09998992
-0.03704819 -0.023050657 -0.22766876 0.126635 -0.057280224 0.029352758 -0.016877152 -0.030027349
0.013700045 -0.09998992 -0.04073741 0.030714482 -0.08724204 0.0048272987 -0.26025683 0.025425397
0.01986166 0.0025597424 0.05414826 0.01116366 0.10179339 -0.025627991 0.058329772 0.015915796
-0.18253419 0.022877736 -0.061170213 0.0032092987 -0.022950822 0.010365329 -0.10179339 0.025627991
-0.087242 0.004827292 -0.010262991 -0.03405214 0.059423786 -0.04837041 0.010326439 -0.1249798
0.04460782 -0.012178315 0.028226728 -0.03734633 0.20268129 0.15444344 0.07648355 -0.09901703
-0.0032765795 -0.0773445 0.029896846 0.033222627 -0.028226728 0.03734633 -0.010262984 -0.03405214
0.019802297 0.049260713 -0.10432865 -0.010803097 0.0035462799 0.12329452 -0.06617701 0.00014761164
-0.004380286 0.06895707 -0.17675027 0.12460629 -0.103855535 0.039466575 0.008206032 0.07068316
-0.06450728 -0.050960477 0.004380286 -0.06895707 0.0198023 0.04926071 0.022597138 -0.05738164
0.040320702 -0.18532126 0.041761205 -0.05707736 -0.030335976 -0.061981816 -0.069582745 -0.00056712294
-0.01597655 -0.06718752 0.01410158 -0.19872674 0.056151334 -0.05858287 -0.0038765687 -0.069294386
0.069582745 0.00056712294 0.022597155 -0.05738162 -0.08950883 0.08039379 0.05679563 0.04590913
-0.053005002 -0.025728587 0.0334495 0.0074852584 -0.109616004 0.073678605 0.08005213 -0.08448842
0.024375765 0.10878452 -0.034087405 -0.086578526 0.065768965 -0.054382447 0.109616004 -0.073678605
-0.089508824 0.0803938 -0.04296134 0.037659883 -0.16846985 -0.021092705 -0.07867915 0.03948325
-0.04334653 0.028770238 -0.075083554 -0.004819082 0.12003325 -0.1537698 -0.22931431 0.019744517
00000000: f599 c4bd c613 713c abc8 1c3e 0b7c af3b
00000010: 60e0 c83d de38 603d 9310 8a3d a7f4 41bc
00000020: a010 5cbd 36bc fa3b 5230 4f3d 2789 153d
00000030: 0f41 163e ea81 fb3b 1122 da3d 13b2 443d
00000040: 5f90 873d 08d9 d3bc a010 5c3d 36bc fabb
00000050: f599 c4bd c613 713c 6c5e 503d 3d33 d63d
00000060: 8003 b5bd ee96 163d 78c2 2439 0bf9 5dbc
00000070: 95ee 373c ba09 253d 5f25 ca3c 404b 9cbd
00000080: 3944 16be 8894 98bd 3d61 80bd f1c8 353c
00000090: ce8f dabc 5584 bc3a f8fb 51bc 56c2 763d
000000a0: 5f25 cabc 404b 9c3d 6c5e 503d 3d33 d63d
000000b0: f7aa f83d 4022 0e3e b9e8 1e3e f095 243e
000000c0: e491 26be bf0b 28be afb3 25be 5038 33be
000000d0: e4fc 9bbe b06d babe 495b 76be d950 82be
000000e0: d185 40be b7e1 42be 9376 193e 51f4 263e
000000f0: 63fd 263e 6b9c 2f3e d9fc 9b3e 996d ba3e
00000100: b118 f83d 1ac6 0d3e 9bac 2c3c 01c0 a13c
00000110: c36f a8bd 89d8 d23d 9a6b 09be 0ecd 5ebd
00000120: bd72 06bd d53d 003d 9c61 5abd d771 74bc
00000130: 5d54 14bd a97b abbd 16e2 1abe ed4d d13d
00000140: 383b a4bd 57df 6abd 1e67 e73c 4228 f33c
00000150: 9c61 5a3d d771 743c 9bac 2c3c 03c0 a13c
00000160: ca60 aa3d 6b32 273d 6af7 5abb 1d13 9d3c
00000170: bdc3 fdba 40d1 97bd ea93 8ebd daa0 843c
00000180: 8c55 a13c c1c7 d3bb 845f 033e f962 c5bd
00000190: 8cf8 5539 77fd 143b c614 5dbc a94e 65bd
000001a0: 04da a8bd c280 e03c 8c55 a1bc c1c7 d33b
000001b0: ca60 aa3d 6b32 273d 45dc 26bd ee9c fb3c
000001c0: 5028 43be 7476 883d 6ed0 b9bd 76d6 bc3d
000001d0: 4362 38bd d516 fe3c 2776 60bc 84c7 cc3d
000001e0: d8bf 17bd bbd4 bcbc 0022 69be 9bac 013e
000001f0: ab9e 6abd 3275 f03c f441 8abc eafb f5bc
00000200: 2776 603c 84c7 ccbd 45dc 26bd f09c fb3c
00000210: f4ab b2bd 512e 9e3b 6240 85be ec48 d03c
00000220: ecb4 a23c 5ac1 273b 91ca 5d3d c9e7 363c
00000230: 0e79 d03d cbf1 d1bc 33eb 6e3d d861 823c
00000240: 3eea 3abe 176a bb3c 9e8d 7abd 1953 523b
00000250: 5d03 bcbc 57d3 293c 0e79 d0bd cbf1 d13c
00000260: efab b2bd 432e 9e3b 1b26 28bc 427a 0bbd
00000270: 5b66 733d 0d20 46bd 3930 293c 69f5 ffbd
00000280: b1b6 363d 8e87 47bc bd3b e73c 77f8 18bd
00000290: af8b 4f3e 6c26 1e3e 68a3 9c3d 71c9 cabd
000002a0: e2bb 56bb cb66 9ebd 3bea f43c 7314 083d
000002b0: bd3b e7bc 77f8 183d 1326 28bc 427a 0bbd
000002c0: 6d38 a23c 9ac5 493d 42aa d5bd 79ff 30bc
000002d0: b468 683b d681 fc3d d087 87bd 33c8 1a39
000002e0: 8188 8fbb 5d39 8d3d 06fe 34be 9531 ff3d
000002f0: 36b2 d4bd b4a7 213d 9872 063c 55c2 903d
00000300: 651c 84bd efbb 50bd 8188 8f3b 5d39 8dbd
00000310: 6f38 a23c 99c5 493d a21d b93c 0309 6bbd
00000320: 5227 253d dbc4 3dbe cc0d 2b3d f3c9 69bd
00000330: 2783 f8bc a5e0 7dbd 6681 8ebd faaa 14ba
00000340: 41e1 82bc 9c99 89bd 500a 673c 067f 4bbe
00000350: f1fe 653d 97f4 6fbd 080e 7ebb 37ea 8dbd
00000360: 6681 8e3d faaa 143a ab1d b93c fd08 6bbd
00000370: 6850 b7bd 80a5 a43d 89a2 683d 360b 3c3d
00000380: c61b 59bd c2c4 d2bc 5802 093d e646 f53b
00000390: 5b7e e0bd cfe4 963d 5ff2 a33d 4408 adbd
000003a0: afaf c73c 6bca de3d 3c9f 0bbd 1550 b1bd
000003b0: e1b1 863d 21c0 5ebd 5b7e e03d cfe4 96bd
000003c0: 6750 b7bd 81a5 a43d 3bf8 2fbd 4041 1a3d
000003d0: 5c83 2cbe 9cca acbc 8922 a1bd 30b9 213d
000003e0: 228c 31bd 90af eb3c 68c5 99bd 64e9 9dbb
000003f0: fed3 f53d d575 1dbe 5fd1 6abe 41bf a13c

net.0.bias f4 [256]
-0.2316935 -0.1935668 -0.1355274 -0.22703406 -0.25395095 -0.229127 -0.3703683 -0.22870699
-0.24510056 -0.23948178 -0.2648158 -0.17384489 -0.2264869 -0.6197806 -0.22888316 -0.3839399
-0.2542787 -0.42596483 -0.2565366 -0.22460945 -0.28674978 -0.2851723 0.03756881 -0.1456144
-0.1893994 -0.18527506 -0.2086397 -0.32139054 -0.18468408 0.20556813 -0.33821514 -0.23208064
-0.27839485 -0.27051133 -0.5718401 -0.31906325 -0.26513883 -0.1965431 -0.5979965 -0.25832072
-0.16610298 -0.18272853 -0.5200593 -0.48107412 -0.2175902 -0.344367 -0.28118262 -0.28526685
-0.20124058 -0.28630546 -0.24279268 -0.2484351 -0.23898065 -0.040147055 -0.18385562 -0.21387425
-0.31488463 -0.29204074 -0.30392843 -0.30541027 -0.2339572 -0.36260015 -0.26981917 -0.18856815
-0.20193933 0.02779117 -0.30678663 -0.2600444 -0.15600623 -0.23818213 -0.18258834 -0.43163034
-0.23034023 -0.23506396 -0.30839023 -6.870603e-05 -0.2502766 -0.24374598 -0.2446714 -0.27429202
-0.23685089 -0.27154836 -0.28409743 -0.20256363 -0.2857467 -0.2505215 -0.25067946 -0.44165522
-0.22166817 -0.27527037 -0.21595195 -0.02249908 -0.25656182 -0.58197576 -0.21563052 -0.25873408
-0.2534411 0.20290996 -0.25582007 -0.31388363 -0.17148744 -0.34251827 -0.29362965 -0.62182105
-0.0010928892 -0.17400491 -0.2633781 -0.32400903 -0.25590104 -0.2472502 -0.22491455 -0.19026206
-0.20245425 -0.2644643 -0.23788653 0.080830686 -0.2483445 -0.26729652 -0.25068414 -0.24488388
-0.19909291 -0.29998556 -0.27129003 -0.3198776 -0.25651088 0.20521 -0.2944974 -0.18538429
-0.22701316 -0.28798553 -0.2663165 -0.26968935 -0.28413302 -0.24839415 -0.25494108 -0.34190255
-0.19611558 -0.33639196 -0.24523139 -0.2818999 -0.1954426 -0.3127236 -0.11350343 -0.08152043
0.20787448 -0.18268047 -0.21649493 -0.2157004 -0.17156391 -0.24188885 -0.23578341 -0.326357
-0.18111815 -0.4610468 -0.30179265 -0.20220819 -0.27791142 -0.04006772 -0.19451995 -0.23304437
-0.21669237 -0.26290342 -0.570558 -0.16178192 -0.27475184 -0.32233617 0.09298981 -0.30903664
-0.2323355 -0.61669606 -0.2159484 -0.4475185 -0.13405824 -0.3253766 -0.26038653 -0.19598947
-0.2927969 -0.23659073 -0.20983888 -0.56803876 -0.17144859 0.08352887 -0.19642441 -0.33836767
-0.21934015 -0.22047083 -0.2960469 -0.21925232 -0.292431 -0.2863576 -0.23594627 -0.27052912
-0.22197005 -0.36739558 -0.22191249 0.20874009 -0.26861268 -0.25585243 -0.26687464 -0.20035769
-0.24969019 -0.25745258 -0.24434741 -0.24501951 -0.52792764 -0.25845394 -0.30346158 -0.31132025
-0.26055503 -0.24127576 0.21296489 -0.27404895 -0.5801663 -0.32710838 -0.25115955 -0.17528982
-0.2870549 -0.39597943 -0.29244262 -0.3300065 -0.23517789 -0.29002148 -0.6003452 -0.21154332
-0.20053378 -0.22149758 -0.26542273 -0.28732 -0.3093012 -0.1982278 -0.26998812 -0.31478485
-0.23766391 -0.31894243 -0.21828295 -0.22681499 -0.2923844 -0.24722569 -0.23628849 -0.20516323
-0.24276 -0.3235264 0.20488556 -0.26627353 -0.34259066 -0.26519376 -0.3308762 -0.2257675
-0.22557396 -0.049704004 -0.47511566 -0.26450256 -0.30238417 -0.23797947 -0.4016139 -0.078773566
00000000: 1041 6dbe 6036 46be b2c7 0abe 9e7b 68be
00000010: dc05 82be 45a0 6abe eaa0 bdbe 2a32 6abe
00000020: a4fb 7abe b63a 75be f095 87be 6504 32be
00000030: 2fec 67be f1a9 1ebf 5960 6abe c593 c4be
00000040: d130 82be 1018 dabe c458 83be 0500 66be
00000050: ded0 92be 1b02 92be c1e1 193d f11b 15be
00000060: ebf1 41be bfb8 3dbe a5a5 55be 4d8d a4be
00000070: d31d 3dbe 7480 523e 892a adbe 8ca6 6dbe
00000080: c589 8ebe 7680 8abe 1d64 12bf 425c a3be
00000090: 47c0 87be 9842 49be 4c16 19bf 9d42 84be
000000a0: e616 2abe 301d 3bbe 9b22 05bf 594f f6be
000000b0: f7cf 5ebe df50 b0be 2bf7 8fbe 7f0e 92be
000000c0: 0312 4ebe a196 92be a59e 78be c565 7ebe
000000d0: 58b7 74be 3d71 24bd a644 3cbe da01 5bbe
000000e0: 8f38 a1be 5d86 95be 829c 9bbe bc5e 9cbe
000000f0: 7a92 6fbe baa6 b9be bd25 8abe 0218 41be
00000100: 2fc9 4ebe 4faa e33c 2313 9dbe 8a24 85be
00000110: 19c0 1fbe 04e6 73be 70f8 3abe a7fe dcbe
00000120: 4fde 6bbe 9bb4 70be 53e5 9dbe 4516 90b8
00000130: 4124 80be 8c98 79be 248b 7abe 0170 8cbe
00000140: 0a89 72be 6308 8bbe 3875 91be d76c 4fbe
00000150: 644d 92be 5b44 80be 0f59 80be a220 e2be
00000160: fbfc 62be 3df0 8cbe 8222 5dbe fe4f b8bc
00000170: 125c 83be 5dfc 14bf 3fce 5cbe cb78 84be
00000180: 08c3 81be a1c7 4f3e d9fa 82be 5bb5 a0be
00000190: 679a 2fbe 8e5e afbe a056 96be aa2f 1fbf
000001a0: 473f 8fba 582e 32be 7fd9 86be 83e4 a5be
000001b0: 7605 83be 282f 7dbe 0050 66be 0fd4 42be
000001c0: 2b50 4fbe dd67 87be 8798 73be 8f8a a53d
000001d0: 054e 7ebe 17db 88be ac59 80be d7c2 7abe
000001e0: 03df 4bbe b597 99be 87e6 8abe ffc6 a3be
000001f0: 6555 83be 9222 523e 5dc8 96be 61d5 3dbe
00000200: 2376 68be d772 93be a35a 88be b914 8abe
00000210: e279 91be 095b 7ebe a387 82be da0d afbe
00000220: 86d2 48be 913b acbe f01d 7bbe 2f55 90be
00000230: 1b22 48be 4f1d a0be 7c74 e8bd 2ff4 a6bd
00000240: 0cdd 543e 9710 3bbe d9b0 5dbe 91e0 5cbe
00000250: 73ae 2fbe b6b1 77be 3571 71be 4418 a7be
00000260: 0977 39be 530e ecbe 9184 9abe aa0f 4fbe
00000270: 684a 8ebe 0d1e 24bd 3d30 47be 2fa3 6ebe
00000280: 9be4 5dbe 479b 86be 1710 12bf 29aa 25be
00000290: 46ac 8cbe 3f09 a5be 7171 be3d 0d3a 9ebe
000002a0: 5be9 6dbe cbdf 1dbf 9421 5dbe 2521 e5be
000002b0: 9046 09be c397 a6be 6251 85be 77b1 48be
000002c0: 7ae9 95be d744 72be 01e0 56be fd6a 11bf
000002d0: 3890 2fbe 2f11 ab3d 7b23 49be 873e adbe
000002e0: b49a 60be 1bc3 61be 7693 97be ae83 60be
000002f0: 84b9 95be 779d 92be e69b 71be cb82 8abe
00000300: 1e4c 63be 461b bcbe 073d 63be f6bf 553e
00000310: 9a87 89be 17ff 82be cba3 88be 912a 4dbe
00000320: c9ae 7fbe d3d0 83be 3536 7abe 65e6 7abe
00000330: 4426 07bf 1354 84be 515f 9bbe 5e65 9fbe
00000340: 7867 85be fe10 77be 7813 5a3e 2550 8cbe
00000350: c785 14bf c07a a7be fc97 80be 2d7f 33be
00000360: dcf8 92be d1bd cabe 0abb 95be 9df6 a8be
00000370: 79d2 70be b27d 94be 39b0 19bf d09e 58be
00000380: ba58 4dbe 43d0 62be 7de5 87be 9b1b 93be
00000390: ba5c 9ebe 3afc 4abe e23b 8abe 7b2b a1be
000003a0: 2b5e 73be 6c4c a3be 9185 5fbe 3042 68be
000003b0: 68b3 95be bb28 7dbe 9cf5 71be 4f16 52be
000003c0: 1496 78be 41a5 a5be 85cd 513e 0155 88be
000003d0: 0b68 afbe 7ac7 87be 9b68 a9be 982f 67be
000003e0: dcfc 66be 6d96 4bbd 5c42 f3be e16c 87be
000003f0: 19d2 9abe e4b0 73be 56a0 cdbe 0954 a1bd

net.2.weight f4 [256]
0.15153378 0.17064388 0.22884035 0.07893393 0.09747384 0.18488018 0.14453839 0.16365297
0.16326398 0.16586478 0.13425308 0.10550881 0.110030025 0.32774785 0.08330335 0.24021013
0.15324397 0.22348589 0.21851374 0.16550384 0.16549648 0.20152828 0.030472264 0.15860943
0.22398038 0.21328233 0.09312504 0.27911848 0.13228971 0.15777418 0.24408908 0.074919336
0.19111095 0.24124844 0.28460702 0.24082558 0.158287 0.18459374 0.28697708 0.2719852
0.12910667 0.21726255 0.2895607 0.31903377 0.14077164 0.2222811 0.1986061 0.17770967
0.2316477 0.2527369 0.14461462 0.20849532 0.059355963 0.5597927 0.20545232 0.15205649
0.08041959 0.093185246 0.19759339 0.15961598 0.1774289 0.20124999 0.1794633 0.19612595
0.12952662 0.031914122 0.12051266 0.1665517 0.25232533 0.22702107 0.23207839 0.5482609
0.19536908 0.14724995 0.23484986 0.4254435 0.07749091 0.2192815 0.12216984 0.13583177
0.14157817 0.10919831 0.1726487 0.2237235 0.22067907 0.18789327 0.22007851 0.24044548
0.1312122 0.06334341 0.08327052 0.4872756 0.15584981 0.4585187 0.15250617 0.20832418
0.183825 0.15649562 0.16297573 0.27132908 0.14125022 0.20625585 0.084781945 0.28598163
0.56075335 0.16263478 0.21030782 0.2644235 0.20866744 0.14496897 0.105819136 0.15745427
0.07834865 0.18963684 0.19517316 0.033988338 0.51805735 0.20279333 0.114384905 0.14870511
0.12873286 0.13859087 0.08071577 0.14538153 0.17235005 0.16085465 0.17592184 0.121575795
0.1282939 0.12110826 0.16348848 0.18102431 0.17608291 0.17850144 0.13174252 0.21093918
0.23003228 0.19367288 0.10598481 0.18722202 0.20544158 0.21983014 0.20371544 0.20873028
0.15809496 0.13464665 0.1525299 0.15723361 0.19323498 0.10862074 0.20190103 0.20083027
0.15950258 0.50180405 0.12905276 0.23917462 0.13931462 0.12899432 0.18105876 0.112565905
0.15241486 0.068812035 0.45395133 0.0839485 0.11369124 0.18819644 0.044586554 0.18739228
0.07585273 0.5239732 0.11144817 0.4731432 0.07137351 0.21472202 0.22005947 0.25218564
0.20566526 0.1251173 0.110662065 0.57709146 0.20964007 0.022858333 0.17180471 0.21470469
0.1915435 0.18839818 0.19380718 0.16726479 0.19202463 0.19004504 0.10833604 0.08472954
0.11706965 0.29363546 0.1468588 0.15473315 0.2009068 -0.17577204 0.16531448 0.23626962
0.096615024 0.115935564 0.15942349 0.16436954 0.25039208 0.13834311 0.1626786 0.23690544
0.17939685 0.18022779 0.15762316 0.18842079 0.31830692 0.115977235 0.1305001 0.13119042
0.14931701 0.18724573 0.14790379 0.1534016 0.08817809 0.1284549 0.32885975 0.18404421
0.072159275 0.12658687 0.1816671 0.06701694 0.17632425 0.14045054 0.08071201 0.17736243
0.06154715 0.18068625 0.08619885 0.08888025 0.18650939 0.13309559 0.16062202 0.033448488
0.11899497 0.17595835 0.15583369 0.08812421 0.12874186 0.14207026 0.23895429 0.17456658
0.2045922 0.14558257 0.20111227 0.18732303 0.23331028 0.15237242 0.19017543 0.13657913
00000000: ac2b 1b3e 45bd 2e3e 2055 6a3e 1da8 a13d
00000010: 5da0 c73d 3b51 3d3e df01 143e a594 273e
00000020: ac2e 273e 75d8 293e a479 093e 0115 d83d
00000030: 6c57 e13d 91ce a73e f29a aa3d a5f9 753e
00000040: fdeb 1c3e 7cd9 643e 11c2 5f3e d779 293e
00000050: e977 293e 6e5d 4e3e f8a0 f93c 836a 223e
00000060: 1d5b 653e af66 5a3e 57b8 be3d 9ee8 8e3e
00000070: f476 073e 8e8f 213e 7df2 793e 4f6f 993d
00000080: 97b2 433e d509 773e 03b8 913e fb9a 763e
00000090: fd15 223e 2406 3d3e a9ee 923e a541 8b3e
000000a0: 8a34 043e 137a 5e3e 4d41 943e 6558 a33e
000000b0: 7126 103e a89d 633e 665f 4b3e 86f9 353e
000000c0: 0e35 6d3e bb66 813e db15 143e cc7f 553e
000000d0: 3d1f 733d 934e 0f3f 1862 523e b2b4 1b3e
000000e0: 07b3 a43d e8d7 be3d ec55 4a3e 5f72 233e
000000f0: ecaf 353e 7a14 4e3e 3ac5 373e 3ed5 483e
00000100: a0a2 043e 62b8 023d 57cf f63d 878c 2a3e
00000110: c930 813e 3678 683e f5a5 6d3e d45a 0c3f
00000120: d50e 483e b1c8 163e 7b7c 703e bbd3 d93e
00000130: 8eb3 9e3d 548b 603e 2e34 fa3d 7c17 0b3e
00000140: def9 103e 5da3 df3d d2ca 303e c617 653e
00000150: b2f9 613e 1867 403e 435c 613e 5737 763e
00000160: 7e5c 063e 31ba 813d bc89 aa3d 307c f93e
00000170: 1897 1f3e f7c2 ea3e 942a 1c3e ef52 553e
00000180: 9f3c 3c3e 6340 203e 1ce3 263e a5eb 8a3e
00000190: e6a3 103e bc34 533e 28a2 ad3d 2f6c 923e
000001a0: 888d 0f3f bb89 263e ef5a 573e 8462 873e
000001b0: ebac 553e bf72 143e b4b7 d83d b13b 213e
000001c0: 4275 a03d 2930 423e 79db 473e 5b37 0b3d
000001d0: 689f 043f 0ea9 4f3e a242 ea3d 2746 183e
000001e0: 8cd2 033e c4ea 0d3e 4f4e a53d e5de 143e
000001f0: 887c 303e 15b7 243e db24 343e bbfc f83d
00000200: 7a5f 033e 9b07 f83d 8669 273e 705e 393e
00000210: 144f 343e 15c9 363e 83e7 063e 7100 583e
00000220: 958d 6b3e 2f52 463e 900e d93d 21b7 3f3e
00000230: 475f 523e 271b 613e c89a 503e 64bd 553e
00000240: a5e3 213e d0e0 093e cc30 1c3e d901 213e
00000250: 64df 453e 8d74 de3d 25bf 4e3e 73a6 4d3e
00000260: a554 233e 3b76 003f 6826 043e 31ea 743e
00000270: 7ea8 0e3e 1617 043e 7867 393e f488 e63d
00000280: a412 1c3e 53ed 8c3d 4f6c e83e 31ed ab3d
00000290: f4d6 e83d 91b6 403e 64a0 363d c3e3 3f3e
000002a0: ad58 9b3d 1c23 063f f03e e43d d33f f23e
000002b0: 462c 923d 17e0 5b3e 4557 613e 7a1e 813e
000002c0: ea99 523e c01e 003e cba2 e23d 44bc 133f
000002d0: e3ab 563e 6641 bb3c 93ed 2f3e 8cdb 5b3e
000002e0: fb23 443e 74eb 403e 6475 463e 7647 2b3e
000002f0: 1ba2 443e 2b9b 423e 49df dd3d ae86 ad3d
00000300: 36c2 ef3d 6357 963e 2762 163e 5e72 1e3e
00000310: 83ba 4d3e 96fd 33be 3348 293e aaf0 713e
00000320: 19de c53d a06f ed3d e93f 233e 7d50 283e
00000330: 6433 803e d1a9 0d3e 3895 263e 5797 723e
00000340: cfb3 373e a28d 383e f767 213e 61f1 403e
00000350: 20f9 a23e 7985 ed3d d1a1 053e c856 063e
00000360: 8fe6 183e 58bd 3f3e 1774 173e 4f15 1d3e
00000370: b796 b43d ae89 033e 4e60 a83e 1676 3c3e
00000380: 3ec8 933d fd9f 013e f106 3a3e 2d40 893d
00000390: 588e 343e 44d2 0f3e 574c a53d 7f9e 353e
000003a0: dd18 7c3d d105 393e 0689 b03d d906 b63d
000003b0: 51fc 3e3e 364a 083e 197a 243e 4801 093d
000003c0: a3b3 f33d 6d2e 343e de92 1f3e 777a b43d
000003d0: e8d4 033e de7a 113e 6fb0 743e 95c1 323e
000003e0: 9e80 513e 9913 153e 60f0 4d3e 9cd1 3f3e
000003f0: e4e8 6e3e 8407 1c3e 59bd 423e 66db 0b3e

net.2.bias f4 [256]
0.040204708 0.033155605 0.025941696 0.022649948 0.004851988 0.034732003 0.034808766 0.034181774
0.038455646 0.043032687 0.02238118 0.008902941 0.0120411655 0.077290095 0.0006729348 0.06325528
0.03311277 0.044442654 0.051309813 0.021465039 0.025608497 0.042057518 -0.06539415 0.018479036
0.03664894 0.03472999 0.02490284 0.081976674 0.032458868 -0.52575266 0.06011521 0.011005325
0.04544468 0.05930009 0.06533831 0.071773104 0.04845892 0.044948593 0.063380554 0.06856682
0.008893736 0.03135372 0.069039434 0.07755905 0.026231332 0.049869187 0.045817632 0.03220681
0.039680004 0.06772044 0.03577657 0.046408195 0.011337094 0.1525061 0.03884591 0.032507967
0.017880723 0.0132137155 0.047940776 0.035506453 0.04206474 0.0539484 0.032064117 0.021488542
0.034712497 -0.05008766 0.015806582 0.039787605 0.04224588 0.06060103 0.044621173 0.15372843
0.042773843 0.026387068 0.06246992 0.11571771 0.009890385 0.05075634 0.02629322 0.028953392
0.030643882 0.016965456 0.038136553 0.038506977 0.055102274 0.047192164 0.05066624 0.052834563
0.027891694 -0.003210388 0.008891515 0.13816437 0.022705967 0.13269253 0.039465584 0.051498923
0.043541238 -0.506855 0.04254207 0.065339856 0.02728814 0.05078153 0.02274824 0.064242
0.15951958 0.030122181 0.0483431 0.0695224 0.054463446 0.026720027 0.018188674 0.037948757
-0.013738586 0.043676533 0.040394574 -0.04844981 0.1385311 0.051445812 0.031178696 0.0371985
0.020961886 0.01978231 0.015167395 0.017003365 0.01780882 -0.5311619 0.038174592 0.018150134
0.017871879 0.021866456 0.035270393 0.04019728 0.043563403 0.04382332 0.02882861 0.050481454
0.04423677 0.04696609 0.02467232 0.05315554 0.027927212 0.048484903 0.0145454565 0.032517415
-0.52072674 0.015562727 0.027060214 0.03266866 0.034563027 0.021490261 0.050219513 0.048099007
0.030375892 0.1303501 0.026381947 0.036546163 0.033776637 -0.02386657 0.03914001 0.024583582
0.032583956 0.004758599 0.11675804 0.01359878 0.028169632 0.047152184 -0.07061622 0.0481741
0.018017847 0.14079762 0.014452443 0.12777647 0.0015640688 0.04402057 0.05541433 0.03997079
0.053377222 -0.012402343 0.016156368 0.14629397 0.024546709 -0.064645596 0.046010688 0.050163966
0.047950935 0.04237098 0.045558903 0.046578046 0.049040053 0.044244975 0.012002114 0.011657988
0.020778138 0.07923227 0.035746932 -0.5025155 0.05023638 -0.042174295 0.029932193 0.036474817
0.015541502 0.025642354 0.021141768 0.04764503 0.05888881 0.029745167 0.04823996 0.06553479
0.04981108 0.033699274 -0.4956596 0.051241554 0.07552061 0.009887931 0.019346554 0.022005944
0.031135716 0.041917086 0.03149752 0.02534916 0.0104140015 0.025383024 0.0906116 0.03321835
-0.000644387 0.025051082 0.052335154 0.0049111308 0.042406112 0.02252197 0.013341416 0.04671744
0.01749067 0.041466363 0.0038355931 0.009564184 0.03984235 0.024652759 0.030835668 0.0020163653
0.012239077 0.03948054 -0.51591384 0.009126274 -0.0031678604 0.037007 0.053712014 0.03172447
0.054093193 0.0025970216 0.038677596 0.049066667 0.0590144 0.029485688 0.029248193 0.009845773
00000000: b1ad 243d 2cce 073d ae83 d43c 628c b93c
00000010: 6dfd 9e3b 2543 0e3d a393 0e3d 3002 0c3d
00000020: ab83 1d3d 0b43 303d bd58 b73c a4dd 113c
00000030: 4f48 453c 454a 9e3d e467 303a fc8b 813d
00000040: 42a1 073d 8009 363d 3d2a 523d 73d7 af3c
00000050: e9c8 d13c 8144 2c3d 5eed 85bd 5961 973c
00000060: 331d 163d 0941 0e3d 0a01 cc3c 63e3 a73d
00000070: 97f3 043d ba97 06bf 5e3b 763d ae4f 343c
00000080: 3324 3a3d a7e4 723d 18d0 853d c7fd 923d
00000090: dc7c 463d 041c 383d aacd 813d c36c 8c3d
000000a0: 08b7 113c c26c 003d 8c64 8d3d 47d7 9e3d
000000b0: 17e3 d63c a243 4c3d 45ab 3b3d 4aeb 033d
000000c0: 8087 223d 04b1 8a3d 748a 123d 8516 3e3d
000000d0: 38bf 393c 8f2a 1c3e e41c 1f3d 1327 053d
000000e0: 987a 923c 577e 583c 8c5d 443d 376f 113d
000000f0: 144c 2c3d fff8 5c3d aa55 033d bd08 b03c
00000100: b12e 0e3d b828 4dbd ce7c 813c 54f8 223d
00000110: 040a 2d3d c938 783d b1c4 363d fc6a 1d3e
00000120: a033 2f3d b129 d83c 75e0 7f3d 68fd ec3d
00000130: 480b 223c e1e5 4f3d e164 d73c aa2f ed3c
00000140: e108 fb3c 24fb 8a3c 1335 1c3d 7eb9 1d3d
00000150: ecb2 613d 924c 413d 6787 4f3d 0e69 583d
00000160: 1f7d e43c 5f65 52bb b8ad 113c f67a 0d3e
00000170: dd01 ba3c 8de0 073e aaa6 213d 89f0 523d
00000180: 4c58 323d 40c1 01bf 9840 2e3d e7d0 853d
00000190: 618b df3c 4b00 503d 845a ba3c 4f91 833d
000001a0: 1a59 233e cbc2 f63c 6a03 463d c361 8e3d
000001b0: 1015 5f3d f5e3 da3c 6a00 953c 2870 1b3d
000001c0: ce17 61bc 2ae6 323d c874 253d 4f73 46bd
000001d0: 19db 0d3e d8b8 523d 776a ff3c 745d 183d
000001e0: 43b8 ab3c 830e a23c aa80 783c a44a 8b3c
000001f0: cde3 913c 3afa 07bf f65c 1c3d 97af 943c
00000200: 0c68 923c 4821 b33c b077 103d e7a5 243d
00000210: 8a6f 323d 1580 333d fa29 ec3c a4c5 4e3d
00000220: 9e31 353d 845f 403d 9b1d ca3c a0b9 593d
00000230: 9cc7 e43c 1b98 463d 1150 6e3c fb30 053d
00000240: 594e 05bf cffa 7e3c 62ad dd3c 93cf 053d
00000250: f691 0d3d 580c b03c fab2 4d3d 7703 453d
00000260: ddd6 f83c 7f7a 053e f41e d83c 6eb1 153d
00000270: 5f59 0a3d d383 c3bc 4651 203d 8263 c93c
00000280: c176 053d 06ee 9b3b d71e ef3d 6bcd 5e3c
00000290: 00c4 e63c a622 413d 3d9f 90bd 3552 453d
000002a0: 2a9a 933c 402d 103e f1c9 6c3c d6d7 023e
000002b0: 7101 cd3a ea4e 343d 23fa 623d 69b8 233d
000002c0: 13a2 5a3d 3233 4bbc 5c5a 843c 16ce 153e
000002d0: 2e16 c93c e964 84bd b475 3c3d bb78 4d3d
000002e0: 3368 443d 318d 2d3d f99b 3a3d 9fc8 3e3d
000002f0: 39de 483d 383a 353d 84a4 443c 2501 3f3c
00000300: ea36 aa3c 8744 a23d 606b 123d dba4 00bf
00000310: aac4 4d3d f4be 2cbd 5c34 f53c 9e66 153d
00000320: c9a1 7e3c ea0f d23c 8031 ad3c 6f27 433d
00000330: 6535 713d 23ac f33c 4497 453d 1b37 863d
00000340: b406 4c3d 4008 0a3d 18c7 fdbe aae2 513d
00000350: 8daa 9a3d fd00 223c aa7c 9e3c cf45 b43c
00000360: 5410 ff3c 40b1 2b3d 8b03 013d 0ba9 cf3c
00000370: 7d9f 2a3c 0ff0 cf3c 9392 b93d f70f 083d
00000380: 14ec 28ba ed37 cd3c 635d 563d 8ded a03b
00000390: 08b2 2d3d ff7f b83c f495 5a3c c95a 3f3d
000003a0: 9848 8f3c a2d8 293d 935e 7b3b 18b3 1c3c
000003b0: bb31 233d 95f4 c93c 159b fc3c ff24 043b
000003c0: 6986 483c 59b6 213d ee12 04bf 5e86 153c
000003d0: e19b 4fbb a794 173d 2101 5c3d 85f1 013d
000003e0: d390 5d3d cb32 2a3b 666c 1e3d 21fa 483d
000003f0: 15b9 713d f88b f13c e899 ef3c 2a50 213c

net.4.weight f4 [256, 256]
-1.5586745e-06 0.0003806207 -0.00013393906 3.6803874e-29 5.997565e-23 -1.637474e-16 2.3563493e-06 1.1009998e-16
3.1335686e-21 1.04311165e-19 1.2526943e-17 -1.5247874e-11 5.646647e-05 2.1090241e-13 -1.0613932e-22 0.00013832746
0.00013793446 2.4683893e-15 1.3161339e-19 -1.3484897e-07 5.5422512e-30 3.0366817e-07 3.0141175e-05 0.00022737565
-1.1637672e-05 -2.8402077e-05 6.9319124e-22 1.01279565e-32 -0.0019636063 1.4961193e-05 1.07136764e-20 1.0736334e-22
0.00010631524 3.294975e-11 5.417214e-13 2.4693532e-15 8.566305e-19 1.335264e-21 -1.0527998e-11 -2.634475e-37
5.034403e-24 -5.4788748e-06 1.0061381e-16 0.0003565816 0.0018082332 -3.452314e-12 1.6229074e-24 9.664599e-05
-0.00019327502 5.8988267e-08 1.5012538e-20 -6.265788e-22 -4.3737853e-18 7.131905e-16 -2.2009465e-07 1.5117629e-18
4.2658553e-07 8.0093594e-29 1.7511766e-19 7.630723e-31 5.3856356e-06 4.2895852e-26 8.274429e-15 -1.0069256e-06
7.442834e-14 -1.7629079e-06 -4.95033e-40 -2.2397462e-11 -7.2966344e-08 1.7519265e-34 -4.807428e-08 4.2289785e-19
-4.91718e-40 -1.6736855e-11 2.9276204e-27 4.72561e-22 -2.1985562e-16 -6.2872264e-06 0.0013412508 -4.92694e-40
6.595555e-25 1.7042401e-08 2.8176448e-16 8.7266284e-13 5.087874e-25 1.3694704e-17 2.3901314e-16 5.6734214e-17
1.4108361e-21 3.2556756e-20 9.370598e-08 1.3139757e-16 1.856799e-09 2.1552482e-18 0.00010011739 5.4964875e-21
1.9341194e-27 1.1073258e-05 1.3540413e-17 1.0520483e-20 7.4654517e-25 -2.7194367e-19 5.3556545e-07 7.0275943e-15
6.0081538e-15 8.0042154e-22 1.1043228e-07 -4.8922345e-08 1.0694021e-21 -3.167796e-11 -1.6834168e-05 2.1019919e-18
1.416594e-13 3.3697004e-10 0.00041691525 6.3041923e-09 3.9916485e-19 1.161948e-15 2.0130037e-25 2.9769707e-18
2.3674436e-19 2.2763427e-12 0.0007892376 3.6016854e-18 5.648324e-19 1.9402649e-05 5.2667335e-08 1.9664094e-16
-3.130383e-05 1.0859683e-27 9.404543e-09 5.8374685e-14 4.9041845e-27 1.0076012e-14 1.5479041e-23 3.9685472e-23
-6.208267e-09 -1.6465403e-10 0.0053286706 2.760826e-05 3.1058846e-11 1.1617842e-35 5.775207e-09 7.268571e-06
8.6716485e-05 1.9711123e-19 8.077126e-23 9.361895e-31 -6.3291256e-05 3.144451e-08 4.6926858e-18 2.2081743e-20
1.4219403e-15 2.9101136e-13 -3.4471254e-06 -7.459772e-06 5.8721543e-08 8.380245e-09 4.1231442e-18 -4.92737e-40
2.1717883e-17 -4.94545e-40 1.0440865e-15 2.911693e-17 4.93986e-40 2.3738222e-10 -7.1043536e-07 2.180267e-12
0.00022863418 2.4612005e-12 -4.8183938e-05 2.036972e-14 -1.6238129e-19 6.039256e-13 5.965675e-20 -1.1226438e-05
-1.8054192e-05 7.468883e-11 -8.1707503e-07 -9.0482084e-05 3.558571e-12 -2.5452811e-08 5.719014e-15 2.4811345e-20
-3.8112517e-16 2.8559714e-17 3.1710264e-24 1.386703e-15 2.9580663e-08 -9.370701e-13 -6.229261e-10 6.417814e-32
-2.6401112e-16 7.9575936e-11 1.3354305e-15 2.1171172e-05 3.227163e-34 -1.5080425e-07 8.419064e-05 -8.481064e-06
-3.8591605e-07 1.6889161e-22 2.938704e-17 5.469118e-28 4.1672793e-18 1.6721035e-18 2.8245922e-24 -4.94953e-40
2.5931688e-23 3.2219947e-21 5.5263852e-05 1.0667477e-15 0.0009227042 2.655461e-05 -4.65636e-40 1.3218147e-12
4.259421e-20 2.2929336e-05 -1.8488066e-31 3.839901e-17 -3.266858e-13 1.1350845e-27 0.0012761429 2.1463416e-34
-4.7502887e-12 4.206203e-19 -1.13702e-07 1.5039205e-18 -4.8725323e-27 1.3624832e-15 -5.915167e-11 0.008142525
9.5259e-41 0.0045186384 6.039185e-17 -1.8898511e-14 1.8652227e-27 4.7569e-34 2.2800553e-14 -6.151471e-13
6.704012e-17 -5.368703e-13 6.926236e-05 1.0362103e-15 2.0543683e-14 -4.456564e-18 1.6178497e-23 -3.6554346e-09
-3.2269987e-18 -1.0689547e-09 3.5698746e-15 -6.512147e-35 2.9430446e-20 -1.0065526e-12 4.5283707e-15 8.135245e-11
00000000: a633 d1b5 0c8e c739 fe71 0cb9 299e 3a10
00000010: 2103 911a b4c9 3ca5 c621 1e36 8fdf fd24
00000020: 08c4 6c1d 3b4c f61f d114 6723 291f 86ad
00000030: 69d6 6c38 7b74 6d2a 8750 009b ff0b 1139
00000040: 80a2 1039 bfdd 3127 b561 1b20 01cb 10b4
00000050: 07d2 e00e d607 a334 aed7 fc37 b06b 6e39
00000060: 6c3f 43b7 ff40 eeb7 1381 511c 7459 520a
00000070: d9af 00bb d601 7b37 2960 4a1e 58cb 011b
00000080: 8ff5 de38 1fea 102e 247b 182b 87ef 3127
00000090: 2cd5 7c21 86c7 c91c e335 39ad 074b b382
000000a0: 50c2 c218 2dd7 b7b6 e9ff e724 92f3 ba39
000000b0: 3d02 ed3a 5cef 72ac fc21 fb17 6cae ca38
000000c0: dea9 4ab9 495a 7d33 17ca 8d1e 305f 3d9c
000000d0: 3c5d a1a2 2c90 4d26 2853 6cb4 ca18 df21
000000e0: 7805 e534 b70f cb10 11be 4e20 91a1 770d
000000f0: 42b6 b436 f468 5415 120f 1528 b325 87b5
00000100: 0499 a729 0e9d ecb5 f363 0580 9a02 c5ad
00000110: acb1 9cb3 f8de 6807 3b7a 4eb3 84a2 f920
00000120: b65a 0580 0c38 93ad 32f3 6713 a3d2 0e1c
00000130: ed79 7da5 ddf6 d2b6 e9cc af3a 6e5d 0580
00000140: 5f1f 4c17 a364 9232 196d a225 fca1 752b
00000150: 4a76 1d17 699f 7c23 1dc8 8925 f8d1 8224
00000160: 1433 d51c b4be 191f 683b c933 b87d 1725
00000170: 4f32 ff30 7d07 1f22 1df6 d138 c4a6 cf1d
00000180: 9a3c 1913 48c7 3937 cbc6 7923 efb9 461e
00000190: 670b 6717 f786 a0a0 c7c3 0f35 1e32 fd27
000001a0: 7077 d827 9ee9 711c ca26 ed33 b01e 52b3
000001b0: 7d9a a11c 3652 0bae 1a37 8db7 8119 1b22
000001c0: 8b7e 1f2a 5140 b92f 6b95 da39 439c d831
000001d0: 16a0 eb20 5174 a726 a232 7916 63a9 5b22
000001e0: ccbf 8b20 f22e 202c d7e4 4e3a f5e0 8422
000001f0: 88b5 2621 dfc2 a237 5934 6233 29b6 6225
00000200: 3b4c 03b8 1c14 ac12 9e91 2132 b772 8329
00000210: 5746 c213 6783 3528 40b4 9519 3ce8 3f1a
00000220: 7e50 d5b1 fd09 35af 219c ae3b 4998 e737
00000230: 2799 082e 8c15 7705 426f c631 8de4 f336
00000240: 8fdb b538 37b5 6820 fd4a c31a cae7 970d
00000250: 3cbb 84b8 9b0d 0733 2a21 ad22 618e d01e
00000260: 56ec cc26 28d3 a32a 2a55 67b6 f44e fab6
00000270: 0535 7c33 b5f8 0f32 ff1d 9822 8d5d 0580
00000280: e74f c823 9762 0580 fe77 9626 3447 0624
00000290: 0861 0500 9480 822f bfb4 3eb5 336c 192c
000002a0: 85bd 6f39 0c31 2d2c 1c19 4ab8 6079 b728
000002b0: bcb4 3fa0 6dfd 292b 4bdc 8c1f 2f59 3cb7
000002c0: 1573 97b7 133e a42e f854 5bb5 33c1 bdb8
000002d0: 8469 7a2c 53a3 dab2 980c ce27 2756 ea1e
000002e0: 26b4 dba5 5cb5 0324 a658 7518 50d8 c726
000002f0: 9118 fe32 82e1 83ab 873a 2bb0 b19d a60b
00000300: 2a31 98a5 45fd ae2e b074 c026 bf98 b137
00000310: 557b d607 c2ec 21b4 818f b038 e449 0eb7
00000320: e62f cfb4 6c2d 4c1b 1886 0724 c252 2d12
00000330: d7be 9922 49c2 f621 d08a 5a18 ba63 0580
00000340: c0cb fa19 7172 731d 1ccb 6738 0bbc 9926
00000350: a1e1 713a 97c1 de37 0112 0580 6507 ba2b
00000360: 3e25 491f 6058 c037 23fd 6f8c 8d15 3124
00000370: 63e8 b7aa 7fdc b312 4044 a73a 1ca6 8e07
00000380: cc22 a7ac 584a f820 562c f4b3 83f0 dd21
00000390: 5905 c193 c25a c426 6e13 82ae 3a68 053c
000003a0: 8b09 0100 1611 943b 0e41 8b24 0039 aaa8
000003b0: 36c7 1313 3b13 1e08 7f5e cd28 0526 2dab
000003c0: 8195 9a24 951d 17ab f240 9138 6a55 9526
000003d0: 820a b928 0f6b a4a2 0578 9c19 1633 7bb1
000003e0: 481c 6ea2 80ea 92b0 489e 8027 601f ad86
000003f0: 3afb 0a1f e1a8 8dab d926 a327 5ce5 b22e

net.4.bias f4 [256]
-0.036073625 -0.06691978 -0.07135287 -0.01838364 -0.045390043 -0.104260944 -0.069993906 -0.081505485
-0.100634225 -0.08025394 -0.10727204 -0.062528625 -0.036026258 -0.07308761 -0.09810369 -0.11622467
-0.121003926 -0.09015175 -0.10234715 -0.07887555 -0.09938296 -0.1313654 -0.12148996 -0.048149247
-0.10615517 -0.022807386 -0.08286677 -0.08935626 -0.13027884 -0.058994606 -0.08260244 -0.081391126
-0.03186154 -0.035534173 -0.07082426 -0.104977906 -0.10170448 -0.022446167 -0.09496436 -0.11278541
-0.0555634 -0.117702745 -0.1084861 -0.11279569 -0.11556068 -0.041843176 -0.08522176 -0.084483385
-0.02963493 -0.04458362 -0.11033957 -0.12204837 -0.12885836 -0.1544219 -0.000285741 -0.08697593
-0.05870137 0.0041286564 -5.679879e-22 -0.10938648 -0.02092405 -0.12041349 -0.0683769 -0.07306239
-0.050769277 -0.08464308 -0.11457436 -0.09342383 -0.11384128 -0.061983164 -0.08943022 -0.043602113
-0.06810524 -0.12084751 -0.08871207 -0.10844676 -0.048745025 -0.029107962 -0.047995392 -0.072850876
-8.912506e-10 -0.0678134 -0.095781974 -0.16746014 -0.08237005 -0.09878684 -0.105689056 -0.14132562
-0.056883123 -0.1026161 -0.019589562 -0.12725477 -0.043090798 -0.1394869 -0.04900178 -0.0866216
-0.06286523 -0.04202314 -0.07655417 -0.08931895 -0.061349142 -0.05840828 -0.05891834 -0.07212041
-0.09215913 -0.0062821144 -0.08303737 -0.11491582 -0.0548102 -0.049258813 -0.0024002965 -0.09822022
-0.053753007 -0.1566299 -0.072553605 -0.05519516 -0.01567733 -0.058942307 -0.064512 -0.06969604
-0.078957476 0.014360226 -0.11262011 -0.11050663 -0.05355199 -0.026132185 -0.13836598 -0.08586105
-0.026674692 -0.08855466 -0.12291948 -0.066310026 -0.085686915 -0.13082476 -0.043347154 -0.11742129
-0.100892626 -0.06365781 -0.09477 -0.08262991 -0.16303158 -0.09534193 -0.100800015 -0.062593564
-0.06822168 -0.08690645 -0.025932293 -0.0979801 -0.0898802 -0.11596918 -0.02415878 -0.07001443
-0.12650916 -0.06457228 -0.12866619 -0.20222954 -0.069676824 -0.008731639 -0.07178541 -0.003298452
-0.04486188 -0.057178933 -0.040406186 -0.0696096 -0.056225814 -0.07509773 -0.048344623 -0.0548605
-0.07310865 -0.040233932 -0.07585457 -0.08307972 -0.12694608 -0.054675885 -0.14009261 -0.05642963
-0.080527924 -0.05025367 -0.028992629 -0.11762201 -0.012845623 -0.08594798 -5.505317e-13 -0.08819993
-8.6099186e-05 -0.12890264 -0.052104753 -0.047906093 -2.2525366e-19 -0.10395177 -0.14152095 0.00024003035
-0.10247913 -0.097166955 -0.06863535 -0.105888814 -0.04397125 -0.07546495 -0.098277844 -0.13191754
-0.009698849 -0.08840763 -0.12197746 -0.10258765 -0.07695169 -0.090418786 -0.042212784 -0.038684096
-0.07425097 -0.06629939 -0.016368594 -0.07648111 -0.16028933 -0.16096775 -0.053112034 -0.0028001028
-0.08240759 -0.04805321 -0.096885405 -0.15996085 -0.076586835 -0.09552123 -0.07453711 -0.035642363
-0.07986628 -0.16044953 -0.04152277 -0.046071343 -0.024690801 -0.06541672 -0.09350245 -0.07895738
-0.09767968 -0.09809478 -0.07055574 -0.098234095 -0.10380786 -0.05950852 -0.26911747 -0.0639072
-0.0035077184 -0.020361979 -0.045778953 -0.084160045 -0.059792127 -0.12545082 -0.1359759 -0.08644993
-0.08109053 -0.07392604 -0.10866527 -0.13419832 -0.105979115 -0.12018774 -0.070013694 -0.05946704
00000000: f0c1 13bd 3d0d 89bd 7421 92bd 4a99 96bc
00000010: e9ea 39bd c386 d5bd f758 8fbd 59ec a6bd
00000020: 5119 cebd 2d5c a4bd 71b1 dbbd 020f 80bd
00000030: 4590 13bd f5ae 95bd 96ea c8bd 3307 eebd
00000040: e8d0 f7bd 7ba1 b8bd 629b d1bd 8189 a1bd
00000050: 4b89 cbbd a784 06be bacf f8bd 2538 45bd
00000060: e267 d9bd 8ed6 babc 0eb6 a9bd 6a00 b7bd
00000070: d167 05be 54a4 71bd 782b a9bd 64b0 a6bd
00000080: 3f81 02bd 488c 11bd 4f0c 91bd a8fe d6bd
00000090: 704a d0bd 06e1 b7bc ad7c c2bd 09fc e6bd
000000a0: 7396 63bd 230e f1bd f62d debd 6d01 e7bd
000000b0: 14ab ecbd c063 2bbd bf88 aebd a005 adbd
000000c0: f4c4 f2bc 509d 36bd b6f9 e1bd 7ff4 f9bd
000000d0: 72f3 03be c620 1ebe 82cf 95b9 7020 b2bd
000000e0: d970 70bd ae49 873b efa9 2b9c 0506 e0bd
000000f0: ea68 abbc 599b f6bd 3009 8cbd bca1 95bd
00000100: 72f3 4fbd 5a59 adbd f6a5 eabd fe54 bfbd
00000110: 9e25 e9bd 0fe2 7dbd 3127 b7bd 2198 32bd
00000120: c37a 8bbd e67e f7bd acae b5bd 5619 debd
00000130: dda8 47bd d273 eebc d196 44bd d732 95bd
00000140: 2ffc 74b0 c0e1 8abd 5729 c4bd ac7a 2bbe
00000150: a1b1 a8bd c150 cabd 8173 d8bd aab7 10be
00000160: 47fe 68bd 6428 d2bd 4a7a a0bc 134f 02be
00000170: fa7f 30bd a7d5 0ebe 17b6 48bd aa66 b1bd
00000180: 7cbf 80bd 7520 2cbd 6fc8 9cbd dbec b6bd
00000190: 3d49 7bbd 853d 6fbd 5b54 71bd deb3 93bd
000001a0: edbd bcbd 32da cdbb 7f0f aabd fc58 ebbd
000001b0: a980 60bd 9cc3 49bd 4b4e 1dbb af27 c9bd
000001c0: 1d2c 5cbd 9763 20be fc96 94bd 5214 62bd
000001d0: be6d 80bc 7d6d 71bd de1e 84bd ccbc 8ebd
000001e0: 75b4 a1bd 2747 6b3c 5fa5 e6bd 4d51 e2bd
000001f0: 5559 5bbd 2a13 d6bc d0af 0dbe ebd7 afbd
00000200: e284 dabc 255c b5bd 35bd fbbd 8dcd 87bd
00000210: 9f7c afbd edf6 05be c98c 31bd 937a f0bd
00000220: cba0 cebd 075f 82bd c616 c2bd df39 a9bd
00000230: c0f1 26be a142 c3bd 3d70 cebd 0e31 80bd
00000240: cfb7 8bbd 02fc b1bd f66f d4bc caa9 c8bd
00000250: 1c13 b8bd 4081 edbd a2e8 c5bc ba63 8fbd
00000260: 9e8b 01be 793e 84bd 12c1 03be 4315 4fbe
00000270: b9b2 8ebd 260f 0fbc 3b04 93bd d72a 58bb
00000280: 17c1 37bd 7534 6abd f580 25bd 7a8f 8ebd
00000290: 0a4d 66bd d7cc 99bd 0305 46bd 67b5 60bd
000002a0: fdb9 95bd 56cc 24bd a459 9bbd b325 aabd
000002b0: 27fe 01be d2f3 5fbd 7074 0fbe c122 67bd
000002c0: d3eb a4bd cbd6 4dbd f381 edbc cfe3 f0bd
000002d0: 7376 52bc 7f05 b0bd fdf5 1aab 2aa2 b4bd
000002e0: 2690 b4b8 0eff 03be cb6b 55bd 2e39 44bd
000002f0: 5ff7 84a0 aae4 d4bd deea 10be a8b0 7b39
00000300: 94e0 d1bd 78ff c6bd b190 8cbd 3cdc d8bd
00000310: 331b 34bd 5e8d 9abd e545 c9bd 6415 07be
00000320: ece7 1ebc 0f0f b5bd 52cf f9bd 7919 d2bd
00000330: d998 9dbd 7c2d b9bd 50e7 2cbd 3773 1ebd
00000340: e410 98bd f9c7 87bd 6e17 86bc 21a2 9cbd
00000350: e322 24be bbd4 24be 018c 59bd ee81 37bb
00000360: 4fc5 a8bd 71d3 44bd db6b c6bd c7cc 23be
00000370: 8fd9 9cbd a2a0 c3bd eaa6 98bd bafd 11bd
00000380: ef90 a3bd e24c 24be c813 2abd 4eb5 3cbd
00000390: 5d44 cabc 34f9 85bd 367e bfbd 68b4 a1bd
000003a0: 490c c8bd ebe5 c8bd 877f 90bd f52e c9bd
000003b0: 3799 d4bd 35bf 73bd c4c9 89be c7e1 82bd
000003c0: c0e1 65bb 2ace a6bc b682 3bbd 1a5c acbd
000003d0: 97e8 74bd 2e76 00be 443d 0bbe a90c b1bd
000003e0: cb12 a6bd 8966 97bd e68b debd 496b 09be
000003f0: 940b d9bd fd24 f6bd 5763 8fbd b693 73bd

net.6.weight f4 [256]
0.46813533 0.34128815 0.26079702 0.29659453 0.29726416 0.41520366 0.27660054 0.2806838
0.27032244 0.25144684 0.29836336 0.26497602 0.4617919 0.31678388 0.26947317 0.454438
0.37584344 0.22184898 0.47920528 0.22298093 0.336365 0.54984987 0.47177228 0.31993037
0.4581261 0.28920767 0.33426335 0.40443957 0.2530541 0.2654527 0.28554553 0.47380778
0.26431334 0.31770015 0.27909127 0.47159415 0.4391482 0.313456 0.361217 0.22101644
0.28852922 0.4217084 0.30101275 0.2927464 0.40347016 0.27410248 0.36182863 0.43719387
0.25325555 0.28967583 0.48045483 0.33506548 0.25599867 0.29588035 0.47070768 0.46804228
0.30788857 0.044103757 0.43995973 0.28027532 0.2977249 0.42473418 0.3389279 0.30267096
0.19789591 0.319923 0.26286182 -0.2266075 0.33849445 0.4447909 0.42375416 0.46821788
0.3215993 0.34030944 0.44946364 0.44869065 0.3022738 0.24111772 0.2661857 0.28909364
0.43552846 0.3109087 0.35928175 0.33404222 0.2726171 0.43855867 0.3512736 0.54798454
0.29073772 0.52701354 0.3120167 0.56541234 0.22697182 0.35587966 0.3125159 0.30775303
0.24732287 0.26056203 0.30981717 0.25931087 0.24371332 0.20621842 0.32276505 0.33497143
0.43924576 0.13599335 0.31662118 0.42268634 0.45143634 0.30921522 0.3027749 0.36087546
0.2948827 0.42504126 0.28711787 0.310217 0.30466396 0.35847902 0.2864425 0.18746814
0.2816109 0.20343696 0.30317163 0.34164456 0.29481718 0.26209298 0.4581521 0.3360637
0.46180025 0.29316753 0.5388834 0.2934235 0.3023812 0.35847148 0.26474717 0.38091022
0.27941144 0.32757246 0.25127873 0.306662 0.5217976 0.5023403 0.34867775 0.24415742
0.40569785 0.2972966 0.22520086 0.30354124 0.49405545 0.46654505 0.43773806 0.269746
0.44621307 0.27925667 0.43742085 0.32675657 0.33110458 0.23985177 0.2814943 0.13781504
0.37822503 0.26332372 0.38762364 0.27424216 0.32722372 0.28623906 0.46486616 0.48789382
0.31851268 0.3171388 0.40649024 0.276471 0.3790723 0.2325929 0.36069345 0.27006486
0.2611586 0.31876612 0.48446816 0.43248618 0.11042534 0.30975056 0.45485964 0.37157983
0.47623897 0.47760326 0.33307305 0.252693 0.47078404 0.39593962 0.29843715 0.14047131
0.38579133 0.41352227 0.2689659 0.1575294 0.26775715 0.32003716 0.26193812 0.30569735
0.27478895 0.23037522 0.3267008 0.27848867 0.31054983 0.41555262 0.3045789 0.43944192
0.28728214 0.37750012 0.2755505 0.30647123 0.2774552 0.52755225 0.24325123 0.44075182
0.25826895 0.29800802 0.29190925 0.46362588 0.30941263 0.30693218 0.2738659 0.4618601
0.26363042 0.49013102 0.23092645 0.4402237 0.2639728 0.45339784 0.24883713 0.2317415
0.27020672 0.4399916 0.2756138 0.2691747 0.24532613 0.21612988 0.4496614 0.24345405
0.41016197 0.2248633 0.25317425 0.29490986 0.43494964 0.38720408 0.5078341 0.2891198
0.3384243 0.30527943 0.34259292 0.4355514 0.51428026 0.47454974 0.2768001 0.31368092
00000000: 6faf ef3e 52bd ae3e 3087 853e 3ddb 973e
00000010: 0233 983e 9395 d43e 969e 8d3e c9b5 8f3e
00000020: b467 8a3e a4bd 803e 15c3 983e f0aa 873e
00000030: fd6f ec3e 7f31 a23e 63f8 893e 19ac e83e
00000040: 8d6e c03e 612c 633e 655a f53e 1d55 643e
00000050: 0938 ac3e f6c2 0c3f 238c f13e eacd a33e
00000060: 818f ea3e 0713 943e 9124 ab3e b412 cf3e
00000070: 4f90 813e 6be9 873e 0633 923e ef96 f23e
00000080: 1454 873e 98a9 a23e 0de5 8e3e ca74 f13e
00000090: 08d8 e03e 4e7d a03e 6ff1 b83e 2252 623e
000000a0: 1aba 933e 2aea d73e 581e 9a3e dbe2 953e
000000b0: a493 ce3e 2957 8c3e 9a41 b93e e0d7 df3e
000000c0: b6aa 813e 6450 943e 2dfe f53e b48d ab3e
000000d0: 4212 833e a17d 973e 9900 f13e 3da3 ef3e
000000e0: 92a3 9d3e 24a6 343d 6742 e13e 3f80 8f3e
000000f0: 666f 983e c276 d93e f587 ad3e b0f7 9a3e
00000100: 3aa5 4a3e f3cc a33e d395 863e cc0b 68be
00000110: 254f ad3e a2bb e33e 4ef6 d83e 41ba ef3e
00000120: aaa8 a43e 0a3d ae3e 1920 e63e c8ba e53e
00000130: a2c3 9a3e 90e7 763e 7e49 883e 1504 943e
00000140: 96fd de3e 6d2f 9f3e c7f3 b73e 9507 ab3e
00000150: 7894 8b3e c38a e03e 22da b33e b748 0c3f
00000160: 93db 943e 5cea 063f a7c0 9f3e ddbe 103f
00000170: 4d6b 683e dc35 b63e 1602 a03e ce91 9d3e
00000180: 3542 7d3e 6368 853e 5ba0 9e3e 65c4 843e
00000190: fc8f 793e ec2a 533e 7641 a53e 6081 ab3e
000001a0: d2e4 e03e d741 0b3e 2c1c a23e 586a d83e
000001b0: aa22 e73e 7551 9e3e 5005 9b3e abc4 b83e
000001c0: defa 963e 029f d93e 1d01 933e c3d4 9e3e
000001d0: eafc 9b3e 908a b73e 97a8 923e a6f7 3f3e
000001e0: 4e2f 903e c751 503e 5039 9b3e 09ec ae3e
000001f0: 47f2 963e 0d31 863e e992 ea3e 8b10 ac3e
00000200: 1571 ec3e 0e1a 963e 43f4 093f 9b3b 963e
00000210: b5d1 9a3e 9389 b73e f18c 873e aa06 c33e
00000220: 040f 8f3e 94b7 a73e 9ba7 803e cd02 9d3e
00000230: 8794 053f 6099 003f e485 b23e 6704 7a3e
00000240: a1b7 cf3e 4337 983e 0e9b 663e c269 9b3e
00000250: d6f4 fc3e fede ee3e 341f e03e 261c 8a3e
00000260: 0a76 e43e bbfa 8e3e a0f5 df3e a34c a73e
00000270: 8a86 a93e b49b 753e 0520 903e 631f 0d3e
00000280: b6a6 c13e 5ed2 863e 9b76 c63e 7869 8c3e
00000290: de89 a73e ed8d 923e f002 ee3e 38cd f93e
000002a0: 1814 a33e 0460 a23e 7d1f d03e 9b8d 8d3e
000002b0: c415 c23e d52c 6e3e d0ac b83e f145 8a3e
000002c0: 94b6 853e 5035 a33e 360c f83e d46e dd3e
000002d0: ae26 e23d a097 9e3e 5de3 e83e b63f be3e
000002e0: 98d5 f33e 6a88 f43e 8d88 aa3e fa60 813e
000002f0: 9b0a f13e 99b8 ca3e c1cc 983e b6d7 0f3e
00000300: 7186 c53e 31b9 d33e e6b5 893e 634f 213e
00000310: 7717 893e e9db a33e c11c 863e 5d84 9c3e
00000320: 23b1 8c3e 7be7 6b3e 5445 a73e 1196 8e3e
00000330: 6300 9f3e 50c3 d43e c4f1 9b3e 88fe e03e
00000340: a516 933e b247 c13e f514 8d3e cce9 9c3e
00000350: 9c0e 8e3e aa0d 073f da16 793e 39aa e13e
00000360: d43b 843e 8294 983e 2175 953e 5f60 ed3e
00000370: 556b 9e3e 3726 9d3e 2738 8c3e ed78 ec3e
00000380: 91fa 863e 74f2 fa3e fc77 6c3e 0065 e13e
00000390: 7127 873e c323 e83e 29cf 7e3e a54d 6d3e
000003a0: 8958 8a3e 9446 e13e 411d 8d3e 44d1 893e
000003b0: c636 7b3e 2751 5d3e 053a e63e 054c 793e
000003c0: c000 d23e 9142 663e 0ea0 813e 6dfe 963e
000003d0: b8b1 de3e 9d3f c63e 6a01 023f 8307 943e
000003e0: f345 ad3e 964d 9c3e 5768 af3e 9800 df3e
000003f0: dfa7 033f 2ff8 f23e beb8 8d3e c99a a03e

net.6.bias f4 [256]
0.037306976 0.027219212 0.015091796 0.01093138 0.01584711 0.026414484 0.025306046 0.019338451
0.026637105 0.0065343915 0.027968552 0.025152465 0.037453 0.02183927 0.01970067 0.03553953
0.028607406 0.0034601483 0.037282724 0.010769148 0.029534394 0.040825672 0.038906492 0.019565713
0.03181779 0.017206073 0.017303742 0.028779738 0.024579236 0.019087777 0.0124874255 0.03689771
0.004416635 0.01637017 0.0238861 0.038427535 0.037376523 0.019800913 0.029257363 0.016249344
0.009430168 0.03361209 0.019866306 0.018752625 0.033810925 0.018988948 0.028285747 0.03612969
0.022747777 0.024069801 0.038525146 0.03272499 0.01064095 0.02734839 0.036350995 0.04083881
0.017545126 -0.655131 0.03561288 0.024090884 0.009662522 0.038678836 0.016711494 0.022349995
-0.0084878765 0.028800983 0.011072143 -0.0047319746 0.029016573 0.03398437 0.031520203 0.036698226
0.02556249 0.028273879 0.031224133 0.033464678 0.02527199 0.014072792 0.020049805 0.023318416
0.0365409 0.021583058 0.026997468 0.02422031 0.021137767 0.033701275 0.026096994 0.042464767
0.023614323 0.035135854 0.012920941 0.041615207 0.002414384 0.029498458 0.022427836 0.03085993
0.019153714 0.0027480184 0.01649348 0.017906802 0.016538536 0.012333775 0.016820144 0.028107494
0.034231197 -0.03161347 0.019463036 0.02250198 0.03316849 0.021446645 0.0050485227 0.028361931
0.015469818 0.033006206 0.025667649 0.018580241 0.015290763 0.019268882 0.029749362 0.0093042515
0.022026844 0.009410563 0.025888333 0.027596613 0.023915542 0.01537212 0.03478781 0.0243483
0.033452418 0.021721056 0.03992431 0.0113500515 0.023043528 0.02781208 0.010051906 0.028810691
0.022761477 0.02150208 0.0154241705 0.02682989 0.04001432 0.037971232 0.027243786 0.007470895
0.02857029 0.023582136 0.012284388 0.019673208 0.040156882 0.034487948 0.033971395 0.017347157
0.034053862 0.01457809 0.035994273 0.024019556 0.017944358 0.007568605 0.008899684 -0.042213097
0.028798107 0.015600115 0.034839563 0.024134444 0.020549696 0.017878652 0.03418712 0.036238603
0.0223831 0.014416505 0.030187203 0.021693835 0.025707891 0.013064255 0.025423689 0.016098697
0.017950032 0.016860027 0.03710861 0.031396285 -0.035354894 0.011447541 0.034556117 0.031236984
0.039073687 0.036812924 0.023486609 0.013251597 0.038024135 0.032870077 0.01731271 -0.016947912
0.02937189 0.029789457 0.024531236 -0.00020671441 0.013987688 0.02352462 0.020526819 0.021206243
-0.003458645 0.018669542 0.022819603 0.028548371 0.009687167 0.030690601 0.018552005 0.03347321
0.015572039 0.027305415 0.0022321742 0.01260726 0.021704497 0.04032421 0.015062564 0.03687206
0.003995869 0.020948866 0.022760848 0.03636076 0.025483718 0.028369268 0.021750689 0.039081782
0.017079892 0.03978205 0.015005222 0.0315594 0.009748702 0.036914323 0.009441694 0.013467936
0.013319488 0.037025273 0.021923596 0.024432264 0.022703804 0.0033845252 0.03356935 0.016774546
0.03309506 0.014913347 0.013307574 0.021200836 0.030505326 0.029590718 0.033705167 0.026884917
0.02387448 0.03316156 0.03429778 0.032842126 0.041526344 0.032570872 0.007915562 0.01589174
00000000: 33cf 183d d3fa de3c 9543 773c 8819 333c
00000010: ccd1 813c 3063 d83c a04e cf3c ac6b 9e3c
00000020: 0f36 da3c 731e d63b 4e1e e53c 8b0c ce3c
00000030: 5168 193d 45e8 b23c 4d63 a13c e691 113d
00000040: 145a ea3c a8c3 623b c5b5 183d 1571 303c
00000050: 1df2 f13c d238 273d 6a5c 1f3d 4648 a03c
00000060: 5f53 023d c0f3 8c3c 94c0 8d3c 7cc3 eb3c
00000070: 655a c93c f85d 9c3c 0f98 4c3c 0e22 173d
00000080: 6bb9 903b bc1a 863c c8ac c33c 3166 1d3d
00000090: 2018 193d 8635 a23c 23ad ef3c 581d 853c
000000a0: fe80 1a3c d5ac 093d aabe a23c 1b9f 993c
000000b0: 537d 0a3d b68e 9b3c 83b7 e73c bafc 133d
000000c0: 8c59 ba3c 082e c53c 8bcc 1d3d a40a 063d
000000d0: 6157 2e3c bb09 e03c c8e4 143d 9946 273d
000000e0: ccba 8f3c aab6 27bf d0de 113d 3f5a c53c
000000f0: 8e4f 1e3c b36d 1e3d 8be6 883c 5617 b73c
00000100: bc10 0bbc 0af0 eb3c ef67 353c ae0e 9bbb
00000110: 2ab4 ed3c 3233 0b3d 541b 013d e150 163d
00000120: 6d68 d13c 9f9e e73c c1c9 ff3c 4212 093d
00000130: 3407 cf3c 9191 663c 7d3f a43c 4306 bf3c
00000140: e9ab 153d f4ce b03c cb29 dd3c ac69 c63c
00000150: 1c29 ad3c 590a 0a3d 5dc9 d53c 89ef 2d3d
00000160: d372 c13c 9dea 0f3d 5bb2 533c b574 2a3d
00000170: a43a 1e3b c0a6 f13c 95ba b73c f7cd fc3c
00000180: 40e8 9c3c 1918 343b 561d 873c 49b1 923c
00000190: d37b 873c 9a13 4a3c 66ca 893c b041 e63c
000001a0: 0336 0c3d 207d 01bd f270 9f3c 1356 b83c
000001b0: afdb 073d e0b0 af3c 146e a53b 4857 e83c
000001c0: 1f75 7d3c 8431 073d f644 d23c 9735 983c
000001d0: 1c86 7a3c c6d9 9d3c efb4 f33c dc70 183c
000001e0: a471 b43c c32e 1a3c c513 d43c 4b12 e23c
000001f0: 87ea c33c 58db 7b3c aa7d 0e3d 1676 c73c
00000200: 6705 093d 5bf0 b13c ac87 233d 91f5 393c
00000210: c8c5 bc3c 29d6 e33c c0b0 243c 6604 ec3c
00000220: 4776 ba3c 2125 b03c a9b5 7c3c 5cca db3c
00000230: 0ee6 233d b987 1b3d 5c2e df3c 69ce f43b
00000240: 3e0c ea3c 532f c13c 7544 493c b529 a13c
00000250: 8b7b 243d 3c43 0d3d 9725 0b3d a01b 8e3c
00000260: 107c 0b3d f1d8 6e3c bb6e 133d a9c4 c43c
00000270: 0c00 933c 0f02 f83b fbcf 113c a4e7 2cbd
00000280: 02ea eb3c a097 7f3c eeb3 0e3d 99b5 c53c
00000290: d657 a83c 4076 923c cb07 0c3d ee6e 143d
000002a0: c35c b73c 3433 6c3c 274b f73c 45b7 b13c
000002b0: 5b99 d23c 750b 563c 5745 d03c 6ae1 833c
000002c0: f20b 933c 0a1e 8a3c 33ff 173d 6499 003d
000002d0: 4bd0 10bd 788e 3b3c b78a 0d3d b4e4 ff3c
000002e0: bb0b 203d 26c9 163d fd66 c03c 3a1d 593c
000002f0: 32bf 1b3d c6a2 063d 62d3 8d3c 59d6 8abc
00000300: 519d f03c 0509 f43c bbf5 c83c 7ac1 58b9
00000310: 9e2c 653c b4b6 c03c dc27 a83c b7b8 ad3c
00000320: 6faa 62bb def0 983c 2df0 ba3c 46de e93c
00000330: ecb6 1e3c db6a fb3c 60fa 973c 341b 093d
00000340: de21 7f3c 9baf df3c ab49 123b ae8e 4e3c
00000350: a1cd b13c 002b 253d f9c8 763c 2807 173d
00000360: c7ef 823b f59c ab3c f574 ba3c 05ef 143d
00000370: 3bc3 d03c ab66 e83c 802e b23c 3814 203d
00000380: 21eb 8b3c 81f2 223d 76d8 753c 6e44 013d
00000390: 05b9 1f3c 7933 173d 56b1 1a3c 9ea8 5c3c
000003a0: fb39 5a3c d0a7 173d 1d99 b33c 2c26 c83c
000003b0: 54fd b93c e9ce 5d3b 0480 093d c66a 893c
000003c0: b08e 073d 1c57 743c 0308 5a3c 60ad ad3c
000003d0: 4ee6 f93c 3c68 f23c 6e0e 0a3d c23d dc3c
000003e0: 6a94 c33c 6ad4 073d d47b 0c3d 7785 063d
000003f0: 8717 2a3d 0969 053d 46b0 013c 652f 823c
