RL code/models/checkpoint_episode_680000.pth (torch, 801255 bytes, 40 tensors)

net.0.weight f4 [256, 22]
00000000: badb f53c 258e cfbc 572c 893d 9c3d 29be
00000010: 8cbd ad3d 5676 cdbd 57ce d9bb 6ff7 dcbd
00000020: 5295 95bc b66a b0bd da74 febb ad1a 62bd
00000030: 7cdd 953d 6bce 6fbe 51e4 823d 09e7 61bd
00000040: 69a7 d6bc 1485 33bd 5295 953c b66a b03d
00000050: badb f53c 258e cfbc 42e8 15bd 33c8 9cbc
00000060: fd80 1bbc 8ec3 a5bd 4516 f5bb 29fc c4bc
00000070: db96 8f3d 75df cabd 3923 b53d ebb7 a63d
00000080: 4d49 26be 60eb 00be 9d38 2d3d 01d1 35bd
00000090: 24dc 6ebd 68c2 58bd f2d0 6b3c 6675 fcbd
000000a0: 3923 b5bd ebb7 a6bd 42e8 15bd 33c8 9cbc
000000b0: f1db 1b3e 1e96 053e 7984 4e3e af77 2e3e
000000c0: c3e7 2fbe 0ef2 20be 985c 32be 70d0 27be
000000d0: 050b b9be c661 92be dd7e 8dbe f4b8 82be
000000e0: d846 21be 1554 15be 9b98 3a3e f9aa 233e
000000f0: e8e7 3b3e 7452 1f3e 050b b93e c661 923e
00000100: e6d6 1b3e 0a90 053e ea1b c5bd 4621 843d
00000110: 8f0e c3bd 3aaa d33d e152 3ebd e7b9 ef3c
00000120: b679 c6bc d534 70bc 1155 0fbd afed 3cbd
00000130: f5c6 4c3e 2ead be3d be8d a6bd 0ea2 cf3d
00000140: 49fb 81bd fe2a 073d 3e6c 32bd 129a d8bc
00000150: 1155 0f3d afed 3c3d ea1b c5bd 4621 843d
00000160: 04b1 2c3d c295 583d f17b eebc b6ad 1e3e
00000170: e07c 92bc d02f 813b 989e ce3c 9265 de3d
00000180: 3081 cbbb 7322 0cbd 5a89 403d e6bb c03c
00000190: 3b33 eebc a8a2 073e 4a97 33bc 8de4 c53c
000001a0: 98f3 e53c 7223 023e 3081 cb3b 7322 0c3d
000001b0: 04b1 2c3d c295 583d 754e 2b3c 6974 31bd
000001c0: f931 143d 4690 27be 61d0 d7bc 3699 843d
000001d0: 9c4e b5bc 33e8 4d3b fffb b9bc 1459 ab3d
000001e0: 303a e83c f3d2 2a3d 3932 073d 5c10 dcbd
000001f0: f45c 9ebc 885f 3e3c 1651 62bc dcda 4abd
00000200: fffb b93c 1459 abbd 754e 2b3c 6974 31bd
00000210: ae0f 84bd b1af 6fbc 58f5 7ebe 97ae 98bb
00000220: 3f17 773d 086c 19bc b91e 243d 9589 a23c
00000230: 3365 043e 1dc4 0a3c ed43 043d 3d47 0b3d
00000240: 1490 2cbe 24a0 2e3a 5911 dfbc 22b9 3bbc
00000250: dd82 a0bd 1908 083d 3365 04be 1dc4 0abc
00000260: ae0f 84bd b1af 6fbc 774e 113b f0b8 b13d
00000270: 6063 6f3d d36c 2ebe 2ef6 adbc 79a4 903c
00000280: d0ce ae3d d738 71bd b4d8 783d 330c ad3d
00000290: d8b4 7cbd 121b 313d 7b63 cc3d 72ba 0dbe
000002a0: 78e2 77bd a7b5 96ba 0b91 4b3d a97b bcbd
000002b0: b4d8 78bd 330c adbd 774e 113b f0b8 b13d
000002c0: 4dc9 103d 3c61 dd3c 795b ae3c bb09 0b3e
000002d0: 38da 93bc a891 d03c 40ae 9b3d 938e de3b
000002e0: cb99 dc3d 8851 c2bd bc9f 183d b096 f6bd
000002f0: afc4 0f3e fc1e 9a3d 62ae 01be 9804 9f3d
00000300: baf8 0fbd 24ad 7e3d cb99 dcbd 8851 c23d
00000310: 4dc9 103d 3c61 dd3c 3571 ccba 018d d43c
00000320: cc76 bebd a7ca bbbd d4fb 96ba cee1 a5ba
00000330: 1290 06bc 5a8e 1fbe 549b 953c ea54 fabc
00000340: c8f4 143d 4bcf 543a 5c25 ffbd 491d d4bd
00000350: 424d cb3c 5a64 d13b cb5c 7b3c 3a02 28be
00000360: 549b 95bc ea54 fa3c 3571 ccba 018d d43c
00000370: 2079 58bc 662b 8bbc ed5e 4d3e 6fdc e0bd
00000380: 29ad 323d fa27 153d 471c e93d c7fe acbc
00000390: d0a8 6f3d e0aa 4e3c 62c6 30bd f05f 203d
000003a0: 9214 5a3e ba2b c4bd c9a0 443d 600d c73c
000003b0: 936f ed3d 8dba 12bd d0a8 6fbd e0aa 4ebc
000003c0: 2079 58bc 662b 8bbc 46c3 6e3d 3ee6 813d
000003d0: 9b79 22be 9d1e bd3c ab66 79bd 81eb 843c
000003e0: 3095 8ebc 5f2b e2bb 9283 d7bb 6723 c33c
000003f0: 4f05 243e bd39 2cbb 31dd 37be b993 4e3d
0.030012 -0.025336334 0.0669791 -0.16527408 0.08483419 -0.100323364 -0.006646912 -0.10789382
-0.018259678 -0.086141035 -0.0077653946 -0.05520122 0.073176354 -0.23418586 0.06391204 -0.055151973
-0.026202874 -0.043828085 0.018259678 0.086141035 0.030012 -0.025336334 -0.03659845 -0.019138431
-0.009491202 -0.0809394 -0.0074794614 -0.02404602 0.07011195 -0.09905902 0.08844609 0.08140548
-0.162389 -0.12589788 0.04229032 -0.044388775 -0.05831541 -0.052919775 0.014393078 -0.123270795
-0.08844609 -0.08140548 -0.03659845 -0.019138431 0.1522062 0.13045546 0.20167722 0.17037843
-0.17178254 -0.15717337 -0.17418134 -0.16388106 -0.3614122 -0.2859022 -0.27635852 -0.25531733
-0.15749681 -0.14582856 0.18222277 0.1598319 0.18350184 0.15558797 0.3614122 0.2859022
0.15218696 0.13043228 -0.09624465 0.06451659 -0.09524261 0.103352025 -0.04646576 0.02926345
-0.024227958 -0.014661034 -0.034993235 -0.04612511 0.19997771 0.09310375 -0.08132504 0.10138331
-0.06346757 0.032999985 -0.04356026 -0.026440654 0.034993235 0.04612511 -0.09624465 0.06451659
0.042161003 0.052877195 -0.029111834 0.15495953 -0.01788181 0.0039424673 0.025222108 0.10859217
-0.0062104687 -0.03421254 0.04700599 0.023527097 -0.029077163 0.13245642 -0.010961363 0.024156833
0.028070256 0.12708834 0.0062104687 0.03421254 0.042161003 0.052877195 0.010455717 -0.043323908
0.03618047 -0.1636363 -0.02634448 0.06474535 -0.02213221 0.003141892 -0.022703169 0.083666
0.028348058 0.041705083 0.03300688 -0.10745308 -0.019331433 0.011619456 -0.013813278 -0.049525127
0.022703169 -0.083666 0.010455717 -0.043323908 -0.06448303 -0.01462929 -0.24898279 -0.0046594846
0.060324904 -0.009364136 0.040068362 0.019840995 0.1292923 0.008469609 0.03229134 0.034003485
-0.16851836 0.0006661436 -0.027229952 -0.011457713 -0.0783746 0.033210848 -0.1292923 -0.008469609
-0.06448303 -0.01462929 0.0022172013 0.08677852 0.05844438 -0.170337 -0.021235552 0.017656552
0.0853554 -0.058892097 0.06075354 0.084495924 -0.061695904 0.043238707 0.09979912 -0.13840654
-0.06051871 -0.0011498228 0.04969887 -0.09203274 -0.06075354 -0.084495924 0.0022172013 0.08677852
0.035348225 0.027023904 0.021283852 0.1357793 -0.01804839 0.02546008 0.07601595 0.0067918985
0.10771521 -0.09488207 0.03726171 -0.1204046 0.14039873 0.07525441 -0.12664178 0.07764548
-0.035149314 0.06217684 -0.10771521 0.09488207 0.035348225 0.027023904 -0.0015597703 0.025946142
-0.093000025 -0.09169512 -0.0011519142 -0.0012655796 -0.00821306 -0.15581647 0.018262543 -0.030558068
0.036366254 0.0008118047 -0.124582976 -0.10357148 0.024817113 0.0063901367 0.015341948 -0.164071
-0.018262543 0.030558068 -0.0015597703 0.025946142 -0.013212472 -0.016988467 0.20055743 -0.10979544
0.04362217 0.036415078 0.113823466 -0.021117581 0.0585106 0.012613982 -0.043157943 0.039153993
0.2129691 -0.09578653 0.0480049 0.02429837 0.11593547 -0.03582244 -0.0585106 -0.012613982
-0.013212472 -0.016988467 0.058291696 0.06342743 -0.15866701 0.023085887 -0.060888927 0.016225578
-0.017405123 -0.006902143 -0.0065769637 0.023820592 0.1601765 -0.0026279532 -0.17955472 0.050433848

net.0.bias f4 [256]
00000000: 0e33 99be 981e 80be b721 20be 95ac 94be
00000010: fb4c 7abe 7fec bdbe 8cb5 16bf 890e 92be
00000020: 310a 85be 8270 9fbe 5302 76be 0a75 6dbe
00000030: 8d66 91be 7f70 03bf 1710 8fbe c373 80be
00000040: 8918 49be 6148 fcbe a14e 91be dce7 45be
00000050: dcb1 9dbe 1155 8bbe 2629 953d d1b9 6abe
00000060: 7d51 4fbe 3c7f 46be 904a 7fbe d870 62be
00000070: 2859 8dbe cab5 573e 2f60 54be 4296 93be
00000080: d856 b3be 772d 83be af60 10bf a2d8 c4be
00000090: d631 ddbe a6a0 95be 5ab0 dbbc 4e2a 81be
000000a0: b830 9bbd 97e6 58be 57f3 1bbf 43aa 68be
000000b0: 6708 66be 0dfb 94be 32bc 99be 7455 85be
000000c0: 9e33 50be c462 f6bd 3b29 6bbe b6c8 7ebe
000000d0: d48e 7fbe 7203 e0bc 599c 4cbe de01 9bbe
000000e0: 49e1 6dbe 5900 7bbe 6ed1 36be 6595 b8be
000000f0: edf9 a5be 5d85 70be 6aec 70be cf75 45be
00000100: 2bcf 89be 88dd 8a3d 3b8b 9ebe 9e29 8dbe
00000110: 002e 2bbe 4fba 8fbe 4731 58be 9a8d 8cbe
00000120: 62aa a6be 58c5 8bbe a2c2 8ebe 108b 88be
00000130: a3a2 93be 7834 b3be 61a4 adbe 86c0 82be
00000140: 26d2 7cbe 1afe 56be 86e3 9bbe c4ee 42be
00000150: 5918 a3be 0a47 94be 4ecc 8abe 9d7d 22bf
00000160: 41fe 6fbe 859e 88be 87b4 9abe a732 88be
00000170: 4b86 80be 11be 11bf 2831 8fbe b7e6 6cbe
00000180: 4fdd 7cbe 493a 513e 7bca 99be a807 79be
00000190: bdfe 87be d95b 72be f61c 96be 1291 15bf
000001a0: 985a 9cbe bcc8 84be aa2e 4fbe 8697 a2be
000001b0: 6aa1 5dbe 13e6 88be 116a 8bbe 6d82 03be
000001c0: b1f7 9fbe a186 f4be a7f1 2fbe 68b8 873d
000001d0: 3a8e 77be 0cc0 82be 0a50 4abe 2b9d 4cbe
000001e0: 222e acbe 8f3c 80be 8959 85be 5eea 7ebe
000001f0: 75cb 82be 5ec9 573e caf6 7cbe 854a 03bf
00000200: 81e5 76be d0ab 97be 0456 65be 6a08 aabe
00000210: 5631 79be 8e82 8fbe b9a8 7bbe fd2b 85be
00000220: c419 4abe 35c6 34be 64a7 26be 84d2 8bbe
00000230: 5acc 52be 563e 6dbe 4fb1 f2bd 9e68 4dbd
00000240: 143a 563e d2a0 6cbe 5d40 dbbd e3c3 7bbe
00000250: f804 4fbe 5507 79be b5d9 8dbe 22f9 90be
00000260: b60c 8fbe f0a9 8cbe fd05 76be e130 5fbe
00000270: a606 8abe fae7 cabd 9d1b e1bd 1f6c 81be
00000280: 28d4 97be 5514 82be 0284 84be f36c 8dbe
00000290: de0f 7ebe c5ff 46be e5fc 523d d88b a8be
000002a0: 94fc 9fbe 22e5 86b7 716f 94be f690 bdbe
000002b0: 12a3 88be 4d77 80be c3b2 72be 08f9 4abe
000002c0: 6a51 23be 2a41 8ebe 4dd8 9dbe 5c8f 37b8
000002d0: 1066 35be cb7e be3d 4b47 b4be 66e9 7fbe
000002e0: e486 85be 23c7 9fbe 19f4 95be 3b3f 9bbe
000002f0: b8b4 9bbe 608b 64be 6755 8cbe 152c 8bbe
00000300: 89f1 b7be 255b 17bf 7104 65be ae65 543e
00000310: e561 1fbe 5d9e 9fbe e2c9 b6be 7ba5 34be
00000320: c4bf 87be 9ffa 96be b9f5 99be 3c58 81be
00000330: 3578 0cbf f318 8fbe b7df 8cbe 2a3f 45be
00000340: aaf1 d0be e231 6cbe 303f 533e c308 5dbe
00000350: 0e8d 21bf ae93 82be 20fa 5ebe bf13 85be
00000360: ecbb 85be 3d21 00bf 1562 41be 6a90 85be
00000370: 923a 81be 67b0 83be d0ce 15bf 1d63 25be
00000380: 07f6 8abe fdf8 82be 06b8 2fbe 6f00 76be
00000390: 7c65 99be b51b 8bbe a56c 69be 3928 74be
000003a0: d13b c8be a990 6ebe 0658 b6be d1d5 98be
000003b0: 6bc0 8dbe e5f8 90be 0bfc 86be e18b 86be
000003c0: 4f43 91be 01c0 91be 5bd4 533e 2df7 6ebe
000003d0: d1bd a0be 36e7 94be 8ee0 3abe 9daf 7abe
000003e0: 1adf 89be de6a efbc 32a2 10bf ec69 49be
000003f0: 697e 8bbe bf80 a8be 9b60 20bf 44e2 8abd
-0.29921764 -0.2502334 -0.15637861 -0.2903792 -0.24443428 -0.37094495 -0.5887077 -0.28526714
-0.25984338 -0.31140524 -0.24024324 -0.23189178 -0.28398553 -0.5134353 -0.27941963 -0.2508832
-0.19638266 -0.4927397 -0.28380302 -0.19326729 -0.30799758 -0.27213338 0.07283239 -0.22922446
-0.20245929 -0.19384474 -0.24930787 -0.22113359 -0.27607083 0.21065441 -0.20739816 -0.28825575
-0.35027194 -0.25620624 -0.5639753 -0.38446528 -0.43202084 -0.29224128 -0.02681749 -0.25227588
-0.07577652 -0.21181713 -0.6091818 -0.227212 -0.22464143 -0.29097787 -0.30026394 -0.26041758
-0.2033219 -0.12030557 -0.22964947 -0.24881253 -0.24956828 -0.027345393 -0.19981517 -0.30274862
-0.2323047 -0.24511851 -0.17853329 -0.3605148 -0.3241724 -0.23488374 -0.23527685 -0.19283222
-0.2691587 0.06780535 -0.309656 -0.27570814 -0.16716766 -0.2807183 -0.21112548 -0.27451783
-0.32551867 -0.27299 -0.27882868 -0.26668596 -0.2883502 -0.35000968 -0.33914474 -0.2553751
-0.2468954 -0.2099537 -0.30447024 -0.19036394 -0.31854513 -0.28960449 -0.27108997 -0.6347292
-0.23436834 -0.2668344 -0.30215856 -0.26601145 -0.25102457 -0.56930643 -0.2796719 -0.23134886
-0.24693798 0.2043239 -0.30037293 -0.24319327 -0.26561537 -0.2366785 -0.2931897 -0.58424485
-0.30537868 -0.25934398 -0.20232645 -0.31756228 -0.21643606 -0.26738033 -0.2722936 -0.12842722
-0.3124366 -0.47758964 -0.17182027 0.066269696 -0.24175349 -0.25537145 -0.19757095 -0.1998183
-0.33628947 -0.25046203 -0.26044872 -0.24894091 -0.2554585 0.21072909 -0.24703518 -0.5128558
-0.24110986 -0.2962327 -0.22396094 -0.33209544 -0.24335226 -0.28029293 -0.24576081 -0.26010123
-0.19736391 -0.17653735 -0.16274792 -0.27309048 -0.20585766 -0.2316831 -0.11850225 -0.0501486
0.20920593 -0.23108223 -0.10705636 -0.24586444 -0.20216739 -0.24319203 -0.2770516 -0.28315073
-0.27939385 -0.27473402 -0.24025722 -0.2179599 -0.26958197 -0.09907527 -0.10991595 -0.25277802
-0.2965405 -0.25406137 -0.25881964 -0.27622184 -0.2481074 -0.19433506 0.05151071 -0.32919192
-0.3124739 -1.6080743e-05 -0.28991273 -0.3702466 -0.26686913 -0.2509102 -0.23701005 -0.1982156
-0.15949026 -0.2778409 -0.30829087 -4.3764114e-05 -0.17714715 0.093015276 -0.35210642 -0.24991378
-0.26079476 -0.31206617 -0.29287794 -0.3032168 -0.30411315 -0.22318792 -0.27408907 -0.2718207
-0.35926464 -0.5912345 -0.22364976 0.20741913 -0.15564688 -0.3117551 -0.357009 -0.17641251
-0.26513493 -0.29488084 -0.30070284 -0.2526263 -0.5487092 -0.27948722 -0.2751443 -0.19262376
-0.40809375 -0.23065904 0.20629573 -0.21585374 -0.6310586 -0.25503296 -0.21775103 -0.25991628
-0.26119936 -0.5005072 -0.18885072 -0.26086742 -0.25239998 -0.25720522 -0.58518696 -0.1615109
-0.2714083 -0.25580588 -0.17160043 -0.24023603 -0.2996024 -0.27169576 -0.22795351 -0.23843469
-0.39108136 -0.23297371 -0.35614032 -0.2985063 -0.27685866 -0.2831489 -0.2636417 -0.26278594
-0.28371665 -0.284668 0.20686476 -0.23336478 -0.31394818 -0.2908265 -0.18249723 -0.24481054
-0.26928025 -0.029225763 -0.5649749 -0.19669312 -0.2724488 -0.32910725 -0.6264741 -0.06781438

net.2.weight f4 [256]
00000000: 1661 8a3e 0845 d83d 4d12 683e 0771 233e
00000010: 7cb4 043e b523 1a3e 2a93 0d3f bf58 2f3e
00000020: 3acf 2b3e 4846 553e 1e85 1d3e 01d9 263e
00000030: 5534 313e 7c26 853e 63dc 473e a162 723e
00000040: 91c8 163e 88d4 8b3e 9684 2e3e c85e 373e
00000050: a94b 563e 0a25 1d3e 7c5b 1c3d 2903 0d3e
00000060: f3ad 5a3e f1ac 533e 264c 973d 54ed 293e
00000070: ec81 4d3e ea00 243e 38f4 ec3d 4cf6 2c3e
00000080: d743 363e bc6f 383e f76f 813e fe02 623e
00000090: 0b0c 2b3e cab8 7c3e 8efb 083f 815a a63d
000000a0: 26ae 073e 2dc3 783e f66a 033f 9789 1e3e
000000b0: 0f66 1e3e 9d9b 333e cc05 273e 9419 f43d
000000c0: d63b 663e 347f 5c3d 7fd6 b13d 1c76 643e
000000d0: 7c50 113e 4617 103f 2bcd 573e 58dc 133e
000000e0: b2a6 3d3e 4f94 0d3e 1f7c 183e ca29 ef3d
000000f0: adf4 f33d bb6a de3d f537 323e 3c20 623e
00000100: 64ce 783e eebf 023d 189e 813e 071e 693e
00000110: 1412 813e 41be 3e3e bc6d 6d3e de02 ec3d
00000120: 3190 313e af98 063e 0469 223e 60c9 3a3e
00000130: bf2e 373e 519e 303e d01f 783e fc00 4d3e
00000140: 1cae 223e dd61 303e b91d 213e 44a3 613e
00000150: eb79 753e 1fd8 6b3e 7937 e23d 1523 ad3e
00000160: c677 483e 7b24 0a3e 0fa8 023e 7542 973e
00000170: 286b 3e3e cfd2 1c3f b661 ee3d 1743 d83d
00000180: 9537 163e b052 203e 82c8 e53d 7658 273e
00000190: 5617 0b3e 2774 623e 941d 4f3e d47e 183f
000001a0: f44b 043e c03c 123e edb0 043e 5ec6 013e
000001b0: dbae 423e 356f 1e3e f465 923d 3cf5 973d
000001c0: a332 8b3e cbe0 853e 1191 1b3e a479 243d
000001d0: d5b3 283e b166 2d3e b101 a13d 44aa d53d
000001e0: 1f06 9a3e 9ee6 083e 6657 5b3e 13ad fb3d
000001f0: a964 583e 2a23 253e f347 873d 1e81 ad3e
00000200: b8d9 1f3e 9839 1c3e 3cce bf3d b191 013e
00000210: af00 ba3d 8f8f 5a3e 3ae8 103e a997 653e
00000220: c7cd 603e d46a dd3d ae2f 533d af9e 133e
00000230: 02a2 743e 680b 263e c885 2f3e 5529 0b3e
00000240: 9cc5 243e 4342 a63d dcc0 cb3d 7a92 393e
00000250: a6fc 573e c728 083e c4af 2e3e 5073 463e
00000260: ee8e 043e 4a60 103e b55f 0d3e b06f 753e
00000270: 565d 393e fe17 213e 0b32 113e 23e2 573e
00000280: 9872 663e c75f 5a3e 3d25 113e 8d41 5e3e
00000290: bad2 3b3e 3487 a53d ed45 1d3d ebe2 873e
000002a0: 6093 4f3e 7f8e 0c3f a10d 113e 91a7 933e
000002b0: 50ae 553e 1124 583e 2a7d 163e df3b 683e
000002c0: 3fde a83d aab2 0b3e 7045 753e 66e1 003f
000002d0: 579c 573e 2823 f03c 7793 7a3e 904a ec3d
000002e0: 6eda ad3d 1c7a 063e 33b5 3d3e 30f9 863e
000002f0: ad2b 353e 53b3 483e 8998 3a3e 973e 143e
00000300: 3251 5d3e a694 8e3e c00d db3d ff36 223e
00000310: 1b23 c23d 1877 6cbe 67b6 6f3e a48e 4a3e
00000320: 4c6a 343e 7410 703e f75c ee3d 75e4 163e
00000330: 07cb 123f e13e 4a3e 3faf 4c3e e0db fa3d
00000340: 8419 763e 0888 243e 518a 203e 75b0 ee3d
00000350: 8c71 a93e d549 193e 516b 2a3e 42e7 1c3e
00000360: 22bf 113e 1447 083f b849 193e 47ef 1f3e
00000370: 7c80 023e ab41 243e a944 bb3e 2290 133e
00000380: 0aef d83d 2415 2d3e 2527 963d 8b8f 203e
00000390: e4c1 173e e84b 4c3e d850 533e 6c29 2f3e
000003a0: fefe 273e a51a 013e 5bec 0e3e 9de3 4d3e
000003b0: 7a3b 133e 3986 243e 9696 1a3e d95f 413e
000003c0: 3fa6 a23d b951 5c3e c7da 243e 866c 2b3e
000003d0: 98e3 5a3e 819d 7c3e 901e 573d d43a 0f3e
000003e0: f820 333e b3b9 0f3e 3197 883e ec93 003e
000003f0: 9b81 503e 37e7 683e 229b 923e 9ab2 2f3e
0.27027196 0.10560042 0.22663231 0.15961085 0.12959474 0.15052684 0.5530268 0.17123698
0.1677827 0.20827591 0.15382811 0.16293718 0.1730512 0.26005924 0.19517665 0.23670436
0.14724948 0.27310586 0.17042765 0.1790725 0.209273 0.1534616 0.038173184 0.13770737
0.21355419 0.2067144 0.07387571 0.1659444 0.20069093 0.16015974 0.115700185 0.1689083
0.17799316 0.18011373 0.25280735 0.22071454 0.16703813 0.24679866 0.5350884 0.08122731
0.13250026 0.24293204 0.51335084 0.15482174 0.1546862 0.1753983 0.16310805 0.11918941
0.22483763 0.053832248 0.0868349 0.2231068 0.14190859 0.5628551 0.21074359 0.14439523
0.1852062 0.13826106 0.14891098 0.116778925 0.119119026 0.10860201 0.17404158 0.22082609
0.24297482 0.03192132 0.25315928 0.22765361 0.25209105 0.18627264 0.23186392 0.115239844
0.17340161 0.13144182 0.15860373 0.18240881 0.17888926 0.17247893 0.24230886 0.20019907
0.1588673 0.17224832 0.15733995 0.22034937 0.2397229 0.23031662 0.11045737 0.33815828
0.1957694 0.13490479 0.12759422 0.2954289 0.18595564 0.6125917 0.11639731 0.10559671
0.1466964 0.15656543 0.112198845 0.16342339 0.1358312 0.22114621 0.20226127 0.59568524
0.12919599 0.14280987 0.12958117 0.12673327 0.19012015 0.1547211 0.07148352 0.074198216
0.2718707 0.26148066 0.15192057 0.040155068 0.1647485 0.16933705 0.07861651 0.10432866
0.30082795 0.13369223 0.21420059 0.12288871 0.21132149 0.16126695 0.0660552 0.3388757
0.15610397 0.15256345 0.09365508 0.12653233 0.09082162 0.21343826 0.14151087 0.22421135
0.21953498 0.108113915 0.051559143 0.14416002 0.23889926 0.16215289 0.17140877 0.13589986
0.16091007 0.08118107 0.099488944 0.18122283 0.21092471 0.13296805 0.17059237 0.19379926
0.12945148 0.14099231 0.1380604 0.23968387 0.18102011 0.15731809 0.14179246 0.21082358
0.22504652 0.21325599 0.14174362 0.21704693 0.18342105 0.080824286 0.038396765 0.26540312
0.20271063 0.5490493 0.14165355 0.2883878 0.20867276 0.21107508 0.14696184 0.22679089
0.08245515 0.13642374 0.2395227 0.5034393 0.21055733 0.029313639 0.24470316 0.11537659
0.08488928 0.13132519 0.18526153 0.2636199 0.17692442 0.19599657 0.1822225 0.14477001
0.21613005 0.27847785 0.10695982 0.15841292 0.09479352 -0.23092306 0.23409425 0.19780976
0.17618674 0.23443776 0.116388254 0.14735587 0.57341045 0.19750549 0.19988726 0.12248969
0.24033171 0.16067517 0.15677764 0.1165475 0.33094442 0.14969571 0.166425 0.15322593
0.14233068 0.53233457 0.14969528 0.15618621 0.12744325 0.16040675 0.3657582 0.14410451
0.10592468 0.16902596 0.07331685 0.15679757 0.14820057 0.19950831 0.20636308 0.17105645
0.16405866 0.1260782 0.1395735 0.20106359 0.14378157 0.16066827 0.15096506 0.18884219
0.07941865 0.2151555 0.16099082 0.16740617 0.21375883 0.24669458 0.05251938 0.13987285
0.17493045 0.14035682 0.2667785 0.12556428 0.2036194 0.22744451 0.28633982 0.17157975

net.2.bias f4 [256]
00000000: 3fcc 913d c453 273c 3d1f d23c ac0a e73c
00000010: 564b e13c 936a 0b3d ce65 123e fb94 213d
00000020: 1545 e43c 8ac5 6d3d 04f7 f83c 01f3 353d
00000030: 07eb 333d 4831 743d f91b 403d 4f45 733d
00000040: b0cf bb3c b2eb 7c3d bf51 223d dad4 0c3d
00000050: bf24 423d 97f4 dc3c c586 8ebd 5d56 a83c
00000060: f475 233d 482c 163d e845 293c 14db e53c
00000070: c6ef 5b3d a073 08bf 84ea a83c a09f d13c
00000080: 6c2e 0f3d 0d3e 223d 97b3 593d de81 573d
00000090: e29d b13c f275 883d c8e0 1a3e 91a6 643c
000000a0: 7069 1f3c a678 363d 0af2 103e 3b8a 133d
000000b0: 0a03 c83c 95c3 283d d6b1 0f3d 4121 a23c
000000c0: 0d17 183d 7144 c3bc 4ad4 153c 5cc9 633d
000000d0: 1ed9 033d d8ea 203e cc92 e63c cab0 0e3d
000000e0: f962 413d 6ee7 b63c ac58 ca3c 48cb ee3c
000000f0: 1819 3c3c da33 1b3c d1e5 e43c 2b01 1f3d
00000100: 7ebb 5a3d 8d18 6abd 8489 6b3d 0319 773d
00000110: 3a1a 343d e9b3 6a3d df8b 243d e5b9 e63c
00000120: 05c8 0d3d 23cf 0a3d 9012 2d3d 9b72 193d
00000130: 72b1 1d3d 1758 c93c a316 783d 369b 4b3d
00000140: 876f eb3c f78f 3d3d 37f7 193d 07e7 243d
00000150: 5cf8 8b3d fee6 713d 4b85 b23c 570c a23d
00000160: 27a1 413d 9348 ce3c c819 703c 4801 a63d
00000170: 841f 323d 4b25 273e 2d6d 853c 42db 633c
00000180: 5e57 c53c bc13 04bf 05e3 763c 707a 043d
00000190: f8e9 db3c 6410 463d 172a 7e3d 0fa2 203e
000001a0: 005e 9a3c 3f59 043d 4ff4 0b3d 04e8 d93c
000001b0: 080c 153d c2ac 363d a875 d13b 2e26 36bb
000001c0: 6035 8d3d 303c 663d 42d3 c63c dc60 4cbd
000001d0: a662 663d aa17 273d 44b1 ab3b 002a 6c3c
000001e0: 0900 a73d a6d6 f73c abd9 893d 51b4 4a3c
000001f0: ce16 513d 1129 0dbf bfd5 113c b17b a13d
00000200: b646 f13c d618 123d 45c8 c23c 3d04 d6bb
00000210: 7d32 b83b ea53 273d a81c d23c c252 743d
00000220: 9588 f33c 018a b33c ed9f 6abc 2200 023d
00000230: 936e 323d d50e b53c c8e0 7f3c 20a8 e5ba
00000240: 9209 05bf 1a09 6ebb ef85 643b e88b 263d
00000250: cf0a 0f3d 3ea7 903c 4906 083d 668b 493d
00000260: 0efa 6c3c 6944 5b3c 6610 c53c 1ff1 173d
00000270: abc1 003d f3ed 023d ee8b 223c 631c 513d
00000280: 16bd 7a3d 0047 563d 6aad 373d 814a 3d3d
00000290: aa92 013d 0409 043c 6d0a 5cbd e148 943d
000002a0: ba85 473d e44a 223e 8bd2 433c 18aa 9d3d
000002b0: 7881 303d 1679 103d 1ed0 013d 9d9b 033d
000002c0: c2ae 373c 0ec6 213d e5ef 7b3d 0f51 153e
000002d0: 2c8f 243d c953 74bd d369 5d3d 6bff 073d
000002e0: ddfe 453c ac81 093d 82cc 373d 879a 863d
000002f0: 25fd 203d 330c 1e3d 3bed 4c3d 8de5 393d
00000300: 4a5d 6d3d 09af 7a3d 92b5 5e3c 8a60 05bf
00000310: b97a bb3b 21d7 73bd 76c5 8a3d 7688 d13c
00000320: 55db 3e3d 1b32 4c3d 28ef 943c 0fdf 113d
00000330: 3d5b 1c3e dd14 6a3d 2542 3e3d fce4 a03c
00000340: d85d 593d fabe 013d d420 05bf 0da1 b23c
00000350: da62 a13d 02cc fa3c 125b 093d 7b9c 213d
00000360: 34c2 c93c 1035 173e 5617 f63c bf90 0a3d
00000370: b4eb ad3c 3ba4 153d c85b bf3d fe85 da3c
00000380: effa 8b3c 1b10 2f3d 5461 563b cb57 173d
00000390: d2da 0d3d e4d8 3f3d 3d80 373d 4a95 233d
000003a0: cab9 b83c c5e5 773c 223e 9b3c 078a 563d
000003b0: 498b 1b3d 4932 f23c a5e2 183d 04f1 2a3d
000003c0: 9b56 903c 549a 6d3d 7845 03bf 6860 123d
000003d0: c9a5 713d dc00 6c3d e68b 293b f893 b43c
000003e0: a045 253d 95b4 12bc 707b 6c3d 2cd8 8a3c
000003f0: 3626 3c3d d041 4b3d b25c 8a3d 7663 913c
0.07119035 0.010212842 0.025649661 0.028203331 0.027501743 0.034037184 0.14296648 0.03944872
0.027864972 0.058049716 0.030391224 0.0444212 0.04392531 0.05961731 0.046901677 0.05939227
0.022926182 0.061748214 0.03962874 0.03438268 0.047398325 0.026972098 -0.06959299 0.020548994
0.03990741 0.036663324 0.010331608 0.028058566 0.053695463 -0.5330143 0.020619638 0.02558881
0.03495638 0.039609957 0.053149786 0.052614085 0.02168173 0.06663121 0.1512481 0.013955728
0.009729728 0.044548653 0.1415483 0.0360205 0.024415512 0.041202147 0.035081707 0.019791247
0.037131358 -0.023836346 0.009144852 0.055611953 0.03218948 0.15714586 0.02814617 0.034836568
0.04721353 0.022327151 0.024700485 0.029149666 0.011480592 0.009472812 0.027941616 0.038819473
0.053401463 -0.05715232 0.057504192 0.060326587 0.043970324 0.057300482 0.040172454 0.028164813
0.03461458 0.033888947 0.04225403 0.037462812 0.038499303 0.024578137 0.060568463 0.049708568
0.028739704 0.046279874 0.037589278 0.040259387 0.0683448 0.059058182 0.021792075 0.0791251
0.047272827 0.02518109 0.014654584 0.08105713 0.043487087 0.1632282 0.01628741 0.013907256
0.024089511 -0.5159261 0.015068774 0.032343328 0.026844963 0.048355475 0.06205186 0.1568682
0.01884365 0.032311674 0.034168538 0.026599891 0.036388427 0.04459835 0.0063921995 -0.0027793753
0.06894946 0.056209743 0.024270657 -0.04989706 0.056246422 0.040794052 0.0052396376 0.01441431
0.081543036 0.03025372 0.0673097 0.012372092 0.05104714 -0.5514079 0.008901059 0.078849204
0.029452663 0.035668217 0.023777137 -0.006531267 0.005621253 0.04085151 0.02564843 0.059649237
0.029728213 0.021916391 -0.014320356 0.031738408 0.043562483 0.022101799 0.015617557 -0.0017521419
-0.5196773 -0.0036321343 0.003486987 0.04066077 0.034922417 0.017657872 0.03320912 0.049205206
0.014463915 0.0133830095 0.024055671 0.037095185 0.031434696 0.031965207 0.009921057 0.051052462
0.061215483 0.052313805 0.044843115 0.04621363 0.03163401 0.00805879 -0.05372088 0.07240463
0.048711516 0.15848881 0.011952053 0.076984584 0.04309222 0.035271727 0.031692617 0.032130826
0.011211099 0.03949552 0.061508078 0.14581703 0.0401756 -0.059650216 0.054056 0.03320257
0.01208469 0.03357093 0.04487277 0.065724425 0.039303917 0.038585853 0.050030928 0.045384932
0.057950296 0.061202083 0.013593094 -0.5210043 0.005721417 -0.059531335 0.06775944 0.025577765
0.04659589 0.04985247 0.018180445 0.035613116 0.1526918 0.057148803 0.0464498 0.019640438
0.053068012 0.03167627 -0.52003217 0.02180531 0.078801826 0.030614857 0.033534117 0.039455872
0.024628736 0.14766335 0.030040424 0.033829447 0.021230556 0.036533576 0.09343678 0.02667522
0.017087428 0.04273997 0.003271182 0.03694896 0.03463251 0.046837702 0.044800032 0.039937295
0.022549529 0.015130465 0.018950526 0.052377727 0.03797463 0.029564993 0.03732552 0.041733757
0.017619422 0.058008507 -0.51277876 0.03573647 0.058995996 0.057618007 0.002587074 0.022043213
0.040349603 -0.008954187 0.057734907 0.016948782 0.04593488 0.04962331 0.067559615 0.017747622

net.4.weight f4 [256, 256]
00000000: 9a8a dbbb cb4c fab9 a381 3dbc 9910 013c
00000010: 8d30 d5bc 5b21 963b 00b3 e03a 942a 4d3d
00000020: 9a04 8c3c 5b6d 1cbb f0cb 8739 fa54 12bd
00000030: 13c8 e9bb c4fe 2c3b 6859 88bc 0f81 45bb
00000040: 156f 623d 8d5b 3c3b 3dd8 e2bc 2ad7 1339
00000050: 24e0 293c a98b 96b9 5d7a 85bb 0ce9 e8bb
00000060: 179c ebbb 69bb 2bbc cf32 4f3d 5c65 ccbb
00000070: 9301 a93c e790 2e3d 495f 613c 09fe 19bd
00000080: 2517 213c 8eb4 98bc c508 933d a97b 553c
00000090: fa62 3f3c 85ee 86bb 438d da3b 2adf 68bc
000000a0: 3b37 91bc 4e80 0fbc d2f2 903d 24d0 0abc
000000b0: 0fd8 b13c 9d57 85bc 3004 3f3d ad72 b4bc
000000c0: 39da b7bc d3d1 3ebd ddac e0bb 501c a23d
000000d0: e792 d6bb 5223 793a 6a74 89bc 5036 cbbb
000000e0: c180 533c 8b5c 35bd f2f4 d23c cc57 fd3a
000000f0: 6d95 1e3d e735 d7bb d0c9 06bd 5cdc 2dbb
00000100: e13e 4f3c 4076 1c3d 6e27 04bd ecdb a53b
00000110: 4927 16bb 189c d0bc 614f d3bc e819 6e3c
00000120: 5297 94bc 887c 553d 6723 8ebc 202f b7ba
00000130: 3e01 163d 8bdf c53c ac97 e73a 879d 103c
00000140: d935 91bc 84a5 963c 38b5 8039 4977 06bd
00000150: a1ff c4bb d38b dcbb 29bd 223c e01e 553d
00000160: 47f8 fd3c fa05 89bb 3076 92b9 56f8 09ba
00000170: ece8 513c 2ecf 1cbc 7375 0abc 1afe 003c
00000180: f6de 3b3c 0e7e a43c 3afc a5bb 3ffe ff3b
00000190: 355b 123c 336e b13b 6f88 dbbc 8290 aa3c
000001a0: 5224 d2bc 2dd1 91ba 79f3 93ba f384 003d
000001b0: 47f0 c3bc 5656 fb3b e8d6 d03a eddc d9bb
000001c0: c272 8a3c f891 693c b642 f53c 7b08 d33c
000001d0: cb26 96bb d114 84bb 2ab6 0c3d bd73 853c
000001e0: e362 023c 2c06 d6bc 8a5a de3b ca84 9ebc
000001f0: 7f67 6abb e10a 023d e871 843d fb6c 4c3d
00000200: dd50 03bc 80ba f5bc 1f71 05bc d34a f0bb
00000210: 4da6 283c 63b2 77bc b36e 1e3b 13ce 1fbc
00000220: 6857 02bd b7ac e83b 4bf1 583b 2c71 23bd
00000230: 6b75 db3c 61bf 7fbd bc4f e5bc 9f87 573c
00000240: 4b35 353d 3112 03bd a7d7 0a3d 6468 433c
00000250: 94c1 32bc fc5e 053d aded 62bc 410b 91bb
00000260: e6d6 123b 8e58 953c 060f 25bd 0708 5d3c
00000270: 8a29 55bc 4416 4b3d b6d4 eabc abbd 37bd
00000280: ac1e b3bb df92 10bc a366 9b3a 9ca7 edbc
00000290: 3df6 eebc a5cb 48bc a53e b1ba 5147 323c
000002a0: fa25 60ba a0e3 d7bb 2b8e 25bc 0fa9 2d3c
000002b0: 627f 3a3a 8961 043c 8cfd 5c3a 56eb dcbc
000002c0: 1d65 8dbc e6c4 023c 6178 343a d22f 1d3c
000002d0: 3ee4 66bd 0b34 3cbd 0e78 f7bc 108a 243c
000002e0: 076d 10bc 69c0 383c 64a1 15bc 28c9 9cbc
000002f0: be2f 523b 0375 76ba 6f5b 3aba 4f88 8b3b
00000300: b60a f8bc 2454 4a3c 0af7 17bc d4c7 58bb
00000310: 87bf 0fbd c335 29bd b7e8 b53c 934a 98bc
00000320: efec 6cbd 1e15 9dbc dd22 2b3d 03a9 623a
00000330: e47f 62b9 e35f 233c 3864 9bbc 95d9 95bc
00000340: c013 7a3b 6015 58bd 3a3a 4b3c a409 17bc
00000350: 781c baba 4118 663c d43d 2fbc 27a5 f5bb
00000360: 73d7 4abc 26d1 49bb b262 05bd ec38 07bd
00000370: d2ec bf3c 3536 88bc a96b 253c 38b3 a73c
00000380: 6af7 e839 b1ec 3e3a 37c9 3b3c 16c6 64bc
00000390: 0a34 063c b7de 84bc aba4 f13b e0b0 a73b
000003a0: 032d 063d f684 9f3c 48d5 af3c 9fd6 163b
000003b0: a7a5 0bbd 8516 08bd 0d86 253d 334d 96bc
000003c0: ba15 47bc ecee d03c 4085 833d bfc0 ca3b
000003d0: e6e1 2abd f298 c9ba 7e96 023d 2709 873b
000003e0: cbb6 e8bc 8623 b9bc d599 303c d727 5e3b
000003f0: 8dc2 223c 2a26 02bc 8887 863c 783f 84bc
-0.006699872 -0.0004774093 -0.011566552 0.007877492 -0.026024127 0.004581613 0.001714319 0.050089434
0.017092038 -0.0023868892 0.00025901152 -0.03572557 -0.0071344464 0.002639697 -0.016644195 -0.003013674
0.055281717 0.0028741092 -0.027691001 0.00014099167 0.010368381 -0.00028714284 -0.0040734247 -0.0071078595
-0.007190238 -0.010481694 0.050585564 -0.006237669 0.020630633 0.04261866 0.013755628 -0.037595782
0.009832178 -0.018640783 0.07179407 0.013029971 0.011681313 -0.004117789 0.0066696717 -0.014213363
-0.017726531 -0.008758618 0.07077564 -0.008472476 0.02170947 -0.016277129 0.046634853 -0.022027338
-0.022442924 -0.046586823 -0.0068565444 0.079155564 -0.006548274 0.00095038593 -0.016779143 -0.006201543
0.012909115 -0.04427771 0.025751565 0.0019328534 0.038716722 -0.006567705 -0.032907307 -0.002652905
0.012649269 0.03819871 -0.032264166 0.005061617 -0.00229116 -0.025465056 -0.025794687 0.014532544
-0.018138561 0.052120715 -0.017350866 -0.0013975836 0.03662228 0.024154445 0.0017669103 0.00882662
-0.017725872 0.01838947 0.0002454908 -0.032828603 -0.0060119187 -0.0067305355 0.009932795 0.052031398
0.031002177 -0.0041816207 -0.00027935347 -0.000526314 0.012811881 -0.00957088 -0.008450854 0.0078730825
0.011466732 0.020079639 -0.005065468 0.007812291 0.008932878 0.005414748 -0.026798455 0.02082086
-0.025652084 -0.0011124961 -0.001128777 0.03137679 -0.023918284 0.007670204 0.0015933188 -0.006648651
0.016900424 0.014255993 0.029939037 0.02576088 -0.004582261 -0.004030802 0.034353413 0.01629054
0.007958147 -0.02612599 0.0067856954 -0.019350428 -0.0035767255 0.031748656 0.064670384 0.04990862
-0.008014885 -0.029996157 -0.008144646 -0.0073331385 0.010293555 -0.015118214 0.0024174869 -0.009753722
-0.03182164 0.0071006673 0.0033102806 -0.03990285 0.026789388 -0.062438373 -0.027992122 0.013154893
0.044240277 -0.03199977 0.03389707 0.011926744 -0.01091041 0.032561287 -0.013850612 -0.0044263904
0.0022405921 0.018230703 -0.04029753 0.013490683 -0.013010392 0.04958178 -0.028665882 -0.044858616
-0.005466303 -0.008824079 0.001185615 -0.029010586 -0.02917015 -0.012255584 -0.0013522698 0.010881261
-0.0008550581 -0.0065884143 -0.010104696 0.010599389 0.00071143184 0.008079895 0.00084301154 -0.026967686
-0.017260129 0.007981515 0.0006884393 0.009593921 -0.056370012 -0.04594807 -0.030208614 0.010042682
-0.008815057 0.011276343 -0.009132717 -0.019138888 0.0032071914 -0.00094015914 -0.00071089616 0.0042581926
-0.030278545 0.012349162 -0.009275207 -0.0033078091 -0.035094764 -0.041311037 0.022205694 -0.018590247
-0.057843145 -0.019175109 0.041781295 0.00086464005 -0.00021600683 0.009971592 -0.018968686 -0.018292228
0.0038158745 -0.05275476 0.012404019 -0.009218607 -0.0014199158 0.0140438685 -0.010695893 -0.0074964943
-0.012380469 -0.0030794828 -0.032564826 -0.03301327 0.023428354 -0.01662741 0.010096469 0.0204712
0.00044434826 0.00072831946 0.011461548 -0.013963243 0.008191118 -0.01621948 0.0073743663 0.0051175207
0.03275777 0.01947258 0.021464005 0.0023016108 -0.034093525 -0.0332246 0.040411044 -0.018347358
-0.012151176 0.025504552 0.064219 0.006187528 -0.04171934 -0.0015380664 0.0318818 0.004120964
-0.028407475 -0.022599947 0.010778864 0.0033898258 0.00993408 -0.007943669 0.016422048 -0.016143546

net.4.bias f4 [256]
00000000: 056c 9abd 4a51 3bbd bd39 48bd a2a7 b1bd
00000010: 4539 0bbc e0de 84bc bb5d afbd 171c d3bd
00000020: 6b77 a9bd c5fd d9bd 44f5 9ebd cadb 9cbd
00000030: ca90 03bd 3539 a8ba 3349 9cbd 820c 1b3c
00000040: 45e7 78bd e15a 03be 103a e1bd 3b0c dcbd
00000050: 6fe2 5bbd 828c 32be 84de 55bd 180f 3bbe
00000060: caaa 21be b941 20bd 7e84 48bd 76e6 6dbd
00000070: 7b05 31bd 904e c0bd 19ad 8cbd 67c3 9abd
00000080: 94db 73bd 35c7 d6bd 62ea 56bd 33f1 90bd
00000090: 97a5 fcae 38e1 9cbd 6467 25bc 3814 95bd
000000a0: acad 16be f0ce 51bd 45dd e8bd 5c1d 99bd
000000b0: 2dc0 10bd d867 6cbe fa8f a8bd 7b30 d1bd
000000c0: 4b3c 4ebd cacd dabd b24b 28bd 4f7a f4bd
000000d0: 4875 56bd fbd7 2fbd 3ee6 bbbd 93c1 1bbe
000000e0: fc45 14bd 708c 873c 7084 33bd f4b4 e9bc
000000f0: 145c e1bd 557b 75ba 30fe 5cbd 287e c9bd
00000100: 8a1c 87bd a0da acbd f65b cebd c641 f5bd
00000110: bbbc 99bd 2345 b2bd 0fc5 78bd 53ce 07be
00000120: 1a34 21be 3c19 f6bd 678b e1bd 530e a7bc
00000130: ff72 6dbd 460b 22be 1faf 91bd 8e1c 9abd
00000140: 784d 81bd de79 e7bd b095 4cbd 5884 02bb
00000150: 38e6 f2bc ea19 88bd da27 b9bd 0245 06be
00000160: 1655 aebd 3b8a d4bd 7c9a e3bd 5b2e e8bd
00000170: a544 f0bc f606 c2bd fad2 afbc 9ca9 07be
00000180: d8f3 43bd d56e cabc 2e29 06be 3237 99bd
00000190: 490b 03be 0fa9 d1bd 2c3a 86bd 495f d0bd
000001a0: 1e51 30be 2ae7 83bc d0d3 64bd f388 b7bd
000001b0: 5543 4bbe d60a 4ebd 3f7c b8bd 7e15 e5bd
000001c0: 1975 22bd da18 f0bd 54df 25be d896 30bd
000001d0: 3c5d 8cbc 35db a5bd 2ce6 91bd a110 67bd
000001e0: e0eb adbd c572 d4bd a07e 68bd 87d6 29bd
000001f0: 4516 ffbd 152f a8bd 8a71 94b3 8b45 e4bd
00000200: e194 0cbd f120 b4bd 0cd4 0cbe 18bc 07be
00000210: 34a9 69bd 2742 dbbd 4175 20bd c736 cfbd
00000220: a623 d7bd 3b12 d6bd bf85 f1bd a628 65bd
00000230: 93ef 08bd fa18 dcbd 0734 1fbc 7e55 d4bd
00000240: fd13 3fbe 56a8 7cbd baa9 87bd 6297 93bd
00000250: 353a b3bd 7334 6dbd 33ff d3bd 4d23 86bd
00000260: 3d5c cebd 9731 8bbd c41f d6bd 89b0 f1bd
00000270: 9035 76bd 325a 06be a4d6 19bc 21b2 59bb
00000280: aa8d 90bd ea80 aabd 723b 6abd 820e a8bd
00000290: 8e32 95bd 67cf 08be 9262 67bd fc7a 98bd
000002a0: 24d3 ccbd 4fba 32bd 4bb5 c5bd 551f c6bd
000002b0: 40c5 4fbd a1dc deae d7f6 6cbd 055a 87bd
000002c0: a7a8 4fbc 4113 b7bd c6ce dabd b646 65be
000002d0: e2e9 e6bc b4f9 10be 483d b8bd f400 33bd
000002e0: 88cb 0ebd b86f 92bd 605e c2bd 507d b8bd
000002f0: 2bd1 f1bd d198 c9bc 89d0 0bbd 3ea6 87bb
00000300: b3f9 04be 70b3 7cbc b7b7 21be 8acf ecbc
00000310: 92b1 83bd d42c 97bd bac9 c5bd 315f abbd
00000320: 12df f6bd 257d 8dbd f7dc aebd cd22 cebd
00000330: 8111 a4bd 8048 58bd b0ea dcbd 102a 94bd
00000340: df81 18be 9de9 54bd d541 1dbd de2c cbbd
00000350: 6507 f5bd e0dc e4bd e965 b4bd 327d a6bd
00000360: beea 87bd 9c90 c8bd 48fb 8abd 7690 debd
00000370: ca3e 9ebd 69cf 60ac cd24 04be fb1c 99bd
00000380: 4bf0 5cbd 949b c8bc 8c61 60bc 01fa 17be
00000390: e965 9cbd 67b7 bcbd 387f f8bc eaf2 98bd
000003a0: a51d 93bd 899d cbbd 1ad4 ffbd 68ad b1bd
000003b0: 5644 ddbd 1374 ccbd b0df 75bd 8ed8 dfbd
000003c0: bf65 f7bd d10d 58bd c8bc 9abd 94c1 91bd
000003d0: 2575 fabd a48a b3bd b447 8abd 508d bcbd
000003e0: e633 bdbc ae9f fcbc fdb5 b8bd efd5 11bd
000003f0: 8d9e 21be 7b59 71bd b729 21bd f617 b6bd
-0.07540134 -0.04573182 -0.04888319 -0.086745515 -0.008497541 -0.016219556 -0.085627995 -0.10308092
-0.0827473 -0.10644106 -0.077616245 -0.07659109 -0.032120503 -0.0012834432 -0.07631149 0.009463431
-0.06076743 -0.12827636 -0.10997403 -0.1074452 -0.05368274 -0.17436412 -0.05221416 -0.18267477
-0.15787807 -0.039125178 -0.04895448 -0.058081113 -0.043218117 -0.093899846 -0.06868953 -0.07556801
-0.059535578 -0.104872145 -0.05246962 -0.07077255 -1.1489048e-10 -0.076601446 -0.010095451 -0.07279247
-0.14714688 -0.05122274 -0.11370329 -0.07476303 -0.035339523 -0.23086488 -0.08230586 -0.10214325
-0.05035047 -0.106837824 -0.041087814 -0.11937391 -0.052357942 -0.042930584 -0.091747746 -0.15210561
-0.036199555 0.016546458 -0.043827474 -0.028528668 -0.11003891 -0.0009364386 -0.05395335 -0.098385155
-0.0659724 -0.08440137 -0.10076134 -0.11975436 -0.075067006 -0.08704593 -0.060734805 -0.132623
-0.15742531 -0.12016532 -0.11012917 -0.020392573 -0.057970997 -0.15824613 -0.0711348 -0.075249776
-0.06313604 -0.11302541 -0.04994744 -0.0019915309 -0.029650792 -0.06645568 -0.09040804 -0.13112262
-0.085123226 -0.10377928 -0.1111345 -0.113369666 -0.029329607 -0.09473984 -0.021462906 -0.13248295
-0.04783997 -0.024711052 -0.13101646 -0.07481231 -0.12797274 -0.102373235 -0.06554064 -0.10174424
-0.17218444 -0.016101439 -0.055866063 -0.08961668 -0.19849904 -0.050303303 -0.09008073 -0.1118574
-0.039662454 -0.1172349 -0.16198474 -0.043112606 -0.017134301 -0.08098451 -0.0712398 -0.056412343
-0.08492255 -0.10373453 -0.056761384 -0.041464355 -0.124554195 -0.08212105 -6.91244e-08 -0.11146077
-0.03432167 -0.087953456 -0.13752764 -0.13255346 -0.05704613 -0.10705977 -0.039174322 -0.1011787
-0.10504846 -0.10452696 -0.11793088 -0.05594697 -0.0334316 -0.107469514 -0.009716994 -0.10367869
-0.18659969 -0.061683975 -0.0662417 -0.07206608 -0.087513365 -0.057911348 -0.1035141 -0.06549702
-0.10076187 -0.06796568 -0.104552776 -0.118012495 -0.060109675 -0.13120344 -0.009389553 -0.0033217745
-0.0705827 -0.0832537 -0.057185598 -0.08205892 -0.07285033 -0.13360368 -0.05649049 -0.074453324
-0.100012094 -0.04363471 -0.096537195 -0.09673945 -0.05072522 -1.0134583e-10 -0.057852592 -0.06608967
-0.012674487 -0.08939219 -0.1068397 -0.22390255 -0.028187696 -0.14157754 -0.089960635 -0.04370208
-0.03486207 -0.07150215 -0.09490657 -0.090082765 -0.11807474 -0.024609001 -0.03413442 -0.0041396907
-0.12985878 -0.015423641 -0.15792738 -0.028907556 -0.06430353 -0.07381597 -0.09657617 -0.08367766
-0.12054266 -0.06908635 -0.085382394 -0.100652315 -0.08011151 -0.052803516 -0.107869506 -0.07234585
-0.14893292 -0.051980603 -0.03839286 -0.09920667 -0.11964301 -0.11174941 -0.088085 -0.08129348
-0.066365704 -0.09793207 -0.06786209 -0.108673975 -0.0772682 -3.194745e-12 -0.12904663 -0.07476231
-0.0539401 -0.024488248 -0.013695132 -0.14841463 -0.07636625 -0.09214669 -0.0303341 -0.07468207
-0.071833886 -0.09942157 -0.12491627 -0.08675653 -0.1080405 -0.09983077 -0.06002778 -0.109299764
-0.120799534 -0.05274755 -0.075555384 -0.07117 -0.12229375 -0.08766678 -0.067519575 -0.09206641
-0.023096036 -0.03083786 -0.090190865 -0.035604414 -0.15783139 -0.058923226 -0.039346423 -0.08891289

net.6.weight f4 [256]
00000000: 589c db3e c384 8d3e 9b97 9f3e e8a4 be3e
00000010: 08fd 713e 7d93 e93e e247 9e3e 0024 9d3e
00000020: e4a7 b13e 841f a43e 87f2 7e3e b0e1 973e
00000030: 7f7f e83e 8594 083f cac3 ba3e f7a6 8c3e
00000040: 9627 e63e 731a 9f3e f68e e23e 1a34 913e
00000050: 9d93 763e ccb7 f53e 5c7e 883e d8bf d43e
00000060: 1447 023f 3adb b93e da83 953e b2a7 7f3e
00000070: 1510 953e 50c7 953e 46df ab3e 6a87 df3e
00000080: e250 9d3e 1a45 b73e 3dea 9b3e 4fb2 fe3e
00000090: b113 f23e 3813 8d3e 4ff8 d33e 23e8 843e
000000a0: c08e 8d3e be4f 963e 5327 fa3e 1481 d33e
000000b0: fb51 803e 1d08 ff3e 8326 863e 33ba 013f
000000c0: fc08 a33e c0bc a83e 2f66 ce3e 799d d93e
000000d0: 8d90 ae3e f436 8f3e dd8f fc3e 4801 ee3e
000000e0: 32e0 b23e 7458 383d ae4c 873e 8cbd c23e
000000f0: 1bb3 c63e 8de5 ed3e 3fe6 703e 5e9f c03e
00000100: e497 a13e cdbc 7e3e 381a b63e 9ef4 b0be
00000110: 2ebb 883e 41f4 db3e 2719 f13e e3d9 103f
00000120: 3133 043f 0802 0d3f 8b9a ca3e 1c5b 913e
00000130: f528 943e 7485 c23e d4b6 893e 6783 873e
00000140: 130c ed3e 8191 8e3e 1fd0 913e f9ec 943e
00000150: dc9a 873e b3a4 9a3e 04c9 a23e f4a4 fc3e
00000160: 4847 a33e 4d31 7c3e 9d9d c93e 8433 cf3e
00000170: daff 953e 074a 973e 8cce 493e a4da af3e
00000180: 2757 9a3e e082 843e 5aee d93e 8f35 8f3e
00000190: 1e57 d73e 8f88 cd3e 2231 b13e 069c 983e
000001a0: 78a0 093f 0e77 023e 5f46 8c3e 9fa8 5b3e
000001b0: 71e4 923e 2ac0 7e3e b2d5 b83e 8c15 d33e
000001c0: 317d 8d3e 2472 f13e 1f69 003f 7a1d cf3e
000001d0: dbd5 a73e 7151 b33e 375f 813e d4d8 a93e
000001e0: 48ea 8f3e a59a ec3e 1aa3 b13e e706 793e
000001f0: 680a fd3e cddd bc3e 6dad db3e 3f7f 6f3e
00000200: 1ba0 8a3e be91 a83e 7f6b d13e 5ec6 d53e
00000210: 40b5 7f3e 7515 003f 22cd a13e 2475 f23e
00000220: 96ee 993e 8d37 993e 9b5a f33e 592d 793e
00000230: 3cd6 ed3e c39a e53e 5712 8a3e 3693 a43e
00000240: 0afa 033f 96a7 8a3e 797f c63e 01db ab3e
00000250: e216 bf3e ffcd 643e 0ef5 cb3e ad3b 7f3e
00000260: 8517 e43e 9fcf 793e 6ac4 6f3e 5740 713e
00000270: 8eb7 a23e f050 823e d534 a13e 9a04 0c3e
00000280: 8a3d 9f3e f220 f23e c2a4 8f3e b0ee 3b3e
00000290: 9b2c 833e 51e7 ea3e d075 b33e 73d1 ca3e
000002a0: 47fb b23e 24a9 ad3e 121f f73e ae72 c63e
000002b0: f209 763e 351a f73e c5b2 8c3e 327e 813e
000002c0: 917a 8e3e 8252 953e 5efe fa3e 3f61 b73e
000002d0: 4b40 043e 0add 993e bf92 ba3e 0862 983e
000002e0: 81da 943e e8c4 f43e 16ed ff3e fb92 763e
000002f0: 43bd a93e 8216 383e c8ee 953e 3993 2d3e
00000300: fcc3 003f 9e45 f33e bfe5 e63e 3814 9c3e
00000310: 2243 9b3e 2a21 ad3e b27f e53e c65c 903e
00000320: 65c3 eb3e 219b 873e 3317 eb3e 216a bb3e
00000330: 312e 9e3e 77bf a43e 11cd e23e 466a e53e
00000340: 863b b63e 3320 a53e 68cc 1a3e b46b cd3e
00000350: 8599 9f3e b1c4 a53e cfc1 833e 7154 c93e
00000360: 4ffb 983e a45d 923e 1aa7 973e 4355 e43e
00000370: c98c 8a3e e7a6 ce3e f1c4 863e 746e 863e
00000380: 828b b63e 2908 df3e 9133 843e 0330 de3e
00000390: 51f3 9b3e efd1 aa3e e47e 963e fff6 9e3e
000003a0: c239 ae3e 069e be3e e5fe 983e 3b49 9c3e
000003b0: 56ac bd3e aa28 b63e 4e66 8f3e 1c4f 873e
000003c0: 6781 e93e 6fee 7b3e 2159 b03e 5f87 a73e
000003d0: 7fbd 243e 90be d03e e2df 583e 4ec4 a63e
000003e0: bf5a 8f3e f0bf aa3e 00c9 fa3e 862e f33e
000003f0: 3627 0d3f df84 813e d5b0 903e 3354 b83e
0.42892718 0.27640352 0.31170353 0.37235188 0.2363168 0.45620337 0.30914217 0.30691528
0.34698403 0.32055295 0.24897204 0.29664373 0.45409772 0.5335162 0.364775 0.27471134
0.44952077 0.31074867 0.44249696 0.28360063 0.24079747 0.47991788 0.26658905 0.41552615
0.50889707 0.3630007 0.29202157 0.24966314 0.29113832 0.29253626 0.33568782 0.43658
0.3072577 0.35794908 0.30452147 0.49745414 0.47280648 0.27553725 0.41400382 0.25958356
0.27647972 0.29357713 0.48858127 0.41309416 0.25062546 0.49810877 0.26201257 0.5067474
0.31842792 0.32956505 0.40312335 0.42502955 0.34094658 0.27971613 0.4932851 0.46485353
0.34936672 0.04500623 0.2642569 0.38035238 0.38808522 0.46464196 0.23525332 0.37621588
0.31561196 0.2487671 0.35566878 -0.34561628 0.26705307 0.42959788 0.47089502 0.5658247
0.5164061 0.55081224 0.39571032 0.28389823 0.28937498 0.37992442 0.268973 0.2646744
0.46298274 0.27845386 0.28479096 0.29087046 0.26485336 0.3020378 0.31793988 0.493446
0.3189032 0.24628182 0.39378062 0.4046899 0.29296762 0.29548666 0.19707698 0.34346497
0.30144617 0.258811 0.4256466 0.2797055 0.42058653 0.40143248 0.34607798 0.29806536
0.5376048 0.12740728 0.2739744 0.21451043 0.28689912 0.24877992 0.36100537 0.41227376
0.27634576 0.47157395 0.501604 0.40452176 0.32780346 0.35023072 0.25267956 0.3317324
0.2810843 0.46211734 0.3469475 0.2431904 0.49422002 0.3688797 0.4290575 0.23388384
0.27075276 0.32923692 0.40902326 0.41752905 0.24971485 0.5003274 0.31601816 0.47354996
0.3006484 0.29925194 0.47530064 0.24333705 0.4645251 0.44844636 0.26967117 0.32143563
0.51553404 0.27080983 0.3876913 0.33565524 0.37322146 0.22344206 0.398354 0.24925108
0.44549194 0.24395607 0.2341477 0.235597 0.31780666 0.25452375 0.3148562 0.1367363
0.31101638 0.4729076 0.28055388 0.18352771 0.2561997 0.45879605 0.3505082 0.39612922
0.34957334 0.33918107 0.48265892 0.3875937 0.24027231 0.48262182 0.2748014 0.25291592
0.27827886 0.2916451 0.49022192 0.3581638 0.12915151 0.30051452 0.36440083 0.29762292
0.29072955 0.47806478 0.4998557 0.24079506 0.33152208 0.17977336 0.29283738 0.16950692
0.5029905 0.4751405 0.45097157 0.30484176 0.30324656 0.33814365 0.44823986 0.2819578
0.46047512 0.2648554 0.45916137 0.36604407 0.30894616 0.32177326 0.44297078 0.44807643
0.35592288 0.3225113 0.15117037 0.40121233 0.31171814 0.32376626 0.25733802 0.39322236
0.29879233 0.28587067 0.29619676 0.445963 0.27060536 0.4036171 0.2632213 0.26256144
0.3565331 0.43560913 0.25820592 0.43396005 0.30459073 0.33363292 0.29393685 0.31047818
0.3402844 0.37229937 0.2988197 0.3052462 0.37045544 0.355779 0.2800774 0.26427543
0.4560654 0.24602674 0.34443 0.32720467 0.16087912 0.40770388 0.21179155 0.32571644
0.2799892 0.33349562 0.48981476 0.47496432 0.55137956 0.25296685 0.28259912 0.3600174

net.6.bias f4 [256]
00000000: a703 013d 5933 483c 0b61 d83c 1c92 b83c
00000010: 66b5 233c 3328 103d 5540 bf3c 4118 b73c
00000020: d601 cc3c 14e5 e03c 6c39 833c 6ec0 823c
00000030: 17c2 123d e851 1e3d 8776 003d 46dc 29ba
00000040: 781d 193d ec59 9a3c 7c0d 063d 3037 8b3c
00000050: d8d8 233c 1671 1e3d da6b b23c 9d0f 353d
00000060: 04c8 283d aee0 b63c b217 973c 3bfd b03c
00000070: c395 c23c 7cf0 b03c 80db c23c aa7d f93c
00000080: 9722 933c 02e2 ed3c 2440 933c 51d5 1e3d
00000090: 37d1 163d 0f6d d53c 5ab3 243d 960e a43c
000000a0: c7e1 ef3c 8fea 993c 1906 1d3d 22f6 0f3d
000000b0: 61f4 283c cb5c 393d c23e b03c dcc2 263d
000000c0: 9cc9 de3c ffe8 fd3c 2ee3 ee3c ea6f 083d
000000d0: 1a7a b13c 7a18 5a3c 2287 233d 71cd 293d
000000e0: ad4f bc3c 60e2 2cbf 9603 f03b 4773 fb3c
000000f0: 5d0e fc3c aa1f 073d 1824 773c 4606 e13c
00000100: f82e d63c 5cc7 c03c 4d4f e43c b4d8 11bd
00000110: 59e6 ad3c f039 f03c 9956 1e3d 709d 383d
00000120: 8179 1e3d 6f72 2f3d 24e4 d73c 2f33 703c
00000130: c531 433c 2ca6 f43c 0226 373c e950 d43c
00000140: 35a6 1c3d 2e5b a73c 8f02 c33c 8496 6e3c
00000150: 04ba 403c a190 aa3c 6378 9c3c a6d8 393d
00000160: a8e4 a13c 1824 383c b866 113d 8cec f63c
00000170: 0f4c a13b 24b2 0a3d e198 d43a 5290 bd3c
00000180: bafe b93c 05d0 543c 186e 213d e2c3 453c
00000190: 64f0 0e3d 6979 eb3c 735f 913c 5d01 9f3c
000001a0: 0da3 2a3d 0fec f0bc 11f9 9e3c 2fed ab3c
000001b0: b85f 023d 6f2b 8d3c f70a 023d ba1e ee3c
000001c0: 1ec6 733c e1ba 0f3d bbe5 133d 518c 163d
000001d0: 397f 6a3c 76de 133d 6a3b 983c a4dd a63c
000001e0: 118c a93c ff0b 283d 46ff ee3c bce8 cc3a
000001f0: 5b3f 213d 6fc7 993c 2c62 ff3c cbf7 c83c
00000200: 94ff 083c be86 f43c c04f 033d a2d9 ec3c
00000210: 07d0 c13c bd38 243d 4856 303c 33a6 0e3d
00000220: 2955 b53c 9784 c43c 03d8 1c3d c1af 2d3c
00000230: 8620 1e3d 1b6d 1e3d c29a 683c fd96 e93c
00000240: fb6a 303d 5dc2 a93c f25d bf3c 60fb bf3c
00000250: c3dd c33c f20d c7b9 4d26 063d caa9 883c
00000260: 88df 203d 99df 903c a14f b73c 86e4 0ebb
00000270: 8629 bb3c c1ae b83b d95f 483c 529b 1dbd
00000280: 7f93 e93c 49d2 1a3d 6547 bb3c 6c10 083c
00000290: d34a 953c 62ca 133d 9108 d33c 6752 fd3c
000002a0: a4ae 803c a375 c43c a2e4 1c3d 13e6 1a3d
000002b0: d7b1 863c 5e49 183d 767a 623c e008 a93c
000002c0: f244 963b 2c58 da3c 64fb 1d3d 5785 f43c
000002d0: a7f1 e3bc 914b 003d f2e3 df3c f0a0 083c
000002e0: be31 913c f6b7 2b3d 4354 1e3d eff8 a13c
000002f0: c051 013d dc25 9cbb 07f4 953c 965f 1cbc
00000300: 27d9 253d 73f9 263d 61f8 163d 7bd8 ab3c
00000310: 8500 b13c db0c bc3c 13f8 1c3d 0b86 563c
00000320: 09bc 2f3d 1123 d83b 19f7 ff3c 3dd9 d63c
00000330: 0b29 813c 518f 2e3c d3b5 173d 1ec3 133d
00000340: 910a dd3c 1442 913c cc17 08bd 0bd3 003d
00000350: 3aa3 663c 3525 db3c 46aa 413c 2721 f73c
00000360: d50f bc3c dfc5 753c 50e7 b73c ba4a 0c3d
00000370: cfa3 8f3c 5b8d 113d 46fe c93c 1020 f83b
00000380: 1aba 013d b45c 113d f138 2d3c ad78 2d3d
00000390: 5b3c b23c 50c7 f13c 5d48 493b 1878 c13c
000003a0: a3e6 733c 9b53 fe3c 912a c43c 815b ac3c
000003b0: 0735 e53c 3b1f d23c 2112 333c 5650 d23c
000003c0: b4ab 073d de35 973c 1665 0a3d d9a9 e63c
000003d0: 1136 273c 199e 053d ac5c 933c b851 bb3c
000003e0: f9ad 593c 1dee 963c 2cc2 2d3d b5c3 153d
000003f0: 26c0 493d 28f9 97bb 8ed9 123c 40eb f43c
0.031497624 0.0122192735 0.026413461 0.022530608 0.009991979 0.035194587 0.023346106 0.022350432
0.02490322 0.027452983 0.016018592 0.015960898 0.03582963 0.03865233 0.031363036 -0.00064796617
0.03738162 0.018841706 0.032727703 0.016994089 0.01000043 0.038682066 0.021779943 0.044204343
0.041206375 0.022323932 0.018443916 0.021605125 0.023753053 0.021599047 0.023786306 0.03045543
0.01796083 0.029038433 0.01797492 0.038777653 0.036820617 0.02605298 0.040210105 0.020026486
0.029282464 0.018788604 0.038335893 0.03514684 0.010312171 0.04525451 0.0215143 0.040713176
0.027195744 0.03099489 0.029161062 0.033309855 0.021664668 0.0133115 0.039923795 0.04145569
0.022987211 -0.6753292 0.007324646 0.030694617 0.030768568 0.03298918 0.015084289 0.027468812
0.026145443 0.023532562 0.027869845 -0.035607055 0.021228002 0.029324502 0.038656805 0.04507202
0.038690094 0.04283374 0.026353903 0.014660641 0.011913721 0.029864393 0.011178495 0.025917487
0.038244445 0.02042922 0.023804931 0.014562253 0.0117631 0.020820918 0.019100374 0.045372628
0.019762352 0.011239074 0.03549835 0.030142091 0.004922397 0.033861294 0.0016219878 0.023140106
0.02270447 0.012989049 0.039411634 0.012070628 0.034897223 0.028744416 0.017745709 0.01940983
0.041659404 -0.029409437 0.019405873 0.020987121 0.031829566 0.017232625 0.03174874 0.029067386
0.014878778 0.03509033 0.03610776 0.03675491 0.014312559 0.036100827 0.018583018 0.020369358
0.020696672 0.041027065 0.029174458 0.0015633325 0.03936706 0.018771855 0.031174742 0.02453222
0.008361716 0.029849406 0.032058477 0.02891237 0.023658765 0.040093172 0.010762759 0.03482647
0.022135334 0.023989005 0.038291942 0.010600985 0.038605236 0.03867827 0.014197053 0.02851438
0.043070775 0.020722562 0.023360226 0.023435295 0.023909455 -0.00037966628 0.03275137 0.016682524
0.039275676 0.017684745 0.022376837 -0.002180369 0.022846948 0.0056360667 0.012229883 -0.038478203
0.028512714 0.0377982 0.022861192 0.0083046965 0.018224156 0.03608168 0.02576092 0.030923082
0.015708275 0.023981875 0.03830398 0.037817072 0.016442223 0.037179343 0.013823142 0.020634115
0.0045858556 0.026653372 0.038569823 0.029848738 -0.02782519 0.031322066 0.027330372 0.008339152
0.017723914 0.041923486 0.038654577 0.019772021 0.031572104 -0.0047652554 0.018304838 -0.009544274
0.040490296 0.040765237 0.036857966 0.02097725 0.021606693 0.022955349 0.03832252 0.013093482
0.042903934 0.006595977 0.031245755 0.026226634 0.015766641 0.0106542865 0.037038635 0.03607475
0.026982578 0.017731704 -0.03322582 0.031451266 0.014077002 0.02675114 0.0118203815 0.030167175
0.022956768 0.015000789 0.022449166 0.034250952 0.017534165 0.035535198 0.02465738 0.0075721815
0.03167162 0.0354888 0.010572658 0.042351414 0.021757295 0.029513985 0.0030713298 0.023616835
0.014886531 0.031045726 0.023946078 0.021039726 0.027979387 0.025649657 0.010929615 0.025673073
0.033122733 0.018458303 0.03378781 0.028157162 0.0102057615 0.032621477 0.017988525 0.022866115
0.013286107 0.018424088 0.042421505 0.036563594 0.049255513 -0.004637856 0.008963002 0.029897332
