RL code/models/checkpoint_episode_790000.pth (torch, 801255 bytes, 40 tensors)

net.0.weight f4 [256, 22]
00000000: 8993 bd3d 8fe0 303d 3ef7 9fba 9f96 9bbd
00000010: e813 663d e9cc f3bc 474b 263a 63d6 87bc
00000020: b001 af3d bfbd 7cbd 5f2c abbd 0d89 65be
00000030: c522 8c3d a681 80bd d87f 59bc 7427 3abd
00000040: 7fd5 85bd 859f dbbc b001 afbd bfbd 7c3d
00000050: 8993 bd3d 8fe0 303d 64a1 763d 3a22 0bbb
00000060: 4ec4 ca3d 8750 4fbd 0b37 e3bd 546d 523c
00000070: b16b 723d 3fc1 64bd 4509 aabd 8b37 4ebc
00000080: cec8 bb3c aacf c93d abdb 7a3d 62bb 6fbd
00000090: 23b7 bcbd 8b2c b73c ce4e c13d 2e13 3dbd
000000a0: 4509 aa3d 8b37 4e3c 64a1 763d 3a22 0bbb
000000b0: 0268 1c3e 0ad7 093e 1b03 2b3e e69c 2b3e
000000c0: 97cd 38be 59bf 25be f50a 37be 447b 38be
000000d0: 85f5 aabe 24ca adbe c9ba 80be e62a 73be
000000e0: 7406 40be 118b 32be d685 323e 54f2 2d3e
000000f0: 3b4d 313e ccd8 1d3e 85f5 aa3e 24ca ad3e
00000100: 1b66 1c3e b5d4 093e a2cc bf3d 12cc 2d3b
00000110: 573b 713c 9316 8dbd 73aa 2dbd 3c15 c63c
00000120: 7f85 43bd bed9 783c b91b e3bd 4459 d73d
00000130: 27ac 153e 74a3 ce3d 9c90 91bd 15ce 56bc
00000140: eea3 ec3c 89ec cabc d07a d13c e62d 1cbd
00000150: b91b e33d 4459 d7bd a2cc bf3d 12cc 2d3b
00000160: 838f 6bbd 14a5 143d cbec d53d f6ff 1a3e
00000170: 7211 ac3d ea24 75bd 9ea6 f0bc 2d37 493d
00000180: edec ca3b 71a3 98bd 8c3d 30bd 22ff 64bd
00000190: aa19 043e 59bf d33d fc48 7f3d a0fc 4fbc
000001a0: c248 3cbd 0b3f ce3d edec cabb 71a3 983d
000001b0: 838f 6bbd 14a5 143d d10c 943c d059 a0bc
000001c0: bb31 a93d 2ace d9bd 3019 85bd 39fc f4bb
000001d0: 82b1 863d 7db9 68bd ee5c 803b 7548 1abd
000001e0: 654e 503c af31 44be 1412 8d3d 5634 04be
000001f0: d953 4bbd 709c b63b fe0d a23d 94f2 5cbd
00000200: ee5c 80bb 7548 1a3d d10c 943c d059 a0bc
00000210: fcc1 e7bd 6b7b 7b3c 2c13 88be 9ad7 9fbc
00000220: d7cd 0b3d 31eb 8fbc 7aeb f13c c098 bb3c
00000230: bb76 ef3d 57a2 dbbc a5ff a13d d1d3 db3c
00000240: 4dd7 54be ceb6 bbbc b08f 43bd 25ef 89bc
00000250: 248d 2fbd 41d6 9b3c bb76 efbd 57a2 db3c
00000260: fcc1 e7bd 6b7b 7b3c f1f4 debc 2087 7eba
00000270: 7252 153e 415d 86bd c622 bc3d 33e6 053d
00000280: 8fd7 8b3d 6c7f f0bd 57e5 4dbc 876e d1bd
00000290: 61d6 69ba 1832 673d 9309 253e 3cc2 a0bd
000002a0: 7823 ac3d b636 fc3c 7c56 853d f17c e3bd
000002b0: 57e5 4d3c 876e d13d f1f4 debc 2087 7eba
000002c0: 1326 853d 48af 87b8 9e6f 31bd 3369 7dbd
000002d0: bd1b 57bd e6a1 0e3c cd73 21bc 6255 4b3d
000002e0: 2b2c c6bb 7b46 8b3d 2f9e 703e 084e 1dbe
000002f0: 5e6a 80bd 666d cc3b aaf3 5cbd e8b9 5fbd
00000300: d6aa d8bb ae27 84bc 2b2c c63b 7b46 8bbd
00000310: 1326 853d 48af 87b8 3a69 bd3d bc81 bfbd
00000320: 3006 65bd 2f6a 7c3d 12c8 f6bb 966f 023d
00000330: 9d10 2bbd 2ff8 c7bc d5cc 72bc 217f 5dbc
00000340: 42e4 b23d 4850 30be 9697 9bbd 6b75 8e3d
00000350: fc84 483c 7c40 da3c 3595 0bbd ad32 08bd
00000360: d5cc 723c 217f 5d3c 3a69 bd3d bc81 bfbd
00000370: b8f8 9fbb c464 76bc df7f 243d a519 1abe
00000380: fd67 763d 7923 bfbd 77b4 e038 a01c 3b3d
00000390: 7d1c 8e3d 0585 a13d 34ca c03c ffe8 56bd
000003a0: 96a0 d13d e751 fdbd be48 cf3a 8e1a 00be
000003b0: f382 86bd 88db 333d 7d1c 8ebd 0585 a1bd
000003c0: b8f8 9fbb c464 76bc b629 293d dc15 093d
000003d0: 8230 debd 47e0 babd 5652 0b3d df0f 663c
000003e0: a4f2 05be ca46 e93c 8e87 283c 210e a13c
000003f0: b43f ccbd e8c3 fdbc 1e93 e5bd 48e1 96bd
0.09256656 0.043182906 -0.0012204421 -0.07597088 0.056171328 -0.029760795 0.00063436147 -0.01658172
0.08545244 -0.061704393 -0.083580725 -0.22415562 0.06842569 -0.062747285 -0.013275109 -0.04544778
-0.06534862 -0.026809463 -0.08545244 0.061704393 0.09256656 0.043182906 0.060212508 -0.0021230117
0.099007234 -0.050613906 -0.11094483 0.012843449 0.059184734 -0.055848356 -0.08302549 -0.012586485
0.0229229 0.09854062 0.061244648 -0.05852831 -0.09214618 0.022360107 0.09438859 -0.04616087
0.08302549 0.012586485 0.060212508 -0.0021230117 0.15274051 0.13460937 0.16700403 0.16759071
-0.18047176 -0.16186275 -0.17875274 -0.18015772 -0.33390442 -0.33943284 -0.25142506 -0.23746833
-0.18752462 -0.17435862 0.17433867 0.16986972 0.17314617 0.15414733 0.33390442 0.33943284
0.15273325 0.13460048 0.093652025 0.002651934 0.01472362 -0.06889071 -0.04239888 0.024180047
-0.047734734 0.0151886325 -0.11089272 0.10515073 0.14616452 0.1008977 -0.0710766 -0.013110657
0.028886762 -0.024770992 0.025571257 -0.03812971 0.11089272 -0.10515073 0.093652025 0.002651934
-0.05750991 0.036290243 0.10445555 0.15136704 0.08401765 -0.059849657 -0.029376324 0.049124885
0.0061927945 -0.07453049 -0.043027446 -0.055907376 0.12900415 0.10339231 0.062325463 -0.012694508
-0.045967825 0.10070618 -0.0061927945 0.07453049 -0.05750991 0.036290243 0.018072518 -0.019574076
0.082614385 -0.10635026 -0.06498945 -0.0074763563 0.06576826 -0.05681752 0.003917328 -0.037666757
0.012714003 -0.19159578 0.06888214 -0.1291059 -0.04964051 0.005572848 0.07912825 -0.053942278
-0.003917328 0.037666757 0.018072518 -0.019574076 -0.113162965 0.015349249 -0.26577127 -0.019511987
0.03413185 -0.017568203 0.02953123 0.022899985 0.11692568 -0.026810808 0.079100884 0.0268344
-0.20785256 -0.022914317 -0.047744453 -0.016837666 -0.04285921 0.019023063 -0.11692568 0.026810808
-0.113162965 0.015349249 -0.027216407 -0.0009709466 0.14582232 -0.065607555 0.0918632 0.03269024
0.06828224 -0.11743054 -0.012566886 -0.102261595 -0.00089201896 0.056444257 0.16116934 -0.07849547
0.084052026 0.030787807 0.06510636 -0.11107815 0.012566886 0.102261595 -0.027216407 -0.0009709466
0.06501403 -6.46995e-05 -0.043319337 -0.061867904 -0.052516688 0.008705592 -0.009854269 0.049641974
-0.0060477457 0.068005525 0.23497842 -0.15361798 -0.06270288 0.0062386272 -0.053943314 -0.054620653
-0.006612162 -0.016132202 0.0060477457 -0.068005525 0.06501403 -6.46995e-05 0.09248586 -0.09350917
-0.055914104 0.061624702 -0.0075311745 0.031844698 -0.04176389 -0.024410335 -0.014819344 -0.013519079
0.08734943 -0.17218125 -0.07597272 0.069559895 0.012238737 0.026642077 -0.03407784 -0.033251453
0.014819344 0.013519079 0.09248586 -0.09350917 -0.0048819445 -0.015038673 0.04016101 -0.15048845
0.060157765 -0.09332938 0.000107147665 0.045681596 0.069390275 0.078866996 0.023533918 -0.052468296
0.102357075 -0.12369137 0.0015814526 -0.1251013 -0.06567945 0.043910533 -0.069390275 -0.078866996
-0.0048819445 -0.015038673 0.041299544 0.033468112 -0.10849096 -0.09124809 0.03401407 0.01404187
-0.13080841 0.028476138 0.010286225 0.019660058 -0.09973088 -0.030977204 -0.11209701 -0.07367188

net.0.bias f4 [256]
00000000: fbd5 30be cd25 9dbe 8975 35be e79f 0bbe
00000010: e455 62be 3f19 8dbe 1983 07bf 30ff 7abe
00000020: 3622 43be c4e2 90be ec43 a9be 12d0 88be
00000030: 9b2e 8dbe d130 1fbf cdfd 4fbe ed79 81be
00000040: c75c 87be b47e d1be ffb6 77be 815c 2abe
00000050: 390d 87be b89e 93be 06f9 503d 7195 a9be
00000060: a533 4fbe cf40 47be c8e3 9ebe 03e7 5ebe
00000070: ddd1 8fbe 8c51 593e 95c1 cdbe 4e85 49be
00000080: 5f7a dcbe 656f 89be 2516 1cbf 911a 58be
00000090: a207 0cbf 7795 58be df45 4fbd e676 7fbe
000000a0: 2142 08be 7eb0 53be c3de 10bf 6591 70be
000000b0: 7378 71be 70bd 7cbe aaab a8be e215 56be
000000c0: bcb6 3fbe 47b4 78be e961 a1be 00e6 70be
000000d0: da42 86be 33a0 20bd 8252 57be 2991 73be
000000e0: f889 56be 828c 41be cb5e a4be a9cd 37be
000000f0: 1aef 2fbe 58de 92be 5c17 56be 03f6 55be
00000100: e323 acbe 4ed8 533d f40f 9abe b6a2 4ebe
00000110: 513a 23be 2c08 6bbe 1dab 3ebe 9cdd 6fbe
00000120: 5175 c5be 40d4 69be 1560 a7be c8c6 82be
00000130: f44a 8cbe 4f22 d6be b114 84be 4d84 8bbe
00000140: 0736 6bbe 7d09 78be a3fa 98be aefa 4abe
00000150: 8567 76be 3055 6abe 2cdf 76be 9f51 06bf
00000160: d398 90be 5950 a5be eacc 96be cc39 68be
00000170: ca45 89be ba46 03bf 573c 7ebe ac7d 0abe
00000180: 4ead 95be 1a84 593e 2e4e 8cbe ffdc 6bbe
00000190: b046 8abe 7d46 3abe 35ff 98be e802 04bf
000001a0: a64a 95be 19d7 2fbe 96fb 7ebe 04a3 85be
000001b0: abe9 8abe 752f 54be 147f 72be ac7a 80be
000001c0: e90c 95be a745 17bf 0c57 50be af8f a73d
000001d0: f5a7 84be 77a0 5abe 9835 a3be 3fb8 88be
000001e0: 4ed0 75be f9d7 8fbe cb53 69be 6a17 9ebe
000001f0: 12df 6abe a81c 573e d40e 95be e3d3 0bbf
00000200: dc69 84be 0513 68be 9242 76be 2cc4 83be
00000210: 3131 9ebe b5b2 82be 15a2 6abe 78e8 8cbe
00000220: a615 52be 18bc 24be 0b49 92be ec2a 9cbe
00000230: 488d 43be e24d 89be 3637 dfbd a03d bbbd
00000240: c886 583e d032 b8be 125e c0bd ed1f 70be
00000250: 98aa 50be 7a81 86be 0404 a0be 9681 3fbe
00000260: c932 8abe 72e6 b0be 0e32 88be 9d20 4fbe
00000270: a8fa 92be 1c3a c0bd 54be 6fbe 9f0c 4cbe
00000280: 5309 42be 2813 95be f4b2 69be 1e0b 7bbe
00000290: 8553 0cbe 544d 97be 227e 803d dccf 1cbe
000002a0: b48e 89be d9fa d9bc 04aa 61be 76cc 64be
000002b0: 39e3 7bbe 463c 98be 713e 85be 135b 46be
000002c0: 87d3 78be e788 51be 3e0d 8dbe 5170 97be
000002d0: f135 4abe 1e76 a43d 66a2 78be a479 67be
000002e0: 8c48 a8be 6492 84be 906e 80be 6d22 9dbe
000002f0: ac79 8cbe c844 92be 6805 a1be 80d7 5bbe
00000300: 5138 3dbe e98d 1bbf e865 42be 268e 553e
00000310: 7f97 4bbe 1303 9fbe 5977 89be 519d 4dbe
00000320: 8646 57be 6eea 5fbe 6a65 94be 0bc8 78be
00000330: 8686 f0be 5fdb 8dbe 39ce a8be 3d65 66be
00000340: 6fc5 8cbe 07cd 6abe 20a9 593e a7b6 7ebe
00000350: ccdc 16bf 7f3a a3be 558d 97be 0370 71be
00000360: 2910 84be 99a2 e0bc 3119 94be 922e 7cbe
00000370: d85c 97be f2cb 76be b252 edbe ff0d fabd
00000380: 085d 5dbe 8569 b7be cf68 1bbe 93fa 5bbe
00000390: a112 96be 8208 96be f93d 83be 6587 9cbe
000003a0: 7b36 24be 1f7d 81be d0d8 a8be b5f8 2abe
000003b0: 503b 43be 8863 83be 809b 58be 390a 87be
000003c0: 5b28 83be f140 80be afcd 563e d220 b4be
000003d0: 4f1a 83be c7d3 a9be 9ee2 3abe 00c7 67be
000003e0: 24d0 41be 6ded 5ebd 0aa3 0ebf 9e54 4fbe
000003f0: 8ddd 69be 0393 78be 7f4c 1dbf 2fac 38bd
-0.17269127 -0.30692902 -0.17720617 -0.13635217 -0.22103077 -0.27558324 -0.52934414 -0.24511409
-0.19056019 -0.28298008 -0.33059633 -0.26721245 -0.2757462 -0.6218386 -0.20311661 -0.25288334
-0.2643797 -0.4091698 -0.24190901 -0.1663685 -0.26377276 -0.2883203 0.051018737 -0.33121827
-0.20234545 -0.19458316 -0.31033158 -0.21767811 -0.280898 0.21222514 -0.40186754 -0.19679758
-0.43062112 -0.268428 -0.6097129 -0.21103884 -0.54699147 -0.21150766 -0.050603744 -0.249477
-0.13306476 -0.20672795 -0.5658991 -0.23492964 -0.23581104 -0.2468164 -0.3294347 -0.20906785
-0.18722051 -0.2428752 -0.31520012 -0.23525238 -0.2622288 -0.039215278 -0.21027568 -0.23785843
-0.20951068 -0.18901256 -0.3210357 -0.17949547 -0.17181054 -0.2868526 -0.20907348 -0.20894627
-0.3362113 0.051719956 -0.30090296 -0.20179257 -0.15940215 -0.22952336 -0.18619962 -0.23424381
-0.38566068 -0.22834873 -0.32690492 -0.25542283 -0.27400935 -0.4182305 -0.25797036 -0.27249375
-0.22969829 -0.2422237 -0.2987872 -0.19822189 -0.24062927 -0.22884059 -0.24108571 -0.52468294
-0.28241596 -0.32287863 -0.29453212 -0.22678298 -0.26811057 -0.51279795 -0.24827705 -0.13524503
-0.29233783 0.21241799 -0.27403396 -0.23033522 -0.27007055 -0.18190952 -0.29882208 -0.51566935
-0.29158515 -0.17171897 -0.2490066 -0.26100934 -0.271314 -0.20721228 -0.23681289 -0.2509359
-0.29111412 -0.59090656 -0.20345706 0.08181702 -0.2590939 -0.21350275 -0.31876826 -0.2670307
-0.24005243 -0.28094462 -0.2278587 -0.3087724 -0.22936657 0.21007025 -0.29112875 -0.5462019
-0.25862014 -0.22663505 -0.24048832 -0.25735605 -0.30896905 -0.25526968 -0.22913392 -0.2752111
-0.2051607 -0.16087377 -0.28571352 -0.30501497 -0.19096863 -0.26817232 -0.108992025 -0.091426134
0.21145165 -0.35976267 -0.093929425 -0.23449679 -0.20377576 -0.26270658 -0.31253064 -0.18701777
-0.2699187 -0.34550816 -0.2660069 -0.20227285 -0.2870686 -0.093860835 -0.23412448 -0.1992669
-0.1894887 -0.29116178 -0.22822171 -0.2451596 -0.13703735 -0.29551184 0.06274058 -0.15313667
-0.26866686 -0.026608871 -0.22037512 -0.2234362 -0.24598397 -0.29733485 -0.26024202 -0.1937068
-0.24299441 -0.2046238 -0.27549165 -0.29577878 -0.1974714 0.080303416 -0.242807 -0.22604996
-0.3286785 -0.25892937 -0.25084352 -0.30690327 -0.27436578 -0.285681 -0.31449437 -0.21468925
-0.18478514 -0.6076341 -0.18984187 0.20855007 -0.1988201 -0.31057033 -0.26848868 -0.20079543
-0.21022996 -0.21866772 -0.28983623 -0.2429506 -0.46977633 -0.2770643 -0.32969835 -0.22499557
-0.2749438 -0.22929774 0.21255922 -0.24874364 -0.5893066 -0.31880566 -0.29600015 -0.23577885
-0.2579358 -0.027421283 -0.2892547 -0.2462714 -0.29563022 -0.24101236 -0.46352154 -0.12209701
-0.2161752 -0.35822693 -0.151767 -0.21482305 -0.29311088 -0.29303366 -0.2563322 -0.30572048
-0.16036408 -0.25290772 -0.32977915 -0.16696437 -0.19065595 -0.25661874 -0.21153069 -0.26374987
-0.25616726 -0.25049546 0.209769 -0.3518129 -0.2560601 -0.33169386 -0.1825051 -0.22634506
-0.18927056 -0.054425646 -0.5571753 -0.20247123 -0.22838421 -0.2427483 -0.6144485 -0.045086082

net.2.weight f4 [256]
00000000: b731 063e ae0d 4e3e 4de2 6b3e e41e 193d
00000010: 1050 cf3d 55bb 013e fbfa 053f f4b9 1b3e
00000020: f899 9e3d b49b 403e 8041 813e e510 303e
00000030: 8c16 2d3e 0db0 e43e 98c4 1a3e 81c6 653e
00000040: db88 df3d 06f7 233e 6601 0c3e 6d54 b23d
00000050: 114f 063e 5ec4 303e e3ea 193d 90e4 0e3e
00000060: 87c2 683e 1857 6f3e 51aa 423e 7545 5a3e
00000070: 72c4 443e 0857 243e 1e39 553e 740a 143e
00000080: a962 503e 4a84 643e 7063 a83e 4f1b 073e
00000090: 906e 853e e883 583e fd7d 0c3f ad8c 7c3e
000000a0: 4be9 d73d c456 673e 34bb c63e b6c9 a43d
000000b0: 6112 393e f2be 473e d7cd 093e 746f 9c3d
000000c0: 5bd2 573e ad80 603e 2fd5 623e 36cc 543e
000000d0: b97f 1f3e 95eb 093f 953f 7d3e f27d 423e
000000e0: aaff 1c3e 1abb 3e3e aa69 5c3e 1f21 fc3d
000000f0: 2edb 043e 5283 143e edf9 2b3e 6899 5a3e
00000100: 7f55 643e accd 0f3d 03a8 103e 76dd ee3d
00000110: 903a 763e 5d7c 413d fd18 373e 6463 013e
00000120: 23ca 373e a51c 0f3e 158d 543e be3f 523e
00000130: bf4c 4b3e 4c6a 3f3e 1e55 733e dfe1 763e
00000140: eef7 b13d d404 ee3d df8f 153e a1fb 513e
00000150: f0ea 2e3e 0cc5 9b3d 9c94 813d 7eda 803e
00000160: 421d 413e 154e 4a3e 3feb f03d 8276 323e
00000170: 76fc 5c3e 69ae da3e 2d7d 223e f982 b13d
00000180: b1d0 333e e071 243e 7447 1e3e 4535 013e
00000190: 2c96 093e b18a fb3d f36d 763e 2e8e 0c3f
000001a0: e462 553e 2043 2a3e 92f3 203e 8da5 493e
000001b0: 29dc 353e a568 983d fee1 213e 58bc 733e
000001c0: 099a 5d3e 5bc4 a43e aff1 1c3e d2a9 0f3d
000001d0: 6a0a 083e 296f f83d cd96 4e3e 1ab1 0c3e
000001e0: 2544 0d3e bac1 6a3e 9ca7 d03d 8b20 893e
000001f0: bbd0 183e 963c 263e 07be 383e cdb9 e93e
00000200: 1bb0 583e 7720 203e c03a 5e3e 93c3 103e
00000210: e70b 243e b205 0b3e dd28 343e 8883 ae3d
00000220: 6d75 6d3e 9d22 f73d 8993 2e3e bc96 763e
00000230: c407 443e e46d 4c3e 5302 303e 22dc 3a3e
00000240: 4b22 203e 4125 903e 22ec f33d 11ad 4a3e
00000250: 5786 773e 8d37 433e d8b2 733e c5d5 1d3e
00000260: fbf6 093e dea0 543e 3beb 5b3e 642e 5a3e
00000270: 922e 4f3e b61c 133e d072 423e 9e5c 043e
00000280: 8a25 c13d 0777 3c3e 30b1 fd3d e01a a03d
00000290: c41e e93d 486b 3b3e 2c99 483d 8e92 563d
000002a0: 5fe6 403e 1a8c 0b3f 591f 483e d737 a23d
000002b0: b262 4e3e ff52 323e 54b7 ce3d 051f 5d3e
000002c0: 35e7 2d3e a329 ba3d cdad 1a3e 7183 113e
000002d0: a921 643e 23c4 d33c e91c 383e 39b2 d73d
000002e0: 2eae 943e f7a8 303e da3d 623e 9e53 423e
000002f0: c7e3 433e 2105 413e 276c 253e 9cb6 e03d
00000300: 8d70 a33d 6a36 903e 3347 523d 503b 243e
00000310: 4be7 af3d 0805 3fbe 7eae 373e 4f9c 713e
00000320: 6bc7 eb3d 245c 573e 5ff4 133e ec35 693e
00000330: b382 0f3f 9404 f73d da7a 403e 7eae 1e3e
00000340: fe32 3b3e 6389 2c3e 6521 253e 0d80 3f3e
00000350: d316 bc3e ff69 403e e36c 6a3e f155 023e
00000360: 80fc 093e 0306 0e3f 0bda 493e e4fc 053e
00000370: b83d 1f3e 8524 2d3e b6cf 153f d824 0d3e
00000380: edbd 4c3e 25da 2f3e 7b12 073e db48 2b3e
00000390: a969 3b3e 61cf 493e 44f7 4c3e f176 833e
000003a0: 9d0d 903d a3ed 4a3e b367 223e 4e8b 6c3d
000003b0: 096d 1f3e 5376 b03d 6dc2 cf3d 850e 463e
000003c0: abef 0a3e 2ecb 333e 22f5 203e ca27 643e
000003d0: 7fe3 4d3e fa8f 683e 9fc4 9d3d 4c4d dc3d
000003e0: f975 db3d 9617 183e 8f97 683e 9d25 1c3e
000003f0: 60d3 183e 8d4b f63d e0b4 ad3e f007 153e
0.13104902 0.20122406 0.23035546 0.037382975 0.101226926 0.12669118 0.5233609 0.15207654
0.07744211 0.18809396 0.25245285 0.17193945 0.16903132 0.44665566 0.15114057 0.22439004
0.10914775 0.160122 0.13672408 0.08707509 0.13116099 0.17262408 0.03757752 0.13954377
0.22730456 0.23373067 0.19010283 0.21315558 0.19215563 0.16048825 0.2082257 0.14457113
0.20350136 0.2231609 0.32888365 0.13194011 0.26060915 0.21144068 0.5487974 0.24663039
0.10542544 0.22591692 0.388147 0.08046286 0.18073417 0.19506434 0.13457428 0.076384455
0.21076338 0.21924086 0.22151636 0.20781025 0.15576066 0.53875095 0.24731286 0.18993357
0.15331903 0.18626061 0.21524683 0.12311005 0.12974235 0.1450322 0.16794558 0.21347582
0.22298239 0.035108253 0.14126591 0.11663334 0.24045777 0.047237743 0.17880626 0.12635571
0.17948203 0.13975771 0.20756944 0.20532128 0.19853495 0.18692893 0.23762938 0.241096
0.08689867 0.11622015 0.14605664 0.20506145 0.17081809 0.07605943 0.06327173 0.25166696
0.18858817 0.19756348 0.1176362 0.1742802 0.21580681 0.4271119 0.15868063 0.08667559
0.17560078 0.16059065 0.15456945 0.12617977 0.13436192 0.12282313 0.2406538 0.5490445
0.20838505 0.16627169 0.15717915 0.19692059 0.17759766 0.07441834 0.15808865 0.23802316
0.21640791 0.32181057 0.1532657 0.035074063 0.13285223 0.12130577 0.20174713 0.13739434
0.13795526 0.22925463 0.10188219 0.2678264 0.14923374 0.16234049 0.1804124 0.45649567
0.21160929 0.15637384 0.21702099 0.14137106 0.16020165 0.13576391 0.17593713 0.08521181
0.23189326 0.12067149 0.17048468 0.24080938 0.19143587 0.19963795 0.17188387 0.18248037
0.15638082 0.28153422 0.11910273 0.19792582 0.2417234 0.1906416 0.23798692 0.15413578
0.13473122 0.20764491 0.21476452 0.21306759 0.20232609 0.14366421 0.1898911 0.12925956
0.09430988 0.1840478 0.123873115 0.07817626 0.11382821 0.18302643 0.0489742 0.05238586
0.1883788 0.54510653 0.19543208 0.07920807 0.20154837 0.17414473 0.10093561 0.21593864
0.1698273 0.09089973 0.15105362 0.14210297 0.22278465 0.025850361 0.17979778 0.1053204
0.2903914 0.17251955 0.22093907 0.1897721 0.19129859 0.18849613 0.16154538 0.1097233
0.07980452 0.28166515 0.051337432 0.16038251 0.085890375 -0.18654263 0.17937657 0.23594783
0.11512645 0.21031243 0.14448689 0.22774476 0.56058806 0.1206142 0.18796864 0.15496251
0.1828117 0.16849284 0.1612602 0.18701191 0.36736163 0.18790434 0.228931 0.12728097
0.13475227 0.55477923 0.19712083 0.13084751 0.15550888 0.16908462 0.58520067 0.13783586
0.19994326 0.1717306 0.13190643 0.16727011 0.18302025 0.19708015 0.200162 0.25676683
0.070338465 0.19817214 0.1585987 0.05775004 0.15568937 0.086163186 0.10144506 0.19341476
0.13567989 0.17557976 0.15718511 0.22280803 0.20106314 0.22711173 0.07703518 0.10756931
0.10715861 0.14852747 0.22714065 0.15248723 0.14924383 0.12026129 0.3392706 0.14553809

net.2.bias f4 [256]
00000000: 80d6 543c ecbb 513d 9460 153d 7a29 9e39
00000010: 5fe7 b33c 7793 0f3d b2c5 153e 4b06 1b3d
00000020: 5f39 d0b9 7019 553d 533c 6a3d 063c 063d
00000030: e4d0 1b3d dfa5 f83d 0715 e83c dc08 633d
00000040: d2d8 f53c 2a37 cb3c ceaa 9e3c babc 933b
00000050: 6bf1 903c 4968 3c3d cfba 89bd 0893 053d
00000060: a60e 053d efc1 0c3d ab9e 603d f647 3b3d
00000070: 3a49 253d 7c1f 05bf dab3 1d3d 3257 ff3c
00000080: 47d1 153d e10d 6f3d 1f2a b03d ccc7 8c3c
00000090: 4a71 763d c07a 153d dbf8 1f3e 51cc 853d
000000a0: be5a 633b bd3f 193d ce30 c33d ad4a 9d3c
000000b0: 298b 2d3d a7d1 3d3d 4e32 d43b dbb0 343c
000000c0: 75fb 0e3d 6fa8 4a3d bd14 583d 0b78 453d
000000d0: f2f8 333d ca98 183e b47d 373d 3444 403d
000000e0: beba 0f3d d822 523d 2fa1 483d 6078 ce3c
000000f0: 094f 6e3c 473d 1c3d f9db ef3c 5356 293d
00000100: 9bc6 7b3d fcc3 69bd 44a1 eb3c be68 7f3c
00000110: 6e90 223d 6df3 09bc aacc 873c 112f 7f3c
00000120: 40c9 073d cd5c e43c e7c3 2d3d d201 493d
00000130: 0ff5 0c3d f08a 0e3d 0421 863d 74b7 823d
00000140: 6640 993c a96f c53c 333f f13c 6348 0d3d
00000150: 4e2d 343d 528e 473b 7125 d4ba b858 703d
00000160: 7e38 5c3d d8cb 293d c919 32bb 48a0 df3c
00000170: 3233 503d 9eac ee3d cd59 1d3d bbb7 d0bb
00000180: 6a33 463d 9ebb 04bf 5beb 213d c4c3 9a3c
00000190: 6262 533c e8bb 783c 88e6 8a3d 0b0d 193e
000001a0: 9405 443d 0521 a03c 161e 2e3d 29b2 1f3d
000001b0: eda5 3d3d 8362 da3b 58a6 ed3c a77d 653d
000001c0: b7ad 583d 9521 9e3d ffc4 e93c 84e8 9bbd
000001d0: 0ad5 9e3c 506a 003d bc15 613d 9ca7 db3c
000001e0: 98ae bc3c 5230 663d 4fe4 a73c 12de 8b3d
000001f0: 734c 023d 6512 08bf b3c3 083d 7ca5 fe3d
00000200: abc1 473d 8a7f 043d b89b 6d3d d282 343d
00000210: 7037 0b3d 6a70 fa3c eade 3f3d d311 573c
00000220: 4a35 293d f648 bc3c 8818 2f3d 3643 8a3d
00000230: 2ed2 c53c 17fd 3d3d 49ff 683c 7492 fd3c
00000240: af0f 07bf 5cc3 963d a8e7 273b 7f29 303d
00000250: a42b 183d 38f2 3b3d db47 6e3d 42f6 e53c
00000260: 8c21 9e3c ab49 583d f829 5b3d 9839 143d
00000270: 6a65 423d 36af 873c b8a0 3e3d 5de1 c73c
00000280: 8fac c43c 992f 333d 094b 5a3c e6bc 833c
00000290: 8057 883c a017 283d 34ba 46bd 82f2 9f3b
000002a0: 0bbb 273d 6b0f 203e a5fb 343d 3baf 823b
000002b0: 820e 433d 27a2 373d 9c73 2c3c cca9 1b3d
000002c0: 6647 fa3c 5df2 a93c 7ad9 db3c 237f ef3c
000002d0: ddeb 363d a511 9ebd edf8 353d d1bf a93c
000002e0: 4dd2 a83d 2967 303d 41c8 883d 267a 683d
000002f0: 7fd4 2a3d 24e7 433d 1bfc 143d a4b9 bc3c
00000300: 31bd fe3b 3d7b 7b3d a106 1b3b fb21 07bf
00000310: b5dd 973b c6e0 3cbd 8768 4b3d 46e9 483d
00000320: ed46 883c ea55 303d d2a2 d93c 864d 763d
00000330: 7369 1a3e 333a f03c b6cb 303d 7884 083d
00000340: d27d 543d fe69 303d 415c 07bf 87cf 383d
00000350: c023 c03d 756b 473d 75ed 773d 6d86 df3c
00000360: 9223 183d e9c0 223e 585c 3c3d e66d f43c
00000370: a821 173d 5282 f73c 9607 283e a85b ae3c
00000380: 9b98 0a3d 90d0 1b3d 1669 ee3b b743 0b3d
00000390: 12d7 1f3d 56d1 643d 9f9d 463d 8546 803d
000003a0: 410f 953a 74c1 243d ae62 933c b93c 09bb
000003b0: 3dbb 233d 9132 993c d331 413c ed2a 573d
000003c0: 8f50 f03c bcd0 563d 9172 07bf 33a8 6c3d
000003d0: 1305 483d 31bb 713d d427 7f3a e7ae 2d3c
000003e0: 09fa ad3c ef64 1f3c 10ab 233d dc6a b53c
000003f0: 10cb e83c 7f37 8f3c cf53 a83d a237 9339
0.012990594 0.051204607 0.036469057 0.0003016701 0.021960912 0.035052743 0.14626196 0.0378478
-0.00039715596 0.052026212 0.057186436 0.032772087 0.03804101 0.121410124 0.02833034 0.05542837
0.030010615 0.024806578 0.019368555 0.004508582 0.017693242 0.04599789 -0.06725084 0.032610923
0.032484673 0.034364637 0.054838818 0.045722924 0.040353037 -0.52001166 0.038501598 0.031169508
0.036576536 0.058362845 0.08601784 0.017185114 0.060166635 0.036494017 0.15622275 0.06533111
0.0034691538 0.0374143 0.09530793 0.019200647 0.04236904 0.04634252 0.0064757233 0.011028494
0.034907777 0.049477037 0.052754153 0.048210185 0.043938585 0.14902034 0.044797614 0.046940044
0.0350902 0.05130276 0.04898184 0.025203884 0.014545211 0.038144376 0.029279696 0.04134209
0.0614687 -0.05707167 0.02876342 0.015588937 0.03968852 -0.008419854 0.016577084 0.015575186
0.03315091 0.027876282 0.042423155 0.049074 0.034413394 0.03480047 0.06549266 0.06382647
0.018707465 0.024101095 0.029449081 0.03449286 0.04398852 0.003044982 -0.0016185475 0.05867836
0.053764813 0.041454166 -0.0027176014 0.027298108 0.050830074 0.11654018 0.03841572 -0.0063695586
0.048388876 -0.5184878 0.039531093 0.018892176 0.012901874 0.015181519 0.067822516 0.14946382
0.047856882 0.019546995 0.04250916 0.038988266 0.046300817 0.0066645755 0.029009983 0.056028035
0.052900042 0.07721249 0.028536318 -0.07612708 0.019388694 0.031351388 0.05495237 0.02681332
0.023032472 0.056198426 0.020494608 0.06829466 0.03181119 -0.5315307 0.03338976 0.124339074
0.04876868 0.032348193 0.058009833 0.044070072 0.033988416 0.030571181 0.046843447 0.013126808
0.041310586 0.02298401 0.042748004 0.06751101 0.024148073 0.046383943 0.014221021 0.030953623
-0.52758306 0.073614806 0.0025620256 0.043008324 0.037150994 0.045885295 0.058173995 0.028071526
0.019303106 0.05280463 0.05350682 0.03618774 0.047459997 0.01656304 0.046539992 0.024399454
0.024008064 0.043746565 0.013323554 0.016081285 0.016643286 0.041038156 -0.04851742 0.004881204
0.040949862 0.15630881 0.0441853 0.0039881743 0.047621258 0.044832375 0.01052561 0.038003728
0.030551624 0.02074545 0.0268371 0.029235428 0.04465853 -0.07718209 0.044426847 0.020721348
0.08243237 0.04306713 0.066788204 0.056757115 0.04170656 0.047827855 0.03637324 0.02303774
0.007774018 0.061396826 0.0023655074 -0.52786225 0.004634584 -0.0461128 0.049660232 0.049050592
0.016635383 0.043050684 0.026566897 0.060132526 0.15079288 0.029324627 0.043163024 0.033329457
0.051877804 0.043069832 -0.52875143 0.04511979 0.09381819 0.048686463 0.06052919 0.027285779
0.037143297 0.15893902 0.045986503 0.02983756 0.03689733 0.030213509 0.16409144 0.02128394
0.033836942 0.038040698 0.007275711 0.034000125 0.039023466 0.0558637 0.048490163 0.062634505
0.0011372344 0.040223554 0.01799139 -0.0020940735 0.039973486 0.01870087 0.011791664 0.05253117
0.029335288 0.05244516 -0.5290919 0.057777595 0.048832964 0.05901641 0.0009733413 0.010600782
0.02123739 0.009728654 0.03995806 0.022145681 0.02841714 0.017482517 0.0821911 0.00028079475

net.4.weight f4 [256, 256]
00000000: ebeb 273b 32a5 64bc 5e00 6a3c 22cb 1d3d
00000010: 8427 6e3c 6233 633c f6aa 913a a1d8 bfbc
00000020: 0bea 473d c299 2abd c91f 2fbb 6fba c63c
00000030: 7464 2c3d 9645 7dbb 903f 56bb 2298 9abc
00000040: 72b8 3e3b f3c5 023d b848 45bc 5cdf c5bb
00000050: 10a1 10bc de80 a63c d37b 1a3c 1f51 57bc
00000060: 87fb fdbc d1dd 283d 9c37 5d3c 1ff8 0ebd
00000070: 991a 97bc fd18 7b3d 3978 973d a648 503c
00000080: bd66 493d 9450 ce3c 3176 7cbc 0dba 813d
00000090: 93ea f83b 8e78 b1bc 1024 79bb f64e 7abc
000000a0: c162 663c acca 44bd d87d e239 be10 05bc
000000b0: 83f9 a1bc ade3 38ba 81d5 78bc 6b86 de3c
000000c0: 226e 683b 59d7 babc dcbd 9f3b 4bd2 9fbc
000000d0: a269 c3bb 5d79 9439 da26 71bc bb49 56bb
000000e0: d015 3c3d 6db9 503d 44ef 703d ae29 29bb
000000f0: d3de 683b 5c2a c1bc a0aa 2cbd 8964 98bb
00000100: 59f1 283b b9f6 07bc 75b3 0a3d a571 38bd
00000110: 92e2 73bd 5827 26bd 738e 2a3c 790f 4f3d
00000120: 8ee1 fdbb b834 643d 8a36 2bbd 9c76 083c
00000130: 8381 bebc 7d97 243c 7a61 9bbc 8747 e43c
00000140: f517 41bc 3f99 28bd f17b 64bc 8b1f d6bc
00000150: ec06 263d 6673 07bd 03de e6b9 ae8f 2cbc
00000160: 5762 cabc 776b 6b3d 5888 1f3d e93c 99bc
00000170: 1ec9 07bc 5444 f03b c9b0 023b 4518 11bd
00000180: 9fb8 ff3c c771 5f3d 7a06 3bbd d551 65bc
00000190: f8ac 663d aa05 89bc 0f44 26bd 6d92 903c
000001a0: 28af a73c b063 053d 3d9c 61bc 7ea5 46bc
000001b0: 8830 293d 7a43 14bd 0357 493d 62e9 4a3b
000001c0: eda2 e5bb e32b 493d d3fe 48bd 6d97 d238
000001d0: fbd5 e0bb 6bd3 02bc bd6b 693b 6412 383c
000001e0: f2f2 313c e351 afbc 8349 ff3b b5da 483c
000001f0: 90fa 57bc 07f2 2d3d 9717 a6bc 5263 23bb
00000200: 77d5 00bd 09db 33b9 de84 7cbc caee 75bb
00000210: 9a4a 323d 6aa5 c43c 852c 5b3b 1b9a 713c
00000220: 1ecc 7bbd 8918 0e3d 05fa 723b 2546 053c
00000230: b138 1cbd 5431 b43b 704f b4bc 1e62 2e3c
00000240: 1a57 423d 5431 1dbd efd8 933c 19bf 95bc
00000250: c864 b23c 1c4a 28bc 4294 10bb a704 7f3d
00000260: ad05 70bb 250e cebc e58d 083c ae5f 6abc
00000270: e3bf 193c 8a35 14bd 3bc4 89bc 0080 a93b
00000280: c7b9 033d a227 96bc 7b91 e13c cb0c d8bc
00000290: 9cff 193d 01e6 8bbb 1451 1abb 40cf d93c
000002a0: c0d4 bbbc 166e 80bc 2589 81bc 0cd9 1b3d
000002b0: 3968 0d3c 6114 3c3d 2980 1abd 0710 103b
000002c0: b660 f0bc 0364 88bc c648 8f3c adbe 09bd
000002d0: 1017 aeba 396e e8bc 9373 493c bd32 bebc
000002e0: 57f3 ad3d 5806 21bc 33a3 b0bc 1df4 193c
000002f0: 9da8 e33c d0a3 07bd 7755 7a3d 32d4 cabb
00000300: 5b30 4abc 5e12 203d 4210 d8bc bff4 f63c
00000310: 749d 8e3d 2bdf afbb c665 093b e0e9 9d3c
00000320: ce7f 133d d98b 6d3b 97c8 c83d 3db4 4abd
00000330: 3c71 6bbb be88 05bd 513a e8bc 8537 70bc
00000340: 14ff 06bd c90a 853c 2ada 213d ae77 9bbc
00000350: ff4a 6d3d f3f9 65bb 2c03 553d 4022 2abb
00000360: d34e 3dbd e762 ee3b 9674 a6bb cf47 c6bc
00000370: db7e 38ba b7a8 743d ebb9 35ba c424 1ebd
00000380: b75d 703b 634e 143d f125 ab3c 7153 43bd
00000390: 40c2 2bbc d8ab 00bd dae7 e33c d914 8e3c
000003a0: f8c1 723c 9ff0 e1bc 0820 023b b50a b5bc
000003b0: 09d5 67ba 5609 003c f95a 393d f078 f4bb
000003c0: ef1c 3ebd 0aee 323b f771 683d f6c6 a8bc
000003d0: 56d8 18bb 6fff 8c3d 8b0f 6a3d be3b 933c
000003e0: 0aa5 593c 5d96 17bd 86e0 5bbd 4441 4dbd
000003f0: 13de ba3a 7d96 133c 57e6 c1bc 8d9c 7bbc
0.0025622796 -0.013955401 0.014282314 0.0385238 0.014535788 0.013867231 0.0011113572 -0.023418726
0.048807185 -0.04165054 -0.0026721826 0.02425882 0.042087987 -0.0038646213 -0.0032691695 -0.01887137
0.0029101637 0.03192706 -0.012041263 -0.0060385894 -0.008827463 0.02032512 0.009428936 -0.013141899
-0.031003727 0.041227166 0.013502028 -0.034904595 -0.0184453 0.061303128 0.073959775 0.012712633
0.049170244 0.025184907 -0.015409038 0.063343145 0.007596323 -0.02166393 -0.003801588 -0.015277615
0.014061631 -0.048044845 0.0004319984 -0.008121667 -0.019772297 -0.00070529693 -0.015187622 0.027163705
0.0035466035 -0.022807764 0.004874928 -0.019509455 -0.00596352 0.00028319182 -0.014718736 -0.0032697755
0.04591924 0.050958086 0.05882193 -0.0025812197 0.0035533204 -0.023579769 -0.04215491 -0.0046506566
0.002577862 -0.008298569 0.03386255 -0.045030255 -0.059542246 -0.040564865 0.010409939 0.050551865
-0.0077478355 0.05571434 -0.04180006 0.00832906 -0.023255115 0.010045883 -0.018967379 0.027866138
-0.011785497 -0.041161772 -0.013945566 -0.026138088 0.040533945 -0.033069037 -0.0004403443 -0.010532303
-0.024705095 0.057475533 0.038948387 -0.018705802 -0.008287696 0.007332364 0.0019941798 -0.035423536
0.031215964 0.054551866 -0.045660473 -0.013996561 0.0563173 -0.016726334 -0.04059225 0.017647946
0.020469263 0.032565773 -0.01377016 -0.012124417 0.04130605 -0.036197163 0.049155246 0.003096186
-0.0070079477 0.04911412 -0.049071144 0.000100417856 -0.006861446 -0.007984976 0.0035617196 0.011234853
0.010861145 -0.021401351 0.0077907457 0.012259175 -0.013182297 0.042467143 -0.02027492 -0.0024931026
-0.031453576 -0.00017152367 -0.015412537 -0.0037526363 0.043528177 0.024004657 0.0033443284 0.014746214
-0.06147396 0.034691367 0.0037075293 0.0081344 -0.038140003 0.0054990444 -0.022010535 0.01064351
0.047446348 -0.03837712 0.018047778 -0.018279599 0.021776572 -0.010271575 -0.0022061025 0.062260296
-0.0036624477 -0.025153229 0.008334612 -0.014305038 0.009384128 -0.03618387 -0.016817203 0.0051727295
0.032159593 -0.018329445 0.02753519 -0.026373288 0.037597284 -0.004269362 -0.0023546861 0.026588082
-0.022928596 -0.015677493 -0.015812466 0.03804879 0.008630806 0.045917872 -0.03771988 0.002198221
-0.02934299 -0.016649252 0.017490756 -0.03362911 -0.001328202 -0.02837287 0.012295621 -0.023217553
0.08493679 -0.009828173 -0.021562194 0.00939658 0.027790362 -0.03311521 0.061116662 -0.0061898464
-0.01234063 0.039080016 -0.02637494 0.030146 0.069636256 -0.00536718 0.0020965203 0.01927656
0.036010556 0.0036246686 0.098038845 -0.049488295 -0.0035925647 -0.03260111 -0.02834812 -0.014661674
-0.032958105 0.016240494 0.039514698 -0.018977966 0.05793285 -0.0035091608 0.052004978 -0.0025960356
-0.04621775 0.0072749737 -0.005079816 -0.024204163 -0.0007037946 0.05973121 -0.0006932306 -0.03860928
0.0036676952 0.036207568 0.020892115 -0.047686998 -0.0104833245 -0.031413883 0.027820516 0.017343925
0.014816754 -0.027580557 0.0019855518 -0.022099832 -0.00088436954 0.007814726 0.045252774 -0.007460706
-0.046414312 0.0027302527 0.05674931 -0.020602684 -0.0023322306 0.068846576 0.05714373 0.017972823
0.013283977 -0.037008632 -0.05368092 -0.05011107 0.0014256857 0.009008047 -0.023669405 -0.015357149

net.4.bias f4 [256]
00000000: 136c a0bd c23d 9fbd 9671 cebd 4076 13bd
00000010: eec5 b3bd 566d 04be 47bb 78bd 3ee9 febd
00000020: 8abe e4bd 110b 5abd 3ac4 acbd deaa 8abd
00000030: 1568 9dbd c8fe 10be e80e 3fbd ee58 a4bd
00000040: f96f edbd a6c2 69bd fd2e 83bd 6723 6dbd
00000050: dffb 80bd c7b2 96bd 17a3 7fbd 1b9a 37bd
00000060: c47c fabd 67ed 99bd 1838 b0bd 938d cebd
00000070: d8d9 a1bd e49b cdbd 5462 d3bd 5555 22be
00000080: 54e8 21bd 73d5 8abd 9743 55bd 22cf 41be
00000090: ea95 adbd 6bdd b6bd 028d 00be f14f 97bd
000000a0: 1749 3fbd cd1e 06be 0b5a 16be 9690 f6bd
000000b0: 21f2 8dbc b079 62bd f947 9cbd 5d14 a7bd
000000c0: edf1 95bd f7f0 a4bd 077a e9bd f82a 05be
000000d0: fbf1 87bd 6f1a 4bbd 99a1 92bd 39ec 0cbe
000000e0: 1392 73bd b95f 04bb 90bc 6abb dbaf 10be
000000f0: f66f ed9d 50c5 e7bd fd63 fcbd 4443 93bd
00000100: 79fd c3bc 7d66 ceb8 7eab cabd e5e1 49bd
00000110: bebe 9cbd 4a8c 79bd edab 64bd 6313 3dbd
00000120: c46e 1fa7 f263 9a97 3cd1 f1bd fe45 91bd
00000130: 9d35 bbbd a6e6 98bd e471 e7bc 7285 b5bd
00000140: 0a70 e8bd eba7 f2bd 75ac 93bd 644c 54bb
00000150: 73be 8bbd 4e7e c1bd c0aa dcbd 2edf e3bd
00000160: aa5a 80bd 2e43 ccbd c3b1 68bd 35aa 02be
00000170: 7acc fbbc 73ef 9ebc 6328 d1bd 6ff0 c6bd
00000180: 40ac 99bd 24ca b5bb 4e03 d8bd 9149 d8bd
00000190: d9b3 ecbd d2a4 f5bd eb07 ffbd b482 83bd
000001a0: e357 cdbd 4335 78bb 1cb4 f7bd 0569 e1bc
000001b0: 4e11 aebc 3520 afbd 94e1 5cbd a9a9 38be
000001c0: 359b c3bc c4ff c9bd 9df2 ffbd 05c0 ccbd
000001d0: c49c 0bbc 1429 32bd 3183 a3bd fd63 91bd
000001e0: d60d 93bd fea1 efbd 5754 9abd 3aac 9abd
000001f0: fe72 d5bd 27a6 a6bc 09a3 e7bd e901 87bd
00000200: 3fd7 23bd 110d 17bb 05f6 2dbd d355 e8bd
00000210: 8582 e5ba 8520 babd c9b1 8cbd 5b1c 69bd
00000220: 992d 9ebd 5a9a b6bd afea 7bbd 0ea7 edbd
00000230: fc5b cabd e6a9 d4bd 69f7 bebd 0e03 c7bd
00000240: 1e58 e9bd b8f1 91bd 1832 1cb5 47d7 8cbd
00000250: 8209 91bd 7de7 97bd 443d 03be 9572 ddbd
00000260: ac3c 4bbd 4575 a7bd f241 88bd 27d5 9bbd
00000270: d74b dabd f987 47be ee79 febc 09bb 9cbc
00000280: 7d70 18be a62e b8bc 90f0 c4bd dfea 64be
00000290: afaf 8abd 5628 0cbe 5dde c9bd 970d 05be
000002a0: 44e9 dcbd 2c12 bfbc 4b8a a8bd 3fed 7abd
000002b0: 235c e0bd 85e2 ccbd 682a 8abd 7d2e c6bd
000002c0: d4ea 95bd 1dfe dabd a890 04be fd59 10be
000002d0: a6b6 8dbb 1775 69bd 03de ffbd bf98 b2bd
000002e0: 4200 acbd e74e a7bd 53a9 a3bd 1689 88bd
000002f0: ad00 22be aec9 90bc d6d7 dbbd 8659 253c
00000300: ded6 2fbe 7c3a edbd 3243 d1bd 0de2 39bd
00000310: bd0c 8dbc 8c03 8cbd dc4b 8cbd 5b67 e5bd
00000320: f4dc bdbd cc3d adbd 58ad 33be ed40 94bc
00000330: e2c8 53bd b0bb c0bd 4b2d f4bd ec4c e1bd
00000340: 4173 a2bd 2601 63be 59df a4bd ece1 e4bd
00000350: aec8 a8bd 98b0 fdbd 094d 72bd 627e e7bd
00000360: 6d44 3bbd 4985 3ebd ff24 9cbd 4715 c7bd
00000370: 2706 c1bc fd9c afbd 8821 35be 6d91 08be
00000380: 0f67 76bd 21fd 38be ec12 70bd b630 69bc
00000390: 30a7 f8bd dbe6 96bd 8d30 81bd da46 21bd
000003a0: 5372 b3bd 12bd 79bd 1949 32bd 7b81 b5bd
000003b0: 6376 f1bd 9a74 8ebd 517f 91bd 33a8 debc
000003c0: ce63 90bd 9d48 1cbb 1c34 c7bd e68d 83bd
000003d0: aa8d afbd 9489 b4bd 18ad 4cbd d161 a1bd
000003e0: 7589 35bc b01c 0bbd 55c8 f3bc 2230 34bd
000003f0: d4ff 30bd 75e1 8dbd 4717 30bd f3e8 e4bd
-0.078331135 -0.07775451 -0.100802585 -0.036001444 -0.087779865 -0.12932333 -0.060725477 -0.12446831
-0.11169155 -0.05323321 -0.08435865 -0.067708716 -0.07685868 -0.14159691 -0.046645075 -0.080247745
-0.11593623 -0.057070397 -0.06405447 -0.05789509 -0.062980406 -0.07358318 -0.062411394 -0.0448247
-0.122308284 -0.07515984 -0.08604449 -0.10085597 -0.079028785 -0.100394994 -0.10321489 -0.15852864
-0.039528206 -0.067789935 -0.05206641 -0.18926671 -0.084758595 -0.08928951 -0.1255379 -0.073882945
-0.046700563 -0.13097687 -0.14682786 -0.12039296 -0.01732737 -0.05529183 -0.07630915 -0.08158181
-0.07321534 -0.08053773 -0.11400228 -0.13004673 -0.06637951 -0.049585756 -0.071597286 -0.13761987
-0.05946548 -0.0020198657 -0.0035817958 -0.14129584 -6.2849143e-21 -0.11316931 -0.12323759 -0.07190564
-0.023924576 -9.8419354e-05 -0.09895991 -0.049287695 -0.07653569 -0.060924806 -0.055828024 -0.046161067
-2.2125729e-15 -9.977246e-25 -0.118074864 -0.07093428 -0.09141085 -0.07465868 -0.02825255 -0.08863343
-0.11349495 -0.11848434 -0.07210628 -0.0032394165 -0.06823435 -0.09447919 -0.107747555 -0.111265525
-0.06267293 -0.09973751 -0.05681015 -0.12760241 -0.03073715 -0.019401288 -0.10212781 -0.09713828
-0.07503557 -0.0055477787 -0.10547505 -0.10560907 -0.11557741 -0.119943276 -0.12452682 -0.06421414
-0.10026529 -0.0037873543 -0.120949 -0.027515898 -0.021248486 -0.08551065 -0.053926066 -0.1803347
-0.02387772 -0.098632365 -0.12497447 -0.09997562 -0.008521263 -0.043496206 -0.07984007 -0.070991494
-0.07180373 -0.117008194 -0.07535618 -0.07552381 -0.10422324 -0.0203429 -0.11310393 -0.06592161
-0.040000197 -0.002304856 -0.04247095 -0.11344495 -0.0017510211 -0.09088234 -0.06869847 -0.056911808
-0.07723541 -0.08916159 -0.06150311 -0.11604129 -0.09880826 -0.10383968 -0.093245335 -0.097173795
-0.1139376 -0.07126182 -5.8187425e-07 -0.068769984 -0.070818916 -0.074172 -0.1281634 -0.108128704
-0.049618408 -0.08176664 -0.06653203 -0.07609015 -0.106589966 -0.19485463 -0.031064 -0.019132154
-0.14886661 -0.022483181 -0.09616196 -0.22355221 -0.0677179 -0.13687262 -0.098568656 -0.12993465
-0.107866794 -0.023324095 -0.08229502 -0.06126141 -0.10955074 -0.10004143 -0.067463696 -0.09676836
-0.073201805 -0.106929995 -0.12945807 -0.14096828 -0.004324752 -0.05699643 -0.12493517 -0.0872054
-0.08398487 -0.08169346 -0.079912804 -0.06666772 -0.1582057 -0.017674293 -0.10734527 0.010092145
-0.17171809 -0.11583421 -0.102178946 -0.045381594 -0.017217988 -0.06836614 -0.068504065 -0.11201354
-0.09270659 -0.084590524 -0.17546594 -0.018097365 -0.05170525 -0.094107985 -0.119227014 -0.11001
-0.07932139 -0.22168407 -0.08050413 -0.11175904 -0.082414016 -0.12387198 -0.059155498 -0.113034025
-0.045719553 -0.04651383 -0.07624244 -0.09720855 -0.023562504 -0.08574865 -0.17688572 -0.13336726
-0.060156878 -0.18065311 -0.058611795 -0.014232805 -0.121412635 -0.07368251 -0.063080885 -0.03937421
-0.0876204 -0.060971327 -0.043526743 -0.08862587 -0.117901586 -0.06955834 -0.07104362 -0.027179813
-0.07050286 -0.0023846992 -0.09726736 -0.06423549 -0.08571942 -0.088153034 -0.049969763 -0.07879985
-0.011080136 -0.033962905 -0.029758612 -0.043991216 -0.043212727 -0.06927768 -0.04299095 -0.11177244

net.6.weight f4 [256]
00000000: 6c5e c23e 6137 a93e b2a5 9e3e d0fc 973e
00000010: 994b 843e 94a1 8b3e 09e9 533e 98e6 983e
00000020: 8e13 c93e 4bd9 943e 0cc3 993e 5049 953e
00000030: c488 a83e 8ee9 fd3e f982 703e f1e9 9e3e
00000040: 61f7 bc3e 2fd5 833e 1bd4 be3e 5e38 a63e
00000050: cdf2 963e 0608 013f ecf2 7d3e 4ea6 a53e
00000060: aab2 f93e 047e dc3e 294c c03e 3082 c33e
00000070: 3936 863e 7099 8a3e cd83 b33e a091 c43e
00000080: e492 8c3e 04d1 993e aa4b 833e db75 033f
00000090: 9524 883e 6196 883e 76d4 073f 4647 8c3e
000000a0: 2bc7 543e 25c3 d43e a38a e73e 1405 ea3e
000000b0: db02 653e 2a8f 993e bcf2 883e 4946 b23e
000000c0: 5a12 8b3e 74da 923e 5a29 ed3e bf97 fd3e
000000d0: 5ed8 8d3e a0fc 8f3e d38b e83e 8409 033f
000000e0: 3f5d 8e3e 8951 353d 6ca7 ff3e 2289 f63e
000000f0: 9359 fe3e a5e4 0a3f 01c4 a23e b97c aa3e
00000100: 6014 7f3e 744b c53e ac21 973e e5cc 84be
00000110: f924 973e bcb5 9f3e 722f 913e 606b e63e
00000120: e85a ec3e f803 cc3e 1807 9e3e 8ca0 8c3e
00000130: ba45 843e a14d a83e a829 943e 9145 803e
00000140: e755 f43e 31be 8f3e fd0d 8c3e eae8 a33e
00000150: 04fd 813e 0ed9 633e 6c2f bc3e 174c e03e
00000160: 0fbf e33e 9bc7 4c3e 999b 803e dc99 e23e
00000170: 2484 913e 624e 9f3e 5238 543e d102 9b3e
00000180: 3f54 953e e6b2 763e 7437 ea3e b13d 6e3e
00000190: 6b5e f73e 9415 cd3e 1b82 9f3e 6dc9 8b3e
000001a0: 0bd3 ec3e e1d2 ed3d 2e06 d43e bd74 9d3e
000001b0: faac 8f3e db3f 833e 89b9 ba3e a7a9 003f
000001c0: 76f4 903e f3b2 033f b7ab de3e a601 9b3e
000001d0: e433 963e 812e 913e fa1a 923e f4e3 bf3e
000001e0: f4f6 733e de40 ea3e d75d ab3e be76 ba3e
000001f0: 367d e93e 0f73 903e faef 013f c681 983e
00000200: 6659 823e 2986 773e 8130 dd3e 9da9 fa3e
00000210: b8ea c83e 150f e93e 3ba0 983e 2b03 cd3e
00000220: 990c a43e f1e9 743e d0e3 8f3e 63b7 b03e
00000230: 5b07 e33e f65b e53e cc67 903e c0ac 863e
00000240: fdcc fe3e 7732 5e3e d462 ed3e 7b43 903e
00000250: 3485 983e 5342 8b3e 8cbc bb3e b69e a73e
00000260: 04d3 ee3e 6fcf 9b3e 380c af3e bbca 693e
00000270: 624a 9b3e ab52 a43e c3c7 b43e 7bc5 0a3e
00000280: 38ee b13e a2d7 dd3e 4320 9b3e eddd de3e
00000290: 0004 5e3e 54f1 8a3e a0ff 803e d6ad 013f
000002a0: 9a9a 6d3e b593 ac3e 34e1 bb3e 588a 903e
000002b0: 15f4 a23e e645 d03e 79b6 813e 0b89 813e
000002c0: cd93 9f3e 6a45 6e3e 054a 053f 4ea4 af3e
000002d0: a9d4 d33d 0293 b53e 3d7d d33e 6774 8d3e
000002e0: 3cc7 7e3e a44f 793e e818 c83e 5c90 9c3e
000002f0: 3de1 f73e 6c81 8e3e cc72 e13e d1ac 043e
00000300: 1ddf 003f b1c1 003f b669 963e fbff 8c3e
00000310: 8669 8a3e e65d 863e c123 9a3e 3b9e cb3e
00000320: 15c8 ca3e 5d8c b13e 085c ff3e 7143 dd3e
00000330: 82bb b23e 51fc b23e d36f f33e a5b8 d23e
00000340: 0df3 903e b025 bc3e f5ce 403e 1594 db3e
00000350: 27f2 963e e3a8 cd3e 2329 9c3e 850f 063f
00000360: aae2 923e 588f 7c3e 1cb1 9c3e 0dd1 e83e
00000370: 3412 763e 02f8 e23e 65b8 933e 36e6 de3e
00000380: 60d9 913e f5e6 053f b8e9 8f3e d93e ea3e
00000390: 4e94 743e a1ed c43e e689 973e 3d02 9e3e
000003a0: 38a7 853e c044 933e 8abb 4b3e cf6f 673e
000003b0: b410 f83e aa9f 9e3e 2b2d 763e 064d 8d3e
000003c0: dd70 d53e 772c 923e c73b 833e fce8 823e
000003d0: 7579 a13e db11 833e 8b53 943e 7ed8 8e3e
000003e0: fcff 803e 83fc a33e 2beb ab3e 21e9 e23e
000003f0: 371e e33e c070 a23e 51eb 913e bfac ed3e
0.37962663 0.33050063 0.3098579 0.29685068 0.25838926 0.27271712 0.20694365 0.2986343
0.39272732 0.2907203 0.3003162 0.29157495 0.32916844 0.4959225 0.23487462 0.31037858
0.36907485 0.25748584 0.372712 0.3246488 0.29482117 0.5040287 0.24799699 0.32353443
0.48769122 0.43064892 0.37558106 0.38185263 0.26213244 0.2707019 0.35061494 0.38392353
0.2745582 0.3004228 0.25643665 0.5135171 0.2659041 0.2667723 0.53058565 0.27398127
0.20779102 0.41555133 0.4522296 0.45707 0.2236437 0.29992038 0.26747692 0.34819248
0.2716244 0.28682292 0.4632061 0.49529836 0.27704138 0.28122425 0.45419177 0.51186395
0.27805516 0.04426721 0.4993242 0.481515 0.49677715 0.54255134 0.31790164 0.3329828
0.24910116 0.3853413 0.29517877 -0.25937572 0.29520395 0.3119334 0.2835651 0.45003796
0.46163106 0.39846778 0.30864787 0.27466238 0.25834447 0.32871726 0.2893803 0.25053075
0.47721788 0.28074792 0.27354422 0.32013637 0.25388348 0.22250769 0.3675493 0.43808052
0.44481704 0.19998018 0.25118712 0.4425801 0.28421128 0.3111449 0.2072461 0.30275586
0.29165837 0.24091682 0.45745432 0.23265721 0.48314223 0.40055525 0.3115395 0.27302113
0.46254763 0.116124876 0.41410965 0.30753127 0.28061658 0.25634655 0.36469677 0.5025887
0.2831151 0.5144493 0.43490383 0.30274695 0.29336464 0.28355792 0.28536206 0.37478602
0.23824674 0.45752615 0.33470032 0.36418718 0.4560334 0.28212783 0.507568 0.2978651
0.2545883 0.24172272 0.43201068 0.4895753 0.39241576 0.4551932 0.29809746 0.4004148
0.3204086 0.23917367 0.28103495 0.34514913 0.4434155 0.44796723 0.2820419 0.26303673
0.4976577 0.21698938 0.46364462 0.28176484 0.29789126 0.2719904 0.36667287 0.32738274
0.46645367 0.30431697 0.3418901 0.22831242 0.30330187 0.3209432 0.35308656 0.13551895
0.3475206 0.43328577 0.3029805 0.4352869 0.21681213 0.27137244 0.25195026 0.5065588
0.23203507 0.33706442 0.36695254 0.28230548 0.31826845 0.40678328 0.25334528 0.25299868
0.3116745 0.23268667 0.5206607 0.34305042 0.10343296 0.3546372 0.41306487 0.2762787
0.2488069 0.24346787 0.39081502 0.30578887 0.4841403 0.27833116 0.44032896 0.12956549
0.50340444 0.5029555 0.29377526 0.27539048 0.27033633 0.26243514 0.30105403 0.39769158
0.39605775 0.346774 0.49874902 0.43215516 0.34908682 0.34958127 0.47546253 0.41156498
0.28310433 0.36747503 0.18828948 0.42886415 0.29481623 0.40167913 0.30500135 0.5236743
0.28688556 0.24664056 0.30603874 0.45471993 0.24030381 0.4432984 0.2885162 0.43535012
0.28486156 0.5230554 0.28108 0.45751074 0.23884699 0.38462546 0.29597396 0.30861083
0.2610414 0.2876339 0.19895759 0.22601245 0.48450243 0.3098119 0.24040668 0.27597827
0.4168767 0.2854955 0.25631544 0.25568378 0.31537977 0.2559956 0.28969988 0.27899545
0.251953 0.3202859 0.33577856 0.44318488 0.4435899 0.31726646 0.28499845 0.46420857

net.6.bias f4 [256]
00000000: e056 c93c 6ec4 c33c cfb2 de3c e351 923c
00000010: 58d1 9d3c 141c a33c c231 893b d142 d83c
00000020: 4307 fb3c 58f0 bd3c 083c be3c 9799 753c
00000030: bdfe c93c ea57 0d3d 87a2 8e3c c07a 933c
00000040: d36d 053d b1e3 913c 51b6 d73c 498b ba3c
00000050: 4570 913c c5ac 2d3d aefb a73c 7731 a53c
00000060: 21b0 233d 2378 003d d5aa f23c bb4f da3c
00000070: 54e2 8e3c bcc3 983c b1d8 083d 7edd 023d
00000080: bc0c 9e3b f0d1 863c 14e2 a13c 222a 143d
00000090: 7775 893c 82e4 803c 929f 3a3d 70c9 793c
000000a0: ed96 55bc e529 073d d6f2 183d e371 2d3d
000000b0: 0459 053c 341f 8a3c 2d4b 513c ba4a f73c
000000c0: bf11 943c d732 963c f4f3 253d 7664 0e3d
000000d0: c0b5 9a3c c6e4 1d3c bc71 143d 08e0 2a3d
000000e0: baa6 8e3c 0702 27bf d6a4 2b3d 4f15 143d
000000f0: 8b4d 3a3d aa81 1f3d 4e1d 013d d95d fe3c
00000100: da30 493c 0864 e63c cc5f a43c a744 06bc
00000110: 2a4e df3c 2786 643c a5a3 ac3c 1240 133d
00000120: 8f5e 193d 29de 043d 638f eb3c e41f d03c
00000130: c720 e23c dd7a cb3c 06e3 203c ab62 9c3c
00000140: 5f77 1c3d f4ce d83c 1e91 913c a6f5 603c
00000150: 13fd b93c 0a30 a53c 9e74 133d 677c 123d
00000160: bb1f 0a3d 7e8c a63b 19a3 ae3c 7b7c 113d
00000170: 01e6 513c 9929 683c 2472 853c d7bd 9e3c
00000180: 1ed4 d03c 273f 253c 6c56 183d 9c66 1d3c
00000190: 5241 193d 038d ea3c ecd6 923c a93a 883c
000001a0: 7fab 113d 6584 17bd b3c6 fe3c b8cc 9f3c
000001b0: 63b3 353c 28f3 b03c 2341 ed3c 4a9d 143d
000001c0: b82b 2b3c 9618 223d b14e 0b3d f4c9 b63c
000001d0: a698 353c c3ee 883c 79d2 803c 9e91 f43c
000001e0: 2039 7b3c a654 163d 8ad3 853c 1454 d03c
000001f0: 199c 053d d544 383c ada3 273d d3e0 de3c
00000200: c7f6 6a3c 5148 f0bb df85 173d 6bd4 0e3d
00000210: 07f9 ff3c 65d9 083d 760c b63c 73f7 e53c
00000220: 1962 d63c ef1b a23c b5fe bc3c 656e ba3c
00000230: 7198 033d 0012 083d f712 b63c a99a aa3c
00000240: fb15 283d 0b71 813b 6082 293d e152 c63c
00000250: 992e c33c 3998 8d3c b0f6 d33c 0d64 ed3c
00000260: 9a21 1e3d f9ec e33c fdc3 af3c c47d ac3c
00000270: 6a4f b23c 9706 a13c b4d5 8f3c 25fa 09bd
00000280: 02f9 d73c 6c78 1e3d 2dda a13c 95c4 043d
00000290: 0060 9b3c ec7c 9f3c 2f9d 9c3c f000 163d
000002a0: 3fa3 463c 6b57 943c c2bd bf3c 5046 3b3c
000002b0: 802e d13c 613e 013d 46a6 5a3c c07d 2a3c
000002c0: bf49 ec3c 4f88 bf3c 955b 233d 8916 ed3c
000002d0: 41ec ebbc 8ea9 cc3c 77ef f93c 207f 7c3c
000002e0: 6b65 b43c 9f61 a83c 0dff e73c 6238 d63c
000002f0: 4b53 303d 49bb 9a3b 6f3f ed3c 1ca0 fabc
00000300: ef7b 3c3d d9d0 293d 0eed b13c 5bea 953c
00000310: 54d5 513c 2020 a83c 8b83 d23c 7e83 0b3d
00000320: aa6c 0c3d a914 ca3c 1498 2f3d 75a2 ed3c
00000330: a8d1 c23c b420 053d fd6c 0b3d 5d6b e33c
00000340: 519b 723c d0f5 e33c 5869 ecbb a191 143d
00000350: 83a2 ed3c 0680 f43c e4e1 a73c d988 193d
00000360: e932 893c 763c 683c 8108 c33c d3c2 0e3d
00000370: b526 473c d2e1 023d 8c61 b63c 8e26 0d3d
00000380: 8a4e 4e3c c5b4 383d 6d57 ae3c d855 183d
00000390: 817e 5c3c f124 0f3d da6d 803c bd00 af3c
000003a0: d2d9 a83c 7b23 d53c 3544 12bb a04b 3b3c
000003b0: 88ab 183d 1c25 b43c aaab 873c 295a 833c
000003c0: fcfd fc3c 1322 073c 7f1e d53c fada a03c
000003d0: dc97 ad3c 7e16 db3c 877a 9b3c 24fe ae3c
000003e0: 81ec 4a3b 4f3a a93c b50b f93c 98b3 143d
000003f0: 422e 083d e46d a23c 5a78 c33c 872f 143d
0.024577558 0.023897376 0.027184872 0.017861312 0.019264862 0.01991085 0.00418684 0.026399048
0.030643111 0.023185894 0.023221985 0.014990232 0.024657601 0.03450767 0.017411483 0.018002868
0.03257544 0.017808767 0.026332052 0.022771494 0.01775373 0.042401094 0.020505752 0.020165188
0.03996289 0.03136457 0.029622475 0.026649347 0.017441906 0.01864802 0.033409778 0.031949513
0.0048232954 0.016457528 0.019761123 0.036172993 0.016779644 0.015733961 0.045562334 0.01524578
-0.013036472 0.032998938 0.03734096 0.04234494 0.008138899 0.016860582 0.012774271 0.030187
0.018074868 0.01833479 0.040515855 0.034763776 0.018885493 0.009637063 0.036241278 0.04171756
0.017413486 -0.6523747 0.041905247 0.036153134 0.045484107 0.038942017 0.031522088 0.03105061
0.0122797135 0.02812387 0.02006521 -0.008195079 0.027258951 0.013948 0.021074126 0.035949774
0.037443694 0.03243843 0.028754896 0.025405832 0.02760352 0.02483886 0.009819752 0.019090017
0.03819978 0.02646587 0.017769393 0.013730442 0.022703683 0.020164508 0.035999887 0.03576317
0.033721667 0.005082666 0.021318005 0.035519104 0.012811185 0.014170074 0.016289778 0.019377632
0.02549177 0.0100858575 0.037191793 0.0096069835 0.03741581 0.028631693 0.017924748 0.016629534
0.035563942 -0.036991496 0.031100607 0.019506797 0.011090132 0.021600321 0.028961724 0.036282815
0.010447435 0.03957423 0.034010593 0.022313096 0.0110837575 0.016715413 0.015725361 0.029854592
0.015333444 0.03670182 0.016336221 0.025430717 0.03261957 0.01124688 0.040927578 0.027206814
0.014341063 -0.0073328395 0.036992904 0.034870546 0.031246675 0.03341045 0.022222739 0.028072095
0.026169823 0.01978871 0.023070673 0.022757718 0.0321278 0.03322029 0.02222584 0.0208257
0.041036587 0.0039502434 0.0413841 0.024209442 0.02382593 0.0172845 0.025874466 0.028978372
0.038606264 0.027822958 0.02145576 0.021056063 0.021766383 0.019656463 0.017557956 -0.033685822
0.026363853 0.038689062 0.019757355 0.032414038 0.018966675 0.019468747 0.01911792 0.036621988
0.012123882 0.01810809 0.023405913 0.011430338 0.025534868 0.03155363 0.013345307 0.010405958
0.028843759 0.023380427 0.03988226 0.02894141 -0.028799178 0.024983194 0.030509694 0.015411168
0.022021016 0.020554362 0.02831986 0.026149932 0.043048184 0.004722033 0.028960912 -0.030593924
0.04601663 0.04145894 0.021719482 0.018300226 0.012807209 0.02052313 0.02569749 0.034060948
0.034283318 0.024668055 0.042869642 0.02900813 0.023781613 0.03250189 0.034039486 0.027761156
0.014807538 0.027827173 -0.0072147064 0.036271695 0.029008156 0.029846203 0.020493455 0.037484024
0.016747909 0.014174571 0.023807766 0.034853768 0.012155225 0.03195364 0.02226331 0.034460597
0.012591967 0.04509427 0.021281922 0.037191242 0.013457895 0.03494734 0.015677381 0.021362657
0.020611677 0.026017895 -0.0022318487 0.011431605 0.03727296 0.021990351 0.016561348 0.016034203
0.030882828 0.00824787 0.026015518 0.019635666 0.021190576 0.026744124 0.018979324 0.021361418
0.0030963721 0.020657687 0.03040109 0.036304086 0.03324724 0.01982779 0.023861099 0.036178138
