RL code/models/checkpoint_episode_590000.pth (torch, 801255 bytes, 40 tensors)

net.0.weight f4 [256, 22]
000000 d7 8a 95 bd 9a 0c aa 3d 06 a0 77 3d db 6c 01 be
       -0.07301872 0.08303185 0.060455345 -0.12639181
000010 8a b0 a0 ba b9 ca 6e bd 96 e9 87 3c f8 96 9f bd
       -0.0012259644 -0.0582988 0.016590875 -0.07792467
000020 6f 9e 1e bd 3b 36 2f bd 7b 72 9b bc 34 f4 09 3e
       -0.038725313 -0.042776328 -0.018975487 0.13472062
000030 74 30 40 3d 4a 1d 11 be 56 d7 49 3c 5c 4c 5f bd
       0.04692121 -0.14171329 0.0123194065 -0.05451618
000040 f8 28 ee 3c 00 1e 86 bd 6f 9e 1e 3d 3b 36 2f 3d
       0.02907227 -0.06548691 0.038725313 0.042776328
000050 d7 8a 95 bd 9a 0c aa 3d 23 27 a1 bd 76 c9 36 bd
       -0.07301872 0.08303185 -0.07868793 -0.044625722
000060 df ed 4f 3d 27 78 d8 bd cb ce ab bd 7f da c3 bd
       0.05076396 -0.10569792 -0.08389052 -0.09563159
000070 28 43 3a 3d e6 72 1c bd dd 81 e3 3c 54 1e 81 3c
       0.0454742 -0.038195513 0.027771885 0.015761532
000080 87 1d 50 be 6e e1 17 bd 2c 9f 37 3d c3 bb f0 bd
       -0.20323764 -0.03708022 0.044829533 -0.11754563
000090 44 21 af bd a3 1d a7 bd 57 9f 36 3d be 71 fe bc
       -0.08551267 -0.0815995 0.044585552 -0.031060096
0000a0 dd 81 e3 bc 54 1e 81 bc 23 27 a1 bd 76 c9 36 bd
       -0.027771885 -0.015761532 -0.07868793 -0.044625722
0000b0 17 c8 19 3e 8c 90 10 3e 26 9d 22 3e be 30 21 3e
       0.15017734 0.1411764 0.1588026 0.1574125
0000c0 6d 07 3a be ea 20 23 be 32 3b 30 be 38 65 1e be
       -0.18166895 -0.15930524 -0.17210081 -0.154683
0000d0 34 39 ae be a4 cb a2 be 4b 14 8b be c3 94 7b be
       -0.34028018 -0.3179599 -0.2716392 -0.24568467
0000e0 8d 51 4d be 4b 93 31 be 46 ae 26 3e 73 c3 2a 3e
       -0.2005064 -0.17341344 0.16277418 0.1667612
0000f0 2c 44 39 3e 9d 77 33 3e 34 39 ae 3e a3 cb a2 3e
       0.18092412 0.17526098 0.34028018 0.31795987
000100 2a bc 19 3e c7 82 10 3e 49 0a 83 bd 6a d1 d7 3c
       0.15013185 0.14112388 -0.06398446 0.026344974
000110 70 dc 57 be b0 63 2a 3e 9c 8b b0 bd f5 f2 0f 3d
       -0.21080184 0.1663959 -0.086203784 0.03514381
000120 33 4d 47 3c 75 ee 22 3d c6 1b 24 3d 04 28 9a bc
       0.012164402 0.03977819 0.04006555 -0.018817909
000130 9c 38 9c 3d 4d b3 8e 3c b1 c4 25 be 53 f1 25 3e
       0.07627985 0.017419482 -0.16188313 0.16205339
000140 69 d4 06 be bc 4c 56 3d 21 fe d0 bc 4e fd 51 3d
       -0.13166966 0.052319273 -0.025511803 0.05126696
000150 c6 1b 24 bd 04 28 9a 3c 49 0a 83 bd 6a d1 d7 3c
       -0.04006555 0.018817909 -0.06398446 0.026344974
000160 1b 5b 57 3c e4 04 0a 3d e5 a3 c5 bd 2a fe 56 3e
       0.01314428 0.03369607 -0.09650401 0.20995393
000170 ca b9 58 bd 52 59 bc 3c 73 bc b3 bd 9c bd 45 3c
       -0.052911557 0.02299181 -0.08776178 0.012069132
000180 d1 6c aa 3c 13 2c 9e bd ab 71 d5 3d 06 41 52 bd
       0.02080384 -0.0772325 0.10422071 -0.051331542
000190 e4 fc de bd 08 44 34 3e 87 fd 39 bd 7a f8 92 3d
       -0.10888079 0.17604077 -0.0454078 0.071762994
0001a0 e0 b5 b2 bd c5 bb 42 3d d1 6c aa bc 13 2c 9e 3d
       -0.08726096 0.047542352 -0.02080384 0.0772325
0001b0 1b 5b 57 3c e4 04 0a 3d fb 47 3c 3c 79 aa 55 bd
       0.01314428 0.03369607 0.011491771 -0.05216453
0001c0 81 42 81 bd 68 47 54 be 7e fb 28 3a 72 1f b4 bc
       -0.06311513 -0.20730364 0.00064461667 -0.02198765
0001d0 a9 2c 4d bc 0e 10 b3 bd 9b a5 b5 3d f6 80 64 bc
       -0.012522855 -0.087432966 0.08869477 -0.013946762
0001e0 59 db bd bd ce 79 90 3c 08 92 a8 bc 58 0d 58 be
       -0.09270353 0.017636206 -0.020577446 -0.2109884
0001f0 d6 42 01 bd 90 75 f0 bc fb 67 1c bd f8 03 cc bd
       -0.03155788 -0.029352933 -0.0381851 -0.099616945
000200 9b a5 b5 bd f6 80 64 3c fb 47 3c 3c 79 aa 55 bd
       -0.08869477 0.013946762 0.011491771 -0.05216453
000210 ff 46 7e bd 2c 13 27 3c 29 e1 a9 be 28 de ce 3c
       -0.062079426 0.010197442 -0.33179596 0.025252417
000220 e7 1c 97 3d a1 2e ce ba 5a ff f7 3c 28 67 00 3c
       0.073785596 -0.0015730449 0.030273128 0.007837094
000230 95 74 02 3e 51 2f 14 3b eb be 9c 3c 18 9c 7a bd
       0.12739785 0.002261121 0.019134006 -0.06118402
000240 bb 43 66 be dc 00 de 3c 65 f5 ff bc 7d 8f 66 ba
       -0.22486775 0.02710002 -0.031244943 -0.0008795185
000250 b7 f9 a1 bd bb 2b b9 3b 95 74 02 be 51 2f 14 bb
       -0.079089575 0.005650965 -0.12739785 -0.002261121
000260 ff 46 7e bd 2c 13 27 3c df ab 10 3c 3a c7 cc 3c
       -0.062079426 0.010197442 0.00883004 0.024997342
000270 35 d6 d3 3d ae 87 09 be 11 15 35 3d e7 ad 38 bd
       0.10343591 -0.13430664 0.044209544 -0.04508772
000280 7c 1b e2 bb 3e d1 81 3c a0 e5 0b bc d0 f0 83 3c
       -0.006900249 0.015846845 -0.008538634 0.01610604
000290 55 75 dd 3c 2b c5 13 bd 48 b5 ed 3d ac 23 00 be
       0.027033487 -0.036076706 0.11606842 -0.12513608
0002a0 34 77 50 3d 9d a2 66 bd ca e4 e9 bb 28 55 71 3b
       0.05089493 -0.056307424 -0.0071378695 0.0036824439
0002b0 a0 e5 0b 3c d0 f0 83 bc df ab 10 3c 3a c7 cc 3c
       0.008538634 -0.01610604 0.00883004 0.024997342
0002c0 71 f3 e8 39 af 00 c2 3d 87 2d 18 3b 2a 47 f5 3d
       0.00044431866 0.09472787 0.0023220496 0.11976464
0002d0 47 f5 6d 3d d5 90 e2 3a d9 a2 1e 3d 65 06 85 3c
       0.058095243 0.0017285595 0.038729522 0.0162384
0002e0 d6 0b b8 3d 95 71 c3 3d 09 92 f7 bd e6 cd ef bc
       0.089866325 0.095431484 -0.12088401 -0.029272985
0002f0 69 a9 8f 3d 50 40 0a 3e 90 44 5a ba e4 fd a4 bc
       0.07014734 0.13501096 -0.00083262566 -0.020140596
000300 4b 7c 9a bc b7 47 b8 3b d6 0b b8 bd 95 71 c3 bd
       -0.018858096 0.0056237835 -0.089866325 -0.095431484
000310 71 f3 e8 39 af 00 c2 3d 00 77 b8 bc cb 6e 85 bd
       0.00044431866 0.09472787 -0.022517681 -0.06515273
000320 18 8a ca 3d 09 a9 3a be dd 76 48 3c d6 a0 5d bd
       0.098896205 -0.18228544 0.01223537 -0.054108463
000330 b4 16 df 3b 18 45 83 bd 0a 96 5d bd 22 16 38 3d
       0.0068081263 -0.06409663 -0.054098167 0.044942982
000340 41 b6 17 3d ea 1d 7a bc 3e f6 44 3d 59 e9 02 be
       0.037039045 -0.015265921 0.048086397 -0.12784328
000350 b7 91 88 3d ec 4b bf bd 18 1f 65 3d 1e b5 ee bd
       0.06668418 -0.09340653 0.055937856 -0.11655639
000360 0a 96 5d 3d 22 16 38 bd 00 77 b8 bc cb 6e 85 bd
       0.054098167 -0.044942982 -0.022517681 -0.06515273
000370 fc 0b 9b 3d f2 37 dc 3d 4c 2a e8 3d 18 f8 95 bc
       0.07570645 0.10752858 0.113361925 -0.018306777
000380 7a 0c c6 3d 1b 20 49 3b b8 0f 3b 3d 7d d2 4f 3d
       0.096703485 0.0030689302 0.045669287 0.050737847
000390 19 1d a4 3d 81 a7 cb 3d ec 2f 9e bb c4 cd f1 3c
       0.080133624 0.09944058 -0.00482749 0.029517062
0003a0 7f ff 24 3e fa e8 20 3d fb 3e 95 3d 79 1a 55 bd
       0.16113089 0.039284684 0.07287403 -0.0520272
0003b0 b8 6a b3 3c 05 b5 15 bb 19 1d a4 bd 81 a7 cb bd
       0.021901473 -0.0022843492 -0.080133624 -0.09944058
0003c0 fc 0b 9b 3d f2 37 dc 3d 21 a4 83 bd 3c 8f 19 bd
       0.07570645 0.10752858 -0.064277895 -0.037490115
0003d0 5f 87 72 bd d0 20 79 bd 1f e1 ad bd e6 0a db bc
       -0.05921113 -0.060822308 -0.08490204 -0.026738595
0003e0 80 90 ce bc bf d5 e4 bb c1 1a dc bd 1f 1a b3 bd
       -0.025215387 -0.0069834883 -0.107472904 -0.087452166
0003f0 5a 28 dc 3d 79 f1 df bd 80 3b 15 be 26 7d b6 bd
       0.10749884 -0.10934729 -0.14573479 -0.08910589

net.0.bias f4 [256]
000000 88 80 6c be 9f 71 74 be 98 39 01 be ac 89 93 be
       -0.23095906 -0.23871468 -0.12619627 -0.28815973
000010 22 83 a0 be 43 47 6f be 63 33 1c bf bc e8 93 be
       -0.31350046 -0.23367028 -0.6101591 -0.288885
000020 df 4d 89 be 43 ed ad be 33 0c 85 be 84 9c 67 be
       -0.26817223 -0.3397008 -0.2598587 -0.226183
000030 cb e2 9f be 01 96 23 bf 33 55 6d be 3f 52 91 be
       -0.31227717 -0.6390076 -0.23177032 -0.2838306
000040 f5 a0 90 be b1 59 b2 be 8d 83 a1 be 40 6d 68 be
       -0.282478 -0.34834054 -0.31545678 -0.22697926
000050 11 69 9b be d2 78 83 be 4e 5f 24 3d 68 e5 4f be
       -0.30353597 -0.25678116 0.040129952 -0.20302355
000060 1c ac 43 be 47 cf 55 be f8 c4 86 be 51 23 7c be
       -0.19108623 -0.20879851 -0.2632215 -0.24622847
000070 09 c4 87 be 5a 58 4a 3e b7 85 4c be 86 70 5d be
       -0.2651675 0.19760266 -0.19972883 -0.21624956
000080 82 7d 90 be 02 ac 88 be 69 dc 1d bf 7a bd 93 be
       -0.28220755 -0.26693732 -0.61664444 -0.28855497
000090 a6 6d d1 be c1 32 8f be a7 a8 86 a4 52 bf 7a be
       -0.40903968 -0.2796841 -5.8398945e-17 -0.24487045
0000a0 d4 3f 9e bd 3e 13 51 be 1b 33 16 bf 23 3d 90 be
       -0.07727018 -0.20417497 -0.5867173 -0.28171644
0000b0 b3 d1 2a be 40 eb 8d be 3b 9a 76 be 1b 04 41 be
       -0.16681556 -0.27718544 -0.24082272 -0.18849222
0000c0 60 a2 56 be 7a 72 90 be a8 26 7c be 24 24 3f be
       -0.20960379 -0.2821234 -0.24624121 -0.1866613
0000d0 e2 85 62 be 42 f3 23 be 2d fe 48 be 4e f6 73 be
       -0.22121385 -0.16010764 -0.1962821 -0.23824427
0000e0 9f f4 99 be ae d4 8a be ec a7 5a be 56 52 aa be
       -0.30069444 -0.27115387 -0.2135312 -0.33265942
0000f0 21 95 9b be 85 7b 4c be 27 c8 7d be 92 dc 4d be
       -0.30387214 -0.19968994 -0.24783383 -0.20103672
000100 30 d7 92 be 0a f7 b6 3c 45 f7 80 be 06 66 69 be
       -0.286798 0.022334594 -0.25188652 -0.22792825
000110 95 87 2a be fd b5 8b be 09 3b 58 be 7a 30 97 be
       -0.16653283 -0.27287284 -0.2111627 -0.29529172
000120 cd 71 94 be 40 be 74 be f3 79 70 be 3b 7d 90 be
       -0.28993073 -0.239007 -0.2348402 -0.28220543
000130 a3 4b 81 be 66 2c 8e be f9 79 88 be 5d f4 81 be
       -0.2525302 -0.27768248 -0.26655558 -0.25381747
000140 4b de 9d be e2 ab 79 be 17 e7 6b be a3 04 45 be
       -0.3083366 -0.24381974 -0.23037373 -0.1924005
000150 6e b8 85 be 32 18 6b be 0e f9 8e be 3f 5f 10 bf
       -0.2611727 -0.22958449 -0.2792439 -0.56395334
000160 79 4b 52 be 36 73 8b be b6 28 82 be 75 b5 13 bd
       -0.20536603 -0.27236336 -0.25421685 -0.036061723
000170 7f 6f 7b be 93 8a 05 bf 6a 5a 58 be bc 8f b8 be
       -0.24554251 -0.5216457 -0.2112824 -0.3604716
000180 ca 93 60 be 0e 69 4b 3e 61 e6 9b be fa d9 a3 be
       -0.21931377 0.19864294 -0.30449203 -0.3200224
000190 1d f0 87 be 19 13 17 bf 61 1b 82 be 63 bd 1c bf
       -0.2655038 -0.59013516 -0.25411513 -0.6122648
0001a0 84 a5 9f be 4e 79 b3 be 59 f6 72 be cf 73 9b be
       -0.31180966 -0.35053486 -0.23726787 -0.30361792
0001b0 af f4 86 be 9c d3 8f be 68 cf 8f be 5d bc 18 be
       -0.26358554 -0.28091133 -0.28087926 -0.14915605
0001c0 bf 31 5d be 0d 10 d2 be c9 23 59 be e0 0f 8d 3d
       -0.21601008 -0.4102787 -0.21205057 0.068877935
0001d0 45 93 83 be ab 4b 90 be 33 be 68 be 81 8f 16 be
       -0.25698295 -0.2818273 -0.22728805 -0.1470318
0001e0 a5 10 80 be 81 7f 88 be 69 22 83 be 8a d5 8f be
       -0.250127 -0.26659778 -0.2561219 -0.28092605
0001f0 d4 a7 6e be 7d 84 50 3e 52 55 5c be 0b 37 ab be
       -0.23306209 0.2036304 -0.21516922 -0.33440432
000200 d3 ad 7c be c4 2e 59 be 22 f8 1c bc 4a eb 6f be
       -0.24675684 -0.21209246 -0.009580644 -0.234296
000210 64 ff 28 be 74 75 95 be c2 01 86 be 5f b8 81 be
       -0.16503674 -0.29191172 -0.26173216 -0.25335976
000220 11 54 3f be 62 cc 60 be 37 15 83 be b7 b3 8e be
       -0.18684413 -0.21952966 -0.25602123 -0.27871487
000230 c9 5f 50 be af a9 9c be 70 ae 0a be 3b 2a c9 bd
       -0.20349039 -0.30598208 -0.13543105 -0.09822508
000240 19 62 54 3e be e0 53 be 5c 80 a0 bd 31 8a a3 be
       0.20740546 -0.20691201 -0.078369826 -0.3194137
000250 82 57 48 be ae 48 a9 be dc 04 76 be 86 e0 73 be
       -0.19564632 -0.33063263 -0.24025291 -0.23816118
000260 9e 9b 87 be 8e 57 0b be 38 01 24 be 78 04 42 be
       -0.26485914 -0.13607618 -0.1601609 -0.18947017
000270 05 e1 6c be 69 d8 42 bd df 0f e7 bd 22 cc 6a be
       -0.23132713 -0.047569666 -0.11282324 -0.22929433
000280 d3 c8 5a be fd 86 84 be 52 d1 80 be 6a 4c 87 be
       -0.21365671 -0.25884238 -0.251597 -0.26425487
000290 1c fe 81 be b2 bb ce be 04 c9 5e 3d c6 ac 4f be
       -0.25389183 -0.40377575 0.054390922 -0.20280752
0002a0 20 31 82 be 9e da 0d bd 86 3a 73 be 5c c4 aa be
       -0.25428104 -0.034632318 -0.23752794 -0.33352935
0002b0 1e 07 2c be ee 17 86 be dc 71 3c be 05 d1 4d be
       -0.1679959 -0.26190132 -0.18402809 -0.20099266
0002c0 f8 8b 44 be 2f d3 71 be 73 c2 6b be e1 67 c9 be
       -0.19194019 -0.23615716 -0.23023395 -0.39337066
0002d0 cc 56 4d be 6d c1 e3 3d 0d be 83 be 5c 94 23 be
       -0.20052642 0.111208774 -0.25730935 -0.15974563
0002e0 f1 0c 84 be 7c 98 8d be 44 d1 81 be e6 df a6 be
       -0.25791124 -0.276554 -0.2535497 -0.32592696
0002f0 19 df 83 be 0a 32 b2 be 21 8e 6d be 9e bd 72 be
       -0.25756148 -0.34803802 -0.23198749 -0.23705146
000300 bd ba 2a be 39 e8 11 bf 23 76 8d be 35 e6 50 3e
       -0.16672798 -0.5699497 -0.27629194 0.20400317
000310 00 cd 84 be d6 72 96 be e9 fe 95 be ef f8 41 be
       -0.25937653 -0.29384488 -0.29296044 -0.18942617
000320 3d ae 47 be c8 2d fe be fc c8 83 be 7b 69 53 be
       -0.1950006 -0.49644303 -0.25739276 -0.20645706
000330 ff df 0d bf 33 58 a8 be 29 2b 51 be be 45 69 be
       -0.55419916 -0.3287979 -0.2042662 -0.22780511
000340 30 e7 8f be 11 60 97 be 80 af 51 3e a4 0b 74 be
       -0.2810607 -0.2956548 0.20477104 -0.23832566
000350 46 fa 13 bf 82 0d 89 be bd d3 8a be 96 11 7e be
       -0.5780376 -0.26768118 -0.27114668 -0.24811396
000360 d0 1b 76 be dc 83 12 bf b3 c9 94 be 20 3a 94 be
       -0.24034047 -0.5723245 -0.29060134 -0.28950596
000370 57 f6 87 be 50 59 7f be 9f aa dd be 4f af 43 be
       -0.2655513 -0.24936414 -0.43294236 -0.19109844
000380 37 f7 86 be f6 9f 95 be 20 05 8d be 75 66 38 be
       -0.26360485 -0.29223603 -0.27542973 -0.18007834
000390 1f ba 85 be da 93 8a be 38 cc 80 be 37 81 74 be
       -0.26118562 -0.27065927 -0.25155807 -0.23877417
0003a0 8a 76 b4 be 80 b7 40 be 75 8d b8 be 0b 83 97 be
       -0.35246688 -0.1882 -0.36045423 -0.29592165
0003b0 01 3a 87 be b2 2f a4 be ea a5 8f be 40 00 84 be
       -0.2641144 -0.3206764 -0.2805627 -0.2578144
0003c0 ff 8e ad be 4d e7 4c be 9c aa 4b 3e 14 85 7b be
       -0.3389816 -0.20010109 0.19889301 -0.24562484
0003d0 2f 6c 92 be a8 60 4a be 12 8d 92 be 36 3e 98 be
       -0.28598163 -0.19763434 -0.28623253 -0.29734963
0003e0 d2 2e 6b be 7b f8 d6 bd 11 9a f8 be d2 39 87 be
       -0.2296708 -0.10496613 -0.48555043 -0.264113
0003f0 ad 4e 77 be 0e 8c 82 be c6 44 16 bf 5a 2d 91 bd
       -0.24151106 -0.25497478 -0.5869869 -0.07088728

net.2.weight f4 [256]
000000 ad 41 09 3e 32 db b4 3d f1 93 30 3e f8 f0 50 3e
       0.1340396 0.08830871 0.17243935 0.20404422
000010 91 e0 6c 3e a7 49 42 3e 68 a3 a8 3e 8e 26 3a 3e
       0.2313254 0.18973409 0.3293717 0.1817877
000020 d8 10 2e 3e 11 5d 87 3e 4c 8c 6d 3e 2c b5 0c 3e
       0.16998613 0.26438192 0.2319805 0.13740987
000030 06 34 40 3e 78 83 a5 3e 7f ad 31 3e 3d a7 ae 3d
       0.18769845 0.32326865 0.1735134 0.08527992
000040 cc 4a 3e 3e 5f c0 c4 3d 55 10 62 3e fa ca 2c 3e
       0.1858322 0.096070044 0.22076543 0.16874304
000050 f3 01 79 3e 13 a6 2b 3e 95 d2 03 3d 95 b4 09 3e
       0.2431715 0.16762571 0.03218325 0.13447793
000060 a9 7b 4f 3e 85 14 8b 3e fb f8 21 3e 39 d8 45 3e
       0.20262016 0.27164093 0.15817635 0.19320764
000070 bd 74 3d 3e 65 5c 20 3e 86 f8 0e 3e 06 2a 1f 3e
       0.18501563 0.15660246 0.13961992 0.15543374
000080 78 70 da 3d 27 dd 0b 3e 83 4f b0 3e 5b d0 40 3e
       0.10665983 0.13658582 0.34435663 0.18829481
000090 fe 09 28 3e ec 6a 03 3e 67 ef f5 3e e6 95 a8 3d
       0.16410062 0.12833756 0.48034212 0.08231716
0000a0 50 c9 04 3e 2f 1c 52 3e e7 42 0b 3f cd 0a 47 3e
       0.1296742 0.20518564 0.5439896 0.19437714
0000b0 4f 51 37 3e af 9a 97 3d b6 f7 ea 3d 89 1a 9e 3d
       0.1790211 0.074025504 0.11473028 0.07719905
0000c0 78 45 4d 3e ce ca 3f 3e 38 e6 3e 3e 49 a8 43 3e
       0.20046031 0.18729708 0.18642509 0.19107164
0000d0 a0 56 17 3e 7d 11 04 3f 16 f2 5c 3e 36 9c da 3d
       0.14779139 0.51589185 0.21576723 0.10674326
0000e0 61 56 51 3e 08 42 6b 3e 07 5e b3 3d a5 ac 54 3e
       0.20443107 0.22974408 0.08758169 0.20768984
0000f0 8f 90 74 3e c4 51 0f 3e 3b 0c 14 3e 14 4d 6d 3e
       0.2388327 0.13996035 0.1445779 0.23173934
000100 a2 9b 68 3e 43 15 dd 3c 35 03 4e 3e 66 f9 57 3e
       0.22715619 0.026987677 0.20118411 0.21091232
000110 1b 1c 95 3e 95 8d 4c 3e fd 28 78 3e 63 04 0d 3e
       0.29123005 0.19975884 0.24234386 0.13771205
000120 dd 70 61 3e bc ce 17 3e 83 5a 6b 3e 73 05 5b 3e
       0.2201571 0.14824957 0.22983746 0.21388797
000130 d6 73 1e 3e e4 1b 2a 3e 6c c1 5c 3e d3 32 15 3e
       0.15473875 0.16612202 0.2155816 0.14570169
000140 aa ff 4b 3e 65 c5 36 3e 74 94 43 3e 9c 8a 62 3e
       0.19921747 0.17848738 0.19099599 0.22123188
000150 47 b1 32 3e 9d 19 06 3e 79 dd 2a 3e bb 78 80 3e
       0.17450438 0.13095708 0.16686048 0.2509211
000160 77 93 d5 3d d8 25 cc 3d c1 08 64 3e ed 25 06 3f
       0.10428517 0.099681556 0.22268964 0.5240162
000170 49 33 24 3e 87 a1 1e 3f 31 a7 20 3e 08 f6 15 3e
       0.16035189 0.6196522 0.15688778 0.14644635
000180 51 89 be 3d 2b cc 1e 3e 9e a8 1b 3e 35 11 60 3e
       0.09303535 0.15507571 0.15201041 0.21881564
000190 05 44 00 3e b6 ad e3 3e 57 b0 1d 3e 56 e3 b0 3e
       0.12525947 0.44468468 0.153993 0.34548444
0001a0 c8 f1 53 3e 83 02 90 3e 1b 15 40 3e d5 05 86 3e
       0.20697701 0.28126916 0.18758051 0.26176324
0001b0 6f 6f 61 3e e9 fe f5 3d 72 97 87 3d 29 05 1a 3e
       0.22015165 0.12011511 0.06620683 0.15041031
0001c0 4c 00 e8 3d 52 3e 52 3e ec e5 37 3e 14 02 33 3d
       0.113281816 0.20531586 0.17958802 0.043703154
0001d0 f4 1a 49 3e 7d d3 e1 3d cd 11 84 3d d5 e7 f0 3d
       0.19639188 0.11026666 0.06448708 0.117629685
0001e0 29 94 14 3e cb c6 40 3e 04 0f f1 3d 8b 94 0e 3e
       0.14509644 0.18825833 0.11770442 0.13923852
0001f0 4a 75 53 3e 2f 5e 25 3e 76 a5 42 3e a0 54 19 3e
       0.20650211 0.1614921 0.19008431 0.14973688
000200 a5 65 27 3e c3 be ef 3d 39 93 ee 3e 32 00 f2 3d
       0.16347368 0.11706307 0.46596697 0.118164435
000210 44 53 6c 3d b5 64 24 3e 06 06 26 3e 26 2b 18 3e
       0.057696596 0.16054042 0.16213235 0.1486021
000220 5c 6b 43 3e f3 0c 4e 3e 2f 72 3c 3e c6 b9 26 3e
       0.19083923 0.20122127 0.18402933 0.16281804
000230 d7 7d 44 3e 8f d1 59 3e 65 31 56 3e 24 57 1a 3e
       0.19188629 0.21271347 0.2091728 0.15072304
000240 4f 91 27 3e 3c 01 b1 3d dc ee fa 3d ea 06 10 3e
       0.16364025 0.086428136 0.1225259 0.14065138
000250 b8 2c 72 3e 05 b0 4e 3e 70 0d 30 3e 0b 0a bc 3d
       0.23649871 0.20184334 0.17192626 0.09181603
000260 11 28 40 3e 5e 41 fe 3e 3c 3e 03 3e ca e4 5d 3e
       0.18765284 0.49659246 0.1281671 0.21669307
000270 cd d4 43 3e b1 76 0d 3e 84 79 e3 3d 40 76 44 3e
       0.19124146 0.13814808 0.11107162 0.19185734
000280 51 b8 23 3e 71 4d 35 3e 60 3f 0a 3e 16 5f 09 3e
       0.1598828 0.17705323 0.13500738 0.13415179
000290 86 7b 4d 3e 05 15 2a 3e 02 a4 33 3d d8 77 05 3e
       0.20066652 0.16609581 0.043857582 0.13033998
0002a0 63 66 53 3e 4c 9e 0d 3f 38 d7 25 3e 61 66 6a 3e
       0.20644526 0.55319667 0.1619538 0.22890617
0002b0 e8 ca de 3d ce 3c 7a 3e f5 3c f9 3d 9d c4 6f 3e
       0.10878545 0.24437258 0.1216983 0.23414846
0002c0 6a 38 f2 3d 46 4c 9a 3d 97 7c cf 3d c6 17 e2 3e
       0.118271664 0.07534079 0.101311855 0.44158763
0002d0 d8 71 69 3e 93 d0 f2 3c b2 2b 33 3e cc ae 8e 3d
       0.22797334 0.029640472 0.17497137 0.069669336
0002e0 7e b6 99 3d 24 8c 33 3e 5b ab 1f 3e e9 2a 43 3e
       0.07505511 0.17533928 0.1559271 0.19059338
0002f0 ca cf 69 3e cc 1d 09 3e 8b 58 45 3e c5 e1 07 3e
       0.22833171 0.13390273 0.19272058 0.13269718
000300 b0 86 85 3d 9e a6 91 3e 6d 07 36 3e a6 ac 1d 3e
       0.0651983 0.2844743 0.1777627 0.15397891
000310 13 49 e7 3d 2f 91 4f be 39 88 66 3e 82 96 4c 3e
       0.11293235 -0.20270227 0.22512902 0.19979289
000320 3b 15 87 3d c9 23 ec 3e 62 3c 52 3e 30 82 1a 3e
       0.06595846 0.46121052 0.20530847 0.15088725
000330 f9 4d 06 3f 0f 26 13 3e 41 ec 2c 3e b4 1a 10 3e
       0.52462727 0.14369987 0.16886999 0.14072686
000340 82 ac 16 3e ae 81 2c 3e 78 67 1e 3e f7 d5 74 3e
       0.14714244 0.16846344 0.15469158 0.23909746
000350 6e d0 8e 3e db ba c3 3d 5b 12 43 3e ac df 0a 3e
       0.27893394 0.09557124 0.19049971 0.13561887
000360 64 6e 52 3e 8f ab e3 3e 93 83 18 3e e0 e2 1c 3e
       0.20549923 0.44466826 0.14893942 0.15320921
000370 00 10 0d 3e 17 9a af 3d a0 c8 34 3e b6 47 1b 3e
       0.13775635 0.08574312 0.17654657 0.15164074
000380 8e 50 f1 3d 27 48 78 3e 9a 69 2d 3e ba 5f f3 3d
       0.11782943 0.24246274 0.16934815 0.11883493
000390 03 3c 1f 3e 12 5b 38 3e 33 09 40 3e c9 59 21 3e
       0.15550236 0.1800349 0.18753509 0.15756907
0003a0 7b bb 36 3e 2d fb 62 3d 41 7c 28 3e 2f 4d 7e 3e
       0.17844956 0.05541532 0.16453649 0.2483413
0003b0 6a a5 2e 3e 87 0c 28 3e cb 2c 31 3e bb 89 c4 3d
       0.17055288 0.16411029 0.17302243 0.095965825
0003c0 13 65 3e 3e 70 5d 23 3e 47 dd 20 3e 39 e3 15 3e
       0.18593244 0.15953612 0.1570941 0.1463746
0003d0 f7 ba 4e 3e f4 dd 21 3e 11 92 1c 3e 5b 1b 3f 3e
       0.20188509 0.15807325 0.15290095 0.18662779
0003e0 32 4a 0f 3e 7c cf 12 3e 1f d1 5f 3e a2 a7 69 3e
       0.13993147 0.14336962 0.21857117 0.22817853
0003f0 37 6e 48 3e 92 6e d9 3d 39 d4 91 3e 59 22 03 3e
       0.19573294 0.10616793 0.28482226 0.12806071

net.2.bias f4 [256]
000000 d2 35 01 3d bb cd 2f 3c 5b c7 b7 bb 26 23 36 3d
       0.031545468 0.010730202 -0.005608482 0.044467114
000010 4b 7f 54 3d 7d 69 1a 3d c1 c8 a3 3d ae b7 14 3d
       0.05187921 0.037698258 0.07997275 0.036307983
000020 b5 ea ca 3c ab d7 8b 3d 06 08 64 3d 85 0d eb 3c
       0.02477012 0.06828245 0.055671714 0.02869297
000030 f0 b2 42 3d 33 f0 9f 3d 1a aa 24 3d 13 3a 75 3c
       0.04753393 0.07809486 0.040201284 0.014967459
000040 e4 7b 3f 3d 8f f0 ea 3b 79 de 6e 3d 53 d1 0f 3d
       0.04674901 0.00716979 0.058317635 0.035111737
000050 3f 8c 73 3d bb ca 00 3d bb f5 83 bd a0 aa 9c 3c
       0.05945992 0.03144334 -0.06443354 0.01912433
000060 3d 78 f8 3c 15 d0 56 3d 5e 4a 0d 3d 59 97 69 3d
       0.030330772 0.052444536 0.03449475 0.057029102
000070 01 6c 14 3d 0a 83 08 bf a5 b5 06 3d 3e 87 12 3d
       0.036235813 -0.5332495 0.032888073 0.03577351
000080 ed bc 95 3c 87 d5 05 3d 6c f4 a8 3d 05 4e 0f 3d
       0.018278563 0.03267434 0.08249745 0.034986515
000090 1e e8 a1 3c fc fe 93 3c d0 9f 0b 3e 1d 13 0f 3c
       0.019764002 0.018065922 0.13635182 0.008732584
0000a0 35 96 62 3c fd e1 e5 3c eb 94 0e 3e 1e 6a 30 3d
       0.013829757 0.028061861 0.13923995 0.04306995
0000b0 83 0b 06 3d 52 ad 42 bb 7e d4 83 3c f6 f3 3e 3c
       0.032725822 -0.0029705358 0.016092535 0.0116548445
0000c0 80 72 ed 3c 4a bc 1e 3d 19 be 4a 3d f0 d0 17 3d
       0.028985262 0.038753785 0.049497698 0.037064493
0000d0 39 2c ff 3c 3d c4 14 3e d9 87 1e 3d ae f8 bb 3c
       0.031149017 0.14527984 0.038703773 0.022945728
0000e0 64 80 34 3d ae 1e 5b 3d 9d 08 d3 3b 7a 63 40 3d
       0.044067755 0.053496055 0.006440236 0.04696987
0000f0 de 4f 8c 3d e4 d5 fd 3c 88 c6 f1 3c c0 26 12 3d
       0.06851171 0.03098578 0.029513612 0.035681486
000100 ed 76 52 3d 8c 66 7a bd bb e9 33 3d 9d 10 77 3d
       0.051382948 -0.061132953 0.043924075 0.060318578
000110 2e 0f 6e 3d 14 dc 62 3d dc fb 11 3d 8c 24 10 3d
       0.058119945 0.055385664 0.035640582 0.035191104
000120 b8 58 7b 3d 4f 54 dd 3c 52 8b 6f 3d fd 05 67 3d
       0.061363906 0.02701774 0.058482476 0.056402195
000130 c9 6c 1c 3d 4b 4b f4 3c 52 51 4e 3d 79 e8 cd 3c
       0.038189683 0.029821059 0.05037052 0.025135266
000140 b8 ed 44 3d 2a de 25 3d 68 ba 31 3d ba f0 2f 3d
       0.04807827 0.040495075 0.04339066 0.042954184
000150 9f 21 1c 3d d4 1a 8c 3c 0d 29 30 3d 60 fd 51 3d
       0.038118 0.017102636 0.0430079 0.051267028
000160 28 e5 17 3c 96 14 dc 3c 7f e0 5e 3d d3 3b 18 3e
       0.009270944 0.026865285 0.054413315 0.14866571
000170 a2 d7 03 3d 3e 80 2c 3e a8 84 d5 3c 50 19 fc 3c
       0.032188065 0.16845796 0.026064232 0.030773789
000180 87 da 4f 3c 52 26 05 bf 41 d1 e5 3c 38 44 6b 3d
       0.012686378 -0.520116 0.028053882 0.057438105
000190 82 56 16 3d 93 a4 f4 3d f7 b3 0f 3d 52 46 c1 3d
       0.036703594 0.119454525 0.035083737 0.09437241
0001a0 21 2f 67 3d 89 2d 92 3d 1e 1d 3f 3d 8b 89 82 3d
       0.05644143 0.071375914 0.046658628 0.063738905
0001b0 ef fb 2b 3d 74 04 a1 3c a5 76 57 bb bb 5a ba 3c
       0.04198831 0.019655444 -0.0032877114 0.022748342
0001c0 0a 91 58 3c ba 29 2f 3d e1 ee 19 3d 0d 0c 52 bd
       0.013218174 0.042764403 0.03758133 -0.051281024
0001d0 f4 45 2b 3d 9d dc 69 3c 9f 83 39 3b 2d 2d 86 3c
       0.04181476 0.01427379 0.0028307212 0.016378963
0001e0 3b d5 f5 3c 1c 81 39 3d 9c e1 95 3c d6 25 2a 3d
       0.030008903 0.045289144 0.018296055 0.04153999
0001f0 22 e9 44 3d 6d e2 0c bf 17 85 3b 3d 43 77 a8 3c
       0.048073895 -0.55033 0.04578122 0.02056468
000200 7b 44 06 3d 91 b4 00 3d f2 ce 04 3e 78 ed f8 3b
       0.03278015 0.0314222 0.12969568 0.007596668
000210 04 f8 12 bc 48 52 d9 3c 7c d1 17 3d dd 3b b9 3c
       -0.008970264 0.026528493 0.037065014 0.022611553
000220 d9 a1 be 3c 31 e9 4a 3d f7 03 30 3d 71 83 0f 3d
       0.023270534 0.049538795 0.04297253 0.03503746
000230 fd d2 e4 3c 2c 8a 78 3d 91 f2 f9 3c ed f0 f7 3c
       0.027932638 0.060678646 0.030511172 0.03026625
000240 35 f9 04 bf 08 08 d9 39 4a 96 ec 3a 79 65 0b 3d
       -0.5194276 0.0004139545 0.0018050161 0.03403232
000250 c9 ea e2 3c b7 f0 33 3d c3 72 31 3d ba e6 02 39
       0.027699845 0.043930735 0.043322336 0.00012483718
000260 b9 c1 4a 3d a8 41 10 3e fa ea 64 3c f6 d8 17 3d
       0.049501155 0.14087546 0.013972038 0.037072144
000270 8d 93 1a 3d 8c 54 7f 3b e4 db 0d 3c dc 5d 3a 3d
       0.03773837 0.0038960306 0.008658383 0.045499668
000280 ff e4 fc 3c 40 07 1e 3d 88 9d a6 3c 47 d2 a5 3c
       0.030870913 0.038581133 0.020338789 0.02024187
000290 27 95 31 3d 60 c7 14 3d ce fc 63 bd e7 b5 0b 3d
       0.043355133 0.03632295 -0.055661015 0.034109022
0002a0 0a 95 3d 3d b9 4a 20 3e 00 64 ee 3c 93 58 64 3d
       0.046284713 0.15653504 0.029100418 0.055748533
0002b0 87 79 5f 3c 4a ae 6d 3d b4 ab da 3c 9d fe 10 3d
       0.013639814 0.058027543 0.026693203 0.03539907
0002c0 9e 36 b3 3c d5 cf 2b 3b e6 e3 56 3c a1 2d f8 3d
       0.02187663 0.0026216407 0.013115859 0.12118078
0002d0 74 dd 37 3d 4f a5 6d bd dc c0 3a 3d a5 f2 1d 3c
       0.04488893 -0.05801898 0.04559408 0.0096403705
0002e0 19 9b 4b 3c cf a7 23 3d 06 d1 11 3d 82 a2 41 3d
       0.012427115 0.039954957 0.03559973 0.04727412
0002f0 e6 f6 70 3d be 31 b2 3c f2 59 10 3d 7f 5a e5 3c
       0.05882921 0.021752235 0.03524203 0.027997253
000300 50 e6 14 3c 7e 6d 5e 3d 76 00 3c 3d a6 c3 04 bf
       0.009088114 0.05430364 0.045898877 -0.51861036
000310 da b7 1f 3c 15 71 4e bd 28 8a 4e 3d cc 52 b5 3c
       0.0097484235 -0.050400812 0.050424725 0.022134207
000320 11 6b 22 3c 7f d5 e2 3d 75 c4 38 3d de 7e 1c 3d
       0.009913222 0.110758774 0.04510923 0.038206927
000330 c2 0a 0b 3e d9 12 02 3d 12 5e dd 3c 9a bb f5 3c
       0.13578323 0.031756256 0.027022395 0.029996682
000340 3b 4b 14 3d 3f ed 0d 3d 5e 3b 04 bf 53 4c 85 3d
       0.036204558 0.034650084 -0.5165309 0.06508698
000350 53 f8 81 3d fe aa be 3a ba c1 25 3d c0 09 dd 3c
       0.06346192 0.0014546809 0.040467955 0.026982188
000360 87 75 57 3d 66 a5 db 3d 6d 85 05 3d f3 62 d6 3c
       0.052602317 0.107249066 0.032597948 0.02617023
000370 a4 80 19 3d f5 db a2 3c d5 30 fd 3c e8 dc c5 3c
       0.037476197 0.019880274 0.030907074 0.024153188
000380 17 41 e8 3b bb 72 6d 3d 8a 9b 08 3d 4e 7c 9b 3c
       0.0070878374 0.057970744 0.03335146 0.018980172
000390 0e cf 1e 3d 26 0c 10 3d 95 72 31 3d cb 43 26 3d
       0.03877168 0.035167836 0.043322165 0.040591996
0003a0 95 07 24 3d 4f 15 ac 39 9c 8d e2 3c e4 7f 82 3d
       0.040046293 0.00032822273 0.027655415 0.063720495
0003b0 24 2f 32 3d 49 97 4c 3d 97 91 1f 3d 04 13 43 3c
       0.043501988 0.049948964 0.038957205 0.011906389
0003c0 95 3f 3d 3d 49 d0 13 3d ee f8 04 bf 98 cd 05 3d
       0.046203215 0.036087308 -0.51942337 0.032666773
0003d0 f6 f6 54 3d 96 65 0d 3d 37 fa 24 3d c9 36 36 3d
       0.051993333 0.034520708 0.040277686 0.04448584
0003e0 23 ed 0c 3d 9c e3 d6 3c 9f 30 33 3d 10 aa 62 3d
       0.03440584 0.02623158 0.04374754 0.055337965
0003f0 c9 4d 53 3d f7 fa 88 3c e0 49 90 3d e6 c0 05 3c
       0.051587854 0.016721232 0.070453405 0.008163666

net.4.weight f4 [256, 256]
000000 3d 56 8b 21 a0 e5 89 a7 65 7a 19 33 00 79 6f 3c
       9.441833e-19 -3.82741e-15 3.5734406e-08 0.014616251
000010 f6 04 8d 29 1d ae 6a b7 b2 b7 ed 3a 0f a3 65 0d
       6.2625184e-14 -1.3988026e-05 0.001813641 7.076235e-31
000020 11 1c a7 b0 5e 88 f6 29 a3 94 4e 1e df 0a ab b6
       -1.2158826e-09 1.09482505e-13 1.09362865e-20 -5.0974627e-06
000030 e4 36 00 1a 98 f5 d6 b1 50 aa e0 36 28 a3 55 16
       2.651412e-23 -6.2561405e-09 6.695547e-06 1.7257486e-25
000040 68 f3 ae 29 14 a7 0f a9 e8 3a 91 b1 63 c0 9f 33
       7.7693765e-14 -3.1897296e-14 -4.2267523e-09 7.4390094e-08
000050 b5 2e ba b0 aa bb 51 21 22 db f8 36 02 ae 99 b0
       -1.3546556e-09 7.1060326e-19 7.4164864e-06 -1.1181671e-09
000060 23 c6 28 b3 e6 7c 21 b5 ba 3e 48 27 95 5e b8 38
       -3.9295752e-08 -6.0158925e-07 2.778958e-15 8.791421e-05
000070 fa 32 4b 24 8e 11 05 39 8a aa 41 2d 1d 1b b5 b6
       4.4061787e-17 0.00012690408 1.1008647e-11 -5.3973768e-06
000080 8b 92 8a 37 08 d6 1b 1b 88 31 53 32 54 27 cb b9
       1.6519121e-05 1.2890457e-22 1.22930786e-08 -0.0003874848
000090 ec 6e f4 b3 ee 2f 4c 2d be 03 9c 2f b6 ed 04 ad
       -1.1382312e-07 1.16067e-11 2.8378894e-10 -7.556114e-12
0000a0 00 99 22 33 6b 69 92 3a 93 0f 94 32 e7 16 15 29
       3.7857717e-08 0.0011170333 1.723655e-08 3.310451e-14
0000b0 53 d9 59 27 c2 2d 3d 27 8b fa 75 2b 29 84 ee 39
       3.0232611e-15 2.6253824e-15 8.7389183e-13 0.00045493364
0000c0 e2 0d e3 b0 7b 87 c7 b9 26 a0 8b 29 6c 15 18 3a
       -1.652037e-09 -0.0003805718 6.2006213e-14 0.0005801532
0000d0 e2 b9 01 b4 29 4f 6c 2f a0 40 2a ba 0b 05 c5 b0
       -1.2081685e-07 2.1492198e-10 -0.0006494615 -1.433507e-09
0000e0 12 bc 85 27 25 85 7e 29 c1 25 3d 1b 9c dd af 24
       3.711882e-15 5.6514814e-14 1.5645913e-22 7.626957e-17
0000f0 36 b7 6c 2a 10 87 b2 ab 3d d2 17 34 e6 9a 0b 2f
       2.1024575e-13 -1.2685148e-12 1.4139455e-07 1.2697007e-10
000100 ad 74 20 23 32 b9 2f 35 d8 3b bf aa 46 09 2a 36
       8.6983244e-18 6.5462075e-07 -3.396994e-13 2.5337372e-06
000110 be ca c9 39 d1 be 0b 2f 8b 53 2e 39 45 eb 92 ba
       0.00038488762 1.2709768e-10 0.00016625055 -0.0011209032
000120 29 86 fd 2c c7 8e f4 b4 92 f5 5a a7 03 b1 cc 2e
       7.2055873e-12 -4.5552426e-07 -3.0386701e-15 9.3082896e-11
000130 c8 7e 56 22 35 63 82 b2 11 3d 00 37 94 5b 7f b6
       2.9069526e-18 -1.5179106e-08 7.643613e-06 -3.8051267e-06
000140 85 44 25 ba 7d 26 fa 20 85 25 1c 31 48 32 1e 32
       -0.00063044607 4.2377117e-19 2.2722315e-09 9.208243e-09
000150 b7 22 7d 22 ca ad ce 28 43 bb 83 2c 46 17 29 2f
       3.4306272e-18 2.2945963e-14 3.744034e-12 1.5378729e-10
000160 1e 79 46 32 c4 c1 74 1d 24 9e 7b 24 5d d4 8e 2f
       1.1552656e-08 3.2393306e-21 5.45609e-17 2.5980543e-10
000170 2f a2 11 2a 5d e3 89 33 22 92 a8 29 f6 a1 47 23
       1.2934856e-13 6.420917e-08 7.486049e-14 1.0822108e-17
000180 e3 b2 06 b7 15 60 6e 3a 24 9b 41 28 0e 90 13 2b
       -8.028673e-06 0.0009093297 1.0747293e-14 5.2424807e-13
000190 b1 50 19 35 10 f9 85 32 0a 5a 9d 24 44 53 ac 2e
       5.7114363e-07 1.5596498e-08 6.824043e-17 7.8364454e-11
0001a0 6e b0 85 2a 73 ab 84 25 16 53 2e 20 a4 81 fb 2c
       2.374797e-13 2.3014528e-16 1.4765864e-19 7.148242e-12
0001b0 9d 18 56 39 9f 7f 27 1d 8c e6 9c 28 7d f7 6f a5
       0.000204178 2.2168245e-21 1.7419463e-14 -2.0813798e-16
0001c0 82 e8 ba 2b 93 2e f8 3a 3d 17 26 28 4f 8f 90 39
       1.3280629e-12 0.0018934779 9.21989e-15 0.00027572594
0001d0 68 6e 87 29 d2 a0 7d 2a be 20 31 23 c5 f3 1a 38
       6.014357e-14 2.252671e-13 9.602123e-18 3.694349e-05
0001e0 9d 4f 59 ba 89 5b 5d 27 b8 03 0a 37 eb 5e 14 ae
       -0.00082897564 3.0719532e-15 8.226307e-06 -3.3735608e-11
0001f0 19 87 2b b6 8f c6 c4 39 8d 63 01 2b 11 9f 97 33
       -2.5559623e-06 0.0003753197 4.596816e-13 7.0604194e-08
000200 7a 73 aa ba 8c bf 6d 2b 2e bf 76 2f 3e c0 4a 3a
       -0.0013004385 8.446514e-13 2.244149e-10 0.0007734335
000210 07 a3 05 2b dd c6 32 28 5f 4f 7d 20 41 98 f0 b8
       4.747734e-13 9.9241065e-15 2.1456195e-19 -0.00011472451
000220 3b c1 b7 35 c8 b9 d6 b2 39 b8 b7 24 d1 94 a7 29
       1.36908e-06 -2.4997362e-08 7.9675684e-17 7.442105e-14
000230 70 b3 db 2d f0 ad 7b 2d 5c 31 1c 39 60 5c b6 28
       2.4977104e-11 1.430632e-11 0.00014895707 2.024612e-14
000240 b9 ea 8c 37 0c 72 6b b8 2f 3b 61 36 9d 1e 0c 23
       1.6798602e-05 -5.613458e-05 3.3562062e-06 7.595898e-18
000250 e1 2f 0a 33 88 23 6c 29 63 80 12 2d a6 65 52 0f
       3.2174174e-08 5.2433345e-14 8.327647e-12 1.0373376e-29
000260 4b d0 86 28 b4 bd dc 30 6b 04 b1 ac df bb cc b9
       1.4967321e-14 1.6061024e-09 -5.031133e-12 -0.00039049887
000270 98 9b 1e 2e de dd 27 34 5e de 8b 38 51 73 13 a4
       3.6063236e-11 1.5633802e-07 6.6694556e-05 -3.197322e-17
000280 78 19 d3 b6 46 79 41 24 21 b6 99 26 b7 8e 4a 28
       -6.291255e-06 4.1952926e-17 1.0665874e-15 1.1244199e-14
000290 54 dc 8b b5 89 9a 85 ba 4f 8f 96 b8 2d dc 14 23
       -1.0420431e-06 -0.001019315 -7.179251e-05 8.06972e-18
0002a0 7a 5c 0c 2d d1 87 1e 30 76 17 d6 29 60 b5 b5 ba
       7.9786126e-12 5.767307e-10 9.507579e-14 -0.0013863258
0002b0 1c 4b a5 3b 33 04 a5 3a 31 b3 7a 21 8c a2 39 ba
       0.005044354 0.0012589752 8.494045e-19 -0.00070814113
0002c0 e8 31 a3 1f 6c 9b 79 0f 48 dc 13 aa d2 8d 1e 33
       6.911575e-20 1.2306581e-29 -1.3132648e-13 3.6916227e-08
0002d0 38 cb b9 2e 3c 07 f9 33 a8 be de 2a 76 06 01 19
       8.448925e-11 1.1596282e-07 3.9567416e-13 6.6704485e-24
0002e0 0b 42 6d 1d 1a e9 9d 24 b5 05 ff 21 5c 4d 01 29
       3.1400832e-21 6.8482786e-17 1.7280983e-18 2.8710853e-14
0002f0 05 64 8e 1d 02 1e 9e 25 96 e2 29 2d aa 19 0b 35
       3.7690505e-21 2.7428965e-16 9.65685e-12 5.181888e-07
000300 15 be 2d 2c 2e 44 9d b4 22 0e 15 20 e7 9c f8 39
       2.4690295e-12 -2.9293136e-07 1.2625467e-19 0.00047419147
000310 82 b0 87 2a 8b 6a 2d a4 58 08 82 3a 65 6b 78 32
       2.4103294e-13 -3.760364e-17 0.00099207 1.4459919e-08
000320 8e fa 96 23 c3 a3 b4 32 ee 90 ac 25 6a 61 8f 2e
       1.6369147e-17 2.1029228e-08 2.9935452e-16 6.520191e-11
000330 50 46 08 33 6a 17 6c 23 ba 45 18 2c 1d 90 c4 2a
       3.1728916e-08 1.2798544e-17 2.1639205e-12 3.4916593e-13
000340 14 73 47 b9 54 f3 32 1a a4 3e 06 39 98 e2 fc 26
       -0.00019020989 3.7006096e-23 0.00012802571 1.7547431e-15
000350 ac e1 00 3c 49 ad a5 ad bf 98 f8 25 6f 07 13 28
       0.007866304 -1.8835282e-11 4.3124647e-16 8.161751e-15
000360 48 bd 89 22 d9 d8 07 3c 01 fa 8e 22 3a c8 db 2b
       3.7334334e-18 0.008291447 3.875388e-18 1.561646e-12
000370 68 21 70 b7 fa b1 94 24 2c 2e 35 3c 18 18 0e 2d
       -1.4312893e-05 6.448627e-17 0.0110583715 8.077115e-12
000380 54 c1 8c 3b b4 41 87 39 e5 91 11 b9 47 67 89 28
       0.0042955074 0.0002579816 -0.00013882628 1.5254845e-14
000390 91 cf 26 36 9b 0d 4c 24 00 72 21 20 6a 71 f2 20
       2.4856747e-06 4.4246973e-17 1.367495e-19 4.1071446e-19
0003a0 86 d4 c0 29 a0 2a 08 20 a9 e8 1d 2d af bf ca b6
       8.56338e-14 1.1533752e-19 8.976078e-12 -6.042384e-06
0003b0 19 23 32 24 b3 66 ca 20 e9 7e c8 27 fa 7c ff b2
       3.8627326e-17 3.4288092e-19 5.5648747e-15 -2.974274e-08
0003c0 7c ab 23 22 2d 31 e3 b2 61 43 a2 b7 b5 6b a6 39
       2.2181402e-18 -2.644864e-08 -1.934328e-05 0.00031742235
0003d0 25 ac 91 29 43 0c 06 b9 43 e7 e2 b8 32 90 b6 36
       6.469156e-14 -0.00012783804 -0.000108195956 5.440809e-06
0003e0 96 83 0a 39 1a 12 9c af d5 c3 e8 2a 7c fb a8 3c
       0.00013209725 -2.8389097e-10 4.1347364e-13 0.02062773
0003f0 d0 0b 85 1f 22 1b a9 37 b3 c6 fa 2e 1f 7c 83 39
       5.634723e-20 2.0159005e-05 1.140398e-10 0.00025078745

net.4.bias f4 [256]
000000 59 c7 aa bd ae d3 aa bd f5 61 e4 bd 3e 12 56 bd
       -0.08338804 -0.08341156 -0.11151496 -0.05226349
000010 31 9f 02 bd 62 29 e0 bc 53 b8 a1 bd 0f d0 d2 bd
       -0.031890098 -0.027363483 -0.07896485 -0.1029359
000020 d6 2e 90 bd d4 98 aa bd 7f 60 3c bd 86 49 cd bd
       -0.07040183 -0.08329931 -0.045990463 -0.10023789
000030 12 97 16 be 42 d0 f5 bd 2a 20 a8 bd 4a 3d 1d bc
       -0.14706066 -0.12002613 -0.0820926 -0.009597132
000040 d2 c2 dd bd 7a 66 b3 bd 09 cc d8 bd 60 27 b9 bd
       -0.10828175 -0.0875978 -0.105857916 -0.09040713
000050 5f 14 83 bd 90 51 c5 bd de 38 f2 bc 07 26 00 be
       -0.0640037 -0.096346974 -0.029568132 -0.12514506
000060 58 75 e6 bd a2 e1 84 bd ec 1b b3 bd 52 2a 8c bd
       -0.1125285 -0.064883485 -0.0874556 -0.068440095
000070 34 98 06 be 79 3b 5b bd bc b4 73 bd fd a4 80 bd
       -0.13143998 -0.053523514 -0.059498534 -0.06281469
000080 b4 c6 45 bd fe 4b da bd 5f 5c a7 bd 9c 4b 9e bd
       -0.0482852 -0.106590256 -0.08171915 -0.07729265
000090 3b 79 6f bd 95 c6 4a bb ef 35 ff bd cb 32 70 bd
       -0.058465224 -0.0030941118 -0.12461459 -0.05864219
0000a0 ac f7 75 bd ab 97 bb bd ac e3 d6 bd a4 54 a9 bd
       -0.06005065 -0.09159788 -0.10492644 -0.08268097
0000b0 e8 8e c3 bd f6 f0 19 be 92 7f 4a bd 02 61 6c bd
       -0.095487416 -0.15033326 -0.049438067 -0.0577097
0000c0 e6 f5 50 bd 9d b4 f1 bc 0c da b5 bc 0f 02 cf bd
       -0.051015757 -0.029505068 -0.0221987 -0.101078145
0000d0 de bc cf bd 80 d0 c4 bd b4 95 0a be 0a 33 a1 bd
       -0.101434454 -0.09610081 -0.1353367 -0.07871063
0000e0 52 d2 83 bd 62 10 5b 3c 88 a4 65 bd 72 84 b4 bc
       -0.064366 0.013370605 -0.056065112 -0.022035811
0000f0 59 ab bd bd b3 8c e1 bd 70 74 6e bd b3 f2 fe bd
       -0.092611976 -0.11013164 -0.058216512 -0.12448635
000100 59 9a 9c bd d3 2e 43 bd 2b 44 93 bd 26 0c 71 bd
       -0.07646627 -0.047652077 -0.071907364 -0.058849476
000110 d2 c8 11 3b 46 37 a3 b7 79 c1 e0 bd 34 1d f8 bd
       0.0022244942 -1.9456853e-05 -0.10974402 -0.12114945
000120 ab 0a f3 bd 63 ce 29 be c8 3c c5 bd f1 57 91 bd
       -0.11867269 -0.16582637 -0.09630734 -0.070968516
000130 28 c4 9c bd 33 ed 95 bd 34 ec 93 bd 67 8a 44 bd
       -0.07654601 -0.07320633 -0.072227865 -0.047983553
000140 34 6c f2 bd 87 41 47 bd 3e e5 3c bd 22 e9 1b bc
       -0.11837044 -0.048646476 -0.04611706 -0.009516032
000150 77 dc 98 bd c8 d7 00 be fb 89 8a bd 51 5b 03 be
       -0.07463925 -0.12582314 -0.06764599 -0.12827803
000160 7b ca f1 bd 8e c7 a8 bb 84 dc d3 bd 2f f9 df bd
       -0.11806198 -0.005150742 -0.103447944 -0.109362
000170 bb 6a d7 bd 88 06 5d bd 6e 73 ba bd 43 ae bb bd
       -0.10518404 -0.053961307 -0.09104048 -0.09164097
000180 28 ab b0 bd be 07 d9 bb dd e4 4f bd a1 b0 04 bd
       -0.086263955 -0.0066232374 -0.05075537 -0.03239501
000190 0c b6 fe bd 82 9d 1e bd 2c 6c 04 3c 4c af 35 bd
       -0.124370664 -0.03872443 0.008082431 -0.04435663
0001a0 eb 16 f0 bd bc 3e 1d bc 34 a2 b1 bd 74 9a 9b bd
       -0.11723121 -0.009597477 -0.08673516 -0.07597819
0001b0 29 d4 dd bd 91 6c 80 bd 88 f5 56 bd 8a 9d 71 b8
       -0.10831482 -0.062707074 -0.05248025 -5.7605597e-05
0001c0 4b 79 8e bd 9f f3 fa bd 2b 7a c9 bd 51 2e a8 bd
       -0.069567285 -0.12253498 -0.09837755 -0.08211959
0001d0 5b c0 5a bc fe f9 fa bd 4d 67 dc bd 6b 5e 87 bd
       -0.013351525 -0.122547135 -0.107618906 -0.06609806
0001e0 e6 f8 76 bd 1d 88 b6 bd f8 a1 a9 bd 90 43 69 bd
       -0.06029596 -0.0891268 -0.08282846 -0.0569492
0001f0 6e 34 d2 bd c4 2a cc bd 40 cf e6 bd f9 b9 ae bd
       -0.102639064 -0.099690944 -0.112699986 -0.08531565
000200 5c 1f a0 bd be d8 9d bd 13 e0 c8 bd e9 dd b3 bd
       -0.07818481 -0.07707356 -0.09808364 -0.087825604
000210 0f 7d 79 bd 2a 34 b8 bd ac 5d c6 bd 55 b0 e8 bd
       -0.06091028 -0.089943245 -0.09685835 -0.11361758
000220 da 0b 14 bd ea 85 8a bd 22 51 92 bd 3f 18 8b bd
       -0.036144115 -0.06763823 -0.07144381 -0.06791734
000230 97 81 ba bd ee 87 16 b7 ba 73 cd bd d8 5e 90 bd
       -0.091067486 -8.972345e-06 -0.10031839 -0.0704934
000240 0a 4f 03 be f7 d5 8f bd a3 66 ab bd 94 1d 6d bd
       -0.1282312 -0.070232324 -0.08369186 -0.057889536
000250 75 7a 00 be c7 3d 22 be d8 d2 30 be e3 89 51 bd
       -0.12546714 -0.15843879 -0.1726793 -0.05115689
000260 75 29 58 bd 18 86 8a bd f5 5a c9 bd ce c7 4b be
       -0.05277391 -0.067638576 -0.09831802 -0.19900438
000270 8b a8 04 be 4a fa 0c be 16 fe 58 bc 86 3c fa 3a
       -0.12954919 -0.13767353 -0.013244173 0.0019091524
000280 2b dd 9e bd fc 87 84 bd 2d f4 c1 bd 42 d2 13 be
       -0.07757028 -0.064712495 -0.09470401 -0.14435676
000290 5f f1 02 be d4 b8 9a bd 6e db 78 bd 71 6b ee bc
       -0.12787388 -0.075547844 -0.06075614 -0.029103966
0002a0 78 3e 9b bd b3 32 bc bc 7e fa fb bd ce 21 6d bd
       -0.07580274 -0.022973394 -0.12303637 -0.057893567
0002b0 53 98 50 b8 3c 84 bb bd b6 2e eb bd 88 98 79 bd
       -4.9732927e-05 -0.09156081 -0.11483519 -0.06093648
0002c0 28 64 01 be 5a d9 8e bd b4 17 fa bd 5e 9c c8 bd
       -0.12635863 -0.0697505 -0.12211552 -0.0979545
0002d0 e0 59 78 bc ef 2c bd bd 07 73 ff bd 76 1c ae bd
       -0.015158147 -0.09237086 -0.124731116 -0.08501522
0002e0 f4 59 0d bd a8 b2 0a be 37 e5 99 bd fe 9d 91 bd
       -0.034509614 -0.13544714 -0.075144224 -0.07110213
0002f0 95 56 be bd c1 de 51 bd 47 16 09 bd e1 83 44 3b
       -0.09293858 -0.051237825 -0.03346851 0.0029985833
000300 be cb 07 be fd 2a f9 bd c4 db 94 bd bd ba d9 bc
       -0.13261315 -0.121664025 -0.072684795 -0.026578302
000310 d3 a0 0d bd bf 7d 94 bd 56 f7 cc bc 78 28 9a bd
       -0.034577202 -0.07250547 -0.025020283 -0.0752725
000320 ce 34 e0 bd 99 d6 41 bd 52 ba 81 bd 8d 4d 36 bd
       -0.10947572 -0.047323797 -0.06334366 -0.044507552
000330 9c 0d c6 bd 46 07 35 bd 6c 68 c8 bd 35 87 17 be
       -0.096705645 -0.04419639 -0.09785542 -0.14797671
000340 8f d9 fa bd ee 67 3d 3c 46 c1 96 bd 41 3a 1c be
       -0.12248527 0.011560423 -0.07361083 -0.15256597
000350 61 4c 9b bd e8 bb d2 bd e2 c1 d4 bd c6 3b e7 bd
       -0.075829275 -0.102897465 -0.10388543 -0.11290698
000360 28 1d b0 bd c1 52 90 bd 7d eb b6 bd 6c d7 2e bb
       -0.08599311 -0.07047034 -0.089316346 -0.0026678694
000370 89 15 9d bd c3 f6 42 bd 0a 48 14 be 87 cb df bd
       -0.07670123 -0.04759861 -0.14480606 -0.10927492
000380 98 66 0d be ee 73 ce bd 33 86 8e bd a1 72 3a 9b
       -0.13808668 -0.100807056 -0.0695919 -1.5422598e-22
000390 d4 44 b3 bd d5 57 df bd 65 20 f3 bc 4d 5f b5 bd
       -0.08753362 -0.109054245 -0.029678533 -0.08856068
0003a0 26 7d 89 bd 5e f8 84 bd 1a f5 b5 bd 33 05 28 be
       -0.06713323 -0.06492685 -0.0888464 -0.16408233
0003b0 1e eb 74 bd bf 22 83 bd 23 bc 48 bd 18 70 06 be
       -0.059794538 -0.06403112 -0.049007546 -0.13128698
0003c0 a6 e6 4c b0 4b 62 8b bd 78 70 2e bd 8a 9d 33 bd
       -7.454254e-10 -0.06805857 -0.042587727 -0.043851413
0003d0 82 58 35 95 47 1f e9 bd da de a6 bd 7d 84 be bd
       -3.662248e-26 -0.11382919 -0.08147974 -0.09302614
0003e0 32 9f 1c bd 5f 88 85 bd ea c3 13 be 12 d8 83 bd
       -0.038237758 -0.06520151 -0.14430204 -0.064376965
0003f0 5f c1 df bd 5e 58 80 bd 3d 56 ba bd 4f 34 bf bd
       -0.109255545 -0.06266855 -0.0909848 -0.09336149

net.6.weight f4 [256]
000000 ed 26 f3 3e 63 41 89 3e 25 b2 88 3e 61 40 7e 3e
       0.47490636 0.268077 0.26698413 0.24829246
000010 b0 c0 78 3e ad 01 d7 3e ec 31 9b 3e f2 af ab 3e
       0.24292254 0.41993466 0.30311525 0.33532673
000020 ee 59 a2 3e 6a 48 99 3e 8c 4c 0d 3e da 89 95 3e
       0.31709236 0.2993806 0.13798732 0.29206735
000030 84 2e d5 3e 2c 28 ca 3e 95 65 8b 3e a4 e9 55 3e
       0.4163705 0.39483774 0.27225938 0.20889908
000040 e6 33 ef 3e 2f 92 8e 3e 39 bd d0 3e eb 66 8b 3e
       0.46719283 0.27845904 0.40769365 0.27226958
000050 e0 d3 98 3e ba f2 ec 3e a8 b4 84 3e 3b 12 7c 3e
       0.29849148 0.46278936 0.2591908 0.2461633
000060 de f9 de 3e 38 27 c1 3e 0c a0 47 3e b1 bb 75 3e
       0.4355001 0.37725234 0.19494647 0.2399738
000070 8c 88 b5 3e 03 01 6f 3e f7 58 8c 3e 61 fd ed 3e
       0.3545574 0.2334023 0.27411625 0.46482375
000080 98 d6 94 3e 72 32 a5 3e 95 b5 9c 3e 06 cc c7 3e
       0.29069972 0.3226505 0.30607286 0.39022845
000090 b0 bc d5 3e c1 82 92 3e 24 a2 0b 3f 3e 2c 9a 3e
       0.4174552 0.28615382 0.5454428 0.3011188
0000a0 78 51 7e 3e 3a 49 b3 3e 1b bd f2 3e a0 6a 86 3e
       0.24835765 0.35016805 0.474099 0.26253223
0000b0 b3 12 7a 3e 99 4a ce 3e 48 bc 8c 3e 96 fc da 3e
       0.24421196 0.40291288 0.27487397 0.42770833
0000c0 b9 24 a9 3e 71 0e 99 3e 9b 15 ce 3e 7d a5 c6 3e
       0.3303583 0.2989383 0.4025086 0.38798133
0000d0 05 b1 d2 3e f9 3a 98 3e c1 3a ca 3e 82 55 e3 3e
       0.4115068 0.29732493 0.3949795 0.44401175
0000e0 c3 db 90 3e 43 47 42 3d 56 07 94 3e 3f b2 fd 3e
       0.28292665 0.04743124 0.28911847 0.49550053
0000f0 e5 8c 9d 3e 76 72 01 3f e3 5b 81 3e d4 a5 b3 3e
       0.30771556 0.5056528 0.25265417 0.35087454
000100 b6 4e 70 3e d0 a2 4a 3e cf eb 9d 3e 86 3f 8c be
       0.23467526 0.1978867 0.3084397 -0.27392215
000110 0b 18 8c 3e e3 7c ea 3e 97 b9 f2 3e 30 8c 08 3f
       0.27362093 0.45798406 0.4740722 0.5333891
000120 07 c3 c8 3e ba 56 dd 3e 2c 8e d9 3e f2 76 92 3e
       0.39211294 0.4323023 0.4249128 0.28606373
000130 c5 f8 94 3e 7e 80 d6 3e 71 56 9d 3e 3d 68 7e 3e
       0.29096046 0.41894907 0.30730012 0.24844451
000140 f6 18 e1 3e cd 70 95 3e e9 35 65 3e 5e c0 97 3e
       0.43964356 0.29187623 0.22383846 0.29638952
000150 d4 d1 8f 3e 8c 8e da 3e 37 af a8 3e e5 65 fc 3e
       0.28089774 0.4268688 0.32946178 0.4929649
000160 c6 b9 f6 3e 52 fb 85 3e d0 db 97 3e 8b 47 f7 3e
       0.4818861 0.26168305 0.2965989 0.4829677
000170 5b e3 91 3e 67 ee a9 3e 4f 9e 84 3e 67 11 88 3e
       0.2849377 0.331897 0.2590203 0.26575777
000180 3b e4 c0 3e c1 45 6b 3e 17 7a d2 3e 18 5d 83 3e
       0.37674126 0.22975828 0.41108772 0.25656962
000190 73 c0 00 3f 69 82 8d 3e 6d c3 5c 3e 45 8b 7d 3e
       0.50293654 0.27638558 0.21558924 0.24760158
0001a0 e6 fe e1 3e 57 8f 02 3e 8a 09 a0 3e 0a c9 86 3e
       0.44139785 0.12749992 0.31257278 0.26325256
0001b0 8d 21 e7 3e fe 0c 84 3e d5 22 8b 3e 38 67 db 3e
       0.45142785 0.25791162 0.27175012 0.42852187
0001c0 4c 2f a6 3e 7d 3b e5 3e db 65 6a 3e 7a d5 96 3e
       0.3245796 0.44771948 0.22890417 0.29459745
0001d0 19 e8 99 3e bd d5 9d 3e 67 0b b3 3e 76 a0 81 3e
       0.3005989 0.30827132 0.34969637 0.25317734
0001e0 14 5f a7 3e af 3c c8 3e 5f dd 99 3e 58 c6 47 3e
       0.32689726 0.39108798 0.30051705 0.19509256
0001f0 bd ed cf 3e 31 bb 82 3e d6 cf e6 3e 44 da 99 3e
       0.40611067 0.2553344 0.4508044 0.30049336
000200 a7 cf 91 3e 04 c8 71 3e d6 a8 e0 3e f2 ef 8e 3e
       0.2847874 0.23611456 0.43878812 0.2791744
000210 3d 5e 8f 3e 13 dd e2 3e a3 ff a7 3e c2 6d d2 3e
       0.28001586 0.4430929 0.32812223 0.41099364
000220 9c f0 87 3e aa 03 33 3e bf e4 8a 3e 44 37 8f 3e
       0.26550758 0.17481866 0.27127644 0.27971852
000230 28 df d5 3e 9b ef f6 3e 14 c4 7e 3e cb 32 87 3e
       0.41771817 0.4822968 0.24879485 0.2640594
000240 42 c6 09 3f 19 2c bc 3e 73 17 9e 3e d4 03 a7 3e
       0.5381814 0.36752394 0.30877265 0.32620108
000250 87 d0 02 3f 78 34 04 3f c5 c0 04 3f ec 06 87 3e
       0.5109944 0.5164256 0.5185664 0.26372468
000260 8e 8c e4 3e 83 9b 94 3e d2 60 a6 3e 9b be 04 3f
       0.44638485 0.29024896 0.32495743 0.5185334
000270 0e 1e a1 3e cb a2 88 3e 99 00 95 3e 6a 15 d1 3d
       0.31468242 0.266867 0.29102018 0.102091625
000280 1e 0f 8c 3e 91 89 8f 3e f9 a1 b3 3e 46 d9 8c 3e
       0.27355283 0.28034642 0.35084513 0.27509516
000290 0f 5d 8e 3e 9f 34 73 3e f1 25 70 3e 17 fc ea 3e
       0.27805373 0.23750542 0.23451973 0.45895454
0002a0 b1 00 9a 3e 84 ff a0 3e 9d 8e fc 3e 9f df b0 3e
       0.30078653 0.31444943 0.49327555 0.3454561
0002b0 4c 9d f3 3e 11 14 ec 3e fa a0 d1 3e db b3 bd 3e
       0.47580945 0.4610906 0.40943128 0.3705128
0002c0 78 e9 85 3e 20 86 8e 3e f2 aa cc 3e fc cc ac 3e
       0.26154685 0.27836704 0.3997417 0.3375014
0002d0 44 27 34 3e 68 02 88 3e d8 e8 e0 3e 10 ed a9 3e
       0.17593104 0.26564336 0.43927646 0.33188677
0002e0 16 b5 94 3e 29 73 d1 3e 9f cc 86 3e 47 8e 99 3e
       0.29044408 0.40908173 0.26327989 0.29991361
0002f0 f8 3c bf 3e 9a 46 73 3e d6 42 9c 3e b0 41 fe 3d
       0.37351203 0.23757401 0.30519742 0.12414873
000300 d5 ec e9 3e 52 4c 08 3f da 3b d9 3e ce 05 84 3e
       0.456885 0.53241456 0.42428476 0.2578568
000310 4d 52 8c 3e e4 d6 94 3e b8 a1 da 3e d7 6f 92 3e
       0.2740654 0.290702 0.42701507 0.28600952
000320 94 c2 9a 3e b8 b6 7f 3e 63 f5 8c 3e 4f 75 9b 3e
       0.30226576 0.24972045 0.27530965 0.30362937
000330 cc 88 89 3e cc 01 86 3e f8 a1 ec 3e 81 ba dd 3e
       0.2686218 0.26173246 0.46217322 0.43306354
000340 07 5e 91 3e 8d 66 8b 3e 7b eb 42 3e e6 63 e2 3e
       0.2839205 0.27226678 0.19035141 0.4421684
000350 9c 3a 90 3e a9 e6 d9 3e ba e3 90 3e 30 cf f8 3e
       0.28169715 0.42558792 0.28298742 0.48595572
000360 5d 08 94 3e 64 fd 78 3e 2e 5f 98 3e a2 4c f0 3e
       0.2891263 0.24315411 0.29760116 0.46933466
000370 07 64 aa 3e b9 ae e7 3e 1f 5a 8f 3e 00 42 eb 3e
       0.3327944 0.4525049 0.27998444 0.45948792
000380 21 2a a5 3e c9 59 d4 3e 51 ee 91 3e 5d 3c f1 3e
       0.32258704 0.4147475 0.28502133 0.47116366
000390 d7 32 58 3e ee 78 fb 3e ea df 8f 3e c5 e3 bc 3e
       0.21113144 0.491157 0.2810052 0.36892524
0003a0 62 56 9f 3e e0 30 a1 3e c5 cf 86 3e ce 5d c3 3e
       0.31120592 0.314826 0.2633039 0.38157505
0003b0 79 ea 90 3e c3 3e ad 3e e4 9f 86 3e 73 66 82 3e
       0.28303888 0.33836946 0.26293862 0.25468788
0003c0 99 d4 dc 3e 8b e6 5e 3e 6c ee 6e 3e 17 39 98 3e
       0.4313095 0.21767633 0.23333138 0.29731056
0003d0 6b 6e da 3e f6 51 f6 3e 98 48 93 3e 04 50 9f 3e
       0.42662367 0.48109406 0.28766322 0.31115735
0003e0 80 89 96 3e a9 b6 a2 3e 25 71 c4 3e bf f1 d4 3e
       0.2940178 0.31779984 0.38367572 0.41590688
0003f0 02 70 ec 3e 1a b4 b1 3e db 35 93 3e ef 98 e8 3e
       0.46179205 0.3470772 0.28752026 0.4542918
