RL code/models/checkpoint_episode_730000.pth (torch, 801255 bytes, 40 tensors)

net.0.weight f4 [256, 22]
00000000: 2488 173d 24e0 2d3d 445d c03d 4dd1 43be
00000010: 4a12 dc3d 9e0c 1abd 17f6 963b a2ae 15bd
00000020: e958 bb3d 5283 94bb 309c 873d 057d 9dbd
00000030: 3c94 193e b9ae 45be 04b7 5e3d dd02 46bd
00000040: 75dc 30bd acc5 dbbc e958 bbbd 5283 943b
00000050: 2488 173d 24e0 2d3d a547 20bd 5eb0 e33a
00000060: 4e70 273d 8443 f2bc 74b8 c7bd 2844 b7bb
00000070: 5951 d63d 7af1 8fbc 1a4b 093d 6e65 f4bd
00000080: 4bdd 45be 8828 67bd e2ad 833d 6024 9fbd
00000090: 020a edbd ee48 0d3d a90a a63d da06 d23c
000000a0: 1a4b 09bd 6e65 f43d a547 20bd 5eb0 e33a
000000b0: 636d fc3d aba8 023e 23a4 543e 1ec7 2c3e
000000c0: c753 31be 2679 31be a8d6 37be bf99 27be
000000d0: 94df bbbe cb0f b9be 0fe1 92be 8ce5 79be
000000e0: e22b 1abe 0892 30be eb6f 3d3e 1693 243e
000000f0: 2486 3a3e 2b76 313e 94df bb3e cb0f b93e
00000100: be66 fc3d b8a4 023e 972e c0bd bcd4 febc
00000110: 0e03 383c f776 9c3d 1b69 a5bc 860e aa3c
00000120: 4f02 983b b539 4bbc 9c9b 28bd bc4f bb3a
00000130: 434e a03d 8bc1 683e 1bc2 ccbc 34f0 9d3d
00000140: f666 923c 5ee3 dc3c d8d5 0f3d 964e 7bbc
00000150: 9c9b 283d bc4f bbba 972e c0bd bcd4 febc
00000160: 44d5 4cbd 6c4d c33d 3f52 303b 09e9 f63d
00000170: bee3 c83d 6486 cebd a41c a5bd 9a4b 3d3d
00000180: 75ae afbc cb7e bfbd abc1 89bd dee2 8c3d
00000190: b1fd d83c c8d7 2b3d ca4e af3d e451 11bd
000001a0: 663c dfbd 9c18 ff3d 75ae af3c cb7e bf3d
000001b0: 44d5 4cbd 6c4d c33d 9141 593c 6085 bfbd
000001c0: b91d e73d f148 ffbd 1fe8 ca3b a46f 24bc
000001d0: ed84 be3c ff81 4e3d 706f 1ebc 30c6 aa3d
000001e0: e933 f93d de11 9ebc 2dd6 503d 8b43 74bd
000001f0: 9f32 983d 22b9 a0bd 0232 b63d d4f1 1fbc
00000200: 706f 1e3c 30c6 aabd 9141 593c 6085 bfbd
00000210: 0456 73bc 45ab ed3c 9802 5abe ea8c e03c
00000220: f8ab 093d dbce f2ba c98d 143d a2ed b43c
00000230: 2e35 9f3d 043b 1b3c 464b 05bd a93c f2bb
00000240: 69b3 2abe 7c34 093c 7ae4 38bc c5f9 123c
00000250: 5444 66bc 6ac2 203d 2e35 9fbd 043b 1bbc
00000260: 0456 73bc 45ab ed3c f808 a1bd 9934 18bc
00000270: 763d ac3c a55d 00be 9295 8bbc f0a4 533d
00000280: 05eb a53c b6c5 eabd feaf bbbc b043 15bb
00000290: 0b78 1b3e 4e85 5fbc 2c69 fdbb 2dc0 e1bd
000002a0: eac6 a73b 8326 2d3d b17d 2b3d 2f44 f5bd
000002b0: feaf bb3c b043 153b f808 a1bd 9934 18bc
000002c0: a10c fdbc d47f 7c3d 4cfc 403d 9ee5 92bc
000002d0: 3fc1 273b 8616 153d 0924 9f3d c6c2 cc3c
000002e0: 04f3 fcbc 3ddc 163d 1fda 903d 73c5 80be
000002f0: 7829 7b3d e260 2c3c e24e dabc 93e1 8d3c
00000300: 5dee 7c3d 00e3 d8bb 04f3 fc3c 3ddc 16bd
00000310: a10c fdbc d47f 7c3d b994 983d f632 3ebd
00000320: 312e aebd 72cd 3439 91a0 76bd 3396 17bc
00000330: 338b 01bc ed1e dcbd bb6f b33c 649d 1b3c
00000340: 122e 663d 7a19 f53c 71bd 92bd a50f 833c
00000350: 192a 8bbd 7547 8fbc 69a5 a2bc 4239 f1bd
00000360: bb6f b3bc 649d 1bbc b994 983d f632 3ebd
00000370: 27e9 e2bb 2252 49bb fd2c 103e f8ea 30be
00000380: ddda e93d 2acf 49bc 717f 703d 1257 d8bd
00000390: edc9 343d 7226 0ebd 857f b63c 1008 dbbc
000003a0: e37c 243e e78f 3bbe 63d8 c13d 84fd 60bb
000003b0: e358 353d c080 cebd edc9 34bd 7226 0e3d
000003c0: 27e9 e2bb 2252 49bb 6229 77bd 07af f93d
000003d0: af9b 7ebd 5c06 23be 3eff e0bc 10d8 20bc
000003e0: e02e 9fbc 168c d33c 885a 19bc f904 d73d
000003f0: 3875 993d 7523 743d 6aaf 98bd 6858 c4bd
0.03699507 0.042450085 0.09392789 -0.1912281 0.10745676 -0.03760969 0.004606973 -0.036543496
0.09147818 -0.004532256 0.06621587 -0.07689861 0.14997953 -0.19304933 0.054373756 -0.048342574
-0.043178994 -0.026827656 -0.09147818 0.004532256 0.03699507 0.042450085 -0.039130826 0.0017371287
0.040878586 -0.02957321 -0.097519785 -0.0055928417 0.104647346 -0.0175712 0.033518888 -0.11933409
-0.19322698 -0.056435138 0.0642965 -0.0777061 -0.115741745 0.03449338 0.08107502 0.025638033
-0.033518888 0.11933409 -0.039130826 0.0017371287 0.12325551 0.12759654 0.20765738 0.16872832
-0.17317115 -0.1733137 -0.17952979 -0.16367243 -0.36694014 -0.36144862 -0.2868733 -0.24403971
-0.15055802 -0.17243207 0.18499725 0.16071734 0.18215233 0.17330234 0.36694014 0.36144862
0.12324284 0.12758148 -0.09383886 -0.031107299 0.011231197 0.07639878 -0.02019172 0.020758878
0.004638947 -0.012403895 -0.041164026 0.001429073 0.07827427 0.22730081 -0.0249949 0.07711831
0.017871361 0.026963886 0.035116047 -0.015338561 0.041164026 -0.001429073 -0.09383886 -0.031107299
-0.050008073 0.095362514 0.0026904491 0.12056167 0.098090634 -0.10084227 -0.080621034 0.046214677
-0.021445492 -0.09350356 -0.06726392 0.06879209 0.026488157 0.041953832 0.0855995 -0.035478488
-0.10900192 0.12455866 0.021445492 0.09350356 -0.050008073 0.095362514 0.013260261 -0.09351611
0.11284966 -0.12465084 0.006192222 -0.010036383 0.023256743 0.050416943 -0.009670123 0.083385825
0.12168104 -0.01929563 0.050985504 -0.059634726 0.0743153 -0.07847811 0.08896257 -0.009762246
0.009670123 -0.083385825 0.013260261 -0.09351611 -0.014852051 0.029012332 -0.21290052 0.027410943
0.033611268 -0.0018524782 0.03626803 0.022085968 0.07773815 0.00947452 -0.03254249 -0.007392485
-0.16670002 0.00837433 -0.011284942 0.0089706825 -0.014054377 0.039247908 -0.07773815 -0.00947452
-0.014852051 0.029012332 -0.07863039 -0.009289884 0.0210254 -0.12535723 -0.017039094 0.05167097
0.020253668 -0.114634916 -0.022911068 -0.002277594 0.15182512 -0.013642622 -0.0077334847 -0.11022983
0.005120148 0.042273056 0.041867916 -0.119758956 0.022911068 0.002277594 -0.07863039 -0.009289884
-0.030889811 0.061645344 0.04711561 -0.017931756 0.0025597361 0.036398433 0.07770545 0.024995219
-0.030877598 0.03683113 0.07072853 -0.25150642 0.061318845 0.010521146 -0.026648942 0.017319476
0.06175076 -0.0066188574 0.030877598 -0.03683113 -0.030889811 0.061645344 0.074502416 -0.04643532
-0.08504904 0.00017242672 -0.06021172 -0.009252119 -0.007906723 -0.10748086 0.021903863 0.009497974
0.05619628 0.029919375 -0.07165039 0.01599867 -0.06795139 -0.017490128 -0.019854264 -0.11778499
-0.021903863 -0.009497974 0.074502416 -0.04643532 -0.0069247666 -0.003071912 0.14079662 -0.17277133
0.11418698 -0.012317458 0.058715288 -0.10563482 0.044137884 -0.034704633 0.022277603 -0.026737243
0.16063266 -0.18316613 0.094651006 -0.0034330795 0.044274222 -0.10083151 -0.044137884 0.034704633
-0.0069247666 -0.003071912 -0.0603422 0.12191587 -0.06216019 -0.15920395 -0.027465459 -0.009817138
-0.019431531 0.025823634 -0.009359963 0.10498995 0.07493061 0.059604127 -0.074553326 -0.09587175

net.0.bias f4 [256]
00000000: 5eb3 90be 8793 83be 5852 07be dc96 85be
00000010: 2e30 76be 6193 98be 8c7b 0fbf 3433 96be
00000020: 51d3 9dbe b01e 97be d1a1 81be 4414 72be
00000030: 006e a6be 2265 0dbf 9fa2 82be b4e5 6ebe
00000040: 54e8 37be 24d5 d6be 2c67 9dbe aa8d 44be
00000050: a166 aabe 4fcc 93be 74d6 8d3d aed0 48be
00000060: 3cbd 51be 2c9e 40be abba 5fbe 63e7 88be
00000070: a0c9 aebe a6e2 553e e030 92be 9f6b 81be
00000080: 6b7d bebe f3fb 9dbe 0b23 17bf 0cec 6dbe
00000090: a8d2 eabe 5dfd 8dbe 7713 bbbc 398a 42be
000000a0: d56d 97bd 9332 5dbe 9090 10bf f4b5 95be
000000b0: b5b1 85be bfe9 62be cbf3 a6be ffe6 76be
000000c0: de95 53be 70e7 21be dbd4 52be b272 81be
000000d0: 349a a3be 3426 f2bc 7aec 41be 3fef 75be
000000e0: f832 3ebe becf 70be bd2d 8abe 80fe 7cbe
000000f0: ac22 53be 18a7 65be 04bd 81be b845 4cbe
00000100: a784 79be cbe4 bf3c d4dd 6cbe 09e5 88be
00000110: 19e9 20be 20a0 35be e3ec 4fbe 19ae 55be
00000120: ebf4 f1be ec10 82be f070 5ebe c5d1 91be
00000130: 0c26 67be 75a6 e9be 725a c6be 3c9e 4ebe
00000140: 513d 7cbe 2c6a 6dbe d91f acbe 1b15 50be
00000150: c661 4bbe 0ed0 80be 3699 7fbe 2f2d 10bf
00000160: 7daf a0be 7fe2 9bbe 7c0a a9be e0ed 8fbe
00000170: 4c36 33be cd1f eabe db75 97be fa54 4abe
00000180: e0b4 95be 34ee 553e 8e43 88be 13e1 43be
00000190: ea09 c2be 397b 59be 7286 aebe e6ad fcbe
000001a0: ad7d 98be 2688 26be d816 6bbe caac 9ebe
000001b0: f5ba 55be c34a 72be 9e45 81be e4f6 ebbd
000001c0: 4cbe c9be 2108 0bbf e988 90be f3d9 203d
000001d0: 0189 93be d752 7dbe 8574 9abe 663e 5bbe
000001e0: 3739 8cbe d740 62be 482e 83be ff23 7bbe
000001f0: f1a8 92be 0714 593e bd0e 77be 7f40 0cbf
00000200: 8f22 89be 703f 6dbe 4a55 4dbe 582c aabe
00000210: 70f8 99be 1d78 80be 4424 7abe 1c3f 97be
00000220: 4494 4fbe f4cc 6fbe 8218 4ebe 8da3 8cbe
00000230: f21f 62be 4457 a1be 2b4a 8cbd e327 d2bd
00000240: 8766 523e a330 7abe b0aa b2bd 78ce 79be
00000250: de52 45be 0bf9 97be 6452 8dbe cb93 5ebe
00000260: 44bf 8cbe 71ec 9cbe 360c 8dbe ba5f 4cbe
00000270: c6da a3be 8f29 98bd f92c 2ebe 5408 84be
00000280: 3c00 95be 4f10 7cbe 5a02 77be 9a31 9bbe
00000290: 77a6 1abe b5ad a8be 12a9 903d b715 75be
000002a0: 1ead 98be 8e44 f5bc fde9 8dbe 0419 aebe
000002b0: 6cac 5fbe 76c6 5cbe 333e 87be 9ce8 51be
000002c0: a17f 7fbe bc6f 7fbe ab05 97be 273c 9bbe
000002d0: 3559 50be f2fe c23d e69a bdbe ce56 50be
000002e0: 2de3 7fbe 5b08 85be 3a6b 88be 189c 8fbe
000002f0: 2d5a 98be a611 75be f483 a0be 2a2a 71be
00000300: 3aeb a1be 05e5 16bf 60ce 8bbe c88d 573e
00000310: 51c4 5bbe 7a87 84be 35c4 93be aef8 45be
00000320: c106 9bbe 7040 a4be 9e93 9abe ae9b 97be
00000330: 0c01 0dbf efed 87be 501d 8dbe 1494 49be
00000340: 320a d4be 2681 54be 2d80 5b3e e520 93be
00000350: b994 1dbf cafe 84be 35bc 7bbe 738d 7cbe
00000360: 2968 8dbe 8d34 98be 0f27 79be 661f 85be
00000370: 162d 65be 1c81 99be 7017 15bf 9486 1ebe
00000380: 3bcc 8dbe c51f 93be 2ede 84be 2692 7bbe
00000390: fc3a 82be 8de5 91be 937d 8cbe 819c 88be
000003a0: a4a9 a9be 77d9 90be 83f3 b7be 135c 6abe
000003b0: f315 7ebe d963 91be de3f 49be 723a 81be
000003c0: ed83 68be cce0 a4be 045f 563e f151 59be
000003d0: 7e57 a2be 1a48 bdbe 76f1 81be 8dea 9ebe
000003e0: c423 50be 1b60 abbd fb53 0fbf 9f1a 3bbe
000003f0: f9e6 9dbe ef65 92be 2010 1abf 3bfd 9abd
-0.28261846 -0.25698492 -0.13215005 -0.2609166 -0.24041817 -0.2979994 -0.5604789 -0.2933594
-0.30825284 -0.295156 -0.2531877 -0.23640543 -0.32505798 -0.5523244 -0.25514695 -0.23329812
-0.1795972 -0.41959488 -0.30742776 -0.19194666 -0.33281425 -0.28866813 0.06925669 -0.19610855
-0.20482343 -0.18810338 -0.21848552 -0.26739034 -0.34138203 0.20887241 -0.28552914 -0.2527742
-0.3720506 -0.30856284 -0.59037846 -0.23234576 -0.45863843 -0.27732363 -0.02283643 -0.1899804
-0.07393996 -0.21601324 -0.56470585 -0.29240382 -0.26112142 -0.2215948 -0.32607874 -0.24111556
-0.20662639 -0.15810943 -0.2058901 -0.25282818 -0.31953585 -0.029559232 -0.18937865 -0.24017046
-0.1857413 -0.23516747 -0.2698802 -0.24706459 -0.20618695 -0.22427022 -0.2533952 -0.1994847
-0.24367009 0.023424527 -0.23131496 -0.2673724 -0.1571392 -0.17736864 -0.20305209 -0.20867194
-0.4725717 -0.25403535 -0.2172277 -0.28480354 -0.22573107 -0.4563481 -0.3874088 -0.20177549
-0.24632765 -0.23185033 -0.33618048 -0.20320551 -0.19861516 -0.25158733 -0.24960789 -0.56318945
-0.31383887 -0.3044624 -0.3301581 -0.28111172 -0.17501181 -0.45727387 -0.29582104 -0.19758978
-0.2923956 0.20891649 -0.2661404 -0.19128828 -0.3789819 -0.21238412 -0.3408695 -0.49351424
-0.29783383 -0.16262874 -0.22957933 -0.30991203 -0.208721 -0.23661332 -0.25248426 -0.115217
-0.39402997 -0.5430928 -0.28229454 0.039270353 -0.28815463 -0.24738632 -0.30167022 -0.21410522
-0.273874 -0.22095047 -0.25621247 -0.2452545 -0.28644517 0.21199046 -0.24126716 -0.54785913
-0.2678418 -0.2316873 -0.20052066 -0.33236957 -0.30072355 -0.2509164 -0.24427897 -0.29540336
-0.20271403 -0.23418027 -0.20126536 -0.2746853 -0.22082499 -0.3151189 -0.06850084 -0.10261514
0.20546924 -0.24432616 -0.08723962 -0.24395168 -0.19269893 -0.29682192 -0.27601922 -0.21736066
-0.27489674 -0.3064914 -0.2754838 -0.19958392 -0.32002848 -0.07429802 -0.17009343 -0.25787604
-0.2910174 -0.24615596 -0.24121991 -0.3031128 -0.15102564 -0.32945028 0.070634976 -0.23934065
-0.29819578 -0.029939916 -0.2771758 -0.3400346 -0.21843117 -0.21560082 -0.26414642 -0.2049889
-0.2495103 -0.24944967 -0.29496512 -0.3031933 -0.2034653 0.09521283 -0.3703224 -0.20345613
-0.24989004 -0.25982937 -0.26644307 -0.28048778 -0.297563 -0.23932514 -0.31350672 -0.2355124
-0.31624776 -0.58943206 -0.2730589 0.21050179 -0.21461608 -0.2588461 -0.28860632 -0.19333145
-0.3027859 -0.32080412 -0.30190748 -0.29610962 -0.5507972 -0.26548716 -0.27561426 -0.19685394
-0.41414028 -0.20752391 0.21435614 -0.28736034 -0.6155506 -0.2597564 -0.24583514 -0.24663334
-0.2761853 -0.29727593 -0.24331306 -0.26000518 -0.2238048 -0.29981315 -0.5823889 -0.15481025
-0.27694878 -0.28735176 -0.2595076 -0.2456747 -0.25435627 -0.28495446 -0.27439556 -0.26681903
-0.33137238 -0.28290913 -0.35927972 -0.22886686 -0.2481306 -0.2839649 -0.1965327 -0.25239903
-0.22706576 -0.32202756 0.20934683 -0.21222664 -0.31707376 -0.36969072 -0.25379533 -0.31038323
-0.20326144 -0.0836794 -0.5598752 -0.18271874 -0.3084028 -0.28593394 -0.60180855 -0.07567831

net.2.weight f4 [256]
00000000: 31ec 483e 9e76 e33d faed 6a3e 6ad7 203e
00000010: a40a 773d 6e95 183e b328 183f ebf3 3e3e
00000020: adf0 7e3e c78d 023e 3e64 3f3e ea1e 563e
00000030: 0ea2 6d3e cd12 9b3e dfb9 393e c23e 183e
00000040: 35af 173e 5dd7 3a3e 0252 433e dfa0 ca3d
00000050: ef6b 233e 62fc 573e b5c5 173d 085b 183e
00000060: 1d8c 6d3e d3fb 513e c87b 953d dcea 1a3e
00000070: 77bf 663e 8554 1f3e 300b 543e ea34 333e
00000080: ab0d 2b3e e7b1 653e 7ded 9b3e 3f4f bd3d
00000090: c8e6 503e 9328 4e3e e9bd 063f cc72 b43d
000000a0: 5381 cc3d 3ae9 7a3e ab6f f03e 256f 443e
000000b0: d452 123e 0f03 083e b7e7 1f3e d3fa 2d3e
000000c0: f093 6f3e d482 973d cb99 143e ec4e 233e
000000d0: d480 483e a840 0e3f 0c95 5c3e b64a 1a3e
000000e0: b936 0e3e 4017 ff3d 2fba 5a3e 25a7 253e
000000f0: 228a b93d 04a8 ce3d 3f4f 1f3e 86f6 813e
00000100: 81e4 ea3d e323 103d 1a58 f53d 4df7 373e
00000110: 51ee 3d3e 57ba 4c3e 116f 5b3e 8150 993d
00000120: eb72 823e 7d59 f83d 01c9 0d3e 0c4f 473e
00000130: 3e23 3c3e 1be6 633e 9a2a 963e 1f4a 113e
00000140: 6a4d 733e 7d9e 173e 7718 343e 0703 553e
00000150: a12c 043e 4091 4d3e a354 cf3d b56c 843e
00000160: ddb3 6c3e 2688 1e3e c891 f23d eec7 1c3e
00000170: c81f 233e 0f0a 073f 4f27 443e 8095 863d
00000180: cb5b 253e 776f 203e ab14 e73d 194a e43d
00000190: 97e0 0d3e bfcb 043e 31a5 213e 380c 063f
000001a0: 8ca7 333e e08f 123e 0ee5 183e 7a29 333e
000001b0: 9cf5 183e 1556 df3d 6d42 3e3d 4180 d43d
000001c0: c1b0 383e 4bac a13e eec8 5f3e 5e7f 033d
000001d0: eb59 c73d b3ca 3b3e cf4e 883e efeb 373e
000001e0: d623 463e 6ba4 d63d b7c0 aa3d 9719 bc3d
000001f0: c767 173e 8927 253e 1a20 453e dc15 d23e
00000200: d8dd 263e 104d 393e 8673 883d 75e3 133e
00000210: 8bcf 113e a093 293e 041e 2d3e 17e2 863e
00000220: cbe1 733e 90e2 333e 31cc 4c3d ca28 363e
00000230: b4d9 673e 13da 483e 5244 133e 72ec 263e
00000240: 93da 223e 7276 363e 9863 f03d 73f4 203e
00000250: ea78 513e 4a8a 323e 5f93 723e 6429 c23d
00000260: 94d2 1c3e 93d9 313e eeb0 183e 116f 5c3e
00000270: 8930 273e 1e8c 133e d7cf 1d3e 4e90 eb3d
00000280: 17bb 103e 88f4 343e 9cad cf3d 8dbf 4a3e
00000290: 07a4 7d3d 3592 343e 7837 1e3d 44a2 813d
000002a0: a737 293e 441f 0d3f a78b 203e 5005 363e
000002b0: fa8a e53d c5ad 893d e35b 1a3e e6b0 693e
000002c0: 8034 293e a2a4 393e d9c8 813e 3ba6 6a3e
000002d0: 56d4 733e 5a0f 043d 4427 c93e ee6c e33d
000002e0: 445e 3a3e 99b3 0a3e f414 4b3e f258 493e
000002f0: f998 0f3e 76b1 f13d 3309 423e 9b28 3b3e
00000300: 2745 6f3e 8768 9f3e dcec 593e b781 233e
00000310: 4137 853d b7a1 56be 5bf0 3d3e be56 533e
00000320: 0eb2 e93d cc52 6c3e e223 583e 6782 583e
00000330: 58f8 113f 2e99 393e 99e7 613e f58d 363e
00000340: daca 933e e3b5 fc3d abda 273e f4d4 593e
00000350: 630b af3e 0577 0c3e 2f76 323e cda6 303e
00000360: d828 293e ac0a 0e3f 500f 223e e201 323e
00000370: 7aba 0a3e be1a 123e 2e3a f43e f947 e83d
00000380: 1149 473e 86ad 963e ad66 043e 717c 1e3e
00000390: c5e0 393e d28f 373e bbe1 b33d eb80 0f3e
000003a0: 16af 193e b658 5e3e 26b6 fb3d f92a 2b3e
000003b0: 59f1 433e 7676 dc3d f5ab 313e c7e1 273e
000003c0: 9f03 1a3e 2b58 2c3e 62b3 243e e024 233e
000003d0: fe04 543e 281c 7d3e 66e0 083e cf6a 023e
000003e0: fbd8 fc3d fc75 113e d388 8d3e fab4 d13d
000003f0: 8409 293e 7e70 323e 7a63 703e 11fb 013e
0.1962135 0.11106609 0.22942343 0.15707174 0.060312882 0.14900753 0.594371 0.18647735
0.24896498 0.12749396 0.18690583 0.2091023 0.2320635 0.3028778 0.1813731 0.1486769
0.1481293 0.18246217 0.19074252 0.09893965 0.15959142 0.2109237 0.037053782 0.14878476
0.2319798 0.2050622 0.07299 0.15128654 0.22533976 0.15559585 0.20707393 0.17500654
0.16704433 0.22431146 0.30454627 0.092436306 0.20400536 0.20132665 0.5263353 0.08810958
0.09985604 0.24503031 0.46960196 0.19183023 0.14289409 0.13282417 0.15615736 0.16990213
0.23396277 0.07398 0.14511792 0.15948075 0.19580394 0.5556741 0.21541232 0.15067562
0.13888063 0.124556065 0.21360086 0.16177042 0.0905955 0.1009064 0.15557574 0.25383395
0.11469365 0.035190474 0.11979695 0.17965432 0.18547942 0.19992958 0.21429087 0.07486058
0.254783 0.121264435 0.13846208 0.19463748 0.18372819 0.22255747 0.29329377 0.14188431
0.2376 0.14806552 0.17587458 0.20801936 0.1290765 0.2007494 0.10123565 0.25864187
0.23115487 0.15481624 0.11844212 0.15310642 0.15930092 0.52749723 0.1915562 0.065714836
0.16148297 0.1566752 0.11283239 0.111469455 0.13855205 0.12968348 0.15785672 0.52362394
0.17544383 0.14312696 0.14931127 0.17496291 0.14937443 0.10905091 0.046450067 0.10376025
0.18036176 0.31576762 0.21853992 0.03210389 0.09733947 0.18339042 0.26622626 0.17961095
0.19349608 0.10480579 0.08337539 0.091845684 0.14785682 0.16128363 0.19250527 0.41032302
0.16295564 0.18095803 0.06662659 0.14442237 0.14239328 0.1656022 0.16905981 0.26344368
0.23816602 0.17566895 0.04999942 0.17788997 0.22641641 0.19614439 0.14381531 0.16301134
0.15903692 0.17818621 0.11737746 0.1571825 0.20456281 0.17435566 0.2368903 0.09480551
0.15314704 0.17368154 0.14911243 0.21526743 0.16327108 0.14408919 0.15411316 0.11502133
0.14133869 0.17671406 0.10140535 0.19799633 0.061924007 0.17633899 0.038627118 0.06329778
0.16525136 0.5512583 0.15678273 0.17775464 0.11208148 0.06722597 0.15074115 0.22821388
0.16523933 0.18129209 0.25348547 0.22914974 0.23811468 0.032241203 0.3928777 0.11104761
0.18200022 0.13545074 0.19832212 0.19662836 0.14023198 0.11801426 0.18948822 0.18277209
0.23366223 0.31134436 0.21281761 0.15967451 0.065046795 -0.20960127 0.1854872 0.20638558
0.11410914 0.2307846 0.21107438 0.21143495 0.5701957 0.1812484 0.22061004 0.1782759
0.288657 0.1233938 0.16392009 0.21272641 0.34188375 0.13717277 0.17427896 0.1725113
0.16519487 0.55485034 0.15826154 0.1738353 0.13547698 0.14268014 0.47700638 0.11341853
0.19461466 0.29429263 0.12929793 0.15477158 0.18152149 0.17925957 0.08783289 0.14014022
0.15008196 0.21713528 0.122906014 0.16715612 0.19135036 0.10764782 0.17350753 0.16394721
0.15040444 0.16830508 0.16084054 0.15932035 0.2070503 0.24717772 0.13366851 0.12736057
0.12346073 0.14205164 0.2764345 0.10239597 0.16507536 0.17425725 0.23475447 0.1269343

net.2.bias f4 [256]
00000000: 5dbb 1f3d a594 8a3c 72ee 603c bdf0 f43c
00000010: 9175 cb3b 0804 e33c e4b1 1e3e 835e 383d
00000020: 4a75 6e3d aeee c23c ef3e 293d 5969 3f3d
00000030: 5dde 863d 6fa6 903d 2cc3 2f3d 92b1 083d
00000040: 47ee a93c 5992 123d c974 213d 4409 3b3c
00000050: 6c78 dd3c 5ee1 4a3d e4b0 6fbd cb5a c23c
00000060: eb13 ad3c 7795 e13c c72b 183c c7be 033d
00000070: 8d39 6b3d 4d5b 09bf 3bd5 543d 126b 1d3d
00000080: 5b3a 5c3c f710 793d 03b2 993d b3f0 3e3c
00000090: 8da9 143d 6852 613d 7e61 173e 655f 1b3c
000000a0: ec2d 53bc 6053 293d a679 003e 61bd 343d
000000b0: 99c7 1c3d 6c67 dd3c 4760 533c 734e 103d
000000c0: 2d11 0a3d 010b 5e3b cd22 223d bdb5 003d
000000d0: a4e4 2f3d d338 223e aec3 0c3d 3b9b 283d
000000e0: 41a4 b13c 8da5 c63c 8c03 613d a415 1d3d
000000f0: 0a28 713c 41be 823c 6fcd 063d 0a41 023d
00000100: 71fb e83c 7f21 61bd 838b d13c ea4a fc3c
00000110: 2253 013d efe2 253d 6c0f f63c 444d 84bb
00000120: 91db 473d 80c9 ac3c aa80 d63c 28ab 123d
00000130: 4d05 313d 9e8b 673d d805 993d 91ba a43c
00000140: 65af 603d 5e6e 133d 04db 133d a08c eb3c
00000150: dd8a cf3c f23d 2e3d 4ea6 9f3c 7928 793d
00000160: 3a6a 553d 44fc 223d 663c 2e3c e126 243d
00000170: c514 f13c 9fee 153e 397b 2f3d 896a af3b
00000180: 93d7 0f3d ef02 08bf c95a 933c c203 5b3c
00000190: c0ef 053d 34ef f33c 9818 123d 1652 073e
000001a0: b3ab 1c3d ecc5 d13c 6b23 213d adc0 473d
000001b0: bb24 9c3c 9d93 853c c57e b23b ce42 893b
000001c0: 8ce9 d83c a7a6 8a3d 4e1f 533d 498f 8abd
000001d0: a516 473c e5d4 3d3d 477c 843d f3ca 193d
000001e0: 9aa1 383d 0ae7 983c 122e 873c 5d97 783c
000001f0: ffd9 fc3c 8cb1 0bbf ae03 383d 230b cd3d
00000200: ed9c 013d d203 313d 98be 093c 3f9a a93b
00000210: e146 0c3d 37ac 233d 9a81 253d 10ac 8b3d
00000220: 926b 0a3d 1821 3b3d 60ea 09bc 8478 183d
00000230: 12c9 083d 849d 523d ecd8 8ebb 79a3 623c
00000240: c601 08bf 4600 fe3c 55ae 6fbc eb4b 2a3d
00000250: a54a ba3c 1f4d 383d f936 573d 6ba7 873c
00000260: 0374 103d 4ace 323d ba0d 113d c1d3 e43c
00000270: 4498 283d ad6a 3c3c 1955 bf3c 379b 5f3c
00000280: a9a8 e03c 6402 373d efe4 083c 350f 4e3d
00000290: a4e7 153b 13e6 563d bd6d 81bd 977a f23b
000002a0: a91b db3c 1ead 1d3e 4e14 333d f087 303d
000002b0: d876 993c 6bf2 83bc e755 233d f945 173d
000002c0: dade 233d fae3 233d 9b08 5e3d 54f7 803d
000002d0: 24fc 2a3d 35a7 92bd 123c d93d 07e7 cd3c
000002e0: a378 cc3c 8fa1 c03c 00b8 333d 6ae6 2b3d
000002f0: 2757 023d daf8 bf3c f834 393d 209c 173d
00000300: ecf8 6d3d 1bbe 8b3d bc9a 433d 55e5 09bf
00000310: 46e0 093c 6f5e 61bd a6c2 343d 0376 063d
00000320: e799 b53c 6880 923d 1325 713d 33bc 653d
00000330: 4edd 1b3e af9f 373d 0f4b 753d 34d0 0c3d
00000340: 46a2 9a3d 146b a53c fda1 09bf 565d 593d
00000350: a15a 9d3d 8b83 d83c 1272 c23c b1e1 323d
00000360: d2db 3e3d 759c 1d3e 6ffc 013d 5e62 3c3d
00000370: 5509 083d 3704 083d 3955 033e 7621 9b3c
00000380: 480b 533d cf91 963d d363 153d 4ab7 873c
00000390: 4808 493d a4a1 123d 7e9e f13b f444 da3c
000003a0: 8b33 c43c da77 7c3d 2e1a 823c bcc1 b83c
000003b0: 3cc1 4d3d 3960 b23c d92f 083d d0fd 113d
000003c0: c1ca af3c db21 113d 9d24 06bf 160f 193d
000003d0: b6b2 503d 311e 833d 0850 d63c bc42 f73c
000003e0: 794f 943b 9de4 1eb9 fc81 613d a9a0 ac3c
000003f0: 12ff 1d3d 1c43 243d f68e 303d 64f5 483c
0.038997043 0.016916582 0.013728725 0.02989995 0.0062090834 0.027711883 0.15497547 0.04501201
0.058217324 0.023795452 0.041319784 0.046731327 0.06585381 0.07062995 0.04291074 0.03337247
0.020743502 0.0357841 0.039418016 0.011415783 0.02703496 0.049531333 -0.058518305 0.023724934
0.021127662 0.02753709 0.009287781 0.03216436 0.05742793 -0.5365494 0.051961165 0.03843219
0.013441647 0.060807195 0.07504656 0.011654067 0.03629451 0.05501023 0.14783284 0.009483193
-0.012889367 0.04133928 0.12546405 0.04412592 0.03827629 0.027026854 0.012901372 0.035231065
0.033707786 0.003388107 0.03958397 0.03142332 0.042942658 0.15841989 0.034366302 0.041163664
0.021684768 0.024248863 0.054935023 0.038350716 0.014719019 0.01595986 0.03291076 0.031800307
0.02844021 -0.054963585 0.02557922 0.03079744 0.031573422 0.040499624 0.03003665 -0.004037531
0.04879338 0.021092176 0.026184399 0.03580776 0.043217946 0.056529634 0.07471818 0.020108493
0.05485477 0.035993926 0.03609754 0.028753579 0.02533477 0.042539544 0.01948848 0.060829613
0.05210326 0.03979136 0.010634517 0.04007614 0.029428849 0.14641808 0.042842124 0.005353276
0.035117697 -0.53129476 0.017987626 0.013367595 0.032699347 0.029777147 0.035667986 0.13214907
0.038249683 0.025607072 0.039340418 0.048767734 0.019060483 0.016305739 0.005447241 0.004188872
0.026478551 0.06770068 0.051543526 -0.06765611 0.012151395 0.04634561 0.064690165 0.037547063
0.04507599 0.018664856 0.01650146 0.015172807 0.030865667 -0.5456779 0.044925384 0.1001189
0.031643797 0.043216534 0.0084072575 0.0051758583 0.034247283 0.03995916 0.0404068 0.06819928
0.033793993 0.045685858 -0.008417696 0.037224308 0.03339488 0.05141975 -0.004359355 0.01383292
-0.53127706 0.03100599 -0.014628966 0.041576307 0.022740671 0.044995423 0.05254266 0.016559323
0.035266887 0.043653764 0.03541348 0.027933003 0.041160837 0.011500043 0.023356007 0.013647846
0.027424173 0.044680014 0.008355363 0.05030747 0.0022873664 0.05246551 -0.06319759 0.0073998678
0.026746588 0.1539807 0.043720536 0.04309839 0.018733427 -0.016106805 0.039876845 0.036931966
0.04000745 0.040012337 0.054207426 0.06297174 0.041744366 -0.071607985 0.10607161 0.025134576
0.024959868 0.023514537 0.043876648 0.041967787 0.031821396 0.023434091 0.04521653 0.037014127
0.05809872 0.06823369 0.047754988 -0.5386556 0.008415287 -0.0550217 0.044130944 0.03282739
0.022168113 0.07153398 0.058873247 0.056087684 0.1522114 0.04483002 0.059886035 0.034378245
0.075504825 0.02019266 -0.537628 0.053067528 0.07683302 0.026429912 0.023736034 0.043672267
0.046596356 0.15391715 0.03173488 0.045992248 0.033212025 0.033207145 0.12825479 0.018936854
0.05152443 0.073520295 0.036472153 0.016566891 0.049080163 0.035798684 0.00737363 0.026644208
0.023950359 0.061637737 0.015881624 0.022553317 0.05023311 0.021774398 0.033248756 0.035642445
0.021458985 0.035432678 -0.5239962 0.037367903 0.050951682 0.06402243 0.026161209 0.030183189
0.0045260754 -0.0001515322 0.055055603 0.021072702 0.038573332 0.040103063 0.04310509 0.012265537

net.4.weight f4 [256, 256]
00000000: dc5d 533d 4edf 183d c5f0 25bb ec3c 4c3c
00000010: d846 983a 45a9 ad3d d7e1 7e3c d3b0 16bc
00000020: 1bba 77bc 38e8 203c 97e2 293d 4b41 193c
00000030: 850b e5bc e48e 683c d53d 88bc 9039 75bb
00000040: 3390 40bd fab2 12bc 0d3d 1bbd e550 9ebc
00000050: fed8 e4ba a546 acbb 0003 9d3b eac7 913c
00000060: b449 08bc a467 90bc d617 663c e847 8cbd
00000070: e686 183b 6918 353d 0867 f83b 672f 4f3b
00000080: 1007 743c b3de 26bc d21e 2cb5 5a8c 2f3d
00000090: c2ee c4bc 578f 9a3c 7808 823b e978 c23c
000000a0: 7bbd 21bd 238d f83b 314b 283d b5ca 5d3c
000000b0: 9c1b 973b d9ed 803b f180 903d 3a4c 06bd
000000c0: 1ac7 49bd 18a6 ea3b bb13 033b 3480 793c
000000d0: c632 743c d6c2 013c fbe5 aebc 6786 a83c
000000e0: d491 cd3c 1c8a 263b 81a6 14bd 0507 86bb
000000f0: dead b739 c062 7dbc 84c8 bfbc feb8 18bd
00000100: 0943 ddbc 168b 05bb 416a 343b bb0c 123c
00000110: d842 27bc 61c2 303d 4440 023d 12bf 373d
00000120: 58e2 053d fa1b 0a3d 4da8 4e3d b6f2 c83b
00000130: 3f36 203d 7053 1d3c 4a92 3b3c 6a1b 3d3c
00000140: a49c 9c3b 1f37 04bd 2895 2bba 2006 88ba
00000150: b160 9eba df02 0c3d a948 14bd 73cc 92bc
00000160: f781 c5bc 53a2 0539 1f03 1c3c d2b7 803c
00000170: ff73 4d3b c6df e83c 3b3f 52bd 1cd7 e1ba
00000180: 8750 843b 1d41 4a3d b3b9 abbb 7dd6 a53b
00000190: f830 203c 93ec b83c 40cc 4b3c 2d8e 033d
000001a0: ce8d f9bc c25b 3bbc b46f 95ba d45f 0cbd
000001b0: a98e da3b cc1b 583b d954 b9bb 415a 26bc
000001c0: c6d5 29bb b0d9 213c 7321 443d f6d0 e6bb
000001d0: 94eb 6d3c 3850 33b9 2843 593a ff87 44bd
000001e0: fc36 cdbc f627 103c 53f8 193d 997d 05bc
000001f0: 0eb8 2dbc 2db1 673d 1922 cdbb 2328 cabc
00000200: 3c8b 8b3c 27d7 f9bb e9e3 5bbc 775a 14b9
00000210: 032d 6abc 387d 1b3c 7a0a 00bd 20d2 353d
00000220: db37 14bc 8d84 403b 4865 fa3c 7be5 2cbb
00000230: 8fd2 acba 164e 433c be94 c93b d2a8 0f3d
00000240: c812 bdba 5351 1e3d bebd bebb 6f0c 813c
00000250: f577 4abd 84a9 223c ff04 09bc bbf0 1d3d
00000260: e68b 58bb d80a 7abc e3ed 793b 9b45 913a
00000270: c662 f13b f3a9 b1bc efe5 15bc aa76 6b3c
00000280: 5797 8cba 6be9 023d 2a5d 0c3d 4cec 223c
00000290: 2b6b c139 c02d fb3c f192 66bd 1e08 98bb
000002a0: 2a1f 0c3d 3651 a5bc a333 8fbb 957a 043d
000002b0: 7c5c 80bc 84fb d8ba 6ec0 d3bb 9924 453c
000002c0: a2c9 393c b77b 81bd 96bc 02bc 532c 593c
000002d0: 3b20 1fba aea5 393c d2f5 8d3c 51f1 b23c
000002e0: 8e11 12bc d52b dabb f511 143d 21dd 5e3b
000002f0: 713f e7bc abfc 883d 0391 81bc 381d 383a
00000300: 79a1 023c 875e d8bc 80d7 cfbb 0a50 043d
00000310: 0bed ae3c 97b0 29bb cdd2 013b fbeb 17ba
00000320: f11c 9f3b b1bb 6c3c 1a2c 45bd 1bc1 143c
00000330: 9418 b93c a4f3 7ebc 1c2d 333c 2785 09bd
00000340: 0279 1e3c d7b8 88bd e757 953c 73f8 8c3d
00000350: 6c13 a63c 551a ebbc 8889 b3bc 0716 8abc
00000360: 25d5 06bc 2be5 443c 2f11 243d d353 743c
00000370: 243d 1bbc 6756 00bc 9a53 c23c 1564 a0bb
00000380: 7951 a8bd beba 18bb 3693 153c 456c 69bc
00000390: adee b4bc 242c b83b f4e8 363c 42af 0c3d
000003a0: cf46 853d c9f6 493d fff8 d6bc d5e2 b63b
000003b0: 73ff c5bb 056d b33b 7a73 393d 470f 84bb
000003c0: 38af 4d3c 8571 3a3b d97e 3d3d f763 8cba
000003d0: 2621 2c3c eb28 d43c ee8b 243b 7298 173d
000003e0: 1eb9 4c3b 51ed 20bd 8123 473d 53fe 733b
000003f0: 8596 d63c cd98 5dbc a282 3b3d 7c21 86bc
0.051603183 0.037322335 -0.0025320512 0.012465697 0.0011617793 0.08479551 0.015556774 -0.009197432
-0.015120055 0.00982099 0.04147586 0.009353946 -0.027959595 0.014194224 -0.016631046 -0.0037418343
-0.04701252 -0.008953804 -0.03790002 -0.019325683 -0.0017459688 -0.005257445 0.0047916174 0.017795522
-0.008318353 -0.017627545 0.014043769 -0.068496525 0.0023273765 0.044212732 0.0075806417 0.0031613947
0.014894262 -0.010184932 -6.411984e-07 0.04285846 -0.02403963 0.018867178 0.0039682947 0.023739295
-0.039487343 0.007585184 0.041087333 0.013537099 0.0046114456 0.0039346037 0.070558436 -0.03278754
-0.049262144 0.007160913 0.0020000774 0.01522832 0.014904683 0.007919988 -0.021349898 0.0205719
0.02509395 0.002541191 -0.036291603 -0.0040901923 0.0003503402 -0.015465438 -0.023411043 -0.037285797
-0.027009504 -0.002037709 0.0027529153 0.008914168 -0.010208808 0.043154124 0.03179957 0.044859953
0.03268656 0.033718087 0.050453473 0.006132449 0.039114233 0.009602413 0.011448452 0.011542181
0.004779415 -0.03227913 -0.00065453583 -0.0010377802 -0.001208326 0.034182426 -0.036202107 -0.017919755
-0.024109824 0.00012744339 0.0095222285 0.015712652 0.0031349657 0.028427016 -0.051329833 -0.0017230245
0.00403792 0.049378503 -0.005240643 0.0050609694 0.0097773 0.022573745 0.012438834 0.03211801
-0.030463126 -0.011435451 -0.0011401088 -0.034271076 0.0066698384 0.0032975553 -0.0056558666 -0.010153354
-0.0025914772 0.009878561 0.047883462 -0.007043953 0.014521498 -0.00017100654 0.00082879 -0.04798126
-0.025050633 0.00879859 0.037590336 -0.008147621 -0.010602964 0.056565452 -0.0062601683 -0.024677342
0.017034166 -0.007624525 -0.013421037 -0.0001414808 -0.014292958 0.009490304 -0.03125999 0.044389844
-0.00904652 0.0029375881 0.030565873 -0.0026381898 -0.001318531 0.011920473 0.0061517647 0.03507311
-0.0014425153 0.038651776 -0.005820959 0.015753 -0.049430806 0.009928111 -0.008363008 0.038559657
-0.003304237 -0.015261374 0.0038136176 0.0011083366 0.007366511 -0.021687483 -0.009149059 0.014371553
-0.0010726255 0.031960886 0.034268536 0.009944033 0.00036891675 0.030661464 -0.056292478 -0.0046396395
0.034209408 -0.020180326 -0.0043701692 0.032343466 -0.0156691 -0.001655445 -0.0064621484 0.012032651
0.011339577 -0.06322425 -0.007979533 0.013255197 -0.00060701714 0.011331005 0.01732913 0.021843584
-0.008915318 -0.006658057 0.036149938 0.0034006315 -0.028228493 0.066888176 -0.015816217 0.0007023397
0.007973068 -0.026412262 -0.0063428283 0.032302894 0.021353265 -0.002589261 0.0019809485 -0.00057953567
0.004855745 0.014449046 -0.04813776 0.009079243 0.022594728 -0.015561018 0.010936048 -0.03357425
0.009672405 -0.066758804 0.018230392 0.068833254 0.020272933 -0.02869908 -0.021916166 -0.016856207
-0.008229529 0.0120175285 0.04005545 0.014912563 -0.009475026 -0.0078331 0.023721505 -0.004894743
-0.08218665 -0.0023304666 0.009129336 -0.014247005 -0.022086466 0.0056204963 0.011163939 0.034346826
0.06507646 0.04930762 -0.026241777 0.0055812397 -0.006042415 0.0054756426 0.045276143 -0.0040301415
0.012553982 0.002844901 0.04626355 -0.0010710944 0.01050595 0.025898417 0.0025107819 0.037010618
0.0031238268 -0.039288823 0.048617844 0.0037230446 0.02619482 -0.0135252 0.045778878 -0.016373388

net.4.bias f4 [256]
00000000: 448a e9bd 16dd 59bd 78dc 74bd 9e73 8fbd
00000010: 37fa 52bd c3bf 81bb bb35 b8bd d808 64bd
00000020: cb5f 9dbd cd6d 9dbd b873 99bd b5a7 aabd
00000030: 8fc9 80bd 9874 e5bc 86fc aabd c8fc 81bd
00000040: feff b1b7 4d13 59bd 9b3c d1bd 69aa d5bd
00000050: 5fc0 78bd 74bc ecbd 34d6 debd 47a6 acbd
00000060: 54ce 94bd 5a7e 20bd 4cdf 8ebd 3a87 7bbd
00000070: 99e6 45bd 10dc bdbd 0f2a b9bd af36 05be
00000080: 0e6a 2bbd 8ac1 53bd ed7d 0aba e9dc c4bd
00000090: b551 55aa 2db4 98bd 540b 26be fe2e b5bd
000000a0: 2c15 9ebd 2523 b0bd 8828 dcbd f854 f4bc
000000b0: 8950 6ebd 4d8a e4bd a28b ddbc 2f2c d1bd
000000c0: add0 6abd 9fa1 5ebd 5836 fbbd 2f29 03be
000000d0: 9da1 c7bd 5ad7 d2bd f918 5abd 55d0 cfbd
000000e0: f44b 65bd 7ea6 e53b 4420 a4bd 16fe e0bd
000000f0: b229 e9bd c5f9 37bd 1d43 ecbd dc65 12be
00000100: 93b0 72bd 9162 d6bd 7afc f1bd 7342 45bd
00000110: 2e80 73bd 4996 a8bd 9143 54bd 6eed ddbd
00000120: 16ea 0bbe b24c d3bd a70d e4bd ca6c c2bb
00000130: 1bba e6bd c537 8bbd aaa5 92bb 3243 85bd
00000140: af6a 3abe c038 7cbd 1c12 81bd 6dfd 56bc
00000150: cd74 a2bd f17a 71bd fd2e 94bd 085f 08be
00000160: c2f7 a7bd 1f03 e0bd 2dff 34bd b55a 1bbe
00000170: 9ac9 9a3b 8710 adbd efa7 09bd deb2 8ebd
00000180: 7bbf 3cbd b2c0 96bd 4c24 12bd a478 a7bd
00000190: 0b5e efbd 2fcb afbd 4bda cbbd bf67 bfbd
000001a0: 4b2a b6bd 58b8 36bc d9f0 a0bd 2b0c 81bd
000001b0: 30e8 c1bd 459b 96bd eb12 fabd ee31 09ad
000001c0: d415 32bd 8c9c efbd bba0 cebd 9aa9 a3bd
000001d0: 6782 00bd e3fc 82bd e2ad 3bbd 69b7 d3bd
000001e0: 3e1c b2bd a78e 27be e281 b5bd c31f 6bbd
000001f0: 69e5 f1bd cc5b bfbd d201 26be d9d5 1abd
00000200: 4152 03bd 7850 23bd faeb 2f98 2f6c f0bd
00000210: d321 e2bd 3a70 d9bd c242 73bd dc17 d1bd
00000220: b17f b5bd e52c 96bd 3aca 3fbd 6ded b6bd
00000230: 34f3 aebd 05b0 d6bd 4fdc f9bd e15d 09be
00000240: d1db 96bd a25d 93bd 4b92 9fbd 4be4 90bd
00000250: 25df 97bd 42e8 a6bd cf4a b7bd 7ba9 b6bd
00000260: 92ac adbd 4e87 d3bd 685e 89bd 921f 4abe
00000270: abfe a2bd a4e9 4abe 0b98 4fbc c3fe 1fbb
00000280: abb7 cabd 7c81 c7bd 6e95 76bd 96ae f9bd
00000290: b8c6 acbd f1bd f5bd b464 c5bd 9e8d 28be
000002a0: 00e3 c6bd 3ff8 c5bc a5b0 c2bd 6a5d 8abd
000002b0: b4be a2bd a468 fdbd 1a5b 4bbd 12bb a8bd
000002c0: c359 adbd 1c29 bcbd e033 b3bd 4f81 36be
000002d0: 4456 0e3c 648c 9bbd ee29 1cbe e234 9ebd
000002e0: adc0 98bd a132 9bbd 20d0 d2bd 7d5f 92bd
000002f0: ac8a 23be 83e2 9ebc 38c8 37bc 4647 88bc
00000300: 98d2 cbbd 223a ddbd ebb2 afbd f1a0 86bd
00000310: 5a42 99bd 3984 8bbd 0a23 9bbd 20b6 a5bd
00000320: 4720 dabd 09c6 dbbd 9836 fdbd 0858 dfbd
00000330: 0d7b 2abd 827f c2bd 0d7e 47bc 5c0c 1bbe
00000340: 584f c9bd 479b d2bd 153e 1bbd 5e53 d0bd
00000350: 525c 29be 7bd2 38bd 9208 51bd 4eb0 e5bc
00000360: a9a4 d7bd 2082 95bd 6db9 07be d635 e8bd
00000370: 8071 83bd 4594 4ebd d183 25be 9f17 a9bd
00000380: f5c2 d8bd 60ad 32be e938 533c d63f 11be
00000390: be8d c7bd c797 b8bc 7216 43bd 51ba 6bbb
000003a0: a9b2 1ebd 1389 f4bd 12e7 ddbd 403a 43be
000003b0: 9b69 f5bd cac4 74bd 2c86 c6bd 0b5d 2abd
000003c0: ddb5 0dbe 033e e4bd 9383 debd 55db 37bd
000003d0: 85af 2fbd cd78 64bd 1fb1 ccbd 4dce 6dbd
000003e0: 2556 82bd 6790 53bd ad6f efbd 6052 1abe
000003f0: 9568 27be 7ea2 90bd 589f 24bd 5cdd 44b8
-0.11403325 -0.05318936 -0.059780568 -0.07004474 -0.051508155 -0.0039596274 -0.08994623 -0.055672497
-0.07684287 -0.076869585 -0.07492775 -0.08332769 -0.06288444 -0.028009698 -0.08348946 -0.06347042
-2.121925e-05 -0.052996922 -0.10216638 -0.10432894 -0.060730334 -0.11559382 -0.108807 -0.084301524
-0.072659165 -0.039183 -0.06976184 -0.06140826 -0.04831562 -0.09270489 -0.09041225 -0.13009141
-0.04184919 -0.051698245 -0.00052830466 -0.09612448 -1.8946548e-13 -0.07456241 -0.16215259 -0.08846854
-0.07718882 -0.08600453 -0.10749918 -0.029825673 -0.058182273 -0.11159191 -0.027044121 -0.102135055
-0.057327915 -0.054353353 -0.122662246 -0.12808679 -0.09747622 -0.10294981 -0.053246472 -0.10147158
-0.055980638 0.007008373 -0.08013967 -0.10985963 -0.11384906 -0.044915933 -0.11536238 -0.14296669
-0.059250426 -0.10468019 -0.11815734 -0.048159074 -0.059448414 -0.082317896 -0.05182225 -0.10836302
-0.13663515 -0.10317363 -0.111354165 -0.005933379 -0.112659656 -0.067977466 -0.004475315 -0.06506957
-0.18204759 -0.06157756 -0.06302282 -0.013121945 -0.07932434 -0.058955137 -0.07235525 -0.13317502
-0.08201553 -0.10938095 -0.044188667 -0.1517132 0.00472374 -0.08450418 -0.03360742 -0.0696771
-0.046081048 -0.073609725 -0.035679147 -0.08177307 -0.11687859 -0.08583676 -0.099537455 -0.0934596
-0.088947855 -0.011152349 -0.07858438 -0.06301149 -0.094681144 -0.07353834 -0.122106396 -7.798635e-12
-0.04347785 -0.11699781 -0.10089251 -0.07991333 -0.03137436 -0.063958906 -0.045820124 -0.10337717
-0.08696793 -0.16363011 -0.08862664 -0.057403337 -0.11811335 -0.09343681 -0.16211632 -0.037801597
-0.032060865 -0.039871663 -2.2737358e-24 -0.117393844 -0.11041608 -0.10617109 -0.059389837 -0.10209629
-0.08862246 -0.07332782 -0.046823718 -0.08932004 -0.08542481 -0.10482792 -0.12200224 -0.13414718
-0.073661454 -0.071955934 -0.07791575 -0.070747934 -0.07415608 -0.081497684 -0.089498155 -0.089190446
-0.08480181 -0.10328542 -0.0670746 -0.19738606 -0.0795873 -0.1981569 -0.012670527 -0.0024413324
-0.09898313 -0.09741494 -0.0602011 -0.12191503 -0.0843634 -0.11999119 -0.09638348 -0.16460273
-0.097112656 -0.024166225 -0.095063485 -0.067560986 -0.0794653 -0.12373474 -0.049647428 -0.08238806
-0.08464386 -0.091875285 -0.08750129 -0.17822765 0.0086875595 -0.07595137 -0.1525037 -0.0772493
-0.07458625 -0.07578016 -0.10293603 -0.07147119 -0.15970868 -0.019395119 -0.011217169 -0.016635548
-0.09952277 -0.108021036 -0.08579048 -0.06573666 -0.07483359 -0.06812329 -0.075750425 -0.08091378
-0.10650688 -0.107311316 -0.123639286 -0.109054625 -0.041621257 -0.094969764 -0.012176049 -0.15141433
-0.09829587 -0.10283523 -0.037901003 -0.10172151 -0.16539124 -0.045122605 -0.051033564 -0.02803817
-0.10529453 -0.0730021 -0.13254328 -0.113383934 -0.06418133 -0.05043437 -0.16163565 -0.082564585
-0.1058406 -0.1744895 0.012891986 -0.14184508 -0.09743832 -0.02253331 -0.047628827 -0.0035969208
-0.038744602 -0.11940207 -0.10835089 -0.1906519 -0.11983033 -0.059757985 -0.0969356 -0.04159264
-0.13838907 -0.1114464 -0.108649395 -0.044886906 -0.042891998 -0.055779267 -0.09994721 -0.058058072
-0.06364087 -0.051651385 -0.11691222 -0.15070486 -0.16348489 -0.07062243 -0.040191025 -4.69362e-05

net.6.weight f4 [256]
00000000: f154 be3e 86c1 8b3e 4e4a 8c3e 513c 8c3e
00000010: e045 873e bd32 e13e 4bce 993e 1e54 7d3e
00000020: 1ec9 883e 7553 9b3e 978f 8c3e 4c75 323e
00000030: b9fe c93e a679 df3e a3a6 a73e f089 8d3e
00000040: e7d4 ed3e 2a02 a33e e27b c53e ad55 613e
00000050: 12ef ae3e 5b47 023f 963f b73e 405f a83e
00000060: e506 dd3e 86b7 ab3e d732 983e f554 483e
00000070: ddf1 993e 9ef0 a83e 7a5b ac3e 790a f03e
00000080: 3b53 a03e c6df 5d3e 8261 8e3e f3f0 e53e
00000090: d615 ce3e 6002 923e 9b14 ef3e b97d 873e
000000a0: 342f 5a3e 22df a23e d552 d33e 4958 ed3e
000000b0: 659f 983e 5241 9e3e 315c a63e 2b0a ea3e
000000c0: 847b aa3e 7743 533e c97f d33e 00e0 e53e
000000d0: 925a 953e 628f 6a3e 438a f03e c81d cc3e
000000e0: f3fa b13e f74e 383d 8145 a93e d88b cf3e
000000f0: 6b14 e83e 5878 dc3e f00c ad3e 6baa ee3e
00000100: fdef 933e 6b4e 8e3e 8aa2 b33e 7d5f 94be
00000110: 3aa1 803e f3ed 973e 5c45 cf3e c96f 083f
00000120: 2106 da3e 5755 bd3e 3aaa 993e 1b2a 923e
00000130: eaa8 af3e 32a0 423e 171b 933e 7349 a33e
00000140: 0f2d 0b3f 7f94 8d3e 835e 913e 6650 953e
00000150: 6073 9b3e a9b6 9f3e bf00 883e 475f ca3e
00000160: 2942 c03e d6a1 7c3e d9b0 753e 7b1a e53e
00000170: c1c4 8d3e a857 933e 551f 6d3e a89e 5c3e
00000180: 69fd 643e 7c26 6f3e ca2e df3e f687 893e
00000190: 77cd d53e 866b e53e b990 953e a65a 903e
000001a0: a42a cc3e 7a95 f83d 43e3 9e3e d948 a63e
000001b0: a333 cd3e 806b a73e 8b03 033f 732f f33e
000001c0: 885f bb3e f699 f83e 8ac3 cc3e 54b3 a03e
000001d0: 8367 9d3e 3bce 8b3e 8550 913e 6552 d73e
000001e0: ce7b 933e 9254 0b3f 53ae 703e 0e82 893e
000001f0: 8253 de3e 2dd4 9c3e b3c9 f23e b642 a33e
00000200: 1050 903e 97d8 a73e f0be f63e 1c1f d23e
00000210: 9148 af3e f7a8 eb3e 3ead 993e d5fd ec3e
00000220: 0609 853e 6e0c 873e 64fd b63e edd5 963e
00000230: 4297 c23e 13b0 d73e 0dd9 a03e 2c85 9f3e
00000240: 6f79 de3e 8f49 9a3e cffe f53e 8d42 8e3e
00000250: 33c0 8f3e 787e 833e c947 b63e 825e 8e3e
00000260: a86d c53e bb36 6f3e f992 a73e 551a cc3e
00000270: f1b3 7d3e 15b9 f23e 3cce 943e 543b f73d
00000280: 86f9 993e 6482 db3e cbde 863e 0398 be3e
00000290: dad1 a73e f5e9 d53e 8bc0 d53e f906 023f
000002a0: fb25 a53e 586c 913e 9820 c33e 1b75 7c3e
000002b0: 7fdb ab3e edad e33e eb34 943e 3e68 7f3e
000002c0: fc05 b43e cdc0 573e 433b e83e 94b6 eb3e
000002d0: 68b2 ba3d 46af 8c3e 2c5e 043f 2821 883e
000002e0: 31d8 b83e 867e d63e d4e0 e33e a852 ab3e
000002f0: 2b8b b53e 3d8a 853e 734f 8a3e 7a57 173e
00000300: f5f3 d23e 3183 f73e b479 a93e 6f36 993e
00000310: 6159 763e 662a a63e caee b23e f204 b93e
00000320: 6df8 dc3e 2bc5 d43e aa83 c23e fd93 df3e
00000330: 221f 4f3e 3105 953e 877f e43e d349 d03e
00000340: 0fdb 893e e9a9 9a3e d149 223e 8105 de3e
00000350: b803 873e f50b 8b3e 5967 873e 30eb 033f
00000360: 4d1a c43e c4e8 a43e 590a 5d3e 3e08 e93e
00000370: a4bc 863e 6d6e ea3e 7d22 ce3e 2367 ad3e
00000380: b87d cc3e 1b5d 083f 7e6a 953e 18b8 d43e
00000390: 2574 8c3e 5d09 ea3e 9d32 a13e 29ff 733e
000003a0: 56c5 9c3e 3151 ab3e 1a7c 813e 4427 da3e
000003b0: 4c4b e63e 6809 793e 7929 913e 5c01 633e
000003c0: 5359 0a3f 89e9 a23e 4348 a83e f7f7 af3e
000003d0: 1733 893e 5f20 643e e052 6e3e 379d 7e3e
000003e0: db2b a43e 27e9 ac3e 66c7 db3e f01c e33e
000003f0: f807 f63e c98f 943e 4fc0 933e 0380 023f
0.3717418 0.27296084 0.2740044 0.27389768 0.26420498 0.43984023 0.30040202 0.2473912
0.2671594 0.3033711 0.274533 0.17427558 0.3945215 0.43647498 0.3274432 0.276443
0.46451494 0.3183759 0.38571078 0.22005339 0.3416677 0.5089013 0.357907 0.3288517
0.43169323 0.33538455 0.29726288 0.19563659 0.3006734 0.32996076 0.3366354 0.4688299
0.313135 0.21667394 0.27808768 0.44910392 0.40251034 0.28517437 0.46695408 0.26463106
0.21307069 0.31810862 0.41274133 0.4635642 0.29809108 0.3090921 0.3249221 0.45710883
0.3329736 0.20631205 0.4130843 0.4489746 0.29170662 0.22906259 0.46980485 0.3986647
0.34761772 0.04499718 0.3306084 0.4053638 0.45328078 0.43060565 0.33798933 0.46614394
0.28894034 0.27794203 0.35084945 -0.28979102 0.25123006 0.29673728 0.40482605 0.5329557
0.425828 0.36979172 0.30012685 0.2854775 0.3430856 0.19006422 0.28731605 0.31891975
0.5436563 0.27652356 0.2839242 0.29162902 0.30361462 0.31194046 0.2656307 0.39525816
0.37550476 0.2467111 0.23993243 0.44746765 0.27689174 0.28777814 0.23156483 0.21544898
0.22362293 0.23354524 0.43590385 0.26861542 0.4175832 0.44808596 0.29211977 0.2819416
0.39876282 0.121378854 0.31032762 0.32477453 0.40078458 0.32699203 0.5117728 0.47497138
0.36596322 0.48554963 0.39992934 0.31386817 0.30743036 0.2730578 0.28381744 0.4205505
0.28805393 0.5442592 0.23504 0.26857036 0.43423086 0.30630627 0.4741951 0.31886834
0.28186083 0.32782432 0.4819255 0.4103936 0.3423505 0.46027347 0.30014986 0.46287408
0.25983447 0.2637667 0.35740197 0.29460087 0.38006026 0.4212652 0.31415597 0.3115629
0.4345202 0.30134246 0.48045966 0.2778515 0.28076324 0.25682425 0.35601643 0.2780648
0.38560224 0.23360722 0.3272932 0.3986384 0.24775673 0.4740683 0.29063594 0.12071863
0.30073184 0.42872918 0.26341853 0.3722535 0.32777292 0.41780058 0.4174846 0.5079189
0.3225554 0.28402972 0.38110805 0.24654047 0.335659 0.44468632 0.28946623 0.24942109
0.35160816 0.21069641 0.45357713 0.46037734 0.091160595 0.27477473 0.51706195 0.26587796
0.3610244 0.41893405 0.44507468 0.334615 0.3545774 0.2608203 0.2701374 0.14779463
0.4120175 0.4834228 0.33100665 0.29924342 0.24057533 0.32454222 0.34947807 0.36136585
0.43158284 0.41556677 0.37991077 0.43667594 0.2022672 0.29105523 0.44628546 0.40681323
0.2692494 0.30207756 0.15848471 0.43363574 0.26370025 0.2715756 0.26446036 0.5153074
0.38301316 0.32208836 0.21585979 0.455141 0.26315796 0.45787373 0.40260687 0.3386775
0.39939666 0.5326707 0.2918281 0.41546702 0.2743236 0.4571027 0.31483927 0.23827805
0.30619305 0.33460382 0.25289994 0.42608082 0.44979322 0.24319994 0.28351954 0.22168487
0.5404255 0.31818798 0.3286763 0.3436887 0.2679679 0.22277974 0.23273802 0.2486466
0.3206471 0.3377163 0.42925566 0.44358015 0.48052955 0.2901595 0.28857657 0.5097658

net.6.bias f4 [256]
00000000: 09a4 d53c 9a4a a53c c690 bb3c 4f6c 9f3c
00000010: 9a7f fc3b b256 033d 351c b93c 0cc8 623c
00000020: d614 ad3c 05a6 ce3c 000c 943c 9de5 1e3c
00000030: be63 f23c 859f 0e3d 4381 b23c e626 223c
00000040: 5c7f 193d af0f be3c 1e2a 143d c294 ca3b
00000050: d34a ba3c f4c2 163d b86b f33c 18ac 9e3c
00000060: a0bf 093d 34f6 cb3c 401e 993c c05c 5e3c
00000070: b901 9c3c 1767 923c f1bc e03c c940 113d
00000080: e20e 2d3c 7da7 4dbb 6fb5 ce3b 9b54 243d
00000090: 5fe7 063d 9d26 c83c 4608 173d f016 a03c
000000a0: 7eb7 93bb 5c2e 9d3c 3f45 053d a404 1d3d
000000b0: 14b2 c13c 70ff e43c 92bb 6a3c 3d44 133d
000000c0: eaf9 cb3c 45e7 2b3c 7d43 083d 6baa 233d
000000d0: c849 e43c 3c8e a73c c9d4 1d3d 3def 103d
000000e0: 27c5 bf3c 2d09 2dbf 9cce bc3c a9ae e43c
000000f0: 7577 273d 3b67 053d 1908 053d b0ac 0f3d
00000100: 2ccb a83c 9b83 af3c b82a ed3c 4888 bcbc
00000110: bbf0 523c 834c 933c 7a74 113d 74d4 403d
00000120: 635f 1c3d ba87 cf3c e498 be3c 7d1f 593c
00000130: 0fc9 9e3c 77d0 3f3c 049a 6e3c fb9a 903c
00000140: cd17 353d c5c3 8d3c b859 8f3c efdf 203c
00000150: 2789 c73c dc8f bc3c 787a bb3c 28c7 143d
00000160: f0e1 fc3c cfe0 493c 36c0 dfbb 3289 1d3d
00000170: c1dd 363c 3623 c43c 3e83 7d3c 0c0f 353c
00000180: fb43 593c 5635 673c f1f1 1a3d 2b1e a33c
00000190: 9fb0 f33c 3d29 073d 42b7 b83c f164 ae3c
000001a0: ace4 013d 21fd 0ebd cd29 993c 5e3b b43c
000001b0: 578d 083d ff74 a33c ede4 293d bf76 273d
000001c0: 6f0f be3c 0b24 183d f609 e63c e99e b13c
000001d0: e5b4 823c 0895 b13c 7476 3f3c e00a 093d
000001e0: 413b da3c 7b53 143d 7acb 613c 093c 923c
000001f0: 033f 093d 5217 ba3c cbf8 0c3d 75ff 943c
00000200: 21d9 ae3c 7daa 0c3d 7553 203d e5f1 f63c
00000210: fa8d c43c 5885 0c3d a30e 123c 071f 193d
00000220: c63a 963c 30c2 7b3c 0d0d fc3c 48d9 e93c
00000230: 921c d53c 29eb 163d 9b28 e53c cec2 003d
00000240: 1bbc d73c 3043 4d3c 37b9 2e3d bd9e 863c
00000250: f291 923c b52e e73b c86b d73c a20b c93c
00000260: 948d 003d f334 a03c 5cac 913c 2276 023d
00000270: 4e9d 1c3c 5737 0a3d 8b96 673b 53e7 f7bc
00000280: 3833 b33c 4ab7 143d df64 bc3c 71d7 bd3c
00000290: b2d9 e23c cf1c 0a3d 13d4 103d 1aa8 1e3d
000002a0: f0e0 f43c 2c1a 7b3c 948d f13c 02db ae3c
000002b0: 11b1 df3c ca2f 113d c3dc 8f3c 4e96 9a3c
000002c0: c3cd b73c 9faf 713c 03ec 0e3d 15b6 1c3d
000002d0: 3044 2ebd ce54 ad3c 30b0 223d 4cd9 5f3c
000002e0: 4681 cf3c eca5 123d 46f0 0f3d 469f ce3c
000002f0: dc4b 023d 0b33 9e3b 10d3 353c f572 43bc
00000300: 3a09 fd3c bd51 1a3d 7377 ef3c b493 ce3c
00000310: 018f 573c 8800 c43c 1b09 023d 4399 cf3c
00000320: 801b 0f3d b89c d93c b735 d13c 89fa 0f3d
00000330: 60a9 1d3c 9779 c23c b6e7 0c3d 6b73 fc3c
00000340: 9442 cc3c af17 993c 1bc1 6abc 5688 193d
00000350: f1d7 5a3c 1dae 9c3c d717 673c af31 1c3d
00000360: e357 ee3c 57a9 6b3c eea3 463c 1962 233d
00000370: c9e3 b53c 206e 1d3d 2493 eb3c 1362 f03c
00000380: d72b e73c cf15 403d 8157 943b 01b6 0f3d
00000390: a347 963c 3270 163d c6a2 823c 2039 deba
000003a0: 673c 4c3c aab2 bf3c 5e46 3a3c 503f 173d
000003b0: 4ac9 193d efad 2c3c 73cf 943c f3b2 083c
000003c0: a54b 233d 980e 9e3c dc6c f43c 274f 923c
000003d0: a9c8 753c 5ded 7a3c 068e b63c 6738 423c
000003e0: 5891 a53c e7c9 c73c b965 f03c cdc3 123d
000003f0: 13fb 253d 8049 893c ef15 323c f3b3 2b3d
0.026079195 0.020177174 0.022896182 0.019460825 0.007705641 0.0320651 0.022596458 0.01384164
0.0211281 0.025225649 0.018072128 0.009698299 0.029588576 0.0348201 0.021790152 0.009896969
0.037474975 0.023200838 0.03617298 0.006182284 0.022740757 0.036807016 0.02971445 0.01936917
0.033630013 0.024897672 0.018691182 0.013571918 0.01904379 0.017871423 0.027433844 0.035462175
0.01056263 -0.0031380348 0.0063082497 0.04011975 0.032935496 0.024432475 0.036873125 0.019542187
-0.004507958 0.019187145 0.03253674 0.038334504 0.023644485 0.027953833 0.014326947 0.03595375
0.024899442 0.010492151 0.033267487 0.039957445 0.027867213 0.020453565 0.038533006 0.035384405
0.02340944 -0.67592126 0.023047738 0.027915316 0.040885407 0.03256915 0.032478426 0.035076797
0.020604692 0.021425059 0.028951034 -0.023014203 0.012874777 0.01798082 0.03551147 0.04707761
0.038176905 0.025333274 0.023266263 0.013252136 0.019382982 0.011707417 0.014563087 0.017652025
0.04421215 0.017305264 0.017498836 0.009819015 0.024357392 0.023017816 0.022885546 0.036322743
0.030869454 0.012321665 -0.0068283333 0.038460918 0.011161269 0.023942571 0.015473185 0.011050951
0.013260837 0.014111837 0.03782839 0.019911846 0.029747305 0.032998312 0.022548322 0.021288367
0.03171222 -0.03490937 0.01869669 0.022000965 0.033337917 0.019953249 0.041478086 0.04088473
0.023200719 0.03714375 0.028080922 0.02168222 0.015955398 0.021677509 0.011685956 0.033457637
0.026639583 0.036212426 0.013781423 0.017850893 0.03350736 0.022716198 0.034416955 0.018188218
0.02134377 0.034342278 0.03914209 0.030144641 0.023993481 0.034306854 0.0089146225 0.037383106
0.018338572 0.015366122 0.030767942 0.02854599 0.0260146 0.03684536 0.027973464 0.03143578
0.026334813 0.012528226 0.042657103 0.016433114 0.017891858 0.0070551285 0.026296511 0.02454168
0.03138502 0.019556498 0.017782383 0.03185094 0.009558989 0.033744182 0.0035337533 -0.030261671
0.021875009 0.03630761 0.022997318 0.02317402 0.027691696 0.03371888 0.0353585 0.038734533
0.029892415 0.015326064 0.029486455 0.021344665 0.027306112 0.035445966 0.017561322 0.018870499
0.022436982 0.014751344 0.034893047 0.038259584 -0.042545497 0.021158602 0.039718807 0.013662647
0.025330197 0.035802767 0.035141252 0.025222432 0.031810626 0.004827862 0.0110976845 -0.011929263
0.030888189 0.037675608 0.029231763 0.025216915 0.013156653 0.023926035 0.031746965 0.025341636
0.034938335 0.026563987 0.025538309 0.03515104 0.009622902 0.02373962 0.034400664 0.030816754
0.02493409 0.018688051 -0.0143282665 0.037483536 0.0133571485 0.019125992 0.014104805 0.03813332
0.029094642 0.0143836355 0.012124045 0.039888475 0.022203343 0.0384351 0.028756686 0.02934364
0.028219147 0.0468958 0.004527033 0.03508568 0.018344706 0.03672809 0.015946757 -0.001695428
0.012465573 0.023400623 0.011369316 0.036925614 0.03754548 0.010539516 0.018165326 0.008343446
0.039867062 0.019294068 0.029837064 0.017860008 0.015001454 0.015315381 0.022284519 0.011854268
0.020210907 0.024388267 0.02934538 0.03583126 0.040522646 0.01675868 0.010869487 0.04191966
