RL code/models/checkpoint_episode_40000.pth (torch, 801209 bytes, 40 tensors)

net.0.weight f4 [256, 22]
00000000: a1e7 033d f79f c43c 35cc 323e 6e1a 4a3c
00000010: 1af8 3f3d 5142 2fbc e179 a13c c4f0 b2bc
00000020: 58bb 3d3d a604 3bbd 3a62 e9bd 92ad 41bd
00000030: d76b 603e 7661 953c 044d 4b3b 3d47 7a3b
00000040: 8c9d 623d 0da8 2c3d 22ce 2cbd 57c9 0c3d
00000050: ed10 1f3d fe75 063d f537 bc3b 6ef6 9fbc
00000060: 817f 273d 6cd0 08bc ab92 973d 8681 bf3d
00000070: d296 773d a5b4 923c b003 55bb c1ca 643d
00000080: c0f2 9938 ece2 283e 59aa b8bb 44ef a0bc
00000090: fa17 9f3d 7d96 913d 470c 713d 368e d9bb
000000a0: 20c6 863b 37be 6bbd f9b8 e33b 29e7 82bc
000000b0: c6d5 0a3c fe6c c93c 8720 b23d f7ba 2cbd
000000c0: a806 7a3d 2525 0a3d 5134 30bc 1c9a 68bd
000000d0: 2e96 98bc 6efb 22bd 02be 2dbc b259 cdbc
000000e0: b56f a8bd b601 363d ecfa 40bd 6ce5 a1bc
000000f0: 8987 e2bb 03e1 673d ef88 c9bc c7c2 f9bb
00000100: dd09 e8bb 50ec 9f3b fec9 10bd 7952 4e3d
00000110: 35c9 5fbd 87b5 c7bd 13a6 c53c 8a79 19bd
00000120: 0cf6 4b3c edae 52bd 8d54 58bc 8fd8 6b3b
00000130: b021 6b3e 49f4 12be 99ec 07be 50f9 18bd
00000140: 9250 82ba dee9 ddbc 6ded 18bd 0bc2 29bd
00000150: f62a e63c 644e 50ba 33d6 e5bc a072 633d
00000160: 2d52 9d3c 163c c2bd 9df2 dabc a446 56be
00000170: 65ea 13bc 7aef f13c ee76 2f3b 2a43 303d
00000180: df8e 88bc 55b4 993d 7543 a1bd f7d8 92bc
00000190: 8521 3ebb a03d 23be 11e1 10bd d8bb 52bd
000001a0: 2c1d e83c 4200 14bd 059e a93b 8cf2 9abc
000001b0: a6f0 5c3c 9bfa c0bd 8682 e2bc 81d8 1a3d
000001c0: 1538 e93d adcd 76bd cb9c 11bd 25ff c2bd
000001d0: 0b91 85bd 40ea d53c a1f8 92bd 6e5a 09bc
000001e0: 4e80 a83c 068f c03c 5a66 613d 7548 01bd
000001f0: 453d 1fbb e897 92bd d421 aebc c40c 18bb
00000200: 3a3d 873d acd2 083b 0189 e3bc 0a14 1e3d
00000210: a3dc 393c c9c6 f13c da3d 8ebd dd0f 1b3e
00000220: 4772 493b 7da2 2dbd f428 c43c 92f6 e93d
00000230: 2257 583d 220a 053d ed93 193e 4505 7f3d
00000240: 16fb 4ebd a3ce 2a3e a2ff a13c 8240 f53c
00000250: f479 4ebd 4128 af3d 13b2 5cbd 9917 23bd
00000260: 03f5 a73c b95c 853c 55f7 f33d fa7c 86bd
00000270: fa57 953d 7eed 28bd ebd2 993d 85b9 6b3c
00000280: 9855 653d 3e0d 28bd 7d6a 86bd 645e 923c
00000290: d21c a1bc a123 4d3d 1564 a23c 3048 c4bb
000002a0: fbca c33d dc21 6e3c 04a2 923c f8d3 1dbd
000002b0: e74c 873d 3414 8bbc e797 ff3d cc40 8abd
000002c0: 1003 ca3d 0173 f03c 9207 75bd d41a 77bc
000002d0: 36ff 21bc 05e9 093d d212 babc 6b0e 74bd
000002e0: 6e84 8b3d b3ab 41bc f1e9 e13b 81d4 813d
000002f0: ae4b 873c b86b 82bb a218 8dbd 6cd4 9b3d
00000300: cf82 91bd be9f aabd 7529 8cbd 71b1 213c
00000310: b9ec cc3d 9a28 eb3c c7a1 9b3c 522b 98bd
00000320: 866e 723c 31fe 5abe 2490 d8bc 0013 973d
00000330: db24 3d3b e58d 6d3d 67d6 07bb 6c03 683d
00000340: 572e 0bbc 8e6d ddba bcec 4f3d 851c d2bd
00000350: 70d8 2a3d 5aba 64bd f51f 2bbb 862b c9bc
00000360: 1eaf af3b 08f9 b2bd a21f d33c a803 85bd
00000370: 157c 76bc b7aa 81bc 5d0b 02be ec04 c23d
00000380: c773 4bbd e8b8 263d d434 df3c 86cd c6bc
00000390: d520 4e3d 5b4c 3ebd 4256 bfbd cb96 1dbc
000003a0: 5fb3 28be 733e 973d 3e56 81bd 2d23 7cbb
000003b0: d324 163d 048e 293d 5879 1dbd 525a 323d
000003c0: a79e 2bbc ebc0 fabb 8ed7 a53c 1b86 dc3d
000003d0: d59e 0d3d cf9e e33d 32b6 893d 6ba2 20bc
000003e0: 13af aebd b399 a4bd 1f7e 6fbd ee99 05bd
000003f0: b1e4 373c 5c83 d33c e55e da3c 0731 a13d
0.03220332 0.024002058 0.17460711 0.012335403 0.046867467 -0.010696963 0.019711437 -0.021843322
0.046321243 -0.04565873 -0.11395688 -0.04728467 0.21916138 0.01823495 0.0031021247 0.0038189434
0.05532603 0.042152453 -0.04218877 0.0343717 0.0388345 0.03282737 0.0057439753 -0.019526687
0.04089308 -0.008350473 0.074010216 0.093508765 0.060446568 0.017908404 -0.0032503419 0.055857424
7.340824e-05 0.16492814 -0.0056355414 -0.01964534 0.07768245 0.071087815 0.0588496 -0.0066392673
0.004112974 -0.05755445 0.0069495407 -0.015979366 0.008473819 0.024588104 0.0869761 -0.04217049
0.061041504 0.03372683 -0.010754661 -0.056787595 -0.018626299 -0.039790563 -0.010604383 -0.025067184
-0.082244314 0.044435225 -0.047114298 -0.019762717 -0.0069131297 0.056611072 -0.024601428 -0.007622096
-0.007081254 0.0048804656 -0.035348885 0.05037162 -0.054635245 -0.097514205 0.024127042 -0.037469424
0.012448799 -0.051436353 -0.013203752 0.0035987233 0.2296207 -0.14351 -0.13273849 -0.037347138
-0.0009942225 -0.027089056 -0.037335802 -0.04144482 0.028096657 -0.00079462514 -0.02805624 0.055529237
0.019204224 -0.09484117 -0.026727015 -0.20925385 -0.009028052 0.029533137 0.0026773768 0.043032803
-0.016669689 0.07505099 -0.078741945 -0.017925723 -0.0029011678 -0.15941477 -0.03537089 -0.051448673
0.028334223 -0.03613306 0.005176308 -0.018914483 0.013485109 -0.09422799 -0.027650129 0.03780413
0.1138765 -0.06025474 -0.03554992 -0.09521321 -0.065218054 0.026112676 -0.071763285 -0.0083833765
0.020568993 0.023505699 0.05502925 -0.03156324 -0.0024297994 -0.0715788 -0.021256365 -0.0023200968
0.06603475 0.0020877523 -0.02777529 0.03859333 0.011344108 0.029513733 -0.06945391 0.1514277
0.003073828 -0.04239129 0.02394531 0.11423983 0.05281747 0.032480367 0.14997835 0.062260885
-0.050532423 0.16680388 0.019775216 0.029937986 -0.050409272 0.085526 -0.053880762 -0.039817426
0.020502573 0.016279565 0.11912409 -0.06566806 0.07292171 -0.041242115 0.075109325 0.014387493
0.05598983 -0.041028254 -0.0656328 0.017867275 -0.019667063 0.050082806 0.019823113 -0.0059900507
0.095602 0.01453444 0.01789952 -0.038532227 0.06606465 -0.016977407 0.12480145 -0.0675064
0.098638654 0.029351713 -0.059821673 -0.01508208 -0.009887507 0.03366949 -0.022714052 -0.059584063
0.06812368 -0.011820721 0.006894343 0.0633936 0.01651558 -0.003980126 -0.06889464 0.07608876
-0.07105028 -0.0833125 -0.06843845 0.0098689655 0.10006089 0.028705884 0.01899804 -0.07430138
0.014796859 -0.21386029 -0.02643592 0.07376671 0.002886108 0.05799665 -0.002072716 0.05664389
-0.008494935 -0.0016893612 0.050762877 -0.10259346 0.041710317 -0.05584178 -0.0026111577 -0.024556886
0.005361452 -0.08738905 0.02577192 -0.06494838 -0.015044232 -0.015828473 -0.12699647 0.09473595
-0.04967096 0.040703684 0.02724687 -0.024267923 0.05032428 -0.046459537 -0.09342624 -0.009618471
-0.16474675 0.07384958 -0.063152775 -0.0038473115 0.036656212 0.041395202 -0.0384458 0.043543167
-0.010474837 -0.007652392 0.020244386 0.10767766 0.034575302 0.11114275 0.06724204 -0.009804348
-0.085294865 -0.08037128 -0.058469888 -0.032617502 0.011223958 0.025819473 0.026656577 0.07870679

net.0.bias f4 [256]
00000000: 941d 6ebe 67af 89be 14d2 7d3d 94c1 68be
00000010: 1d97 9ebe 0b04 99be 245c 68be dc9e 06be
00000020: 31ef 3ebe 5193 f7be 8316 67be 14e9 c5be
00000030: f4c6 a1be f598 c7be 0541 d0be 7ce5 fabe
00000040: 2388 49be 17b9 babe 713d 09bf 4df1 723d
00000050: 670a 00bf 4680 55be e51e 11be a095 48be
00000060: 5f43 07be 61df 09be 8a07 4abe b55b 6ebe
00000070: 1695 53be 1cfe 773d 18e0 5abe f86e d9bd
00000080: e3e9 3cbe b248 bebe 593a c7be 7880 2ebe
00000090: 7d61 57be ed9f 0a3d ce12 e8be 655a 07bf
000000a0: fe18 66be b369 2abd a783 a3be 6ed5 75be
000000b0: ea64 51be 2809 f3be 7a89 6fbe 6da8 6dbe
000000c0: adf2 e8bd 6dc2 7abd 7418 07be b907 a6be
000000d0: b212 a6be 40f1 0bbf 2e6b 04be 4e21 26be
000000e0: 9e3f 72be a90a 48be 2e6a 41be 6fb3 7bbe
000000f0: 5f70 7bbe 7948 ebbe 5ee4 0cbd ca4e 07be
00000100: 07e8 25be 8e13 86bd 5114 91be 9be9 2fbe
00000110: 60d8 2fbe 74e2 f5be 3c2e 01be f98e bdbe
00000120: fef7 72be 3975 5cbe 1d3c 84be a935 c4be
00000130: ed3f 32be 4810 58be 7c04 fbbd 5b5f 20be
00000140: 75b2 8bbe ebc0 02bf e81e 8cbe ff55 10be
00000150: a3df 4fbe f36a 3cbe a82b 7fbe 5d2f 0ebe
00000160: db28 dfbe b5cd 93be bde2 88be 1307 d6be
00000170: a172 79be 98a3 e3be 14f1 81be 3521 8fbe
00000180: ff35 c3be f6a4 573d 8ebc 77be f863 65be
00000190: 9010 3dbe d3a8 acbe 6e12 36be 0184 f5be
000001a0: ec21 d6be 2990 69be fb62 5dbe d9d4 60be
000001b0: 3aa3 70be c3ab 8abe d956 14be 2d40 01be
000001c0: 840f 3dbe 42e7 63be 05c1 21be f828 6d3d
000001d0: 6c1d e2be 8409 4abe d15a 3dbe 3479 86be
000001e0: 2573 babd 1b7a 91be 6095 a0be 7616 a5be
000001f0: 964b 94be 2a30 7b3d 8936 48be 2909 36be
00000200: 376a e4be 23f0 cbbe 3e97 8abe 6edc 0ebe
00000210: 2043 87be 6d50 6cbe 68d9 53be 3756 45be
00000220: 15ba 11be 9993 66be d47b 4dbe f99b 4dbe
00000230: 35dd d4bd 41f0 9da2 6fdb f4bd abbc 9cbd
00000240: 0648 663d afec 8cbe 9c60 6dbe 668a 5abe
00000250: e962 0ebe 2f5a 40be 106d 97be 4713 f7be
00000260: af65 30be 6cf3 a2be 89d7 9ebe 717d 16be
00000270: 30a4 32be 66ac 0ebe 981b 79bc 171a 9ebe
00000280: f39b 04be 7667 58be 6e03 e3be 5702 26be
00000290: f31e 6cbe 6e7f 72be 7222 debd c71a 30bd
000002a0: 3fb9 37be 2bfd d6be e94a c6be 3a70 1cbd
000002b0: 7ac3 8cbe 5f5e 70be c883 6cbe 8d86 ecbd
000002c0: 010a 0ebc db3a 6abe b068 0cbe 765f ebbe
000002d0: c1fc 123c 81c6 82bd 00d6 7abe bd84 f2be
000002e0: 4c7d 22be bced 56be 2b32 60be 38a0 26be
000002f0: 5273 53be 92a7 44be 09ee 8cbe 4190 02be
00000300: dd33 1abe d838 e5be 6fcd bebe b4af 823d
00000310: 9dfc 58be f12b 02be d7c8 8ebe 3a9a 04be
00000320: df47 a3be f3a5 c0be 453a 83be dff7 f0bd
00000330: 4dfe 23be ffed 82be 2058 69be 8dc1 46be
00000340: 8f56 58be 6c24 a7be 5448 833d 0c41 80be
00000350: 55f5 c7be 82cd a4be 289a 803d 950d cfbe
00000360: 55b5 c4be 63bc 57be 8eb2 dfbd f3b0 27be
00000370: e903 b0be 9927 b0be 7a56 f6be 3c7e 4dbe
00000380: 2654 acbe d854 46be 7ddc aabe f695 6abe
00000390: 1824 0cbe 6a25 05bf 0b34 37be a396 4ebe
000003a0: 3eb9 85be b7d8 88be 4863 6cbe 4857 7c3d
000003b0: ca76 5cbe 73ca 3ebe 8e44 9fbe 47fc 3ebe
000003c0: 7345 51be 07f0 60be f444 723d 6e00 66be
000003d0: a467 65be 50a2 49be 8d6a bfbe 9bca 62be
000003e0: 8ef9 10be a784 fabd 8abb d2be 4821 2dbe
000003f0: 0f93 45be 8a0a d0be d81d 5abe 1da5 28bd
-0.2325347 -0.26891634 0.061967924 -0.22730094 -0.30974665 -0.29885897 -0.22691399 -0.13146538
-0.18645932 -0.4835458 -0.22567181 -0.38654387 -0.31597102 -0.38983884 -0.40674606 -0.49003208
-0.19680838 -0.36469337 -0.5360938 0.059312154 -0.5001587 -0.20849714 -0.14171942 -0.19588327
-0.13209294 -0.13464119 -0.19729438 -0.23277171 -0.2066234 0.060545072 -0.21374547 -0.10616869
-0.18448596 -0.37164837 -0.38911703 -0.17041194 -0.21033283 0.033843923 -0.45326847 -0.52872306
-0.22470471 -0.04160471 -0.3193638 -0.24007198 -0.20448652 -0.47467923 -0.23392287 -0.2320878
-0.11374412 -0.061220575 -0.13192922 -0.32427767 -0.32436138 -0.54664993 -0.12931511 -0.16223642
-0.2365708 -0.19535317 -0.1888816 -0.24580167 -0.24554585 -0.4595373 -0.034397475 -0.1321365
-0.16201793 -0.065466985 -0.28335813 -0.17178957 -0.17172384 -0.48024333 -0.12615293 -0.37023142
-0.23727414 -0.21529092 -0.25827113 -0.3832219 -0.17407198 -0.21099961 -0.12256715 -0.15661375
-0.2728459 -0.5107562 -0.2736733 -0.14095305 -0.20300154 -0.18400173 -0.24918997 -0.13885255
-0.43585858 -0.2886788 -0.26735488 -0.41802272 -0.24360134 -0.4446075 -0.2537924 -0.27955022
-0.38127133 0.052647553 -0.24193022 -0.22401416 -0.1846335 -0.33722553 -0.17780468 -0.47952273
-0.41822755 -0.22808899 -0.2161979 -0.21956195 -0.23499766 -0.2708417 -0.14486255 -0.12622137
-0.1846295 -0.22256187 -0.15796287 0.0579004 -0.44163072 -0.19730192 -0.18491675 -0.26264346
-0.09103993 -0.28413472 -0.31363964 -0.322437 -0.28963917 0.06132523 -0.19552054 -0.17776932
-0.44612285 -0.39831647 -0.27068514 -0.13951275 -0.264184 -0.23077555 -0.20688403 -0.1927117
-0.14231141 -0.22517242 -0.20066768 -0.2007903 -0.103937544 -4.2809314e-18 -0.11955916 -0.07653173
0.05622103 -0.27524325 -0.23181385 -0.21341857 -0.13904919 -0.18784402 -0.29575396 -0.48256895
-0.17226289 -0.3182634 -0.31023815 -0.1469629 -0.17445445 -0.13932952 -0.015204333 -0.3087928
-0.12950115 -0.21133217 -0.44338554 -0.1621183 -0.23058681 -0.23681423 -0.10846414 -0.042994287
-0.1794176 -0.41990027 -0.38729027 -0.038192965 -0.27492887 -0.234735 -0.23097146 -0.11549101
-0.008669377 -0.22874014 -0.1371181 -0.45971268 0.008971394 -0.06385518 -0.24495697 -0.47366896
-0.1586811 -0.20989126 -0.21894138 -0.16272056 -0.2064946 -0.19204548 -0.27525356 -0.12750341
-0.15058847 -0.4476993 -0.37266108 0.06381169 -0.21190114 -0.12712075 -0.27887604 -0.12949458
-0.3189077 -0.3762661 -0.25630394 -0.11766028 -0.16014977 -0.25572202 -0.22787523 -0.19409771
-0.2112677 -0.32644975 0.0641028 -0.25049627 -0.3905436 -0.3218804 0.06279403 -0.4044005
-0.38419595 -0.21067958 -0.109227285 -0.16376095 -0.34377983 -0.3440521 -0.4811285 -0.20067686
-0.3365795 -0.19368303 -0.33371344 -0.22908768 -0.13685644 -0.52010214 -0.17890947 -0.20174651
-0.2611789 -0.2672784 -0.23084748 0.061606675 -0.2152969 -0.18631916 -0.3110699 -0.18650924
-0.20436649 -0.21966563 0.05914779 -0.22461101 -0.22402817 -0.19690824 -0.3738598 -0.221476
-0.14157698 -0.12232333 -0.41158706 -0.16907227 -0.1929438 -0.4063304 -0.21300447 -0.04117309

net.2.weight f4 [256]
00000000: 8efe 383e 6a43 263e c08f 9b3d b850 283e
00000010: e4b9 0a3e bf1c 293e c793 373e faf7 4d3d
00000020: 9f1b d93d 0882 a03e 4bfa f93d 0cc5 403e
00000030: cc39 6d3e 96ff 453e 1c3b 623e fe54 a93e
00000040: 4ed0 393e b2a2 263e 0396 d83e 51cf 943d
00000050: 53d6 ac3e 4e6f ff3d fbc6 223e a628 033e
00000060: 8d1a 8c3e 0eeb 643e a5df 7c3d 3fd8 7f3e
00000070: 40e0 133e 77e4 9e3d d74d f63d 3553 c13d
00000080: a927 d43d c87f 813e c521 4c3e c984 d93d
00000090: a462 3c3e 8d77 7e3d 82db 8d3e 47f7 c83e
000000a0: 825e 4a3e ca18 8b3d b035 003e a9af 233e
000000b0: 8ce4 0b3e 20b5 a13e 6dcc 143e b36a 413e
000000c0: af50 683e 0dc6 d23d 13d1 403d bc97 fa3d
000000d0: 36f1 373e 5969 e93e bdef 5e3e b379 c53d
000000e0: 1c81 fb3d 7598 a33d a90e b03d f160 123e
000000f0: 3ede 333e 37b4 8a3e 7b9d af3d 713f 853e
00000100: e2ab f73d db6f 1e3e e910 453e 6c1f 0a3e
00000110: 9f04 f43d ad6c 923e f79c 583e 7867 393e
00000120: 9334 2e3e 737f 4b3e 3888 023e 9f94 313e
00000130: f339 f93d 5e21 f13d c32d 983d 9f2e a13d
00000140: 160b 1c3e 8d4b fa3e d1c9 2c3e a74d 963e
00000150: 4e20 c93d f190 b33e ae59 0f3e 2354 bf3d
00000160: 2091 8e3e 13a0 383e 9a42 383e 6c61 6f3e
00000170: 7af1 ff3d bd7e 8d3e 3644 253e a73f 1b3e
00000180: cf26 4d3e 5911 743d 4d27 263e 234e bb3d
00000190: 8378 1e3e ec48 2c3e 2d48 c03d 7377 983e
000001a0: c635 6c3e 6daa ed3d 496c 1e3e 68d7 e53d
000001b0: 1cfd 0c3e 195a 5e3e 36ef fb3d 9896 e93d
000001c0: 12fb d13d c52b 3e3e 70ce e13d 50a4 9b3d
000001d0: 9c49 923e 4c98 e73d 89df e63d e5e5 fd3d
000001e0: 7513 9d3d 57ea 123e 7a77 223e 1262 733e
000001f0: 4e68 423e 5e0f 8b3d 004b 083e 441b 053e
00000200: 2411 6d3e 4195 443e 2e04 323e b485 a63d
00000210: c1a1 303e c511 2a3e b135 103e 5c5c a33d
00000220: b83a 6b3e cddd 3c3e 9851 df3d 608c e13d
00000230: 1ae6 593e febd af3e fdf0 6c3e 9b71 aa3d
00000240: c7d5 843d 84f7 483e f385 c83d ba88 043e
00000250: 820b 833e 9e49 f03d 185a 453e 0a35 ad3e
00000260: d0e2 233e 9573 263e 5c73 673e cd20 823e
00000270: 46c4 c53d 0f66 a73d e832 883d 1a37 f43d
00000280: 001a d93d a3bc 263e dff2 b53e ea5f c63d
00000290: 1eca 0a3e 147c f43d cc7e 543e f507 923d
000002a0: 3297 193e 3f4f 533e 18c7 823e 9b62 6b3d
000002b0: 91bb 803e 6555 2f3e e7d6 3a3e d9c2 4c3e
000002c0: 30c8 823d 26fd 383e 9221 c13d 90e8 943e
000002d0: 0b26 9b3d 4299 013e 7269 2e3e b133 903e
000002e0: d58a 163e 4a90 db3d b20a ef3d 916f e13d
000002f0: 8ac3 a83d 4bfe 153e 5c68 6d3e 19af 9c3d
00000300: 5f12 d63d 556e 923e fdb5 743e 3bbb 903d
00000310: 00ea 163e 9419 5cbd 75a5 443e 48de 813e
00000320: 17a4 4d3e 071b 743e bace 343e abdd e63d
00000330: 1023 d23d e99f 2c3e 0d15 893d 93ef 003e
00000340: ec26 273e 235c 1a3e 312a 903d 80f6 383e
00000350: 0757 4a3e c0a7 cb3d 5ea8 983d d98d 833e
00000360: 6ad3 a83e 8ce3 363e 8384 013e cb29 d43d
00000370: 5691 293e 509e 3f3e d10d 913e ce9e 173e
00000380: f4ac 903e cee4 ee3d 87e2 813e b2bb 2c3e
00000390: 2291 a63d 7d04 ee3e be9e a13d 5ee8 ef3d
000003a0: d3de 343e 0430 013e bd7a 0f3e 8acd 9f3d
000003b0: 7713 bd3d 3273 fa3d 710f 763e ff21 f73d
000003c0: 9c23 023e 4fd8 213e 7617 8c3d 6766 2d3e
000003d0: a1e5 d03d ec1f 133e 5092 893e 951f 313e
000003e0: ccae cc3d 959a f03d 907d 5f3e 41d4 cf3d
000003f0: 21f4 c73d c103 833e edd6 f33d fa01 883d
0.18065855 0.16236654 0.075957775 0.16437042 0.13547474 0.16514872 0.17927466 0.050285317
0.106009714 0.31349206 0.12205943 0.18825167 0.23166579 0.1933578 0.22092861 0.33072656
0.18145868 0.16273001 0.4230195 0.07266105 0.33757266 0.124724016 0.15896218 0.12808475
0.27364007 0.22355291 0.06173672 0.24984835 0.14441013 0.0775842 0.120265655 0.094396986
0.10359127 0.25292802 0.19934757 0.1062103 0.18397003 0.06212573 0.27706534 0.39251158
0.19762614 0.067918375 0.1252048 0.15984978 0.13661402 0.315835 0.14531107 0.18888359
0.22687028 0.102916814 0.04707439 0.12235972 0.17963108 0.45588186 0.2177114 0.09642353
0.12280485 0.07988063 0.08596546 0.14294793 0.17565247 0.27090618 0.08574959 0.26024964
0.12093331 0.15472357 0.19244732 0.13488549 0.11914944 0.28598538 0.21153627 0.18105876
0.17012243 0.19872837 0.12747276 0.1734185 0.12169256 0.117739424 0.07430603 0.078702204
0.15238604 0.48885766 0.16873862 0.2935612 0.09820615 0.3507152 0.13999054 0.0934222
0.27845097 0.18029813 0.17994156 0.23377007 0.1249723 0.27635756 0.16139302 0.15161
0.20034336 0.059586857 0.1622593 0.09145763 0.15475659 0.16824692 0.093887664 0.29778633
0.23067388 0.11604772 0.15470995 0.11222726 0.13768429 0.21714057 0.12301485 0.114056766
0.10252966 0.18571384 0.11025703 0.075996995 0.28571784 0.11308345 0.11273105 0.123973645
0.07669727 0.14347206 0.15865889 0.2376788 0.18985102 0.067900404 0.1330986 0.12998682
0.2315107 0.19197561 0.17384407 0.081309706 0.17249204 0.16608341 0.14082982 0.079766005
0.22971618 0.18443985 0.10904235 0.110131025 0.21279183 0.3432464 0.23138805 0.0832245
0.06486087 0.1962567 0.09791174 0.12942782 0.25594717 0.11732791 0.1927265 0.33829528
0.16004491 0.16255029 0.226026 0.2541565 0.09656577 0.08173763 0.066503346 0.11924572
0.10600662 0.16282897 0.35536858 0.09686263 0.13553664 0.119377285 0.20751494 0.07130424
0.14999083 0.20635699 0.2554252 0.057467084 0.25143102 0.17122419 0.18246041 0.19996203
0.06385839 0.18065318 0.09430231 0.2908368 0.075756155 0.1265612 0.17032412 0.28164437
0.14701398 0.1072088 0.11671962 0.11007608 0.08240421 0.14647786 0.23184341 0.07650585
0.10452723 0.28599802 0.23897548 0.070669614 0.14737701 -0.05373533 0.19203742 0.253649
0.20082127 0.23838435 0.17656985 0.112727486 0.10260594 0.16857876 0.06693468 0.1259139
0.16323441 0.1507421 0.07039297 0.18062782 0.19759761 0.09944105 0.074539885 0.2569416
0.32973796 0.1786024 0.12648205 0.10359534 0.16559348 0.18712735 0.28330854 0.14806673
0.28256953 0.11664735 0.2536814 0.16868475 0.08133151 0.464878 0.07891606 0.117142424
0.17663126 0.12615973 0.14011665 0.07802875 0.09232228 0.12229003 0.24029328 0.12067031
0.12708896 0.15805171 0.06840412 0.16933595 0.10200048 0.14367646 0.2686944 0.17297204
0.09994277 0.11748234 0.21825242 0.10147906 0.09763361 0.25588802 0.11906228 0.06641002

net.2.bias f4 [256]
00000000: c7be 563d 0de6 4d3d 2755 b1bc 02ec 203d
00000010: 23bf 833c 41cf c73c 215c 4b3d 3453 97bb
00000020: 8f9e 1a3c 26a2 b43d 940c bf3c 1303 5f3d
00000030: d029 8c3d dc91 053d d785 ed3c 7258 c63d
00000040: 465c 2b3d 1ee5 5b3c 457e eb3d 2d11 95bc
00000050: c005 973d 5525 4e3c 43c9 b33c 3734 e53c
00000060: 79b9 0e3d bc47 ce3c 8144 6f3b 55d8 8e3d
00000070: 8100 e53c 5ebb 52bc e77a 9d3c 62c1 823c
00000080: 5275 fe3c 4d3f 993d 86f8 fa3c 04c4 d23c
00000090: 4add 333d 249f 81bd a787 5e3d a7f7 f03d
000000a0: d18e 7c3d 8e3d 1fbc d1bd 053c 08bc 343d
000000b0: f6f9 043d 40da c43d 49d3 183d fa2b 1c3d
000000c0: 573a d43c f6c0 c83a df50 62ba 8c35 9a3c
000000d0: 1e10 513d b5f0 f53d 3f75 d03c f474 323c
000000e0: 1ab7 f93c 661f 983c 8c5a 6e3c d6dd 4d3d
000000f0: 40ff f63c 26b1 393d 7573 f2bc ea07 163d
00000100: 7732 923c 05d2 8fbc cf66 583d 952f ad3c
00000110: 13ef 243c 47a1 723d 1e50 bb3c 2c4f bf3c
00000120: a177 233d 5cfa 8a3d ecb7 183d db8b 5d3c
00000130: 3ee5 363c 4ed6 4c3c 4a8e 1fbb 1456 233c
00000140: 1cd6 433d d9af 073e 9177 463d 1f50 3c3d
00000150: 21fc 913b 3f32 d83d 477b 263d 42c4 913c
00000160: 43fd a23d 77f1 343d 0a26 323d 328f 1d3d
00000170: 1ce3 b33c 8cce 523d fc95 303d 099d f23c
00000180: 7b9e 853d 722e 0abd 7a55 143d 0dff ff3b
00000190: d290 363d 6947 7a3c f49c d13b c38b 5d3d
000001a0: 75de 233d 6e87 b93c 6e51 453d 4a8d e73c
000001b0: d895 193d 903a 943d a5ae e93c 21ba 44bb
000001c0: 52a1 623c 6b25 133d 19c8 033c a534 84bc
000001d0: 476b 403d 68f5 d93c d467 183d 7f9e e03c
000001e0: 0950 2b3a e2aa 213d a6d1 633c 15da 9d3d
000001f0: 4a4f 773d 076f 74bd 249e f13c 9d09 ec3c
00000200: 7734 4f3d fe3b dc3c a4bd 543d b28b 29bc
00000210: 7f2d 423d 0797 363d e31c ba3c 8595 533c
00000220: 0454 213d 2304 263d 67a2 103d b589 ce3c
00000230: 50a0 1b3d 6d00 e03d 146a 373d 705a 8ebc
00000240: 9563 fcbc 70c3 613d 1025 0b3d 4559 773c
00000250: 10e5 573d a59f ce3c 4985 863d 1f70 c73d
00000260: 917d 9f3c c94a 583d 4611 883d f2a4 573d
00000270: 1b78 983c 2fa6 4bbc eee2 1fbd 15de 143d
00000280: 9f9d 8d3b 9d0e 0e3d bb0a d53d 1c86 c43c
00000290: 0e98 0c3d 69e0 e93c f050 0f3c 21da 0bbd
000002a0: 30dd f43c dcc8 e63c d6f0 8e3d 3c1b 1cbc
000002b0: ea7a 8b3d 5d13 523d cf4f 633d efb5 b93c
000002c0: 39f9 37bd 32c9 4f3d d5ba 69ba 44e4 623d
000002d0: 172f 6cbd 4133 1cbc e638 5a3d 843b 7a3d
000002e0: 81e2 0c3d 84d4 ba3c f7f8 103d 245b b33c
000002f0: 8be4 6a3c 863a 383d a9a2 923d f3b1 9dbb
00000300: a278 be3c 458e 393d 677f 993d 63de 5bbd
00000310: d6ad 413d 5cc1 0f3c ca43 563d e752 173d
00000320: 63b0 5f3d b324 843d 59c4 573d 773a 4d3c
00000330: a3c9 e63c 5491 403d 0013 413c 10f3 713c
00000340: d9aa 133d 80b3 523c bdf1 39bd 9d86 503d
00000350: 399a 153d 797e a43b 8bd5 8ebc 47f2 513d
00000360: dd82 ae3d c381 0a3d 74ba 4a3c 5de8 843b
00000370: 06c6 203d ec2e 643d bd5b 783d 4e8a 223d
00000380: 8d43 9e3d 0e2f 693c eccc 923d 5a96 173d
00000390: 898a 143c c001 023e c6a9 c0bb 84f3 a33c
000003a0: 5fc5 4e3d d309 133d ab8a 0b3d e4d2 84bc
000003b0: 0a54 9e3b b170 a13c c15b 953d e2a4 b33c
000003c0: 8cbf c33c e382 0e3d 2b43 83bc db6f 113d
000003d0: a41c 8e3c 38db f03c 7fdd 973d a151 383d
000003e0: fa9a b23b dd0b a03b baa7 063d 8ddf a33c
000003f0: 94f5 b13c 02d0 8e3d 3a7a 193d 8171 6dbb
0.052428033 0.05026822 -0.02164705 0.039287575 0.016082352 0.024390819 0.049648408 -0.004618073
0.009437217 0.0881999 0.023321427 0.05444629 0.068439126 0.032609805 0.028994484 0.09684838
0.041836046 0.013421325 0.114986934 -0.018196667 0.073741436 0.012582143 0.021946555 0.027979
0.03484485 0.02518069 0.0036509337 0.06974856 0.027954342 -0.012862055 0.019223643 0.015961353
0.031061802 0.07482777 0.030636083 0.025728233 0.04391221 -0.06329182 0.054328587 0.11765986
0.061659638 -0.009719266 0.008162932 0.044124633 0.032464944 0.096119404 0.037310872 0.038127877
0.025906725 0.0015316296 -0.00086332666 0.018824361 0.05104076 0.12008802 0.025446532 0.010892142
0.030482817 0.01856966 0.014547955 0.050260387 0.03015101 0.045334958 -0.02959607 0.03662864
0.01784633 -0.0175562 0.05283242 0.021140853 0.010066765 0.059235837 0.022865351 0.023353182
0.03990901 0.067860335 0.037284777 0.013522114 0.011163054 0.012502266 -0.0024346285 0.009969253
0.047811612 0.13250674 0.04845387 0.045974847 0.004455105 0.10556459 0.04064491 0.017793778
0.07958462 0.04417559 0.043493308 0.03846664 0.02195888 0.05146651 0.043111786 0.029615896
0.065243684 -0.0337357 0.03621433 0.007812387 0.044571705 0.015275815 0.006396884 0.054088365
0.040007073 0.022647586 0.04817336 0.028265614 0.037496418 0.072377324 0.02852566 -0.0030018168
0.013832407 0.035924356 0.0080433125 -0.016138384 0.046977308 0.026606277 0.037208393 0.027419327
0.00065350585 0.039469607 0.013904965 0.077076115 0.06037835 -0.059676196 0.029494353 0.028813178
0.050587144 0.026884075 0.051938668 -0.010348247 0.04740667 0.044577625 0.022718852 0.012914066
0.039386764 0.04053129 0.03531113 0.025212148 0.037994683 0.10937581 0.0447789 -0.017377108
-0.030809203 0.055118024 0.033970892 0.015096967 0.052708685 0.025222609 0.06568391 0.09738182
0.019469054 0.052805696 0.0664392 0.05264754 0.018611958 -0.012429758 -0.039034776 0.036344606
0.0043217684 0.034681905 0.10402437 0.02398973 0.0343247 0.02854939 0.008747324 -0.03414357
0.029890627 0.02817195 0.069795296 -0.009527978 0.06810553 0.051287998 0.055496033 0.02266976
-0.04491541 0.050728984 -0.0008916085 0.055393472 -0.057662096 -0.009533704 0.05327692 0.061091915
0.0343957 0.022806413 0.03539368 0.021894045 0.014336715 0.044977687 0.07159931 -0.004812473
0.023250882 0.045301694 0.07495003 -0.05367888 0.047284923 0.008774128 0.052310742 0.036944296
0.054611575 0.06452312 0.052677486 0.012526146 0.02817232 0.047013596 0.011784315 0.014767423
0.036051605 0.012860179 -0.045396555 0.050909627 0.03652403 0.0050199595 -0.01743581 0.051256444
0.08521054 0.033815157 0.012373555 0.00405602 0.03925135 0.05570881 0.060634363 0.03968268
0.07727728 0.01423241 0.07167992 0.03700862 0.0090662325 0.1269598 -0.0058796136 0.020013578
0.050481196 0.03589804 0.03406779 -0.016213842 0.0048317956 0.019707056 0.07292891 0.021929208
0.023895048 0.034792792 -0.01602324 0.035507064 0.017347641 0.029401407 0.07415294 0.044999722
0.0054506036 0.0048842267 0.0328748 0.020004058 0.021723546 0.06973268 0.03747008 -0.0036230984

net.4.weight f4 [256, 256]
00000000: 381d e5bc b519 a0ba 3287 d3bc 34a4 e9bc
00000010: c755 23bd c15c 93bc 9bc8 a5bd 6355 33bc
00000020: f584 7e3d 55dd 77bb 098e 46bd 1e3c 3d3c
00000030: fec5 0dbc b1e1 5f3b f587 5fbb 2db9 90bc
00000040: aabe 4dbd ad51 083d 619e 5cb9 4bbe da3c
00000050: d48e 093d 3941 163c dc9a 40bd f38b 003d
00000060: b57c a5bd a0bf 97bd ba89 3bbc 5036 e43c
00000070: f69b 263d e762 6d3c 5c44 2d3d 021a 1cbd
00000080: 3040 7cbc a012 53bc def6 493c 6d03 443c
00000090: 2bc0 c4bd 49b1 9f3c 6911 1dbc 25f4 37bb
000000a0: bf4f 9dbd 8a88 9f3c bee5 5fbd f09f a4bc
000000b0: f5e6 80bd 8a90 4ebc 3f59 813b 8583 33bd
000000c0: 94c3 0abd 641e b23d 1777 cc3c 9437 3bbc
000000d0: 3c33 a8bc ad3a f5ba 9d88 84bd 27a7 d63c
000000e0: 2009 b73c 2ee0 5ebd 1f89 853c 66e2 bdbb
000000f0: 129f 993a 53ec 65bc 70bf 523d 65d1 b4bd
00000100: 49b5 2d3d ac10 14be 690c 483c 77e9 84bc
00000110: 7561 4c3d bdb7 d1bc 50fa 20bd 84cb a43b
00000120: 3415 c23d b890 1c3c b757 e33c 3d67 a8bb
00000130: 402d 4f3c a193 28bc 635b 63bd d37c c1bc
00000140: 558c d2bc 6aa8 393c 79a8 48bd 1c52 5cbc
00000150: 408a c53c 710b 36bc 90e8 933c f825 1bba
00000160: 83fb 11bc 298d 31bd 9dca 1738 783b a23b
00000170: 2c92 3fbd f801 103d 609d a63c 590d 37bd
00000180: 965a 1cbb 762d 093c 5bee 213d d327 c63c
00000190: 284b 353c 43a8 babc a065 063b c547 d7bc
000001a0: f349 03bc fd14 3a3c ac80 a23c 108f b3bc
000001b0: 27b3 9b3d 2772 4dba 9fd4 89bb 0c88 d13c
000001c0: 5f16 5c3d d71f eb3c a8ac 22bc 4c75 343b
000001d0: 5bec 1dbb 32a6 863c edbb 033d 7507 8b3b
000001e0: 8d84 5b3c 7237 16bd b79f 013c 908c 60bc
000001f0: ba2d 8d3d 2070 633b e5f4 863c 431f b2bd
00000200: 63e9 aebb 1c02 4439 abcc ce3b 91bd 34bd
00000210: 8771 22bc 9bf6 383c db1a 2ebb b7c0 aabb
00000220: 007e c2bd 7af5 a9bb 4d28 b73c f3c1 0abd
00000230: 5e10 9dbc b30d 2bbc 19bf 18bd 314c 0a3c
00000240: b74a 78bb 257b 893c 6d3f 323c a012 c8bd
00000250: 7bcc 23be 36d7 483c fe95 023d 3855 90bb
00000260: 33f8 fe3c f438 373d ef82 b5bc 5fe2 1bbe
00000270: 85eb 8dbc b33c 11bd 6492 323d d54e 9c3d
00000280: 85a9 d8bc 6918 dc3b 7f66 35bc f584 1fbd
00000290: 6544 993c c618 5a3d f1ad 0dbe b1ef c5bc
000002a0: 56cb 7e3d ab09 61bd 8bc2 613b d1d2 9c3c
000002b0: 7d7d 88ba adf6 efbc 8b5c 20bd 1235 ebbd
000002c0: 69f9 cabb a2f1 163d ad4f 563c 42fb 8a3b
000002d0: 5fb2 a23d 9847 c5bd 493c 4dbd d3c4 9f3b
000002e0: 5aef 1fba 7105 263b b7c8 0b3d ffb0 123d
000002f0: 7ccd 343b bb4c a4bb e467 413b c4cf 7a3c
00000300: 7c7a dbbb 3813 2f3c b46a 02bc d5f8 2f3d
00000310: 6d69 45bd 0937 ad3c 2a45 453d 35a9 dabc
00000320: 9e53 c53b 9b02 a33c 93f5 443d 68b7 4d3c
00000330: 87ca 343c f0d6 cb3d f7e1 8b3d 24db 113d
00000340: 507b 63ba 75b0 25b8 b18f 29bb e9bb c5bc
00000350: f4eb ed3c cb21 9bbb 781b 013d 3b56 92bb
00000360: 44d4 89bd 4181 7e3d 20f3 f63d e6b2 afbc
00000370: 99a6 1abd 514d 173c 8726 123c 4342 51bd
00000380: 583d 60bb e9c0 15bd d1c7 0ebd e278 5b3d
00000390: dd89 053c 2d37 72bc db72 ae3c 2c8c 803d
000003a0: bc55 883d 9ec9 8a3c 52a5 5e3d 8865 a83b
000003b0: 2c9d 14bc 6ce1 44bd ac04 8abc bd42 b03c
000003c0: adae 583d 059b e23b c335 b73c ee5a 8cbc
000003d0: 6738 4c3c 6866 0fbc dafd 58bd 2af6 f23c
000003e0: 170b 79bd 531e 0abd af21 dbbc a600 4dbd
000003f0: 70b0 c2bc 44ed 9abd d8c4 c83c 2e68 90bc
-0.027968034 -0.0012214693 -0.025821302 -0.028520681 -0.039876726 -0.017988564 -0.08094903 -0.010945651
0.062138516 -0.0037821133 -0.0484753 0.011549978 -0.008653162 0.0034161622 -0.0034108136 -0.017666424
-0.05023066 0.033281017 -0.00021039836 0.026702067 0.033583477 0.009170824 -0.047022685 0.031383466
-0.080804266 -0.074095964 -0.011446411 0.02785793 0.04067608 0.014488912 0.04230152 -0.03811074
-0.015396163 -0.0128828585 0.012326924 0.011963707 -0.09606966 0.019493716 -0.00958667 -0.0028069105
-0.07681226 0.019474287 -0.05466246 -0.020095795 -0.062940516 -0.012607703 0.0039474065 -0.0438266
-0.033877924 0.08697203 0.02495913 -0.011426825 -0.020532243 -0.0018709503 -0.064713694 0.026202751
0.022343218 -0.054413013 0.016300736 -0.005794811 0.001172038 -0.014033395 0.0514521 -0.08829001
0.042409215 -0.14459485 0.01220999 -0.016224606 0.04989763 -0.025600309 -0.039301217 0.0050291438
0.094767004 0.009555988 0.027751787 -0.00513926 0.012645066 -0.010289104 -0.055507075 -0.023619091
-0.025701681 0.011331657 -0.048988793 -0.013447311 0.024113774 -0.011111126 0.01805523 -0.00059184385
-0.008910063 -0.04334751 3.6189904e-05 0.004950937 -0.04677026 0.035158128 0.020338714 -0.044690464
-0.0023857704 0.008372655 0.039533954 0.024188912 0.011065282 -0.022785312 0.002050735 -0.02627934
-0.008013236 0.011357543 0.019836746 -0.021918803 0.0760253 -0.00078371394 -0.0042062546 0.025577568
0.053732272 0.028701706 -0.00992886 0.0027535735 -0.0024097178 0.01643667 0.032161642 0.0042428323
0.013398302 -0.03667397 0.007911614 -0.013705388 0.06893487 0.0034704283 0.016474197 -0.08697369
-0.0053378805 0.00018692802 0.0063110194 -0.044126097 -0.009914762 0.011289264 -0.00265663 -0.0052109617
-0.09496689 -0.005186734 0.022358084 -0.03387637 -0.019172844 -0.010440278 -0.03729162 0.008441017
-0.003788633 0.016782353 0.01087938 -0.097691774 -0.15995972 0.012258342 0.031881325 -0.00440469
0.03112421 0.04473205 -0.02215716 -0.15223072 -0.017324219 -0.035458278 0.04359664 0.076322235
-0.02644802 0.006716777 -0.0110718 -0.038945157 0.01870937 0.053246282 -0.13835885 -0.024162145
0.062205635 -0.05494086 0.0034448232 0.019143494 -0.0010413375 -0.029292429 -0.039150756 -0.11484732
-0.006194283 0.036851533 0.01308052 0.004241378 0.07944178 -0.09632796 -0.05010632 0.004875758
-0.0006101035 0.0025332833 0.034126963 0.035813328 0.0027588299 -0.00501403 0.0029511387 0.015308324
-0.006697951 0.010685734 -0.00796001 0.042961914 -0.048196245 0.021144407 0.048161663 -0.026692012
0.006021931 0.019898703 0.04808576 0.0125559345 0.011034614 0.099531054 0.06830209 0.03560938
-0.0008677738 -3.9503404e-05 -0.0025873 -0.024137454 0.029043175 -0.004734253 0.031520337 -0.004465846
-0.067299396 0.062134985 0.12058091 -0.02144761 -0.037756536 0.009234742 0.008920318 -0.051088583
-0.0034216251 -0.036560927 -0.03485853 0.05358208 0.008150545 -0.014783663 0.021295002 0.06276736
0.066569775 0.016941842 0.05435688 0.0051390566 -0.009070676 -0.04806654 -0.01684793 0.021516198
0.05290096 0.0069154524 0.022364503 -0.017133202 0.012464619 -0.008752443 -0.052976467 0.029658396
-0.06080159 -0.033720326 -0.02674946 -0.050049447 -0.023765773 -0.07564786 0.024507925 -0.017627802

net.4.bias f4 [256]
00000000: bb19 1dbd 2d4b 3fbd dd59 bdbd dd07 3fbd
00000010: 795c 5bbc 9751 26bd 9f94 95bd 5fc6 cabd
00000020: f26a 55bd d43b aebd e61b c6bd c0d3 13be
00000030: 116e 79ae 5338 97bd ade8 86bd abdc 7ebd
00000040: 1c19 9fac 9cb9 67bd 8095 06bd b60a 35bd
00000050: f771 a9bd 527d b8bd 97b3 59bd d54c 6ebd
00000060: 3745 21b8 c640 6fbd b6b2 d9bc b75f e4bd
00000070: 125d 1bbd 374f 99bd ed0e a4bd fe03 efbc
00000080: b462 aebd 92d7 debc 0c41 93bc 6ee2 24bd
00000090: a06a d4bd 0e4c 07bd 73ee fbaa 4249 3abd
000000a0: 490d 00bd 020e 3abd fa50 6fbd afb9 02bd
000000b0: a0ec aebd 9073 95bc 9ae5 5bbd 9212 d7bd
000000c0: eb0b c5bd 6cfb adbd ec5c 9ea9 d277 33bd
000000d0: 0369 e9bb 38fa 62bd 6319 26bd 81a0 29bd
000000e0: 4ee6 f4bd f4ec f43d b057 a8ab 24a2 aebd
000000f0: 63dc 94bd 5e50 b3bd d98c 01be a6bd 87bd
00000100: d34d ddbd ed24 2cbd 00ad e5bd 777a b9bc
00000110: ef5e bebd 2b5c d4bd 53a3 04be 7757 d2bc
00000120: 9afb f5bd 920c bebd 4327 6fbd 9a38 dcbd
00000130: 7e86 b5bd 0b5b d8ba a8db 81bd b739 8495
00000140: e899 01be 1590 8ebd f4d3 2ebd 467a 9cbd
00000150: eb6d 5dbd 2859 62bd 2f13 11be 26a9 61bd
00000160: 394d 2fbd 7a55 e2bc 1eac 3abd 34e6 bbbd
00000170: 842b 68bd 485d 77bd bca9 6eba af93 5dbd
00000180: 284c d4bd eb03 75bd 3773 05bd 4271 09be
00000190: 7f20 25bd 9afb 2ebd b197 5abd d335 cdbd
000001a0: 644c 16bd 88cb ea39 8731 2ebd cc0d d1bd
000001b0: f74a aabd 9ae6 5cb9 69a3 bfbd 47b7 b0bd
000001c0: 9cb1 abbd 6721 c3b8 61e9 04bd c6e7 c3bc
000001d0: 44cf 22bd 26eb 3fbd 60d4 00be 3a11 dabd
000001e0: 0d7d 4ebd 126d 8fbd 5e85 ebbc fd40 ecbd
000001f0: f84d cdbd 4b2d 87bd c30c 60bd 6bf3 17ba
00000200: e8a1 9ebd 0ef5 c1bd a373 8ebd f1f2 e7bd
00000210: b5d0 87bd b1c2 8bbd 5049 39be 9379 fcbc
00000220: 601c 94bd e456 a9bd 2bb8 c4bd 03f4 2dbd
00000230: aa76 82bd 42ce 9abd 485d f7bd fdeb c4bd
00000240: 90e3 64bd 1af5 acbd 29de a0bc be8e 88bd
00000250: b2db 21bd d63f 79bd 4370 27bd 90a2 f2bd
00000260: 7ea5 87b8 ecd8 d5bd cd69 71bd 6af5 c4bd
00000270: f441 96bd 8a75 efbd f25b c9bd 1b70 a9bc
00000280: c874 99bc 20a5 e1bd fa35 59bc 4a89 78bd
00000290: e2a7 b9bd a451 9cbd 4be9 6bbd daa8 10bd
000002a0: 6483 32bd 8ea7 15bd 50fd 6dbd 5cea 5bbd
000002b0: 7a7c 5dbd bbe6 66bd 578f 54bd 8316 72bd
000002c0: 7db0 77bd 7bba 67bd 1d9f 52bd 5728 d6bb
000002d0: ffb2 8bbd 39fa aabd d874 c2b7 316d c9bc
000002e0: 4ddc e1bd badb a5bc ddcb 28bd 44ce 58bd
000002f0: 6fa4 c5bd af45 e5bc 1934 47bd fa1b 41bc
00000300: 51c8 9cbc 4d5f 82bd 5af8 53bd 85a2 ecbd
00000310: 80c4 dbbd a542 1eac 9b60 d9bd 8f56 60bd
00000320: 6401 acbd e568 d7bd d9c9 d0bd bb6a 45bd
00000330: 7757 a8bc e1f5 cdbd 310f acbd 42e0 4cbd
00000340: 028e 5ebd 09eb a88a 5f4f 98bd 8897 babd
00000350: 348f c9bc b8b9 cfbc 114a abbd 707f c0bd
00000360: 0059 15bd 1878 9fbd 3b33 d4bd c89f 92bd
00000370: ecf7 b9bd 65d4 28bd 90e2 babd 88ac efbc
00000380: 8788 40bd c8fc c3bd be5b dbbd 1269 57bd
00000390: 5f96 1cbd 7b56 5cbd 138a a7bc 0712 cbbd
000003a0: 386a 17bc d11e 97bd 6b86 50b0 cbd7 b1bd
000003b0: 41c4 8dbd 4a3a bebd 19d8 dbbd a779 8ebc
000003c0: 868f e3bd 805d b0bd 0c90 c1bc 0305 babd
000003d0: 660e e5bd 6651 e1bd 0fb5 ddbc 4d60 e490
000003e0: 2ac0 2cbd e976 e4bd b268 88bd 83de 2abd
000003f0: 6829 8ebc 327a 37bd 89e0 b6bd 6e47 7cbd
-0.038354617 -0.046702553 -0.09245656 -0.04663836 -0.013388746 -0.040605154 -0.07303738 -0.099011175
-0.052103944 -0.08507505 -0.0967329 -0.14436245 -5.6713804e-11 -0.0738379 -0.06587348 -0.062222164
-4.5218395e-12 -0.056573495 -0.032857418 -0.044199668 -0.0827369 -0.09008278 -0.053149786 -0.05817874
-3.8449853e-05 -0.058411382 -0.026574474 -0.11151069 -0.037930556 -0.07485812 -0.08010659 -0.029176708
-0.0851492 -0.027202401 -0.017975353 -0.040255003 -0.103718996 -0.033031516 -4.4752014e-13 -0.04548002
-0.03126267 -0.045423515 -0.058426835 -0.031915363 -0.085412264 -0.018243581 -0.053685762 -0.10501589
-0.09621414 -0.084952205 -7.032729e-14 -0.04381544 -0.007123114 -0.05541441 -0.040551554 -0.041412834
-0.1195799 0.11959258 -1.1961456e-12 -0.085270196 -0.07268598 -0.08755563 -0.12651385 -0.066279694
-0.108058594 -0.042027403 -0.11214638 -0.022641404 -0.09295451 -0.10369142 -0.12952928 -0.025676472
-0.1201088 -0.09279741 -0.058387052 -0.107529834 -0.08863543 -0.0016506625 -0.06340724 -5.3405433e-26
-0.12656367 -0.06961075 -0.042682603 -0.07640509 -0.054059904 -0.055260807 -0.14167474 -0.055092953
-0.042798255 -0.027628649 -0.0455743 -0.09174767 -0.056682125 -0.060391694 -0.0009104272 -0.05409592
-0.10366088 -0.05981819 -0.03258058 -0.1342211 -0.040314194 -0.042720415 -0.05336732 -0.10020032
-0.036693946 0.000447836 -0.0425277 -0.1020771 -0.0831508 -0.00021066741 -0.0935734 -0.086287074
-0.08383486 -9.304546e-05 -0.03244913 -0.02391423 -0.039748445 -0.046855114 -0.12581015 -0.10647817
-0.050412226 -0.070032254 -0.028750118 -0.11535833 -0.10024637 -0.06600436 -0.05469967 -0.0005796465
-0.07745725 -0.094705686 -0.0695565 -0.11325634 -0.066316046 -0.06824244 -0.18094373 -0.03081969
-0.072319746 -0.08268526 -0.0960544 -0.042469036 -0.063702896 -0.07558872 -0.12078339 -0.09615324
-0.055881083 -0.08445187 -0.019637184 -0.06667851 -0.03951616 -0.060851894 -0.040878545 -0.118474126
-6.468127e-05 -0.10441765 -0.05893879 -0.096171215 -0.07336798 -0.11692341 -0.0983199 -0.020683339
-0.018732443 -0.11017823 -0.013257498 -0.060677804 -0.09065224 -0.07632759 -0.057595532 -0.03531728
-0.043582335 -0.036536746 -0.058102906 -0.0536903 -0.05407379 -0.056372385 -0.051894512 -0.0591035
-0.060471047 -0.056574326 -0.051421273 -0.0065355706 -0.0682125 -0.083485074 -2.3181012e-05 -0.0245882
-0.11028347 -0.020246375 -0.041210044 -0.052931085 -0.09650504 -0.02798733 -0.04863367 -0.011786455
-0.019138487 -0.063658334 -0.05175052 -0.11554436 -0.10730839 -2.2490146e-12 -0.10614129 -0.05477005
-0.08398703 -0.10518054 -0.101947494 -0.04819749 -0.020549519 -0.10056663 -0.08401335 -0.050018556
-0.054334648 -1.6266222e-32 -0.07437014 -0.091109335 -0.024604417 -0.025357112 -0.083637364 -0.09399307
-0.03646183 -0.07786578 -0.10361334 -0.07159382 -0.090804905 -0.04121818 -0.091252446 -0.029257074
-0.047005203 -0.095696986 -0.10710858 -0.052590437 -0.038229343 -0.05379341 -0.020451581 -0.09915548
-0.009241633 -0.07378925 -7.586098e-10 -0.08683737 -0.06922198 -0.092884615 -0.10734577 -0.017391993
-0.11111359 -0.08611584 -0.023628257 -0.09082987 -0.11184387 -0.11001854 -0.027063875 -9.007852e-29
-0.04217545 -0.11155493 -0.06660594 -0.04171611 -0.017353728 -0.04479427 -0.089295454 -0.06159156

net.6.weight f4 [256]
00000000: b73f 9e3e 905a a83e a783 8b3e 9919 753e
00000010: fc38 813e 51ff f23e d3e5 8f3e ab24 a03e
00000020: 141f 8e3e 396d 7a3e ab1e 813e ef3d 603e
00000030: b329 fc3e 1353 933e 7e77 853e a5ff ed3e
00000040: 5ae2 d43e 6c86 783e 1705 d13e 596c 6b3e
00000050: b8e2 213e 1922 483e fb93 e73e c42e 883e
00000060: 66fc 013f 5884 883e 23b1 a13e a381 d83e
00000070: 60a8 b63d 4394 8c3e 2251 803e 77a0 e53e
00000080: 5d89 933e 2e00 9e3e 88fb 3e3e c3e6 d93e
00000090: 5ac2 f13e 925c 8c3e 8694 ec3e ea4b a13e
000000a0: e598 833e 2b6f e63e a508 e43e d411 d43e
000000b0: 7ff4 dc3e 1e70 023f 99a4 723e c9e8 f63e
000000c0: 2005 743e c686 a53e b048 f83e 6ad6 cf3e
000000d0: b6da 473e 8eee 8f3e 5eed de3e 3c48 723e
000000e0: 4400 e13e 2d24 1d3d 0189 f03e 8c6f 723e
000000f0: 30b3 883e 3dc1 de3e f558 973e c489 e63e
00000100: 6622 e03e ac86 e93e d3c1 d33e 4826 f2bd
00000110: 06bf 423e 6e2a db3e 5efc fd3e aed8 e13e
00000120: dcf1 533e 99bf ac3e f8a0 263e c2fb e43e
00000130: 16fc 153e 0017 f43e 3d1e b73e 4d50 d83e
00000140: c66a 013f f8ed 913e 92de a53e 80d9 9a3e
00000150: 2bba 853e cb57 983e 1ad5 b83e d943 793e
00000160: 5710 c03e 9cb8 f53e d506 a03e 0779 d83e
00000170: ced1 933e df9b b93e 8103 fc3e 8b5a 753e
00000180: 0d9d a13e edfc 723e 78f9 cd3e b7ad d93e
00000190: b2e2 683e 528d e53e 8a95 733e d996 263e
000001a0: 8183 843e ae25 353e c422 873e a184 ca3e
000001b0: f4a4 093e 42d4 fa3e ddd7 9e3e 9fb2 9d3e
000001c0: 3110 a93e e4fb f33e 00b0 9b3e a278 db3e
000001d0: 1e10 4c3e 8a98 9e3e 21ca af3e 2282 223e
000001e0: 175b ef3e 6668 cf3e 75b1 613e 87fa ef3e
000001f0: c82d af3e dafb 703e b43d f43e 15b9 e13e
00000200: dded 923e 90ef 833e fc3a 613e 762a 853e
00000210: c8ef d63e eb28 963e f281 283f abbd 873e
00000220: 6186 bd3e 2303 ea3e 2338 743e 6edf 903e
00000230: 5d6d f43e 8f9f 633e 17c1 5b3e 1614 563e
00000240: f2d1 da3e a79d ab3e 035e ed3e 4f01 6f3e
00000250: 5d93 e93e 0c57 973e fec4 e33e 01f4 8a3e
00000260: c3a2 f23e d527 ef3e 3fb7 de3e f82a 3c3e
00000270: 3e89 803e ef0a 4c3e 01a6 a93e 0186 b23d
00000280: d5b9 c63e 99a0 ab3e e3a8 f23e 755e 843e
00000290: c697 cd3e 05fb a33e d565 4e3e aa4f fc3e
000002a0: f437 6d3e fdfd 863e b81a e33e 8f04 983e
000002b0: 59b3 f03e 50d0 ed3e c130 ad3e d3a4 a03e
000002c0: 4dbf 993e b4c1 cd3e e885 d83e 8704 fd3e
000002d0: e183 883e ae76 643e 7eb9 e93e 1f70 e03e
000002e0: d17a 8f3e fb87 f83e 7120 d23e e46c 813e
000002f0: 3ccb e43e 2934 bf3e 5eab af3e 311e 423e
00000300: 37be ec3e 7ef7 293e 0b2e 9e3e e83d 5c3e
00000310: 0bc7 df3e 1bdf f63e c3fb 573e 5256 e13e
00000320: 1755 9e3e d023 9a3e 9fbf 753e a75f 803e
00000330: 284d f13e f91c c53e 41a1 a93e f7b9 dd3e
00000340: 93af 7e3e a780 d33e 0e4a 633e 1205 5f3e
00000350: 9a5f f23e 7542 e53e 3285 a83e 6655 da3e
00000360: 0b11 8d3e 319b dc3e 848c d03e 08c5 d03e
00000370: d7b3 923e 174f 883e 2f7c 943e 94b7 df3e
00000380: 7c16 a03e 49b1 2e3e e39f 303e ffb0 b83e
00000390: 7541 ca3e 2a78 e13e f7f7 ad3d b951 973e
000003a0: 715a 243e 2ba1 963e 4ff9 fa3e a8cf 6d3e
000003b0: 9e32 8a3e ee4e dc3e c260 913e eed6 843e
000003c0: fa3d bc3e d3e3 7f3e a98e 663e b747 bf3e
000003d0: db50 f03e 9ff6 323e b3ad ed3e f2ed f73e
000003e0: fdc9 843e e323 003f a089 8d3e 4c43 ef3e
000003f0: 2136 b73d 9105 5b3e be96 cc3e ee57 653e
0.30907986 0.32881594 0.2724888 0.23935546 0.25238788 0.47460416 0.2810503 0.31277975
0.27758086 0.24455728 0.2521871 0.21898626 0.49250564 0.28774318 0.26067728 0.46484104
0.41578943 0.24270028 0.40824196 0.2299055 0.15809143 0.19544257 0.45230088 0.2659818
0.50775754 0.2666347 0.31580457 0.42286405 0.08918834 0.27456865 0.250619 0.44848987
0.28815737 0.30859512 0.18650639 0.4255887 0.4721859 0.27414376 0.46207064 0.3150323
0.25702587 0.4500669 0.44537845 0.41419852 0.43155286 0.5095233 0.23695602 0.48224476
0.2383008 0.32329386 0.48492956 0.40593272 0.19517025 0.2811169 0.43540472 0.23660368
0.43945515 0.038364578 0.46979526 0.23675364 0.2669921 0.43506804 0.29560056 0.45026982
0.43776244 0.4561056 0.41358814 -0.11823708 0.19018182 0.4280581 0.49606603 0.44110626
0.20697731 0.33739927 0.16272342 0.44723326 0.14646944 0.47673798 0.35765257 0.42248765
0.5055355 0.28501868 0.3239637 0.30244064 0.26118597 0.2975448 0.36100084 0.24342288
0.37512466 0.47992408 0.31255212 0.42279837 0.28871006 0.36251733 0.49221423 0.2396032
0.31565133 0.23729296 0.40229392 0.42515346 0.22742727 0.4483438 0.23787513 0.16268481
0.2588158 0.17690155 0.26393712 0.39554313 0.13441831 0.48990065 0.31024066 0.3080034
0.33020166 0.47653115 0.30407715 0.42865473 0.19928023 0.30975753 0.343339 0.15869954
0.46749184 0.40509337 0.2204035 0.46870825 0.34214616 0.23533574 0.47703326 0.4408652
0.286971 0.2576871 0.21995157 0.26008958 0.41979814 0.29328093 0.6582328 0.26511893
0.37016585 0.45705518 0.2384954 0.28295463 0.47739688 0.22228836 0.21460377 0.209061
0.427383 0.33518717 0.46360788 0.23340343 0.45620242 0.295586 0.4448623 0.27139285
0.47389802 0.46710077 0.4349918 0.18375766 0.25104707 0.19926046 0.33134463 0.087169655
0.38813654 0.33520964 0.47394475 0.25853315 0.40154856 0.3202745 0.20156033 0.4927953
0.23165876 0.26365653 0.44356322 0.29690978 0.4701183 0.46447992 0.3382626 0.3137575
0.30028763 0.40186846 0.42289662 0.49417517 0.26663116 0.22310898 0.45649332 0.43835542
0.2802339 0.48541245 0.41040376 0.2527839 0.44686306 0.37344483 0.3431043 0.1895683
0.46238872 0.16598317 0.30894503 0.2150799 0.43706545 0.4821709 0.21092133 0.4401117
0.30924293 0.30105448 0.23998879 0.25072977 0.47129178 0.38498667 0.3313084 0.43305942
0.24871664 0.4130909 0.22196218 0.21779278 0.47338563 0.44777265 0.3291412 0.4264328
0.27552065 0.43087152 0.40732205 0.40775323 0.28652832 0.2662284 0.29000995 0.43694746
0.31267154 0.17059816 0.17248492 0.36072537 0.39503065 0.4403699 0.08494561 0.29554537
0.16050126 0.29419836 0.49018332 0.23223746 0.26991743 0.4302897 0.28394133 0.25945228
0.36766034 0.24989252 0.22515358 0.37359402 0.46936688 0.17476891 0.46421584 0.48423725
0.25935355 0.5005476 0.27644062 0.4673103 0.08945871 0.21388842 0.39958757 0.22396824

net.6.bias f4 [256]
00000000: 80d1 703c 9e22 7c3c cd9f 443c d115 e93b
00000010: d2ed 033c 360b 2d3d f26c 3b3c 2e5e 843c
00000020: d593 603b da7e 723c 96c9 283c 713d a23c
00000030: 997e 143d 11aa 343c 9c4f a03b ba65 063d
00000040: 92b7 e93c be8f 5c3c 2981 043d faa7 e33b
00000050: eba3 8d3c 5c3d 553c 8c7e 043d 4324 253c
00000060: a3b8 1b3d b414 2e3c a071 b73c f9cc eb3c
00000070: 06b9 fdba 1772 303c 872d 623c fbc8 013d
00000080: 315f 173c 1081 a43c 9b36 09ba 8a15 033d
00000090: 8c99 193d 502c 0b3c 77b4 223d 6541 553c
000000a0: 2fac 663c 53dd 193d 5a62 fc3c 88e0 fa3c
000000b0: d971 0d3d b065 1e3d bac0 76ba a586 083d
000000c0: e40c 643c 1841 513c 5f5b ff3c aebe ef3c
000000d0: 33a1 9dbc d2bf 623c 2f68 013d ff13 793c
000000e0: 5d48 113d d9af 12bf 54e4 1a3d 5de3 443c
000000f0: 362d a83c 0c85 0a3d c881 1a3d d13c 033d
00000100: d409 0d3d 9b7d 063d 1182 e23c 53b0 f0bb
00000110: de60 523c b441 f43c d736 193d 7ad2 003d
00000120: 91dc bb3c 378c a93c 732a 513b 7327 0b3d
00000130: 37f1 bb3c d879 163d cd8c a73c b5b9 0a3d
00000140: f91a 0c3d 8c63 4a3c 57e7 743c 7529 d93c
00000150: d951 5c3c 5778 823c de5e d43c 2999 833c
00000160: 9404 083d c39c 0f3d 4825 d03c 8f89 ef3c
00000170: 088b 973c 8721 d43c b387 0c3d 55bb 2f3c
00000180: 32df c83c f5ab 103c 8fc0 0e3d f9d9 073d
00000190: 4a74 303c 89d2 ee3c 1d54 6f3c 08e6 a73c
000001a0: 84e7 213c 7b82 9fbc da7f 793c 760a e83c
000001b0: 15a6 303c bb76 163d f460 b13c 548c 9b3c
000001c0: 3641 b73c b30a 053d 74e4 9e3c 1732 043d
000001d0: ad89 01b9 9b2a 8b3c 88c5 f13c 227e 823c
000001e0: 07eb 103d 3901 113d a307 443c 150e 1a3d
000001f0: 45b4 8f3c 6e08 633c 4140 013d 3e87 003d
00000200: d083 9b3c 74d2 b7ba 4cb0 c9ba cdec d43c
00000210: 1f3b fa3c 6bd2 8e3c 5376 293d fc64 9d3c
00000220: 5c92 dd3c 897a 163d eb50 aa3c 3798 2d3c
00000230: 3173 173d e04c 543c 192f 443c d607 ef3b
00000240: f471 023d 9aa8 c83c 24e4 ff3c 2205 2b3c
00000250: 684f 083d 69d0 aa3c d52f fe3c 473d b03a
00000260: f73a 0c3d 911a 243d a55b 0f3d 9560 2b3c
00000270: 3e90 7739 2712 3e3c 3ece bb3c e301 38bb
00000280: 07f8 ec3c 46e1 4f3c eea7 083d 57cc 6b3c
00000290: a709 f43c 01f2 283c b1dd ff3b bbd0 f83c
000002a0: dfff 633b 2355 873c 088e 0f3d f19e af3c
000002b0: e5a5 0b3d 1467 013d e27b 9b3c ff36 783c
000002c0: 8b0d a53c e772 013d ef6c 1d3d 9581 1b3d
000002d0: 1c2a 873c b7b6 b53b c868 133d 86a6 083d
000002e0: 847e 943c 10b6 1c3d cc74 ce3c 1d39 ee3b
000002f0: 3407 043d 6fe4 e03c 0cfe 903c d591 87bc
00000300: c44e 003d b25d 1a3c 13f0 8f3c a73d 883c
00000310: b5f6 093d 158e 1e3d fde6 193c 3bb5 1b3d
00000320: 21f0 b03c 7a8a 903c bd74 ad3c 4915 f13b
00000330: 1140 0c3d 5e99 c03c e377 773c 473b f43c
00000340: 4443 e53b 7e9e f33c 9864 323c b380 933c
00000350: b52c 143d bdd5 083d 4a38 8d3c dc5a 083d
00000360: 68b7 893c 191f ed3c 4b92 db3c 5738 0d3d
00000370: 1463 323c c7c0 943c c05d 4e3c bc72 1d3d
00000380: 6921 973c 7f0a 9b3c 2f7b 833c d9ac b53c
00000390: e13a 063d f2c4 ee3c b348 c6bb 96ba 923c
000003a0: d1e7 97bc e179 6e3c 88e4 273d 0eb8 913c
000003b0: 5a32 533c 133c 053d a71a b53c 2d3f 753c
000003c0: 0a5d d43c 40ef 653b 7911 b43b 8f71 c53c
000003d0: b875 053d 00ca aa3c 5735 003d 89a3 213d
000003e0: e18b 793c a90b 143d ec7f ec3b 7f9d 003d
000003f0: 315b b8ba 8224 123c 8cd9 f53c 72b1 db3b
0.014698386 0.015389113 0.01200099 0.0071131964 0.008052306 0.04224702 0.011439549 0.01615819
0.0034267802 0.014800752 0.010301968 0.019804688 0.036253545 0.011026875 0.0048923027 0.032811858
0.028529916 0.013462005 0.03234974 0.0069475146 0.017290076 0.0130151175 0.032347247 0.010079446
0.03801788 0.010625053 0.022393048 0.028784262 -0.001935751 0.010769389 0.0138048 0.03168581
0.009239004 0.020081073 -0.0005234272 0.032002963 0.03749995 0.008494452 0.039722886 0.01301608
0.014079138 0.037564587 0.030808616 0.030624643 0.0345324 0.038671196 -0.0009412874 0.033331532
0.013919089 0.012771867 0.031171499 0.029265728 -0.019241905 0.013839679 0.031593498 0.015202521
0.0354694 -0.5729957 0.037815407 0.012017098 0.02052937 0.03381829 0.037721425 0.03204042
0.0344332 0.03283463 0.027649911 -0.0073452382 0.012840478 0.029816486 0.037405815 0.031450726
0.022932323 0.020696742 0.003191617 0.03397317 0.022942169 0.036737293 0.020452881 0.03386851
0.03420541 0.012352835 0.014947734 0.026509026 0.013447248 0.015926523 0.025924142 0.016064243
0.03320749 0.03506161 0.025408402 0.029240398 0.018498912 0.025894893 0.0343091 0.010725816
0.02452049 0.00883006 0.034851607 0.03316686 0.010769913 0.029153125 0.0146074565 0.02049543
0.009881858 -0.019471398 0.015228236 0.0283253 0.010781785 0.036734324 0.021652676 0.018987812
0.022369962 0.032480907 0.019396044 0.032274332 -0.00012353687 0.01698809 0.029513136 0.015929285
0.03538039 0.035401557 0.011964711 0.037611086 0.017542014 0.01385699 0.031555418 0.031378977
0.018983752 -0.0014024512 -0.0015387624 0.025991822 0.03054577 0.01743432 0.04137261 0.019213192
0.027047329 0.036737952 0.020790538 0.010595373 0.03697509 0.012957782 0.01197412 0.0072946353
0.031846955 0.024494458 0.031236716 0.0104382355 0.033278853 0.02085133 0.031028667 0.0013445996
0.03423592 0.0400644 0.03499951 0.010460039 0.0002360949 0.011601008 0.022925492 -0.0028077296
0.028926862 0.012687987 0.033363275 0.01439198 0.029789759 0.0103116045 0.00780841 0.030372968
0.0034789962 0.016520089 0.03504756 0.021438094 0.034093756 0.031592444 0.01897997 0.015149831
0.02014806 0.03160372 0.038433965 0.037965376 0.016499572 0.005545463 0.0359886 0.033361934
0.018126734 0.038259566 0.025202177 0.007269992 0.032233432 0.027452676 0.017699264 -0.01654903
0.031325117 0.009421753 0.017570531 0.01663096 0.033682544 0.03870972 0.009393451 0.03801463
0.021598877 0.017644156 0.02117383 0.0073572737 0.034240786 0.023510631 0.015104267 0.029813422
0.006996544 0.02973866 0.010888241 0.018005705 0.03617545 0.03340696 0.017238755 0.033289775
0.016811088 0.028945493 0.026803156 0.034477558 0.01088788 0.01815833 0.012595594 0.038439497
0.018448548 0.018925903 0.01604995 0.022177147 0.032770995 0.029146645 -0.006051147 0.017911237
-0.018543156 0.014555425 0.04098943 0.01778796 0.012890423 0.032527994 0.022107435 0.014968676
0.02592327 0.003508523 0.005495247 0.024102 0.03258297 0.020848274 0.03130087 0.0394626
0.015231104 0.036143932 0.007217398 0.0314002 -0.0014065263 0.008919837 0.030010961 0.0067045027
