RL code/models/checkpoint_episode_430000.pth (torch, 801255 bytes, 40 tensors)

net.0.weight f4 [256, 22]
00000000: 66d4 a5bb 5d50 723d ed72 1f3e 52e2 aa3c
00000010: 4fb4 c53d 33bf 2a3c 5946 79bd 04da 8fbc
00000020: 06c5 5bbd 5707 463c e4ae ec38 8a42 cebd
00000030: afb4 fd3d 8804 323d 4a03 013e 51f4 28bc
00000040: 4321 25bd 5666 2bbd 06c5 5b3d 5707 46bc
00000050: 66d4 a5bb 5d50 723d 3a4a 9f3d 8242 0a3d
00000060: 08f4 0a3e 2fd5 06be be6e c73c a5c1 cdbb
00000070: da48 da3b cf01 babd 1549 8cbc 775c 5b3c
00000080: bb92 edbd 5db9 b3bd 5824 0f3e 7f9c 10be
00000090: 0bc6 123d 4c64 02bb 1f78 4c3c 3463 c4bd
000000a0: 1549 8c3c 775c 5bbc 3a4a 9f3d 8242 0a3d
000000b0: 156b 1b3e 4c12 033e 7a5d 453e 0aaa 223e
000000c0: 4d55 1fbe afab 2ebe e237 2fbe d5a3 35be
000000d0: 932e cbbe fb5a a3be 1b78 80be 8e4c 6abe
000000e0: 61e6 29be 6023 3abe 82aa 393e 164c 1e3e
000000f0: ffd5 323e 143e 283e 912e cb3e f65a a33e
00000100: 2d39 1b3e b9d5 023e 5626 7cbc f361 71bc
00000110: 5959 b6bd 7ac3 543d 765c b3bd 5846 b8bd
00000120: 6bfe 81bd 73d9 a33c f447 0bbc 47dc a53d
00000130: af64 80bd 2808 41bd bda8 f8bd 6db2 953d
00000140: af5b 5dbd 83f0 dfbd 86fd cdbc e3ff b4bb
00000150: f447 0b3c 47dc a5bd 5626 7cbc f361 71bc
00000160: 6530 11be 0e3d 453b a2f9 9dbc 20e5 4e3d
00000170: ce17 1dbd eb84 823c d36d 4abd 4644 393d
00000180: e780 88bd b648 2ebd 4ed4 013e 6287 f5bd
00000190: 1aeb 55bd ff5a 283d f8b8 92bc 0dff 1d3d
000001a0: 3ec7 f5bc 8991 663d e780 883d b648 2e3d
000001b0: 6530 11be 0e3d 453b 3456 abbd 6a25 cabd
000001c0: 6549 89bd 8ed7 a23d 4a5c 40bd 4656 9e3c
000001d0: 891b c5bd a555 05bd 0ef1 60bc 16c1 75bd
000001e0: 37ca 4c3d c640 163d afcd ffbd 66ab 8c3d
000001f0: 0e0f 083d bc47 ad3c baf7 cebc fd58 02bd
00000200: 0ef1 603c 16c1 753d 3456 abbd 6a25 cabd
00000210: 85f8 76bd 823a 5ebb bfc4 86be dd7f 3839
00000220: 6e9b 093d ae1c 983a 7592 453d 7728 c6bb
00000230: 2d63 b73d 0346 913b fbc2 243d a2e8 b9bc
00000240: 602f 3bbe 6499 85ba a4bf 37bd 5fd1 3aba
00000250: 9163 03bd ba05 06bc 2d63 b7bd 0346 91bb
00000260: 81f8 76bd 923a 5ebb 7c47 a6bd 64d7 67bd
00000270: 4241 0ebc 7756 10be ba86 23bd b1a9 f7bd
00000280: ab86 383d 47a0 b6bb 06bf a93d ece0 123d
00000290: ddfc 1e3e 5ef1 77bd 90de e53c ed9e dabd
000002a0: 64ab 92bd db86 13be edd1 123c fd4b fdbc
000002b0: 06bf a9bd ece0 12bd 7c47 a6bd 64d7 67bd
000002c0: 6ad7 bfbc d6f1 18bd 29b0 4b39 8a52 9fbb
000002d0: e65d 2d3d 6a35 f73c 4cbd 0dbe 732b d8bc
000002e0: 6396 a93c e690 4f3c f6a6 1dbe 1fe6 943c
000002f0: a023 d6b9 42e1 8d3c c36d 3d3d 0c9b 04bb
00000300: 07f5 f4bd a095 68bd 6396 a9bc e690 4fbc
00000310: 69d7 bfbc d6f1 18bd 9559 66bd 1fda 483d
00000320: 6800 2e3c cc7d 6fbe 446e f03c c76f a3bd
00000330: 772a 59bd b9d1 8fbc 79b2 233c 08a4 453d
00000340: 4f99 51bd 00dc 14bd 0743 5dbb 50e5 61be
00000350: dd57 223d e9b2 dabd bc85 22bd 2424 35bd
00000360: 79b2 23bc 08a4 45bd 9559 66bd 21da 483d
00000370: bb05 d7bc 136b 003e f9a6 c2bd a0de 483d
00000380: a403 5ebc abec d13c 6538 f53b e79c cb3d
00000390: 080b 1b3d 703e d53d c32d 153e 3208 ebbd
000003a0: 052f b2bd 2477 0b3e 606b adbc 3cc2 4cbd
000003b0: bc52 c0ba c68b e23c 080b 1bbd 703e d5bd
000003c0: bb05 d7bc 136b 003e 633a 543d 781c 8fbd
000003d0: 6292 b3bd c9af 12bd 4024 ab38 471e 493d
000003e0: 3ca6 d7bd 9967 b6bd fc75 0f3a 7d2c fd3a
000003f0: 7c4e 783e bcec 6d3c 2ad2 f4bd 3df7 17bd
-0.0050607203 0.05915867 0.15571184 0.020859871 0.09653532 0.010421562 -0.060858104 -0.017560013
-0.053654693 0.012086711 0.00011285933 -0.10071285 0.12387978 0.043461353 0.12598911 -0.010312156
-0.040314924 -0.041845642 0.053654693 -0.012086711 -0.0050607203 0.05915867 0.077778295 0.033754833
0.13569653 -0.1316726 0.024344798 -0.0062791877 0.0066615166 -0.09082376 -0.017124692 0.013388745
-0.11600252 -0.087755896 0.13978708 -0.14122199 0.0358334 -0.0019896207 0.012479811 -0.09589234
0.017124692 -0.013388745 0.077778295 0.033754833 0.15177567 0.12799948 0.1927394 0.15885177
-0.15559883 -0.1705768 -0.17111161 -0.17738278 -0.3968397 -0.3190535 -0.25091633 -0.22880766
-0.16591789 -0.18177557 0.1813145 0.15458712 0.17464446 0.16429931 0.39683965 0.31905335
0.1515853 0.12776841 -0.015389999 -0.014732826 -0.089037605 0.051944233 -0.0875787 -0.08997792
-0.063473545 0.020001149 -0.008501042 0.08098655 -0.06269204 -0.04712692 -0.12141559 0.07309423
-0.054042514 -0.10934546 -0.025145303 -0.005523668 0.008501042 -0.08098655 -0.015389999 -0.014732826
-0.14178617 0.0030096206 -0.019284073 0.05051148 -0.03835278 0.01593252 -0.049421143 0.045231126
-0.06665211 -0.04254981 0.12678644 -0.11988713 -0.052226163 0.041102406 -0.017910466 0.038573314
-0.030002233 0.056291137 0.06665211 0.04254981 -0.14178617 0.0030096206 -0.08366051 -0.098704174
-0.06703452 0.0795127 -0.046963014 0.019328248 -0.096243925 -0.03255238 -0.013729347 -0.059998594
0.049997535 0.036682867 -0.12490403 0.06868629 0.033217482 0.02115237 -0.02526461 -0.031823147
0.013729347 0.059998594 -0.08366051 -0.098704174 -0.0602956 -0.0033909385 -0.2632198 0.0001759524
0.033595495 0.0011605227 0.048235375 -0.0060473043 0.08954463 0.004433395 0.04022501 -0.022693936
-0.18279791 -0.0010192809 -0.044860497 -0.00071265356 -0.032077376 -0.008180076 -0.08954463 -0.004433395
-0.060295586 -0.0033909422 -0.08119103 -0.056601897 -0.008682551 -0.14095484 -0.039923407 -0.12092913
0.045050304 -0.0055733058 0.08288388 0.035859033 0.15526147 -0.06053292 0.028060228 -0.10674844
-0.071615964 -0.14406912 0.008961183 -0.030920023 -0.08288388 -0.035859033 -0.08119103 -0.056601897
-0.023418147 -0.037340008 0.00019425213 -0.0048621343 0.042325877 0.030176837 -0.13841742 -0.026387906
0.020701593 0.012668824 -0.15395722 0.018176137 -0.00040843803 0.017319325 0.046247255 -0.0020234017
-0.11960798 -0.05678332 -0.020701593 -0.012668824 -0.023418145 -0.037340008 -0.056237776 0.04903614
0.010620214 -0.23387831 0.029349454 -0.07980304 -0.053019013 -0.017556058 0.009991282 0.048252136
-0.051171597 -0.03634262 -0.0033761875 -0.22060132 0.039634574 -0.10678656 -0.03967832 -0.04422392
-0.009991282 -0.048252136 -0.056237776 0.04903615 -0.02624785 0.12540846 -0.09504504 0.049040437
-0.013550673 0.025625547 0.0074835294 0.09942036 0.037852317 0.104123 0.14568238 -0.114761725
-0.087003745 0.13619667 -0.021169364 -0.049989924 -0.0014673094 0.02765454 -0.037852317 -0.104123
-0.02624785 0.12540846 0.051813494 -0.06987852 -0.08768155 -0.035812173 8.1606675e-05 0.04910114
-0.105297536 -0.089064784 0.0005472598 0.0019315627 0.2424869 0.014521774 -0.11954148 -0.03710102

net.0.bias f4 [256]
00000000: 5176 75be 87a8 62be 406c 31be ec26 8dbe
00000010: 4210 5dbe dd4d 91be 5e5d b5be 92dd 87be
00000020: 5dce 8ebe f6de 5abe ebde 42be bd20 61be
00000030: d649 28be 74b9 1dbf c3e9 41be 90d7 d8be
00000040: b686 bdbe e38c e8be 0228 b7be 32bc 4cbe
00000050: c603 8dbe 649f 9ebe a0df 553d 9184 2bbe
00000060: 0249 48be 1dd2 3abe e27c 86be 8f6f 96be
00000070: 1aab 9bbe 6228 4f3e 00d1 8ebe 34b3 57be
00000080: 7048 51be 9e48 9abe caa5 17bf 9fdc 8dbe
00000090: d719 8ebe 1e06 42be 6f0d 20bf f212 aabe
000000a0: e20c dfbd 01ad 50be 27d1 0abf e063 0abf
000000b0: ecc1 58be e992 96be 20f6 aebe 431f 9abe
000000c0: 15f0 49be f0b4 96be a30d 8ebe ff91 98be
000000d0: 3882 61be eb69 28bd 3863 4cbe 4096 0bbe
000000e0: 98db b8be 77b7 89be d19c 68be 9873 bcbe
000000f0: 05d0 65be 6ae5 9dbe 11c4 84be 1759 48be
00000100: 3bed 6abe 597b c23b 032c a3be 7aae 8abe
00000110: f03f 4abe 4e8a 93be a397 32be cb30 96be
00000120: 4797 83be 91f9 c5be 2317 a3be 0e31 0dbe
00000130: ca64 9fbe 159d 7dbe 65e2 99be 1d55 a4be
00000140: 7f3b 65be fa0d 64be 81c4 74be 7a08 4fbe
00000150: 3bd5 8bbe e54f 5cbe 0142 7dbe 99bc e6be
00000160: 348a 86be 4f84 8abe f7f6 87be 998e f6bc
00000170: 54dd 9abe 8ae3 13bf e444 53be 884e 99be
00000180: a652 6abe 74ee 4b3e 3106 b6be 44c5 acbe
00000190: 9b1e 7abe 0f9a debe 9270 72be e1d6 1fbf
000001a0: c1b6 30be 3b59 3dbe 5c5a 79be 41f5 92be
000001b0: a570 82be 07d3 89be fe3b b7be bb56 30be
000001c0: 730d 55be 4cb6 bfbe fb90 02be 0be3 7b3d
000001d0: 5fac 19bd 31cd 98be 374e 91be f981 70be
000001e0: c6b4 62be c38f a7be df32 94be 54ec a3be
000001f0: 7925 98be ab11 503e 5916 97be 97c4 58be
00000200: 6b5e 79be 6607 3dbe 64ac 4fbe 6114 8cbe
00000210: fd58 87be 30ec 89be 81b3 88be d582 69be
00000220: 6fb3 55be 0f20 88be bab7 a0be 2150 9bbe
00000230: 4799 4fbe 7008 60be c92a d7bd 96ec 6abd
00000240: 1360 4e3e 5829 51be d852 50be 954d 86be
00000250: 098e 41be b01c a4be ddcf 8dbe 8497 96be
00000260: d0de 81be 480f 10bf de86 81be e456 50be
00000270: 8992 a3be 1c7a 09bd cda4 65be fa11 88be
00000280: 7be1 84be 078d 8bbe 7260 cbbe 7e93 5ebe
00000290: 7c6e 63be 8e20 96be df42 613d 61ee 71be
000002a0: 6f43 a9be 2e7b 16bf db41 40be 2d5f fbbe
000002b0: c246 02be dc7c acbe 77a7 77be 11e6 43be
000002c0: 3530 b1be 292e 92be 712d 88be ed32 10bf
000002d0: f3c4 50be 47c1 ef3d cd88 83be 46fb c0be
000002e0: 134c 51be 9696 61be b2ec 9abe fb92 83be
000002f0: f531 97be fe43 8ebe 805d 2abe deb9 80be
00000300: eb14 8abe 4cdc cbbe 03f6 85be 7b5f 563e
00000310: d6f5 5ebe 7ca0 8ebe 4b2b 96be e45a 45be
00000320: 9dd9 80be 85ec 50be 079e 99be dedb 97be
00000330: 6de0 07bf c78d 5cbe 8105 6abe f46e abbe
00000340: 6d69 77be 01d1 82be da72 523e a2bc 8bbe
00000350: 6342 0ebf 987f b2be dda9 89be f21c 3cbe
00000360: 98c3 9fbe 31fd b7be 7351 89be 43db 88be
00000370: cc50 92be d2a0 85be 58f3 13bf 2dfe 2abe
00000380: 8d95 82be e783 6dbe df54 7abe d754 88be
00000390: a0ce 9ebe 2a26 c3bd 6645 98be dee1 85be
000003a0: 9a5e 86be d009 8bbe be96 93be 7f5f 77be
000003b0: 4d8f 89be 8e7a a5be ca01 a7be 9d5e 4cbe
000003c0: 3c17 97be 37b7 97be 007a 4f3e 5bb1 90be
000003d0: bb29 6cbe 5f28 87be ac82 9fbe 9cc7 3dbe
000003e0: e213 7abe e547 86bd 0834 05bf 48d6 83be
000003f0: f565 8fbe 9deb 84be 9556 e6be 75a9 c4bd
-0.23970915 -0.221346 -0.1732645 -0.27568758 -0.21588233 -0.28379717 -0.35422796 -0.26536232
-0.27891818 -0.21374115 -0.19030349 -0.21985145 -0.16434416 -0.61611104 -0.1893683 -0.4235196
-0.3701684 -0.45419988 -0.3577271 -0.19993666 -0.2754194 -0.3098098 0.05221522 -0.16749789
-0.195591 -0.18244214 -0.26267153 -0.29381987 -0.30403978 0.20230249 -0.2789383 -0.21064454
-0.20437789 -0.30133528 -0.5923735 -0.27707383 -0.2775409 -0.18947646 -0.625205 -0.3321758
-0.10891129 -0.20378496 -0.5422539 -0.5405865 -0.21167725 -0.2940896 -0.34172153 -0.30101976
-0.1972049 -0.2943492 -0.2774478 -0.29798886 -0.22022331 -0.041116636 -0.19959724 -0.13631535
-0.36105037 -0.26897785 -0.2271607 -0.3680694 -0.22442634 -0.30839092 -0.25930837 -0.19565235
-0.22942059 0.0059351143 -0.31869516 -0.2708624 -0.19750953 -0.28816456 -0.17440657 -0.293341
-0.25701353 -0.38666967 -0.3185359 -0.13788244 -0.31131583 -0.24766953 -0.30055538 -0.32096186
-0.22385977 -0.22270957 -0.23903085 -0.20218077 -0.2731112 -0.21514852 -0.2473221 -0.45065764
-0.26277316 -0.27054068 -0.26555607 -0.030097293 -0.30246985 -0.5776907 -0.20631748 -0.29942727
-0.2288309 0.19915181 -0.355516 -0.33744252 -0.24425738 -0.43476912 -0.23675755 -0.62437254
-0.17257215 -0.1849107 -0.24350876 -0.2870274 -0.25476566 -0.26918814 -0.35787958 -0.17220585
-0.20805912 -0.3744377 -0.12750618 0.061495822 -0.0375179 -0.2984405 -0.28379986 -0.2348708
-0.22139272 -0.3272687 -0.28945062 -0.32016242 -0.2971609 0.2031924 -0.29509237 -0.21168743
-0.24352424 -0.18459854 -0.20280606 -0.27359298 -0.2643508 -0.2693801 -0.2669945 -0.22803815
-0.2086923 -0.2658696 -0.31390172 -0.3033457 -0.20273314 -0.21878219 -0.105062075 -0.057354532
0.20153837 -0.20425928 -0.20344102 -0.26231065 -0.18901838 -0.32053137 -0.2769765 -0.29412472
-0.25365305 -0.5627332 -0.25298208 -0.20345646 -0.31947735 -0.03356372 -0.22426148 -0.26576215
-0.25953278 -0.27256033 -0.3972202 -0.21735951 -0.22210115 -0.29321712 0.054995414 -0.2362609
-0.3305926 -0.5878171 -0.18775122 -0.4909605 -0.12722304 -0.3368901 -0.24184977 -0.19130732
-0.34607092 -0.28550842 -0.2659717 -0.56327707 -0.2038763 0.117067866 -0.25690308 -0.37691706
-0.20439176 -0.220301 -0.3025871 -0.25698075 -0.29530302 -0.2778625 -0.1663723 -0.25141805
-0.26969084 -0.3981651 -0.26164255 0.2093486 -0.21773466 -0.27856815 -0.29329905 -0.19272953
-0.25166026 -0.20402725 -0.30003378 -0.29659933 -0.5307682 -0.21538459 -0.22853662 -0.33483088
-0.2416131 -0.25550082 0.20551625 -0.27292353 -0.5557005 -0.3486297 -0.26887408 -0.18370417
-0.31203914 -0.35935357 -0.26819953 -0.26729783 -0.28577268 -0.2609926 -0.5779319 -0.16698523
-0.25504723 -0.23194848 -0.24446438 -0.26627228 -0.31017017 -0.095287636 -0.29740447 -0.26148885
-0.2624405 -0.27155924 -0.28825945 -0.24157523 -0.26867142 -0.32320064 -0.32618552 -0.19957967
-0.29509914 -0.2963197 0.20261383 -0.2826031 -0.23062794 -0.26397988 -0.31154382 -0.18533176
-0.24421647 -0.065566815 -0.5203252 -0.2574942 -0.28007475 -0.2596101 -0.44987932 -0.09602634

net.2.weight f4 [256]
00000000: a646 103e 2fb0 4c3e cb72 2d3e c502 173e
00000010: 5ae0 293e d794 4f3e bbf3 1c3e e98e 3e3e
00000020: cb1a 323e 48fa 013e 1d48 193e 5f5a ce3d
00000030: d55e c13d 62bb 973e 4aec eb3d 3677 a23e
00000040: 976d 553e fd9e 653e 84d0 4b3e ece8 063e
00000050: fe30 e73d 709d d43d b22b e73c 08b2 0d3e
00000060: 331d 503e d493 5e3e 209f 363e 7519 4c3e
00000070: 76f0 4e3e 3ad1 1f3e a725 183e a59d 933d
00000080: 94c9 0f3e 2cbd 763e f5cb 6f3e 4d07 283e
00000090: 7b19 9e3d 9e76 423e e7d6 9e3e 6015 973e
000000a0: f36d 063e fe00 773e ca99 c33e b182 aa3e
000000b0: 0175 103e 73de 3a3e e6c6 693e 20ca 653e
000000c0: 56ce 6d3e 79a6 193e 050b cf3d ba1b db3d
000000d0: 139e f93d d509 0a3f 124a 5e3e 0d36 173e
000000e0: 3543 943e 2bdb 373e d833 003e d473 9f3e
000000f0: f310 0e3e d9e8 063e 3d7f 533e 2316 6a3e
00000100: 5d1c 5d3e 51a8 f03c b63a 143e 4e28 223e
00000110: b5a0 663e 2c36 593e da33 553e 89a7 f13e
00000120: aa3b f43d 65a2 af3e a4f7 963e 9c6b e83e
00000130: fa6c 603e 0f59 ee3d cf54 003e 89be 333e
00000140: f974 153e c7d8 183e 1fc7 113e 8e49 503e
00000150: daf2 043e 7fd5 113e 93a3 153e 51ac 3a3e
00000160: 2a3e 333e 969a 303e 6322 bf3d abab 023f
00000170: a081 623e 6280 0a3f 76dc 003e d086 283e
00000180: 14c1 293e b823 1f3e 628c 813e d8c9 3c3e
00000190: 578f 383e b5c4 833e 4580 ce3d ef13 993e
000001a0: 151f 0b3f 83da 243e 2a32 5f3e 23c4 1a3e
000001b0: 2ccd 403e 4499 3b3e bd48 863e 2a2b 203e
000001c0: 45c7 053e 1e77 933e 3d51 013e c7d3 053d
000001d0: 14de 023f 4d08 833e 52c4 113e 7e91 0d3e
000001e0: de9f 243e 49e6 843e b3b9 cc3d 5858 083e
000001f0: f41a 4e3e dc5c 223e f16e 353e d982 053e
00000200: 07a6 cb3d 12d1 083e 7828 e33d 195b 083e
00000210: ce89 163e f008 193e 345c 3f3e dd03 2b3e
00000220: 76fb 7d3e 773a 533e 8a1a 273e ccd7 2b3e
00000230: 1efe 6a3e 6a4c 0e3e a30e 323e 84c8 0a3e
00000240: 6404 203e 0866 163e 1f2b 133e 8138 073e
00000250: a4ee 4a3e 275e 293e 788c 4d3e 57ec 133e
00000260: 5b4c 443e fd10 003f 3d7b c53d faed 6e3e
00000270: daea 363e 119e f53d b73a 3d3e 9ca8 133e
00000280: a395 433e c428 0f3e 6511 b93e d5be d83d
00000290: 5cea 273e d8d4 063e aceb 1a3d 9117 103e
000002a0: 17a6 473e 18e1 023f 821b dd3d bd80 fa3e
000002b0: a3ae ed3d f9d0 4f3e 641b 693e 155f 743e
000002c0: 4e90 263e d844 ff3d b177 4c3e dbc7 f83e
000002d0: 4bbe 643e 5bc8 e83c d544 c63d 907b 463e
000002e0: 934b 9d3d 5185 113e 54c4 5a3e deed 343e
000002f0: 75ce 863e 3df5 1f3e 0719 403e e54f f93d
00000300: b3b3 313e 262d 8d3e d17f 333e d262 1e3e
00000310: fe58 4e3e 218d 3abe 9d8e 5b3e 15de 563e
00000320: 9f62 163e 69b5 9c3d e191 793e b001 403e
00000330: e1c4 cc3e 99a9 173e 2331 303e 1cdd 363e
00000340: 7fb0 113e 8823 1f3e bfcc 1b3e e2c3 573e
00000350: 6078 893e c427 033e 634c 203e 0264 d13d
00000360: 56ef 3c3e 327c 143e dcd7 213e cfc4 2f3e
00000370: 1156 0c3e 7119 0b3e a678 a53e ddf6 ef3d
00000380: 6570 0c3e 14d5 273e aaa6 1a3e 0c65 dd3d
00000390: de01 463e bac9 e53d 9a7f 283e 27e3 5f3d
000003a0: 49d6 b13d 115f 4b3e 605a 1c3e f06b b03d
000003b0: 465a 393e eb47 713e 11a5 4c3e b457 8e3d
000003c0: be5c 4a3e f8c9 b83d a053 1f3e 4d5e 253e
000003d0: 9f4a 103e 456b 303e 9a28 133e 4c61 203e
000003e0: aa4a 103e 2a10 0a3e 33ed 773e a171 443e
000003f0: 74c9 6d3e 86c1 2e3e de4a 323e ceea 123e
0.1408945 0.19989084 0.16938321 0.1474715 0.1658949 0.20271622 0.15327351 0.18609203
0.17393033 0.12693131 0.14968915 0.10075831 0.09441916 0.2963515 0.11519678 0.31731576
0.20842586 0.2242393 0.19903761 0.1317479 0.112886414 0.10381591 0.028219078 0.13837445
0.20323639 0.2173608 0.17834139 0.19931586 0.20208916 0.15607157 0.14858113 0.07207803
0.1404174 0.24095601 0.23417647 0.16409035 0.07719704 0.18990561 0.31023332 0.29508495
0.1312788 0.24121472 0.3820327 0.33302835 0.14107133 0.1824892 0.2282978 0.22440386
0.23223242 0.1500491 0.10109524 0.10698648 0.121883534 0.5392125 0.21707943 0.14766712
0.28957525 0.179547 0.12519777 0.31143057 0.13873653 0.13174762 0.20654006 0.22860007
0.21592851 0.029377135 0.14475521 0.15835688 0.22522242 0.21212071 0.20820561 0.47198132
0.119254425 0.34303585 0.2948581 0.453946 0.21916571 0.1163808 0.12532352 0.17553152
0.14595403 0.14926444 0.14236115 0.20340559 0.12983266 0.14241599 0.1461318 0.18229796
0.17504182 0.1724647 0.093327306 0.51043195 0.2211976 0.54102147 0.12584099 0.16457677
0.1657756 0.1554097 0.25302416 0.18436372 0.1802343 0.25736013 0.10083059 0.2989802
0.543443 0.1609898 0.2179648 0.15113883 0.18828267 0.18320185 0.2622737 0.15641466
0.13064297 0.28801817 0.12628646 0.03267267 0.51120114 0.2559227 0.14235047 0.13825032
0.1607661 0.25956944 0.09996357 0.1331495 0.2012747 0.15855736 0.17718102 0.13038196
0.099437766 0.13361004 0.11091703 0.13316001 0.14701006 0.14944816 0.18687516 0.16700692
0.24802956 0.20627771 0.16318718 0.16781539 0.229485 0.13896337 0.17388396 0.13553053
0.15626675 0.1468736 0.14371918 0.13205148 0.19817597 0.16539823 0.20073116 0.14445625
0.19169752 0.5002592 0.096426465 0.23332968 0.17863026 0.119930394 0.18479429 0.14419788
0.1910005 0.13980395 0.36146083 0.10583273 0.16397995 0.13167131 0.03782241 0.1407149
0.19496952 0.51124716 0.10796262 0.48926345 0.11605575 0.2029456 0.22764355 0.23864396
0.16265985 0.12464303 0.19967534 0.48589978 0.22338216 0.02841585 0.096810974 0.19383073
0.0768043 0.14211012 0.21363956 0.17668864 0.2632939 0.15620895 0.18759547 0.12173442
0.17353706 0.27573508 0.17529227 0.15467384 0.20151135 -0.18217899 0.21441121 0.20983155
0.14686058 0.07651789 0.24372055 0.18750644 0.39993957 0.1481079 0.17206244 0.17857784
0.14227484 0.15540898 0.15214823 0.21070817 0.2684965 0.12808138 0.15654139 0.10224153
0.18450674 0.14500502 0.15805 0.1716492 0.13704707 0.13583924 0.3231861 0.11717007
0.1371475 0.16389877 0.1510264 0.10810289 0.1933665 0.11220117 0.16454926 0.05465999
0.0868345 0.19860484 0.1526885 0.086143374 0.18100843 0.23562591 0.19984843 0.06950322
0.19761941 0.090228975 0.15559244 0.16149254 0.14090966 0.1722842 0.14370957 0.15662116
0.14090982 0.13482729 0.24211578 0.19183971 0.2322138 0.17066011 0.17411372 0.14347383

net.2.bias f4 [256]
00000000: 0cf0 0a3d cf42 333d f32b 6b3c d049 d43c
00000010: e7e1 ef3c 5e21 513d 2d8b ab3c 0bf0 303d
00000020: c689 3b3d 9ed9 af3c 9c81 0e3d 003e a23c
00000030: 6b05 023c 8959 893d 024f cdba 08e0 a23d
00000040: d4b7 323d f3b9 2d3d 4aee 423d 2824 8d3c
00000050: 9045 d03c 5c2c e03c be52 7bbd deac 5b3c
00000060: 6c8f e53c 7fb1 2d3d 01d4 163d 20c6 1e3d
00000070: 5ab8 603d dca6 04bf 942f e73c a255 1abc
00000080: 5d16 e13c 9730 813d f844 593d 15db 093d
00000090: 6037 c83b 5eaf e03c 54c0 b33d 9ca0 9b3d
000000a0: b5ff 6a3b 3c18 203d 8f27 c13d 64e7 9e3d
000000b0: 98cf 763c f0ff 1f3d f913 4f3d 9758 513d
000000c0: 5e89 0f3d faec 513d 2092 833c 93b8 c93c
000000d0: 02b9 413c 31f8 143e 5176 103d e3bd 063d
000000e0: a328 913d 2c22 213d 4abd 9c3c 26b2 b23d
000000f0: af74 c33c 806d 1d3d 81db 563d d6bd 0d3d
00000100: 839d 503d 50f3 57bd 156a 963c 4cce 153d
00000110: adf1 363d 8f49 4e3d a8df 243d 2c9d 053e
00000120: 380c d63c 7981 bd3d b0b9 903d 110a f73d
00000130: 6d36 3f3d be50 883c aed1 e93c 2f6c 2f3d
00000140: f5e2 bb3c 8ae5 e63c 5517 e33c cc78 ed3c
00000150: 413f 123d 650c ce3c 9a8c 7f3c 7943 123d
00000160: b2b3 3e3d 2df7 313d 68b3 223c 4dac 0f3e
00000170: 03f7 6e3d 41a7 143e 951a 9e3c 1869 073d
00000180: 7664 1b3d 1862 00bf 6b66 8a3d 33dd 493d
00000190: 5dcb 253d 2454 6d3d 621d 703c 23f6 8e3d
000001a0: e870 143e 44b9 023d 2895 4e3d 7f72 053d
000001b0: 82a4 2d3d 71f8 053d 7e24 7f3d b9e9 e13c
000001c0: 7fa8 cc3c 565f 993d f40c 893c 28e4 7bbd
000001d0: 9f9b 103e 5bcc 823d cbb8 fa3c 3f9f a03c
000001e0: 7cdf dc3c 9fdf 5a3d 797a bd3c 31a4 603c
000001f0: 5a69 4f3d 68b2 08bf 54b3 243d 9b5c d33c
00000200: dde6 a13c 9787 5c3c 98bb 963c eb31 4c3c
00000210: 291b f93c b18e fd3c 39b3 493d fae5 f93c
00000220: 88b8 2d3d 732d 623d 5d2b 313d eb5e 133d
00000230: 39cf 283d d8bb e83c 9d24 223c 5037 fdba
00000240: 54de 04bf eb9e ed3c b2c5 933c 0f55 db3c
00000250: 1b4d e93c acbe 2d3d faa3 263d feeb e53c
00000260: 1a08 333d 74cd 083e 24ca a43c fc52 193d
00000270: 7cef 323d d7c4 1b3b 1929 183d 2d89 ef3c
00000280: 8352 463d 78b2 c73c fbd0 c93d 3b82 823c
00000290: a85e ef3c ddf1 b13c a2ef 64bd 336f cc3c
000002a0: 36b1 393d 8586 063e 227f a23c 9a16 083e
000002b0: 21d5 4c3c 6ff5 493d f2fe 653d 4b4c 303d
000002c0: eddf f83c f9f4 e23b d799 313d 62b0 f63d
000002d0: 0d8b 413d dabb 9fbd e866 ab3c 702c 293d
000002e0: a393 473c 46d1 9c3c f47c 363d 15eb 2f3d
000002f0: c017 8e3d 15d8 293d 6584 283d 203b b23c
00000300: c22a 1e3d 6ecd 703d 7800 203d aeb7 03bf
00000310: 95fa 2c3d c0fa 1bbd 929d 3f3d 4945 023d
00000320: 254a 143d 2879 423c bcad 853d 98ec 423d
00000330: 1562 c43d 6d24 b83c 8e57 173d f4d0 3e3d
00000340: bab2 d43c 2f45 1a3d 96c9 01bf 4889 403d
00000350: 5bf5 7c3d 14f0 ac3b 2131 213d d337 cd3b
00000360: 3aaa 523d b424 c03c d609 fa3c a0eb 2d3d
00000370: 7bda e03c 90a3 bb3c d9bb 9d3d 4b35 d83b
00000380: 3c39 a93c 3554 073d a80a 2e3d 0e08 c63c
00000390: b185 403d d588 1abc 9fb5 ff3c f87a abbb
000003a0: 293f 533c 19d0 383d 566d df3c b72a 5b3c
000003b0: 6009 153d ec0b 763d 7aee 243d 2e22 243a
000003c0: 066f 3a3d 76d3 d23b e7fb 01bf 5968 d93c
000003d0: d21d bd3c 6120 303d 575e ec3c d72f ac3c
000003e0: a4d0 c13c 30d2 f33b 16b6 543d 858d 2b3d
000003f0: dc21 5b3d 51d5 213d dcee 0d3d c510 013c
0.033920333 0.043764886 0.01435374 0.025914103 0.029282523 0.051057212 0.020940388 0.043197673
0.045785688 0.021466073 0.034791574 0.019804955 0.007935862 0.067065306 -0.0015663805 0.07952887
0.043632343 0.042413663 0.04759053 0.017229155 0.025423795 0.027364902 -0.061358206 0.013407914
0.02802249 0.0424056 0.036823276 0.038763165 0.05486331 -0.5181711 0.02822093 -0.0094198305
0.027476484 0.06308096 0.05304429 0.0336562 0.006110117 0.027427372 0.08776918 0.07598993
0.003585798 0.03908561 0.09431373 0.07758978 0.015064143 0.03906244 0.050556157 0.051109876
0.035043113 0.05125139 0.016060889 0.024624145 0.011823894 0.14547803 0.035269085 0.032895934
0.07087829 0.03933923 0.019133229 0.08725385 0.02385935 0.038434505 0.05245543 0.03460487
0.050931465 -0.052722275 0.01836113 0.036573693 0.044664074 0.05036312 0.040252358 0.13048238
0.026128873 0.092532106 0.07066667 0.12062467 0.046682764 0.016640063 0.028542366 0.04282778
0.02293537 0.028185625 0.027721087 0.028988265 0.035704855 0.025152395 0.015597487 0.03570888
0.04655809 0.043448616 0.009930469 0.14030571 0.058341037 0.14516927 0.019299785 0.03305921
0.037937604 -0.5014968 0.06757816 0.049283218 0.040477145 0.05794157 0.014655443 0.069805406
0.14496195 0.031914964 0.050435215 0.032579895 0.042393215 0.032707635 0.06229066 0.027577268
0.024982689 0.07488887 0.01672981 -0.061496884 0.14121865 0.06386634 0.030605694 0.019607184
0.026962034 0.053435918 0.023129689 0.013711021 0.05063758 -0.53397226 0.040210083 0.025800994
0.019763405 0.0134600615 0.018399999 0.012463073 0.030408459 0.03095183 0.049243186 0.03050517
0.04241231 0.055219125 0.043254245 0.035979193 0.041213248 0.028409883 0.009896425 -0.0019318853
-0.51901746 0.029006442 0.018038604 0.026773958 0.02847915 0.042418167 0.040683724 0.028066631
0.043708898 0.13359624 0.02011592 0.037432656 0.04368542 0.0023768449 0.03714857 0.029240215
0.048418533 0.024377093 0.09854313 0.01593124 0.02921994 0.021721775 -0.055892594 0.024955368
0.045335017 0.13137253 0.019836012 0.13289872 0.012501986 0.04930633 0.056151338 0.04304151
0.030380214 0.0069261757 0.043359604 0.12045361 0.04725175 -0.07799502 0.020923093 0.041302145
0.012181195 0.019142758 0.04455276 0.0429488 0.06938124 0.041465838 0.041141886 0.021756709
0.038614996 0.058789663 0.039062947 -0.5145215 0.04223116 -0.03808093 0.04678113 0.031804357
0.036203522 0.011869706 0.06527278 0.047588915 0.0958902 0.022478307 0.036948733 0.046585992
0.02596413 0.037663635 -0.5069822 0.04700592 0.061757427 0.005277643 0.039353494 0.0062627583
0.051431872 0.023455001 0.030522268 0.042461038 0.02744793 0.022905141 0.07701845 0.00659815
0.020657174 0.03303929 0.04249063 0.024173763 0.047002498 -0.009432037 0.031214533 -0.005233165
0.0128934765 0.045120332 0.027273815 0.013376883 0.036385894 0.060069963 0.04026649 0.00062611967
0.045516036 0.0064338995 -0.50775 0.026539015 0.023085508 0.04299963 0.028853578 0.021018906
0.023659058 0.007440828 0.051931463 0.04188301 0.053499088 0.039510075 0.034651622 0.007877533

net.4.weight f4 [256, 256]
00000000: ff5a 0500 4c59 0500 1d61 0500 555b 0580
00000010: fa5b 0500 c75c 0500 1b63 0500 b860 0500
00000020: 355a 0580 5a60 0580 ee5f 0500 935c 0500
00000030: 5f5a 0580 2c59 0500 9a5c 0500 785e 0580
00000040: 655c 0580 0d5e 0500 ab62 0500 ba57 0500
00000050: d759 0500 4363 0500 e757 0580 c15c 0500
00000060: 7f63 0580 1e5f 0580 8263 0500 375f 0500
00000070: 165e 0500 2960 0500 df60 0500 9b60 0500
00000080: 8f5a 0500 665a 0500 9d5c 0500 8d63 0580
00000090: 8058 0500 235e 0500 b35b 0500 5d61 0500
000000a0: 805d 0500 fb57 0580 1359 0500 175e 0500
000000b0: 2f61 0500 7f62 0500 e35a 0500 5e61 0580
000000c0: 2c5d 0580 ed5d 0580 5961 0500 0c5a 0500
000000d0: 9759 0500 6f5d 0500 9061 0580 1d5c 0580
000000e0: 1458 0500 6f5b 0500 d15d 0580 dd57 0500
000000f0: c858 0580 df58 0500 3d60 0500 815e 0500
00000100: db5b 0500 a95d 0580 c659 0500 525f 0500
00000110: c45c 0580 9662 0500 0462 0580 2460 0500
00000120: 1d5b 0500 9a5d 0580 a95e 0500 9b5f 0500
00000130: 1c5d 0500 4760 0500 1464 0580 b661 0500
00000140: 1561 0500 315c 0500 af61 0500 9460 0580
00000150: 0e5e 0580 3a61 0500 f661 0500 a35e 0500
00000160: 425c 0500 8461 0500 ba83 0500 275f 0500
00000170: 3f5e 0500 075a 0500 2a61 0500 8978 0500
00000180: d95f 0580 7c60 0500 f05f 0500 a662 0500
00000190: f357 0500 bd61 0500 3560 0580 ce5a 0580
000001a0: 6f61 0500 3161 0500 e260 0500 9e5b 0580
000001b0: 005d 0500 6e60 0500 8063 0580 b459 0500
000001c0: 055d 0500 f761 0500 5a5d 0500 d260 0580
000001d0: a960 0500 f05a 0500 1063 0580 985b 0500
000001e0: 845d 0500 9d57 0500 9d60 0500 e45d 0500
000001f0: d858 0580 535a 0500 515a 0500 1e5f 0500
00000200: b75b 0580 4b57 0580 275c 0500 0d5c 0500
00000210: 8e63 0500 4260 0500 ec59 0500 b159 0500
00000220: 8557 0580 6762 0500 515f 0580 395f 0500
00000230: e25d 0580 6360 0580 8f5c 0500 4f5f 0580
00000240: 505d 0500 c55a 0500 ae5a 0500 185e 0580
00000250: 7163 0500 645f 0500 365c 0500 0e5c 0580
00000260: 3c61 0500 0b59 0500 4b5b 0580 cf5d 0580
00000270: d261 0500 ef5a 0500 f15b 0500 9861 0500
00000280: 105f 0580 b95e 0500 cd5b 0500 2f5d 0500
00000290: a361 0500 3360 0500 375c 0580 bc5e 0500
000002a0: e759 0500 8f5d 0500 1858 0500 3359 0500
000002b0: b762 0500 8c58 0500 b15c 0580 df5a 0500
000002c0: 6c58 0580 1f5f 0500 1161 0580 1f62 0500
000002d0: 135f 0580 1558 0500 8e61 0580 8657 0500
000002e0: a45c 0580 fc61 0500 f057 0500 085f 0500
000002f0: 9961 0500 c05b 0500 e65c 0500 205f 0500
00000300: 585d 0500 1e5b 0500 5a57 0500 a759 0500
00000310: 725e 0500 145f 0580 a15e 0500 e260 0500
00000320: 5e60 0500 085e 0580 9d62 0580 f158 0500
00000330: d460 0500 b25b 0500 0e5b 0500 285b 0580
00000340: 8a61 0580 635c 0500 2d58 0500 965f 0500
00000350: 7161 0500 225b 0500 245e 0580 995b 0500
00000360: ce5f 0500 6463 0500 b85a 0500 535f 0500
00000370: 8e59 0580 7b59 0500 0f5b 0500 5857 0580
00000380: 9d60 0580 b25f 0500 3b62 0580 245a 0580
00000390: f85b 0500 b55f 0500 be5a 0580 375c 0500
000003a0: 6f58 0580 5b62 0500 4d61 0500 c65d 0500
000003b0: 755d 0500 6a57 0580 c96d 0600 1c5c 0500
000003c0: e659 0500 d262 0500 5f58 0500 0d5f 0500
000003d0: 985b 0580 4c5d 0500 8063 0500 7b5b 0500
000003e0: 1961 0500 f259 0500 0c5a 0500 0a5a 0500
000003f0: d85a 0500 7c61 0500 9958 0500 cb61 0500
4.91821e-40 4.91211e-40 4.94015e-40 -4.91941e-40 4.92172e-40 4.9246e-40 4.9473e-40 4.93874e-40
-4.91538e-40 -4.93742e-40 4.9359e-40 4.92387e-40 -4.91597e-40 4.91166e-40 4.92397e-40 -4.93066e-40
-4.92322e-40 4.92917e-40 4.94573e-40 4.90648e-40 4.91406e-40 4.94786e-40 -4.90711e-40 4.92451e-40
-4.9487e-40 -4.93299e-40 4.94874e-40 4.93334e-40 4.92929e-40 4.93673e-40 4.93928e-40 4.93833e-40
4.91664e-40 4.91606e-40 4.92401e-40 -4.9489e-40 4.90925e-40 4.92947e-40 4.92073e-40 4.94105e-40
4.92719e-40 -4.90739e-40 4.91131e-40 4.9293e-40 4.9404e-40 4.94511e-40 4.91781e-40 -4.94106e-40
-4.92601e-40 -4.92872e-40 4.94099e-40 4.9148e-40 4.91316e-40 4.92695e-40 -4.94176e-40 -4.92221e-40
4.90774e-40 4.91978e-40 -4.92832e-40 4.90697e-40 -4.91026e-40 4.91058e-40 4.93701e-40 4.93079e-40
4.92129e-40 -4.92776e-40 4.91382e-40 4.93372e-40 -4.92456e-40 4.94543e-40 -4.94339e-40 4.93666e-40
4.91863e-40 -4.92755e-40 4.93135e-40 4.93474e-40 4.92579e-40 4.93715e-40 -4.95079e-40 4.9423e-40
4.94004e-40 4.9225e-40 4.9422e-40 -4.93823e-40 -4.92918e-40 4.94056e-40 4.94319e-40 4.93127e-40
4.92273e-40 4.9416e-40 5.06432e-40 4.93312e-40 4.92987e-40 4.91473e-40 4.94033e-40 5.02417e-40
-4.93561e-40 4.9379e-40 4.93593e-40 4.94566e-40 4.90728e-40 4.9424e-40 -4.9369e-40 -4.91752e-40
4.9413e-40 4.94043e-40 4.93932e-40 -4.92044e-40 4.9254e-40 4.9377e-40 -4.94871e-40 4.91357e-40
4.92547e-40 4.9432e-40 4.92666e-40 -4.9391e-40 4.93853e-40 4.918e-40 -4.94714e-40 4.92035e-40
4.92725e-40 4.90607e-40 4.93836e-40 4.92859e-40 -4.91049e-40 4.9158e-40 4.91577e-40 4.93299e-40
-4.92079e-40 -4.90492e-40 4.92236e-40 4.92199e-40 4.94891e-40 4.93708e-40 4.91435e-40 4.91353e-40
-4.90574e-40 4.94478e-40 -4.9337e-40 4.93337e-40 -4.92856e-40 -4.93755e-40 4.92381e-40 -4.93368e-40
4.92652e-40 4.9174e-40 4.91707e-40 -4.92932e-40 4.9485e-40 4.93397e-40 4.92257e-40 -4.922e-40
4.94059e-40 4.9112e-40 -4.91927e-40 -4.9283e-40 4.94269e-40 4.91798e-40 4.9216e-40 4.94188e-40
-4.9328e-40 4.93158e-40 4.9211e-40 4.92605e-40 4.94203e-40 4.93687e-40 -4.92258e-40 4.93162e-40
4.91428e-40 4.9274e-40 4.9078e-40 4.91176e-40 4.9459e-40 4.90942e-40 -4.92429e-40 4.91776e-40
-4.90897e-40 4.933e-40 -4.93998e-40 4.94377e-40 -4.93284e-40 4.90775e-40 -4.94174e-40 4.90575e-40
-4.9241e-40 4.94328e-40 4.90724e-40 4.93268e-40 4.94189e-40 4.92091e-40 4.92503e-40 4.93302e-40
4.92663e-40 4.91864e-40 4.90513e-40 4.91339e-40 4.93058e-40 -4.93285e-40 4.93124e-40 4.93932e-40
4.93748e-40 -4.9291e-40 -4.94553e-40 4.91084e-40 4.93913e-40 4.92072e-40 4.91842e-40 -4.91878e-40
-4.94168e-40 4.9232e-40 4.90809e-40 4.93467e-40 4.94133e-40 4.9187e-40 -4.92949e-40 4.92037e-40
4.93546e-40 4.94832e-40 4.91721e-40 4.93373e-40 -4.91304e-40 4.91277e-40 4.91843e-40 -4.9051e-40
-4.93836e-40 4.93506e-40 -4.94416e-40 -4.91514e-40 4.9217e-40 4.9351e-40 -4.9173e-40 4.92258e-40
-4.90901e-40 4.94461e-40 4.94082e-40 4.92817e-40 4.92704e-40 -4.90536e-40 5.90396e-40 4.9222e-40
4.91427e-40 4.94628e-40 4.90879e-40 4.93275e-40 -4.92035e-40 4.92646e-40 4.94871e-40 4.91994e-40
4.9401e-40 4.91444e-40 4.9148e-40 4.91477e-40 4.91766e-40 4.94148e-40 4.9096e-40 4.94259e-40

net.4.bias f4 [256]
00000000: 660a 23a1 597c 67bd ba96 6abd f82e 53bc
00000010: a2c1 32bd 7118 04be a49f c2bd 474f e6bd
00000020: 9861 99bd 7f6d 64bd c341 08be 6259 9dbd
00000030: 05af f6bd 9540 a7bd f87e acbd f73f b0bd
00000040: 2143 24bd 55af b0bd 3895 4dbd 6a13 babb
00000050: 72f1 d8bd 908f f9bd 5395 94bd ebd3 24bd
00000060: efd8 ddbd a367 f5bb fd80 b5bd c47e 1bbe
00000070: 0f7f 9abd 2f0c 26bd d251 81bd c04a 09be
00000080: cda7 43bd 6be7 2cbd 8a8c ccbd 037b 8abd
00000090: f43e d5bd fdd9 42bc 2782 efbd bc82 93bd
000000a0: 6845 bcbd dd5b 08be 0a76 a7bd 4cd9 32bc
000000b0: 815b 19be 6406 9bbd cea0 8cbd e583 01be
000000c0: 506b 90bd 98b6 89bd 207e 0ebe 4c7b 16be
000000d0: 155e 10be 6270 80bd b658 84bd 0e93 32be
000000e0: a94e 74bd 531f 803c d6a1 8ebd 3f48 c3bd
000000f0: cf9e 85bd 00c0 ecbd b821 52bd d09a b7bd
00000100: 901b d3bd 8209 f3bd 5d69 d0bd 7398 33be
00000110: 7c96 16be c558 0cbe f680 15be 34c9 02be
00000120: 044d b3bd 1aeb dabd 7421 ebbd 7357 efbd
00000130: c634 a1bd a473 3ebd a108 9ebd b362 d6bd
00000140: cde3 44be 1fb7 c2bd 6705 d6bd cfc6 f6bd
00000150: 2882 60bd 6956 13be 469e adbd 17b5 9ca8
00000160: 64e1 bbbd ded0 c4bd dad1 fbbc 5a82 df9e
00000170: 689e 8cbd 47ae bfbd 3b5b 09bd 840a a4bd
00000180: 430c 9dbd da67 4cbd dd8f 6dbd 6d03 1abd
00000190: 0e1c cbbd 561b 3cbd af52 98bd 9c72 0fbe
000001a0: 4ecd 589d 42d5 ce3b 8502 b3bd 50d7 69ba
000001b0: 03c7 a2bc b60f 6cbd ea9a 1ebc f053 53bd
000001c0: dd42 f6bd 9b30 13be b8f8 41bd 2528 acbd
000001d0: e2e6 37bc 67c0 aebd 91d9 ebbd 7d15 91bd
000001e0: 168a e6bd d561 34bd edbe 87bd 45b8 c8bd
000001f0: a642 d5bd 29a7 31bd 3bde d4bd 2f63 9cbd
00000200: ad7a 72b5 09b9 f7bd 4cd4 edbd 665b 12bd
00000210: 7ac0 a5bd f954 05b0 26cd 3ebd 51cf 10be
00000220: 1d32 bcbd e17a acbd 23de 3dbd da12 c0bd
00000230: 66d6 f9bd 7d9f fabd cbb2 9cbd af26 7fbe
00000240: a539 16be f6b5 93bd e31c 85bd bbdb e4bd
00000250: a016 e7bc 4ad1 cdbd 10aa cfb7 ccfd 74bd
00000260: 08f2 84bd 9fb0 85bd 81f8 2bac f316 f1bd
00000270: 4c1e abbd 78e3 6cbd d88a 95bd 76a7 d2bb
00000280: 0143 9ebd cd40 8dbd 4e2c 80bd 48f4 04be
00000290: bcc1 4abd 7090 9cbd 0844 bbbd 2159 15be
000002a0: 7435 c8bd 09f2 90bc 9898 01be 843f f1bd
000002b0: 8f1a c3bd 147f adbd a77f f1bd 1d78 1bbc
000002c0: d496 bdbd b455 9bbd 8af4 12bd 195a edbd
000002d0: e6b5 da3b 7e1c ddbc 3f4c f5bc d562 43bd
000002e0: 2129 e9bc 9b30 66a2 d4f5 d0bd 50e1 a8bd
000002f0: b3e7 dfbd 0c64 bebd ba0f bcbd 8809 45bc
00000300: edaf 4dbe 498f dbbd 6514 1fbe 07aa ebbd
00000310: cb4b 3fbd 2d6e aabd e5f2 00be 4094 dbbd
00000320: 2a1d edbd 93d9 d0bd 86a9 98bd 33cd 4cbd
00000330: 5b20 89bd d6fb 0fbe a253 38bd 1fb3 19be
00000340: ad2c 09bd 8737 aabd 4fdd 80bd ad75 a1bd
00000350: 7336 81bd 7899 d7bd 64ea 68bd a679 e4bd
00000360: 182f d4bd a3aa a9bd fb04 67be f34f e5bd
00000370: e560 b9bd 9dcb e4bd 7d3e 1abe f792 c5bd
00000380: 2845 50bd 9a6b 83bd 377f 99bd b736 79bd
00000390: bc45 c8bd d4f0 debd b9ff 2bbe 7f76 67bd
000003a0: e58b 0abc e093 e7bd 2496 50bd fb37 9bbd
000003b0: d48e 5ebd 0e4c 1fbd 91db 8ebd 14b8 b5bd
000003c0: 37e1 ecbc 1a9d 9fbd 1ee7 bbbd 67f4 eabd
000003d0: 50ea d7bd 6aac c9bd 7c20 0dbe 6234 cabd
000003e0: 2bca a5bd c0ef bdbd 578a 34bd f556 c2bd
000003f0: 97a9 d0bd 70be c7bd f6d3 a7bd 6f22 9fbc
-5.524031e-19 -0.05651507 -0.05727265 -0.012889616 -0.043641694 -0.12899949 -0.09503105 -0.1124559
-0.07489318 -0.055768486 -0.13306336 -0.07683064 -0.12045101 -0.08166615 -0.08422655 -0.0860595
-0.04010308 -0.08627192 -0.050191134 -0.005678584 -0.10592927 -0.121855855 -0.07255044 -0.040241163
-0.108323924 -0.007489161 -0.08862493 -0.15185076 -0.07543766 -0.040538963 -0.06314434 -0.13407421
-0.04776745 -0.042212885 -0.09987743 -0.06761744 -0.10412398 -0.011892793 -0.116947465 -0.0720267
-0.09192926 -0.13316293 -0.08176811 -0.010916065 -0.14976312 -0.07569578 -0.068666086 -0.1264797
-0.07051718 -0.0672428 -0.139153 -0.14695472 -0.1409839 -0.06271435 -0.06462233 -0.1743891
-0.05964533 0.015639937 -0.069644615 -0.09535264 -0.06524431 -0.115600586 -0.051301688 -0.08965075
-0.103079915 -0.11867048 -0.101763465 -0.17538624 -0.14705843 -0.13705738 -0.14599976 -0.12772065
-0.08754924 -0.10689373 -0.1148099 -0.116866015 -0.07871394 -0.046497002 -0.077164896 -0.10468044
-0.19227524 -0.09507584 -0.10450249 -0.120496385 -0.054811627 -0.14388432 -0.08477454 -1.7398014e-14
-0.09173849 -0.09610151 -0.030739713 -2.3664956e-20 -0.06866151 -0.09359413 -0.03353427 -0.08009818
-0.07668354 -0.049903728 -0.057998527 -0.037600923 -0.099174604 -0.045924507 -0.07437646 -0.14008564
-2.8693502e-21 0.0063120434 -0.08740715 -0.00089203287 -0.019870287 -0.05763217 -0.009680489 -0.05159372
-0.12024472 -0.1437401 -0.047356337 -0.084060945 -0.01122448 -0.085327916 -0.11516107 -0.07084177
-0.112568066 -0.044038612 -0.06628213 -0.098007716 -0.10413103 -0.043372307 -0.103939496 -0.07636105
-9.033054e-07 -0.120958395 -0.11612758 -0.035731696 -0.080933526 -4.850587e-10 -0.046582364 -0.14141585
-0.09189246 -0.08421875 -0.046354424 -0.09378596 -0.121990964 -0.12237451 -0.076512896 -0.249171
-0.14670427 -0.07212441 -0.0649965 -0.11174723 -0.02820903 -0.10049684 -2.4755514e-05 -0.059812352
-0.06491476 -0.065278284 -2.443851e-12 -0.11771955 -0.08355388 -0.05783412 -0.07301873 -0.0064286543
-0.07727624 -0.068971254 -0.062584504 -0.12983811 -0.049501166 -0.07644737 -0.09143835 -0.14584781
-0.097758204 -0.017693536 -0.12655866 -0.11779693 -0.0952655 -0.08471504 -0.11791926 -0.009489086
-0.09257284 -0.07584706 -0.035877742 -0.115894504 0.006674516 -0.026991125 -0.029943584 -0.047701675
-0.028461995 -3.1196544e-18 -0.10203138 -0.082461 -0.10932865 -0.09296426 -0.09182687 -0.012026198
-0.20086642 -0.10720689 -0.15535124 -0.115070395 -0.04670314 -0.083217956 -0.12592657 -0.10721636
-0.11577828 -0.10197749 -0.07454209 -0.05000038 -0.066956244 -0.14060912 -0.045001633 -0.15009736
-0.03348987 -0.08311372 -0.06292211 -0.07883773 -0.063092135 -0.10527319 -0.056864157 -0.11156015
-0.10360545 -0.082844995 -0.22560494 -0.1119689 -0.09051684 -0.11171649 -0.150629 -0.09647172
-0.050847203 -0.06417008 -0.074949674 -0.060843196 -0.09778926 -0.10885778 -0.16796769 -0.05650949
-0.008456205 -0.11307502 -0.050924435 -0.07579037 -0.05433543 -0.03889089 -0.06975473 -0.08873001
-0.028915985 -0.077936366 -0.091749415 -0.11472397 -0.105427384 -0.098473385 -0.13781923 -0.098732725
-0.08095201 -0.09274244 -0.044077244 -0.09489242 -0.10188597 -0.0975312 -0.08194725 -0.019425599

net.6.weight f4 [256]
00000000: e073 d13e 958d 9f3e a8a6 1e3e e461 8c3e
00000010: 5604 a73e d88c f33e 78f2 8b3e 986f 813e
00000020: 45b0 8b3e 983f a93e 19ab 9b3e e4f0 803e
00000030: c7d5 d33e 4965 993e b98f ac3e a003 7b3e
00000040: 258a 013f 1076 9c3e 308a 013f 78a1 983e
00000050: 6003 b13e 1e30 eb3e a13e d03e 63f6 943e
00000060: cf88 fb3e e1e2 8a3e 8916 8e3e bf93 fb3e
00000070: ed97 813e 4173 8d3e 5e96 983e c93a 123f
00000080: 718d a53e a068 9a3e 9e00 6e3e 56a4 f83e
00000090: d7b6 e93e c169 873e 113b dd3e 9c57 9a3e
000000a0: d8c3 573e 1387 e93e 429a 953e bc2e 843e
000000b0: e6e2 a83e aae1 4f3e ed53 9b3e fdfe 063f
000000c0: a773 ab3e 58ff 9d3e e892 e03e 16e9 ea3e
000000d0: 0a89 863e c8d4 933e a2ed f53e a1d5 033f
000000e0: d9ee 9d3e 2da2 383d 9055 a23e 3379 ad3e
000000f0: 4442 863e 7945 be3e d368 963e ad02 a03e
00000100: efeb a93e d0e8 ad3e 357b 863e 3f7c bebe
00000110: dc34 d73e a084 003f f937 f83e 8b09 f33e
00000120: 25cd 8c3e 90c5 f43e 3005 ec3e 44a3 0d3f
00000130: dfc1 773e daba 853e af63 953e 70d5 853e
00000140: cdbe 023f 2df3 893e d49f 883e 7d8b 5a3e
00000150: a1b5 9a3e 5e32 e53e 5d8a a33e 55af 003f
00000160: 3c70 a23e 5a55 e43e 4809 8a3e 3995 063f
00000170: e6e5 813e 3304 813e 1003 913e 8f61 713e
00000180: c199 ca3e 399b 7b3e 9c3b 943e 17cd aa3e
00000190: 11b1 ba3e 37b6 8f3e e227 a23e ecb5 eb3e
000001a0: 4884 053f 65c3 d23d 4045 8c3e 1582 f73e
000001b0: c67a f83e f702 883e 6003 873e bfd1 e03e
000001c0: ceaf 9a3e afc0 f03e 208d 793e 3066 8c3e
000001d0: 443f b03e f0e8 b23e 6031 8a3e 9758 a83e
000001e0: 2ccc a23e 277a 913e 5218 823e a397 c43e
000001f0: d691 8c3e 9aa6 983e d73a f73e c723 743e
00000200: ef00 fc3e 06fd 793e 13a6 e83e 8fc1 8f3e
00000210: f357 883e 0a97 ef3e 21e5 973e 6029 fa3e
00000220: b263 653e 0e6f 7d3e 055c a73e d3ef 843e
00000230: ded1 df3e 5d1b 063f 4ee4 933e 9a23 eb3e
00000240: d0d3 d33e 1957 8b3e 8c42 823e 7fb2 9f3e
00000250: 312d fa3e b2f4 c23e de02 f73e 7e26 863e
00000260: 50d1 cb3e 64e6 973e d349 fb3e 741a 663e
00000270: 977f 913e d3e9 a23e 8d48 923e 224f f63d
00000280: 5182 c03e 2c90 843e a16e 8b3e 2521 a73e
00000290: 5bbf 833e 5bd6 8b3e f07e 873e 35d9 f13e
000002a0: b439 943e c6a8 a23e 4e12 ef3e 1d16 8e3e
000002b0: 364f eb3e cde1 963e e8b7 c03e 714f 853e
000002c0: 6ce3 813e 3885 8b3e f0b7 e83e 32d3 c03e
000002d0: 8adb fd3d 6611 8d3e 608a ee3e 4514 913e
000002e0: 0a9f eb3e 61d1 053f 52e1 ba3e 4fad 663e
000002f0: 8537 e73e 743a ab3e 144c 643e 00cb cc3d
00000300: b0ec 0f3f da27 e23e ab50 c03e 0138 9f3e
00000310: 89ef bb3e 0e49 8e3e dbe2 ab3e 4ca9 943e
00000320: 3525 a33e 1e67 9c3e 1293 983e 8dc5 8e3e
00000330: 8c68 a13e 7f1b 003f d693 933e 165c 033f
00000340: e986 883e a440 ae3e c32a 6f3e 1998 b83e
00000350: 5ab4 5d3e 0bf9 e83e bc05 923e 9a5f 093f
00000360: 556d 923e c437 913e 85bb d33e 32a0 d43e
00000370: 66fb ae3e 7d7e bc3e 1096 8d3e 9606 cc3e
00000380: 8772 b03e 2269 d93e abca a13e b087 f43e
00000390: 4204 ab3e 2791 f33e 4898 a33e 9724 453e
000003a0: 5132 753e d0df 833e b0f5 8c3e f27d 4b3e
000003b0: 0d10 a23e cebb 863e 9eae 883e 82f7 653e
000003c0: 7843 db3e 8a86 803e 9b0a b13e 9b98 813e
000003d0: 2310 013f a0f3 ca3e 6aff 073f 0dc7 933e
000003e0: 60c6 963e 2e8a 603e b1ec c03e 9e44 df3e
000003f0: 043b f13e c9c8 bf3e 6777 873e 153d ae3e
0.40908718 0.31162706 0.15493262 0.27418435 0.32620496 0.47568393 0.27333426 0.25280452
0.2728292 0.3305633 0.30403975 0.25183785 0.41374037 0.29960087 0.33703402 0.24513102
0.50601417 0.30558825 0.5060148 0.2981069 0.34572887 0.45935148 0.40672782 0.29094228
0.49127814 0.2712622 0.27751568 0.4913616 0.25311223 0.27626994 0.2980222 0.5712095
0.32334474 0.30157948 0.23242423 0.48562878 0.45647308 0.2644787 0.43209127 0.30144966
0.21070802 0.45610866 0.29219252 0.25816905 0.3298561 0.20300928 0.30337468 0.5273283
0.33486673 0.30858874 0.4386208 0.45880955 0.26276428 0.28873277 0.48032862 0.51497847
0.3084629 0.045076538 0.31705904 0.3388153 0.26222432 0.37162378 0.2937685 0.3125204
0.33187816 0.33966684 0.26265875 -0.37204167 0.42032516 0.5020237 0.48480204 0.47468218
0.27500263 0.47806978 0.46097708 0.5532725 0.2419505 0.2611912 0.29177615 0.26139402
0.5107239 0.2694334 0.2668444 0.21342273 0.30216697 0.4476499 0.319415 0.50267535
0.31726253 0.44596368 0.26960206 0.52571446 0.2537071 0.25198516 0.2832265 0.23572372
0.3957043 0.24570931 0.28951728 0.33359596 0.36463216 0.28068706 0.31671053 0.46037233
0.5215497 0.10291175 0.27396584 0.48341432 0.4853117 0.26564762 0.26369762 0.43910024
0.30212253 0.47022006 0.24370241 0.27421713 0.34423268 0.34943342 0.26990795 0.3288009
0.31796396 0.28413507 0.2540918 0.3839694 0.27455014 0.29814607 0.4828708 0.23841773
0.49219462 0.24412927 0.45439205 0.2807736 0.266296 0.4679492 0.29667 0.48859692
0.22401312 0.24749395 0.32687393 0.2596422 0.43714803 0.52385503 0.2888512 0.459256
0.41372538 0.27214888 0.25441396 0.3119087 0.48862603 0.38077313 0.48244375 0.26201242
0.3980813 0.29667962 0.4907976 0.22471029 0.28417656 0.3181902 0.28570977 0.12026812
0.37599424 0.25891244 0.2723284 0.32642475 0.2573193 0.27311978 0.26464033 0.47236028
0.28950274 0.3176939 0.46693653 0.27751246 0.4595887 0.29469147 0.3764031 0.2603717
0.25368822 0.27250075 0.45452833 0.3766113 0.123953894 0.27552336 0.46589947 0.28335777
0.46019775 0.5227261 0.3650003 0.2252705 0.45159546 0.33443034 0.22294647 0.09999657
0.5622053 0.4417103 0.37561545 0.31097415 0.36706188 0.2779011 0.33571514 0.29035413
0.31864324 0.30547422 0.29799706 0.27885094 0.31525075 0.50041956 0.28823727 0.51312387
0.26665428 0.34033692 0.23356156 0.3605354 0.2165083 0.45502505 0.2852 0.536615
0.2859904 0.28362858 0.41354004 0.4152847 0.34176177 0.36815253 0.2765355 0.39848775
0.34462377 0.42463022 0.31599936 0.4775977 0.33401686 0.4757168 0.3195212 0.19252239
0.23944975 0.25756693 0.27531195 0.19872263 0.3165287 0.2631516 0.26695722 0.22457698
0.42824912 0.25102645 0.34578404 0.2531174 0.5041525 0.39638996 0.53124106 0.288628
0.29448223 0.21927711 0.3768058 0.43607038 0.47115338 0.37457874 0.26458284 0.34030977

net.6.bias f4 [256]
00000000: 7ef0 143d 27fa cc3c 649d 52bc 24dd 4c3c
00000010: c373 a43c 913f 323d 77c5 ae3c 6806 a23c
00000020: 331a d13c 741c d13c 79d0 a13c 458b db3c
00000030: 50d1 f93c 1e31 983c 6b6a cf3c 3483 87ba
00000040: 3385 273d f005 c33c 02c2 183d 537d 273b
00000050: e4d7 bc3c 47fa 033d 8018 fb3c 1856 743c
00000060: 0980 1e3d 4f45 423c 7557 db3c bd0d 333d
00000070: 97f2 903c 3620 b53c f622 e33c 5387 313d
00000080: b829 903c 1787 913c 97ac 913c 3f55 313d
00000090: 3c8b 263d cc30 d93b 3758 1d3d cbdd 923c
000000a0: 002e 663c c662 253d d9d7 773c dcdc 993c
000000b0: 5d44 733c 368b 533c 6368 d93c 11f4 403d
000000c0: 320c cd3c 2d20 c33c 63ca f53c 245d 133d
000000d0: 9d09 b03c 2bdb 903c 3dc9 163d 8adb 203d
000000e0: ef50 d23c 08a5 2cbf de36 9b3c 0eb4 6b3c
000000f0: 20cc 813c 905e ed3c 3788 2a3c 9993 b43c
00000100: 0fad d63c 659f c73c 8067 de3b 356d 01bd
00000110: 7c55 fc3c c318 283d c703 183d 13b9 0e3d
00000120: b675 9d3c 7c11 1a3d 4b72 1a3d c1a4 273d
00000130: cb53 573c 91ef 973c 3863 d23c 4a86 a23c
00000140: 9abb 233d 5061 8b3c bcf1 a33c db98 da3b
00000150: 774d 8f3c 24e5 1b3d 8f43 b23c caec 173d
00000160: bc94 9a3c f2ac 143d e2c2 783c d191 323d
00000170: 3279 7e3c 4ffd 653c 150b 4c3c 0bfe d739
00000180: 6186 e93c 1913 8a3c b568 c73c c721 a63c
00000190: 86eb d53c 1828 0abc 9d65 933c f8ef 123d
000001a0: 8147 273d 1d32 18bd 6d8f f63c ddb7 1d3d
000001b0: 011c 1f3d 61ee 623c 3055 7b3b a2a2 dc3c
000001c0: 561d c33c 8460 103d 259f 3a3c 92ef 423c
000001d0: 8f77 113c 1e5c d73c 6864 e03c 1d32 e93c
000001e0: c34c c33c 253f 953c 8929 ce3c b012 ff3c
000001f0: f66b ab3c 14ee 6d3c dc15 1a3d fee9 9b3c
00000200: a45d 2c3d 1890 ea3c a4bf 0a3d 15e7 813c
00000210: ee5f d63c ea8a 1f3d 822e a53c 2fe0 193d
00000220: eace 9b3c 3833 af3c 0a9d 6c3c cecb a03c
00000230: decc 003d 6b43 363d 7836 963c e93c 243d
00000240: f57a e93c 504a 053c ea87 213c 0702 d43c
00000250: 75e7 1d3d ddbd d43c 3ff0 203d c22d c63c
00000260: 459c 033d 4d4b 6a3c 4017 2a3d b970 ba3c
00000270: fb57 ae3c f132 933c bf26 b93c 1ed2 15bd
00000280: 9fbe 0c3d 6f72 9d3c 48f8 dc3c 7306 ef3c
00000290: 2732 223c f215 9c3c fe5a 7f3c 5039 113d
000002a0: 811b 813c a034 bd3c 41d6 0e3d 45be 723c
000002b0: 5bda 133d 52f1 da3c a368 d03c d1f8 4c3c
000002c0: 62fb a13c c811 8c3c 3bfd 1b3d d1e5 f63c
000002d0: b2d9 30bd 4294 5d3c f552 1d3d 8375 4d3b
000002e0: 86d7 143d 26d0 2c3d 285f c83c 7aeb 7a3c
000002f0: c081 f83c 0973 b93c 9f97 0f3c 116b 08bd
00000300: 3b32 4d3d d6ab 0d3d 6317 043d 3bcf 983c
00000310: d411 973c 9dea 9c3c f6f0 f53c 0a21 053d
00000320: 92fd c43c db13 b73c 1663 9f3c 679d 8c3c
00000330: 5395 c83c e23d 1f3d ea8b 813c d1f4 353d
00000340: 8b06 733c 59c4 9a3c 2d53 9c3c 7e04 d43c
00000350: 1314 93bb 596c 133d 59fd 7d3c 7f96 2b3d
00000360: fc21 eb3c 77dd cc3c 9fa2 253d c7b9 093d
00000370: d157 063d 1634 e43c e1c8 c03c 1686 183d
00000380: c9d9 b73c f53b 083d 3ec3 a33c 6366 173d
00000390: bc6e c03c 05cc 123d 7e73 de3c 5975 623c
000003a0: af78 753b 1389 9c3c 2d35 aa3c 6766 0d3c
000003b0: 4549 5e3c 389a 373c 1325 a23c c56c 6b3c
000003c0: bdca 153d 01f3 643c ef25 e23c a445 9a3c
000003d0: 5240 2f3d d8b8 043d d1ee 213d e9b6 ab3c
000003e0: 3ad4 c43c 8433 9b3c 42d7 de3c de7a 163d
000003f0: 2748 263d 5cfa e63c f7e5 273c ac7c 7f3c
0.036362164 0.025021626 -0.012854908 0.012503896 0.02007473 0.043517653 0.021334393 0.019778445
0.025525188 0.025526263 0.019752728 0.026799807 0.030495316 0.018578108 0.025319299 -0.0010338784
0.040898513 0.023806542 0.037294395 0.0025556877 0.023052163 0.032221105 0.030651331 0.0149131045
0.038696323 0.011857345 0.026775101 0.043714274 0.0176938 0.022110086 0.027726632 0.043341946
0.017598018 0.017764611 0.017782493 0.043294188 0.040660128 0.0066281315 0.038414206 0.017928025
0.014049053 0.0403774 0.015127146 0.018782072 0.014847842 0.012911608 0.026539033 0.04710776
0.02503023 0.023819054 0.030003732 0.035977498 0.021488959 0.017682632 0.03681301 0.03927187
0.025673358 -0.6743932 0.018947061 0.01438619 0.015844405 0.028975755 0.010408453 0.022043036
0.026205568 0.024367997 0.0067872405 -0.03159829 0.03080248 0.04103924 0.037112977 0.03484447
0.019221168 0.03761433 0.037706655 0.040928606 0.013142536 0.018546851 0.025682077 0.019839425
0.039973833 0.017014176 0.020012729 0.006671054 0.017492993 0.038060322 0.02176073 0.037091054
0.01886975 0.036297746 0.015183182 0.043596093 0.015531825 0.014037444 0.012453814 0.00041197272
0.02850646 0.01685481 0.02434192 0.020279778 0.026113283 -0.008432411 0.017992789 0.035873383
0.040839676 -0.037157167 0.030097688 0.038505424 0.038845066 0.013850779 0.0038350336 0.026933018
0.0238177 0.035248294 0.011390482 0.011897938 0.008878603 0.026289042 0.027391627 0.028466279
0.023840314 0.018218586 0.02516629 0.03113684 0.020925503 0.014522094 0.037618503 0.019032475
0.04208149 0.028633162 0.03387417 0.015857259 0.02616879 0.03895084 0.020163778 0.037567314
0.019019563 0.021386728 0.014441738 0.019628432 0.031445377 0.04449789 0.01833652 0.04009715
0.028501013 0.008135393 0.009859065 0.025879873 0.038550813 0.02596944 0.039291617 0.02419174
0.032131452 0.01430018 0.04152608 0.022758828 0.021282187 0.017968627 0.022601483 -0.036577336
0.034361478 0.019219605 0.026973858 0.02917788 0.009899653 0.019053433 0.015585659 0.035455048
0.015760185 0.023096383 0.034872297 0.014815872 0.036096912 0.026726399 0.02544052 0.012510494
0.019773189 0.017098323 0.038083296 0.030138882 -0.04317636 0.013524117 0.038409192 0.003135056
0.03633835 0.042190693 0.024459437 0.015314931 0.030335307 0.02263786 0.008764177 -0.03330523
0.05009673 0.034587704 0.032248866 0.018653503 0.018441118 0.019154841 0.030022126 0.03250221
0.024046693 0.022348335 0.019456428 0.017164899 0.024485266 0.038877375 0.015813787 0.04442293
0.014833103 0.018892454 0.01908263 0.025881048 -0.004488477 0.035992 0.015502297 0.04189157
0.028702728 0.025007946 0.04043829 0.033624437 0.032798592 0.027856868 0.023533287 0.03723725
0.022442715 0.033260304 0.01999056 0.036962878 0.023490302 0.0358391 0.02715468 0.013821923
0.0037455966 0.01910833 0.02077731 0.008630372 0.0135672735 0.011206202 0.019793069 0.014369194
0.0365703 0.013973952 0.027605979 0.018832035 0.04278595 0.032402843 0.039534394 0.020961242
0.024026979 0.018945463 0.027202252 0.03673827 0.040596154 0.028195553 0.010247699 0.015593689
