RL code/models/checkpoint_episode_310000.pth (torch, 801255 bytes, 40 tensors)

net.0.weight f4 [256, 22]
00000000: cb32 233a e38d 96bb ee24 503e 58ea 803d
00000010: c287 513d 9d70 093d efec 893d 9403 9c3d
00000020: 7dd3 ba3b ff04 2e3d 8d12 b53c 384d ec3c
00000030: 944b 663e d346 b23d 2b11 123d 6cbc 273c
00000040: f209 523d 45b4 633d 7dd3 babb ff04 2ebd
00000050: bb38 233a 218c 96bb 4d69 c4bb 67a8 6f3d
00000060: 9314 6dbd c7ee 8e38 5e32 de3c 5f21 06bd
00000070: e3ba 4f3c a769 63bc 6eff c93b 1d36 3abd
00000080: 799f c83d 6182 80be 2ba6 8dbd 83b0 30bc
00000090: 5851 cf3c 4140 0abd 8b22 9f3c cb88 5dbc
000000a0: 6eff c9bb 1d36 3a3d 1f69 c4bb 6fa8 6f3d
000000b0: 145b 053e c4ee 0f3e f5e1 303e cbd3 1b3e
000000c0: ac61 27be 1631 22be b3db 31be 83a2 3bbe
000000d0: 3ca5 adbe 6142 b9be 08a6 92be 2bdb 8abe
000000e0: 7ed5 45be f09f 3cbe cb7c 183e a497 173e
000000f0: 1c7a 1f3e e434 1c3e c8a4 ad3e c341 b93e
00000100: ded0 043e fd41 0f3e cbfb 493d 9dde 433d
00000110: 3059 4d3d 920f 89bd d8ae 22bd a288 44bc
00000120: eb6e 93bc b287 7a3b 360b a3bd df23 773d
00000130: 061f 153e 5d25 46be 023e 62bc 52ab 9dbc
00000140: c13e 193c 6a76 70bd 1d06 0d3d a41c 27bd
00000150: 360b a33d df23 77bd d9fb 493d b5de 433d
00000160: 37f5 993c b3be eabc cf1f 8b3c 859b 3bbd
00000170: 6a15 66bd d028 293c 1c3f 0abd 81f7 08bb
00000180: 1825 a53c 53f7 f83b 2bc6 d93b 5ab5 37be
00000190: 2e8f c93c 6088 cebc 4a5e a6bd 95f1 afbb
000001a0: ea3b 09bd cb9e a2bc 1825 a5bc 53f7 f8bb
000001b0: 2bf5 993c b3be eabc 44ab bcbc 7324 a4bb
000001c0: 4bca 97bd d25c ba3d 7149 73bd fc84 18bd
000001d0: 3a96 dcbc 4979 1c3d 3ba3 0ebd 35a4 623d
000001e0: 44de ad3c c366 f0bd 4560 d6bd 3446 103e
000001f0: 6240 3bbd 7746 b8bd b46b eabb 6144 6abc
00000200: 3ba3 0e3d 35a4 62bd 45ab bcbc 4d24 a4bb
00000210: 9c3f 8bbd 7915 c3bc 0e6f 45be d37f 6a3d
00000220: 45de 0f3d 647e 483d 5d70 d43c c499 823c
00000230: f33d e73d 91fd c23a d94a 833c 18b7 d63c
00000240: a9c3 06be 3f4c 8f3d da45 aabc 5beb 2e3d
00000250: 99e0 d7bc 398d 913b f33d e7bd 91fd c2ba
00000260: 7f3f 8bbd a915 c3bc 3127 c03d 1816 5bbd
00000270: 7db6 113e c095 9bbd 0a12 c63d 7df3 cdbd
00000280: a4fb 253d 42eb 683c e0ca 973d 95e0 94bd
00000290: 3df8 32bc 2caa 10bc 4fe9 203e 5a79 c4bd
000002a0: 005e ae3d 50d8 ccbd 9175 cc3c e24e ad3c
000002b0: e0ca 97bd 95e0 943d 3e27 c03d 2216 5bbd
000002c0: a732 c8bc 6897 2a3d 9f89 0bbe 32b7 963b
000002d0: 41dc c6bd 5c44 a83c b620 e5ba 1ecb 553d
000002e0: a017 8b3c a1d3 b93d feb3 d5bd dc5e 8cbc
000002f0: 93c9 26be d81d a73d 3c4e a3bd b21d 32bd
00000300: 09f6 c43c f1f6 62bb a017 8bbc a1d3 b9bd
00000310: 7832 c8bc 5e97 2a3d 5b6f e33a d8c9 76bd
00000320: 58fb 223c 5bf2 97bd 6bf3 333d b24d 96bd
00000330: ecc0 64bd 087a bfbc 8960 d6bc f371 2abd
00000340: fe3d 53be dba6 6d3d c195 1f3b deb7 00be
00000350: 98cc 4f3d 05b1 d6bc 4361 53bd d91e cd3c
00000360: 8960 d63c f371 2a3d 8e73 e33a 6ec9 76bd
00000370: fb5d 68bd 2545 033d ccce 8dbb ab16 2ebd
00000380: 1ef2 13bd f209 fa3d 5152 3cbb 7e34 873d
00000390: abb8 8dbc d1b6 783d 7d04 a13d 1dc4 1abc
000003a0: 37ef cebc dbed 7cba c0a1 b1bc f21f ae3d
000003b0: 3f47 b53c 1ba4 fa3c abb8 8d3c d1b6 78bd
000003c0: e55d 68bd 4045 033d bb7f f5bc 2622 0abd
000003d0: d33d 74bd 2723 23be 399b 383d 1b89 6b3c
000003e0: 81a1 043d 96b9 013b 65d6 8a3d bbfa b83d
000003f0: 37be b63d 8ca7 2abe 1d44 98bb 1c2e e8bd
0.0006225525 -0.004594551 0.20326588 0.062946975 0.05115486 0.033554662 0.067346446 0.0761787
0.005701481 0.042485233 0.022103572 0.028845415 0.22489768 0.08704915 0.035660904 0.010237794
0.051279016 0.05559184 -0.005701481 -0.042485233 0.000622641 -0.0045943414 -0.005993998 0.05851021
-0.05788095 6.8155634e-05 0.027123626 -0.03274667 0.012678835 -0.01388017 0.006164483 -0.045461763
0.09796042 -0.2509947 -0.0691646 -0.010784271 0.025307342 -0.033752684 0.019425651 -0.0135213835
-0.006164483 0.045461763 -0.0059939767 0.05851024 0.13023025 0.14055926 0.17273696 0.15217511
-0.16345853 -0.15839037 -0.17368965 -0.18323712 -0.33915126 -0.36183456 -0.28642297 -0.27120337
-0.19319722 -0.18420386 0.14891355 0.1480394 0.15573925 0.15254551 0.3391478 0.36182985
0.12970302 0.13990016 0.049312394 0.047819722 0.050133884 -0.06692423 -0.039717525 -0.011995466
-0.017997226 0.0038227853 -0.07961123 0.060336944 0.14562616 -0.1935019 -0.013808729 -0.019246731
0.009353341 -0.05870668 0.03442966 -0.0407988 0.07961123 -0.060336944 0.049312446 0.04781981
0.018793685 -0.028655386 0.016982941 -0.04580261 -0.056172766 0.010324672 -0.033751592 -0.0020899477
0.02015929 0.0075978427 0.006645938 -0.17940274 0.024604406 -0.025211513 -0.08123453 -0.005369375
-0.033504404 -0.019851109 -0.02015929 -0.0075978427 0.018793663 -0.028655386 -0.023030885 -0.005009228
-0.07411631 0.09099735 -0.05939621 -0.0372362 -0.026927102 0.038201604 -0.034823637 0.05533238
0.021224149 -0.1173835 -0.10467581 0.1408928 -0.045715697 -0.08997815 -0.0071539525 -0.014298529
0.034823637 -0.05533238 -0.023030886 -0.00500921 -0.06799242 -0.02381395 -0.19280645 0.05725081
0.035124082 0.04894866 0.025932485 0.015942462 0.11291113 0.0014876594 0.016026901 0.026210353
-0.13160576 0.06996965 -0.020785261 0.04270492 -0.026352214 0.004441884 -0.11291113 -0.0014876594
-0.0679922 -0.02381404 0.09382475 -0.053487867 0.1422977 -0.07596922 0.096714094 -0.10056207
0.040523186 0.014216246 0.07411742 -0.07269398 -0.010923442 -0.008829635 0.15714 -0.095934585
0.08514023 -0.10002196 0.024958404 0.021155778 -0.07411742 0.07269398 0.09382485 -0.053487904
-0.024438215 0.0416483 -0.13626717 0.0045994753 -0.09709979 0.020540409 -0.0017481062 0.05219566
0.016979039 0.09073568 -0.104347214 -0.017135076 -0.16287832 0.08159989 -0.079739064 -0.04348535
0.0240431 -0.0034632052 -0.016979039 -0.09073568 -0.024438128 0.04164826 0.0017351912 -0.060251087
0.00994762 -0.074192725 0.043933313 -0.07339038 -0.055848047 -0.023373619 -0.026169078 -0.041612577
-0.20629117 0.058020454 0.0024350735 -0.1257014 0.050732225 -0.026207456 -0.051606428 0.025039123
0.026169078 0.041612577 0.0017353164 -0.060250692 -0.05673025 0.032048363 -0.0043276306 -0.042502087
-0.036119573 0.12208928 -0.0028735588 0.06601809 -0.01729997 0.060721222 0.07862184 -0.009446171
-0.02526055 -0.00096484803 -0.021683574 0.08502187 0.0221287 0.03059583 0.01729997 -0.060721222
-0.05673017 0.032048464 -0.029968133 -0.033723973 -0.059629273 -0.15931378 0.045069907 0.01437595
0.032380585 0.0019794456 0.06779174 0.09032198 0.08922999 -0.16665477 -0.0046467916 -0.1133692

net.0.bias f4 [256]
00000000: 2471 6ebe 0a7d 35be d670 d2bd 17bc 3cbe
00000010: d4af b3be 7f0a 8cbe 2a9e 9fbe bbe4 a6be
00000020: 22b0 57be 1676 6dbe 39e3 9abe 9af4 79be
00000030: bf2d 92be e3a4 15bf a242 84be dbfc a8be
00000040: 676e 88be 93e5 9dbe 47c5 60be 461a 69be
00000050: 23e8 a9be 3452 8fbe 73f9 983d 7fe6 4dbe
00000060: 6a29 45be dd47 40be 7262 74be e2e3 98be
00000070: 1e05 23be 3182 503e a94a 8dbe b65a 60be
00000080: 37f0 5abe 2420 85be 2aac 13bf a9ae 8cbe
00000090: 6356 80be dd13 54be c06c 19bf 99bc 68be
000000a0: 3ec9 55be e736 52be 739a eabe 57cb c3be
000000b0: 8e44 84be fdea b7be fc65 3fbe b967 88be
000000c0: 2efb 57be fe5d 96be dcde 8dbe 158b 80be
000000d0: 9d20 a5be 216e 28bd a043 4bbe 9dd9 94be
000000e0: dd42 9ebe 3438 60be 4cfd 76be 187e 7bbe
000000f0: 4aca 90be 4dab 22bd b27a 6fbe c37a 49be
00000100: 1dde 80be 13a4 a0bb a07e 9dbe 73ed 4fbe
00000110: cac5 11be 8620 01bf bd39 4bbe 8c31 eebe
00000120: 612a 4bbe 9bb2 96be 716b 7bbe 55d0 a2bc
00000130: a901 82be 7130 43be 1ffa 5fbe d992 79be
00000140: a692 54be bbb4 9fbe e472 5fbe fb82 4bbe
00000150: b137 72be c264 84be e98d c0be 34c6 a6be
00000160: 99ff 69be ffaf 90be e494 42be df3d 32bd
00000170: 2fc6 75be a084 f5be 9223 5cbe 998d 6fbe
00000180: 34d5 71be 3af6 513e 0810 5dbe 59e7 8fbe
00000190: 0c73 81be 6bec 90be 3631 80be 84e4 1abf
000001a0: c6db e4bc 615c 9fbe a6e2 7abe 53ca 67be
000001b0: 0548 69be d478 45be 9c91 79be ceff 78be
000001c0: bf88 5abe 1da7 82be dfe7 85be aa24 a13d
000001d0: 0a22 11bd cf11 67be 9c93 95be 5ebe c6be
000001e0: 3efa 1ebe 400c 4cbe f446 92be 5cc6 bdbe
000001f0: 9c51 95be fa9e 4d3e 0253 5cbe f7d3 53be
00000200: 5cb8 98be ddf6 61be 8950 7abe 7aab 63be
00000210: 8eb3 8fbe 8d05 6bbe 74d9 5dbe 759e acbe
00000220: 695a 4bbe af94 99be f0fd 7fbe 396a 82be
00000230: 56c6 40be 32b2 85be 4600 c3bd 39aa 91bd
00000240: 0835 513e ad6e 71be fa8e 8bbe c946 74be
00000250: 4000 43be 812c 83be fe66 87be 1111 62be
00000260: b239 c3bd 4ef0 13bf bad8 8abe d2fe 4cbe
00000270: f65b 82be 4d76 80bd 0362 45be 4082 74be
00000280: 3944 9ebe 008d 9dbe 14af 0dbf 4adc 5abe
00000290: 8e86 80be 96bf 7fbe 7985 593d 5139 a4be
000002a0: 08fd 6fbe 9a9b 0ebf 4d2c 66be 9d02 eebe
000002b0: 4c69 5ebe c8c3 9dbe 06a3 91be a786 51be
000002c0: e4c0 4dbe 2e8c 85be fdf7 5fbe cdbb 21bf
000002d0: 82c0 47be 02c5 e43d 0ba0 4abe 2336 bcbe
000002e0: 0316 7dbe 2cc8 43be d579 78be 9bb8 86be
000002f0: 08a4 94be 45e9 8bbe 0b32 89be 3cd5 4ebe
00000300: 0b28 59be 56c3 05bf 7bfc 42be 0fac 553e
00000310: ca27 89be aaca a4be 238b 9ebe 645b 3dbe
00000320: 6390 77be ca4c 6bbe eb39 8fbe a007 67be
00000330: 6b2c d0be f527 7dbe 0fb1 8abe cdd2 8dbe
00000340: ad74 84be 8e19 61be f522 4d3e 961a 85be
00000350: a137 f3be 093a 9ebe f274 87be 7e47 2abe
00000360: 8335 83be 24f9 b8be 07f2 95be 08b4 30be
00000370: e2d7 5ebe 3e6f 8fbe 5d10 22bf 6343 8ebe
00000380: 3f21 8abe 4c09 80be 2c8e 85be 85c5 83be
00000390: 1e60 81be 58cf 76be ca93 9abe ffdc 77be
000003a0: 2d0e 6cbe 129c 6dbe 6607 3bbe e015 8fbe
000003b0: b12f 90be 0614 87be 5108 99be d577 60be
000003c0: 7bc9 81be 3fa4 e3be 1b59 503e 9dff 59be
000003d0: f0b8 9dbe 0972 a0be 7bb8 8dbe 825b 8abe
000003e0: 8259 5abe 4af7 64bd 8ca8 0dbf cacf acbe
000003f0: a518 64be ddb9 38be 58b5 abbe d6a3 59bd
-0.23285347 -0.1772348 -0.10275428 -0.18431126 -0.35095084 -0.27351758 -0.31175357 -0.32596382
-0.21063283 -0.23189577 -0.30251482 -0.24409714 -0.28550526 -0.5845472 -0.25832087 -0.33005413
-0.2664673 -0.30839214 -0.21950255 -0.22763929 -0.3318492 -0.27992404 0.07469454 -0.20107459
-0.1925408 -0.18777414 -0.23865679 -0.2986136 -0.15919921 0.20362164 -0.27596024 -0.21909603
-0.21380697 -0.26001084 -0.57684577 -0.27477005 -0.25065908 -0.20710702 -0.59931564 -0.22728194
-0.20877549 -0.20528756 -0.4582096 -0.38241073 -0.25833553 -0.3592147 -0.18691248 -0.26641634
-0.21091911 -0.29368585 -0.2770909 -0.2510611 -0.32251444 -0.041120652 -0.19850016 -0.29072276
-0.30910388 -0.2189644 -0.24120063 -0.2455982 -0.28279334 -0.039714146 -0.23386648 -0.19675736
-0.2516946 -0.0049023717 -0.3076067 -0.20305423 -0.14235607 -0.5044025 -0.19846244 -0.46522176
-0.19840385 -0.2943314 -0.24552704 -0.019874731 -0.25391892 -0.19061448 -0.21872757 -0.24372424
-0.20759067 -0.31192574 -0.21821171 -0.19874184 -0.23654057 -0.25858122 -0.3760827 -0.32573092
-0.22851409 -0.28259274 -0.1900211 -0.043516036 -0.24001382 -0.47952747 -0.21497944 -0.23393859
-0.23616487 0.20504084 -0.21588147 -0.28106192 -0.25283086 -0.28305373 -0.25037545 -0.6050494
-0.027936827 -0.31125167 -0.24500522 -0.22635774 -0.2278138 -0.19284374 -0.24371952 -0.24316332
-0.21341227 -0.25518122 -0.26153466 0.07868321 -0.035432853 -0.22565387 -0.2921418 -0.38817114
-0.15525147 -0.19926548 -0.28569758 -0.370654 -0.29163826 0.20080176 -0.2151604 -0.20686327
-0.29828155 -0.22066827 -0.24444784 -0.22233382 -0.28066677 -0.22951336 -0.21664983 -0.33714643
-0.19858707 -0.2999625 -0.24999213 -0.25471666 -0.18825659 -0.26112515 -0.095215365 -0.071125455
0.20430386 -0.23577376 -0.2725752 -0.23855127 -0.19043064 -0.2561989 -0.26445764 -0.22076823
-0.09532489 -0.5778855 -0.27118474 -0.20019081 -0.25460786 -0.06272564 -0.1927567 -0.23877811
-0.30911425 -0.30771637 -0.55345273 -0.21373096 -0.25102657 -0.24975428 0.053105805 -0.3207498
-0.23436368 -0.5570618 -0.22477837 -0.4648637 -0.21719855 -0.30813432 -0.2844469 -0.20461522
-0.20093113 -0.2608351 -0.21871944 -0.63177186 -0.1950703 0.11170389 -0.19787614 -0.36760053
-0.24715428 -0.19119328 -0.24265225 -0.26312718 -0.29031396 -0.27326408 -0.26795992 -0.2019853
-0.21206681 -0.52251184 -0.19041626 0.20866416 -0.2678817 -0.3218587 -0.30965528 -0.18491894
-0.24176173 -0.22978511 -0.27973875 -0.22561502 -0.40658888 -0.24722274 -0.2708821 -0.2769989
-0.25870267 -0.21982405 0.20032866 -0.25996846 -0.4750338 -0.30903652 -0.2645641 -0.16628835
-0.25626764 -0.3612758 -0.29286215 -0.17256176 -0.2176204 -0.2801456 -0.6330622 -0.27785787
-0.2697849 -0.25007093 -0.2608503 -0.25736633 -0.25268644 -0.24102533 -0.3019088 -0.24205397
-0.23052283 -0.23204067 -0.18264541 -0.27946377 -0.28161386 -0.26382464 -0.29889157 -0.21920712
-0.2534903 -0.44461247 0.20346491 -0.21288915 -0.3080516 -0.31337002 -0.2767981 -0.2702294
-0.21323207 -0.055899896 -0.5533531 -0.3375228 -0.22275026 -0.18039651 -0.33536792 -0.05313476

net.2.weight f4 [256]
00000000: 26cc 333e 69e9 0c3e 5d20 193e 6fb0 a73d
00000010: 83ad 893e 5328 463e 3208 143e 74f8 743e
00000020: 0ef5 093e 84ef 543e 0158 e93d ac6d c53d
00000030: 1b64 453e 2f89 8a3e 8d67 3d3e cb5b 933e
00000040: 8974 343e 6ecf 7d3e 7b29 153e 4ced 4e3e
00000050: 487e 463e 1173 143e 8a5e 123d e22d 063e
00000060: 332c 6e3e 1e15 5b3e 442a fb3d a3cb 8e3e
00000070: 66d1 e73d 71b7 223e ff16 313e 0f1d 253e
00000080: 59de 273e d908 0b3e c708 a23e d859 243e
00000090: 2e45 d03d f5bf 183e c17c 5e3e 1241 053e
000000a0: 4870 d43d ba73 583e 4514 733e 0599 6a3e
000000b0: 8f98 4f3e 94e4 a33e b25d 013e 26cc 293e
000000c0: 6a7b 6e3e abf2 5d3e 0c58 383e 2729 293e
000000d0: 631a 303e 00de 093f 7b67 6a3e db2b 863e
000000e0: 1430 703e 65c4 373e d057 0b3e e156 283e
000000f0: d4be 733e b14c 083f d2e0 053e bce7 5a3e
00000100: b2ce 2f3e 3961 063d ceb0 e43d 90b3 043e
00000110: 4a15 743e 9c97 093f b91d 613e dcce e53e
00000120: 42cf 2c3e d966 843e 6f82 483e c250 f83e
00000130: 0d6b ce3d 00fb d53d fd21 333e 8121 a13d
00000140: 4bde 413e c70b 473e 96ee 2d3e 7f24 623e
00000150: 8a1f 223e 82a7 b13d f526 903e e6f6 0d3e
00000160: bacc 193e 39e4 423e a022 073e 2abb 003f
00000170: ee2c fd3d e7b6 fa3e 441f 2f3e 2ddd 0b3e
00000180: 15e0 1e3e 8eb1 203e 9c19 c03d b86c 6a3e
00000190: 3e2e 223e 9c1c 053e 512b 363e 9099 b33e
000001a0: c13b 023f fcc4 523e beb3 383e abc7 253e
000001b0: 1fdd 053e c805 963d 9c29 2a3e 49ca 2c3e
000001c0: 6a3d 6f3d 7d5b 583e 38a9 803e 0d9b 0f3d
000001d0: d41e 063f d0d7 0e3e 4d16 e93d 6565 633e
000001e0: e3da 073e fc33 263e db53 283e e9d0 433e
000001f0: 0d94 193e 805e 1e3e 8dfd 493e 3555 133e
00000200: 92eb a43d 06eb 043e c95c 2e3e bb6d 893d
00000210: a617 f63d df6b 133e 4d71 113e 323b 333e
00000220: 94ca 653e 458e 603e 2680 353e 9cab 483e
00000230: faa5 683e d3b3 703e 2ec5 223e d54f 0f3e
00000240: 6a1d 213e 8720 063e a585 7c3e 3ed2 553e
00000250: cf8c 6f3e 5bf2 7b3e ff71 3f3e 0a1b 923e
00000260: 998b 093e cc1c f43e 845e 2c3e 8166 5e3e
00000270: b6aa 213e 5d4b 0e3e d1fb 243e 1558 543e
00000280: ada6 4a3e c314 5c3e 2164 883e 9295 df3d
00000290: f424 0b3e 4df4 803e 3f53 193d 5295 2e3e
000002a0: 33ed 213e 08d0 c23e 9331 793d 0664 823e
000002b0: 43ba fe3d 7fb7 a03d ac5f b03d d49f 7c3e
000002c0: ee77 2d3e e413 2a3e 2de4 1e3e 6160 d53e
000002d0: 55b9 793e b469 043d 4ed9 f33d aa57 5a3e
000002e0: e905 303e c9c4 e33d c37b 083e 9d82 483e
000002f0: 0305 143e 00c6 203e eda2 663e 09f4 a33d
00000300: 35b9 c23d 50ea bb3e 1d1f b33d 845a 213e
00000310: 5830 723e 8b0e 54be 56b6 2a3e f2de 5c3e
00000320: 72b7 293e bbfc 803d ca20 3a3e 5120 273e
00000330: f15d 2f3e bf41 463e 8dfc 5b3e ffdb 453e
00000340: 8391 2d3e a950 3c3e 6a09 1c3e 995a 2d3e
00000350: afc8 463e 0066 133e 0aa2 593e 1c9a 9f3d
00000360: 09c7 0b3e b727 1b3e 1c7f 283e b669 043e
00000370: ec1a 553d b091 693e 4452 a13e cbb0 c73d
00000380: c3ca 313e c57a 243e f983 2a3e 2d0c 1c3e
00000390: 2523 233e 32f1 243e 43f0 223e 18fa 2f3e
000003a0: a1e2 913d 232b ff3d 38e5 6e3d 8e66 3b3e
000003b0: a11a 483e fd11 0a3e 6191 2c3e f98e 823d
000003c0: bd2f 5a3e cb30 873e a954 1f3e 53d1 613d
000003d0: 8e8b 273e ac72 0e3e f6c5 203e a0fc 173e
000003e0: e057 213e dcc4 0d3e 64cc b73e b952 2b3e
000003f0: 6c02 113e 6b81 d53d 13d7 f53d e100 0e3e
0.17558345 0.13760914 0.14953752 0.08187949 0.2689019 0.1935132 0.14456251 0.23922902
0.13472387 0.20794493 0.113937385 0.09640059 0.19276468 0.27057788 0.18496533 0.2878097
0.1762258 0.2478616 0.14566605 0.20207709 0.1938411 0.1449702 0.03573469 0.1310344
0.23259048 0.21394774 0.12263921 0.27889737 0.113192365 0.1589029 0.17293929 0.16124366
0.16393413 0.13577594 0.31647322 0.16049898 0.10169445 0.14916976 0.21727277 0.13013104
0.103729784 0.21137896 0.23738201 0.22909935 0.2027304 0.3201033 0.12633398 0.16581783
0.23289266 0.21674602 0.18002337 0.16519605 0.17197566 0.5385437 0.22891037 0.26205334
0.2345584 0.17946012 0.13607717 0.16439392 0.23803264 0.5324202 0.13074043 0.21377462
0.17168692 0.032807563 0.11166535 0.12959123 0.23836246 0.5374696 0.21983995 0.44884384
0.16875938 0.25859717 0.19581006 0.48499113 0.10079012 0.10448265 0.17493434 0.078677185
0.18932454 0.19438086 0.16985545 0.22084235 0.15832344 0.08674528 0.28154722 0.13863716
0.15019503 0.19032373 0.13196802 0.5028559 0.12362085 0.48967668 0.1710177 0.1365859
0.15515168 0.15692732 0.093798846 0.22893035 0.15837952 0.12999195 0.17789961 0.35078096
0.5087243 0.20582956 0.18037316 0.16189449 0.13072632 0.073253214 0.16617435 0.1687404
0.05840818 0.2112865 0.25129104 0.035059977 0.5239079 0.13949513 0.11381207 0.22206648
0.13267092 0.16230768 0.16438238 0.19122662 0.14997883 0.15465736 0.19725628 0.14387973
0.08052744 0.1298028 0.17027582 0.067103826 0.12016229 0.14396618 0.14203377 0.1750305
0.22440559 0.21929272 0.17724666 0.19596714 0.22719565 0.23506097 0.1589553 0.13995297
0.15733877 0.13098346 0.24660356 0.20880982 0.23393558 0.2460417 0.1869583 0.28536254
0.13432159 0.4767822 0.1683293 0.2171879 0.15787777 0.13895936 0.16111685 0.20736726
0.19790144 0.21492295 0.26638892 0.109172 0.13588315 0.25186387 0.037432905 0.17049149
0.1581314 0.3804934 0.060838293 0.25466937 0.1243787 0.07847499 0.08611998 0.24670345
0.16940281 0.1660915 0.1551673 0.41675094 0.24387105 0.03232737 0.11906682 0.21322504
0.17189755 0.11121518 0.13328461 0.19581075 0.14455037 0.15700531 0.22523089 0.080055304
0.09507982 0.36702204 0.08746169 0.15757185 0.23651254 -0.20708673 0.16671118 0.21569422
0.16573885 0.062982045 0.1817657 0.16320921 0.1712568 0.19361018 0.21483059 0.19322203
0.1695004 0.18390144 0.15237966 0.16929092 0.19412492 0.14394379 0.21253219 0.07793066
0.13650145 0.15151869 0.16454738 0.1293095 0.052027628 0.22809482 0.31508076 0.097505175
0.17362504 0.16062458 0.16651906 0.1523902 0.15931375 0.16107634 0.15911965 0.17185247
0.07123304 0.124593996 0.05832407 0.1830084 0.19541408 0.13483424 0.16852333 0.06374926
0.21307273 0.26404414 0.15559639 0.055131268 0.1636183 0.13910931 0.15700516 0.14842463
0.15756178 0.13844627 0.35898125 0.16730775 0.1416108 0.10425075 0.12003913 0.13867523

net.2.bias f4 [256]
00000000: 5ec7 053d ed98 b33c e078 a839 fe54 073b
00000010: 9d33 8d3d 5db0 333d 2acb 053d a407 8c3d
00000020: 3fad a03c c1fc 4a3d a004 fe3c caca 223c
00000030: 331c 343d 6244 773d f786 183d 40dd 8a3d
00000040: 3e8e 023d a8df 613d d2db bd3c f8d1 5e3d
00000050: ccf7 603d 4924 1b3d 3b89 5ebd 53b6 6f3c
00000060: 7225 3b3d ca76 dc3c 4ebd e33c 5456 983d
00000070: 50a4 553c 8a17 06bf f9d5 163d e5e0 223d
00000080: 2e23 263d eee5 f13c 1078 a23d fa64 1f3d
00000090: 0955 eb3c 0ee6 dd3c 246a 2f3d fd91 803c
000000a0: 1ecc 503c aab4 193d 775a 493d 67b2 573d
000000b0: 6b9a 373d 8194 ae3d 830b 9e3c 4e06 203d
000000c0: 96de fe3c ccf6 733d 77fb 353d 376d 093d
000000d0: 6a71 1b3d f204 1d3e 9b90 363d 02b5 893d
000000e0: c146 713d 731a 023d e951 f03c 692a 293d
000000f0: 35a4 633d ef0a 203e f9ca bc3c 1bc1 da3c
00000100: 083c 3c3d c0cc 93bd a552 733c 459f bb3c
00000110: 424c 243d c9b8 143e 93c6 163d 5e87 ed3d
00000120: f995 e73c e1a4 963d 4fbf 403d 1b4a 083e
00000130: 9f15 343c 84a6 cb3b 233c da3c c1c7 a93b
00000140: 35ed 033d 193d 2c3d 0cca 193d f77a 143d
00000150: f8d6 f13c 455b 6f3b 55ab 973d 3e8a d53c
00000160: fe7c de3c a031 443d 6a1e 113c bb83 123e
00000170: 6e8e e33c b52c 0a3e 49bb 103d 2e89 f33c
00000180: d35b e93c be73 02bf d432 e93b d166 733d
00000190: 0868 093d 76c2 293c 6e8e 213d 0543 b03d
000001a0: 274e 163e 9162 483d 72e7 143d d1cd 093d
000001b0: a628 893c a90c ab3b 67c2 033d 1775 2e3d
000001c0: 9734 b53b 7b07 5b3d cfda 853d d00c 7ebd
000001d0: f671 1d3e cdac 113d 711f ea3c 52f2 4e3d
000001e0: f416 e93c eb1c 043d c12b 363d 8620 4a3d
000001f0: 1cd2 f33c 5354 08bf 5226 153d 7494 f53c
00000200: d075 083c d708 ba3c 9143 0c3d a9a2 b23b
00000210: ef6e b03c f9cd 0f3d 710e de3c 9faf 093d
00000220: 0745 1f3d 1aaf 673d 99c1 223d 3aaa 463d
00000230: 3620 ec3c 937c 6b3d 4273 9b3c f3b8 9d3a
00000240: c557 08bf ee5c df3c bab3 7e3d be01 3f3d
00000250: 409a 173d bbb0 2c3d bc32 2a3d 30dc 993d
00000260: c36e 8f3c 8899 043e 5904 e33c 28a4 233d
00000270: 2bfb 2e3d b57a f6b8 81de a83c f28d 3b3d
00000280: 407a 5f3d 11d0 443d 280d 7e3d 52c3 303c
00000290: a125 f73c 15c8 933d ec0b 41bd 572f 1f3d
000002a0: 11f2 d53c c5bf c83d f600 2b3b 0bad 813d
000002b0: 9ccf a03c b1bf 913c fad0 ac3c cfa6 473d
000002c0: 8232 1e3d 89ce e13c 1f6f a73c 6924 dc3d
000002d0: 7d8e 393d 44c9 81bd 25ce 863c 2b14 3a3d
000002e0: bc39 123d b9a9 a53c b5f4 b53c 03c2 003d
000002f0: 0ffc 153d 9d30 173d f028 833d bde0 db3b
00000300: f901 fb3b 739d c33d 63bc 77bb f002 05bf
00000310: 710d 6d3d 83ed 42bd 9e15 3e3d 88fa 083d
00000320: f7d2 0e3d 5685 4e3c 2a48 3f3d 4737 153d
00000330: b334 cf3c d718 163d 6b82 573d 32ea 683d
00000340: 967c 353d 3500 353d 1e31 04bf d8a7 113d
00000350: 625b 173d 3acd 913c 6a9b 503d a3db b33b
00000360: 68a3 e53c 2be1 f33c 3d93 0e3d 8e9a ac3c
00000370: 645c 94bb 26e9 4b3d c138 9e3d 6860 913c
00000380: ded8 333d ad3c ed3c 3004 263d a540 083d
00000390: 0b6e f13c cd58 e43c 7a97 1a3d 85a8 353d
000003a0: 3c45 f63a f13b ce3c 89d5 3fbb 0809 183d
000003b0: e879 513d 9692 e73c 727b 243d 8cd5 f63b
000003c0: 115d 2c3d a4c4 7f3d 3619 05bf 1905 113c
000003d0: 9eb3 963c 1314 0b3d fe1b 0f3d 7361 c73c
000003e0: ff9d 113d df6d 063c fd93 bb3d 92b0 2d3d
000003f0: d919 763c a10e f63b 9efd 843c 3c0c fe3a
0.032660834 0.021923507 0.00032133516 0.0020650025 0.0689461 0.043869365 0.032664455 0.06837395
0.01961386 0.04955745 0.031008065 0.009936044 0.043972205 0.06036795 0.037238088 0.06780481
0.031873934 0.055144936 0.023176108 0.05439946 0.054923818 0.0378764 -0.054330092 0.014630872
0.045690008 0.026912112 0.027800228 0.07438341 0.013039663 -0.5237967 0.036825154 0.039765257
0.040560894 0.029528584 0.07933056 0.038914658 0.028727071 0.027087238 0.042825833 0.015694613
0.012743978 0.03752581 0.04915854 0.052660372 0.044825 0.085244186 0.019292599 0.039068513
0.031111997 0.059561536 0.04442927 0.03355142 0.037949957 0.15333918 0.0445715 0.067239776
0.058905367 0.031763505 0.029335933 0.04130021 0.055576522 0.15629171 0.023046004 0.026703408
0.045955688 -0.07216787 0.014851247 0.022903094 0.040111788 0.14523615 0.03681047 0.11598085
0.028269755 0.07355667 0.047057446 0.13309519 0.010991483 0.0062149186 0.026640004 0.005181283
0.03220864 0.042050455 0.037546203 0.03625008 0.02952145 0.0036522907 0.07405726 0.026066896
0.02715921 0.04789889 0.008857349 0.14308064 0.027777877 0.13493617 0.03533486 0.029728498
0.028486168 -0.5095786 0.007116655 0.059424225 0.033546478 0.0103613045 0.039442472 0.08606533
0.1467825 0.048922125 0.036353536 0.033643547 0.016743015 0.005220015 0.03216782 0.042592134
0.005529951 0.05347393 0.06535875 -0.062023938 0.15375504 0.035565186 0.028579446 0.050524063
0.028453328 0.03225414 0.04447532 0.049347423 0.029763274 -0.5325367 0.0364135 0.029978015
0.00832887 0.022709293 0.034244124 0.0054515195 0.021537272 0.03510854 0.027106496 0.03361475
0.03888419 0.056563474 0.03973541 0.048502184 0.028823953 0.05749185 0.018975858 0.0012033269
-0.53258926 0.027265992 0.06218312 0.04663252 0.03701234 0.04216073 0.04155229 0.075127006
0.01750887 0.12949193 0.027712034 0.039951473 0.04272 -0.0001175305 0.02061391 0.045789666
0.054559946 0.04804999 0.062024266 0.0107887555 0.03016931 0.07215897 -0.04713051 0.038863506
0.026116403 0.09802202 0.0026093102 0.063318335 0.019630246 0.0177916 0.021095742 0.048743065
0.038622387 0.027564304 0.020438729 0.10749132 0.045301903 -0.063372165 0.01645572 0.04542939
0.03569959 0.020222532 0.022211412 0.031435024 0.036617335 0.036911596 0.064042926 0.0067101405
0.0076601473 0.095515154 -0.0037801496 -0.5195761 0.057874147 -0.04758979 0.046407335 0.03344205
0.03486916 0.012605032 0.04669968 0.03642967 0.025293684 0.036644783 0.05261461 0.05686397
0.044308268 0.04418965 -0.51637447 0.03556046 0.036952384 0.017798055 0.050929464 0.005488829
0.02803202 0.029770454 0.034808386 0.021069791 -0.0045276154 0.049782895 0.07725669 0.017746165
0.043907993 0.028959597 0.040531337 0.033264775 0.029471418 0.027874375 0.037742116 0.044350166
0.0018788944 0.025175067 -0.0029271564 0.037117988 0.05114165 0.02826814 0.04015679 0.007532781
0.042080943 0.06244339 -0.51991594 0.008851313 0.018396195 0.03395469 0.034938805 0.02433846
0.035551067 0.008204906 0.09159086 0.04240472 0.015020811 0.007509068 0.016234215 0.0019382308

net.4.weight f4 [256, 256]
00000000: ed26 d7bb 1ed8 9abb 4f8d e93a c64a 40bc
00000010: a5a5 84bb 8210 b7bc 732a 73bb 5615 1039
00000020: 85e1 cb3b fd0f a7bb 09a6 2f3b 443c dfbb
00000030: cdd8 2b3d c578 90bb 9c12 b03b 93df 313d
00000040: 5df6 09bc 12d2 823a 9a3f 06bc 1358 86bc
00000050: 92a8 18bc 630e e73a bcff 7ebb db8a 113c
00000060: 7a8f ae3c b895 75bc f19d e53a d314 9b3c
00000070: 2389 2cbb 79b7 74ba 48b1 e4bb 4ede ec3a
00000080: cd5c 2c3d 66d2 883b 12d9 d1bc 9cfe 4fba
00000090: fac1 9839 cc1a 473c f125 24bc 4819 8bba
000000a0: 0313 e8b4 6cd7 ccbb 6f7d 243a 4e94 81ba
000000b0: e911 eebc 3433 ae3b 7f95 053d 5e42 e5bb
000000c0: 5d93 4fbb 838d 6cbb 9d8e 973c 0e3c 703d
000000d0: 85ce 543b 631e 84bb 10ab 6ebc 147d 9d3b
000000e0: 2f88 9bba d365 2d3b 70d2 a3bc 718f e4ba
000000f0: 1048 673c 5273 05bc cb9d 333b 7636 03bc
00000100: 078e 553a b77f 503c 402e 1b3d 9c53 5338
00000110: afeb e4bb af83 5abc e020 6bbc ad7a 603c
00000120: 281a 963b 6502 bb3b 9879 2e3c b030 0ebc
00000130: f7b5 603c ed20 9bbb 57d0 d0ba c935 3bbc
00000140: 55c7 41ba 5ae6 463a 42f2 7cbb 58e2 9dbc
00000150: 79df 18bb 1a22 c63b 7e82 0739 eed4 32bb
00000160: 6329 163c 7ff0 d4bb b2de abbc b6ca 18bc
00000170: 4a2c 113b 8b06 14b9 46d3 74bb 157b 69b9
00000180: e80c 083d 64e5 c63c 7279 d5bb f6eb 7cbc
00000190: 4338 04bc 8656 ad3c ec81 91bc 2137 e7bb
000001a0: 3eed 03bc 85d0 0cbc dbba 653b b052 ab3c
000001b0: 14ba 1a3c b7e4 0d3c 693a 6e3c 5a1c ff3c
000001c0: 4dd0 3dbb 276a babc 16f5 d038 65b8 683b
000001d0: d2b3 8cb9 0eb3 6739 278d 3f3a 273c eebb
000001e0: cec1 3ebb ee20 10bc c286 2739 9c00 b13c
000001f0: 0a18 e7ba d846 143d ca27 ccbc 3e1d 46bb
00000200: 81ac 9a3c a61d 3bba f273 60ba c180 46bb
00000210: 1e52 2abb 7db1 69bc 5dc9 45bb 3dac 963d
00000220: 4c2f 603c c58c 4c3c 04f3 44bb 57f7 8bbb
00000230: 7800 f439 3b86 c13c 2128 3b3d c21c babc
00000240: d573 3a3c 35bb 8dbb 9462 bf3a a220 4b3c
00000250: e0a1 02bc 3519 493c ec89 10bb 57e9 d7bc
00000260: 4a05 ffba 5f2a c6bb dc46 8f3b c561 7dbc
00000270: 93d6 6c3b aef9 98bb 6d65 f3b8 cc3c e2bb
00000280: 853c 4dbb a749 af3a 57cb 34ba 09cd 3abc
00000290: 0135 c8bb 89e0 8c3c c23e 053c 1466 83bb
000002a0: c203 b9bb 56b9 153c 97e3 eabb c040 adbc
000002b0: 2ded 91bc 60be 053d 2b96 943c c9d1 8abc
000002c0: 7ab6 53bc aee8 713a 44b8 273c 3993 573b
000002d0: f3a1 9cbc 2598 9dbc 5253 c2bc 30ad c13a
000002e0: 410e 613c bf40 16bb 9b65 813c 7373 ccbb
000002f0: dd59 0a3b 308e 63bc 8356 48bb 670f a2bb
00000300: c167 b4bb ebac 81bb 014f 773b bfa5 e63c
00000310: aa75 7a3b b4b2 84ba c044 c83b 65d0 6638
00000320: f7a3 473c 44c2 4ebc eb4a 6ebc 8eb8 01bc
00000330: 9231 39bb e365 1cba 69bc 20bc 393a e8ba
00000340: c634 613b 81b6 99b9 7f93 153c eb0b a9bb
00000350: 6d55 353d fdd9 e3bb 4711 fdbb bb59 bc3c
00000360: 7d65 8a3d 5d7a 3e3d 3912 473c f80a 7ebb
00000370: 2fdb 3b3b eb99 433d edd0 2c3d a7d4 d0bb
00000380: c5cf adbb 01f6 463d 0131 21bc 650a 633b
00000390: 3a28 14bc f12b 103d d712 773d 6520 373a
000003a0: e6f1 9dbb 44af 1d3b c89e 543b a144 90ba
000003b0: bec4 1f3c 5490 573c f499 89bb dcbe 3c3c
000003c0: 2f8d 88bc bb40 b0bc 7121 023d 724f 5c3c
000003d0: 1abc d5b9 491f 873b b72d 1e3d cad2 0b3d
000003e0: a104 9bbc f6fa 92bb abad 58bb 96dc 5abc
000003f0: 3155 1abb 18cf b2ba 65bb 093c 5344 123d
-0.0065659196 -0.00472547 0.0017818603 -0.011736577 -0.0040480667 -0.022346739 -0.003710416 0.00013740858
0.0062219524 -0.0050983415 0.0026801846 -0.006812604 0.041954804 -0.004408928 0.005373312 0.043426108
-0.008420554 0.0009980819 -0.008193875 -0.016399419 -0.009317534 0.0017628189 -0.0038909754 0.008883203
0.02130865 -0.014989309 0.0017518384 0.018930828 -0.0026326857 -0.0009335201 -0.0069791414 0.0018071623
0.04208069 0.004175472 -0.025616203 -0.0007934363 0.00029136223 0.012152385 -0.010018812 -0.0010612393
-4.32272e-07 -0.006251266 0.00062747946 -0.0009886117 -0.029061275 0.0053161625 0.032613274 -0.006996437
-0.0031673529 -0.003609509 0.01850062 0.058651023 0.0032471728 -0.0040319427 -0.014567152 0.0048061702
-0.0011866147 0.0026458397 -0.019997805 -0.0017437768 0.014116302 -0.00814517 0.0027407284 -0.00800859
0.0008146469 0.012725762 0.037885904 5.0384187e-05 -0.0069861035 -0.01333706 -0.0143511 0.013701123
0.004580755 0.0057070726 0.010649107 -0.0086786 0.013715259 -0.0047341497 -0.0015931231 -0.011426398
-0.00073920685 0.00075874256 -0.0038596545 -0.019272968 -0.002332656 0.0060465457 0.00012923215 -0.002728756
0.009165141 -0.006498396 -0.020980213 -0.009325674 0.0022151642 -0.00014116817 -0.0037357374 -0.00022266463
0.033215433 0.024279304 -0.0065147216 -0.015437117 -0.008070054 0.021159422 -0.017762147 -0.0070561324
-0.008052168 -0.008594637 0.0035054001 0.020913452 0.009443779 0.008660487 0.014540293 0.031141449
-0.0028963268 -0.022755696 9.963864e-05 0.0035510298 -0.00026836857 0.0002209658 0.0007307105 -0.0072703543
-0.0029107216 -0.008796914 0.00015976562 0.021606736 -0.0017631066 0.036200374 -0.024921317 -0.0030229832
0.018881084 -0.0007137902 -0.0008562199 -0.0030289146 -0.0025988887 -0.014263508 -0.0030179836 0.073570706
0.013683151 0.012484734 -0.0030052075 -0.0042714286 0.00046539656 0.023623576 0.045692567 -0.02271879
0.011380156 -0.0043252953 0.0014601522 0.012397917 -0.007973164 0.012274076 -0.0022054864 -0.026356382
-0.0019456532 -0.0060475315 0.004372461 -0.015465205 0.0036138638 -0.004668436 -0.00011606035 -0.00690422
-0.003131659 0.001337339 -0.0006896755 -0.011401423 -0.006109834 0.01719691 0.008132638 -0.0040099714
-0.0056462 0.009138426 -0.007168244 -0.02114904 -0.01781329 0.03265226 0.018138012 -0.016945736
-0.012921924 0.00092280924 0.010236803 0.0032894148 -0.019120192 -0.019237587 -0.02372137 0.0014776345
0.013736309 -0.0022926775 0.01579552 -0.0062393486 0.0021110692 -0.013888881 -0.0030569143 -0.0049456838
-0.0055055325 -0.003957381 0.00377363 0.028155206 0.0038217106 -0.0010124058 0.0061117113 5.5030356e-05
0.012185088 -0.012619559 -0.014544229 -0.007917536 -0.0028258306 -0.000596611 -0.0098105455 -0.0017717547
0.003436373 -0.0002931841 0.009129404 -0.0051588914 0.04427092 -0.0069534765 -0.007723007 0.022992006
0.067576386 0.046503413 0.012150341 -0.0038763862 0.002866458 0.04775421 0.042191435 -0.0063730064
-0.005304309 0.04857445 -0.009838344 0.0034643647 -0.009042794 0.035198156 0.0603207 0.0006985723
-0.0048200963 0.0024060765 0.0032443274 -0.0011006781 0.009751497 0.013156969 -0.004199261 0.011520114
-0.016668884 -0.02151524 0.031770173 0.013446676 -0.00040766672 0.0041236025 0.038617816 0.03413657
-0.018923106 -0.0044854833 -0.0033062499 -0.013358256 -0.0023549313 -0.0013642041 0.008406495 0.03570969

net.4.bias f4 [256]
00000000: 2e11 febd 3442 bcbd 2210 b8bd 1bc4 a7bd
00000010: 432b 8cbb 836c c1bd fc63 54bd d846 1cbd
00000020: 8c32 8ebd dd7a 28bd 6b79 7dbd b464 cbbd
00000030: 282e 5abd 1e3e 2bbd a272 92bd 9fb9 4dbc
00000040: 2422 a3bd 021d 8cbd 914c cebd 6a3f b7bd
00000050: 9b39 b6bd 5a3c 05be a874 21bd b714 cabd
00000060: 01e2 bfbc 586a 7bbc e780 87bd adf8 d0bd
00000070: 4134 babd 829c d4bc c4f7 54bd 42a8 08bd
00000080: 8a36 f3bd 591b 4abd 69ac b7bd 0aa7 c4bd
00000090: 411a 1cbe 72ef 63bd bb3a a9bd 8eb3 d0bd
000000a0: e60d 49bd b122 88bd 47e1 58bd 3cba 06be
000000b0: f60a 6fbd 5b85 9cbd 902f 96bd 4ef6 5cbd
000000c0: 4c8d 80bd 5ee1 3dbd f123 47bd fd03 80bd
000000d0: ae69 2bbe 9a32 a8bd f7b8 c5bb 186e 06be
000000e0: ddc9 49bd 6576 9b3c 70f3 8bbd f56c bdbd
000000f0: ba60 31bd 6e75 d5bd 3f3d 6abd 2da3 2cbd
00000100: fb0c cebd 6db9 90bd b75c c9bd e5aa 7cbd
00000110: b221 87bd f242 0abe 29ff c3bd 61d9 d4bd
00000120: 723d 92bd f0b3 b3bd 8dc0 cabd 382c f8bd
00000130: 4f15 afbd dc7d 87bd 4933 2abd 0f18 f4bc
00000140: 047a efbd f12c 82bd 8ada 19bd 0abd f2bd
00000150: 9216 b3bd 4761 9eba ed26 55be c39b 57bd
00000160: b610 e8bd bc94 bdbd 8336 d9bd 3cd1 c7bd
00000170: 8ae4 c5bd 59bf bbbc 7b49 813b f939 61bd
00000180: 4681 8cbd c11e 9bbd 77a9 a4bc fd57 13be
00000190: 097d 46bd 8ba5 64bc f200 25bd 3f3a acbd
000001a0: cd2c dbbd 292e 65bc 8156 99bd 924d f1bd
000001b0: 18bf b0bc 3ece 96bd d83c 8cbd ceed 45bd
000001c0: a1ea d4bd c9f2 eebd f160 60bd 2592 8abd
000001d0: b927 1fbc 2b89 3abd 5454 c0bd 8ffa 76bd
000001e0: f49e b2bd b7f1 1abd 5956 bdbd 18e3 a5bd
000001f0: a08c b4bd cecb 8dbd 68dc 9bbd 2b2f b2bd
00000200: 54f6 66bd f160 53bd 5ee2 16be 154a 59bd
00000210: a937 66bd fe7f c5bc 35b5 1fbd 4e43 fcbc
00000220: 48a8 08be 5cb8 45bd 9eab 8ebd 0054 8abd
00000230: 1c0f d0bd 4392 06be d8d8 86bd edcd fabd
00000240: 112d 05be ba94 c5bc 348c 05bb c3d2 b7bd
00000250: 20ff 26b8 3a49 519f f23d 13be 7eea f3bc
00000260: 2174 babd cafe 7dbd 5528 0abe d6e5 c9bd
00000270: fb2d cbbd 82b1 adbd a0ef b8bd 6c3b 7bbc
00000280: c321 b1bd 9b7d 7bbd 2dcc edbd fbe0 b2bd
00000290: 5312 a8bd 637c 69bd babe 46bd 5ec5 86bd
000002a0: 803a 82bd 4bc4 56bc 4f19 01be 6ff7 84bd
000002b0: 3990 eebd 5b8a 1abc 03c9 83bd b73f 65bd
000002c0: 26fe 88bd 923b f3bd 6025 ffbd ba07 d4bd
000002d0: fc9e 8c3c 6dca afbd a191 6bbd 9fab 0dbe
000002e0: ba7b 0abe 0fa1 40bd fa74 dbbd eb56 febd
000002f0: 3c74 15be fdaf 788e 318e 05be 2473 97bc
00000300: 9d51 afbd 0035 8cbd e3b2 57bd 9333 07bd
00000310: 4dbc a3bd 3269 c3bd 41cd c0bd cb02 babd
00000320: fb9b 3fbc c356 58bd f585 c4bd 7ef8 a0bd
00000330: ce4e 03ac da1f f4ad 25c8 6cbd 1e6b 1ebe
00000340: cd7b afbd 6a9f 02be 5154 f0bc d90e f9bd
00000350: 439e 10be aa9d d1bd dd4e 80bd 1715 e5bd
00000360: a3a6 33bd d68c a5bc 707a 8cbd 6ce6 a4bd
00000370: 0b2a a9bd 7751 31bd cc93 1ebd 96e1 2ebd
00000380: b4b5 d3bc a080 95bd ca24 a9bd 7fd4 68bd
00000390: 9dd8 bcbd 54c1 d7bd 318b 15be 42d5 2fbd
000003a0: 7182 cdbd c368 25bd df31 59bd fc9a b4bd
000003b0: 0f9d 8cbd 3f9e 7cbd def4 e9bd 4e87 6bbd
000003c0: 72f2 fcbd b252 9abd 8cb2 acbd 0ef6 5fbd
000003d0: 0a9c aabc 7b94 efbd 2887 c5bd e8b5 81bc
000003e0: 57f7 48bd 204e 04bd ca33 a0bd 90b7 81bd
000003f0: 8b2a aabd dad8 debd 64ac 37bd 542e 8cbd
-0.124056205 -0.09192315 -0.08987452 -0.08191701 -0.004277618 -0.09444525 -0.051853165 -0.0381535
-0.06943235 -0.041132797 -0.06188337 -0.09931317 -0.053266674 -0.041807286 -0.07150771 -0.012556463
-0.07965496 -0.0684147 -0.10073198 -0.08947642 -0.08897706 -0.13011304 -0.039417893 -0.09867232
-0.023423197 -0.015345179 -0.06616383 -0.10203681 -0.09091998 -0.025953535 -0.0519941 -0.03336359
-0.11875637 -0.049342487 -0.089684315 -0.09602173 -0.1524439 -0.055648275 -0.08263155 -0.10190497
-0.04908552 -0.06647242 -0.052949216 -0.1315698 -0.058360063 -0.07642623 -0.073332906 -0.053945832
-0.0627695 -0.046357505 -0.04861826 -0.06250761 -0.16739532 -0.082127765 -0.0060340124 -0.13127935
-0.049264777 0.018977353 -0.068335414 -0.092492975 -0.043305136 -0.104227886 -0.057187315 -0.042147804
-0.100610696 -0.07066617 -0.09832137 -0.061686415 -0.06598224 -0.135021 -0.09570152 -0.10393024
-0.07140626 -0.08774555 -0.099000074 -0.12117809 -0.08548986 -0.06615803 -0.041552816 -0.029796628
-0.116931945 -0.06356228 -0.03756193 -0.118524626 -0.08744539 -0.0012083434 -0.2081563 -0.05263878
-0.11331312 -0.092568845 -0.106061004 -0.09756705 -0.09662731 -0.02291839 0.003945527 -0.054986928
-0.068605945 -0.07574225 -0.020100338 -0.14389034 -0.048459087 -0.013955484 -0.040284105 -0.08409547
-0.107019044 -0.013988056 -0.074872024 -0.117823735 -0.021575496 -0.07363556 -0.068475425 -0.04832249
-0.103963144 -0.11667401 -0.05477995 -0.06766156 -0.00971406 -0.04554097 -0.09391084 -0.060297545
-0.08721724 -0.037828173 -0.09244985 -0.08099955 -0.088158846 -0.06923638 -0.076103985 -0.08700403
-0.05638726 -0.051606122 -0.1473479 -0.053049166 -0.056205425 -0.024108883 -0.038991172 -0.030793812
-0.13345444 -0.048271522 -0.06966327 -0.06754303 -0.10159132 -0.13141732 -0.065843284 -0.122463085
-0.13005473 -0.02411877 -0.0020377757 -0.089757465 -3.9815088e-05 -4.4318043e-20 -0.14379099 -0.0297749
-0.09104181 -0.062010564 -0.13491948 -0.09858291 -0.099208795 -0.084811226 -0.0903008 -0.0153339915
-0.08649018 -0.061399084 -0.11611209 -0.08734318 -0.0820662 -0.05700339 -0.048521735 -0.065806136
-0.06358814 -0.013108323 -0.1260731 -0.06492507 -0.11648602 -0.009432401 -0.06434824 -0.055968966
-0.066891 -0.118765965 -0.124583006 -0.10353036 0.017165653 -0.085835315 -0.05751193 -0.13835
-0.1352376 -0.047028597 -0.10715671 -0.12418922 -0.14595121 -3.0653095e-30 -0.13042523 -0.01848752
-0.085604884 -0.068460464 -0.052660834 -0.03300817 -0.079949 -0.09541549 -0.09414149 -0.09082564
-0.0116949035 -0.052817117 -0.09595863 -0.07859896 -1.8659965e-12 -2.7753733e-11 -0.05780806 -0.1547055
-0.08568535 -0.12756124 -0.02933708 -0.12161035 -0.14122872 -0.1023515 -0.06265042 -0.11185663
-0.04386009 -0.020208757 -0.068592906 -0.08051762 -0.08259972 -0.04329058 -0.03871517 -0.042695604
-0.025843479 -0.07299924 -0.0825897 -0.056843277 -0.09221003 -0.10534921 -0.14603879 -0.042927988
-0.10034645 -0.04038311 -0.053026076 -0.088186234 -0.06865894 -0.061674353 -0.11423658 -0.057502083
-0.1235093 -0.07535304 -0.084324926 -0.054678015 -0.020826358 -0.11698242 -0.0964492 -0.01583381
-0.049064007 -0.03230107 -0.07822378 -0.0633384 -0.08308896 -0.10881205 -0.04484214 -0.06844774

net.6.weight f4 [256]
00000000: 85b8 c33e 0fbb bf3e 6455 933e 0583 833e
00000010: fef9 913e 5ea4 fe3e 35d7 a83e 7ddc 3b3e
00000020: e7ff 853e de23 d93e 0b8d 823e c247 6c3e
00000030: 42f4 eb3e ea37 993e da0c b63e e0de dc3e
00000040: 7199 f73e 7702 913e 9aba db3e 7ec3 863e
00000050: aefb 733e 8512 e13e d487 db3e 6319 a23e
00000060: 21f0 da3e 45e9 9f3e e481 933e 2568 d73e
00000070: d14f 663e 6b22 6b3e ec0b 9a3e 9aa7 d93e
00000080: ea93 c03e cd8b 993e 064a 883e e2a8 e03e
00000090: 782f f43e 65c8 bb3e e5a8 8b3e e4e7 8b3e
000000a0: a7d4 a63e f4b9 c93e 38f5 953e 2868 eb3e
000000b0: a693 ea3e 1b9f 623e d052 a33e 9584 e93e
000000c0: d988 4f3e f004 a43e 070e e53e d96a d13e
000000d0: 70de cb3e aaae 7f3e c351 e93e 426d fb3e
000000e0: 918f 873e df2c 323d 3a6b bc3e 16ee 9f3e
000000f0: 6147 923e cb79 023f 1cd8 873e b1eb a33e
00000100: 42d1 8f3e 8a85 943e 8099 433e 1526 69be
00000110: 5b23 a63e 20bc e03e 3137 cf3e 644e d43e
00000120: 733f 993e c101 b23e f1b8 a23e 2423 003f
00000130: b10b cb3e d45f 9c3e 495d 763e e0f3 843e
00000140: 4418 dc3e 3140 8e3e 75b4 9d3e 98cb 863e
00000150: d8f9 6e3e 6a11 e03e dfaf ab3e 22b4 bf3e
00000160: 7305 813e 85e8 e33e d32a 983e bbf1 e83e
00000170: dc3c 9c3e 0135 933e 5f15 803e 8fa7 943e
00000180: fe6e 893e 237d 9f3e 4ffa 863e 13f8 8a3e
00000190: 2045 a83e 4d5c ea3e 2e42 943e 3fb0 bc3e
000001a0: 371f c43e 4b5f 223e 0701 993e 6ad4 f33e
000001b0: c102 f03e 928b 903e 697a 7d3e 2734 8f3e
000001c0: 5468 9d3e 976d 053f 9808 7f3e c538 923e
000001d0: 84e0 883e b1e5 9e3e 90ce 9c3e 832a 803e
000001e0: 4a64 b13e 1625 953e e878 9b3e d2b4 f73e
000001f0: 305b 833e b1c5 843e 08f2 a83e 81fb 943e
00000200: 2f9b f83e d4d1 953e 6405 d93e 858f 893e
00000210: c472 973e d9a6 883e ea0d 8c3e cf6f 953e
00000220: b797 003f 92f7 903e 2b22 a63e 1cf7 ab3e
00000230: cfe4 c73e 79f9 fd3e 7fc1 cc3e 690c 8a3e
00000240: 1204 033f a25e 633e 173b 803e f85f 923e
00000250: ff18 d13e 7f36 e53e 995e f63e 5767 953e
00000260: c118 c93e 2c36 7d3e b4fa e93e 8f33 9c3e
00000270: e418 a63e 9fde a23e 99be 8e3e 0d08 0c3e
00000280: 4be0 c13e 082f 723e 4634 ef3e 90c7 993e
00000290: 0b33 8a3e 0012 893e a5f1 cf3e d8a9 893e
000002a0: e2d9 9d3e b42b 983e 7439 0a3f e823 823e
000002b0: 1fae e23e 3f1f 803e 0183 3d3e 670b 883e
000002c0: ac4c 9c3e a7bf a53e 6ff3 d93e f31e e13e
000002d0: 9a29 e53d 3885 8a3e 4c49 f63e 0c54 f63e
000002e0: 10af d33e 4bca e63e fc8a a83e 555d b43e
000002f0: 6141 f53e 3e67 f23e d567 983e afcd 0c3e
00000300: ca58 f13e f801 a53e d99b 673e fe03 083e
00000310: 1050 923e 5bde ce3e 0704 833e ebc7 803e
00000320: 211e 8c3e fd35 913e 1a21 943e 48c1 893e
00000330: f4a4 f43e 2629 d83e 8f69 7d3e 88dd f53e
00000340: 4a15 b73e 8aa9 f93e 6781 c73e 2fa4 823e
00000350: 02f3 cf3e 7557 ee3e 3f67 8b3e 6223 d53e
00000360: 4c17 483e d2ea 6c3e 3fe9 aa3e 9f02 ac3e
00000370: 06a1 4e3e 1db9 983e 1547 983e f817 f23e
00000380: 76c2 8e3e e9e0 ce3e 80bb b23e 9fa0 c73e
00000390: b153 8f3e f4e8 a83e 11e4 ab3e cf5f 333e
000003a0: 278c 793e da9f db3e 4bec 883e d6f6 803e
000003b0: 5082 953e 119f b23e 2ef3 9f3e 3bd8 6c3e
000003c0: 4084 e43e 2989 933e 2467 8d3e 3640 843e
000003d0: 9582 e43e 0c99 dd3e cb9b c73e d3f7 8c3e
000003e0: 76e5 993e 26a1 d13e 2b14 b73e 7387 c73e
000003f0: 0688 aa3e f413 e43e 5603 973e 358d 863e
0.38226715 0.37447402 0.28776085 0.25685897 0.2851104 0.49734777 0.3297669 0.18345828
0.261718 0.42410177 0.25498232 0.23074248 0.4608479 0.29925472 0.3555668 0.4313879
0.48359254 0.28322193 0.42915803 0.26321024 0.23826477 0.43959442 0.42877066 0.31659994
0.4276133 0.31232658 0.28810036 0.42071643 0.22491385 0.22962348 0.3008722 0.42510682
0.3761285 0.29989472 0.26618975 0.43878847 0.47692466 0.36676326 0.27277294 0.27325356
0.32584116 0.39399683 0.2928865 0.45977902 0.45815772 0.22131006 0.31899118 0.45608965
0.20267047 0.32035017 0.44737265 0.4090183 0.39818144 0.24968973 0.45570192 0.49106795
0.2647672 0.043499824 0.36800557 0.31236333 0.28570083 0.5096709 0.26532066 0.32015756
0.2808934 0.29008132 0.19101524 -0.22768433 0.3244885 0.43893528 0.40471795 0.41466057
0.2993122 0.34766963 0.31781724 0.5005362 0.39657357 0.3054186 0.24059023 0.25967312
0.42987263 0.2778335 0.3080174 0.26327205 0.23337495 0.43763286 0.33532616 0.37442118
0.2519947 0.44513336 0.29720172 0.45496926 0.30515182 0.28751376 0.25016305 0.29034087
0.26842493 0.3115016 0.26362845 0.2714239 0.32865238 0.45773545 0.2895674 0.36853215
0.38305065 0.15856664 0.29883596 0.47622997 0.468771 0.28231484 0.24753727 0.27969477
0.3074366 0.52120346 0.24905622 0.28558937 0.26733792 0.31034616 0.30626345 0.25032434
0.34646827 0.29129857 0.30365682 0.48380142 0.25655508 0.25932077 0.32997155 0.29098132
0.48555896 0.2926165 0.42386925 0.2686731 0.29579747 0.26689795 0.27354366 0.29186866
0.502315 0.2831388 0.32447943 0.33586967 0.39041755 0.49604395 0.39991376 0.26962593
0.51178086 0.22204068 0.25045082 0.28588843 0.40839383 0.4476814 0.48119047 0.29180405
0.39276698 0.24727696 0.45699084 0.30508086 0.32440865 0.3181047 0.2787979 0.13674946
0.37866434 0.23650753 0.4671957 0.30035067 0.26992068 0.26771545 0.40614048 0.26887393
0.30830294 0.29720843 0.53993917 0.2541802 0.4427347 0.2502384 0.18507005 0.265712
0.30527246 0.32372782 0.42568538 0.43968925 0.111895755 0.27054763 0.48102796 0.48110998
0.413445 0.45076212 0.32918537 0.35227457 0.47901443 0.47344393 0.29766718 0.13750337
0.47138053 0.32228065 0.22618045 0.13282773 0.28576708 0.4040402 0.2558901 0.25152525
0.27366737 0.28361502 0.28931504 0.26905274 0.477821 0.42218894 0.24747299 0.48020577
0.3575843 0.4876216 0.38965914 0.25515887 0.40615088 0.465511 0.27227208 0.41628557
0.19540137 0.23136452 0.33381078 0.3359575 0.20178613 0.2982873 0.2974173 0.47283912
0.27882737 0.40405968 0.34908676 0.38989732 0.2799354 0.3299023 0.33572438 0.17517017
0.2436987 0.42895395 0.26742777 0.2518832 0.29200983 0.34886983 0.3124022 0.2312936
0.4463215 0.28815582 0.27617753 0.2583024 0.44630876 0.43280828 0.38986048 0.27532825
0.30057877 0.4094326 0.35757574 0.38970527 0.33306903 0.44546473 0.29494733 0.26279607

net.6.bias f4 [256]
00000000: 8e50 123d 11d3 e83c 5ade c33c 3b4e c03c
00000010: 804f 493c 62e7 2a3d 9b72 a73c a350 703c
00000020: 8a25 b63c 6ee3 123d a1ec b23c 1e55 773c
00000030: 12d7 263d ebda 993c ff6b b73c d694 0d3d
00000040: e5a9 173d 063e 9c3c ca16 fd3c cc6a 7b3c
00000050: 9071 af3c 439b f63c 804e 103d 356b a83c
00000060: c4c1 013d d065 593c aee0 b03c 4ccd fa3c
00000070: 7111 613c fbe6 753b 6b11 3c3c d63a 053d
00000080: 26a2 ca3c 4845 e23c eeb1 ad3c e880 fc3c
00000090: 4116 193d ee18 c73c 8fbf c43c 9751 9b3c
000000a0: 1226 983c 74d4 dc3c 369d 8f3c a59b 0e3d
000000b0: f3ca 063d 2e94 353c 15f1 a83c 806f 153d
000000c0: a9a9 ad3c 3a16 a63c e6fa 1e3d 244f 083d
000000d0: 0cb6 dd3c 640c ae3b 1f35 093d acc6 0d3d
000000e0: ae84 093c 71f1 29bf d86a dd3c 6ea0 be3c
000000f0: 9357 363c ce11 2a3d 9e64 823c 0dd1 a93c
00000100: 5c0d 2f3c ffc5 943c 1926 1f3c 3f10 c7ba
00000110: 266a b53c f60e d13c c4fb f03c e663 013d
00000120: e8c2 cd3c d49e 6e3c faa1 e03c 0bab 203d
00000130: fff1 f03c f43b a53c c268 353b 749e 923c
00000140: e86a 263d 8813 553c 3460 913c fac0 a33c
00000150: cd72 353c 3b60 0b3d d462 c53c 8c69 f83c
00000160: c8db 753c 72b2 113d 9be2 db3c e1d0 1c3d
00000170: 958d df3c 2bc8 373c bf3b 1b3b a151 f43c
00000180: 32ae 933c 500c b03c ada6 3e3c 62d8 9f3c
00000190: 497b 743c 6540 163d 363e 9f3c bfb2 af3c
000001a0: 21bb ca3c 4327 0fbc 72eb a53c 4062 223d
000001b0: 3182 153d e06d 7d3c ea5d 8b3c cfe3 963c
000001c0: ce03 af3c 2b4b 353d a938 9a3c 7a60 9c3c
000001d0: 39c0 f23a 1ba6 993c f0ba b13c 6f02 683c
000001e0: 2c17 cc3c 13cc 873c 81ce a23c 93fd 293d
000001f0: 91b4 aa3c c475 a23c 05cb df3c 118a a63c
00000200: a23b 1e3d 3403 c23c 03ee ff3c e74f 2b3c
00000210: e68d 953c fbd6 563c ebc8 ba3b 0bac 013c
00000220: 986e 263d d61f 7a3c 57a0 c53c 88db a33c
00000230: ff34 043d 5d82 173d a447 bc3c a599 853b
00000240: 58a2 273d cd8a 1f3c 288a e8bb e0fd 523c
00000250: 480e 043d b637 0d3d 50c4 0c3d 7380 f23b
00000260: de5b d93c f885 673c 16c6 0f3d 4e81 a13c
00000270: 2eba c93c 2527 773c 50fd d33b f132 aabc
00000280: 57a3 c03c fc7d 3b3c 0fd2 123d cfdd 0e3d
00000290: 89b2 9b3c e0eb 9b3c 9551 e63c df51 c63c
000002a0: 7b4a 063d cf05 303c ea82 283d 65b5 883c
000002b0: 6aac 0b3d fad2 343c 6ad8 583c acf7 5e3c
000002c0: a8ee de3c 0e1b 973c aef5 063d 13b3 143d
000002d0: 3751 33bd 5e8d 943c a55a 153d 0573 133d
000002e0: a577 eb3c 11c7 083d 36f7 d53c 8244 b93c
000002f0: 53c3 0d3d 0245 083d 0953 0a3c 27f8 37bd
00000300: db7a 123d 82bb 8b3c 7244 493c 151a a1bc
00000310: c4e4 093c 085e 153d 4e67 af3c 9487 8b3c
00000320: 251a faba a331 4e3c b01a 733c 630a ca3c
00000330: bd13 063d b171 0d3d 1aaf 8b3c a138 183d
00000340: 78d6 b53c 25dd f93c 4318 023d a58f 833c
00000350: 9544 193d fb80 083d 9021 833c fe8a f23c
00000360: 3edc 75ba 3398 713c 32ca ba3c e9c1 b93c
00000370: c7d3 a43c 4802 363c 15ea 973c 51aa 1e3d
00000380: 789a be3b 0f39 f93c 06a1 cf3c b7bf e73c
00000390: 6c64 ef3c 227b cb3c 3c84 bc3c 8b0b 883b
000003a0: 2557 c63b ab92 223d c274 7f3c 3a7d ab3c
000003b0: 6b70 993c b553 d13c f1b1 cb3c 50dc a53c
000003c0: 7692 f23c 8adf 8d3c 923e b73c 46cc 8f3c
000003d0: 300c 163d 5e7f 0f3d 4da3 eb3c 77cf 693c
000003e0: 0ea6 8d3c 17d4 1e3d 9a38 ca3c 551b bb3c
000003f0: a9b6 bb3c a7e1 0f3d c12f 9f3c a7f0 893c
0.035721354 0.028420957 0.023909736 0.023474803 0.012287021 0.04172457 0.02044039 0.014667663
0.022234697 0.035861425 0.02184135 0.015095977 0.04073245 0.018781146 0.022390364 0.03456577
0.03702726 0.019072544 0.030894656 0.015345287 0.021416456 0.030103331 0.035231113 0.020558933
0.03167893 0.013268903 0.02159151 0.030615471 0.0137370685 0.0037521708 0.011478762 0.032526813
0.024735522 0.027620926 0.021203008 0.030823186 0.03737474 0.02430388 0.024017124 0.018959804
0.01857284 0.026956774 0.017531019 0.034816403 0.03290839 0.011082692 0.02062277 0.036483288
0.021199064 0.02027427 0.038813494 0.0332786 0.027064346 0.0053115357 0.033497926 0.034613296
0.00839345 -0.66384035 0.027028486 0.023269858 0.011129278 0.041520886 0.015917119 0.020729566
0.0106843375 0.018160818 0.009713673 -0.0015187337 0.022145342 0.02551983 0.029416926 0.03158941
0.025117353 0.014564235 0.027420986 0.03922562 0.029412268 0.02017019 0.0027680849 0.017897822
0.040629297 0.013005145 0.017746069 0.01998948 0.011074734 0.03402732 0.024094976 0.030323766
0.015006013 0.03557057 0.026841452 0.03828514 0.027289191 0.011217157 0.0023686734 0.02982408
0.018027399 0.021490246 0.011636418 0.019512359 0.014921972 0.036682505 0.019438844 0.021447537
0.024747433 -0.008737388 0.02025387 0.03964448 0.036501113 0.015468091 0.017012555 0.018419174
0.021364119 0.04426114 0.018825846 0.019088972 0.0018520422 0.018755963 0.021695584 0.014160736
0.024913393 0.016576802 0.01987386 0.041501593 0.020838054 0.019831546 0.027318487 0.020329507
0.03863109 0.023683168 0.031241423 0.010456062 0.018256139 0.013112779 0.005700221 0.007914553
0.040632814 0.015266379 0.024124308 0.020002142 0.032277104 0.03698956 0.02298338 0.0040771537
0.040926307 0.0097376825 -0.0070965476 0.012877911 0.032240182 0.03447696 0.034366906 0.0074005662
0.026533064 0.014131062 0.03510102 0.019714978 0.02462491 0.015085016 0.006469406 -0.020776244
0.023515387 0.011443611 0.03584486 0.034879502 0.01900603 0.019033372 0.028115073 0.024208961
0.032785874 0.010743572 0.041140474 0.016688058 0.034099974 0.011036629 0.013235191 0.013608854
0.02721341 0.018445518 0.032949142 0.03630359 -0.043778624 0.018133815 0.0364634 0.035998363
0.028743574 0.03339297 0.026118856 0.022615675 0.034610104 0.033268936 0.008442649 -0.04491439
0.035761695 0.017057184 0.012284385 -0.019665757 0.008416358 0.03646663 0.021411564 0.017032422
-0.0019081278 0.0125850765 0.014837906 0.024663156 0.032733668 0.034532253 0.017051268 0.03716338
0.022196993 0.030500958 0.03176142 0.016059706 0.03741892 0.03332613 0.016007215 0.029607292
-0.0009378827 0.01474576 0.022801492 0.022675471 0.020120515 0.011108942 0.018544236 0.038736645
0.005816754 0.030422715 0.025345337 0.028289659 0.02922269 0.024838988 0.023012273 0.0041517667
0.006052869 0.039690655 0.015591802 0.020933736 0.018730363 0.02555261 0.024865123 0.020246655
0.029610854 0.017318506 0.022368703 0.01755346 0.036632717 0.035033576 0.028764391 0.014270655
0.017291095 0.038776483 0.024685193 0.022840181 0.022914248 0.03512731 0.01943195 0.016838385
