RL code/models/checkpoint_episode_690000.pth (torch, 801255 bytes, 40 tensors)

net.0.weight f4 [256, 22]
000000 b9 b2 9d 3b 7a 98 89 bc a5 f9 24 3d cc 27 5d be
       0.004812565 -0.01679634 0.040277142 -0.21597213
000010 fc 1f 57 3d 14 5e d2 bd 7a 3b 74 bd cf 37 fd bd
       0.052520737 -0.1027185 -0.059627034 -0.1236416
000020 82 b8 0a bd 7b 15 8c bd a7 5c 90 bd 62 fa fa 3c
       -0.033867367 -0.068400346 -0.07048922 0.03063697
000030 f5 f2 1f 3d bf 9c 8f be 6f b1 10 3d b3 c0 74 bd
       0.03905006 -0.28049275 0.035325464 -0.059754085
000040 d5 7d 9a bd a5 52 88 bd 82 b8 0a 3d 7b 15 8c 3d
       -0.07543532 -0.06656388 0.033867367 0.068400346
000050 b9 b2 9d 3b 7a 98 89 bc 44 aa 70 bd 44 4b 82 3c
       0.004812565 -0.01679634 -0.058756128 0.01590503
000060 c8 f4 e3 bb 0a 45 be bd a3 b6 17 bb 8a dd 24 bc
       -0.0069566704 -0.09290512 -0.0023149631 -0.010062585
000070 ea 35 e7 3d 43 a3 75 bd e3 93 b7 3c 3a fe e8 3d
       0.1128958 -0.05997015 0.022409385 0.11376615
000080 8b 32 c1 bd 53 50 1d be 15 86 08 3d 80 4c d3 bc
       -0.094334684 -0.15362673 0.033330996 -0.025793314
000090 f9 fb 2d bd ce 7c 76 bd 62 2e 90 3d db f8 d1 bd
       -0.042476628 -0.060177617 0.07040097 -0.102525435
0000a0 e3 93 b7 bc 3a fe e8 bd 44 aa 70 bd 44 4b 82 3c
       -0.022409385 -0.11376615 -0.058756128 0.01590503
0000b0 1b 60 09 3e 43 c3 f6 3d 70 cd 34 3e 03 82 31 3e
       0.13415568 0.12048962 0.17656493 0.17334752
0000c0 ad be 3b be da 80 25 be bc 7e 42 be 8d 0c 22 be
       -0.18334456 -0.16162434 -0.18993658 -0.158251
0000d0 c7 27 c8 be 96 8a 94 be 38 66 96 be 5e db 71 be
       -0.39092848 -0.29011983 -0.29374862 -0.23618838
0000e0 ae 32 47 be 64 10 10 be 0b c9 36 3e 50 79 1e 3e
       -0.19452927 -0.14068753 0.1785013 0.15475965
0000f0 0b db 31 3e 15 29 25 3e c7 27 c8 3e 96 8a 94 3e
       0.17368715 0.16128953 0.39092848 0.29011983
000100 76 5b 09 3e 59 b8 f6 3d 39 ca 0a bd 3c c9 81 3d
       0.13413796 0.1204688 -0.03388426 0.063372105
000110 58 29 40 bd 10 69 98 3d 51 48 96 bc cb bb 2c bc
       -0.04691443 0.07441914 -0.01834503 -0.01054282
000120 01 c3 ea 3c 0e 6d 1f bd 4e 66 72 bd d3 e2 7a bc
       0.028657438 -0.038922362 -0.059179597 -0.015312868
000130 b0 40 10 3e d1 75 a1 3d dd 10 63 bd e3 17 6f 3d
       0.14087176 0.078838 -0.055436004 0.05837239
000140 b6 71 48 bc ed 95 ce ba b8 0f 02 3d 28 33 37 bd
       -0.012234142 -0.0015761234 0.03175327 -0.04472652
000150 4e 66 72 3d d3 e2 7a 3c 39 ca 0a bd 3c c9 81 3d
       0.059179597 0.015312868 -0.03388426 0.063372105
000160 e7 55 c8 bb be 78 05 3d 1c 8e 53 3d 15 8b 65 3e
       -0.006113756 0.03258585 0.051649198 0.22416337
000170 35 6f c7 bc a6 9e 3e bd 24 80 b5 3d 97 e3 c7 3d
       -0.02434502 -0.046538018 0.088623315 0.09760206
000180 af 0a 2e bc 26 41 09 be 45 4e ba bc dd aa 0f 3d
       -0.010622664 -0.13403758 -0.0227424 0.035075057
000190 87 4e 52 3d 22 94 2b 3e bd df 5b bc 1f 3c b8 3b
       0.05134442 0.16755727 -0.013420043 0.0056224014
0001a0 b4 ca c6 3d 48 66 25 3e af 0a 2e 3c 26 41 09 3e
       0.09706631 0.16152298 0.010622664 0.13403758
0001b0 e7 55 c8 bb be 78 05 3d e1 42 c3 3c b2 61 ad bd
       -0.006113756 0.03258585 0.023835601 -0.084658995
0001c0 d2 8c 22 3d d3 e6 52 be 71 e3 c2 bc 8d 17 53 3d
       0.039685078 -0.20595865 -0.023790093 0.05153613
0001d0 12 ac 5c 3b 3d bf b9 bc 06 f5 81 bd d4 89 d9 3d
       0.0033671898 -0.022674197 -0.06345563 0.10621992
0001e0 6f 1b 0f 3e 39 52 d9 3a f1 68 a8 3c 70 32 0f be
       0.13975309 0.001658029 0.020557852 -0.13984084
0001f0 40 62 96 bb 0e e6 93 bc 09 af de 3c 7a 5a c4 bd
       -0.004589349 -0.018054035 0.027183073 -0.095875695
000200 06 f5 81 3d d4 89 d9 bd e1 42 c3 3c b2 61 ad bd
       0.06345563 -0.10621992 0.023835601 -0.084658995
000210 8e 3d c5 bd 67 cc 30 bd 7b 61 6d be 5c 70 b2 3c
       -0.09630881 -0.043163683 -0.23181717 0.021782093
000220 29 5a 39 bb 8d 81 e0 3b c8 a3 fa 3c c1 71 83 3b
       -0.00282825 0.006851381 0.030595675 0.0040113633
000230 61 20 f7 3d 9e f4 75 3c 1c a5 43 3d a0 da 28 bd
       0.12066723 0.015011935 0.047764882 -0.041224122
000240 3f 59 15 be f2 07 40 3d b4 b3 ca bd 93 6c 60 bc
       -0.14584826 0.046882577 -0.09897557 -0.013697761
000250 7c c9 9d bd 6d 00 fb ba 61 20 f7 bd 9e f4 75 bc
       -0.07704446 -0.0019149907 -0.12066723 -0.015011935
000260 8e 3d c5 bd 67 cc 30 bd 67 e9 c2 3c 83 0f 7b 3d
       -0.09630881 -0.043163683 0.023792936 0.06129409
000270 8d 6f 85 3b 27 55 41 be ea e1 bc 3c d0 cf 4d 3d
       0.004072136 -0.1888014 0.023056943 0.050247014
000280 46 66 33 3d 91 4d e1 bd 19 53 93 3c 6f 23 9d 3d
       0.043798707 -0.11001123 0.01798396 0.07672774
000290 76 29 53 3c a5 00 a7 bc 00 0b c1 3c 20 85 18 be
       0.012888303 -0.02038605 0.023564816 -0.14894533
0002a0 ed 02 16 bb e9 7b aa 3c ec 00 89 3c e1 7b 1f be
       -0.0022889927 0.020811038 0.016724072 -0.155746
0002b0 19 53 93 bc 6f 23 9d bd 67 e9 c2 3c 83 0f 7b 3d
       -0.01798396 -0.07672774 0.023792936 0.06129409
0002c0 59 7e bf 3b d2 eb d3 3d 0e 6c f1 3c 11 71 d6 3d
       0.0058439192 0.103477135 0.02947047 0.104707845
0002d0 24 bc f3 bb 8e 89 93 3d 07 57 6d 3d 62 de 35 bc
       -0.0074381996 0.07203971 0.057944324 -0.0111003835
0002e0 56 83 42 3c ef 12 0b 3d 16 53 f6 3c d9 61 22 be
       0.011872133 0.033953603 0.030068915 -0.15857638
0002f0 d5 c1 e0 3d 94 02 a6 3d 4c e8 b9 bd 08 b6 d4 3d
       0.109744705 0.081059605 -0.0907751 0.10386282
000300 73 d3 c2 bc 63 cc 40 3c 56 83 42 bc ef 12 0b bd
       -0.023782467 0.01176748 -0.011872133 -0.033953603
000310 59 7e bf 3b d2 eb d3 3d 88 b5 f3 3c e1 1e ea ba
       0.0058439192 0.103477135 0.029749647 -0.0017861986
000320 f5 1c 6d bd 28 15 8f bd 72 7a 04 bd be f4 28 3d
       -0.057888944 -0.06986457 -0.032343335 0.04124903
000330 17 7b f3 bb 58 d2 1c be bb 72 f4 3b 9c 82 36 3d
       -0.007430445 -0.15314615 0.007459966 0.044558153
000340 11 5e 2b bd 8e 23 c7 bc 62 f7 8f bd bf 51 6a bd
       -0.041837756 -0.024308946 -0.070296064 -0.057206865
000350 9c 6d 84 bc 87 09 14 3d 5f 07 d0 3b 1d 62 2e be
       -0.016165547 0.0361419 0.006348535 -0.17029615
000360 bb 72 f4 bb 9c 82 36 bd 88 b5 f3 3c e1 1e ea ba
       -0.007459966 -0.044558153 0.029749647 -0.0017861986
000370 9c 73 95 bc e6 9f e6 bc 14 26 5a 3e 11 99 aa bd
       -0.018243603 -0.028152417 0.21303588 -0.08329976
000380 82 98 92 3c ed a2 6b 3d d8 52 c5 3d 7b e5 c8 bc
       0.017894987 0.057528425 0.09634942 -0.024523487
000390 36 1c 4f bc 1b 48 12 3d 52 6f 1f bb 17 74 6c 3d
       -0.012641003 0.035713296 -0.0024327827 0.0577279
0003a0 3c c8 59 3e 10 5f 6d bd 10 aa eb 3c 5a cc 25 3d
       0.2126779 -0.057951987 0.028767616 0.040478088
0003b0 69 a2 d5 3d c2 95 3f bd 36 1c 4f 3c 1b 48 12 bd
       0.10431368 -0.04677368 0.012641003 -0.035713296
0003c0 9c 73 95 bc e6 9f e6 bc ab 34 15 3d b6 79 cc 3d
       -0.018243603 -0.028152417 0.03642718 0.09984152
0003d0 9f ef c8 bd dd 70 41 bb a3 ee 2b bd b4 43 f7 3c
       -0.09811329 -0.0029516735 -0.04197563 0.03018365
0003e0 e5 3e 32 3b 8b b7 9c 3a c1 f5 f5 3c 3c 33 2e 3d
       0.0027198133 0.0011956556 0.030024411 0.04252933
0003f0 9e 9e 53 3e c8 80 aa 3d 07 99 be bd cd c4 d4 3c
       0.20665976 0.08325344 -0.093065314 0.025972748

net.0.bias f4 [256]
000000 0f 30 8e be b6 b2 81 be 20 4a 12 be 64 aa 9a be
       -0.2777104 -0.25331658 -0.14286089 -0.30208123
000010 8f b6 71 be 3d 83 b6 be 8e 9b 03 bf d6 c3 99 be
       -0.23604797 -0.35647002 -0.5140923 -0.30032223
000020 9c d5 89 be 37 98 a8 be db 4d 6f be cf 67 84 be
       -0.26920784 -0.3292863 -0.23369543 -0.2586045
000030 55 fa 7d be 2c a3 08 bf bc 2e 8b be ab 85 74 be
       -0.24802525 -0.5337398 -0.27184093 -0.23879115
000040 42 68 5e be db 52 00 bf 20 fa a3 be bf 65 6b be
       -0.21719459 -0.5012643 -0.32026768 -0.22988032
000050 db 93 95 be b7 07 97 be 67 93 2f 3d c7 ad 30 be
       -0.29214367 -0.29498073 0.042865183 -0.17253791
000060 48 95 4b be 12 37 39 be f4 7a 7a be c5 cf 74 be
       -0.19881165 -0.18087414 -0.24460965 -0.23907383
000070 70 b6 a4 be f3 a3 54 3e c4 10 40 be fe ea 8e be
       -0.3217044 0.20765667 -0.18756396 -0.2791366
000080 fa e7 bc be b3 f4 64 be b2 67 0a bf 47 af b2 be
       -0.36895734 -0.2235897 -0.54064476 -0.3489935
000090 34 db de be 97 80 9a be 2b a0 39 bd f4 55 52 be
       -0.43526614 -0.3017623 -0.045318764 -0.20540601
0000a0 10 90 ae bd 9e 4b 53 be f6 30 14 bf e3 ed 77 be
       -0.085235715 -0.20634314 -0.5788721 -0.2421184
0000b0 dc 50 60 be a3 27 87 be ce 32 99 be 27 51 7e be
       -0.21905845 -0.26397428 -0.29921573 -0.24835645
0000c0 d9 24 52 be 6d c2 1b be 42 90 7d be 66 9c 6f be
       -0.20521869 -0.15210886 -0.24762061 -0.23399505
0000d0 7d 57 69 be d7 a2 d0 bc 55 c9 46 be 19 2b 90 be
       -0.2278728 -0.025468273 -0.1941274 -0.2815788
0000e0 3b 5a 62 be 85 b5 5a be ba cf 64 be 4a 92 a8 be
       -0.22104733 -0.21358307 -0.22344866 -0.3292411
0000f0 0d 78 8e be 56 3b 56 be 15 cf 82 be b6 1f 4f be
       -0.27825966 -0.20921072 -0.25548616 -0.2022694
000100 01 ba 8c be 97 b7 56 3d b5 10 95 be d8 e9 91 be
       -0.2748566 0.05242118 -0.2911431 -0.2849872
000110 37 1f 4b be 7c 1e 77 be 22 0f 49 be 75 4c 80 be
       -0.19836126 -0.24132723 -0.19634679 -0.25058332
000120 c4 df ac be e6 61 8f be bf 92 8d be 07 b4 83 be
       -0.3376447 -0.28004378 -0.2765102 -0.25723287
000130 d0 06 8c be 96 b7 ae be 2b 8a a9 be c1 60 8f be
       -0.27348948 -0.3412444 -0.33113226 -0.28003505
000140 a5 b2 72 be da 26 4f be 65 6c a3 be bd 94 40 be
       -0.2370096 -0.20229664 -0.31918636 -0.18806739
000150 4d c3 73 be df 79 8a be 20 42 87 be c3 3a 21 bf
       -0.2380497 -0.27046105 -0.26417637 -0.6298029
000160 7f cb 6b be 8d ba 93 be 6b 15 a7 be 9a 74 8b be
       -0.23026846 -0.28853264 -0.32633528 -0.27237397
000170 03 15 77 be 80 4c 11 bf 5c 77 9a be 82 7c 5e be
       -0.24129109 -0.56757355 -0.3016919 -0.21727183
000180 73 04 93 be aa e5 54 3e f6 c1 80 be d5 05 7e be
       -0.28714332 0.20790735 -0.2514798 -0.24806912
000190 07 26 89 be ee ed 82 be 1e dc 9b be b2 3f 0b bf
       -0.26786825 -0.2557215 -0.30441374 -0.54394066
0001a0 5e 73 a3 be 2e 82 82 be 48 ff 55 be db 8c ad be
       -0.31923956 -0.25489944 -0.20898163 -0.33896527
0001b0 54 cb 3a be 08 e2 8b be 5b 20 91 be 1e 64 0a be
       -0.18241626 -0.27320886 -0.28344998 -0.13514754
0001c0 26 fe a6 be 64 82 fa be db 30 54 be 21 96 84 3d
       -0.32615775 -0.48927605 -0.20721762 0.06473947
0001d0 a0 41 85 be 78 f9 80 be 07 b4 2f be 27 6e 54 be
       -0.2602663 -0.2519033 -0.17158519 -0.20745145
0001e0 3f 0c ad be cb 29 7c be ed f3 96 be 79 2e 76 be
       -0.33798406 -0.24625318 -0.29482976 -0.24041165
0001f0 8e c2 91 be bd f7 57 3e 62 97 54 be 90 f0 f9 be
       -0.28468746 0.21090598 -0.20760873 -0.48816347
000200 60 a9 67 be c1 d8 88 be 83 70 66 be 59 49 b3 be
       -0.22623205 -0.2672787 -0.22503857 -0.35016897
000210 b0 00 59 be fa d2 84 be bd ca 62 be 44 3a 5e be
       -0.21191669 -0.25942212 -0.22147651 -0.21701914
000220 f2 5b 46 be 24 0e 3e be 2e 4a 42 be 91 b9 8c be
       -0.19371012 -0.18560082 -0.1897361 -0.27485326
000230 33 b0 50 be d8 88 80 be ef da 00 be f4 99 88 bd
       -0.20379715 -0.25104403 -0.12583517 -0.06669989
000240 bd c4 5c 3e e4 92 5a be db 4c 07 be ba b2 46 be
       0.21559425 -0.21345097 -0.13212912 -0.19404116
000250 5a e4 43 be 17 68 84 be bd ef 9b be 45 59 84 be
       -0.19130078 -0.25860664 -0.30456343 -0.25849357
000260 0d 28 39 be ec 36 90 be f9 d2 80 be fe a1 48 be
       -0.18081684 -0.28166902 -0.2516096 -0.19593045
000270 09 1a 8d be 5f 3b db bd 07 fc 02 be 67 d6 8d be
       -0.27558926 -0.107046835 -0.12791453 -0.27702639
000280 f2 da 8e be 52 04 71 be 4c 75 63 be 6a 41 8d be
       -0.27901417 -0.23536804 -0.22212714 -0.2758897
000290 cc d2 5b be 8a f8 86 be 4c c0 84 3d 57 22 af be
       -0.21467131 -0.26361495 0.0648199 -0.34205887
0002a0 18 c1 99 be 7d d2 29 bc 6c 61 99 be 9d a0 9e be
       -0.3003013 -0.010365126 -0.2995714 -0.30981913
0002b0 9f 72 5a be dc 14 84 be b8 8d 6d be 44 b0 4e be
       -0.21332787 -0.25797164 -0.23198593 -0.20184427
0002c0 3b 39 2f be 26 d6 95 be 9f bf b0 be f2 59 36 be
       -0.17111675 -0.29264945 -0.34521195 -0.17807749
0002d0 d1 7b 44 be ba 5f ef 3d 39 3f c5 be f5 9d 6f be
       -0.19187857 0.1168818 -0.38524798 -0.234001
0002e0 28 f7 58 be d6 6e 97 be d4 46 8c be 51 b7 93 be
       -0.21188033 -0.2957675 -0.27397788 -0.28850797
0002f0 e6 62 9f be eb 69 67 be 2e 67 95 be f1 11 7b be
       -0.3113014 -0.22598998 -0.29180282 -0.24518563
000300 92 92 ad be 74 89 16 bf d3 8e 85 be 8d 9b 5c 3e
       -0.33900887 -0.58803487 -0.2608553 0.21543713
000310 d0 c6 3a be 53 4b 99 be 59 16 9b be 01 a5 4d be
       -0.18239903 -0.2994028 -0.30290487 -0.20082475
000320 98 df 56 be 45 a1 97 be e7 e1 9d be 3f fe 85 be
       -0.20983732 -0.29615226 -0.30836412 -0.26170537
000330 a4 51 10 bf ca 30 a0 be c4 f1 88 be f8 b5 4a be
       -0.56374574 -0.31287223 -0.26746953 -0.19795978
000340 cf 43 d7 be c0 85 57 be 57 65 5a 3e 3f f6 78 be
       -0.4204392 -0.21047115 0.2132772 -0.24312685
000350 df cd 20 bf 9c 4e 92 be 8f c1 69 be 87 6d 94 be
       -0.62814134 -0.285756 -0.22827743 -0.28989813
000360 f3 e8 8d be e3 67 e5 be c9 72 69 be fe 0c 67 be
       -0.2771679 -0.44805822 -0.22797693 -0.2256355
000370 e6 b8 85 be c0 d3 88 be 97 79 13 bf 01 8b 2c be
       -0.2611763 -0.26724052 -0.57607406 -0.16849901
000380 b9 b2 61 be ab 6a 8f be a1 a1 7c be 45 2e 5b be
       -0.22040834 -0.2801107 -0.24671032 -0.21404369
000390 2a b7 7e be 3a ac 84 be 6f be 8e be 52 23 53 be
       -0.24874559 -0.25912648 -0.27879664 -0.20618942
0003a0 34 dd cc be 3b 70 78 be 32 6f b6 be d2 1f 77 be
       -0.40012515 -0.24261563 -0.3563171 -0.24133232
0003b0 0e 28 87 be b0 7c 8f be 18 36 7c be 97 ea 95 be
       -0.26397747 -0.28024817 -0.2463001 -0.2928054
0003c0 e2 4d 62 be 06 78 8f be 1d 99 58 3e 94 db 63 be
       -0.22100022 -0.28021258 0.21152158 -0.22251731
0003d0 6c 80 94 be 4c 0d 99 be 62 4f 48 be 1b 72 6c be
       -0.29004228 -0.29892957 -0.19561532 -0.23090403
0003e0 83 b1 83 be c7 0e 34 bd dc 06 10 bf 2e 70 72 be
       -0.25721368 -0.043959405 -0.56260467 -0.23675606
0003f0 52 a0 86 be f5 51 a2 be ca 07 20 bf 4b 45 49 bd
       -0.2629419 -0.31703153 -0.62511885 -0.04913835

net.2.weight f4 [256]
000000 aa 53 95 3e dd a3 f0 3d f6 c3 6c 3e aa df f5 3d
       0.29165393 0.117500044 0.23121628 0.12005551
000010 72 1c 4c 3d c7 32 77 3e b4 5e 0e 3f 57 59 5c 3e
       0.049831815 0.24140464 0.55613256 0.21518455
000020 e4 7d 4e 3e 4e 12 70 3e 7e 0c 0c 3e ec 1e 57 3e
       0.20165211 0.23444483 0.1367664 0.2100789
000030 c5 99 54 3e c2 54 8c 3e 0f b0 18 3e 69 68 52 3e
       0.20761783 0.27408415 0.14910911 0.20547642
000040 a6 11 28 3e f9 4e 92 3e dd 51 35 3e 60 44 32 3e
       0.16412982 0.28575876 0.1770701 0.17408895
000050 1d 0c 5a 3e 69 a7 41 3e 9a 09 0e 3d eb 20 0a 3e
       0.21293683 0.18911518 0.034677126 0.1348912
000060 75 2b 65 3e 23 91 54 3e ad 59 7c 3d 25 4b 05 3e
       0.22379859 0.2075849 0.06160896 0.13016947
000070 bc a6 58 3e 58 0a 2a 3e 15 fe 07 3e ee c7 2d 3e
       0.21157354 0.16605508 0.13280518 0.16970798
000080 61 15 13 3e a6 96 03 3e 12 a8 80 3e b1 8e 1b 3e
       0.14363624 0.12850437 0.25128227 0.15191151
000090 e4 0d 42 3e 26 65 8b 3e 3e f9 09 3f 9a bb fc 3d
       0.18950611 0.27225608 0.5389594 0.1234047
0000a0 d0 1c f1 3d 5f 3e 6d 3e 2b ba f7 3e fe 2c 03 3e
       0.11773074 0.23168324 0.48384222 0.12810132
0000b0 1d c4 57 3e a5 6f 1d 3e 3b 49 44 3e aa 32 21 3e
       0.21070905 0.1537462 0.1916856 0.15741983
0000c0 45 f5 5f 3e 23 bb ec 3d be 91 1d 3e 51 c6 2e 3e
       0.21870907 0.11559131 0.15387627 0.17067839
0000d0 b8 15 38 3e 47 1b 10 3f 70 aa 65 3e e0 43 08 3e
       0.17977035 0.5629162 0.22428298 0.13307142
0000e0 3e 1d 11 3e 14 aa 95 3d 17 f7 4b 3e 3a 5f 4f 3e
       0.14171311 0.073078305 0.19918476 0.2025117
0000f0 dc fe d9 3d 03 80 02 3e eb d2 2b 3e 94 fc 4d 3e
       0.10644314 0.12744145 0.16779678 0.20115882
000100 e5 48 21 3e f7 fb 05 3d fc 7a 6e 3e 0f fc 23 3e
       0.15750463 0.032710996 0.23289102 0.16014121
000110 23 db 80 3e 3a a4 ea 3d cb b9 5f 3e c8 a2 aa 3d
       0.25167188 0.11457105 0.21848218 0.08331829
000120 13 ec 21 3e 79 7e 1d 3e f4 bf 36 3e 3c 5f 2e 3e
       0.15812711 0.15380277 0.17846662 0.17028517
000130 9a fb 5f 3e b2 48 39 3e 08 85 77 3e 5e 3c 2e 3e
       0.21873322 0.18094137 0.24171841 0.17015216
000140 5f 14 e6 3d f7 96 30 3e df 76 32 3e 4a fa 50 3e
       0.11234354 0.17245089 0.17428158 0.20407978
000150 7d 56 f0 3d 40 c7 31 3e f4 ea a1 3d 14 ab 8f 3e
       0.11735246 0.17361164 0.07906142 0.2806021
000160 b0 84 47 3e 5b c7 20 3e a8 25 1e 3e 66 03 43 3e
       0.1948421 0.15701048 0.15444052 0.19044265
000170 2e e4 26 3e f3 03 1b 3f 1a 04 09 3e d7 1e cd 3d
       0.16297981 0.605529 0.13380471 0.10015648
000180 31 cf 71 3e 51 08 27 3e 13 9e e6 3d da 8e f3 3d
       0.23614193 0.16311766 0.11260619 0.11892481
000190 bd 4d 2e 3e c6 2b 3a 3e 9e 65 65 3e 6b 23 16 3f
       0.17021842 0.1818076 0.22402045 0.58647794
0001a0 68 51 41 3e 60 38 44 3e 2b fc 3e 3e 61 9d 61 3e
       0.1887871 0.1916213 0.18650882 0.22032692
0001b0 23 de 29 3e 8e ab 1d 3e ce 31 42 3e 14 01 7e 3d
       0.16588645 0.15397474 0.18964311 0.062012747
0001c0 e9 1c 89 3e d7 84 87 3e ed e5 3e 3e c8 5f 22 3d
       0.2677987 0.26468536 0.18642397 0.039642125
0001d0 2a 88 45 3e 36 4f 0f 3e c1 41 ce 3d e2 2e 24 3e
       0.19290224 0.1399506 0.10071135 0.1603351
0001e0 ab 7c 9d 3e 94 9a fd 3d e0 23 66 3e d9 ea c1 3d
       0.30759177 0.12382999 0.22474623 0.09468622
0001f0 ca 0c 7e 3e d1 26 28 3e 85 09 b7 3d c0 b1 95 3e
       0.24809566 0.16421057 0.089373626 0.29237175
000200 20 01 2c 3e b1 44 e5 3d 58 de a9 3d 04 9d e5 3d
       0.16797304 0.111947425 0.08294362 0.11211589
000210 bc 43 cb 3d 73 e1 75 3e 54 97 31 3e d9 28 15 3e
       0.09925029 0.24011783 0.17342883 0.14566363
000220 0c da 5f 3e 88 21 16 3e 1c 86 8f 3d 74 d0 ee 3d
       0.21860522 0.14661229 0.07008001 0.11660853
000230 fb 36 5b 3e f2 82 1e 3e 77 0e 32 3e d3 e8 0f 3e
       0.21407692 0.15479639 0.1738833 0.14053659
000240 63 a8 21 3e ed 44 98 3d 46 36 d2 3d 15 1a f3 3d
       0.1578689 0.074350215 0.10264258 0.11870209
000250 f0 ca 63 3e 3c b6 1d 3e e8 4b 35 3e a6 a3 17 3e
       0.22245383 0.15401548 0.17704737 0.1480852
000260 17 e6 c3 3d ff 57 2d 3e 7d 08 0a 3e c2 c1 7e 3e
       0.095653705 0.16928099 0.134798 0.248786
000270 ea b3 7c 3e 03 8c 2a 3e ae f5 db 3d d7 3b 52 3e
       0.24678007 0.16654973 0.10740219 0.2053064
000280 ee a8 6c 3e da 8f 79 3e 23 15 e3 3d 99 55 1b 3e
       0.23111317 0.24371281 0.11088016 0.15169372
000290 2b 2e 24 3e 45 40 1b 3e af 2a 12 3d fc 23 4c 3e
       0.16033237 0.15161236 0.035685237 0.19935602
0002a0 76 9b 64 3e f6 14 0f 3f 2d 47 95 3d bb 48 98 3e
       0.22324929 0.5589136 0.07288966 0.2974299
0002b0 c3 c6 10 3e 89 82 42 3e a1 bc 28 3e 97 9a 80 3e
       0.14138322 0.18995108 0.16478206 0.25117943
0002c0 e4 c8 d7 3d 84 30 2e 3e 27 5d 8a 3e 76 24 00 3f
       0.10536364 0.17010695 0.27024195 0.50055635
0002d0 34 e6 73 3e 1d f5 f7 3c a2 b0 9e 3e f0 18 ab 3d
       0.23818284 0.030268246 0.30994135 0.08354366
0002e0 54 f9 02 3e e7 3b b8 3d b3 be 12 3e 4d e6 45 3e
       0.12790424 0.089958005 0.14330558 0.19326134
0002f0 70 4a 28 3e a3 d4 1a 3e 06 3e 20 3e 61 a8 3a 3e
       0.16434646 0.15120177 0.1564866 0.18228294
000300 82 bc 71 3e bf ff 91 3e 02 cc 32 3e 4a bd 22 3e
       0.23607066 0.2851543 0.17460635 0.1589252
000310 e1 ec 53 3d ed be 4e be 8d 3c 7e 3e 68 5a 59 3e
       0.051739577 -0.2019002 0.24827786 0.21225893
000320 3e 52 0e 3e e4 44 80 3e 0a 92 4c 3e 57 36 18 3e
       0.1389856 0.2505256 0.19977584 0.14864479
000330 af 89 0f 3f 8d 41 81 3e ec f3 1c 3e 7c 33 10 3e
       0.56069463 0.25245324 0.15327424 0.1408214
000340 d3 0a 45 3e 6e fb 08 3e 2d 35 1e 3e 87 e5 fe 3d
       0.1924241 0.13377163 0.15449972 0.124461226
000350 6b ae a5 3e 23 b9 08 3e c8 1f 24 3e 1f 88 1d 3e
       0.32359633 0.13351874 0.16027749 0.15383957
000360 0a 9f c8 3d dd 13 05 3f 70 18 59 3e b3 18 09 3e
       0.09795959 0.51983434 0.21200728 0.13388328
000370 d7 31 fe 3d 36 6a 42 3e 82 39 ab 3e a0 3e 0d 3e
       0.1241185 0.18985829 0.33442312 0.13793421
000380 59 3d 92 3d dc b4 4c 3e cb 7d cd 3d 7d 32 2e 3e
       0.071406074 0.19990867 0.10033759 0.17011447
000390 5f 56 35 3e ac a9 40 3e 46 09 5e 3e e5 50 41 3e
       0.17708729 0.18814725 0.21683225 0.18878515
0003a0 26 22 1f 3e ec f5 1e 3e 7a 6d 20 3e dd dd 31 3e
       0.1554037 0.15523499 0.15666762 0.1736979
0003b0 61 0e 80 3e 5e df 3a 3e 4e 7c 17 3e cf b5 35 3e
       0.2501097 0.1824927 0.14793512 0.17745136
0003c0 92 e5 b0 3d 1d c1 26 3e bc 53 1d 3e 8e ea 2f 3e
       0.08637537 0.16284604 0.15363973 0.1717932
0003d0 0d 30 57 3e e3 46 6d 3e d7 bd 69 3d 88 f0 b3 3d
       0.21014424 0.23171572 0.05706581 0.08786112
0003e0 eb 76 35 3e bd e7 01 3e 52 cf 91 3e 09 6c 10 3e
       0.17721145 0.12686057 0.28478485 0.14103712
0003f0 6e 8e 08 3e 34 f5 49 3e 64 63 a3 3e ce f9 fc 3d
       0.13335583 0.19722444 0.31911767 0.12352334

net.2.bias f4 [256]
000000 9f a2 9d 3d d2 03 96 3a 96 c7 d1 3c f6 dc b5 3c
       0.07697033 0.001144523 0.025607865 0.022200089
000010 f4 67 3d 3b ed ae 39 3d 48 56 1a 3e ce 79 4f 3d
       0.0028901072 0.045332838 0.15071976 0.05065327
000020 17 36 4c 3d 81 8c 6b 3d 61 20 e1 3c 5a 52 58 3d
       0.04985627 0.05750704 0.02748126 0.05281291
000030 04 74 53 3d 82 bb 78 3d 07 02 f2 3c f0 c4 40 3d
       0.051624313 0.060725696 0.029541982 0.047062814
000040 05 43 10 3d b5 a9 8a 3d cf 80 27 3d b8 6f 0b 3d
       0.035220165 0.0677065 0.040894326 0.03404209
000050 a9 82 78 3d 89 95 20 3d 11 85 83 bd c9 95 9c 3c
       0.060671482 0.039205108 -0.06421865 0.019114392
000060 a7 df 1e 3d 5d f1 f9 3c 02 91 44 3c 4b 6d d1 3c
       0.03878751 0.030510599 0.011997463 0.02556481
000070 a8 e8 3e 3d e3 cd 07 bf f5 fc aa 3c e2 be d1 3c
       0.046608597 -0.53048533 0.020872572 0.025603715
000080 78 0e d8 3c aa e0 ee 3c 37 59 3a 3d 9a 0d d8 3c
       0.026374087 0.029159863 0.04549524 0.026373673
000090 3a ad ff 3c 8f 30 8b 3d aa c8 1b 3e cf 79 a9 3c
       0.03121053 0.06796371 0.15213266 0.020687966
0000a0 df d8 17 3c 6c c4 29 3d b0 f0 02 3e f3 82 0e 3d
       0.009268015 0.041447088 0.12787127 0.03479285
0000b0 24 ce 32 3d 46 c1 0a 3d bd c5 41 3d a8 13 d5 3c
       0.043653622 0.033875726 0.04730772 0.02601035
0000c0 58 ef 33 3d b6 c2 75 3c 07 d4 b3 3c e4 65 49 3d
       0.043929428 0.015000036 0.021951688 0.049169436
0000d0 86 e7 48 3d dc fe 1e 3e a6 f0 0c 3d 06 db 02 3d
       0.049048923 0.15526909 0.034409188 0.03194716
0000e0 03 ac 00 3d eb 36 c2 3b f6 f8 05 3d 08 a3 21 3d
       0.031414043 0.005926957 0.03270813 0.03946212
0000f0 cd 73 b2 39 2a 69 fa 3b c0 e8 12 3d 84 79 fb 3c
       0.00034037084 0.007641931 0.0358665 0.030697592
000100 7e c1 27 3d 36 dc 50 bd 35 c5 79 3d 4c 58 fb 3c
       0.040956013 -0.05099126 0.060979087 0.030681752
000110 c0 76 ec 3c 74 25 ac 3c 76 2a 0f 3d 27 92 7c 3c
       0.028865218 0.021013953 0.034952603 0.015415705
000120 b6 fa bf 3c 94 b7 17 3d a8 13 28 3d 0c f9 28 3d
       0.023434978 0.037040308 0.04103437 0.041253135
000130 ac e1 4f 3d a1 9e 00 3d 72 5b 82 3d 4f 15 2d 3d
       0.050752327 0.03140128 0.06365098 0.04225665
000140 69 03 ec 3c 4a 20 32 3d f1 a8 06 3d 5d 18 f6 3c
       0.02881022 0.043487824 0.03287596 0.030040914
000150 ef 43 e1 3c cd 85 24 3d 29 8d 76 3c 56 ae 8c 3d
       0.027498214 0.040166665 0.015048304 0.068691894
000160 18 09 0a 3d 62 2d 33 3d 47 1f 88 3c dc d2 39 3d
       0.03370008 0.043744452 0.016616477 0.045367107
000170 f5 4e 2b 3d 1a 79 28 3e c3 e0 01 3d 43 98 42 3c
       0.041823346 0.16452447 0.03170849 0.011877122
000180 0d 3c 54 3d 0c af 03 bf 4a d5 86 3c 08 21 99 3c
       0.05181508 -0.51438975 0.016459126 0.018692508
000190 e2 d7 07 3d 75 13 54 3d 84 c1 53 3d d0 b7 2a 3e
       0.033164866 0.05177637 0.051698223 0.16671681
0001a0 1c 78 3f 3d 63 76 2f 3d ca d0 45 3d 1e 2d 40 3d
       0.046745405 0.04283751 0.04829482 0.046918027
0001b0 26 a7 0f 3d 9f 9c 1c 3d a5 e1 33 3d 88 84 4b bc
       0.035071515 0.038235303 0.043916363 -0.012421735
0001c0 9e 4d 97 3d 5e a0 80 3d 99 62 2a 3d 2a 8e a0 bd
       0.07387851 0.062805876 0.041597936 -0.07839616
0001d0 b5 55 30 3d fc 5e c9 3c 3b 9d 19 3c 14 45 1e 3d
       0.043050487 0.024581425 0.009375866 0.038640097
0001e0 c8 1f aa 3d 75 56 f6 3c 1f fd 80 3d 57 16 22 3c
       0.08306843 0.030070523 0.06298279 0.009893022
0001f0 83 5c 86 3d 6b 73 0b bf 25 ec 31 3c 40 0d 9a 3d
       0.06560614 -0.5447299 0.010859524 0.075220585
000200 c5 e9 10 3d 44 cc a4 3c f5 da 85 3c 81 57 2d 3c
       0.03537919 0.020116933 0.016339758 0.010579945
000210 0e 54 a2 3c 60 c0 69 3d e2 16 19 3d 1a a2 0f 3d
       0.019815471 0.05706823 0.03737534 0.0350667
000220 fc 2f 13 3d 36 b3 f7 3c 99 92 40 3b 87 4f a3 3c
       0.035934433 0.030236822 0.0029384254 0.019935383
000230 7f 1c 18 3d 86 51 35 3d c8 41 26 3c 6b 5b 60 bb
       0.03713655 0.0442672 0.010147519 -0.0034234177
000240 5d 51 07 bf 7f 50 22 3c fb 1a 52 3c 48 c1 e6 3c
       -0.52858526 0.009906887 0.012823815 0.028168336
000250 36 45 17 3d 4c 15 1e 3d 7c c5 19 3d 25 f9 13 3d
       0.03693124 0.03859453 0.03754185 0.036126275
000260 f9 2a 4f 3c 45 99 05 3d 43 0e 14 3d ee f6 1a 3d
       0.012644523 0.032616872 0.036146414 0.037833147
000270 5b 06 5d 3d 64 e3 ff 3c 81 3f bc 3c 48 96 42 3d
       0.05396114 0.031236358 0.0229795 0.0475066
000280 4b 4e 65 3d 07 fe 5b 3d eb 70 a8 3c 69 2c 04 3d
       0.05598287 0.053709056 0.020561656 0.032268915
000290 63 00 17 3d 6c 92 32 3d 1f 6c 52 bd 65 f6 39 3d
       0.036865603 0.04359667 -0.051372644 0.045400996
0002a0 c4 fb 76 3d 78 44 24 3e b5 94 aa 3b bf c4 ac 3d
       0.060298696 0.16041744 0.0052057155 0.08435964
0002b0 3a 2d 05 3d e9 bd 2c 3d 16 32 0d 3d 4d 3a 2e 3d
       0.032513835 0.0421733 0.034471594 0.04253607
0002c0 e9 ce e3 3b fd 2c 15 3d 85 eb 8e 3d b3 9d 10 3e
       0.006952156 0.036419857 0.069785155 0.14122657
0002d0 94 ce 29 3d db a7 a1 bd dd 7a a7 3d d8 c5 b9 3b
       0.041456774 -0.07893344 0.08177731 0.0056693368
0002e0 d9 33 0a 3d 86 bc 82 3c 3e 97 05 3d cb c5 5c 3d
       0.033740852 0.015959036 0.03261494 0.053899568
0002f0 8c fa 1a 3d a9 3a b9 3c ba 97 27 3d f1 75 32 3d
       0.037836596 0.02261098 0.040916182 0.04356951
000300 c4 3d 91 3d 18 d1 79 3d ec b3 44 3d 26 79 06 bf
       0.07091859 0.060990423 0.04802315 -0.5252861
000310 7a fe 6d 3b b3 d2 32 bd 7b 8f 88 3d 1a 2a 1a 3d
       0.003631501 -0.04365797 0.06667992 0.037637807
000320 35 91 f3 3c cc 76 85 3d af 42 56 3d af dd ee 3c
       0.029732326 0.06516799 0.05230969 0.029158441
000330 c8 f8 1b 3e 96 f7 65 3d c2 de 17 3d bc f4 bd 3c
       0.15231621 0.05614432 0.037077673 0.023187988
000340 06 31 11 3d da 5f ea 3c 2f 3f 07 bf f9 26 a5 3c
       0.035447143 0.028610159 -0.52830786 0.020160185
000350 60 d0 9d 3d a0 f8 9b 3c 25 90 13 3d ea 1a 14 3d
       0.0770576 0.019039452 0.03602614 0.03615848
000360 c5 20 b3 3c b2 a4 18 3e 69 e7 52 3d 29 9b fe 3c
       0.021866212 0.14906576 0.05149022 0.031079846
000370 9e 17 05 3d 33 1e 34 3d 98 2e ac 3d 17 bd ef 3c
       0.032493226 0.043974113 0.084073246 0.02926497
000380 0e 1c b8 bb 5b f1 4a 3d 10 aa ce 3c 7c 3b 1d 3d
       -0.0056185788 0.04954658 0.025227576 0.038386807
000390 51 14 f2 3c 60 0d 42 3d 4e fd 48 3d bc 29 00 3d
       0.029550703 0.047376037 0.049069695 0.0312898
0003a0 c9 78 ec 3c 68 a6 06 3d df 84 b7 3c 3a 88 28 3d
       0.028866189 0.03287354 0.022402225 0.04114554
0003b0 b7 c1 6f 3d 99 e7 50 3d 60 06 f9 3c 0b 86 3e 3d
       0.05853435 0.05100212 0.030398548 0.046514552
0003c0 80 60 24 3c 7a 82 12 3d ab 61 06 bf c9 4c 19 3d
       0.010032773 0.035768963 -0.5249278 0.037426744
0003d0 58 2c 6d 3d 14 19 72 3d 46 00 f6 3b 71 98 34 3c
       0.057903618 0.059105948 0.007507357 0.011022673
0003e0 ba 69 37 3d b9 73 67 bc 1c ad 85 3d 15 f9 c2 3c
       0.044778563 -0.0141267115 0.065271586 0.023800412
0003f0 06 ba ce 3c ee 37 4e 3d f7 7a 9e 3d 94 eb 91 ba
       0.025235187 0.050346307 0.077382974 -0.001113283

net.4.weight f4 [256, 256]
000000 79 0c 99 3a 7b ac 20 bb e8 dc 53 bc 40 c2 39 b9
       0.0011676691 -0.002451687 -0.012931086 -0.00017715339
000010 4c 56 a2 3b eb fb 6d 3a a8 ed fd 3a 5b 1f 42 ba
       0.004954135 0.0009078371 0.0019373195 -0.0007405185
000020 17 e6 d9 bb b0 1b 20 3b e6 90 98 ba 17 6f a7 bb
       -0.0066497433 0.0024430566 -0.0011639863 -0.0051096785
000030 0e c0 f2 bb 55 dd 18 39 0f 58 7b 3a da 2b 58 3d
       -0.0074081486 0.00014578302 0.0009588012 0.052776195
000040 8c e7 7c 3b f7 49 1a bc cd 23 0c 3b 74 4f 06 bc
       0.003859016 -0.009417049 0.0021383644 -0.008197654
000050 78 51 43 3c ea a6 0d 3c 44 b9 a7 3b 3a 67 8c 3c
       0.011921279 0.008645752 0.005118521 0.017139066
000060 01 b3 17 bb dc 43 c7 bc 0e 2a 0a 3c 11 0c c0 38
       -0.0023147466 -0.02432435 0.008432878 9.157521e-05
000070 71 9a 0a bb b6 19 a6 3c 3c 9a 97 ba dc 96 f0 ba
       -0.0021149183 0.020275932 -0.0011566351 -0.0018355506
000080 9d 8d 87 3c 2e 60 07 bb 4c 48 04 3c e0 1a 9a 3c
       0.016547019 -0.0020656693 0.008073878 0.018811643
000090 d2 b4 6e bb e3 a1 3a 3c 69 eb a1 ba 6a c4 00 bc
       -0.0036423695 0.011391136 -0.0012353483 -0.007859329
0000a0 91 a8 4e bc 72 75 b9 bb 1f 4d 39 bb 95 db 26 3c
       -0.012613432 -0.0056597525 -0.0028274728 0.010184188
0000b0 34 43 20 bc b3 ca 2a 3c ab 6e 9f 3c e3 fd 41 bb
       -0.0097816475 0.010424304 0.01946195 -0.0029600791
0000c0 6a 8c 0d bb b6 b1 66 3b 7b 0d 0a 3b 62 15 24 bb
       -0.0021598586 0.0035201139 0.0021065164 -0.002503716
0000d0 54 c1 4f bb 45 b7 7e 3a d0 65 0a bb cb 66 07 bc
       -0.0031700926 0.00097166403 -0.0021117814 -0.008264254
0000e0 7f 49 e6 3a 2d 89 5e 3b 0a d7 4d ba 86 e0 83 3b
       0.0017569511 0.0033956275 -0.0007852173 0.004024568
0000f0 a0 21 e0 ba 8c cb f2 3c 40 8a 39 bc 5d 96 16 bc
       -0.0017099865 0.029638074 -0.011324465 -0.009191123
000100 b3 c1 fc 3b 6f 95 1c bc bb a9 99 3c 95 a5 dd bb
       0.0077135204 -0.009557112 0.018757692 -0.0067641237
000110 6a 51 07 bc 00 1e 4b 3b fe ee ca 3c 34 a7 a6 3a
       -0.008259157 0.0030993223 0.024772163 0.0012714625
000120 18 29 0e 3c 49 16 d9 38 d9 b7 93 38 34 11 66 3d
       0.00867679 0.00010351517 7.0437505e-05 0.05616875
000130 62 7a 49 bc 83 c7 ad bb 41 eb be 3b dc 0d 8f bb
       -0.012297245 -0.0053033247 0.0058263843 -0.004365666
000140 09 d9 51 bb bc 7b 76 3c c2 75 26 3d ce 4f 40 bc
       -0.0032020232 0.015044149 0.040639646 -0.011737777
000150 ab dd 4b bb 9d 0d df bb af a8 f4 37 55 0b bd 3b
       -0.0031107466 -0.0068070428 2.9165616e-05 0.005769173
000160 c1 5c 99 ba 11 14 15 3c 17 13 0f 3c da 5d 47 3b
       -0.0011700616 0.0090990225 0.008732579 0.003042093
000170 f0 57 d5 b9 dd 56 b4 39 53 1f 7e 3c 5b 22 57 3c
       -0.00040692044 0.00034396994 0.015510398 0.01313075
000180 e3 0c da bb 96 4c 0f 3d 76 d5 29 bb 5a 4b 25 bc
       -0.0066543682 0.034985147 -0.0025914586 -0.010088766
000190 01 49 cb 3c de 20 c9 b9 b4 70 77 3c 8c b0 4c bb
       0.024815084 -0.00038362195 0.015102554 -0.003123316
0001a0 af e0 a3 3a f0 dd d5 ba 29 04 ce 3b e4 33 4f b9
       0.0012502874 -0.0016316753 0.006287117 -0.00019760389
0001b0 81 57 04 ba 2c 19 46 3b 50 c2 e5 bb 9d 47 8c bc
       -0.00050484395 0.0030227406 -0.0070116892 -0.017123992
0001c0 ea 45 8c bc ca 68 f2 3b 93 7f aa bb 95 2d 8a bb
       -0.017123181 0.0073977457 -0.0052031963 -0.0042168596
0001d0 df 1c 43 3b 38 be 57 37 84 ff 5e 3a 9d 6f a7 ba
       0.0029771847 1.2859287e-05 0.0008506703 -0.0012774352
0001e0 47 96 6e 3a f4 0f dc bb 0f 97 b4 bb 3f dc e8 bb
       0.00091013726 -0.006715769 -0.0055111717 -0.0071063335
0001f0 bc fb 30 3d 0e 5c b3 3c 85 87 f4 3a eb 8e 75 ba
       0.043208823 0.021894481 0.0018656111 -0.0009367305
000200 ed 9e bd ba b8 58 c2 bb 23 45 0b 3b e4 8b 9b 3c
       -0.0014466919 -0.0059309863 0.0021250925 0.018987603
000210 e0 d2 92 3b 5a 17 c1 ba b6 b7 81 bc 99 df 26 3c
       0.0044807047 -0.0014731691 -0.01583467 0.010185146
000220 ad be 76 3b 4f 22 ef 3b a0 08 61 3b b6 89 4d 3b
       0.0037650273 0.007297791 0.0034337416 0.00313626
000230 b1 c1 97 bc ac ed 65 3b 78 eb fa bb be 92 b1 3b
       -0.018524976 0.003508429 -0.0076574646 0.0054191044
000240 c7 83 a0 3c 2a 15 e1 3b 17 fe b4 bb 04 fb 54 3b
       0.019594086 0.006868978 -0.005523454 0.003249825
000250 b0 f4 ba 3a 11 bb 27 3c 1b 13 b0 b9 d4 6f 31 3c
       0.0014263596 0.010237471 -0.0003358357 0.010829885
000260 6f b1 34 bc 51 8a 80 3b e1 d8 3d 3c 4b 3b eb ba
       -0.011028632 0.0039227386 0.0115873525 -0.0017946748
000270 ca 11 ea 3b 2e 6a b1 ba 89 74 3a 3b 43 31 58 bb
       0.007143234 -0.0013535672 0.0028450808 -0.0032988347
000280 d0 26 ea bb 0b a4 c8 3b c5 1d 28 bc cf c3 be 3c
       -0.00714574 0.006123071 -0.010261004 0.023286728
000290 8b e4 37 3c 3a a3 50 bb 4c 09 b6 3b 12 50 3b bc
       0.0112239225 -0.0031835572 0.0055553075 -0.0114326645
0002a0 c7 08 8b bb e5 4c 67 3b 36 52 a9 3a e9 d8 ff bb
       -0.0042429897 0.0035293635 0.0012918178 -0.00780784
0002b0 04 ec b5 3c 2d 80 8f 3b db 15 07 3c 6c 77 b3 bb
       0.022207268 0.0043792934 0.008244957 -0.0054768827
0002c0 9d 4f 0b bc 57 d0 d4 3b 78 62 be bb 07 4a 09 bc
       -0.008502868 0.0064945626 -0.0058100782 -0.008379466
0002d0 ad e6 23 bc 95 c9 8c 3c 28 ea 1e bb 11 a4 05 bc
       -0.010003728 0.017185966 -0.0024248455 -0.008156792
0002e0 78 3a 60 3c 1d 0c d1 3b 43 dc 53 bc 43 d9 29 3b
       0.013685815 0.006379618 -0.012930932 0.0025916852
0002f0 c7 48 b0 bb b2 3e 9c 3b 4f 31 48 bc 37 f1 a2 bb
       -0.0053797695 0.004768216 -0.012218787 -0.0049726027
000300 62 e2 ca ba 13 b0 9b bb b1 8a 3c bb 99 61 d5 3c
       -0.0015478844 -0.0047512143 -0.002876919 0.026047515
000310 c3 77 4f 3c 04 3b da bc fc 66 04 bb b7 c5 69 3a
       0.012662831 -0.026639469 -0.0020202985 0.00089177064
000320 bd 07 9e 3b fb 20 ac 3c 81 64 48 38 40 4d d2 3b
       0.0048227 0.02101182 4.7777317e-05 0.0064179003
000330 37 90 44 ba 8f 4d b6 bc af a6 98 bc ff 75 78 bb
       -0.00074982963 -0.02225378 -0.018634168 -0.0037912128
000340 76 d9 91 3c 49 80 bc 3c 7a 89 6e 3c 04 ad 71 bc
       0.017803889 0.02301039 0.014559144 -0.014750723
000350 5a 7d a9 3c 1a cd 10 bb 48 85 92 bc 57 ea 70 bb
       0.020689655 -0.0022094906 -0.01788582 -0.0036760771
000360 69 29 d8 3b a5 ae 7c 3b 03 5b 91 bb 22 6c 75 3c
       0.0065967334 0.0038556245 -0.0044358983 0.014979394
000370 33 a3 7a ba ff 0a 82 3a 15 a0 04 3c 87 32 63 bc
       -0.0009561062 0.000992149 0.008094807 -0.013867027
000380 4a 33 0f bb f8 0b 06 3c 79 6d b8 3a c7 77 12 3c
       -0.002185064 0.0081815645 0.0014070711 0.00893969
000390 e8 0b 26 bc 31 74 dc 3b 02 43 f5 38 07 cd 5d bb
       -0.010134675 0.0067277183 0.000116949916 -0.003384413
0003a0 9c 1a 98 3c bb 2e 84 bb f0 b6 24 3b 8d 47 e5 3c
       0.018567376 -0.004033891 0.0025133453 0.02798822
0003b0 9d 10 2e ba 84 37 a4 3c 15 ce af 3c 8d 60 4f bb
       -0.0006640049 0.020046003 0.021460572 -0.0031643242
0003c0 cb f1 63 3b 5e 9c d1 3a d1 5f 01 3d ae d8 8f bb
       0.003478157 0.0015992036 0.03158552 -0.004389844
0003d0 68 af 78 3a 3f 73 ae b9 40 51 34 3b 9c fc 1c 3c
       0.0009486587 -0.0003327373 0.002751425 0.009581711
0003e0 e6 18 4e bb 74 ed ae bc 40 20 7a ba e3 cd 51 bb
       -0.0031447946 -0.02135346 -0.0009541549 -0.0032013587
0003f0 44 9c 85 3b 77 01 91 3b a3 95 da 3b de 43 60 bc
       0.004077466 0.0044252235 0.00667067 -0.013688056

net.4.bias f4 [256]
000000 3a ff b4 bd 86 b0 02 bd 0c 03 52 bd e1 fd a1 bd
       -0.08837743 -0.031906627 -0.051272437 -0.07909752
000010 ba 31 41 bc 9e d8 a4 bd 71 79 81 bd e8 06 e7 bd
       -0.011791641 -0.08049129 -0.06321991 -0.11280614
000020 3c 0c 9a bd 2b 9f ca bd f6 15 d3 bd f1 dd b2 bd
       -0.07521865 -0.0989364 -0.10306923 -0.08733738
000030 35 4e 1a bd 08 9d 0b bd 77 aa e9 bd ae 9b 38 bd
       -0.03767224 -0.034085304 -0.11409467 -0.045070343
000040 67 eb cf bd 9b da c6 bd e0 20 f0 bd 5d ec 04 be
       -0.10152321 -0.097096644 -0.117250204 -0.1298079
000050 22 70 8d bd 39 b2 77 be 0d e7 5f bd 94 f4 d3 bd
       -0.06906153 -0.2418908 -0.054663707 -0.10349384
000060 1a 6c 14 be d2 f1 66 bd 8c 70 3b bd 73 8a 30 bd
       -0.14494362 -0.05638296 -0.04576163 -0.043100785
000070 0e e7 94 bd 43 33 4e bd e1 ad 62 bd 53 a8 cc bd
       -0.07270633 -0.050341856 -0.055341605 -0.09993043
000080 c2 d6 6c bd 91 9f cc bd 2d e5 84 bd c8 68 0d bd
       -0.057821997 -0.099913724 -0.06489024 -0.034523755
000090 be 19 62 bd 0e db 89 bd 45 1e 0b be e9 83 a0 bd
       -0.05520033 -0.067312345 -0.13585766 -0.0783766
0000a0 89 bc a3 bd fa 8d 4d bd c9 4d 01 be 3d 9f e1 bd
       -0.079949446 -0.050184228 -0.12627329 -0.110167004
0000b0 73 d3 fc bc 93 bd 71 be ec 4a ac bd dd 75 ff bd
       -0.030862546 -0.23607473 -0.08412728 -0.124736525
0000c0 b1 b3 19 bd 3b fb ac bd 5d 23 94 bd 75 41 01 be
       -0.037524883 -0.08446356 -0.072333075 -0.12622626
0000d0 38 49 db bc 0c 7b 8c bc b4 78 eb bd 55 92 35 be
       -0.026768312 -0.017148517 -0.11497632 -0.17731602
0000e0 56 7e 68 bd ec 40 3d 3c 21 02 50 bd 2e 85 13 bd
       -0.05676111 0.011551123 -0.05078328 -0.036015682
0000f0 0b 45 e6 bd 68 b9 93 bd 2a 6e b2 bd 15 c2 b7 bd
       -0.11243638 -0.07213098 -0.087124184 -0.08972565
000100 53 ee b9 bd de a8 95 bd 89 ab bb bd cd d9 1c bd
       -0.0907866 -0.073075995 -0.09163577 -0.03829365
000110 db be a1 bd 9f f1 07 bd 3f 70 0b be 2d dd 0c be
       -0.07897731 -0.033189412 -0.13617037 -0.13756247
000120 5a 3b ad bc e2 c8 b7 bd ab 69 d5 bd 92 a7 37 bd
       -0.021146465 -0.08973862 -0.10420545 -0.044837542
000130 46 dd b8 bd 3e 83 0f be 7e 5c 0e bd b9 2c 5a bd
       -0.090265796 -0.14014909 -0.034756176 -0.053265307
000140 e8 23 e0 bd 0e f1 c9 bd a0 f3 44 bd 87 87 00 3c
       -0.109443486 -0.09860431 -0.0480839 0.007844812
000150 08 c8 91 bd 09 be bc bd a9 f6 7d bd a9 ed dc bc
       -0.07118231 -0.09215934 -0.06200281 -0.026968794
000160 80 da a5 bd ee 2e d5 bd 39 f3 10 bd 9c 86 0b be
       -0.08098316 -0.10409342 -0.035388205 -0.13625568
000170 89 54 1c bd 56 bf 87 bd 32 7f d1 bc 25 ea 01 be
       -0.038166557 -0.06628291 -0.025573347 -0.12686975
000180 ca a8 93 bd 70 2a cb bc b1 27 f6 bd 7a 2d a5 bd
       -0.07209928 -0.02480051 -0.12019289 -0.080653146
000190 a8 37 3a bd 33 8b ea bd f8 3f 87 bd b8 7a b5 bd
       -0.045463234 -0.114523314 -0.06603998 -0.08861297
0001a0 59 b1 45 be 25 28 e2 bc 51 1b 19 bd 55 20 a0 bd
       -0.19305934 -0.027607033 -0.037379567 -0.07818667
0001b0 47 7a 1d be 77 21 8d bd 5a f8 03 be 57 95 c1 bd
       -0.15378676 -0.068911485 -0.12887707 -0.094523124
0001c0 8b 22 dc bb 56 0e 10 be e7 86 40 b7 95 98 c1 bd
       -0.006717985 -0.14067969 -1.1475501e-05 -0.09452931
0001d0 f2 a8 b3 bc bd f5 b3 bd 47 a4 6f bd 2c 15 5b bd
       -0.021931145 -0.08787105 -0.058506276 -0.053486988
0001e0 a9 74 c3 bd 5b 96 26 bd 71 49 a8 bd 9f 97 45 bd
       -0.095437355 -0.040670734 -0.08217133 -0.0482403
0001f0 3c bd db bd 48 cd 95 bd 67 99 d4 bd 31 da ae bd
       -0.10729453 -0.07314545 -0.10380822 -0.085377105
000200 1d 37 cd bc 3d e8 c0 bd f7 77 f4 bd 41 5d 06 be
       -0.025050694 -0.09419296 -0.11936944 -0.13121511
000210 76 12 2c bd 8b e1 ed bd e2 a4 7d bd 4c 3f f0 bd
       -0.042009793 -0.116152845 -0.061924823 -0.11730823
000220 a6 b0 ce bd 4e 8f a2 bd b6 13 09 be 48 24 cb bd
       -0.10092287 -0.079374894 -0.13386425 -0.099190295
000230 58 c7 14 bc ac 1c 1c be c3 ff 86 bd d5 87 e5 bd
       -0.00908073 -0.15245312 -0.065917514 -0.112075485
000240 98 3d 8f bd a0 c9 9f bd 3e 3d bf bd 40 42 a8 bd
       -0.0699417 -0.07802129 -0.09337853 -0.08215761
000250 69 07 a3 bd 40 af 4e bd 50 f7 19 be 6e 36 4b bd
       -0.07960398 -0.0504601 -0.15035748 -0.049612455
000260 5b d5 15 be ad df c8 bd ea 02 8b bd 3b 14 f9 bd
       -0.1463217 -0.09808288 -0.06787665 -0.12162062
000270 04 c9 a7 bd 3f c4 e8 bd 82 84 a4 bb 84 53 c4 ba
       -0.081926376 -0.11365556 -0.005020679 -0.0014978503
000280 c5 12 9a bd 57 6f ef bd 6a 6b b2 bd 8b 50 b0 bd
       -0.07523111 -0.11691158 -0.08711894 -0.08609112
000290 30 44 b3 bd b1 32 f7 bc 77 ae 55 bd 93 55 f0 bd
       -0.0875324 -0.030175539 -0.052168336 -0.11735072
0002a0 a9 69 f8 bd a8 c4 17 bd 65 e9 be bb 72 da c6 bd
       -0.12129528 -0.03705278 -0.0058261626 -0.09709634
0002b0 1c 8b 6e bd 44 86 76 bc 16 fa 91 bd 67 a0 6e bd
       -0.058238134 -0.01504666 -0.07127778 -0.05825844
0002c0 aa a5 80 bc 9e b4 d4 bd 4e 3d 07 be 61 9a 2f be
       -0.015703995 -0.103860125 -0.1320698 -0.17148735
0002d0 39 39 03 bb c7 00 19 be 85 d0 06 be 1e ca 28 bd
       -0.002002312 -0.14941703 -0.13165481 -0.04120838
0002e0 02 5a b8 bc 41 e8 77 bd d2 f2 0d be 38 94 95 bd
       -0.022503857 -0.06052423 -0.1386216 -0.07303661
0002f0 94 5a 01 3b 19 a7 38 bd 61 a0 7a bd a3 1f 5b bb
       0.0019737827 -0.04508123 -0.061188105 -0.0033435605
000300 53 4f f4 bd 38 05 b9 bd 60 6f bd bd 3d c7 09 bd
       -0.119291924 -0.090341985 -0.09249759 -0.033637274
000310 e0 85 92 bd 2f a4 87 bd fd e2 e4 bd 1f e5 a9 bd
       -0.07154441 -0.066231124 -0.11176107 -0.082956545
000320 ab 7e 0a be 73 77 9c bd 3c 94 cf bd ee c5 d0 bd
       -0.13524882 -0.07639971 -0.10135695 -0.10194002
000330 04 80 98 bd cf cf 4a bd f6 86 8e bd 79 be 99 bd
       -0.07446292 -0.049514588 -0.069593355 -0.07507033
000340 cb 50 1a be 90 89 84 bd 6e 5e 3c bd 33 85 f6 bd
       -0.15069883 -0.064715505 -0.045988493 -0.120371245
000350 87 12 05 be a8 64 bb bd 06 0b 69 bd 59 4b fe bd
       -0.12995349 -0.09150058 -0.05689528 -0.12416715
000360 5d 56 77 bd b2 48 d2 bd 98 96 a7 bd 3b e0 01 be
       -0.060385097 -0.10267772 -0.0818302 -0.12683193
000370 6a 4d 87 bd 21 c1 94 bd 9b 86 f8 bd 40 ce 43 bd
       -0.066065624 -0.07263399 -0.12135049 -0.047804117
000380 1e 9b 9f bd 2d ac c7 bd f5 fd 4e bb 3d f1 24 be
       -0.07793258 -0.09749637 -0.0031584476 -0.1610765
000390 d8 78 b7 bd df fb a0 bd 1a 6e 03 bd 26 33 94 bd
       -0.08958596 -0.078605406 -0.032087423 -0.07236318
0003a0 47 d0 ae bd 9a be ab bd 7e ed 01 be c3 d4 da bd
       -0.085358195 -0.08385964 -0.12688252 -0.10685112
0003b0 4c 6a 02 bd ab 55 cb bd 2f c5 b7 bd bb 48 4e bd
       -0.031839654 -0.09928449 -0.08973157 -0.05036233
0003c0 ce c2 00 be 96 d1 4d bd 7f 06 82 bd be 93 b9 bd
       -0.12574312 -0.050248705 -0.06348895 -0.09061383
0003d0 4e c8 a3 bd 1d f1 eb bd ee 7d 8a bd d4 c2 a6 bd
       -0.079971895 -0.11520598 -0.067623004 -0.08142629
0003e0 31 17 11 bd 76 9f 7c bd 7a 7d 9b bd 3b 86 da bd
       -0.035422508 -0.06167551 -0.07592292 -0.10670134
0003f0 7c 63 3c be bc 4f 72 bd e5 c4 bb bc 82 47 07 be
       -0.18397325 -0.059158072 -0.022921035 -0.13210872

net.6.weight f4 [256]
000000 ab 82 c4 3e 09 d1 a9 3e d3 70 95 3e b4 55 93 3e
       0.38380942 0.33167294 0.2918764 0.28776324
000010 f1 11 7c 3e a5 ef c7 3e 43 8e a7 3e 44 3f 95 3e
       0.24616219 0.39050022 0.32725725 0.2914983
000020 91 ed a7 3e 04 da 9b 3e a3 34 8e 3e dd 6d 9d 3e
       0.32798436 0.3043977 0.27774534 0.30747882
000030 95 08 d0 3e 9d 8d fb 3e 49 be 6f 3e 6d ed 97 3e
       0.40631548 0.4913148 0.23412432 0.2967333
000040 dc 76 d3 3e c3 17 a5 3e ab 6c e2 3e a2 e9 92 3e
       0.4130162 0.3224469 0.44223532 0.28693873
000050 03 bb 8a 3e d2 f5 17 3f 2e 33 71 3e 77 ad 91 3e
       0.27095804 0.5935947 0.2355468 0.28452656
000060 cd d2 03 3f 2e 3f be 3e df 91 8d 3e 46 32 7b 3e
       0.5149353 0.37157577 0.27650353 0.24530897
000070 22 c5 99 3e 9f c7 96 3e 65 df a0 3e 85 38 ce 3e
       0.30033213 0.29449174 0.31420437 0.40277496
000080 ad 1e 8e 3e de 96 ab 3e c2 05 9f 3e 90 b2 e9 3e
       0.2775778 0.3351354 0.3105908 0.45644045
000090 4d 2b d7 3e 9c e0 8e 3e 7a 5f e3 3e d0 a1 a6 3e
       0.42025223 0.27905738 0.4440878 0.32545328
0000a0 c8 79 61 3e 59 d2 8f 3e a8 b7 fc 3e 8c 51 dd 3e
       0.22019112 0.2809017 0.4935887 0.43226278
0000b0 4f df 9f 3e a4 c2 e3 3e 9a ea 88 3e 6c 3e f9 3e
       0.31225058 0.44484437 0.26741487 0.48680437
0000c0 84 20 98 3e 28 e6 90 3e 33 f6 d2 3e 80 42 f2 3e
       0.29712307 0.28300595 0.4120346 0.4731636
0000d0 ba e3 84 3e 81 fb 83 3e 4e bc 08 3f f1 c8 f4 3e
       0.25954992 0.2577782 0.5341233 0.47809556
0000e0 e2 34 9e 3e ec 42 3e 3d 7d 48 8e 3e 0d 12 be 3e
       0.3089972 0.04645054 0.2778968 0.37123147
0000f0 b6 cb d4 3e b5 24 f1 3e 4e 98 82 3e f6 1f a8 3e
       0.4156167 0.47098318 0.25506824 0.32836884
000100 dc 1f 97 3e 53 68 5c 3e e1 d5 94 3e b4 a9 6e be
       0.29516494 0.21524172 0.29069427 -0.23306924
000110 69 86 93 3e 17 46 af 3e a5 60 e2 3e 46 4e 0a 3f
       0.28813484 0.34233162 0.4421436 0.54025686
000120 1a 21 ef 3e a2 71 07 3f 32 3c c2 3e 48 37 7a 3e
       0.46704942 0.52907765 0.3793655 0.2443515
000130 b2 d2 98 3e 7c 50 84 3e bd 09 8e 3e 05 51 9e 3e
       0.29848248 0.25842655 0.27741805 0.30921188
000140 10 30 d3 3e b3 0f 70 3e 38 e8 ab 3e fd 39 94 3e
       0.41247606 0.23443489 0.33575606 0.28950492
000150 ff a9 9c 3e 2a 91 19 3f df 51 84 3e 30 22 dd 3e
       0.30598447 0.5998713 0.25843713 0.43190145
000160 19 b2 b8 3e fe 75 64 3e 33 bf ba 3e 06 98 d1 3e
       0.36073378 0.22310635 0.36473998 0.40936297
000170 29 c8 76 3e ac 50 8d 3e 1d a1 22 3e 8a 63 89 3e
       0.24099793 0.2760061 0.15881772 0.26833755
000180 ab ce 87 3e 91 a1 72 3e d4 de dd 3e a7 9a ae 3e
       0.26524863 0.23694445 0.43334067 0.34102365
000190 e3 b1 d4 3e ef 44 b4 3e 0c 2c 93 3e c7 bf 9b 3e
       0.41541967 0.35208842 0.28744543 0.30419752
0001a0 74 ca 07 3f b1 9b 0b 3e c8 d9 85 3e 44 cd 85 3e
       0.53043294 0.1363361 0.26142716 0.26133168
0001b0 c2 5f b5 3e 46 22 85 3e ad 42 d4 3e e4 34 d4 3e
       0.3542462 0.2600271 0.4145712 0.41446602
0001c0 db 4a 82 3e d0 b6 03 3f 73 d2 fc 3e ab 72 94 3e
       0.25447735 0.51450825 0.4937931 0.28993735
0001d0 25 99 b6 3e 28 1e 99 3e cb 78 5a 3e f7 a4 97 3e
       0.35663715 0.2990582 0.21335141 0.29618046
0001e0 29 a4 94 3e 2d 9e ef 3e 04 cd f1 3e 79 48 9b 3e
       0.29031494 0.46800366 0.47226727 0.3032873
0001f0 b4 35 fc 3e bb e5 bb 3e d8 22 ec 3e 78 39 a4 3e
       0.49259722 0.36698708 0.46120334 0.32075095
000200 fb 1b 88 3e 6c b9 90 3e 87 29 d7 3e 4d 3b ec 3e
       0.26583847 0.28266466 0.4202387 0.46138993
000210 0e 53 92 3e aa de 00 3f 66 e2 a8 3e e5 63 e4 3e
       0.2857899 0.5033976 0.32985228 0.44607463
000220 74 fc 90 3e cb 36 b5 3e c8 44 f7 3e 72 dd 85 3e
       0.28317606 0.35393366 0.48294663 0.26145512
000230 5c e0 d9 3e e5 b6 f3 3e 3f 77 91 3e 86 11 86 3e
       0.42553985 0.47600475 0.2841129 0.26185244
000240 e8 79 ff 3e 8e bb 9e 3e 08 a5 a5 3e 87 78 9e 3e
       0.49897695 0.31002468 0.3235247 0.3095133
000250 dd 31 a7 3e 71 c9 97 3e 27 90 c5 3e c8 b1 82 3e
       0.3265523 0.29645875 0.38586542 0.2552626
000260 a5 81 df 3e c2 4b 73 3e 07 a0 83 3e fa 47 68 3e
       0.43653598 0.23759368 0.2570803 0.22683707
000270 0d bf a0 3e dd 29 4f 3e ed 92 98 3e b5 44 d6 3d
       0.3139576 0.20230813 0.29799595 0.104623236
000280 d8 c6 82 3e e6 5a e6 3e f7 09 a3 3e af 8d 73 3e
       0.2554233 0.44991225 0.3184354 0.23784517
000290 f1 5f 93 3e a4 1f d5 3e 98 33 99 3e a1 e7 d3 3e
       0.28784135 0.41625702 0.29922175 0.41387656
0002a0 73 47 96 3e 5a 3f 9d 3e 7f a9 f6 3e ce 70 8e 3e
       0.29351386 0.30712396 0.4817619 0.27820438
0002b0 35 2c 88 3e c4 36 e6 3e 58 12 97 3e f6 3c 5e 3e
       0.26596227 0.44963658 0.29506183 0.21702942
0002c0 f3 32 99 3e f4 57 83 3e 09 29 f9 3e 50 54 9a 3e
       0.29921684 0.2565304 0.4866412 0.3014245
0002d0 0e 83 08 3e 29 1e 8c 3e 83 2c b9 3e ec a0 9b 3e
       0.13331243 0.2736676 0.36166772 0.3039621
0002e0 f5 d4 9f 3e 00 38 e5 3e 80 29 e9 3e 5b 18 85 3e
       0.3121716 0.44769287 0.45539474 0.25995144
0002f0 59 ff 9c 3e 99 45 7a 3e cb 46 85 3e 70 ff 14 3e
       0.30663565 0.24440612 0.26030573 0.14550567
000300 f1 ca 08 3f c2 0f d2 3e 9e 29 cd 3e 97 12 9e 3e
       0.53434664 0.41027647 0.40070814 0.30873558
000310 c7 12 a1 3e 47 74 97 3e c9 5f ec 3e 23 c9 94 3e
       0.31459638 0.295809 0.46166828 0.29059705
000320 e3 ea e9 3e 67 65 a9 3e 3a c6 e2 3e ae 3c af 3e
       0.45687017 0.33085176 0.4429186 0.34225982
000330 14 d8 8f 3e ea 15 9e 3e 05 82 e6 3e 38 e8 dd 3e
       0.28094542 0.30876094 0.45021072 0.4334123
000340 a9 cc a9 3e c6 47 91 3e 42 95 1d 3e 65 c0 cb 3e
       0.33163956 0.2837507 0.15388969 0.39795223
000350 47 81 a6 3e 27 09 a0 3e 17 75 6d 3e 70 38 d8 3e
       0.32520506 0.31256983 0.23189197 0.42230558
000360 4d c8 61 3e d5 cb 9b 3e ac 07 90 3e 87 47 03 3f
       0.22049065 0.3042895 0.28130853 0.5128102
000370 69 fb 8a 3e 64 6a cd 3e 61 83 8a 3e 8a 71 a8 3e
       0.27144936 0.40120232 0.2705336 0.32899123
000380 c1 3c a0 3e a8 0d ce 3e 17 f9 81 3e e9 ae f2 3e
       0.31296352 0.40244794 0.25385353 0.4739907
000390 7b d9 ae 3e a1 8a a7 3e 40 63 96 3e cd 2a 83 3e
       0.341503 0.32722953 0.29372597 0.25618592
0003a0 58 05 a1 3e c2 bd 97 3e 2a 9e 8a 3e 70 96 52 3e
       0.3144939 0.2963696 0.27073795 0.205652
0003b0 9f f1 b6 3e 45 d0 63 3e 1d 76 86 3e 9f 42 81 3e
       0.35731217 0.22247417 0.26261988 0.2524614
0003c0 6c 4f df 3e c7 89 74 3e 2e 97 78 3e 29 6d ae 3e
       0.43615282 0.23880683 0.2427642 0.34067658
0003d0 b2 6d 5f 3e f2 bc 9f 3e c2 5a 90 3e 9f aa 85 3e
       0.21819189 0.3119884 0.28194243 0.26106736
0003e0 09 22 a8 3e 9b 66 ad 3e 7f f4 db 3e 21 87 ed 3e
       0.32838467 0.33867344 0.42959973 0.46392158
0003f0 0d c5 08 3f 6b 52 96 3e cb df 87 3e ac 46 ee 3e
       0.53425676 0.29359755 0.26537928 0.46538293
