RL code/models/checkpoint_episode_810000.pth (torch, 801255 bytes, 40 tensors)

net.0.weight f4 [256, 22]
00000000: 56c9 063d f655 0a3d 9953 d83c 2da4 24bc
00000010: 5524 1d3d 5898 983b 6ca2 c03b c1f2 17bd
00000020: 5215 4d3d 3081 90bc ffe8 2bbd fd15 91be
00000030: d87d b03d 8bb1 01bc 80d7 a9bc d7be 2c3c
00000040: 3d22 52bd 8f62 fbbc 5215 4dbd 3081 903c
00000050: 56c9 063d f655 0a3d 1d2f 883d 6432 203d
00000060: 618a b43d ee65 c5ba 0452 f2bd 4a8e 093c
00000070: 5d4a 0e3e 3425 d3bb 4203 b8bc 7af1 c1bd
00000080: 3bb5 fdbc 4bc3 1bbd 20f2 793d 502c 2ebd
00000090: 04b4 d2bd 8a38 573d d007 2b3e ffbe 183d
000000a0: 4203 b83c 7af1 c13d 1d2f 883d 6432 203d
000000b0: 8456 053e 114b ff3d 2696 303e 14e6 2a3e
000000c0: df5c 3abe cfe6 17be 363a 32be 4dd9 25be
000000d0: 9a1a a4be b8b1 a6be e150 9dbe fcd1 8bbe
000000e0: b12e 38be 3df0 2bbe e14a 2f3e 95f2 3a3e
000000f0: f874 333e e8b2 2f3e 9a1a a43e b8b1 a63e
00000100: ef54 053e 2b47 ff3d 085b 923d dab5 42bd
00000110: 02e2 17bc b14d 36bd 9f83 55bd d0d0 973b
00000120: f88d eebd 8908 31bd 1418 eabd e182 883d
00000130: 3758 e93d 5a34 7b3b 8334 e0bd 42b0 1c3c
00000140: ca13 0a3d 1800 37bd 432d 1bbd 741d c4bd
00000150: 1418 ea3d e182 88bd 085b 923d dab5 42bd
00000160: 6eed 40bc 3d9b b53c d168 ef3d a721 a23d
00000170: a7b7 5e3d 630d 56bb ea9b a1bc 67e4 c83d
00000180: 1479 d43b d638 023d 83d9 0cbe 9a5e 3abd
00000190: 7fcc f33d 51eb 8c3d f47e 343d d515 4b3c
000001a0: ffe3 d4bc 0db5 ea3d 1479 d4bb d638 02bd
000001b0: 6eed 40bc 3d9b b53c 49c2 773c 8485 373c
000001c0: 549a 833d 4d9b f6bd 3346 f83b abee cabd
000001d0: 24d1 a03d aeef a9bd a6d9 943c 0744 30bd
000001e0: e6e0 00bd fc06 16be 76b9 833d 3731 14be
000001f0: 3273 833c adf5 adbd ce6a a33d c96c 90bd
00000200: a6d9 94bc 0744 303d 49c2 773c 8485 373c
00000210: a29a c1bd 0ea7 9fbd 7cfa 5abe 32ca b4bc
00000220: c6bf ae3c 972a e1bb e2e4 763d a8b3 c93b
00000230: 991a e03d 521a e6bc 9193 3d3d 5b42 1c3d
00000240: a4a9 0abe 9ff7 6abc 5560 7cbd 5b40 61bc
00000250: 57af 7ebc 4403 09bc 991a e0bd 521a e63c
00000260: a29a c1bd 0ea7 9fbd 33ee a93c 0526 393d
00000270: f16f c13d c1ed ffbd 1e75 5b3d 0a7e 843d
00000280: cf45 8b3d 2b7f dcbd 88a1 233c 2720 ba3c
00000290: 6abd 6e3b 36cc a2bd ce5d dd3d e891 f8bd
000002a0: ba9e 1d3d 23ac 513d e695 6b3d 0d0d f1bd
000002b0: 88a1 23bc 2720 babc 33ee a93c 0526 393d
000002c0: f1d2 b0bd 743e 4abd 4177 c1bd a8b0 14bd
000002d0: a9a0 23bd 84b6 51bd c16e f83c 4801 be3d
000002e0: b5ec 873d 1632 403d a9a1 973d 134f 48be
000002f0: 3a8b 8abd d722 083d 7a97 99bd 0497 f0bd
00000300: 5463 e03a eebc 083d b5ec 87bd 1632 40bd
00000310: f1d2 b0bd 743e 4abd 0abf 913d 06b9 e0bd
00000320: 2515 83bd a9c2 2e3d b97b 4dbd eec5 48bc
00000330: 27ad 023d 9b74 e53c 1ee3 2abd e5d1 013d
00000340: 79da bf3c bb9e 19be 2c82 bcbd b4e4 5a3d
00000350: c4c3 b9bc cfb1 b6bc fc7b 613d f83b 933c
00000360: 1ee3 2a3d e5d1 01bd 0abf 913d 06b9 e0bd
00000370: 56a8 cbbc 663b 8fbc 6aac 773d 401c b0bd
00000380: 4dbd 403d 3ff0 9dbd f76a 9d3d 4344 a43d
00000390: 33bb f3bc 3c8f 33bd 707b a33d 09a2 b4bd
000003a0: 52b1 ab3d a743 bdbd 340f ed3c 8f0a 6bbd
000003b0: be9e 613d 5351 d63d 33bb f33c 3c8f 333d
000003c0: 56a8 cbbc 663b 8fbc 826c d8bc 630c a13d
000003d0: 8de3 f7bc aff3 87bd 8ff7 3fbd 009d b03c
000003e0: c762 c9bd 0f28 a23c a5fa 1bbc abad 103d
000003f0: d160 21bd febf 2abe 3a18 2bbd 609d 21bd
0.032906853 0.033773385 0.02640705 -0.010048908 0.038364727 0.0046568327 0.005878737 -0.037096743
0.05006916 -0.017639726 -0.04197025 -0.28337088 0.08617753 -0.007915865 -0.020732641 0.010543547
-0.051302183 -0.030686645 -0.05006916 0.017639726 0.032906853 0.033773385 0.06649611 0.039110556
0.08815456 -0.0015060285 -0.118320495 0.008395741 0.13895555 -0.006443644 -0.022462491 -0.09469886
-0.030970206 -0.038028043 0.061021924 -0.04252273 -0.102882415 0.052544154 0.16702199 0.037291523
0.022462491 0.09469886 0.06649611 0.039110556 0.13021284 0.1246549 0.17244777 0.1668933
-0.1819949 -0.1483414 -0.17405018 -0.16196175 -0.32051545 -0.32557464 -0.30725768 -0.27308643
-0.17986561 -0.16790862 0.17118408 0.182566 0.17525089 0.17158091 0.32051545 0.32557464
0.13020681 0.12464746 0.07146269 -0.04753671 -0.009270193 -0.044507686 -0.052127477 0.0046330467
-0.11648172 -0.04322103 -0.11430374 0.06665588 0.11393779 0.0038330765 -0.10947516 0.0095635075
0.03371028 -0.044677824 -0.03788496 -0.0957593 0.11430374 -0.06665588 0.07146269 -0.04753671
-0.011775358 0.02216875 0.11689914 0.07916575 0.054374363 -0.0032661788 -0.019727666 0.09809189
0.00648416 0.031792484 -0.13754849 -0.045500375 0.11904239 0.068808205 0.044066384 0.012395342
-0.025987623 0.11460314 -0.00648416 -0.031792484 -0.011775358 0.02216875 0.015122005 0.011201266
0.0642592 -0.1204134 0.007576728 -0.099088036 0.078523904 -0.082976684 0.01817019 -0.043033626
-0.03146448 -0.14651102 0.06431858 -0.14471899 0.01604614 -0.084941246 0.07979356 -0.07051999
-0.01817019 0.043033626 0.015122005 0.011201266 -0.09453322 -0.07795535 -0.21384615 -0.02206907
0.02133168 -0.006871532 0.060276873 0.00615545 0.10942573 -0.028088722 0.04628331 0.03814922
-0.13541275 -0.014341264 -0.061615307 -0.013748254 -0.015544734 -0.008362595 -0.10942573 0.028088722
-0.09453322 -0.07795535 0.020743465 0.045202274 0.09445179 -0.1249652 0.05357849 0.064693525
0.06800424 -0.10766443 0.0099872425 0.02272041 0.0036428818 -0.079491064 0.108089074 -0.121372044
0.03848145 0.051189553 0.057516 -0.11770067 -0.0099872425 -0.02272041 0.020743465 0.045202274
-0.08633984 -0.049375966 -0.09446574 -0.036301285 -0.03994814 -0.05119945 0.03032625 0.09277588
0.06636945 0.046922766 0.07403881 -0.19561414 -0.067648366 0.03323635 -0.07499595 -0.11747554
0.0017119446 0.033383302 -0.06636945 -0.046922766 -0.08633984 -0.049375966 0.07116516 -0.109727904
-0.064005174 0.04266611 -0.05016682 -0.012254221 0.031903412 0.028009703 -0.041720502 0.03169431
0.023419606 -0.15001957 -0.09204516 0.053440765 -0.022676356 -0.022301583 0.05504988 0.017972931
0.041720502 -0.03169431 0.07116516 -0.109727904 -0.024860542 -0.017484378 0.06046716 -0.08599138
0.04705553 -0.07711839 0.076864175 0.080208324 -0.02975235 -0.04383777 0.07982528 -0.08819968
0.083834305 -0.09241419 0.028937913 -0.057383116 0.05508303 0.1046473 0.02975235 0.04383777
-0.024860542 -0.017484378 -0.026418928 0.07863691 -0.030259872 -0.06638276 -0.04686695 0.021559238
-0.098332934 0.019794492 -0.0095202075 0.035321873 -0.039398972 -0.16674802 -0.04177115 -0.039456725

net.0.bias f4 [256]
00000000: 20dd 2cbe c9b4 9bbe 3cdc e4bd 13e1 35be
00000010: 88df 7abe 8e96 76be e183 1ebf dd75 82be
00000020: 37d9 38be 60e1 93be 40fd a5be 7486 9fbe
00000030: 6812 74be 55bd 25bf 8048 50be a254 67be
00000040: 7285 7bbe ff1f cebe 4001 85be e2f8 65be
00000050: 6802 44be 6146 86be 130c 6b3d a67f 82be
00000060: 030b 4abe 0d2c 43be c91d 83be 582b 75be
00000070: cc41 3cbe 2b59 533e a74b d6be 6170 5cbe
00000080: 5fb4 e6be 7dcd 74be 77eb 1cbf f8be 5dbe
00000090: 51c8 0cbf 5392 88be 8ae2 efbd 8b36 7ebe
000000a0: ab50 39be 8a4c 4bbe 0745 1abf abcf 97be
000000b0: b062 63be d9d9 66be 57db aebe bd58 7ebe
000000c0: e6b9 3cbe 1998 a5be ddc9 c6be 26fb 6fbe
000000d0: a0ae a4be 576e 54bd f311 43be f423 98be
000000e0: 707d 53be 0c7e 65be 62f3 b6be c4b7 29be
000000f0: 7a25 50be 34b7 b0be c517 4abe 5e15 41be
00000100: fb91 bfbe e3d7 8e3d 2bb8 90be d293 7cbe
00000110: 554d 36be 90cc 72be 2cb6 3dbe 00e2 8cbe
00000120: a894 adbe dee5 54be 56c0 94be 1f67 90be
00000130: f774 85be fbdc ebbe 6480 7bbe 1f60 9cbe
00000140: 6ec9 42be 87ba 4bbe f1e6 9bbe e024 44be
00000150: dd24 78be 68bc 72be 76b2 65be a729 07bf
00000160: bece 7ebe e592 c5be 026f 87be f181 73be
00000170: d95a 84be 9a45 ecbe c160 60be 76c2 34be
00000180: 5102 99be c016 573e b9a1 9fbe 486e 45be
00000190: cb61 99be 6996 84be 293e 93be 3448 04bf
000001a0: be93 90be 18fe 82be 93d5 74be 5829 66be
000001b0: c3b0 68be ad07 88be 87c5 96be 255f a1be
000001c0: 0e65 b1be 49a0 1cbf 26fe 7ebe fcca 963d
000001d0: dbeb 89be 653b 64be c464 95be 1982 91be
000001e0: 107c 7fbe bc6e 93be 3965 74be 60cc b6be
000001f0: 5cac 7abe 99be 593e f3b2 9abe 6807 0bbf
00000200: 2972 6abe 09b3 83be 9bf4 54be 68bf 9ebe
00000210: d7ef a4be f6e3 9fbe 9aee 8fbe a83b 8fbe
00000220: 9089 3bbe 3f64 0bbe ac17 8abe 6c15 adbe
00000230: 3a52 57be c954 87be a07d d3bd 43d9 1bbd
00000240: 42ea 593e ef3d a1be 91b6 7bbd 0cca 5fbe
00000250: bf11 38be 9356 74be cdd5 97be 26ec 5bbe
00000260: bc04 92be 5dd7 b1be e790 9bbe c68d 55be
00000270: 33a3 80be 4a1e eabd 03b7 60be de10 49be
00000280: 0697 60be 87ac a2be 9c1e 6fbe 2265 9fbe
00000290: a993 f0bd eb6d a6be 499d e33c 58ba 47be
000002a0: e7e6 84be 37ed 13be 64dc 68be 09e3 56be
000002b0: 3007 8cbe c062 97be 808c 87be 18a1 48be
000002c0: 3595 26be 86ce 79be 1c99 3dbe 63a4 87be
000002d0: c38b 3bbe 19d9 aa3d 8020 90be c17a 87be
000002e0: 69dd c9be 308a b5be fa39 84be 81e0 b5be
000002f0: f251 86be 9ad0 97be ba4f a1be 0698 79be
00000300: 1df3 51be b6ba 1dbf f13e 58be 7c5b 533e
00000310: 7e73 47be ba9c 65be 254d 76be c0c6 43be
00000320: da4c 5dbe 0267 97be 36c9 acbe 87fc 73be
00000330: ca5f e5be f935 a0be 4ca0 8ebe 76de 83be
00000340: d3cb 93be 280f 8abe 3a75 583e 3f9b 9ebe
00000350: 2b60 1ebf fe07 9cbe 9897 84be ca5c 80be
00000360: dd96 84be 918b 47bd 5a59 92be 3852 59be
00000370: 94bc 86be 7ed5 8dbe 5aa1 d7be 09f7 ccbd
00000380: 831b 78be b965 acbe 5702 51be a575 4bbe
00000390: c62c a0be 7134 4fbe f29c 92be 5afb 94be
000003a0: 9365 32be 2a47 82be f899 aebe 4cd0 1dbe
000003b0: 6aae 6cbe ee9c 91be 752d 74be 19eb 8ebe
000003c0: 6cff 48be e838 7dbe 35c1 593e 3ae6 aebe
000003d0: f3fb 83be dff5 99be add3 5bbe 4642 58be
000003e0: b185 3cbe dde9 4abd 5686 06bf f45d 75be
000003f0: 2011 7fbe 4e02 77be d2d0 1dbf c4f8 8cbd
-0.16881227 -0.30411366 -0.11174819 -0.1776164 -0.24499333 -0.2408087 -0.6191998 -0.25480548
-0.18051611 -0.28882885 -0.32419777 -0.31157267 -0.23835146 -0.6474202 -0.20340157 -0.22590879
-0.24562624 -0.40258786 -0.25977516 -0.22458223 -0.19141543 -0.2622557 0.05738456 -0.25488013
-0.19730763 -0.19059773 -0.25608662 -0.23942316 -0.18384475 0.20639484 -0.41854593 -0.21527244
-0.45059487 -0.23906513 -0.6129679 -0.2165488 -0.5499316 -0.26674137 -0.11713131 -0.24825494
-0.18097179 -0.19853416 -0.6026158 -0.29650626 -0.22205615 -0.2254404 -0.34151718 -0.24838538
-0.1843029 -0.32342604 -0.38825884 -0.2343565 -0.32164478 -0.05186304 -0.19049816 -0.2971493
-0.2065332 -0.22411364 -0.3573256 -0.16574007 -0.20326796 -0.34514773 -0.1973563 -0.18855807
-0.37416062 0.06974771 -0.2826551 -0.24665764 -0.17802937 -0.23710847 -0.18526524 -0.27516174
-0.33902478 -0.20790812 -0.2905299 -0.28203675 -0.260658 -0.46067032 -0.24560696 -0.30542085
-0.19022152 -0.19895373 -0.30449632 -0.19154692 -0.24232812 -0.23704684 -0.22431359 -0.5279793
-0.24883553 -0.38588634 -0.2645188 -0.23780037 -0.2585056 -0.46146852 -0.21911909 -0.17652306
-0.2988458 0.21004772 -0.31178072 -0.1928035 -0.29957423 -0.25896004 -0.28758362 -0.51672673
-0.28237718 -0.25584483 -0.23909597 -0.22476709 -0.22723679 -0.26568356 -0.29447576 -0.31517902
-0.3464741 -0.61182076 -0.24901637 0.07362935 -0.26937756 -0.22288282 -0.2917844 -0.2841957
-0.2494967 -0.2879542 -0.23866738 -0.357028 -0.24479812 0.21264113 -0.30214652 -0.54308176
-0.22895111 -0.2572253 -0.20796435 -0.31005406 -0.32214233 -0.31228608 -0.28111726 -0.27975202
-0.18314195 -0.1361246 -0.26971185 -0.33805406 -0.2102746 -0.26431873 -0.103266954 -0.038048994
0.21280769 -0.31492564 -0.061453406 -0.21854419 -0.1797552 -0.2386115 -0.29655305 -0.21476802
-0.28519237 -0.34734622 -0.3038399 -0.20854864 -0.2512451 -0.114315584 -0.21944813 -0.1963534
-0.21932611 -0.31772253 -0.2335152 -0.31131846 -0.11746914 -0.32505736 0.02778496 -0.19504678
-0.25957415 -0.14445959 -0.22740322 -0.20985045 -0.27349234 -0.29567528 -0.2647438 -0.19592702
-0.16267855 -0.24395189 -0.18515438 -0.26492605 -0.18315034 0.08342189 -0.28149796 -0.2646084
-0.39426735 -0.3545699 -0.25825483 -0.35522845 -0.26234394 -0.29651338 -0.3150614 -0.24374399
-0.20502897 -0.61613023 -0.2111776 0.20640367 -0.1947765 -0.22423068 -0.24052866 -0.19118786
-0.21611348 -0.29570776 -0.33747262 -0.238268 -0.44799644 -0.31291178 -0.27856672 -0.25755662
-0.28866443 -0.26964688 0.21138468 -0.30977818 -0.6186549 -0.30474848 -0.25896907 -0.25070792
-0.2589635 -0.048717085 -0.28583795 -0.2122277 -0.2631575 -0.27701944 -0.4211529 -0.10008056
-0.24229245 -0.33671358 -0.20411049 -0.19869097 -0.3128416 -0.20234849 -0.28635365 -0.29098016
-0.1742156 -0.2544492 -0.34101844 -0.1541149 -0.23113409 -0.2844004 -0.23845465 -0.2791374
-0.19628686 -0.2472874 0.21265109 -0.34160024 -0.2577816 -0.30070397 -0.21467467 -0.21119031
-0.18410374 -0.049539436 -0.5254873 -0.23961622 -0.24908876 -0.24121973 -0.6164676 -0.06883386

net.2.weight f4 [256]
00000000: c74f 0b3e ba7b 523e 7383 5f3e 06ed 903d
00000010: e2ac 1c3e fb67 353e f55e 063f 60a3 233e
00000020: 2830 543d ea12 0b3e 0f36 623e 650a 3a3e
00000030: cb85 153e 49f7 003f 768a d13d 738f 5a3e
00000040: 6d71 e63d 63e7 0a3e 6411 d73d c09e 243e
00000050: 6cb2 c93d 2de3 d23d d31c 023d cd28 1e3e
00000060: a2ab 843e 8a07 5e3e 56e7 203e 0eea 2b3e
00000070: 1008 c53d e263 223e 1333 483e 58e5 453e
00000080: a734 353e 8aa0 133e 8899 993e 1128 d53d
00000090: 943e 903e 6f50 5b3e ffd3 0c3f f93c 0f3e
000000a0: 07ec 983d b5f1 633e ad41 de3e 11ac 293e
000000b0: 66a0 b53d 982c 333e a4d6 0e3e 336d c93d
000000c0: dfda 6d3e a403 803e de7f 873e 1f11 403e
000000d0: 6ed7 5e3e 7a32 0b3f 6c07 6a3e 60ba 7d3e
000000e0: f171 de3d b4b5 233e 57dc 3f3e 72e4 fa3d
000000f0: 8f97 093e 56c2 413e 7da0 1f3e f96e 723e
00000100: 79b6 8c3e 4b70 023d 47ce 213e 3f74 2a3e
00000110: 8ff8 833e 52a3 e13d 33fb 5b3e 103e b73d
00000120: da42 153e c4ec 393e a364 313e 15ee 6b3e
00000130: 8199 0f3e c790 513e 645b 583e c164 803e
00000140: 840b f83d 23c6 0e3e cc24 4d3e c774 4e3e
00000150: 1974 543e 4ee2 023e f99b 853d 26da 803e
00000160: 1609 c13d 415a 663e 8267 d43d a52b 0b3e
00000170: 3755 283e 0852 c13e f371 cf3d d889 033e
00000180: 755f 1e3e b7c9 213e 91c6 553e 29c5 d53d
00000190: 827f f63d d7aa 3e3e 8322 5f3e 2538 d03e
000001a0: 2458 213e 4cf0 713e 0add 3d3e a0cd 293e
000001b0: 302e 1b3e f620 1f3e 18f6 423e 20df 513e
000001c0: 293c 993e dea8 a03e e1e5 4b3e 35f1 063d
000001d0: f307 ae3d 2bfa 0a3e 67a8 253e 8239 513e
000001e0: 3e20 913d 2c49 4a3e e5eb c83d d346 803e
000001f0: b28f 253e f14e 253e 9409 4d3e 6e8a f43e
00000200: 0437 123e 8d7f 473e ab99 303e 351a 2c3e
00000210: 8fb2 193e df8e 1a3e c094 2c3e 2fb4 0f3e
00000220: 0cc0 7b3e 9438 223d 5563 3d3e e339 4a3e
00000230: 3aa6 793e 71be 6b3e 2acf 363e 3691 f83d
00000240: 1460 203e d8fc 513e d0d4 e43d 07e0 3d3e
00000250: 29c7 643e 4b2a 373e 1a91 513e 04d2 ca3d
00000260: 4a3f 263e 07fd ff3d bb78 823e 2ccd 433e
00000270: 972e 033e 4c73 343e 753d 4e3e e0c8 8a3d
00000280: 8c90 453e 81cf 3e3e 70df f73d b099 fb3d
00000290: 0a63 dc3d 04f5 3c3e a7e8 203d 1ec2 e33d
000002a0: 21a2 353e 7b71 0b3f 1e2d 2d3e 6654 883d
000002b0: 1633 633e a609 503e fe9a f53d 0437 433e
000002c0: 0e61 e03d 0933 2f3e 918e 773d a441 a93d
000002d0: 4bd0 613e aa2f 023d 3289 dd3d e3a6 393e
000002e0: cc23 c03e 395d 733e 1667 833e 1aad 713e
000002f0: 52b8 2c3e 92b5 523e 1bb7 0a3e dbe4 4d3e
00000300: 6960 163e 1bed 963e 9adc 0e3e e219 1d3e
00000310: bd4d b03d d4f8 ebbd f482 2e3e e36d 6c3e
00000320: c06b 183e ca8b 813e 5d92 0d3e b0e0 4c3e
00000330: 6705 0d3f da0b 0e3e a03e 1e3e c1d6 333e
00000340: ca43 723e 8f89 3d3e 15cd 213e c3cd 873e
00000350: f264 c13e b8cd 153e 79f3 1a3e e38a 703e
00000360: 0538 3b3e cbb8 0b3f e474 383e 7315 053e
00000370: ca09 673e bb57 843e 6093 013f 0353 e23d
00000380: 6721 ed3d c372 eb3d be51 463e 9c16 103e
00000390: 173d 483e a793 3f3e c121 643e c736 3d3e
000003a0: a773 5f3d 34fe 253e 2f46 233e e314 933d
000003b0: 7196 183e be1d 0c3e 7714 d33d 8dd8 3e3e
000003c0: 442e c93d 5fff 153e 4c68 203e d180 4a3e
000003d0: 3ebd 423e 171c 453e 4818 a03d d224 fb3d
000003e0: 09ff 2a3e 3c25 153e cb90 573e b3b3 343e
000003f0: e97d 283e a8aa 233e 21b6 903e e56b 2c3e
0.13604651 0.2055501 0.21827488 0.07076459 0.15300325 0.17715447 0.5248864 0.15980291
0.051803738 0.13581434 0.22090934 0.18168028 0.14601819 0.5037733 0.102314875 0.21343784
0.11252103 0.1356483 0.10501364 0.16076183 0.098484844 0.102972366 0.03176577 0.15445252
0.25912195 0.21682563 0.15713248 0.16788504 0.096206784 0.15858415 0.19550733 0.19325769
0.17695867 0.1441671 0.29999948 0.10408033 0.28172743 0.21417402 0.5501098 0.13988103
0.07466894 0.22260173 0.43409482 0.16569544 0.08868484 0.1749748 0.13949066 0.09835281
0.23228024 0.25002778 0.26464742 0.18756531 0.21761867 0.54373896 0.22854394 0.24778128
0.10861576 0.15987283 0.18736397 0.12250604 0.13436721 0.1892179 0.15588565 0.23675145
0.27482966 0.031845372 0.15801345 0.16645907 0.25775573 0.11017479 0.21482544 0.08947384
0.14576283 0.18156725 0.17323546 0.2304004 0.14023401 0.20465384 0.21128613 0.2507687
0.121115714 0.1394277 0.20033568 0.20161735 0.20747413 0.12781641 0.0652389 0.25166434
0.09425561 0.22495367 0.10371305 0.13590868 0.16438757 0.37757897 0.10129156 0.12845552
0.15466101 0.15799604 0.20876528 0.10437996 0.12036039 0.18619858 0.21790509 0.40667835
0.15756279 0.23626822 0.18541351 0.16582346 0.15154338 0.15539917 0.1903919 0.20495272
0.2992871 0.31378835 0.1991191 0.032944877 0.0849761 0.13571994 0.16177522 0.20432094
0.07086228 0.19754475 0.09810618 0.25054035 0.16168097 0.16143395 0.20023185 0.47761863
0.142788 0.1948225 0.1724612 0.16806872 0.15009521 0.15093563 0.16853619 0.14033578
0.24584979 0.03960474 0.18494923 0.19748645 0.24379817 0.23021866 0.17852464 0.12137072
0.15661651 0.20506608 0.11173403 0.18542491 0.22341599 0.17887227 0.20465508 0.099033386
0.1623508 0.12499433 0.25482735 0.19121236 0.12810741 0.17622107 0.20140631 0.06776595
0.19293422 0.18633844 0.12103164 0.12285173 0.10761078 0.18452841 0.039284375 0.11121009
0.17737629 0.5447003 0.16911742 0.06656723 0.22187456 0.2031618 0.11992453 0.19063956
0.10956012 0.17109312 0.060438696 0.08264473 0.22052114 0.031783737 0.108171836 0.18130068
0.3752731 0.2376603 0.25664586 0.2360119 0.16867188 0.20577076 0.13546412 0.20106833
0.14685215 0.29477772 0.1395134 0.15341905 0.086085774 -0.115220696 0.17042142 0.23088793
0.14884853 0.25301963 0.13825364 0.20007586 0.5508637 0.13871709 0.15453577 0.17562391
0.23658672 0.18509506 0.15800889 0.2652417 0.37772328 0.14629257 0.1513194 0.23490481
0.18283089 0.54578847 0.1801334 0.12996463 0.22562328 0.25848183 0.506155 0.110509895
0.115786366 0.114964984 0.1936712 0.14071125 0.19554554 0.18708669 0.22278501 0.18477927
0.054553654 0.16210252 0.15944742 0.07181718 0.14901139 0.1368322 0.10306638 0.18637295
0.098232776 0.14648198 0.15664786 0.19775702 0.19017503 0.19248997 0.07817131 0.12262882
0.1669885 0.14564985 0.21051328 0.17646675 0.16454281 0.15983069 0.28263953 0.16838033

net.2.bias f4 [256]
00000000: feec bb3c 30aa 353d 12b1 f83c 1b6d 813b
00000010: 2bd3 113d bcd6 583d a0c4 183e 6a45 373d
00000020: ff6d e33a 223a 103d 2aac 683d 0fcd 523d
00000030: a16d e43c 959d f73d ae2e 433c b312 623d
00000040: f793 2a3c 4f7f 563c 43b7 843c 534e 113d
00000050: e322 3e3c 7ef7 a53c d15a 7bbd 727d 133d
00000060: 359b 423d 2857 fd3c f3fe ba3c 7515 fe3c
00000070: be25 9a3c 59a4 03bf 8f84 123d 9772 0a3d
00000080: ac76 983c e9ed e63c 1e9f 8a3d b958 253c
00000090: fd09 733d 1957 803d 7d52 1d3e 6675 9e3c
000000a0: 5b1b 50bc 327f fe3c 2f5f ea3d 5192 273d
000000b0: adc9 b53c 1fd4 363d b167 363c 182c 673c
000000c0: 31ef 1c3d a83e 803d cfb1 863d 3cac 2f3d
000000d0: bf81 5d3d 6825 1c3e c1c2 093d 7876 7d3d
000000e0: 4325 4e3c b15c 0b3d 9f4b 443d 2d91 d23c
000000f0: 53c7 a73c da58 3d3d 534a 853c 26cb 023d
00000100: d5ee a33d f252 8abd c075 c33c 05af 213d
00000110: e046 4c3d 89d2 cc3c 367b d13c 5d87 243c
00000120: ae1b 623c e298 133d f780 403d b5a2 5a3d
00000130: e867 893c 9bce 3d3d 0bdb 533d 66b4 923d
00000140: 2390 263c 0f58 c83c 91fe 0e3d 9f12 133d
00000150: 0e47 293d 6852 c43c 3855 063c bab8 693d
00000160: 2dd9 993c 41bb 233d 99a9 4bbc 8b38 0c3d
00000170: 6c1c 163d c99e cb3d e4ac 543c 5038 dc3c
00000180: 16a7 2a3d fd0c 03bf 7fa1 3a3d 1831 213c
00000190: d75f 0e3c 0928 313d c5f0 763d f7d9 ce3d
000001a0: c17c 103d 284c 753d 24bb 223d e25a ff3c
000001b0: 3061 fc3c 256c 453d 0b08 563d a6f1 573d
000001c0: 3c86 a63d fce2 8f3d fe22 443d 8315 8dbd
000001d0: 0d95 0d3c 0482 c13c 6e22 163d 7c17 533d
000001e0: 54ec b03b 8e1b 553d e68c 7a3c a5e5 983d
000001f0: 5090 283d 1ec7 05bf 6d77 3f3d 9c8a 023e
00000200: 3a87 283c 17c3 573d 41dc 173d 93b3 473d
00000210: a50b 143d 6da3 f53c 95d7 283d e706 023d
00000220: 4307 453d 593c c839 58c0 4a3d 6eda 473d
00000230: d2e1 1e3d 1f8e 693d 9317 883c 066f f9bb
00000240: 823d 05bf e911 813d d181 a4bc af67 b23c
00000250: 9d6b 2e3d 3f5e 273d eeb9 5b3d 12ce 303c
00000260: 6868 503d 0679 d03c a85a 733d a5c6 193d
00000270: 296d f23c a00e a93c 5792 6c3d c7c6 c93b
00000280: 1c97 3c3d e6d6 273d 1607 6a3c bac7 d13c
00000290: a65a 1a3c 2341 783d f169 47bd e867 543c
000002a0: ae34 273d e48a 1c3e da2f 1f3d 6e74 4d3c
000002b0: 4ca5 5d3d 7519 5b3d 0f68 043d 4fda ff3c
000002c0: e712 873c 768a f43c b065 84b9 b698 073c
000002d0: ab26 f73c 460b 65bd d31f d03c dddd 3b3d
000002e0: 7626 cb3d 009e 863d 676d 863d e876 7e3d
000002f0: 07b6 e33c 411b 513d 007f fb3c 572b 453d
00000300: aaae 823c a576 843d 888f 6d3c b51c 06bf
00000310: 507d fa3b a3ae a1bc bc00 3d3d bb49 373d
00000320: 371a d93c 890d 6e3d 289d 053d 618a 4c3d
00000330: 9102 113e da81 073d b53b 243d bb57 053d
00000340: b7e1 6c3d 7709 173d 854b 03bf 32b2 983d
00000350: 50b8 be3d 0493 b53c dd1a b43c 4fb3 7c3d
00000360: f56d 4e3d af57 183e a27c 293d ae68 fc3b
00000370: a747 5d3d 4324 813d 7f4b 163e 6678 cb3b
00000380: 163f 8b3c 09a9 df3c 9e98 543d 5986 123d
00000390: 9181 3e3d 8408 493d af8b 1c3d 84bb 433d
000003a0: 7f44 023c 004f ea3c 22fa 043d 038f ebbb
000003b0: c370 e03c ea02 0a3d 929a a13c 74cc 383d
000003c0: 5363 793c 3be5 e33c 8f4e 06bf e17d 1a3d
000003d0: 01aa 3c3d 4ce2 2c3d 9756 3f3c 16ce c83c
000003e0: e3c7 e63c 9f42 0f3c a7d1 3e3d e687 453d
000003f0: 39f9 003d 10c4 0e3d 5f36 853d 464b 0a3c
0.022940155 0.044351757 0.030357871 0.003949774 0.035601776 0.05293916 0.14918756 0.044743933
0.0017351507 0.03521169 0.056804813 0.05146509 0.027884306 0.12090603 0.011912985 0.055193614
0.010411254 0.013091876 0.016200667 0.035475086 0.011604997 0.020259615 -0.061365906 0.036008306
0.0475113 0.030925348 0.022826647 0.03101609 0.018816825 -0.5142265 0.03577095 0.033800688
0.018611275 0.028189616 0.067686304 0.010091954 0.059335697 0.062666126 0.15363498 0.01934309
-0.012701835 0.03106651 0.11443936 0.040911023 0.022190893 0.04463589 0.01113312 0.014109634
0.03831405 0.06261951 0.06576883 0.042888865 0.054078814 0.15248644 0.033632997 0.06188056
0.012582126 0.034023944 0.04792368 0.02570399 0.020480787 0.046227314 0.016270792 0.03193202
0.08004538 -0.06754102 0.023859859 0.039473552 0.04987228 0.025002735 0.025571447 0.010042039
0.013800545 0.036034472 0.04699799 0.053377826 0.01677318 0.046339612 0.051722568 0.071633145
0.010166201 0.024456052 0.034910742 0.03590643 0.04132753 0.023965076 0.008199029 0.057060935
0.018780315 0.0399735 -0.012430572 0.03423361 0.0366482 0.09942395 0.012980673 0.02688232
0.04166325 -0.51191694 0.04556417 0.009838365 0.008689842 0.04325107 0.06028821 0.10100167
0.035275225 0.05988708 0.039729252 0.031171266 0.030808061 0.048198838 0.052253764 0.05272069
0.08131072 0.07025716 0.047884934 -0.06888869 0.0086414935 0.023621567 0.03665393 0.05153607
0.0053992663 0.05202823 0.015292382 0.07465676 0.041153252 -0.52256954 0.046744753 0.12748188
0.010286147 0.052676287 0.037075285 0.04875524 0.036143918 0.029985154 0.04122122 0.031744864
0.04810263 0.00038191935 0.04949984 0.048792295 0.038789578 0.057020303 0.016612804 -0.007612112
-0.5204698 0.06302244 -0.020081433 0.021777956 0.042583097 0.040861364 0.053644113 0.0107913185
0.05088082 0.025448333 0.05941263 0.037542958 0.029593067 0.020636857 0.057756748 0.0061577293
0.046042547 0.040976427 0.014283916 0.025607932 0.009421026 0.060608994 -0.048685018 0.012964226
0.040821724 0.15287358 0.038863994 0.012539966 0.054112718 0.053491075 0.0323258 0.031232027
0.016488506 0.02985118 -0.00025252765 0.008276155 0.030169806 -0.055918954 0.0254058 0.045865882
0.09919445 0.06573105 0.065638356 0.062125117 0.027796758 0.051051382 0.030700207 0.048137035
0.015952427 0.06467942 0.014499553 -0.52387553 0.007644333 -0.019736594 0.04614328 0.04474805
0.026501758 0.058118377 0.03262058 0.049936656 0.14161135 0.03308282 0.040096004 0.03255437
0.057832446 0.03687426 -0.5128711 0.07455863 0.093124986 0.02216483 0.021985466 0.06169444
0.050397832 0.14877199 0.041378625 0.0077029085 0.05402341 0.063057445 0.14677237 0.006209421
0.016997855 0.027302282 0.05190336 0.035772655 0.046510283 0.049080387 0.03821915 0.04778625
0.007950901 0.028602123 0.032465108 -0.007188679 0.027397519 0.033694185 0.019727025 0.045116857
0.015221435 0.027819267 -0.5246362 0.037717704 0.046060566 0.042208 0.0116783595 0.024512332
0.028171485 0.008743911 0.04658666 0.048225306 0.031487677 0.03485495 0.06504511 0.008440798

net.4.weight f4 [256, 256]
00000000: 9f99 81bd 476d e9bc 27ec aa3b 28a9 a03c
00000010: d213 433d 1a83 4dbc 1a19 e23c 374e dbbb
00000020: 73bf 6e3c e5f0 c7bc b984 eab9 2b23 8f3c
00000030: a1c7 f93c fd92 d93c d7ce 4ebd d085 083d
00000040: 6960 8f3c adae a9bc 55de d33c 3bf4 d6bb
00000050: 5322 113c 89fd 43bc 0bd4 3fbc 93ea 113b
00000060: d23a c93c bfe8 cebc fba7 30bd 37c2 db3c
00000070: 43a0 9ebc 0893 b63d 869b 71bb 358f 833d
00000080: 13e6 9d3b e63b 343c e594 1e3d 8278 ccba
00000090: cbde 943c cd83 c33c 9649 e83c 2390 a5ba
000000a0: d243 a1bc 1fcb 133d b074 ec3c c6b6 28bd
000000b0: 37dd 133d 8515 30bd 0343 043d 90dc 44bc
000000c0: 95c5 21bc 7e06 2d3c d0db 953c 7ab6 bfba
000000d0: 06ed 6b3d d3c5 cc3b 2f8b 3ebd bf61 b0bb
000000e0: 5a5f 143d f20a 093d 74f8 70bd 6173 b53b
000000f0: 2674 eeba 2911 eabb c6f7 c7bc 78fd ee3b
00000100: df11 843c 29ac 4bbd c37e bbbb 1d86 c5bc
00000110: 3236 56bc 80fa c8bc 22c6 77bc 3680 c2bc
00000120: e24f 55bd 9b7a 283d fa46 cfba eb19 3a3c
00000130: 6778 77bd d5c0 173d 15e9 4bb9 0e01 343d
00000140: 8067 113d 6fe9 4c3d 348a 303d 1a81 f73a
00000150: 08ce 123b 6cae c4bc bcf0 8ebb afa1 2c3d
00000160: d4af acbc ee6f 3c3c dd58 a3bc 50bd a4bb
00000170: d359 ca3c bf3b 7a3c e1ee 8bbb 704a c1b9
00000180: c362 a33b be49 a33d a442 d4bb 9a53 593d
00000190: 5d18 61bb f9ce dc3b a48a d8bb bd84 3a3c
000001a0: a077 83bd 8fe9 93bc 8807 9f3c 82c2 02bc
000001b0: c31c 363d c980 babc 6a73 853a e1c0 823c
000001c0: 6f16 783c 0197 f93b 8184 c83c 9152 05bb
000001d0: 5b37 cabc cf83 c5bb 21a0 6b3d 0f37 813b
000001e0: d42b c33c 333f 88bc 0488 35bd 1c47 d4bc
000001f0: 3355 46bc d954 dd3d bc6a 263c 8ac4 883c
00000200: 5d65 b5bc d347 62bc 089c 563d b2c4 87bb
00000210: e84e 79bc 62aa e73c a246 0dbc 2fac 4cbd
00000220: 9d2c a33c ea2d 6abd ac53 b5bc 0971 bb3b
00000230: 25a0 82bb f7e4 d6bc 2f6b 47bd 1074 d3bb
00000240: bbc4 843d f96b 8abc aa40 c83c 36a1 26bc
00000250: 9b23 27bd 88ce d7b8 e3f7 be3b 6b0b 043c
00000260: 47ec d23c bf47 0f3d 2964 a939 4266 6abd
00000270: d448 173d e9d2 06bd 0b97 c83b 94ca 76bc
00000280: a527 8fbd 5d17 443b ab35 a03d aae3 0d3c
00000290: c645 48bd d1fe 373c 4031 61bc 232b 3f3c
000002a0: bfd5 fbbc 9a4c 1f3c f948 0d3b e134 50bd
000002b0: c5cc c2bb 4c6b bf3b 139d 163d 17f7 1abd
000002c0: 7c34 53bd 6e4c 9d3d e637 d5ba a5f4 4c3a
000002d0: 27a5 5fbb f497 fe3b bbff b53c ff6e 58bc
000002e0: 0d24 133d 0da3 d23b 5a74 fa3b 6456 adbc
000002f0: ac9e df3c 5ff0 f2bc 699e 983c 9f57 7a3b
00000300: d0e3 693d 6192 8eba 9343 9dbd d4a3 9a3d
00000310: 1458 643d 92dc 1c3c 05da f63c f089 10bc
00000320: e6ec 85bd 0084 60bd aa76 fbbb a020 18bb
00000330: b6c6 ea3c 9164 88bc 3889 16bc a25a d7bc
00000340: a560 e03c a0a0 dd3b eb33 903d 4137 293d
00000350: 575b 963c def7 67bc eccb 453d ab6c ad38
00000360: 5650 38bc 5bcc 1f3c 3b4f b03c 9a0c 28bd
00000370: 626f 42bc a2cf a23b 5b4d 5dbb b2d0 6e3d
00000380: ac81 1e3d e2bc b93c 2335 efbb 6498 27bc
00000390: 7c81 15bd 8c51 0dbc 5619 dbba 634f eb3c
000003a0: 606a 74bc 01bb 41bd ef1e 2b3d 3779 4ebd
000003b0: f377 a0bc 104c 7dbc e618 80bc ed3c 88bc
000003c0: 33e2 023d 74b1 273c 5a43 6d3d ea85 a6bc
000003d0: 41b9 703c 3565 1fba 12f1 283d a7c7 a33c
000003e0: 7230 0c3d 6ea3 6bbc cad1 24bd 5e89 fdb9
000003f0: a287 2d3c b5b0 c83c fcb8 2cbd b15d 1d3d
-0.06328129 -0.02849449 0.00521614 0.01961191 0.047626324 -0.012543464 0.02759986 -0.0066926735
0.014572012 -0.02440686 -0.00044730844 0.017472824 0.030490698 0.026559347 -0.050490227 0.03333074
0.017502027 -0.020713175 0.025862852 -0.0065598763 0.008858281 -0.011962303 -0.01170827 0.0022265061
0.02456418 -0.025257466 -0.04312895 0.026826007 -0.019363528 0.08914763 -0.003686638 0.06423799
0.0048186867 0.011000609 0.038716216 -0.0015599879 0.018172642 0.023866558 0.028355401 -0.0012631457
-0.01968566 0.036082383 0.028864235 -0.04118993 0.03609964 -0.042989273 0.03229047 -0.012015477
-0.009873767 0.01056063 0.018293291 -0.0014626526 0.05759909 0.0062491684 -0.046519455 -0.005382746
0.036223747 0.033457704 -0.058830693 0.005537436 -0.0018192574 -0.007143159 -0.02441014 0.0072933994
0.016121803 -0.04972473 -0.0057218983 -0.024111802 -0.013074445 -0.02453351 -0.015122922 -0.023742776
-0.052078135 0.04113255 -0.0015813999 0.011358718 -0.06041756 0.037049133 -0.00019446418 0.04394632
0.035499096 0.050027307 0.04310055 0.001888308 0.0022400636 -0.024008952 -0.004362194 0.04214638
-0.021079935 0.0115012955 -0.019939834 -0.0050274506 0.024701035 0.015273034 -0.00427042 -0.0003686729
0.0049861385 0.079730496 -0.0064776707 0.053058244 -0.0034346797 0.0067385403 -0.006608324 0.011384186
-0.06419301 -0.018055705 0.01941277 -0.007980945 0.044461023 -0.022766488 0.0010181491 0.015961112
0.015142067 0.007616878 0.024477245 -0.0020343403 -0.024684599 -0.0060276757 0.057525758 0.003943331
0.02382461 -0.016631698 -0.044319168 -0.025912814 -0.012105274 0.10807199 0.010157283 0.01669528
-0.02214306 -0.01381107 0.052394897 -0.004143321 -0.015216567 0.028279487 -0.008622797 -0.049968895
0.019918734 -0.057172693 -0.022134624 0.005720262 -0.003986376 -0.026232226 -0.048686203 -0.0064530447
0.06482836 -0.016897188 0.024444897 -0.010170272 -0.04080544 -0.00010290468 0.0058278902 0.008059363
0.025747431 0.03498053 0.00032308817 -0.057226427 0.03693469 -0.032915983 0.0061215213 -0.015062947
-0.069899835 0.0029921152 0.07822736 0.008660236 -0.048894666 0.011230187 -0.013744652 0.011667999
-0.03074157 0.009722853 0.0021558388 -0.05083168 -0.0059448206 0.005841648 0.03677089 -0.0378333
-0.051563725 0.076805934 -0.0016267269 0.00078184373 -0.0034125538 0.007769579 0.022216668 -0.013210057
0.035923053 0.0064281286 0.0076432647 -0.021159358 0.02729734 -0.029655633 0.018630223 0.00381992
0.057102025 -0.0010877365 -0.076789044 0.07550779 0.05574806 0.009574072 0.030133257 -0.008821949
-0.065393254 -0.054813385 -0.007674058 -0.0023212805 0.028659206 -0.016649516 -0.009187989 -0.026288334
0.027389834 0.0067635328 0.070411526 0.04131246 0.018354101 -0.014158217 0.04829018 8.269524e-05
-0.011249622 0.009753312 0.021522155 -0.041027643 -0.011867376 0.0049685994 -0.0033768031 0.058304496
0.038697883 0.022673074 -0.0073000356 -0.010229204 -0.03650044 -0.008625399 -0.0016715925 0.028724378
-0.01491794 -0.04729748 0.041777547 -0.05040857 -0.019588446 -0.015460029 -0.015636873 -0.016630614
0.031954 0.010235179 0.05792556 -0.020327527 0.0146926055 -0.00060804497 0.041245528 0.019992663
0.03422589 -0.014382226 -0.040239133 -0.00048358267 0.010591419 0.024498323 -0.042168602 0.03841943

net.4.bias f4 [256]
00000000: b256 c7bd 3f9b b0bd 22e2 c5bd 3b2b 3fbd
00000010: a360 96bd 9080 04bd 5c44 e6bc ba7f dbbd
00000020: 529a 03be a965 adbd 54cf c1bd 4137 5ebd
00000030: 2f15 93bd 5183 fbbc 91be 18bc 2fd8 94bd
00000040: 78e1 e7bd cb59 c2bd c85c d1bd 8df6 95bd
00000050: af29 56bd ec9a 02be 8afe afbd f973 b8bd
00000060: 9f25 e5bd fd5b b5bd 3af9 c9bd 71ad 92bd
00000070: 7544 51bd 5144 d8bd bf96 f5bd c377 29be
00000080: 3b52 cebd 4345 5bbd b0f6 41bd 29d2 29be
00000090: e8ff 8abd a425 a5bd b17a eabc b471 d7bd
000000a0: 561c 49bc ed19 07be 9f36 b6bd 6321 23be
000000b0: 6476 28bd cc6b 39bd a0ee 80bd 2291 5bbd
000000c0: 4f5d 8cbd 5c47 83bd 75c0 02be e392 1cbe
000000d0: 5c5b 80bd 076a 7dbd d90a d6bd 3b74 10be
000000e0: c72a 65bd 2d81 aa3c dc77 97bd ff96 eabd
000000f0: a8ec 11be 8aac f9bd 0887 b9bd 43c8 71bd
00000100: 83f5 d4bb 47d4 dbbd ff35 cbbd 477f b9bd
00000110: 174f a4bd 39a5 74bd 7702 97bd ead6 f6bd
00000120: f5e8 afbd ac87 2ebd 1e15 01be 96a1 72bd
00000130: 7e5d febd d099 72bd 837a 3dbd dbdf f5bd
00000140: 7cbe 02be a28f ddbd 5ee5 6cbd 2909 62bc
00000150: 6eeb 73bc 414b a5bd 50e4 86bd 9e11 a4bd
00000160: ec07 acbd b53e d4bd 189b a3bd 04e3 d9bc
00000170: 731c 33bd e9b6 65bc a955 06be 39f9 88bd
00000180: 00b2 89bd ece9 373b 5f07 bcbd 0316 c5bd
00000190: 61a1 80bd 87af f7bd 0b64 8bbd 5718 55bd
000001a0: 2083 0abe ccc2 193c 473f 2ebe 77d7 84bd
000001b0: f777 59bd ab9a 6abd 8717 1ebe 0def 72bd
000001c0: 4030 d1bd ba92 a2bd e6ba e6bd 16b1 3dbd
000001d0: e661 e3bc 9fa5 73bd 1499 c8bd 0b14 06be
000001e0: b497 eebd 4891 97bd fb17 5dbd 1886 6cbd
000001f0: dfb3 ccbd 97a1 20bd 5288 90bd 6383 95bd
00000200: 95b8 87bd 84be 0abd 43d0 bcbd 892d febd
00000210: 068a 9cbd 3d69 d5bd a75f 7cbd 2aa6 f9bd
00000220: 0aaf 8dbd 1984 b2bd 3c81 c6bd 8234 c4bd
00000230: 7b3b 5ebd 14df acbd e178 99bd 2529 91bd
00000240: 6e4a f6bd 0074 1bbd 4df7 e9bd c70e d4bd
00000250: 3bb5 63bd ed03 75bd 27ff 39be a04a c3bd
00000260: 6211 25bc a8de 9dbd d154 a9bd a9c1 2bbe
00000270: 59c9 0dbe 28ea 8dbe cb0a 51bd df7a a6bc
00000280: 5d3c 01be 0b79 02be 3733 71bd 9b1f 3cbe
00000290: c074 85bd cb06 82bd 51ec 49bd 9fe8 06be
000002a0: 29fe 9ebc 6408 d1bb eeb1 bfbd 922e 23bd
000002b0: 23bd cdbd eba8 d0bd 31d0 d8bd 62ad b5bd
000002c0: 4deb cfbd d4a3 b4bd c049 1cbd cb77 30be
000002d0: c96e 14bd 358c 90bd b5a4 14bd 16bb a0bd
000002e0: 21c4 79bd e5e7 40bd 0398 18be 62bf 20bd
000002f0: f56d d4bd 496d 4cbd e935 e5bd d2db dfbc
00000300: 5dbb b2bd 6bd4 0ebe e4e8 91bd 5e9b adbd
00000310: 8361 8cbd 6e89 93bd bd78 fdbd 9a3a e0bd
00000320: 87f5 81bd e227 15b1 c98f fdac abdd 38be
00000330: dd2a 53bd 8295 67bd 2a7f d7bd bcc4 a8ba
00000340: 2d65 c4bd ebe4 59be 5a16 bfbd b175 9cbd
00000350: b8a3 bbbd 9d6c 32be 73ab 9cbd b09e f2bd
00000360: d4e0 a4bd fe31 7abd 2bfd 8ebd 470c e5bd
00000370: e874 5abd da2c 89bd 3f01 13be 5481 c0bd
00000380: de0a 88bd 19e4 eabd e1ab 4bbd 95ac 98bd
00000390: dbf7 20be 0fd4 31bd 588e b2bd ad79 8fbd
000003a0: 2ee6 b5bd a284 9abd e384 77bc 64df c8bd
000003b0: 7612 bbbd 7de5 07bd 4d22 9dbd 2c2b a7bd
000003c0: 6ee2 e5bd 40ff 17bd bcfa 9dbd 1e1b 58bd
000003d0: 910f 04be 9040 d1bd 547a 9fbd d22f 4ebd
000003e0: ced2 d4bc 6204 acbd 6e0a 80bd 850f 0ebe
000003f0: 72fc e2bd fead 69bd 55f6 a6bd 28e2 19bd
-0.09733333 -0.08623361 -0.09662272 -0.046672087 -0.07342651 -0.03234917 -0.028108768 -0.10717721
-0.12851837 -0.08466656 -0.09463373 -0.054251913 -0.07181775 -0.030702265 -0.009322778 -0.07267796
-0.113223016 -0.09489783 -0.10222775 -0.073224165 -0.052285846 -0.1275441 -0.08593471 -0.09006495
-0.11188816 -0.08855436 -0.09861989 -0.071619876 -0.051090676 -0.10559905 -0.11991643 -0.16549592
-0.10074278 -0.05353285 -0.0473544 -0.16584076 -0.067870915 -0.0806382 -0.028622957 -0.10519734
-0.012274822 -0.13193484 -0.08897137 -0.15930705 -0.04112853 -0.04526882 -0.06295514 -0.053605206
-0.06853735 -0.06410095 -0.12768729 -0.15290408 -0.062674254 -0.061868694 -0.10451288 -0.14106838
-0.055949 0.020813549 -0.07395908 -0.114545815 -0.14250433 -0.12191112 -0.09058958 -0.059028875
-0.006498994 -0.10733848 -0.09922408 -0.09057479 -0.08022898 -0.05972788 -0.07373517 -0.1205271
-0.08589355 -0.042609856 -0.12605712 -0.05923613 -0.12420176 -0.05922872 -0.046259414 -0.12005588
-0.12767977 -0.108184114 -0.05783593 -0.013796129 -0.014887674 -0.08070994 -0.06586516 -0.08011173
-0.083999485 -0.10363523 -0.07988566 -0.026597507 -0.043728303 -0.01402066 -0.13118614 -0.066881604
-0.06723404 0.0028063012 -0.091810934 -0.09623339 -0.062807806 -0.12094026 -0.06806191 -0.052025165
-0.13526583 0.009384822 -0.17016326 -0.06486409 -0.053092923 -0.05727641 -0.15438662 -0.059310008
-0.10214281 -0.07938142 -0.11266117 -0.04631146 -0.027756643 -0.05948412 -0.09794822 -0.13093583
-0.11650029 -0.07400757 -0.053977948 -0.05774507 -0.09995245 -0.039216604 -0.07057251 -0.07300451
-0.06627003 -0.033873096 -0.0921941 -0.12411029 -0.076435134 -0.10420463 -0.06161466 -0.121898964
-0.06918152 -0.08716602 -0.09692618 -0.095803276 -0.054255944 -0.08440986 -0.07493759 -0.07087926
-0.12025915 -0.037952423 -0.11424122 -0.10354381 -0.055592757 -0.059818197 -0.18163739 -0.09535718
-0.010074945 -0.07708484 -0.082681306 -0.16773094 -0.1384634 -0.2771771 -0.051035684 -0.020322261
-0.12620683 -0.12741487 -0.058886733 -0.18371432 -0.06516409 -0.06348952 -0.049297635 -0.13174675
-0.019408302 -0.006379174 -0.09360109 -0.039839335 -0.100458406 -0.101884685 -0.10586584 -0.08870961
-0.10152302 -0.0882031 -0.03815627 -0.17233197 -0.036238465 -0.07057992 -0.03628989 -0.07848184
-0.06097806 -0.04709615 -0.14901738 -0.039245017 -0.10372535 -0.04990891 -0.11191923 -0.027326498
-0.08727143 -0.13948219 -0.071244985 -0.084768996 -0.068545364 -0.07203947 -0.123765446 -0.10948677
-0.06345659 -2.1705024e-09 -7.206656e-12 -0.1805331 -0.05155455 -0.056539066 -0.105223015 -0.0012876014
-0.0958961 -0.21278732 -0.09330435 -0.07639635 -0.09162086 -0.17424245 -0.07649889 -0.118466735
-0.08050695 -0.061082833 -0.06981882 -0.11183982 -0.053334147 -0.06698008 -0.14355944 -0.093996674
-0.06642698 -0.114692874 -0.049724463 -0.074547924 -0.1571955 -0.043415125 -0.08718556 -0.0700563
-0.08881794 -0.07544829 -0.015107366 -0.098082334 -0.091343805 -0.03317784 -0.07672558 -0.08162531
-0.11224829 -0.03710866 -0.077138394 -0.052760236 -0.12896563 -0.102173924 -0.07787004 -0.050338574
-0.025979426 -0.083992735 -0.06251989 -0.13873108 -0.11083306 -0.057050698 -0.08152453 -0.037569195

net.6.weight f4 [256]
00000000: e643 dc3e 17cc 8a3e aa09 883e 24ad 813e
00000010: b3ef 7c3e d9e7 7a3e 545d 853e 1744 683e
00000020: a778 db3e 226d ab3e 29f0 8d3e 2d22 ac3e
00000030: e3ed 953e 7478 ed3e 631e 4e3e 26f2 ae3e
00000040: 6521 a43e 7170 b23e 850e 933e 11b6 743e
00000050: 4bc0 783e 8b58 043f 0915 983e 7220 9c3e
00000060: e95d 033f 608f bb3e 1b98 943e 68e9 7f3e
00000070: bb86 8e3e 771a bd3e c5e3 853e 1d51 e83e
00000080: 9cb3 9f3e ec51 8a3e ed3c 7f3e e569 033f
00000090: 2e3b 933e 4483 753e ba2d 073f c65d 993e
000000a0: 15d3 1b3e f12f ae3e 142b f83e 32df 063f
000000b0: bf3a 783e 94e8 7e3e 9cac 8e3e 0741 893e
000000c0: 76f5 ad3e 1d12 8a3e f2b4 013f 36e3 083f
000000d0: 875a 8e3e 8d5c 973e 6733 dd3e eeb1 f83e
000000e0: ae97 903e 9ace 393d 6c3a da3e 4748 ff3e
000000f0: 5349 e33e 4157 003f 980a 593e 7307 b63e
00000100: db3c 833e bbb5 ad3e 58c5 8a3e 8216 7cbe
00000110: 9178 863e 35b8 943e 187d 8e3e 0ea3 cf3e
00000120: 2b4d 9c3e 7cbe d73e dec7 743e 652b b03e
00000130: 2a04 a23e 71e2 443e d15b 8e3e 9264 943e
00000140: 9895 f63e 0028 943e a978 9e3e db51 8e3e
00000150: 6467 903e 1107 883e 2b45 983e e041 ec3e
00000160: 7fae ab3e d96f 8b3e c4c3 7d3e 6554 d63e
00000170: f810 8e3e 1c90 893e ea15 9c3e b069 993e
00000180: 49e0 893e 9dda 893e 7f34 9d3e 8ad2 913e
00000190: b37c e13e 8613 e93e 94ee 8b3e abee 6f3e
000001a0: 26d2 c83e f843 e33d 77d6 ea3e 3078 903e
000001b0: e057 813e 7d04 503e c0c4 f43e be46 063f
000001c0: acde c33e 7dc5 fe3e 9be4 e63e 24f8 8b3e
000001d0: 84f7 9a3e 2866 a63e 252b 9a3e 8498 f53e
000001e0: d9ac b03e 2136 ca3e 6fe9 8c3e 6e24 723e
000001f0: 5dc3 d73e 1e45 663e 9d67 fa3e e97d 963e
00000200: 41f7 a13e 6898 7f3e 23dd 903e 07fc ea3e
00000210: f775 df3e ab80 e83e 4726 813e 5859 e93e
00000220: 764f 703e b197 973e 5617 9d3e d575 a43e
00000230: 782e e23e 6cc2 043f a37b 973e 5ff0 9d3e
00000240: 934b 113f 883e 6d3e 6adf bc3e 847e 9a3e
00000250: e33f 7a3e 424c 923e 4984 e83e dee1 9a3e
00000260: dfa9 e13e 4532 a93e f6f0 9c3e 44ec b73e
00000270: 830c 973e 6dee 103f f7be d63e 1fb1 f43d
00000280: 5654 ae3e 3c87 e83e ad28 893e d7b8 b03e
00000290: 278e a43e d691 703e fd7a 8d3e 74f9 f63e
000002a0: fc27 953e 2563 8d3e ff10 a33e 3741 8e3e
000002b0: bfbd 9d3e 6d1a d43e 3b3a 9f3e ea15 943e
000002c0: a5db 963e ec50 b23e b5d2 e93e 4083 ae3e
000002d0: 24e8 3e3e 7952 893e 7000 da3e e4c0 9b3e
000002e0: e887 5e3e cc5e 7b3e f6d8 f23e b2aa c03e
000002f0: d1f6 e23e faff 803e 8da8 f63e 18a7 233e
00000300: a057 e33e 334b 053f e5c0 813e e248 9a3e
00000310: 1e91 9f3e 2cfa 7b3e dd4a c73e 8ff4 a43e
00000320: 9e19 c43e 8d6a dc3e 20ed f03e fdd2 f03e
00000330: cb16 8b3e 0aad 823e f280 bd3e 9e77 db3e
00000340: 7174 893e 3a07 0d3f b7bc 6b3e 5338 fa3e
00000350: db7e 603e 8308 ee3e 76ad 9c3e e9e1 013f
00000360: fa92 843e 3fdd 863e c7cc 9c3e d88e ff3e
00000370: d216 9f3e d6e2 d83e ca68 723e ee31 ae3e
00000380: 5210 9c3e 40be f83e 6623 963e 897e d33e
00000390: 8b2a c73e 0f6e d73e 1a64 8c3e 5eea a13e
000003a0: 1849 813e c078 833e c7e2 213e 31cc 893e
000003b0: 2b6e e73e 46b4 943e 0608 7b3e 4370 a53e
000003c0: 57d0 e23e 0e16 513e 2b9c a33e 36e3 793e
000003d0: 72e7 ba3e 852d 903e 982b aa3e 5ce1 a03e
000003e0: 5967 903e ee8a b53e 1e69 a93e 870e c33e
000003f0: 484d ec3e fcfd 9f3e e9ff a53e b0bd d23e
0.43020552 0.27108833 0.26569873 0.25327408 0.24700813 0.24502505 0.26047766 0.22682224
0.42865488 0.334817 0.2772229 0.33619824 0.29283056 0.4638096 0.20128779 0.3416912
0.32056728 0.3485141 0.28722015 0.23897578 0.24292104 0.51697606 0.2970355 0.30493504
0.5131517 0.36632824 0.29022297 0.24991381 0.27837166 0.36934254 0.26150337 0.45374385
0.3119172 0.27015626 0.24925585 0.5133346 0.28756088 0.23975855 0.5280415 0.29954356
0.1521724 0.3402095 0.48470366 0.5268432 0.2424116 0.24893409 0.27866066 0.26807424
0.33976334 0.26966944 0.50666726 0.53471696 0.27803442 0.29562798 0.4320328 0.4857325
0.28240722 0.045363046 0.42622697 0.4985983 0.4439188 0.5013314 0.21195447 0.35552558
0.25632367 0.33927712 0.27103686 -0.24617961 0.2626386 0.2904679 0.27829814 0.40554088
0.30527624 0.42137516 0.23904368 0.34408107 0.31643802 0.19227006 0.27804425 0.2898298
0.48161006 0.28936768 0.3095143 0.27796826 0.2820388 0.2656789 0.2974027 0.4614401
0.33531567 0.2723377 0.2478171 0.41861263 0.2774732 0.2686776 0.3048547 0.29963446
0.26928928 0.269246 0.30704114 0.2848094 0.4404045 0.45522708 0.27330458 0.23430888
0.3922283 0.110969484 0.4586675 0.28216696 0.25262356 0.20314212 0.47806358 0.52451694
0.38255823 0.49760047 0.45096287 0.27337754 0.30266964 0.32499814 0.30111042 0.47967923
0.34506872 0.39494422 0.27521846 0.2364671 0.42141238 0.22487304 0.48907176 0.29392937
0.31633952 0.24960482 0.28293714 0.45895407 0.43644688 0.45410666 0.25224516 0.45575976
0.23467812 0.2960792 0.30681866 0.3212115 0.44176078 0.51859164 0.29586515 0.3084745
0.5675594 0.23168385 0.368892 0.3017465 0.24438433 0.28573805 0.45413426 0.30250448
0.44074914 0.33046165 0.3065259 0.35922444 0.29501733 0.5661381 0.4194257 0.11947846
0.34048718 0.45415676 0.26788846 0.34516022 0.32139704 0.23493132 0.27632895 0.48237193
0.29132068 0.27614704 0.31848904 0.2778413 0.30808827 0.4142641 0.31099114 0.2892297
0.2946445 0.34827363 0.4566857 0.3408451 0.18643242 0.26820734 0.4257846 0.304206
0.21731532 0.24547881 0.47431153 0.3763023 0.4432893 0.25195295 0.4817547 0.1598171
0.4440279 0.5206787 0.2534248 0.3013373 0.31165403 0.24607152 0.38924304 0.32217833
0.38300794 0.43050042 0.47055912 0.4703597 0.27165827 0.25522643 0.3701244 0.42864698
0.2684665 0.5508915 0.23021208 0.48871097 0.21923392 0.4649087 0.3060109 0.50735337
0.25893384 0.26340672 0.30624983 0.4991367 0.31072098 0.42360562 0.23672786 0.34022468
0.304812 0.4858265 0.29323882 0.41307476 0.38899645 0.42076156 0.2742012 0.3162412
0.2525108 0.25678062 0.15809165 0.26913598 0.4520124 0.29043788 0.2451478 0.3231221
0.44299576 0.2041857 0.31955084 0.2440308 0.36504704 0.2815973 0.33236384 0.31421936
0.28203848 0.35457557 0.3308801 0.3809702 0.4615271 0.31248462 0.32421806 0.41160345

net.6.bias f4 [256]
00000000: e21b fc3c 7fe3 d03c cc96 aa3c 5bdc 893c
00000010: 1fab 973c 4b65 903a 22ac 9c3b ccc2 313c
00000020: a454 093d c2a8 bc3c 1779 ba3c 389c aa3c
00000030: b423 813c 761e 0f3d cbcf bc3b f19f 033d
00000040: 7af7 c73c 9bb0 bd3c b764 be3c 10de bd3c
00000050: b8a1 883c af3f 2c3d af49 ca3c e9ac d73c
00000060: 3bc9 203d ec2f db3c a88f 953c 18af 9e3c
00000070: b178 bc3c 48e5 e13c a1af 963c a3f1 1b3d
00000080: 6282 de3c 00d8 aa3c 86ba 6b3c 9460 2a3d
00000090: 0be9 5d3c dcec bd3c 49a5 353d 9ea5 d73c
000000a0: 9cc0 92bc 884c 013d e531 253d 384f 1d3d
000000b0: 1682 983c 1cad 943c ccf1 533c 3dd4 f83b
000000c0: f2c2 a93c 4b5d 1f3c be0b 2a3d f1cc 333d
000000d0: c09b c23c 7c69 b43c 5554 093d dcc3 223d
000000e0: e6a1 663c fb47 2cbf b1d1 113d 4b1b 153d
000000f0: 92aa 1b3d e2fd 383d 52ee 573b 1ad2 bf3c
00000100: b985 083c 3f70 d53c b52a 8f3c e183 afbc
00000110: 2b03 813c 2893 8c3c 762c 883c be15 123d
00000120: c260 e53c 716b 113d c3b8 083c f122 ab3c
00000130: e0ef dd3c dbfd 6d3c d7e0 8c3c 332c c53c
00000140: 1601 163d e0fc 9c3c 02f9 933c 9348 303c
00000150: b021 3a3c 9898 c43c f881 013d c647 043d
00000160: 93c1 ca3c c45f 893c 287c 813c e01e 1b3d
00000170: 92f8 893c db07 f93b 2d7a b83c 0cbe 973c
00000180: 81fb 3f3c d8e7 643b 0851 a53c 2490 a33c
00000190: dcb6 0f3d 7768 073d 7b03 7e3c 7321 773c
000001a0: 5b59 023d 9179 1bbd 2074 033d 0cc5 953c
000001b0: 4d92 963c c73b e13c 819d 103d d162 253d
000001c0: c728 e53c 705b 243d 406e 1a3d 0239 553c
000001d0: 472d 823c c1ee 9d3c 84f3 e13c b701 153d
000001e0: 84c3 f13c 5c46 083d 1650 783c 76b9 9e3c
000001f0: d8a3 093d 9f91 043c f342 233d 3ecc 5d3c
00000200: 087b bb3c 3f1c 5f3c f600 833c ccd0 123d
00000210: 4187 193d 0c61 0d3d 8f84 853c bc4e 243d
00000220: 2dfa 833c 0421 cc3c dc10 963c 0560 ef3c
00000230: 2628 043d 2801 263d 91b6 bf3c 9788 c43c
00000240: 924c 3d3d fe62 183c 3182 f23c 176f 9a3c
00000250: bd35 bb3c f1c2 763c cee0 0d3d 9d8e 873c
00000260: fc91 1d3d cfb3 d03c 79b5 f73c 135a fd3c
00000270: cfab 713c 3c97 453d fdff e03c 308d 01bd
00000280: 0d9e ab3c 1e34 1e3d a9e9 5d3c 645c 0b3d
00000290: 71df c13c d5b1 333b bb70 8f3c 3b30 2e3d
000002a0: 7a48 b53b 273d 543c a127 ea3c 4e7b 4d3c
000002b0: ff95 9b3c 2c04 e93c 1c52 d23c 466a 663c
000002c0: 91cd ed3c bf8e cc3c e0d6 f93c 0128 c13c
000002d0: 0d64 78bb 5071 9c3c f15b 143d da6d ac3c
000002e0: 79c2 963c 94c4 113c 1d16 263d d90c eb3c
000002f0: fd6b 113d 5e5c 6a3c 616c 1d3d 7ea1 bcbc
00000300: a75f 103d 85c1 333d f192 913c 73ae d33c
00000310: 45f3 d03c d6c6 593c d8d4 d93c 4803 f33c
00000320: 956c 043d 58f5 113d 7050 0e3d cfb5 193d
00000330: 62b1 7e3c 0774 333c 23bd e63c 37ec f03c
00000340: 644a a13c bc89 313d 19bb 5d3b c1da 0a3d
00000350: 39ba 8c3c 402e 143d 7de5 ab3c 3b83 1f3d
00000360: ec02 733c 4e27 463c e0c9 dc3c 5d98 103d
00000370: 96b0 a13c 874c fa3c bce8 653c 5c4a dd3c
00000380: 4a35 8d3c 0a67 113d b79a dc3b 9845 cb3c
00000390: b5d7 ee3c b246 053d 7faa 893c 1eae 8c3c
000003a0: 75da 9b3c 11f1 7d3c 75a1 83bc 3b71 a53c
000003b0: 0bca 023d ae1f 813c 66a4 c83c f3c6 c53c
000003c0: 9a67 033d 28be 0f3c 8e21 ba3c 1b22 ac3c
000003d0: dbdd 033d dbc7 a83c 378f ac3c 45ff ad3c
000003e0: 60a9 5e3c bd3c c33c 7bc4 943c 9dee e83c
000003f0: ed8b 0c3d 2641 ce3c 2b29 b73c 6227 ff3c
0.030775014 0.025499104 0.020823859 0.016828706 0.018514214 0.0011016516 0.004781262 0.010849666
0.033527985 0.023029689 0.022762818 0.020826444 0.015764095 0.03494116 0.0057620755 0.032134954
0.024409998 0.023155501 0.023241384 0.023177177 0.016678676 0.04205292 0.024693338 0.026327567
0.03925441 0.02675625 0.018256977 0.0193706 0.023006769 0.02757515 0.018394293 0.03807224
0.02716178 0.02085495 0.014387732 0.04159601 0.013544331 0.023184232 0.04434708 0.02632409
-0.017914109 0.031567127 0.040330786 0.038405627 0.018616717 0.018148951 0.012936067 0.00759366
0.02072284 0.009726833 0.041515104 0.04389662 0.023755908 0.022022955 0.03352769 0.039737567
0.0140766855 -0.67297333 0.035600368 0.03640298 0.038004465 0.045163997 0.0032948446 0.023415614
0.008332663 0.0260545 0.017476419 -0.02142519 0.01574858 0.017160013 0.016622763 0.035665266
0.02800024 0.035502855 0.008344832 0.020890685 0.02709192 0.014525856 0.017197056 0.024068927
0.03662213 0.019163549 0.018063072 0.010759491 0.011360571 0.023998544 0.03161809 0.03229501
0.024750507 0.016769297 0.015806273 0.03787124 0.01684216 0.0075998134 0.022519195 0.018523239
0.011717678 0.0034928229 0.02018024 0.019966193 0.035086498 0.03305861 0.0155037595 0.0150836585
0.031823497 -0.03795773 0.032093167 0.018282436 0.018380309 0.027494324 0.035306457 0.04037744
0.027973546 0.040126264 0.0377028 0.01301408 0.01589073 0.019278886 0.027581938 0.03637859
0.029512174 0.033270225 0.015155813 0.019375544 0.03360352 0.008091359 0.03985877 0.013537465
0.022885814 0.013617574 0.01599167 0.035843655 0.037482504 0.03451638 0.01629856 0.04011415
0.016110504 0.024918087 0.018318586 0.02922059 0.03226485 0.040528446 0.023402484 0.023990912
0.0462156 0.009300945 0.029603096 0.0188518 0.022852773 0.015061126 0.03463822 0.016547495
0.0384693 0.025476364 0.0302379 0.03092674 0.014750435 0.04823993 0.027465815 -0.031628788
0.020949388 0.03862392 0.013544478 0.034023657 0.023666115 0.0027419229 0.017509809 0.042526465
0.0055323215 0.012954033 0.02858335 0.012541605 0.018992422 0.028444372 0.025673918 0.0140634235
0.029028686 0.02497041 0.030497968 0.023578646 -0.0037901432 0.019097 0.036220495 0.021048475
0.018403279 0.0088969655 0.040548433 0.02869265 0.035503376 0.014304249 0.038433436 -0.023026224
0.03524747 0.043885726 0.017770262 0.02584002 0.025506625 0.013292035 0.02659075 0.02966465
0.032330114 0.03563437 0.03474468 0.0375269 0.015545221 0.010952956 0.02816636 0.029409511
0.019688793 0.043344244 0.0033833443 0.033900026 0.017178642 0.03617692 0.020983452 0.03894351
0.01483224 0.012094332 0.02695173 0.035301555 0.019737523 0.03055407 0.014032539 0.027012996
0.017237324 0.035498656 0.0067323106 0.024813458 0.029155592 0.032538123 0.016804932 0.01717287
0.019025067 0.015499369 -0.0160682 0.020195594 0.031930964 0.015762176 0.024492454 0.024142718
0.032081224 0.008773364 0.022721078 0.021012357 0.032194 0.020603111 0.021064384 0.021239886
0.013590187 0.023832673 0.018160095 0.028434092 0.03431313 0.02517755 0.022358498 0.031146709
