RL code/models/checkpoint_episode_320000.pth (torch, 801255 bytes, 40 tensors)

net.0.weight f4 [256, 22]
00000000: 5e57 60ba f1a4 debc a8e1 4e3e 184d a63d
00000010: ae24 8c3d e863 1d3d 3e60 a03d f5b5 923d
00000020: bc9c ed3c a262 e7bc 0d0d 6ebd 389c bd3d
00000030: 438e 653e e8a5 b43d 26a2 453d 1545 eb3c
00000040: e912 643d 66e2 803d bc9c edbc a262 e73c
00000050: 9e53 60ba a1a4 debc 0414 373d e72a d63d
00000060: d5cf 9dbd a5b3 f13c 16a6 a43c 83eb 3bbd
00000070: ce50 29bc b712 23bd fb64 883c d137 61bd
00000080: 24d7 973d b7e6 2fbe 542d 9fbd 3a1c 1a3c
00000090: 2100 533c a1dc 14bd ec04 52bc ec74 f5bc
000000a0: fb64 88bc d137 613d 0714 373d e82a d63d
000000b0: 552d 073e e2e9 193e 888d 2b3e cd92 1c3e
000000c0: 26a9 1ebe 7b81 24be 6e3b 36be bc34 31be
000000d0: fff8 aebe 983b b4be 842c 7ebe f3f6 8ebe
000000e0: a3ff 49be 03b4 3bbe 911c 233e 4005 173e
000000f0: a2d3 1b3e e34c 263e abf8 ae3e 293b b43e
00000100: 66b0 063e c64c 193e 72a7 a93d da56 1f3c
00000110: e222 723d 0c17 39bd c22e 8cbd efc0 9e3c
00000120: 0cd4 253d bc0d 56bc 46df a2bc fc4d b93a
00000130: b1c8 1f3e a2dc 2cbe 3fe0 8b3c 2ea2 a0bc
00000140: 6d73 0dbd d785 90bb 2d93 ab3d 0244 23bd
00000150: 46df a23c fc4d b9ba 74a7 a93d 1757 1f3c
00000160: 086d 103d 806a 043d 9308 89ba b1c2 fcbc
00000170: 57c1 35bd 0ebd 933b c425 e7bc 868e 403c
00000180: bd69 0d3d 1010 04bd 8477 ddbc c91d 69be
00000190: 51a8 793c 1fac c9bc 3d0c 95bd 6553 6fba
000001a0: cbdf 16bd a958 053c bd69 0dbd 1010 043d
000001b0: 036d 103d 806a 043d ebf5 6bbc 0a04 1d3d
000001c0: 3779 71bd 5839 573d 9073 4ebd 6ea1 0bbd
000001d0: 2302 593c db83 0d3c bfb1 52bd f158 b43d
000001e0: e9b9 333d 4108 0dbe a99a b4bd c415 d93d
000001f0: e9ca e0bc 11ac bcbd 0d2b 1a3d 1947 4ebd
00000200: bfb1 523d f158 b4bd eff5 6bbc 0c04 1d3d
00000210: 3f03 79bd 9a01 c93c 7afa 4dbe b8d3 dd3c
00000220: e0c9 373d e8c0 1e3d a08c 333d 20b3 9f3c
00000230: c44d ff3d 3f04 563c b344 493c 4720 1cbb
00000240: 6bf7 05be ecdc 123d e57a 96bc 5a4b 053d
00000250: 8c46 7bbc a2dc 1e3c c44d ffbd 3f04 56bc
00000260: 1403 79bd 7201 c93c 97e0 1d3d a3f3 10bd
00000270: 48f4 da3d 8389 c2bd 124f 8f3d beb0 a6bd
00000280: 9620 423c 1a74 623d e8fd 9d3d 5c38 ccbd
00000290: 9e59 cf3b 5f5b b4bc cc24 0a3e 9828 0cbe
000002a0: 81ce 3b3d aeca 5ebd ecc3 94bc d7b8 a33d
000002b0: e8fd 9dbd 5c38 cc3d aee0 1d3d acf3 10bd
000002c0: 1391 99bc 4e70 783d b58e dcbd 1112 89bc
000002d0: 8875 96bd eda2 15bd bc22 0bbd fb04 dd3d
000002e0: fb3e 34bd dec2 d83d 0ae9 11be f62b 973b
000002f0: 36ef 10be 3f1f 923d 1d8b 3bbd 9c22 e2bd
00000300: 33cb 4bbb 243a 2d3d fb3e 343d dec2 d8bd
00000310: f390 99bc 4470 783d 2752 71bc 7223 a5bd
00000320: c4a7 9a3c d122 7cbd 8624 3f3d e8e9 59bd
00000330: 82d7 afbd 6577 82bc 7b33 0fbd b058 37bd
00000340: 9a92 5ebe ed14 7fbd a365 083c ef79 debd
00000350: abca 683d a580 b1bb 4164 9abd 1efa 053d
00000360: 7b33 0f3d b058 373d cb51 71bc 4c23 a5bd
00000370: 388b 58bd b8ae d73b 92f9 61bd 4b67 98bd
00000380: bea0 3bbd 58c0 7a3d 1499 803c c042 573d
00000390: 7766 643c 9c75 d23d a59d 8c3d 101f e5bd
000003a0: ad9f 8cbd 7edc 99bc f0d1 1cbd e9d4 a93b
000003b0: 83d6 0a3d 63b7 cf3a 7766 64bc 9c75 d2bd
000003c0: 278b 58bd 49af d73b 404a 1bbd aa81 a0bd
000003d0: a8ec d9bd 4d0d 3cbe 134c 683b 88c4 e6bc
000003e0: 833e ca3c 9ec5 5abc 987b 633c 16ad 813d
000003f0: 31f5 953d cc73 21be e415 90bd 7397 13be
-0.00085579406 -0.02717826 0.20203269 0.08120173 0.068429336 0.038425356 0.07830857 0.07163612
0.0290054 -0.028245274 -0.058117915 0.09258312 0.2241755 0.088207066 0.04825034 0.028719464
0.055682097 0.06293182 -0.0290054 0.028245274 -0.0008557382 -0.02717811 0.044696823 0.10457402
-0.077056564 0.029504607 0.020098727 -0.0458789 -0.010334207 -0.03981277 0.016649714 -0.05498487
0.07414082 -0.17177854 -0.077723175 0.009406144 0.012878449 -0.03634322 -0.012818556 -0.02996298
-0.016649714 0.05498487 0.044696834 0.104574025 0.13200887 0.15030625 0.16753209 0.15290375
-0.15494213 -0.16065018 -0.17796108 -0.17305273 -0.34174344 -0.35201716 -0.24821669 -0.27922782
-0.19726424 -0.18330388 0.15928866 0.14748096 0.1521745 0.16240267 0.34174094 0.35201386
0.13153228 0.14970693 0.08283891 0.009725297 0.059115298 -0.045187995 -0.06844856 0.019379107
0.040485427 -0.013064798 -0.019881856 0.0014137621 0.15603901 -0.1688104 0.017074702 -0.019608583
-0.034533907 -0.004410486 0.08377681 -0.03985978 0.019881856 -0.0014137621 0.08283892 0.009725354
0.03526023 0.03232813 -0.0010454826 -0.030854555 -0.044373836 0.004508621 -0.02821625 0.01175273
0.034524668 -0.03224188 -0.027034529 -0.22765268 0.015237884 -0.024618207 -0.07277725 -0.0009129553
-0.03683452 0.008138814 -0.034524668 0.03224188 0.03526021 0.03232813 -0.014401893 0.03833393
-0.05895349 0.05254492 -0.050403178 -0.0340895 0.013245138 0.008637394 -0.051439043 0.08806027
0.04387847 -0.1377268 -0.088185616 0.105998546 -0.027440505 -0.092125066 0.037638713 -0.050360773
0.051439043 -0.08806027 -0.014401897 0.038333938 -0.06079411 0.024536896 -0.2011508 0.027078494
0.044870257 0.03875819 0.043835282 0.019494593 0.124660045 0.013062536 0.012284446 -0.002382295
-0.13082664 0.03585522 -0.018369148 0.032542564 -0.015336644 0.009696158 -0.124660045 -0.013062536
-0.06079395 0.024536822 0.038544264 -0.0353886 0.10691124 -0.094988845 0.06997503 -0.0813918
0.011848589 0.055286504 0.077144444 -0.09971687 0.006327822 -0.022016225 0.134906 -0.1368736
0.045851234 -0.05439251 -0.01815983 0.0799424 -0.077144444 0.09971687 0.03854435 -0.035388634
-0.018745935 0.060653977 -0.10769407 -0.016732248 -0.07346636 -0.03653233 -0.033968672 0.107919656
-0.044005375 0.10584043 -0.14249054 0.004613395 -0.14153752 0.07134866 -0.045786966 -0.110417575
-0.0031096458 0.042291775 0.044005375 -0.10584043 -0.018745875 0.06065394 -0.014729059 -0.08063401
0.018878825 -0.06155664 0.04666569 -0.053201586 -0.08586027 -0.015926072 -0.034961205 -0.044762313
-0.21735612 -0.062275816 0.008325013 -0.10863101 0.056833904 -0.005416947 -0.07538653 0.032709233
0.034961205 0.044762313 -0.014728974 -0.08063373 -0.052867144 0.0065821074 -0.05516965 -0.074415766
-0.045807593 0.06121859 0.015697993 0.052553892 0.013940445 0.102763385 0.06866006 -0.11187565
-0.06866393 -0.018781897 -0.03828615 0.0051828516 0.03389598 0.00158475 -0.013940445 -0.102763385
-0.05286708 0.006582175 -0.037912607 -0.078372315 -0.10640842 -0.18364449 0.0035445734 -0.028169885
0.024688011 -0.01335278 0.0138844475 0.06331842 0.07322157 -0.15766829 -0.07035425 -0.14413242

net.0.bias f4 [256]
00000000: 4093 65be 754c 6bbe a895 0bbe 9d81 65be
00000010: 1435 afbe bf8c 8fbe 05f5 aebe f7ec 8ebe
00000020: 0db7 64be 9efc 6dbe ef92 92be afd2 57be
00000030: 63fd 84be a64e 0ebf 1941 71be 35f2 c6be
00000040: ca86 8fbe 040e a1be 989d 7fbe b0af 77be
00000050: 49de babe bf70 a5be adfb 223d badb 43be
00000060: 1665 56be 5827 4abe e6da 7cbe b4a1 a0be
00000070: a2cc 41be 656a 523e bf35 98be 6bc3 4dbe
00000080: 5a0d 65be 21d8 97be 90e7 15bf 1b58 8dbe
00000090: 15e2 6ebe b952 34be 3066 1fbf e07d 72be
000000a0: 6327 83be f7b7 57be 012b e4be 4d5f d5be
000000b0: 6a95 63be 7573 b3be 2749 2abe d65c 92be
000000c0: 8988 3fbe ee90 99be 1a0a 99be ee67 8bbe
000000d0: 7fef a5be 9948 fdbc 2152 41be 9c8a 90be
000000e0: b827 9ebe 2a4e 8bbe 87a9 93be 329f 92be
000000f0: be77 83be 9a21 1ebe 016d 5ebe ae59 43be
00000100: 71f6 82be 8e1f 203d 9cbe a2be f450 4bbe
00000110: 96e5 2abe b2ae e6be eca1 49be 69bb f0be
00000120: 5053 50be fe92 92be 719a 7fbe 3988 94bc
00000130: 7ba5 71be 6ccf 53be c14b 77be ac56 68be
00000140: 9c54 55be c3a9 a9be 5195 6fbe 458c 47be
00000150: 3f49 74be 6e2b 76be 322d b2be 32e8 a8be
00000160: 3f2d 70be 4da0 87be b6d9 3abe 859c 17be
00000170: a05c 62be 0f79 08bf a1d1 50be e7bb 8abe
00000180: 58e6 3abe 0915 533e ca93 67be 136b a4be
00000190: 18a8 86be 356d 85be 789d 84be 8009 20bf
000001a0: 4c88 28be 2972 a4be 3830 63be 1de4 81be
000001b0: ae4e 79be a9b3 51be b9a1 87be acd6 64be
000001c0: 99ce 5ebe b2c5 71be b09f 72be f819 933d
000001d0: a46d 0bbd e156 6ebe 2ead 86be 10a9 bebe
000001e0: 21b0 22be c0f0 5bbe 6905 85be 0cc8 c2be
000001f0: 4555 a6be 7f03 503e a9bf 7ebe 1144 26be
00000200: 13a4 73be 1e88 95be 16d2 59be 37b2 79be
00000210: b476 8bbe 3a1e 75be e6c5 5ebe c946 c3be
00000220: 4183 5bbe 3a9c 9ebe 1eaf 79be 427a 71be
00000230: 58a9 5ebe 7c51 81be f5bc ddbd 7f45 3cbd
00000240: aee8 533e e7d6 88be 2305 90be c4bc 7ebe
00000250: 1267 41be 84e3 84be 5831 8fbe 8d2d 79be
00000260: 8ba8 83bd f9fe 1cbf 2c8f 98be ce26 56be
00000270: 6b71 87be 05cd 70bd a5b2 41be 638d 6cbe
00000280: 30c8 71be 4f4a 8dbe 007c 0ebf 63eb 5dbe
00000290: 25ba 69be 77b8 89be a9a6 8d3d 3e5f a7be
000002a0: 9636 77be 3e32 10bf e239 3abe 006a 02bf
000002b0: 5de7 5cbe 691f 9fbe 6d58 94be f481 57be
000002c0: baa5 41be a17d 79be 7e4f 63be c1fc 1bbf
000002d0: ec3d 41be d5b4 cf3d 6f6a 70be 2722 c7be
000002e0: 3858 74be bdad 14be 08fb 79be 11d1 81be
000002f0: 6db1 a0be 5ee6 88be 1c41 8dbe 67f6 6cbe
00000300: 0dd1 8cbe a7c4 04bf 95b8 87be 9943 503e
00000310: 3477 94be d370 99be 5ab2 a7be 5895 42be
00000320: 1ea2 65be 5560 5cbe e5cb 8abe 1d99 6cbe
00000330: 671c c9be 7e46 83be cc81 84be d8de 8fbe
00000340: db31 7bbe 8d0a 5abe ec5c 553e 4dd4 7bbe
00000350: ffd7 02bf 0b12 8bbe 0eda 54be fb45 3abe
00000360: b166 90be 3aa8 b7be 2365 97be 0c41 75be
00000370: 12ef 45be d6e6 9cbe a833 1ebf 0233 7bbe
00000380: 7c6c 8ebe 9fba 87be df53 9cbe 0803 85be
00000390: 6119 61be 778c 72be 9a40 a5be 9ddd 8fbe
000003a0: 7834 5ebe 64dc 57be 5115 5cbe 0781 95be
000003b0: 51e0 80be a4a8 8dbe 1c30 8fbe 1fe0 97be
000003c0: f122 73be b03a e5be dffb 4e3e ad24 4cbe
000003d0: 1c53 97be 0d9f a4be 5300 8ebe 205d 8ebe
000003e0: 388b 5dbe fcc8 5dbd 19f8 0abf 7980 b1be
000003f0: ff57 54be 1eae 30be 2cda a5be 4c85 38bd
-0.22419453 -0.22978385 -0.13631308 -0.22412725 -0.34220183 -0.28037068 -0.3417131 -0.27915165
-0.22335453 -0.23240897 -0.28627726 -0.21076463 -0.2597457 -0.5558876 -0.23559989 -0.38856664
-0.28032523 -0.31456006 -0.24962461 -0.24188113 -0.36497715 -0.3231258 0.039790798 -0.19126788
-0.20936999 -0.19741571 -0.24692878 -0.3137337 -0.18925717 0.20548399 -0.29728505 -0.20094077
-0.22368374 -0.2965708 -0.5855646 -0.27606282 -0.23328431 -0.17609681 -0.622653 -0.2368083
-0.25615987 -0.21066271 -0.4456406 -0.4167427 -0.22224966 -0.35049024 -0.16629468 -0.28586453
-0.18704428 -0.29993385 -0.2989052 -0.2722773 -0.32409284 -0.030918406 -0.18878986 -0.2823075
-0.30889678 -0.27208072 -0.28840277 -0.2863708 -0.25677294 -0.15442505 -0.21721269 -0.19077179
-0.25578645 0.039092593 -0.31786048 -0.198551 -0.16689143 -0.45055157 -0.19690675 -0.47017983
-0.20344281 -0.2862777 -0.24961258 -0.018131362 -0.23598282 -0.20684594 -0.24149992 -0.22689313
-0.20833057 -0.3313733 -0.23396803 -0.19487102 -0.23856066 -0.24040005 -0.34800106 -0.3298965
-0.2345476 -0.26489487 -0.18247113 -0.14805801 -0.22105646 -0.5330972 -0.20392467 -0.27096483
-0.18251932 0.20613493 -0.22614971 -0.3211294 -0.2630012 -0.2605988 -0.2590139 -0.62514496
-0.16458243 -0.32118347 -0.22186363 -0.2536935 -0.2434642 -0.20478691 -0.26490572 -0.22347516
-0.21758498 -0.23610571 -0.23693728 0.071826875 -0.03404011 -0.23275329 -0.26304 -0.3723836
-0.158875 -0.21478558 -0.2598069 -0.3804325 -0.3248693 0.20313834 -0.248778 -0.16236903
-0.23793058 -0.29205412 -0.21271548 -0.2438439 -0.27239 -0.23937312 -0.2175518 -0.38139942
-0.21436788 -0.30978566 -0.24383208 -0.23581794 -0.21744287 -0.2525748 -0.10827056 -0.045964714
0.20694229 -0.26726457 -0.2812892 -0.24876696 -0.18886974 -0.2595483 -0.27967334 -0.24333782
-0.064286314 -0.6132656 -0.2979673 -0.2091324 -0.2645372 -0.05878927 -0.18915804 -0.2310081
-0.23611522 -0.27595755 -0.5565796 -0.21671824 -0.22824915 -0.26898548 0.069165535 -0.32689852
-0.24141917 -0.56326663 -0.18186143 -0.50942993 -0.21572633 -0.31078652 -0.28973714 -0.21045667
-0.18910876 -0.2436433 -0.22198293 -0.60932547 -0.18871278 0.10141913 -0.23478101 -0.38893244
-0.23861778 -0.14519401 -0.24412167 -0.25354818 -0.31385365 -0.26738256 -0.27588737 -0.2314087
-0.27503243 -0.5186257 -0.26508012 0.20338286 -0.28997195 -0.2996889 -0.3275326 -0.19002283
-0.22425124 -0.21521123 -0.27108684 -0.23105283 -0.39279482 -0.2563972 -0.25880277 -0.28099704
-0.24530737 -0.21293087 0.20836228 -0.24592705 -0.51110834 -0.27162203 -0.20786306 -0.18190758
-0.28203347 -0.35870534 -0.2956935 -0.23950595 -0.1932948 -0.30644864 -0.6179757 -0.24531177
-0.27817142 -0.26509568 -0.3053274 -0.25978875 -0.21982338 -0.23686396 -0.3227585 -0.28098765
-0.21699703 -0.21080166 -0.21492507 -0.29200003 -0.2517114 -0.27667725 -0.27966392 -0.29663178
-0.23743798 -0.44771338 0.20213269 -0.19935866 -0.29555595 -0.32152596 -0.27734622 -0.27805424
-0.21635139 -0.05414675 -0.54284817 -0.3466833 -0.20736693 -0.1725392 -0.32393014 -0.045048997

net.2.weight f4 [256]
00000000: 8828 323e ba9b 273e 64a2 2e3e 0b20 933d
00000010: 56a8 473e ce11 2a3e c2f7 eb3d 9869 393e
00000020: f931 343e 41e6 1b3e 475b da3d e4b1 b83d
00000030: ee98 483e 1d98 893e fd06 3c3e 7ab0 543e
00000040: 7413 1d3e 00ce 493e 7084 293e 7372 483e
00000050: f0c1 793e c9ea 513e f098 1a3d d211 103e
00000060: 0e85 623e ce59 6c3e b818 483e 5574 8e3e
00000070: 5a3e 153e b6c4 243e 0218 1a3e 0826 f83d
00000080: 95b0 343e c64d 533e ab2d 8b3e dfeb 3c3e
00000090: 2277 033e b364 b33d a3bd 843e 5962 123e
000000a0: 5df7 fd3d 197a 7b3e ebbb 1c3e 3327 4a3e
000000b0: 1000 373e 015e 833e a94d fa3d 2468 2b3e
000000c0: 0f92 333e 3200 313e b4a1 6d3e 6e54 433e
000000d0: c7f4 e73d 6341 093f 56be 703e 96d5 7c3e
000000e0: e6d5 613e 5ea9 2b3e 0a8f f13d 0896 453e
000000f0: c385 813e 0a0a 0a3f 0623 073e 6f25 653e
00000100: 1898 233e 7f1d e33c 7e5d 223e 238d ea3d
00000110: 561f 8a3e b4a6 003f 693f 623e d17e 003f
00000120: 99b9 3d3e 0d45 593e 87b8 6e3e 9802 f83e
00000130: f777 c33d 992a 303e ba81 193e f777 893d
00000140: 8b5e 133e 8143 603e 4bfc b83d c294 643e
00000150: 266c 493e ab48 da3d 58dc 8d3e 279e 243e
00000160: 314f 113e 4559 fc3d be2c c53d 3cc8 fd3e
00000170: e6a1 ce3d d127 f93e 0496 253e b27c 3d3e
00000180: b730 3c3e 9d41 1f3e eaa5 f03d 350b 583e
00000190: d3a9 0a3e d2e8 e93d 8fc7 263e 6d40 ac3e
000001a0: b4b4 043f f522 463e 3205 e13d 3e44 6b3e
000001b0: 9134 c63d 7b8c db3d 49c3 633e d452 123e
000001c0: 9b95 b83d d0fb 413e 0432 473e 5fe3 003d
000001d0: 3a4a 043f d53c 3f3e ae29 b23d 9e6f 213e
000001e0: f9cd 2e3e 5e30 413e 8c6e 393e d90d 253e
000001f0: 2c6b 5d3e 383f 213e ff7b 323e 5a93 be3d
00000200: 2e91 823d 7974 5c3e 74cd e33d 3a45 c23d
00000210: 53a0 f23d 644c 143e b7b0 0a3e 54d7 4e3e
00000220: c466 6e3e a2c5 553e 1a6f 1c3e e609 213e
00000230: 35de 783e 0a19 413e e75d 3b3e 0b5c b23d
00000240: 4bdd 273e 2c48 133e 65da 453e 0bc5 6e3e
00000250: 0851 5c3e ac36 853e 9131 2b3e eb58 503e
00000260: 7a0f cf3d 4586 043f 15e5 cd3d 7ba9 6d3e
00000270: bdc4 3b3e 33fe 093e b76c 0c3e 1168 4a3e
00000280: 425a 263e 1d34 5d3e 5854 943e 09d3 bd3d
00000290: 57ab fa3d a195 773e e13c f23c 2bf3 383e
000002a0: 1630 0e3e 34f9 bc3e 8bc5 9e3d 889f a83e
000002b0: b2e2 213e bb38 da3d 3feb d33d 9cb1 783e
000002c0: 75c3 023e c049 fc3d 6adb 353e 12ab e73e
000002d0: 71e0 5d3e 4fdc bb3c 848c 883d 7a0d 873e
000002e0: 9027 5f3e f0c9 ab3d 7f30 d33d f8fd 113e
000002f0: 7cc5 153e 1697 193e bb52 683e a9b5 d73d
00000300: 0533 003e e915 c23e 5e80 af3d 067c 1f3e
00000310: e78a 873e 06b3 36be fc3c 2e3e 93c3 473e
00000320: 7a45 1a3e a993 a23d d96e 2c3e fa72 593e
00000330: daa4 533e 3d66 153e 43dd 083e ce60 5a3e
00000340: e1c9 553e 3f3f 223e da2a 1f3e 9cd4 1c3e
00000350: eb75 683e ec8d d93d cd66 323e 3593 ac3d
00000360: a485 4a3e 9640 1e3e 18a8 313e 568b 0a3e
00000370: 614d a23d 4cf0 693e 2313 953e 074e d63d
00000380: ce90 353e 5d03 253e 63d4 143e e7b3 323e
00000390: 0da8 0b3e 4cc1 fa3d 56ed 4f3e c80a 2b3e
000003a0: 4dbd b63d 887a 413d 8262 9b3d 7f4a 773e
000003b0: 0f73 dc3d cf65 1f3e 55b6 4f3e 7f97 113e
000003c0: 323f 433e 37c9 963e 14b7 223e ea56 953d
000003d0: ad9c 113e 6c38 413e 4b21 2c3e d22f d23d
000003e0: d65c 0e3e d2f8 133e 6cfe d03e 67d2 403e
000003f0: d87f 1e3e ed37 f83d 8e74 0a3e be11 ff3d
0.17398274 0.16367999 0.17054135 0.07183846 0.19497809 0.16608354 0.115218654 0.18106687
0.17597188 0.15224554 0.10661941 0.09018305 0.19589588 0.26873866 0.18362041 0.20770445
0.15339452 0.19707489 0.16554427 0.19574909 0.24390388 0.2049972 0.03774351 0.14069298
0.22121069 0.23081133 0.1954068 0.2782313 0.14574566 0.16090664 0.15048221 0.12116629
0.17645486 0.20635137 0.2718328 0.18449353 0.12838414 0.08759441 0.2592593 0.14295329
0.124006964 0.24558295 0.1530606 0.19741516 0.17871118 0.25657657 0.12221844 0.16738945
0.17536186 0.17285231 0.23206216 0.19075176 0.113259844 0.536154 0.23510107 0.24690852
0.22054252 0.16763827 0.11794861 0.19295514 0.25297365 0.5392157 0.13196954 0.22377561
0.15975988 0.027724026 0.15855977 0.11452701 0.26977032 0.5025437 0.22094502 0.50193506
0.18527831 0.21217747 0.23312579 0.4843948 0.09544366 0.1720375 0.14990893 0.067123346
0.14391534 0.2190075 0.09032496 0.22322372 0.19670162 0.106583916 0.2770717 0.16075955
0.14190365 0.12321714 0.096276745 0.4956683 0.100894734 0.4866319 0.16170508 0.18504599
0.18377958 0.15552373 0.117503956 0.21098025 0.13541345 0.1142136 0.16287063 0.33642903
0.5183823 0.19349273 0.10987319 0.22975251 0.09677995 0.10720154 0.22242464 0.14289409
0.0901291 0.18943715 0.19452673 0.031466838 0.5167576 0.1867555 0.08699356 0.15765235
0.1707076 0.18866107 0.18108577 0.16118564 0.21622914 0.15746772 0.17430113 0.09305449
0.06375347 0.21528806 0.111231714 0.0948586 0.11846986 0.14482266 0.13543974 0.20199329
0.2328139 0.20876172 0.15276757 0.15726432 0.24303515 0.18857208 0.1829754 0.08708962
0.1639301 0.14383 0.19321592 0.23317353 0.21515286 0.26018274 0.16718127 0.2034642
0.10110374 0.5176738 0.100534596 0.23209183 0.18336768 0.13475876 0.13713346 0.1976626
0.16245368 0.21601911 0.289706 0.092687674 0.12239712 0.24178173 0.029570045 0.18061511
0.13885531 0.36908877 0.07752522 0.32934213 0.15809134 0.10655352 0.10347604 0.24286503
0.12769873 0.12318754 0.17759481 0.45247704 0.21667649 0.0229322 0.06667426 0.2637747
0.21792436 0.08388126 0.10311984 0.14257038 0.14626116 0.14999041 0.22687809 0.10532696
0.12519462 0.3790734 0.08569406 0.15574655 0.26473162 -0.1784173 0.17015451 0.195082
0.15065566 0.0793832 0.1683916 0.21235266 0.20668355 0.14589782 0.13365655 0.2132599
0.20877792 0.15844439 0.1554369 0.15315479 0.22701232 0.106227726 0.17422028 0.08426515
0.19777542 0.15454325 0.17349279 0.13529715 0.07924915 0.22845572 0.29116163 0.10464101
0.1773102 0.16114564 0.14534144 0.1745144 0.13638325 0.122439 0.2030538 0.16703331
0.08922825 0.047235996 0.07587148 0.24149512 0.10764133 0.1556618 0.20284398 0.14217947
0.19067076 0.2945039 0.15890151 0.07291968 0.14219923 0.1886918 0.16809575 0.10263027
0.13902602 0.14450386 0.40819108 0.18830262 0.15478456 0.12120042 0.13521025 0.12454556

net.2.bias f4 [256]
00000000: 3107 203d 81ad 423d 89ab 09bb 7710 893b
00000010: 55e0 543d 221a 313d 5e9d 093c 2159 253d
00000020: 0913 2b3d 8fe5 143d a9b6 403c b4c2 6f3c
00000030: 3ec4 323d 4aca 5b3d 655a 503d 7386 6f3d
00000040: d60c 163d 27c1 323d 8d30 393d 2ed1 473d
00000050: 8f3f 603d 0b52 333d e24f 70bd a33d 803c
00000060: ac26 243d 7322 0b3d c5de 463d feea 8e3d
00000070: e533 ea3c 1b93 07bf 3b1c 123d f86e df3c
00000080: 2c76 163d 8069 3f3d 13a7 863d 2d05 373d
00000090: 475a 9b3c 5256 9f3b 1fc3 523d d17a fe3c
000000a0: ee6a e23c b65e 3b3d 584a bb3c d43c 2d3d
000000b0: 2b4a 113d d3d3 8f3d 6eab 873c 5016 353d
000000c0: 8613 023d 8aaf 163d f56b 5b3d 9fc0 0f3d
000000d0: cae4 aa3c faa0 183e fd9a 243d dad4 693d
000000e0: 3b5b 8a3d 9609 373d 9124 d03c 29c3 293d
000000f0: dd47 823d 4608 1b3e 5db6 9f3c b1ea 283d
00000100: ccc9 f33c 8708 94bd 1118 0c3d ae00 d33b
00000110: 4780 573d 77e2 0e3e d658 193d 5837 0f3e
00000120: fdff 043d 8bbf 4e3d 3fbb 7a3d 05c2 0c3e
00000130: c552 893c 322d fe3c 990e 973c b4dc 15b9
00000140: 984e f13c 5356 483d 3fef 5e3c 53cc 193d
00000150: 5e9d 2a3d b398 a03c 529c 733d f176 c33c
00000160: 25fa eb3c ddd9 cd3c 10d9 493c 5746 153e
00000170: f243 cf3c 35ea 003e 97c2 233d 6240 453d
00000180: 834c 4a3d 0385 06bf 954a b83c 3931 773d
00000190: ef3b 0c3d 0d5b 2d3c ea74 f73c 3b0f a43d
000001a0: c010 133e 269e 3d3d 4021 f13c 7770 6e3d
000001b0: f090 7dba 5f32 9c3c 1f0f 4a3d 9c1a 073d
000001c0: d1e4 b23c 54bc 0f3d f525 473d 1561 5cbd
000001d0: 3650 133e ea86 253d 1783 763c e6ea 1e3d
000001e0: b50c a33c 190c 363d f597 3b3d c502 243d
000001f0: c1da 713d a7f8 09bf 1ed8 363d 2ac8 2f3c
00000200: 901a be3a bfc8 5a3d 9c62 bb3c a3c2 df3b
00000210: e3b6 f83c dbd9 de3c dc77 a63c c2e6 373d
00000220: c797 093d 11ac 523d f261 063d c008 013d
00000230: 584e 333d 48b1 3d3d ea7a 603c 9695 08bc
00000240: a120 08bf e69a e83c 5caa 3c3d 5f75 653d
00000250: bd01 fb3c a8ca 843d 8129 423d 8865 453d
00000260: e429 4fba 1a2d 083e c466 ad3b ebf7 253d
00000270: cbcb 473d 7dfb 2c3b 88a6 933c 1162 143d
00000280: fefd dc3c 7b13 253d 9c66 973d a13b bdbb
00000290: ad04 c63c ce33 763d 1a47 3cbd 79e5 1d3d
000002a0: d46f bb3c d421 c23d 8849 113c 8ada 9e3d
000002b0: 8984 dd3c d2bb 993c aae1 933c 55f4 333d
000002c0: 10fa f03c c546 7a3c 27e0 2d3d 2397 eb3d
000002d0: 9257 f53c c03b 87bd 98a5 473c 1f4a 9d3d
000002e0: c05a 7e3d 812b 163c 3be7 e63c 2185 ec3c
000002f0: 5f57 103d 9a7d d83c 1acc 703d 1d2e 8e3c
00000300: fa42 eb3c 2751 ca3d bc34 9d3c ceea 05bf
00000310: b0ff 913d f305 26bd 48cf 1a3d 7692 dc3c
00000320: a72d b13c 4991 2e3b 7f47 233d f990 2c3d
00000330: 73fe 293d 58ea 253d 8636 d63c bcf9 473d
00000340: 4c3b 603d adff 253d 7507 04bf bef1 0c3d
00000350: 5528 483d 1116 6e3c e3c8 003d fee0 ba3b
00000360: ebeb 3e3d 7c2f 5f3c ac70 0d3d a7b0 2a3d
00000370: 4f2b 1b3c 2a73 813d 37ac 883d d772 5d3c
00000380: 2dfc 513d dffb 1e3d d233 003d 09b6 253d
00000390: 5382 7d3c 7902 d53c c095 4f3d 3207 053d
000003a0: 6641 323b 2cf5 aaba 0606 c03a 7d8a 763d
000003b0: f956 a93c 1129 1e3d da61 4b3d 216c 063d
000003c0: d386 263d 99e2 973d b4fd 04bf ac82 2fbc
000003d0: fc27 c83c eda9 333d cf0e 4e3d 424b 903c
000003e0: ce0e 153d dc5e 0b3b 752a e33d 8184 343d
000003f0: 9335 2d3d de67 323c 90c0 b63c 5d51 4cbb
0.03906936 0.047528747 -0.0021006784 0.004182871 0.051971752 0.043237813 0.008399336 0.040368203
0.0417662 0.036351737 0.0117623 0.014633823 0.043644182 0.053659715 0.050867457 0.05847783
0.036633335 0.043641236 0.045212317 0.048783474 0.054748114 0.043779414 -0.058669932 0.01565439
0.040075943 0.0339684 0.048552293 0.06978415 0.028589198 -0.5295884 0.035671454 0.027274594
0.03673379 0.046731472 0.06574836 0.04468267 0.018963946 0.004862585 0.051455613 0.031064423
0.027638879 0.04574462 0.022862598 0.04229434 0.035471123 0.07022824 0.016561236 0.044210732
0.0317569 0.0367885 0.053569753 0.035095807 0.020861048 0.14905158 0.04018687 0.057087757
0.06755682 0.044686876 0.025408061 0.041445885 0.06361363 0.15139875 0.019496137 0.041239444
0.02975931 -0.07228189 0.03420264 0.00643929 0.05261257 0.13953577 0.037438236 0.13985956
0.032470692 0.05047564 0.061213728 0.13745888 0.0167631 0.03102741 0.018439578 -0.00014291966
0.029456422 0.04891045 0.013606845 0.037548374 0.041653983 0.019604063 0.05947525 0.023860427
0.028805802 0.0251283 0.012319818 0.14577614 0.025300954 0.12589343 0.039980497 0.048157103
0.049389374 -0.5254671 0.022496501 0.060349677 0.034236845 0.01058079 0.030207116 0.080107175
0.14361858 0.0462934 0.0294348 0.058212724 -0.00096727815 0.019066988 0.049330827 0.03298436
0.021837624 0.035091713 0.048620183 -0.053803522 0.14386067 0.040411867 0.015045903 0.038798235
0.01990352 0.04444513 0.045799214 0.040041704 0.05904651 -0.5389504 0.0446397 0.010728875
0.0014503766 0.053414103 0.022874169 0.0068286224 0.030360645 0.027203491 0.020320825 0.044897802
0.03359201 0.051433627 0.03280825 0.031502485 0.043775886 0.046311647 0.01370118 -0.008336445
-0.5317479 0.028394174 0.046060905 0.056020137 0.030640477 0.06483966 0.047402862 0.04819253
-0.00079026655 0.13298455 0.0052917916 0.040519636 0.048778336 0.0026395016 0.018023744 0.036226336
0.026976582 0.04030178 0.07392618 -0.0057749306 0.024172151 0.060108 -0.045966245 0.03854892
0.022880472 0.094791085 0.008867629 0.07756527 0.027040737 0.018766318 0.018051941 0.043934185
0.029416114 0.015275662 0.042450096 0.115034364 0.029948983 -0.06603193 0.012185477 0.07680153
0.062098265 0.009165646 0.028186431 0.028872075 0.035239574 0.026427079 0.058788396 0.017355973
0.02871846 0.0987876 0.019190185 -0.5231141 0.07128847 -0.040533017 0.037795335 0.026925307
0.021628214 0.002663689 0.039863106 0.042130444 0.041502427 0.04050669 0.026149046 0.04882215
0.05474405 0.040527035 -0.5157388 0.03441023 0.04886659 0.014531628 0.03144158 0.0057030907
0.046611708 0.013622161 0.03453128 0.041672375 0.009470775 0.06320794 0.066734724 0.0135161495
0.051265884 0.03881442 0.03129942 0.040456805 0.015472966 0.026002156 0.050679922 0.032477565
0.0027199625 -0.0013043038 0.0014650233 0.060190666 0.020671355 0.038613383 0.049653865 0.032817964
0.040655922 0.07416267 -0.5194962 -0.010712307 0.024433129 0.043863226 0.05030709 0.01761401
0.036391072 0.0021266257 0.110920824 0.044071678 0.04228742 0.010889022 0.022308618 -0.0031176426

net.4.weight f4 [256, 256]
00000000: 165d 0500 5b57 0580 c25c 0580 595e 0500
00000010: d25c 0500 8c59 0580 a05a 0500 0662 0500
00000020: 845b 0500 cb61 0500 7c5e 0500 2761 0500
00000030: a262 0500 815f 0580 645d 0500 7b5f 0500
00000040: c05c 0580 0e5d 0500 2a60 0500 1960 0580
00000050: 0859 0580 c25a 0500 505f 0580 6758 0580
00000060: f262 0580 6d61 0580 5d5d 0500 de58 0580
00000070: b059 0500 ab61 0500 f45c 0500 f759 0580
00000080: 195d 0500 6f5d 0500 195a 0500 915b 0500
00000090: 715c 0580 9b60 0580 7363 0500 165f 0580
000000a0: e25d 0500 9459 0580 0758 0580 5e5a 0580
000000b0: e35c 0580 b462 0500 ed5a 0500 4d5c 0500
000000c0: bc58 0580 995a 0500 4d61 0500 0660 0580
000000d0: 265a 0580 4060 0500 255d 0580 0b5a 0500
000000e0: 9c5f 0500 de5f 0580 4b63 0580 d558 0580
000000f0: 5a5b 0580 8360 0500 0963 0500 ef5b 0580
00000100: 655f 0500 355e 0580 dc61 0580 1a58 0500
00000110: e757 0580 d65d 0500 a857 0580 885c 0500
00000120: f15d 0500 9c61 0500 a054 0600 a25e 0500
00000130: f35b 0580 5b63 0580 2f62 0500 b65e 0500
00000140: 715a 0500 de61 0580 925d 0500 b05e 0580
00000150: 815b 0500 b258 0500 855f 0500 275d 0500
00000160: 5c5d 0580 db5c 0580 b85c 0580 735b 0500
00000170: c959 0500 ed5e 0580 ec5d 0580 4b5d 0500
00000180: 5157 0500 765b 0500 a659 0500 1258 0580
00000190: e45c 0580 4a58 0500 e85a 0500 7457 0500
000001a0: e962 0500 455c 0500 8c62 0500 b75e 0500
000001b0: 5e62 0580 a55d 0500 9760 0500 0a62 0500
000001c0: 6c57 0500 aa59 0500 245d 0500 315f 0580
000001d0: a45b 0500 1b58 0500 1359 0500 7460 0580
000001e0: 4e62 0500 975c 0580 105f 0580 1a5a 0500
000001f0: 6d5f 0500 da58 0500 125d 0580 5462 0500
00000200: 1163 0500 db5d 0500 045f 0500 9c5f 0580
00000210: b660 0500 b55e 0500 9c5f 0500 0e60 0580
00000220: c761 0580 6b5f 0580 395c 0580 8258 0500
00000230: 985f 0580 f361 0500 bf62 0580 b360 0500
00000240: 8a5c 0500 5e58 0500 055b 0500 3760 0500
00000250: 2f59 0580 a85b 0580 245a 0580 2c59 0580
00000260: da5e 0580 a45b 0500 af5e 0500 4a5e 0580
00000270: 045e 0500 8c57 0500 a158 0500 835c 0580
00000280: 5461 0500 d361 0500 b760 0500 7b59 0500
00000290: 715c 0580 7b63 0500 5d5d 0580 ed59 0580
000002a0: d561 0500 705c 0500 a960 0580 bd57 0500
000002b0: f757 0500 6561 0580 a857 0580 965a 0580
000002c0: e65c 0580 b957 0580 1b5a 0500 1263 0580
000002d0: 7462 0580 295c 0580 6e5a 0580 0058 0500
000002e0: 1c63 0580 7b5c 0500 4458 0500 1062 0580
000002f0: 255e 0500 f05a 0580 415b 0500 785e 0500
00000300: 425b 0500 505a 0580 de5f 0500 e157 0500
00000310: 6a5d 0500 2b58 0500 2d5e 0500 165d 0580
00000320: 6c58 0500 4b5b 0580 0861 0500 5858 0580
00000330: e060 0500 bf5c 0580 bd5c 0500 475e 0500
00000340: ef60 0580 b257 0500 3359 0500 f458 0500
00000350: 5b61 0500 2f5e 0500 165d 0580 dc5d 0580
00000360: 9561 0580 c959 0580 7e61 0580 6b61 0580
00000370: 7460 0580 125a 0580 0b58 0500 d15c 0500
00000380: ea5b 0500 9d62 0580 3b5b 0500 8757 0580
00000390: e658 0500 cf5a 0500 4b63 0580 a061 0500
000003a0: de5c 0500 1d5e 0500 465e 0580 8f62 0580
000003b0: 1f5f 0580 2b60 0580 b757 0500 ab5f 0580
000003c0: 115f 0500 e15e 0500 065a 0500 3b63 0500
000003d0: 8b57 0500 835a 0580 4963 0500 4b5f 0580
000003e0: 655e 0580 865b 0500 7457 0500 a359 0580
000003f0: 8d5a 0580 7f59 0580 5c5e 0580 2a58 0580
4.9257e-40 -4.90515e-40 -4.92453e-40 4.93023e-40 4.92475e-40 -4.91301e-40 4.91688e-40 4.94342e-40
4.92007e-40 4.94259e-40 4.93072e-40 4.94029e-40 4.9456e-40 -4.93438e-40 4.9268e-40 4.9343e-40
-4.9245e-40 4.92559e-40 4.93675e-40 -4.93651e-40 -4.91116e-40 4.91735e-40 -4.93369e-40 -4.9089e-40
-4.94672e-40 -4.94127e-40 4.9267e-40 -4.91057e-40 4.91351e-40 4.94214e-40 4.92523e-40 -4.91451e-40
4.92575e-40 4.92695e-40 4.91498e-40 4.92025e-40 -4.92339e-40 -4.93833e-40 4.94853e-40 -4.93288e-40
4.92856e-40 -4.91312e-40 -4.90756e-40 -4.91595e-40 -4.92499e-40 4.94585e-40 4.91796e-40 4.92289e-40
-4.9101e-40 4.91678e-40 4.94082e-40 -4.93624e-40 -4.91517e-40 4.93705e-40 -4.92591e-40 4.91479e-40
4.93476e-40 -4.93568e-40 -4.94797e-40 -4.91044e-40 -4.91948e-40 4.938e-40 4.94705e-40 -4.92157e-40
4.93399e-40 -4.92973e-40 -4.94283e-40 4.90782e-40 -4.90711e-40 4.9284e-40 -4.90623e-40 4.92371e-40
4.92877e-40 4.94193e-40 5.81371e-40 4.93125e-40 -4.92163e-40 -4.9482e-40 4.94399e-40 4.93153e-40
4.91622e-40 -4.94286e-40 4.92744e-40 -4.93145e-40 4.92003e-40 4.90995e-40 4.93443e-40 4.92594e-40
-4.92669e-40 -4.92488e-40 -4.92439e-40 4.91983e-40 4.91386e-40 -4.9323e-40 -4.9287e-40 4.92645e-40
4.90501e-40 4.91987e-40 4.91337e-40 -4.90771e-40 -4.925e-40 4.9085e-40 4.91788e-40 4.9055e-40
4.9466e-40 4.92278e-40 4.9453e-40 4.93155e-40 -4.94465e-40 4.92771e-40 4.93827e-40 4.94347e-40
4.90539e-40 4.91343e-40 4.9259e-40 -4.93326e-40 4.92052e-40 4.90784e-40 4.91131e-40 -4.93778e-40
4.94443e-40 -4.92392e-40 -4.9328e-40 4.915e-40 4.9341e-40 4.91051e-40 -4.92565e-40 4.94451e-40
4.94716e-40 4.92846e-40 4.93263e-40 -4.93476e-40 4.93871e-40 4.93152e-40 4.93476e-40 -4.93635e-40
-4.94253e-40 -4.93407e-40 -4.92261e-40 4.90928e-40 -4.9347e-40 4.94315e-40 -4.94601e-40 4.93867e-40
4.92374e-40 4.90878e-40 4.91829e-40 4.93693e-40 -4.9117e-40 -4.92058e-40 -4.91514e-40 -4.91166e-40
-4.93204e-40 4.92052e-40 4.93144e-40 -4.93002e-40 4.92904e-40 4.90583e-40 4.90972e-40 -4.92364e-40
4.94092e-40 4.9427e-40 4.93872e-40 4.91277e-40 -4.92339e-40 4.94864e-40 -4.9267e-40 -4.91437e-40
4.94273e-40 4.92338e-40 -4.93853e-40 4.90652e-40 4.90733e-40 -4.94116e-40 -4.90623e-40 -4.91674e-40
-4.92503e-40 -4.90646e-40 4.91501e-40 -4.94717e-40 -4.94496e-40 -4.92238e-40 -4.91618e-40 4.90746e-40
-4.94731e-40 4.92353e-40 4.90841e-40 -4.94356e-40 4.9295e-40 -4.918e-40 4.91913e-40 4.93066e-40
4.91915e-40 -4.91576e-40 4.93568e-40 4.90702e-40 4.92688e-40 4.90806e-40 4.92961e-40 -4.9257e-40
4.90897e-40 -4.91927e-40 4.93986e-40 -4.90869e-40 4.9393e-40 -4.92449e-40 4.92446e-40 4.92998e-40
-4.93951e-40 4.90637e-40 4.91176e-40 4.91088e-40 4.94102e-40 4.92964e-40 -4.9257e-40 -4.92848e-40
-4.94183e-40 -4.91386e-40 -4.94151e-40 -4.94124e-40 -4.93778e-40 -4.91489e-40 4.90761e-40 4.92474e-40
4.9215e-40 -4.94553e-40 4.91905e-40 -4.90576e-40 4.91068e-40 4.91753e-40 -4.94797e-40 4.94199e-40
4.92492e-40 4.92939e-40 -4.92996e-40 -4.94534e-40 -4.933e-40 -4.93676e-40 4.90644e-40 -4.93497e-40
4.93281e-40 4.93214e-40 4.91472e-40 4.94775e-40 4.90582e-40 -4.91647e-40 4.94794e-40 -4.93362e-40
-4.9304e-40 4.9201e-40 4.9055e-40 -4.91333e-40 -4.91661e-40 -4.91283e-40 -4.93027e-40 -4.90805e-40

net.4.bias f4 [256]
00000000: 4359 4eaa 860c a7bd d27a bcbd d256 aebd
00000010: 470e 32bc c7d6 f3bd 129b 72bd 02de 0ebd
00000020: 8a39 9ebd 72eb 35bd 3dd0 96bd 9d2d 8dbd
00000030: 8f84 dbbd 4b40 75bd 31f6 73bd e120 7bbd
00000040: 3d93 18be 2b18 abbd b00e 17be 63c8 98bd
00000050: 84d0 babd ce83 0ebe 0da4 02be e8de cabd
00000060: 8988 83bd 0a89 abbc 482f 85bd 63d7 06be
00000070: 76ff f9bd 8fc5 6dbd b30f a7bd da64 b5bd
00000080: c65c b4bd 639e 6bbd 65e3 babd ed44 97bd
00000090: 1649 25be 8b52 74bd 3960 e6bd 1123 f1bd
000000a0: f630 dbbc ab75 c9bd 45d5 88bd 1feb a9b9
000000b0: df28 aebd 23a8 9dbd 030b b2bd 498c 9dbd
000000c0: d3ef acbd 8493 8cbd eea2 e8bd e1d3 b3bd
000000d0: 1a81 35be 7c27 afbd 3179 06be eb33 1bbe
000000e0: 9e1f 53bd 33ad 663b 21e9 1bbe a6ca acbd
000000f0: 548a e4bc 6f70 c7bd 31cd a4bd baa2 99bd
00000100: f576 f5bd 5750 40bd 8b35 c1bd 176c b5bd
00000110: 0066 a1bd 07d0 85bd 36a3 ccbc c85b d3bd
00000120: f9b1 7fbd 5c17 b2bd 373a bbbd 3da6 0bbc
00000130: 7bf0 ccbd d9fa 7ebd 6944 2abd cb17 30bd
00000140: 2986 97bd 66e6 7fbd 8f15 2ebd 928c 37be
00000150: 3c4d b5bd 2942 c8bd 1728 28be fcda b4bd
00000160: 8914 ccbd c286 00be 0193 b4bd 5353 e2bd
00000170: a895 e3bd 4f1c 23bd a8e1 203a 5118 a5bd
00000180: 4094 9cbd 9d94 d5bd c008 1dbc c66f 16be
00000190: 54ea 97bd 6c2c d3bd e3ed c4bd 6d90 d5bd
000001a0: 2ee1 82bd b1f8 37bd 97ff b0bd 886c eabd
000001b0: 68e4 e6bc c838 aabd 9c48 bdbd 8288 92bd
000001c0: 2b79 d5bd 3819 09be 48ab a1bd a694 b2bd
000001d0: 4265 0abc d7e9 90bd b7c0 08be 3604 a7bd
000001e0: 8c71 91bd 7e6f 4cbc 21c3 acbd cf11 9fbd
000001f0: 23bd 01be ef90 77bd 696a 94bd 36ba d5bd
00000200: 405d b7bd f4b5 84bd e731 c8bd 85b2 e3bc
00000210: 3be4 38bd 5583 46bd d206 f7bc fe8a 66bd
00000220: 77f6 32bd 12f0 50bd 5cb4 26bd d796 90bd
00000230: dd5a 26be 2b51 13be 3d1a c7bd 4a30 b4bd
00000240: 2999 16be 6aed 34bd 52b9 423c cece 9abd
00000250: 5ad8 bdbd 64f6 b2bd 8b95 a1bd c727 3ebd
00000260: e88b cebd d992 91bd a756 ecbc aff2 c9bd
00000270: 1349 d2bd f5fd cbbd f03a d7bd 594f 0abc
00000280: 9314 96bd 1f33 65bd c8bb 1abe bc1b 9dbd
00000290: 7c28 0abd 6da0 56bd e760 a5bd 7ca8 c5bd
000002a0: 8bc5 43bd 27f8 f0bc 229c 11be b9f3 99bd
000002b0: f51b 02be f791 dbbc 8797 b9bd 111f a3bd
000002c0: ecc4 8cbd 4f29 debd 160e aebd 569d 06be
000002d0: c3de b5bb cd5b 88bd f7cc 9cbd 4378 cabd
000002e0: 5992 15be 677d d0bd dca0 bcbd 4af3 c9bd
000002f0: 8469 0ebe d803 a1bd 2a93 dabd 6c22 5d3b
00000300: 840a 2cbd 1507 c5bd 868c 60bd 93fb 2bbc
00000310: 5cf4 6dbd bd8d 74bd 326a 79bd eddb 9cbd
00000320: bee7 03bb af2a edbc 9794 b5bd bda1 abbd
00000330: 4a61 b4bd 1c63 e1bd 8c18 56bc 96e4 5bbe
00000340: 209c b6bd f380 e3bd 5180 9fbd 9672 d4bd
00000350: f0ce 31be 62e4 f1bd fffb bfbd 7597 02be
00000360: 3d80 9cbd 4b70 8abd 3f32 5cbd caf4 d3bd
00000370: f564 7abd 0d29 1bbd 21e4 82bd 4445 dabd
00000380: 960b 4bbd 2797 93bd d0e3 acbd 27d4 f6bd
00000390: 8a69 b5bd 33da ddbd 148b 45be f21d 95bc
000003a0: 9c06 e2bd 09a9 e2bd f343 85bd 6c53 dbbd
000003b0: f89e 8ebd cd0d 8ebc cc36 0bbe de6c 5cbd
000003c0: 99f1 8ebd 6d8f b1bd a81e a3bd 229b abbd
000003d0: 91ca d9bd 2e88 1ebe c48c 14be 9fa4 10bd
000003e0: 0854 70bd 232f 64bd 52c2 a9bd 4376 d1bd
000003f0: 6067 cbbd a2a7 9cbd 94d7 1dbd 21ce b0bd
-1.8327444e-13 -0.081566855 -0.092031136 -0.085126534 -0.010867662 -0.119062 -0.059229918 -0.034879692
-0.077258185 -0.04441399 -0.07363937 -0.06893466 -0.10718643 -0.059875768 -0.05956096 -0.061310653
-0.14899917 -0.08354219 -0.14751697 -0.07460096 -0.091218024 -0.13917467 -0.12757893 -0.09905797
-0.064225264 -0.020939369 -0.06503159 -0.13168101 -0.122069284 -0.058049735 -0.08157291 -0.088571265
-0.08806758 -0.057524096 -0.09125403 -0.073861934 -0.16141161 -0.05964903 -0.11248822 -0.117742665
-0.026756745 -0.098368965 -0.06681303 -0.0003240937 -0.08503889 -0.07698085 -0.086935066 -0.07692773
-0.0844418 -0.06864074 -0.11359201 -0.08780647 -0.1772503 -0.08552453 -0.13132168 -0.15156524
-0.051543824 0.003519845 -0.1522565 -0.084370896 -0.027897991 -0.09738242 -0.0804695 -0.07501741
-0.1198558 -0.046951618 -0.09434041 -0.08858507 -0.07880783 -0.06533819 -0.024980169 -0.1032024
-0.062425587 -0.08695862 -0.09141963 -0.008523521 -0.100068055 -0.062250946 -0.041569147 -0.04299144
-0.07398636 -0.062475584 -0.04250103 -0.17924717 -0.08852622 -0.09778244 -0.16421543 -0.088308305
-0.09964854 -0.12551406 -0.08817101 -0.11051049 -0.11112529 -0.03982192 0.0006137141 -0.080612786
-0.07645464 -0.10428736 -0.009584606 -0.14691076 -0.074177414 -0.10311207 -0.09615686 -0.10427938
-0.06390606 -0.044914905 -0.086425 -0.11446482 -0.028185084 -0.083116114 -0.09242365 -0.07154943
-0.104235016 -0.13388526 -0.078939974 -0.08719759 -0.008446993 -0.070758514 -0.13354765 -0.081551
-0.071017355 -0.012477754 -0.084356554 -0.077670686 -0.12669806 -0.060440954 -0.072468586 -0.104359075
-0.08953333 -0.06480017 -0.09775143 -0.027795086 -0.045139533 -0.04846509 -0.03015462 -0.056284897
-0.04369208 -0.0510102 -0.040699348 -0.070600204 -0.16245599 -0.14386432 -0.097218014 -0.08798273
-0.14706863 -0.04417173 0.011885004 -0.07558976 -0.092697814 -0.087384015 -0.07889851 -0.046424653
-0.10085279 -0.07108087 -0.028849913 -0.09860741 -0.10267844 -0.09960548 -0.10509288 -0.0084417695
-0.07328143 -0.055956956 -0.15110695 -0.076713055 -0.033730015 -0.052399088 -0.08075123 -0.096512765
-0.047795814 -0.029415203 -0.14219716 -0.075171895 -0.12705977 -0.026803 -0.09062105 -0.0796491
-0.06873497 -0.10847723 -0.084987804 -0.13145956 -0.005550237 -0.066581346 -0.076562814 -0.09886219
-0.14606608 -0.101801686 -0.09210369 -0.09860857 -0.13907439 -0.07862061 -0.106726006 0.003374244
-0.042002216 -0.096204914 -0.054821514 -0.010496992 -0.058094367 -0.059705485 -0.06089229 -0.07659135
-0.0020127143 -0.028951017 -0.08866232 -0.083804585 -0.08807619 -0.11005232 -0.013067376 -0.21473917
-0.08916497 -0.111085795 -0.07788146 -0.10373418 -0.17364097 -0.11811139 -0.09374236 -0.12753089
-0.07641647 -0.067596994 -0.053758856 -0.10349424 -0.061131436 -0.037880946 -0.063911684 -0.106577426
-0.049571596 -0.072065644 -0.08441889 -0.120521836 -0.088580206 -0.10832634 -0.19291335 -0.018202756
-0.11036417 -0.11067397 -0.06507101 -0.10709271 -0.06963915 -0.017340565 -0.13595122 -0.05381476
-0.06979675 -0.086699344 -0.079648316 -0.083791986 -0.106343396 -0.15481636 -0.14506823 -0.035313245
-0.05867389 -0.055709016 -0.08289017 -0.10227635 -0.099318266 -0.07649161 -0.03853567 -0.08633066

net.6.weight f4 [256]
00000000: 27ae c73e 2745 c13e c0b9 913e a312 8e3e
00000010: 38bb a33e 80f9 023f 10bf a93e 3eea 533e
00000020: 0198 b13e ae13 d03e 3a81 a93e ae71 993e
00000030: a9d7 f23e 7ee4 963e 3cca a43e a86b cf3e
00000040: d660 033f cf3f 973e 11c4 d03e f863 913e
00000050: 040b 9a3e 9bb0 ed3e 5f2f de3e e6d7 8d3e
00000060: 641c de3e 1152 933e b98b ac3e e601 e53e
00000070: 9fa7 813e ec21 8e3e 79be a33e 5488 ca3e
00000080: 885d 9d3e 4c61 7a3e 830d 993e f7b7 dc3e
00000090: 23ad 0a3f 2a99 b33e 7675 8a3e 8f09 a93e
000000a0: 321d aa3e 03e3 b93e 7e29 943e c6f1 e43e
000000b0: 1e01 d73e 59a7 8d3e 2114 533e 49eb ea3e
000000c0: 1c4b 913e 3e90 af3e e572 f93e ed2a c23e
000000d0: 8cf9 9b3e c689 583e 612d f73e dc65 f73e
000000e0: 5553 943e dd36 333d 05e7 e23e e27f 923e
000000f0: dd2f 923e cc3a ed3e b08b c83e 8815 b83e
00000100: dda4 a73e 3935 993e 753b 273e a8d7 98be
00000110: 147f af3e 4be7 d03e a296 c53e 2b7c da3e
00000120: 405e a53e 6999 873e 7846 b33e 57bc dd3e
00000130: 3c0e ba3e b86a ad3e ff4f 923e 3586 7a3e
00000140: 50d4 dd3e 008b 983e e743 9f3e 9592 bb3e
00000150: 68e0 9e3e 7888 e03e 1d97 9e3e 72cd da3e
00000160: d1f0 a13e 8942 d43e 2c64 953e b5f7 e43e
00000170: e65b b23e 6ffc 8f3e 006a 7b3e 7ca1 9b3e
00000180: 0ea5 953e d9d4 c03e da86 8f3e 731c b73e
00000190: 8860 b23e debc d23e 8393 9b3e 3e7c a73e
000001a0: 27f6 da3e be1d 2a3e 8fc8 7e3e bfe2 ef3e
000001b0: de69 e23e 3cc1 8e3e 46c7 af3e cb43 973e
000001c0: 9a03 9a3e 9bcc 0e3f 42c5 8d3e 230a a63e
000001d0: 3bc1 913e de01 ae3e e0eb 893e e47e 8c3e
000001e0: 77e9 b63e a11e 6f3e a581 af3e 24c9 f03e
000001f0: 64d8 a83e 3d79 9d3e 39a5 ae3e 71ac 673e
00000200: 6a9d e33e 3b38 823e 88e1 f53e a517 933e
00000210: 021c 913e d91f 8c3e 530b 813e 6495 913e
00000220: 86a8 f83e 69ed 933e 2f4a 913e 59d1 a03e
00000230: a7a5 ef3e 0ddf fd3e f152 b83e f525 483e
00000240: 07cc 073f 0072 6c3e f405 7e3e 53a7 913e
00000250: 823f c93e bc54 dc3e bf2b e43e 7bb0 b33e
00000260: 940c fa3e 5693 723e ec8b f03e 0502 693e
00000270: 8988 913e 4c49 ac3e 83dc 9f3e ef0b e93d
00000280: afa6 b83e f937 9f3e 2c0e fd3e 9aa6 a23e
00000290: 51f5 9e3e d92e a03e c403 c73e 2085 9a3e
000002a0: dcf3 b53e b58e a03e 3375 0c3f 2f59 933e
000002b0: 4d8f 013f 9d51 a03e 150c 823e b31b 853e
000002c0: e66d a63e 2023 883e c97c cf3e 43ae f33e
000002d0: 0dcf 003e 1c1f 9a3e ff75 013f 3e6b e03e
000002e0: cd42 e63e e57e dd3e bda7 a23e 5cf8 b13e
000002f0: 03d8 ff3e 0673 cf3e 0ca9 8e3e f99e c03d
00000300: 3584 013f c2b7 cf3e 5671 933e 62ef ff3d
00000310: 90fa 8d3e 0f0f c53e 7a14 893e bb39 803e
00000320: 074b 893e 5b3c 6f3e 2171 873e fd92 8f3e
00000330: ee0f dd3e e813 ea3e 945d a73e 99a5 083f
00000340: f119 b43e 219a fc3e fb2f b43e a2dc 9c3e
00000350: c074 ee3e c8b0 ee3e 670e 853e fcd2 ef3e
00000360: 5f29 ad3e 2767 7e3e 6275 8c3e 1700 c13e
00000370: 629c 9f3e 97ba 9d3e 0187 943e 0859 ed3e
00000380: b248 903e 058f d33e 2ad5 a93e aa95 ed3e
00000390: 7e6e 953e a059 af3e 97d9 e53e 85fe 493e
000003a0: ccf2 7b3e 8a48 d63e 749b 9b3e d2f0 893e
000003b0: 311c 793e 6162 823e f084 8f3e 5b1d 8a3e
000003c0: 4e91 f23e 2d59 bc3e 4cfe 4f3e 3a89 a43e
000003d0: 40e1 da3e 3146 f33e 5720 ee3e 1df4 ab3e
000003e0: b90a 873e 1d0d c03e 6f23 af3e d33e ed3e
000003f0: bf78 be3e 02d7 da3e ebe5 8c3e 09e5 a13e
0.39000055 0.37748072 0.28462029 0.27748594 0.31978774 0.51161957 0.33153582 0.20694825
0.34686282 0.40640014 0.33106405 0.29969543 0.4743016 0.294712 0.32185543 0.40511823
0.51319635 0.2954087 0.40774587 0.28396583 0.3008653 0.46423802 0.43395516 0.2770378
0.43381035 0.2877355 0.3370035 0.4472801 0.25323197 0.27760255 0.31981257 0.39557135
0.3073542 0.24451178 0.2989312 0.43109104 0.54170436 0.35077792 0.2704274 0.33015105
0.332254 0.3630601 0.28937906 0.44715708 0.4199304 0.2766674 0.20613147 0.45882633
0.28377616 0.34289736 0.4872047 0.37923375 0.30463827 0.21146306 0.4827681 0.483199
0.28969827 0.043753494 0.4431688 0.28613192 0.28552142 0.4633392 0.39169073 0.35953927
0.32742968 0.29923418 0.16331275 -0.29852033 0.3427664 0.40801463 0.38591486 0.42672858
0.3229847 0.2648423 0.350147 0.43307754 0.36338985 0.33870482 0.28576657 0.24465258
0.43326044 0.2979355 0.31106493 0.3663527 0.31030583 0.43854117 0.30974665 0.42734867
0.3162904 0.41457012 0.29177988 0.44720235 0.34835738 0.2812228 0.24552155 0.3039664
0.2922749 0.3766239 0.2803257 0.35763893 0.34839272 0.4115972 0.3038598 0.32711977
0.42765924 0.16612908 0.24881195 0.4685268 0.44221395 0.278818 0.3433172 0.2954391
0.30080873 0.55780953 0.27689558 0.3242961 0.28467736 0.339858 0.2693777 0.2744056
0.35724995 0.23351528 0.34278598 0.47028458 0.32977593 0.3075656 0.3411043 0.22624375
0.44456035 0.25433525 0.4802363 0.28728977 0.2834168 0.27368048 0.25203952 0.28434289
0.48566073 0.28892067 0.2837691 0.3140972 0.4680607 0.49584237 0.3600078 0.1954573
0.53045696 0.23090363 0.24806958 0.2844797 0.39306265 0.43033397 0.44564626 0.3509558
0.4883772 0.23689017 0.46981752 0.22754677 0.2842448 0.3364967 0.31222925 0.11379229
0.3606467 0.3109739 0.49424875 0.31767732 0.31046537 0.31285742 0.3887006 0.3017969
0.35537612 0.31358877 0.5486633 0.2877898 0.50609285 0.31312266 0.25399843 0.25997695
0.3250572 0.26589298 0.4052489 0.4759389 0.12578984 0.3010186 0.5057067 0.4383182
0.4497284 0.43260875 0.317686 0.34759796 0.4996949 0.40517443 0.27863348 0.09405322
0.50592357 0.40569884 0.28797406 0.124968305 0.27730227 0.3848805 0.26773435 0.25044045
0.26815054 0.23362868 0.26453498 0.2804183 0.43176216 0.45718312 0.32688582 0.5337768
0.35176042 0.4933634 0.35192856 0.3063708 0.46573448 0.46619248 0.2598755 0.46840656
0.33820626 0.24844037 0.27433306 0.3769538 0.31173998 0.3080642 0.2900925 0.46356988
0.28180462 0.41320053 0.33170444 0.46403247 0.2918586 0.34248066 0.4489257 0.19725998
0.24604338 0.41852218 0.3039204 0.26941544 0.2432716 0.25465682 0.2803111 0.2697552
0.47376484 0.36786786 0.2031185 0.32135946 0.42749977 0.4751449 0.46509048 0.3358468
0.26375368 0.37510005 0.3420672 0.46336994 0.37201497 0.42742163 0.27519163 0.31620052

net.6.bias f4 [256]
00000000: 5f54 fb3c b224 143d 8040 913c 00b1 a63c
00000010: 54bc 6c3c 9b4d 443d 25bc d03c 54a3 cd3b
00000020: 459a 163d dc9c 063d 9ca0 ba3c 4e29 b93c
00000030: 3d3c fb3c 8ef8 c33c bd0b df3c a039 053d
00000040: 52ae 193d fc21 913c b36b 063d 4a47 aa3c
00000050: 921e dd3c e634 233d e227 ff3c 2f48 8e3c
00000060: b64c 153d 8c32 5f3c 7028 e13c 4eb7 fa3c
00000070: 314c b23c ff0c 123c b3c8 543c c696 fc3c
00000080: b67d f43c 1e15 4f3c 1b71 a53c 2a84 0c3d
00000090: 5819 333d de69 d33c fd69 ca3c 28b7 af3c
000000a0: 23e6 8d3c 8f78 d83c 0fc2 d53c 16c9 0d3d
000000b0: 7d64 ea3c da21 873c 767f 573c 1654 e63c
000000c0: f184 ea3c 2d3c e13c 590d 1e3d 3d4a 013d
000000d0: a1a5 ef3c e08d a63a 8f2d 203d 5035 263d
000000e0: cf89 a33b 650b 29bf d966 023d 69f1 b73c
000000f0: 7213 9a3b 4eb2 163d bf25 e93c 74f3 0f3d
00000100: b68e ce3c 5204 343c 023a f53b c385 65bc
00000110: faf7 d33c e9d3 0f3d a86f e13c eacd 133d
00000120: a7eb c93c 2957 8c3c 6c6f d83c 2e08 193d
00000130: f728 fe3c 9892 d23c 8d6c 923c 92bb 003b
00000140: d418 e63c 984a a03c 639b c73c cfa9 073d
00000150: 2eae 9d3c 710e 093d 8062 cf3c 0cbb 033d
00000160: 3458 bf3c d870 fd3c d669 513c df0c 113d
00000170: 2845 ee3c 402c cd3b 2ce7 963b d183 bf3c
00000180: 3bcf cb3c a4f8 f73c 7ccc 5c3c 0972 d33c
00000190: a01a c23c 633e fa3c 6efc c03c ea82 0b3d
000001a0: 8d3c 053d 5a06 82bc 52c4 d83c ba30 113d
000001b0: 0c76 193d b498 943c 900c c53c 51d5 b73c
000001c0: c4e0 a03c 0f23 2a3d 2e10 6c3c 73be b83c
000001d0: 16d3 573c 68ad f83c 3890 c53c 62a7 a73c
000001e0: fae1 023d c03d 023c 2225 dd3c 4365 153d
000001f0: f6b7 d53c d927 4a3c d23f c93c d1a2 bd3c
00000200: 1908 fe3c 42b2 ad3c e2fb 123d 03dd 233b
00000210: 43c0 a23c 3cd2 913c bc89 163c 0e39 2f3c
00000220: 4265 2b3d fdc6 953c fb30 523c 5ca8 df3c
00000230: 6754 133d d76f 293d 0509 083d 2f5f c4bb
00000240: a86d 2a3d ace6 7c3c 4cae 81bc e807 c43c
00000250: 40d6 e03c 7fae 113d 5490 1f3d 604a 893c
00000260: e985 173d efc3 963c 7883 263d 6392 fe3b
00000270: a0c6 a13c f763 c83c f1f6 ae3c e43b ddbc
00000280: 868a c73c 4a63 cc3c c289 143d 8175 933c
00000290: c178 1abb 1dc5 b63c c8a8 e53c 9003 cd3c
000002a0: eedd bb3c bf5a 433c b50d 323d b487 ba3c
000002b0: 93e6 363d 36fc 663c 34c3 6d3c b6b2 303c
000002c0: 9e00 dc3c 04e3 263c 8085 fc3c 5d76 173d
000002d0: b5a6 14bc 53b5 bd3c 905d f43c 2fcc f83c
000002e0: 8438 103d 059f 003d e613 bb3c d4de e73c
000002f0: d30b 1e3d 6c9b ec3c 1d53 6c3c dc87 03bd
00000300: 98ac 0d3d ed8c e03c e0c1 ad3c 52f7 0cbd
00000310: 589d e33b 6f21 003d c1db 633c d79e 9b3c
00000320: 88ee 1e3c a4de fc3a 0d21 af3c 4714 713c
00000330: a911 fd3c 8fa0 1c3d febd 883b f5fd 233d
00000340: 6c7f d63c ee51 183d 3167 e43c ea70 013d
00000350: 82c1 1c3d 2440 203d f2c0 823c e1ed 0b3d
00000360: f2c8 913c fc10 903c c056 993c 9b72 123d
00000370: 9f4c fd3c 1931 6f3c 32fa e03c a8a1 133d
00000380: 63ca 8f3c 814e 043d 9aa1 c03c f558 083d
00000390: 8a5e e93c c410 a23c 1720 053d b0e9 ab3b
000003a0: 0055 593b a8ba 073d a8de 673c 638e c13c
000003b0: 5481 813c 0363 033c 948e df3c 80d2 893c
000003c0: d474 1b3d a6b8 fc3c 504f 623c 6a2c e63c
000003d0: ca04 fe3c 35ec 0e3d 9825 163d 30ad 7a3c
000003e0: ade3 d03c 936c c23c ea70 b03c 1b15 213d
000003f0: ffac f53c e94a 013d 1532 6d3b 607c cc3c
0.03067988 0.036167808 0.017730951 0.020348072 0.014449198 0.047925573 0.02548034 0.0062755737
0.036768217 0.032864437 0.022781663 0.022602703 0.030668372 0.023922231 0.027227277 0.03252566
0.03751976 0.0177164 0.032817554 0.020785946 0.026992116 0.03984537 0.031146947 0.017368404
0.03645011 0.013622891 0.027485102 0.030604985 0.021764847 0.008914231 0.012987304 0.030833613
0.0298451 0.012639312 0.020195534 0.03430573 0.04372534 0.025807317 0.024708742 0.02144964
0.017321652 0.026424674 0.02609351 0.0346156 0.02861237 0.016495634 0.013152948 0.028116267
0.028627845 0.027494514 0.038586948 0.03156494 0.029253783 0.0012707077 0.039105948 0.040578187
0.0049907933 -0.6603301 0.031836364 0.02245398 0.004702025 0.03679114 0.028460382 0.035144284
0.025214534 0.010987358 0.0074837217 -0.014008942 0.02587508 0.035114203 0.027519062 0.036085047
0.0246485 0.017131405 0.026420318 0.037361316 0.031025393 0.025704667 0.017874027 0.001964305
0.02808801 0.01956682 0.024366086 0.033120926 0.019248094 0.033461038 0.025315523 0.032160804
0.023357488 0.030937597 0.012781581 0.035412665 0.02908571 0.0062613785 0.0046051946 0.023378285
0.024879089 0.030269928 0.013476487 0.025811212 0.023694336 0.030547326 0.023557868 0.034060396
0.03252845 -0.01587217 0.0264608 0.03544686 0.037466094 0.01813922 0.024053842 0.022440584
0.019638427 0.04153734 0.014408154 0.02255175 0.013172885 0.030356124 0.02411662 0.020465557
0.03195379 0.007949293 0.026995245 0.036473524 0.026088696 0.012338602 0.024566565 0.023148926
0.03100972 0.021203164 0.035884745 0.002500356 0.019867068 0.017800443 0.009188112 0.010694755
0.041844614 0.018283362 0.012829061 0.02730196 0.035969164 0.041366424 0.033211727 -0.005992792
0.041608483 0.015435856 -0.015830182 0.023929551 0.027445912 0.035566803 0.038956 0.016759098
0.03699294 0.018403975 0.040652722 0.0077689155 0.019748032 0.02446173 0.021357985 -0.027006097
0.024358045 0.024949688 0.03626419 0.018000366 -0.002357051 0.022310788 0.028034583 0.025026113
0.022932973 0.011923491 0.043470103 0.022769786 0.044653486 0.014098218 0.014511872 0.0107847955
0.026855763 0.010185961 0.030825377 0.036978114 -0.009072949 0.023157751 0.02982977 0.0303708
0.035210148 0.031401653 0.022836637 0.028304495 0.038585495 0.028882705 0.014424113 -0.032111987
0.034588426 0.027410949 0.02121061 -0.03441555 0.006946247 0.031281885 0.013907374 0.01899664
0.009700425 0.0019292426 0.021378065 0.014714307 0.03089221 0.038239058 0.0041730395 0.040037114
0.026183806 0.03718751 0.027881237 0.031601824 0.03827048 0.03912367 0.015961144 0.034162406
0.017796014 0.017586224 0.018718123 0.035753828 0.030920325 0.014599108 0.027463052 0.03604284
0.01755256 0.03230143 0.023514558 0.03328796 0.028487463 0.019783385 0.032501306 0.0052463636
0.0033162236 0.033136994 0.0141522065 0.023627466 0.015808739 0.008019212 0.027289666 0.016824007
0.037953213 0.030849766 0.013812855 0.02809735 0.031008143 0.034893233 0.036656946 0.01530008
0.02549919 0.023733413 0.021538217 0.03932677 0.029989718 0.03156558 0.0036193181 0.02496165
