RL code/models/checkpoint_episode_580000.pth (torch, 801255 bytes, 40 tensors)

net.0.weight f4 [256, 22]
00000000: 048f 49bd 9785 8b3d 79a1 593d 6755 12be
00000010: 28b5 493c 4e14 e93c 5af6 ef3c 9e48 89bd
00000020: 98db a5bb 581e f73b 2ca6 89bd d134 183e
00000030: 4e61 583d f9d4 09be 3ecf 6a3c 6ad8 833c
00000040: 04f4 f33c e3a6 9bbd 98db a53b 581e f7bb
00000050: 048f 49bd 9785 8b3d 83fc c0ba 99d0 673c
00000060: 2c74 853c 409c dabd 5d21 c4bc d6d5 03be
00000070: fde6 fa3c 801b 053c 5b29 96bc 1f97 153d
00000080: 93ca 4ebe f191 b2bd b159 89bc 8d7d 0abe
00000090: 3043 5dbc adcc d5bd 84ea 283d 45bb ee3c
000000a0: 5b29 963c 1f97 15bd 83fc c0ba 99d0 673c
000000b0: 545e 0c3e 397c 0e3e f60a 2b3e 28d2 2c3e
000000c0: ec18 3cbe 34e3 1abe 20bb 39be 542e 1fbe
000000d0: 1f95 c1be 78e9 9cbe 59cc 85be ff85 78be
000000e0: 4c35 50be b380 20be 52c7 2b3e 5b0c 313e
000000f0: 24ae 363e f996 2f3e 1f95 c13e 77e9 9c3e
00000100: 4351 0c3e 206d 0e3e cb2d 59bd 2d93 493d
00000110: 50f1 6dbe 3cec 0c3e 9aab 14bd d1da ac3c
00000120: 90bd 85bc 2b99 993d 0536 f33c 3baf 1dbd
00000130: 3417 013d 0134 723c 3ee1 41be e199 003e
00000140: 167b 92bd 3b51 273d de4c 5abd 7718 b63d
00000150: 0536 f3bc 3baf 1d3d cb2d 59bd 2d93 493d
00000160: 2edb bcbb 1fdc 5d3d 08c6 bdbd 0561 423e
00000170: dc9d 69bd bab4 063d 667d a7bd 53a4 013d
00000180: 45f4 05bc 6707 02be a8d5 d33d ad4f 0cbd
00000190: 2b75 ebbd d4b9 1a3e d3a4 2ebd 29cc ad3d
000001a0: d45b 9cbd b958 873d 45f4 053c 6707 023e
000001b0: 2edb bcbb 1fdc 5d3d 5643 d13b 9330 7c3c
000001c0: 5ca1 f3bd 7b9d 2cbe 7b74 9bbc 5131 08bd
000001d0: 7238 b6bd 4b27 5fbd 5de6 ffbc ee30 653d
000001e0: 27aa abbd 0ddb 62bd ea13 0cbe 1e47 20be
000001f0: af8b 0bbc 2d65 34bd af46 90bd 8a93 93bd
00000200: 5de6 ff3c ee30 65bd 5643 d13b 9330 7c3c
00000210: ee21 16bd 97c1 093b cff1 b8be 649e 09bc
00000220: 744b 3b3d 2a28 7bba 0312 373d 0997 43bc
00000230: 30af f83d 5a42 893b cc61 3d3d 8e8e dfbb
00000240: e1db 86be 1b95 ffbb 188b 71bd d03b aeba
00000250: 3a27 76bd 521e 85bc 30af f8bd 5a42 89bb
00000260: ee21 16bd 93c1 093b 8bb0 b2ba 5e65 983d
00000270: cce0 733d 2983 14be 9219 a23b 595b d6bd
00000280: f748 ccba 1644 80bb dbf2 97bb 3893 983d
00000290: 5633 5e3c 5834 03be 2265 8d3d 592f 02be
000002a0: 010b f33b 49f3 03be 07c2 d2b9 a468 ddbc
000002b0: dbf2 973b 3893 98bd 8bb0 b2ba 5e65 983d
000002c0: 0606 c5bb 0c3a 853d f552 8b3b 7900 2d3e
000002d0: 3f62 873d f5f1 8f3d eba7 333d c18d af3a
000002e0: 0267 b03d 4d12 813d adbd 0dbe f887 06be
000002f0: b4d2 7c3d 55b8 2d3e 784e 963c 01f3 953d
00000300: f424 babb fdcc 233c 0267 b0bd 4d12 81bd
00000310: 0606 c5bb 0c3a 853d 837e 6dbc 82d8 4bb9
00000320: b4ff 833d 0014 6cbe 238a 18bb 10ef febd
00000330: 0b22 35bc 1d61 0abc 4440 e03c ec9f d63c
00000340: 2328 1c3d fa8c 71bc 7801 123d 2fdb 4bbe
00000350: 521d d53c b00d 23be 3ce0 943c ece3 65bd
00000360: 4440 e0bc ec9f d6bc 837e 6dbc 82d8 4bb9
00000370: b675 323d cccb fe3d 3159 cc3d 428e 833c
00000380: 8e80 073d e3f3 bd39 21d9 633c f681 113d
00000390: 3020 b43d 1c7e 8d3d d0c1 14bc 29b3 073e
000003a0: cd17 073e b3ce 483d caff a83c 6734 07bd
000003b0: 3a17 e2ba 78a7 ab3b 3020 b4bd 1c7e 8dbd
000003c0: b675 323d cccb fe3d 1db0 7cbd e2cc 5dbd
000003d0: 3b9a 90bc 6b36 9bbd 820b 71bd 3c21 03bc
000003e0: 4e5b 71bc 8716 863c 0d5e 59bd 8549 33bd
000003f0: 952d 153e 590b ddbd 4b8d babd 0dff a1bd
-0.049208656 0.068125896 0.053132508 -0.14290391 0.012311257 0.028452065 0.029292274 -0.06703304
-0.005061578 0.007541459 -0.06721148 0.14863898 0.052827172 -0.13460149 0.014331637 0.016094405
0.029779442 -0.076001905 0.005061578 -0.007541459 -0.049208656 0.068125896 -0.0014723692 0.014148855
0.016290747 -0.106743336 -0.02394169 -0.1287454 0.030627722 0.008124232 -0.018330267 0.036521073
-0.20194463 -0.08719242 -0.016766401 -0.13524456 -0.013504788 -0.104394294 0.041239277 0.029142031
0.018330267 -0.036521073 -0.0014723692 0.014148855 0.13707858 0.13914575 0.167034 0.16877043
-0.18368882 -0.15125734 -0.18137789 -0.15545017 -0.37809083 -0.30646873 -0.26132467 -0.24269865
-0.20332831 -0.15674095 0.16775253 0.1728987 0.17839867 0.17147435 0.37809083 0.3064687
0.13702874 0.13908815 -0.053022187 0.049212623 -0.23236585 0.13761991 -0.036296465 0.021100434
-0.016325742 0.074999176 0.029688844 -0.03849719 0.03151627 0.0147829065 -0.1893358 0.125587
-0.07152383 0.04084895 -0.053295963 0.08891385 -0.029688844 0.03849719 -0.053022187 0.049212623
-0.005763433 0.054165002 -0.09266287 0.18982323 -0.057035312 0.032887198 -0.08178215 0.031650852
-0.008175914 -0.12698136 0.10343486 -0.034255672 -0.114969574 0.1510995 -0.042637657 0.08486206
-0.07634702 0.066087194 0.008175914 0.12698136 -0.005763433 0.054165002 0.006386201 0.01539244
-0.11896011 -0.16856949 -0.01897644 -0.033250157 -0.08897485 -0.054480832 -0.031237775 0.055954866
-0.08382063 -0.055384684 -0.13679472 -0.15652129 -0.00851719 -0.0440418 -0.07044732 -0.07205875
0.031237775 -0.055954866 0.006386201 0.01539244 -0.03665345 0.002101993 -0.36121985 -0.00839958
0.045726255 -0.0009580875 0.04469491 -0.011937865 0.12142789 0.004188818 0.046235844 -0.0068224138
-0.2633963 -0.007799757 -0.05897054 -0.0013292972 -0.060096003 -0.01624981 -0.12142789 -0.004188818
-0.03665345 0.002101992 -0.0013632936 0.07441209 0.059540555 -0.14503159 0.004946896 -0.10466642
-0.001558571 -0.0039143665 -0.004637105 0.07449955 0.013562044 -0.12812936 0.06904055 -0.12713374
0.0074170833 -0.12885775 -0.00040198883 -0.027027436 0.004637105 -0.07449955 -0.0013632936 0.07441209
-0.006012681 0.06505212 0.0042518326 0.16894712 0.06610536 0.070285715 0.04386131 0.0013393686
0.08613397 0.06302319 -0.13841887 -0.13137805 0.06172438 0.16964848 0.018347964 0.0732174
-0.0056806747 0.0099976035 -0.08613397 -0.06302319 -0.006012681 0.06505212 -0.014495495 -0.00019440244
0.06445256 -0.23054504 -0.0023275695 -0.12447941 -0.01105548 -0.008446005 0.027374394 0.026199304
0.038124215 -0.014743084 0.035645932 -0.1990783 0.026014958 -0.1592319 0.01817333 -0.056125566
-0.027374394 -0.026199304 -0.014495495 -0.00019440244 0.04356929 0.12441215 0.099779494 0.016059045
0.033081584 0.000362306 0.013906748 0.03552433 0.08795202 0.06908819 -0.009079412 0.13251938
0.13192673 0.04902525 0.020629782 -0.03300896 -0.0017249354 0.0052384697 -0.08795202 -0.06908819
0.04356929 0.12441215 -0.061691392 -0.05415047 -0.017651668 -0.07578739 -0.058848865 -0.008003529
-0.014731241 0.016368164 -0.05306821 -0.043771286 0.1456817 -0.1079318 -0.09108981 -0.07909975

net.0.bias f4 [256]
00000000: d2fd 79be 30e9 44be 1be2 10be 4706 98be
00000010: 2dcf 89be 2a0b 6bbe feaf 10bf a013 71be
00000020: b3e2 84be ec45 93be 9c9d 86be 5b37 7abe
00000030: 40d8 97be b741 1dbf 9de9 60be 3cfc 81be
00000040: b2f1 a3be 7af1 c3be 75dc a3be f5f9 50be
00000050: 679a 99be 8253 94be 0116 263d 62e3 5bbe
00000060: 4f6f 4bbe 13f1 42be 5363 85be b30a 68be
00000070: 5b02 85be 4478 503e ce83 37be 119d 63be
00000080: caab a9be 0ee4 85be 9f26 1cbf 126f 96be
00000090: 7932 d3be 7b6d 94be e373 0b96 3d2d 87be
000000a0: 5576 90bd aac2 43be 82f3 10bf 8d85 93be
000000b0: 0b30 32be 3cc2 7bbe 1781 81be 8028 47be
000000c0: 113d 50be 0c7c 88be 9081 6cbe 421c 41be
000000d0: 44b2 64be 83c0 1fbe 4a31 44be fc6d 73be
000000e0: befc 96be d30e 77be 3a81 92be 16ee a3be
000000f0: 4cea 96be 04b6 4cbe c799 84be 97ae 3dbe
00000100: e99f 8ebe 36eb 553c d5b9 93be d34b 69be
00000110: 0f84 41be 813d 84be 0962 4dbe 0cab 95be
00000120: 9561 9bbe 59c0 7dbe 96eb 5cbe 603d a2be
00000130: dc33 89be 23c2 82be c091 7abe 797e 5bbe
00000140: 830f 9dbe 960e 8ebe 6ede 3fbe 5221 54be
00000150: 9387 6dbe 6370 44be 2661 9ebe 0001 13bf
00000160: c968 74be 592a 8ebe 88f5 91be dba5 16bd
00000170: 7475 7fbe 529d 08bf 353a 4fbe 8345 a8be
00000180: e1f2 6dbe 3bce 513e 54b2 83be ed41 96be
00000190: e526 6dbe 0d30 ffbe 5967 85be f2c6 1fbf
000001a0: f863 a4be c67c b8be 1e2d 64be b78b 8fbe
000001b0: 407f 6dbe 6ae5 9bbe 1e46 8ebe b2e9 4dbe
000001c0: 4403 74be 1b91 c1be 342b 5abe 13ca b73d
000001d0: a8cc 90be b8a1 95be 9928 89be 857b 3dbe
000001e0: a5f1 8dbe a097 87be d7b4 76be ef7a 92be
000001f0: 97cb 8cbe 83d6 563e 80ab 5bbe 607d adbe
00000200: c993 8abe 2dc6 41be 956b 54bd 3f2d 58be
00000210: 3379 2fbe e4a0 8dbe ba8e 83be 4449 5fbe
00000220: 2bdc 42be 1fcf 54be 2909 83be 468d 9cbe
00000230: 6761 4cbe f796 87be c734 ffbd 22e0 47bd
00000240: 852f 4b3e 09be 67be f4e6 45bd 92e9 9fbe
00000250: d37b 47be 0db2 a0be 28fa 5cbe 1f67 69be
00000260: 8c18 86be ecd6 7fbc df2f 47be e91f 3ebe
00000270: b843 45be 9f1f 90bd 04ad d2bd 29f7 42be
00000280: a0fb 83be ae8c 83be a2e6 84be ecb6 80be
00000290: beba 62be b240 dcbe 7222 d43c 56d7 68be
000002a0: 91b2 68be f9ea c7bc 916e 8abe caed a1be
000002b0: 0b08 52be ef0e 79be 49b7 5ebe c890 4cbe
000002c0: 6eea 41be 15a8 7dbe ea49 87be 63bd cabe
000002d0: 17d6 46be 45f4 b33d df41 89be 84f3 24be
000002e0: 72d8 89be aab0 9bbe 589f 90be 7f83 a5be
000002f0: 925d 6fbe 06cb 9cbe 134e 52be 08e8 7fbe
00000300: 4a6b 25be 782e 14bf cfc7 77be 1a62 4f3e
00000310: fd22 82be 6d53 9cbe 63ad 6cbe 2a59 52be
00000320: f8c1 49be 5eef d4be 4e36 5ebe 3cf8 45be
00000330: 6ef9 15bf caf9 92be 977a 51be de28 73be
00000340: c848 b2be 212c 87be a4f2 4f3e 068d 58be
00000350: 5816 13bf c438 7bbe 8990 86be 1d36 5fbe
00000360: afc7 83be e084 12bf 8fda 7dbe 3835 96be
00000370: bd61 9ebe 6883 85be 2a20 d6be 078d fabd
00000380: 8a1e 94be 3c55 91be 1c0b 59be a995 67be
00000390: 1dd6 96be 78b8 64be 69ce 67be 41ea 7abe
000003a0: 8c50 97be 4e60 50be ad96 b3be 0729 93be
000003b0: 8b85 7cbe a489 9fbe 1079 7dbe 1ee5 63be
000003c0: d973 9cbe 98d3 55be 0599 4f3e 6dd8 98be
000003d0: cd9c 99be f955 78be 75da 93be 1a21 71be
000003e0: 29c1 7bbe 73f7 01be 1c3f febe db0d 83be
000003f0: 37f0 7dbe 648f 87be ce45 17bf 38a7 5fbd
-0.24413231 -0.19229579 -0.14148752 -0.2969229 -0.26915875 -0.22953478 -0.5651854 -0.23542643
-0.25954208 -0.28764284 -0.2629212 -0.24435179 -0.29657173 -0.614284 -0.21964116 -0.25387752
-0.32020336 -0.3827017 -0.32004133 -0.20407851 -0.30000612 -0.2896996 0.04054833 -0.21473458
-0.1986668 -0.19037275 -0.2605234 -0.22660331 -0.2597836 0.20358378 -0.17921373 -0.22227885
-0.33138877 -0.26150554 -0.6099643 -0.29381615 -0.41249445 -0.28989777 -1.1264898e-25 -0.26401702
-0.0705382 -0.19117227 -0.56621563 -0.2881283 -0.1740114 -0.24585813 -0.252938 -0.19449043
-0.20335795 -0.2665714 -0.23096299 -0.18858436 -0.22333628 -0.15600781 -0.19159427 -0.23772424
-0.29489702 -0.24126749 -0.28614217 -0.32017583 -0.2947563 -0.19991308 -0.25898573 -0.18523632
-0.27856377 0.013056567 -0.28852716 -0.22782831 -0.18898033 -0.25828174 -0.20056929 -0.2923206
-0.30347887 -0.24780406 -0.21574244 -0.3168745 -0.26797378 -0.2553874 -0.24469662 -0.21434964
-0.30675897 -0.27745503 -0.18737194 -0.20715836 -0.23196249 -0.19183497 -0.30933493 -0.574234
-0.23868097 -0.27766684 -0.28507638 -0.036779266 -0.24947149 -0.5336505 -0.20237048 -0.32865533
-0.23237182 0.20488827 -0.2572199 -0.29347172 -0.23159368 -0.49841347 -0.2605541 -0.6241294
-0.3210752 -0.36032695 -0.22282836 -0.2803628 -0.23193073 -0.30448467 -0.2778787 -0.20108679
-0.2382937 -0.3780602 -0.21305543 0.089740895 -0.2828114 -0.29224944 -0.26788786 -0.1850415
-0.27723423 -0.26482868 -0.24092422 -0.28609416 -0.27499077 0.20980267 -0.21452141 -0.33884716
-0.27065876 -0.18923254 -0.05186041 -0.2111101 -0.17136078 -0.27661812 -0.2569483 -0.21805292
-0.190293 -0.20782135 -0.25592926 -0.30576533 -0.19959031 -0.26482365 -0.12461238 -0.048797734
0.19842346 -0.22631086 -0.048315957 -0.31232888 -0.19480829 -0.31385842 -0.21579802 -0.22793244
-0.26190603 -0.015615206 -0.19451855 -0.1856686 -0.19264114 -0.07037281 -0.10286906 -0.19039597
-0.25777912 -0.25693268 -0.2595721 -0.25139558 -0.22141549 -0.4301811 0.025895331 -0.22738394
-0.22724368 -0.024404036 -0.2703748 -0.3162673 -0.2051088 -0.24322103 -0.21749605 -0.19977105
-0.18937084 -0.2477115 -0.2642358 -0.39597616 -0.19417606 0.08786825 -0.26808068 -0.16108519
-0.26922947 -0.3040822 -0.2824657 -0.32326886 -0.23375538 -0.30623645 -0.20537595 -0.24990857
-0.16154209 -0.57883406 -0.24197315 0.20252267 -0.2541732 -0.305324 -0.23113017 -0.20541826
-0.197029 -0.41588873 -0.21700403 -0.19332975 -0.58583724 -0.287062 -0.2045692 -0.23746058
-0.34821153 -0.26400855 0.20307404 -0.21147546 -0.5745597 -0.24533373 -0.26282147 -0.21797986
-0.25738284 -0.57234 -0.24790405 -0.29337478 -0.30933943 -0.26076818 -0.41821414 -0.1223393
-0.2892955 -0.2838534 -0.21195644 -0.22615685 -0.2946023 -0.22335994 -0.22637333 -0.24503423
-0.2955364 -0.20349237 -0.35075894 -0.2874224 -0.24660318 -0.311597 -0.24753213 -0.2225537
-0.30557135 -0.20881498 0.20273216 -0.2985262 -0.30002442 -0.24251546 -0.28877607 -0.23547783
-0.24585404 -0.1269205 -0.49657524 -0.25596508 -0.24798666 -0.26476586 -0.5909089 -0.05460283

net.2.weight f4 [256]
00000000: 18e3 583e 4ff5 e73d 6596 4f3e 28a8 483e
00000010: ea1e 383e e7ec 3f3e 7135 a53e 75ff 4c3e
00000020: 9bf5 4c3e 5a31 833e 94fa 2f3e ae3e 0e3e
00000030: b6ee 313e 6298 af3e c0c1 1b3e 912c 6c3d
00000040: 2d6d 5d3e 2da1 123e 1d77 4d3e 761b 273e
00000050: 472a 943e c6e9 6d3e 871d 163d 8b80 cc3d
00000060: b08b 553e fd5b 5c3e 56e3 2b3e c7b3 0b3e
00000070: f295 6a3e 9d66 263e 98e6 063e 60e0 203e
00000080: 9d2b 1c3e faa1 1c3e 4ecd bd3e 2314 1f3e
00000090: 9740 613e 1987 433e d90f fd3e 1bfa 453d
000000a0: ca18 153e fc50 583e 703a 0a3f f981 4b3e
000000b0: 4b44 323e c9d0 9e3d 1ea4 043e c989 003e
000000c0: 9eec 5a3e bdc9 533e e9eb 4d3e b5b3 053e
000000d0: 608e 133e 2213 093f 7fdc 673e 8f4e c13d
000000e0: f691 3c3e 5631 4e3e 997d 3c3e 5b17 433e
000000f0: 4d87 823e a530 143e 9749 523e dc87 593e
00000100: e897 293e 6099 e23c e4f7 563e 9d25 4a3e
00000110: e77b 883e e92f 383e 7933 733e 3d10 473e
00000120: c476 3c3e 3b5c 343e 3ed7 2e3e 7577 833e
00000130: 18c8 013e af33 243e 8168 333e 643c ed3d
00000140: 2c8f 213e a061 283e ca4c 253e d48d 503e
00000150: 54ec 5e3e 057e ab3d 066d 1c3e b55b 8e3e
00000160: 9bb9 f83d ff08 a63d f15a 3c3e 5a5d 0a3f
00000170: 4a78 1a3e 9ead 1b3f a20d 293e 8958 403e
00000180: 7394 0e3e 47ec 203e dec9 0e3e 45c1 5a3e
00000190: 1791 a83d aac7 9a3e 4d24 443e f772 c33e
000001a0: 1a57 713e db57 993e bfcd 093e 9a5f 663e
000001b0: c793 3b3e 504e 203e a422 c93d 9e70 073e
000001c0: 4f91 333e afa3 343e 78aa 273e 076f 0a3d
000001d0: 0b15 8d3e 527f b43d 13bd 033e 45a7 113e
000001e0: aebf 0c3e 3f4e 393e c688 f63d 206b e43d
000001f0: b742 0e3e 9890 293e 7d98 263e d2c1 143e
00000200: 61f3 293e 4b2b f43d 0d50 f23e ca1c 963d
00000210: d9a6 863d e72f 203e 75e3 353e 16dd 183e
00000220: 48bf 6c3e dda9 153e 1f41 2d3e e75b 3a3e
00000230: 8dc6 583e f5df 263e 8ee0 3e3e b1d5 263e
00000240: 1533 213e a05a 203e e595 fd3d d8c3 e23d
00000250: 1a8d 5a3e 4189 213e a660 cb3d febb ee3d
00000260: 139b 383e c642 073f 5559 233e 2ff1 493e
00000270: a9aa e83d 881f 2c3e b529 bc3d d872 163e
00000280: 2f65 123e 7f7a 223e 233b 413e f713 d03d
00000290: 52cd 103e 5b2e 4e3e a632 3c3d 1d3c f03d
000002a0: d265 323e 6a0e 133f 248a f13d 36ef 2d3e
000002b0: 3bc6 3a3e 75c2 5b3e 59c5 1c3e 607c 743e
000002c0: 6ba2 0a3e bed1 543d add2 323e 0fbd e93e
000002d0: f4c9 5f3e 7420 093d 70e6 4b3e bd4e a33d
000002e0: 9bea 953d 010d 223e fa4a 493e 3fa4 323e
000002f0: caf0 223e 69c0 e13d 1d72 3a3e c25d 1b3e
00000300: 1f87 a33d 7468 ac3e f16d 083e d791 213e
00000310: 7ae3 bd3d 2813 68be 03a1 cc3d e62e 783e
00000320: d5fa 853d 7a21 ce3e 8d86 683e fef5 353e
00000330: d304 053f 9986 ff3d 34c8 073e 2c33 203e
00000340: 7668 403e 0ab0 013e 7b42 223e 09c0 403e
00000350: 2ef5 9c3e cc26 f83d b52e 333e b224 f73d
00000360: 8102 493e c46c ef3e 8c4f 223e f202 5e3e
00000370: 6060 443e f8ad 053e 97d4 753e 2a03 dd3d
00000380: e13e 163e f543 483e 179d 0c3e 8504 043e
00000390: 9095 423e 67a7 223e f412 3d3e 9585 2c3e
000003a0: 67fc f63d 9306 ac3d 8aa1 403e 43f8 4a3e
000003b0: 628e b53d b259 3c3e a7e5 183e 4300 e33d
000003c0: 8f94 773e 85f0 ff3d 74d6 223e 84d1 593e
000003d0: a2fb 513e 4c55 503e 6d27 113e 5acd 313e
000003e0: 5192 ff3d bbf8 2c3e 9030 4d3e c915 133e
000003f0: b431 0a3e 80e8 2c3e 4dad ae3e 591f 013e
0.2118038 0.11326086 0.20272215 0.19595397 0.17980543 0.18742715 0.32267335 0.20019324
0.20015566 0.2562359 0.17185432 0.13891098 0.17376217 0.34295946 0.15210629 0.05765969
0.21623679 0.14319296 0.2006497 0.1631907 0.28938505 0.23233709 0.036649253 0.09985455
0.20854068 0.21519466 0.1678594 0.13642798 0.22908762 0.16250081 0.13173902 0.15710592
0.15251012 0.15296164 0.37070698 0.15535025 0.21997295 0.19094504 0.49426153 0.048334222
0.14560238 0.21124643 0.5399542 0.198738 0.17408864 0.07754666 0.1295323 0.12552561
0.21379325 0.20682426 0.20109524 0.13056834 0.1440978 0.5354482 0.22642706 0.09438812
0.18415055 0.20136008 0.18407287 0.19051878 0.2549385 0.14471681 0.20535885 0.21243232
0.16561854 0.027661026 0.20993 0.19740911 0.2665703 0.17987026 0.23750104 0.19439788
0.1840468 0.17613308 0.17074296 0.25677076 0.12673986 0.1603534 0.17520334 0.11583784
0.15777272 0.16443491 0.16142574 0.20366603 0.2176984 0.08373646 0.15275964 0.27804342
0.121447764 0.081071846 0.18394066 0.54048693 0.15084949 0.60811794 0.16509107 0.18783773
0.13923816 0.15715133 0.13944194 0.21362789 0.08230799 0.30230457 0.19154473 0.3817365
0.23568383 0.2994984 0.13457392 0.22497407 0.18318091 0.15654874 0.0982106 0.13226554
0.175359 0.17640565 0.16373622 0.03379729 0.27555117 0.08813347 0.12865095 0.14223965
0.13744995 0.18096255 0.12037806 0.11153245 0.13892637 0.16559064 0.16269107 0.14527062
0.16596748 0.1192232 0.473267 0.0732971 0.065747924 0.15643273 0.17762549 0.14928088
0.23119843 0.14615579 0.16919373 0.1819912 0.21169491 0.1629637 0.18640348 0.16292454
0.15742142 0.1565957 0.12382106 0.110725105 0.21342888 0.15775014 0.099305436 0.116569504
0.18027906 0.52836263 0.15952046 0.1972091 0.11360676 0.16808903 0.091876425 0.14692247
0.14296411 0.15867041 0.18870215 0.10160058 0.14140823 0.2013487 0.04594674 0.11730216
0.17421654 0.5744387 0.11793926 0.16985783 0.18239681 0.21460898 0.15309657 0.2387557
0.1353852 0.05195784 0.17463179 0.45652053 0.21854383 0.033478215 0.19912124 0.079740025
0.07320138 0.15825273 0.19657508 0.17445467 0.15912166 0.110230274 0.18207593 0.15172485
0.07984757 0.3367344 0.1332319 0.1577829 0.09271903 -0.22663558 0.09991648 0.2423664
0.06541983 0.40259916 0.22707577 0.1776962 0.51960486 0.12476844 0.13259965 0.1564452
0.18789849 0.1266481 0.15845673 0.18823256 0.30655807 0.12116775 0.17498286 0.12067546
0.19629861 0.4676267 0.15850657 0.21680811 0.19177389 0.13054645 0.24006878 0.10791619
0.14672424 0.19557174 0.137318 0.12892349 0.19002366 0.15884171 0.18464261 0.16847833
0.12059861 0.083996914 0.18811622 0.19821267 0.08865048 0.18393591 0.14931355 0.11084034
0.24177764 0.12497047 0.1590212 0.2127133 0.20506147 0.20345038 0.14175196 0.17363492
0.124790795 0.16891758 0.20038056 0.14363779 0.13495523 0.16885567 0.34116593 0.12609614

net.2.bias f4 [256]
00000000: 05ce 403d 51a1 703c d103 7a3c d964 533d
00000010: e414 1a3d 8cca 0c3d 03e5 953d f669 1c3d
00000020: 31d7 413d f21c 6b3d 993f 1d3d d52b b23c
00000030: 0f8f 443d 30bb 9d3d a6a3 ef3c 5a02 79bb
00000040: 4534 243d 8a35 c43c 949f 5e3d 11d8 0c3d
00000050: a258 9b3d a87d 673d b897 61bd 3e07 803b
00000060: 659e 023d 88e5 193d 070a 163d b70d e63c
00000070: dd79 4e3d 12e4 07bf ca66 e43c df00 153d
00000080: 60e3 193d 31c2 1f3d b9bb b23d 2d34 0f3d
00000090: ba2b 1b3d 6e63 4e3d 6ad2 0b3e ec26 1f3c
000000a0: 0582 c53c 9b37 103d 1dad 113e 655f 5f3d
000000b0: 613f 0b3d d4b5 3a3c 40bc 223c 4143 a9b9
000000c0: 5fc2 0c3d 3a89 4d3d 9978 3b3d b574 ab3c
000000d0: 98e9 093d 6262 1b3e a5ad 093d 2426 a63c
000000e0: e0d2 2a3d 2a73 5b3d 73e1 213d eaca 573d
000000f0: 5a66 803d bd3c 0a3d 62b7 313d 798b fe3c
00000100: 7385 133d adac 9abd e391 6f3d 16f1 463d
00000110: 6baa 4c3d 6563 493d cb4b 213d 8833 2f3d
00000120: 2e62 2a3d f10c 193d 05fb 2b3d b4ae 893d
00000130: 362d 073d 9deb 083d d0a6 143d 712d b33c
00000140: b400 2e3d e41b 253d 8551 1d3d 5f1f 0d3d
00000150: 7943 573d f1af 873b 6e83 163d 9eaa 883d
00000160: a596 bf3c d113 153c 6452 4d3d 1f1f 193e
00000170: 9c44 073d d92a 2c3e 88e4 d53c c4b2 103d
00000180: 7daf da3c 1934 05bf 02ac 873c a3bf 5d3d
00000190: 3758 023c f359 8d3d f4ea 213d c934 c73d
000001a0: 1cae 6f3d a654 943d dabb e13c 776d 7f3d
000001b0: abd6 393d f9bd 113d e069 733c bab0 873c
000001c0: 4b18 fd3c cfe1 db3c 9b39 1e3d 6970 82bd
000001d0: 5147 8f3d 1b69 5b3c 8c10 9a3c 24f2 b93c
000001e0: 8fb1 023d 9060 0e3d eaeb 9c3c 06b7 9c3c
000001f0: 769b 253d 8236 0bbf 5ff9 ec3c d974 b63c
00000200: bc40 213d b1eb 9f3c 337c 043e eb11 113b
00000210: 4ee8 04bc 632f 0b3d b2db 333d 4635 f63c
00000220: db10 123d 5643 da3c 4ce9 183d b481 253d
00000230: 6d9e d83c da79 073d a026 343c a014 103c
00000240: b0ea 07bf 11c5 213d 62d7 69bc 1a4e 9a3c
00000250: ed22 223d fd57 023d f020 203c 86a2 853c
00000260: b07c 193d 8307 183e 4a8c b83c 0134 073d
00000270: 3573 953c 3968 153c 7173 df3b 6258 e03c
00000280: b490 1a3d 7878 123d 0c98 1b3d e89e c2bb
00000290: e27b 1e3d b1c9 393d ad81 87bd 0d5e 693c
000002a0: 781f f23c 004c 263e 7f18 b13c bc10 203d
000002b0: b159 1f3d 4ba6 4e3d fa97 d23c dca1 233d
000002c0: ae4f ce3c e3e7 7cbc 4345 093d a194 f03d
000002d0: 12f6 ee3c 4c6c 69bd d278 3a3d f806 963c
000002e0: 9ffe 083c 3b18 cb3c 1d77 443d b5de 493d
000002f0: 39b9 1b3d 2294 ca3c 671e 293d 3568 0f3d
00000300: 0b23 e23b 216a a13d 53fa a73c 1db0 05bf
00000310: d4d1 a23c 2dd3 70bd 83e7 393c af35 113d
00000320: 9160 103c 179a dc3d 7afd 4b3d 7bd5 303d
00000330: 129a 0f3e f907 d53c 445e 7f3c 98f5 073d
00000340: 9c23 403d 31d0 fc3c 4285 04bf 4d2f 503d
00000350: a80d 853d 7563 f93b 5cc3 5a3d f014 9b3c
00000360: 2dff 4c3d 849e f83d 3bfc 203d bbf8 503d
00000370: fce9 243d c7e2 d63c dd16 373d 7b2f 293b
00000380: e3d5 673c 118e 543d bc9e 003d f831 c03c
00000390: 4ec4 4c3d e765 d93c 71ab 413d 8d10 203d
000003a0: 3054 8d3c 3919 463a 8ba0 153d 49ea 443d
000003b0: 1ed1 223c 3870 403d d0bf 0a3d b53f 973c
000003c0: 86b5 6c3d 016d 023d a9d9 06bf 7920 483d
000003d0: baa2 3b3d edce 483d 6bd6 013d a7b4 0e3d
000003e0: 7759 1a3c dccd b13c 1f5a 143d d43c c83c
000003f0: 8cfe f33c 76ad 0c3d 1358 9c3d 3dda 94bc
0.047071476 0.014686898 0.015259699 0.051609848 0.03761758 0.03437285 0.07319071 0.03818699
0.047324363 0.05740065 0.03839073 0.021749416 0.047987994 0.07701719 0.029252838 -0.0037995786
0.04008891 0.02395131 0.054351404 0.034385744 0.07585265 0.05651632 -0.05507633 0.0039071133
0.031889338 0.037572414 0.036630657 0.028082712 0.050409187 -0.5308238 0.027881045 0.036377784
0.037570357 0.039003555 0.087272115 0.034961868 0.037883498 0.050387792 0.13654485 0.00971387
0.02410985 0.03520928 0.14226194 0.054534335 0.03399599 0.01139589 0.009932578 -0.000322843
0.034365054 0.050179698 0.045769308 0.020929674 0.033670038 0.15174249 0.033612866 0.020281859
0.041705012 0.053576626 0.039521646 0.05268375 0.06269522 0.03374933 0.043387778 0.031072365
0.03601594 -0.075524665 0.058488738 0.04856976 0.04996721 0.049167056 0.039378922 0.042773753
0.041597538 0.037365858 0.041987438 0.06722775 0.0330021 0.033427823 0.036291897 0.021872254
0.04248114 0.0403098 0.03840782 0.034453746 0.05255458 0.004140847 0.036746435 0.06673168
0.023387263 0.009098963 0.050127402 0.14953278 0.033024415 0.1681322 0.026109949 0.035326734
0.026695007 -0.5203262 0.016561512 0.054137837 0.007955602 0.06901922 0.03953071 0.09726865
0.058515653 0.07242708 0.027555395 0.062360253 0.04537074 0.035581563 0.014856786 0.016563762
0.030895373 0.026841072 0.038629156 -0.06369097 0.069960244 0.013391758 0.018806718 0.02269847
0.031907614 0.034760058 0.019155461 0.019130241 0.040431462 -0.5438005 0.028927503 0.022272514
0.039368376 0.019521566 0.12938003 0.0022135924 -0.008112026 0.03398074 0.04391069 0.0300547
0.035660606 0.026643436 0.037331864 0.040406898 0.02644273 0.03307519 0.010995537 0.00879398
-0.5309248 0.039494578 -0.014272543 0.01883607 0.03958409 0.031822193 0.009773478 0.016312849
0.037472427 0.14846615 0.022527833 0.03300858 0.018243412 0.009119087 0.0068191816 0.027385894
0.037735656 0.03575942 0.0379868 -0.0059393533 0.038692363 0.045358364 -0.066165306 0.014243615
0.029556021 0.16239929 0.021618126 0.03907846 0.038903896 0.050451558 0.025707234 0.039949283
0.025184479 -0.0154361455 0.03351332 0.11747099 0.02917007 -0.056988046 0.04552538 0.01831387
0.008361488 0.024791827 0.047965158 0.049284656 0.03801844 0.024728838 0.04128876 0.03501149
0.00690115 0.078815706 0.020505106 -0.5222185 0.019875444 -0.058795143 0.011346701 0.035451587
0.008812086 0.10771578 0.04980228 0.04317234 0.14023617 0.026004778 0.0155864395 0.0331932
0.04690896 0.030860992 -0.51765835 0.05082636 0.06496745 0.007610733 0.053408965 0.018930882
0.050048042 0.121396095 0.039303046 0.051018458 0.040262207 0.026231183 0.04469954 0.0025815654
0.014150116 0.051893298 0.03140138 0.023461327 0.0499919 0.026537849 0.04728264 0.039078284
0.017252058 0.0007556859 0.03653006 0.048074994 0.009937553 0.04698202 0.033874333 0.018462995
0.0577903 0.031842235 -0.52675873 0.048859093 0.045809485 0.049025465 0.031698626 0.034840252
0.009420744 0.021704607 0.03621876 0.024443068 0.029784463 0.034345113 0.07633986 -0.01817047

net.4.weight f4 [256, 256]
00000000: 8108 b9bc 1eda 633c 22e8 02bc 0662 7a3d
00000010: ecd0 05bc 8c34 e03c 9e32 583d dba8 2e3c
00000020: a167 083d 8e8b 893b 6998 973c 1a83 643d
00000030: dedd 90bb 0ed3 a33c 1cf9 3c3b 4222 933c
00000040: 9900 7f3d d3d4 c4bc 026e ecbc 01d1 663c
00000050: fb78 1bbc a6f2 86bc e53f fa3c 3a88 e13a
00000060: 4cc6 1bbc b9b9 65bd 4f5f 413a cc6c d23b
00000070: ee41 f73b 61e2 733d 853d ebbc fe01 3a3c
00000080: d423 a13c 8332 c4ba 7212 0fbc 2085 3b3d
00000090: 59b0 17bb ef81 f13a 2dc3 2fbb 77ce e6ba
000000a0: 5c28 babb b5d7 2a3b 93fd fbbc 2283 89bb
000000b0: d25e 90bb 8081 693c 7c6b f93b 6b9a ba3c
000000c0: b2e6 fdbc 88e2 533c 123f 10bc aea9 473c
000000d0: 7bbc c0bc 25d6 833b fbac 97bd 5811 1fbd
000000e0: 4f87 1d3d 55af 61bc 2ba0 d63c 6e02 2ebb
000000f0: e2a7 04bb 07d3 9dbb 05fb a6bc 67a5 59bc
00000100: 1657 e13c 7c6f 733d d65d 06bc 446f fbbb
00000110: 8984 54bd 0002 debb 0c64 6cbd 05d3 cf3c
00000120: 2283 85ba a978 40bd 313b 7abd 70ac ad3b
00000130: 9f19 e6bb 2438 d53a f331 95bc 3db8 83b9
00000140: 36c6 9a3c fa9c a4bd ed1c 993b 431e a2bb
00000150: 995a f3b8 f928 be3c 1946 51bc 3c22 2ebc
00000160: dc95 9ebd 74b6 0ebc 99be 3d3b b724 9bbb
00000170: ea18 ac3c 09b3 2c3c 8955 bebc 2ebf 0e3b
00000180: 82f0 e6bc e296 343d 711a 9a3b d162 7a3c
00000190: e7d2 98bc e9e9 b53c d909 43bb 6a32 973c
000001a0: 1fc6 0abc 8fe3 29bc e521 c33c a4ae 253b
000001b0: 1da6 c13c 5d80 0cbc 1d75 f43a 75dd 80bd
000001c0: 5fe1 17bd 1e6b 453d 3de0 25bc a5da a3bd
000001d0: dd53 2039 3a47 6e3b f06e 0dbc c226 cf3c
000001e0: eff3 8d3c ebdf ffba f09f 2c3d 608e 00bc
000001f0: b408 953c 1b82 5b3d 8b9c 09bc 961d e53c
00000200: a49a d1bc b571 8cbd a9a2 a2bb 8279 f1ba
00000210: 31bb 753a 9758 8c3c 5ba5 a1bd 9e0f 063d
00000220: f08a 0fbc 7c4a 0e3c 3cd4 373c 74c4 d23c
00000230: a683 8abc 56f3 3c3a 234b 9bbd 7e29 8bbc
00000240: 2139 4abc daed 84bc aef2 05bd b693 ffba
00000250: 9627 abbc a480 3d3b 2f79 913b 2ada 683b
00000260: 9f1c 89bc 98bd 253c f220 66bc 2c5b 80bc
00000270: 0d60 0fbc d5a4 5f3b d997 1dbd 5869 8a3a
00000280: 58c5 363c d067 b6bc 7d8e 3abc f31e 5bbc
00000290: 660d 0f3d 47db 64ba da76 b93d 31ec 0e3b
000002a0: 67b5 00bc 0ad8 403b 5d11 0d3d 23f2 c8bb
000002b0: a6c2 9d3d d2e0 08bc 44f3 c1bb d008 6bbd
000002c0: a459 a0bd de2c 243b b89f 77bb 5a26 21bd
000002d0: 9cd9 0dbd 0f51 e5bc f822 10ba c102 e2ba
000002e0: ebac 11bb 71ac edba 26a1 9cbc d361 2cbd
000002f0: 8fb1 8a3c b803 f63b 6125 003a 2c64 e9b9
00000300: 8aa8 db3c 2fde 713c 86c2 bfbc d81f afbc
00000310: b327 513c 58ec 463b 8c26 7a3d a416 73bd
00000320: 1f06 86bb 28f7 81bc 0173 8cbd f17d 52bd
00000330: b08e 1abd b779 e73b 2784 b8bc 09aa 40bb
00000340: 1396 293d f3ef 3fbb 95ef 77bb 1952 803b
00000350: ef35 a43d 1189 853c 6e27 92bc a2c8 8d3b
00000360: 3977 d53a a135 a83d 8c39 1ebb f1df 623d
00000370: 5e01 8e3d 8751 50ba ce02 523d 3488 25bc
00000380: 99df e03c ff4c 533b 4488 463c 209d f7bb
00000390: 4ef0 2c3c 3e6d 6abc 106f b5bc 5be8 f9b9
000003a0: 14da 7a3c 5944 32bb 5d4e 873d b6bc 2bbc
000003b0: 84cd d43c 5244 1e3b 3440 d43b e4fb a03b
000003c0: 2eb7 1cbc 8465 8a3c d25f 27b9 ea23 21bb
000003d0: 4910 083b 7550 b2bc c36f d4bc 60e9 a13a
000003e0: d342 953c 1af9 073d f1a7 0e3c 3ad2 a4bc
000003f0: c42a ebba e376 1ebc c703 603c 8ebb baba
-0.022587063 0.013906984 -0.007989915 0.06112864 -0.008167487 0.027368806 0.052782647 0.0106603755
0.033301953 0.0041975444 0.018505292 0.05578909 -0.00442098 0.0199981 0.0028835004 0.017960671
0.06225643 -0.024027264 -0.02886105 0.014087916 -0.009489293 -0.016473126 0.030548045 0.0017206736
-0.009507727 -0.056085322 0.0007376568 0.006421661 0.007545701 0.059542064 -0.028715858 0.011353014
0.019670404 -0.0014968667 -0.008732425 0.045781255 -0.0023145883 0.0018425564 -0.0026819215 -0.0017609139
-0.0056810807 0.0026068513 -0.030760562 -0.0041965405 -0.0044058347 0.014252067 0.00761169 0.02277871
-0.030993793 0.012932427 -0.0088041 0.012186451 -0.023527374 0.0040233308 -0.0740604 -0.0388349
0.03845912 -0.013774713 0.02619942 -0.0026551741 -0.0020241668 -0.004816416 -0.020383367 -0.013284064
0.027507346 0.05943249 -0.008201083 -0.007673176 -0.051884208 -0.0067751408 -0.0577126 0.025369177
-0.0010186175 -0.04699007 -0.061091606 0.005300097 -0.0070220972 0.0016267342 -0.018212294 -0.00025123535
0.018893342 -0.080377534 0.0046726377 -0.004947455 -0.00011604018 0.023212897 -0.01277306 -0.010628279
-0.07743427 -0.008710492 0.0028952716 -0.0047346014 0.021007974 0.010540732 -0.023234146 0.0021781432
-0.028190855 0.044089206 0.004702859 0.015282349 -0.018655254 0.022206264 -0.0029760508 0.018456656
-0.008470087 -0.010369196 0.023819873 0.0025281096 0.02363878 -0.008575526 0.0018650625 -0.062922396
-0.037080165 0.048197858 -0.010124263 -0.080006875 0.0001529003 0.0036358372 -0.008632407 0.025287036
0.01732823 -0.0019521689 0.042144716 -0.007846445 0.018192627 0.053590875 -0.008399139 0.02796821
-0.025586434 -0.068576254 -0.0049632383 -0.0018423053 0.0009373902 0.017132087 -0.07892867 0.032729737
-0.008761153 0.008684751 0.011220034 0.025728442 -0.016908478 0.0007207891 -0.075826906 -0.016987558
-0.012342722 -0.016226698 -0.03270214 -0.0019498977 -0.0208929 0.0028915787 0.004439495 0.0035530427
-0.01673728 0.010116003 -0.014045941 -0.015668474 -0.008750928 0.0034125347 -0.03847489 0.0010559959
0.011155449 -0.022266299 -0.011386511 -0.013374078 0.034924887 -0.00087301846 0.09055872 0.0021808262
-0.00785575 0.0029425644 0.034440387 -0.0061323806 0.07703142 -0.008354383 -0.005918892 -0.05738145
-0.078295976 0.0025051157 -0.0037784409 -0.039343216 -0.034631357 -0.027992753 -0.0005498375 -0.0017243252
-0.0022228311 -0.0018133057 -0.01911981 -0.04208548 0.01693037 0.0075077675 0.00048883824 -0.00044515857
0.026813764 0.014762445 -0.023408186 -0.021377489 0.012765813 0.0030353274 0.061071917 -0.059347764
-0.004090085 -0.015864924 -0.06857873 -0.05138964 -0.037733734 0.00706407 -0.022523953 -0.0029398224
0.041402888 -0.0029287308 -0.003783201 0.003916037 0.080180995 0.01630071 -0.017841067 0.004326896
0.0016286141 0.08213354 -0.0024143187 0.05538935 0.069338545 -0.0007946719 0.051272206 -0.010103274
0.02745037 0.0032241938 0.012117449 -0.0075565726 0.01055534 -0.014308272 -0.022147685 -0.000476661
0.015310783 -0.0027201383 0.066067435 -0.010482004 0.025976904 0.0024149609 0.00647738 0.00491284
-0.009565158 0.01689411 -0.00015962057 -0.0024588057 0.002076166 -0.02176688 -0.025932198 0.0012352876
0.01822034 0.033196546 0.008707033 -0.020119775 -0.0017941822 -0.0096718995 0.013672776 -0.001424657

net.4.bias f4 [256]
00000000: 61e5 28be 7a6d c7bd 66c0 d4bd 4da8 b6bd
00000010: f41d dbbc 5d53 c4bd b39b 93bd 8678 dbbd
00000020: eb3f b2bd 46a0 bbbd 8486 a5bd 0ad6 d2bd
00000030: a152 f2bd 5297 f5bd db37 aebd edd6 c93b
00000040: 30f2 fabd ed18 ccbd c6ce bbbd d228 c0bd
00000050: fe2f 8dbd e3f0 06be 7fe8 1fbd 8f7f ecbd
00000060: 994c fbbd 3b6a b5bd 3fb1 2ebe 75ed dfbd
00000070: 3509 9cbd 76bb e8bc 088a 6cbd dc7f 33b9
00000080: 2603 8dbd 3864 eebd e3db bcbd b3e4 15bb
00000090: 30c0 b4bb 6ff0 32bc 94a3 1abe ec45 69bd
000000a0: a593 4cbd aacd ebbc 623e 9fbd 52dd 94bd
000000b0: 3aee c4bd 9f96 08be f4ff 64bd a0b0 90bd
000000c0: c1d5 2bbd d162 59bd d9b1 8ebd 4257 bbbd
000000d0: 2f35 12be 9fbb c7bd 1934 b5bd 738a 78b8
000000e0: 3136 95bd 546d 5d3b 0ff4 36bd b9b0 41be
000000f0: 9c6e a4bd 5dcc 88bd ac57 96bd 85e2 cbbd
00000100: 7380 a1bd de23 45bd 3a58 cbbd dbe2 4bbd
00000110: 35cc b53b 99f7 afbd 7677 80bd 4519 05be
00000120: b9d4 c5bd 6973 e7bd f3fb 59ba 2139 95bd
00000130: ef3f 2ebd 3107 efbd 3c91 a8bd 19d5 8abd
00000140: 11b8 ffbd eef2 39bd 3dfd 31bd 2e4a aabc
00000150: 6b75 b6bd ad1d 35be 96c5 9bbd be0c 0ebe
00000160: 8238 22be d5f2 85bc dedb d3bd 3874 d9bd
00000170: 28d6 f0bd 5f2a 85bd 26b3 ecbd d619 afbd
00000180: c00e acba 7cae 44bc 9ace 4ebd 0168 8cbd
00000190: bb53 03be 5c08 90bd ad73 8aba 35ab 65bd
000001a0: 8f39 0ebe 4d69 d9bc 1bd4 a3bd 3a36 b8bd
000001b0: 7c0d a4bd b192 8bbd b1dd 71bd b85c 85bd
000001c0: 5ae2 79bd 0e14 a4bd 3f06 b4bd def5 92bd
000001d0: c910 f5bb 5b0f e7bd d550 cebd 93ba 50bd
000001e0: 473a a6bd 9dae cabd 0b96 67bd c6f4 abbd
000001f0: 43fa d8bd f842 c6bd 1855 f9bc 4fd9 8ebd
00000200: 94ad 30bd 1fd2 7bbd eaca d0bd d64d 9cbd
00000210: 8e74 85bd 6255 b6bc db1a acbd 754c 94bd
00000220: bf3b f0bc fa1a 72bd 2e45 57bd 358a b0bd
00000230: ee91 abbd 52d1 1dbe 73f6 aabd d1f4 59bd
00000240: c3d3 f9bd d598 a2bd 835e 9bbd 3961 8abd
00000250: 8ed6 e4bd 1007 09be 2ed5 4bbe baec 3fbd
00000260: 5644 56bd c9ee b6bd 9179 a0bd f5af 08be
00000270: c7cb 9dbd bcd7 0cbe be1e d6bc 4922 53bc
00000280: c4d6 90bd 9674 bfbd fd93 b2bd 7021 2bbe
00000290: 67c6 1bbe 2922 c3bd 6d2a 98bd bf86 7fbd
000002a0: a397 b5bd 9f94 7dbc 4f58 dabd c9a7 87bd
000002b0: 2ae2 d1bd f06d bcbd 29f2 a4bd c3a0 93bd
000002c0: b8f2 d1bd e526 5dbd a02b e0bd 1702 87bd
000002d0: f87d 9dbc 5aa8 abbd 78f3 d1bd f79c a7bd
000002e0: c4c6 4bbd cb12 b3bd 47f5 babd 8c76 a1bd
000002f0: 77a0 d8bd c359 8cbd 9f8b 94bc dc7c c93b
00000300: 8ee4 f0bd 1edf e4bd ef81 99bd 71dd 91bd
00000310: 6fc4 f9bc 790e 93bd d3b7 dfbd 7104 98bd
00000320: 3498 cabd efd3 0bbd 2aad 92bd 6d32 8abd
00000330: 1d1c b2bd 1353 95bd 6abd 06bd 9c81 f0bd
00000340: e326 fabd 208a 55ba b402 a1bd a7d6 cebd
00000350: b0fd c5bd 4706 04be fc2f b7bd 5288 f9bd
00000360: b43f e6bd 109e cbbd 58c4 7abd 1c6f f0bd
00000370: 4fc6 60bd 6c5c 07be b8ca 14be 5021 96bd
00000380: a04d f3bd 7076 d5bd 7e13 5fbd 661e 20be
00000390: b7a4 a1bd 3ee8 9ebd e2d6 86bd 04f2 babd
000003a0: 0c67 81bd 829d 6dbd ff9d 8bbd 2cbd f7bd
000003b0: 62ee b0bd 7b7b b2bd 9dd4 b8bc 2d1c 22be
000003c0: 271c 2ebd 8200 e3bc a275 52bd 92f8 63bd
000003d0: d5b3 21be da3e ecbd 6ade a7bd 5c84 70bd
000003e0: 8507 98bd 33bd 15bd eaa0 00be 887c 5bbd
000003f0: 0ecf b7bd 66af 98bd 1fb1 7dbd 649e 938e
-0.16493751 -0.09737678 -0.103882596 -0.089188196 -0.026747681 -0.09586213 -0.07207432 -0.107163474
-0.08703598 -0.09161429 -0.080822974 -0.10294731 -0.118321665 -0.11991753 -0.08506747 0.0061596544
-0.12253225 -0.09965692 -0.09170298 -0.09382786 -0.068939194 -0.13177828 -0.039040085 -0.11547767
-0.12270469 -0.088581525 -0.17059802 -0.10933963 -0.076189436 -0.0284097 -0.057748824 -0.00017118402
-0.06885366 -0.11640209 -0.092216276 -0.002287191 -0.0055160746 -0.010921582 -0.15101463 -0.05695145
-0.049945492 -0.028784592 -0.077755705 -0.07268776 -0.096157506 -0.13338707 -0.05590816 -0.070649385
-0.0419519 -0.053072754 -0.069675155 -0.091475025 -0.142781 -0.09752583 -0.088478275 -5.925675e-05
-0.07285727 0.0033787088 -0.044666346 -0.1891507 -0.080289096 -0.06679604 -0.07340941 -0.099553145
-0.07885828 -0.04812991 -0.09928937 -0.049776893 0.005548025 -0.085921474 -0.06272785 -0.12997921
-0.09659714 -0.113013096 -0.00083154364 -0.07286287 -0.04254144 -0.116712935 -0.08230826 -0.067789264
-0.1248628 -0.04539769 -0.043454397 -0.020787325 -0.089091145 -0.17687102 -0.07606046 -0.13872048
-0.15841869 -0.016351143 -0.10344671 -0.1061787 -0.11759597 -0.06502222 -0.11557607 -0.0854985
-0.0013126954 -0.012004491 -0.05049 -0.06855775 -0.1282491 -0.070328444 -0.0010563039 -0.05607148
-0.13889144 -0.02653947 -0.0799944 -0.08994718 -0.080103844 -0.068150885 -0.059049312 -0.06511825
-0.06100688 -0.08011638 -0.08790254 -0.07175802 -0.0074788076 -0.11282226 -0.10074011 -0.05095918
-0.08116584 -0.09896586 -0.056539577 -0.08396296 -0.10594609 -0.09680742 -0.030436084 -0.06975042
-0.043134287 -0.061479684 -0.10194953 -0.076320335 -0.06516372 -0.02225751 -0.0840356 -0.072411455
-0.029325364 -0.059107758 -0.05255621 -0.08620111 -0.08377443 -0.1541188 -0.08347788 -0.05321199
-0.121985935 -0.07939307 -0.07586386 -0.06756825 -0.111737356 -0.133816 -0.1990554 -0.04685662
-0.052311264 -0.089322634 -0.07835687 -0.13348372 -0.07704883 -0.13754171 -0.026137706 -0.012886592
-0.07072213 -0.09348409 -0.08719633 -0.16711974 -0.15212403 -0.09528 -0.07429967 -0.062384363
-0.08866813 -0.015477329 -0.10661375 -0.06623799 -0.102482155 -0.092006564 -0.08054001 -0.07208397
-0.10251373 -0.05399217 -0.10945821 -0.065921955 -0.019225106 -0.0838172 -0.10251516 -0.081842355
-0.049750105 -0.08743819 -0.09128814 -0.07883939 -0.10577481 -0.06853058 -0.018132983 0.0061489176
-0.11762343 -0.11175369 -0.07495486 -0.07122315 -0.030489175 -0.07180495 -0.109237336 -0.07422722
-0.09892312 -0.034137663 -0.07161935 -0.06747899 -0.086967684 -0.07291236 -0.032895483 -0.11743471
-0.12214448 -0.00081458874 -0.07861844 -0.100995354 -0.09667528 -0.1289302 -0.08944699 -0.12184204
-0.11242619 -0.099422574 -0.061222404 -0.117399424 -0.05487662 -0.1321885 -0.14530456 -0.073305726
-0.1188004 -0.10422981 -0.05446195 -0.15636596 -0.07892745 -0.077591404 -0.065839544 -0.09128192
-0.06318483 -0.05801154 -0.06817245 -0.120966285 -0.08639218 -0.08714958 -0.02256232 -0.1583106
-0.042507317 -0.027710203 -0.051381715 -0.055656977 -0.15791257 -0.115354255 -0.08196719 -0.058719978
-0.07423309 -0.036557388 -0.12561384 -0.05358556 -0.089750394 -0.074553296 -0.061936494 -3.6390822e-30

net.6.weight f4 [256]
00000000: 8d7b 023f acd8 8b3e 2c53 7c3e bc23 823e
00000010: a7b2 893e e963 d63e 8b4b a63e c79e b83e
00000020: 90fc 883e d925 a03e e02f 863e aff1 ae3e
00000030: bcf9 b93e 7d62 a13e b120 853e 88ff 7c3e
00000040: f3d4 e93e a3dd 9b3e c29c de3e 0cb8 b13e
00000050: 96b4 953e c9e1 f43e c5c7 853e 4566 723e
00000060: ebc3 b83e c95f c03e 25ce c03e 8adc b13e
00000070: b041 ab3e ee47 863e 9da4 8f3e 0bf7 f33e
00000080: 0a3c a13e 59bb 9e3e 421a a43e 2427 df3e
00000090: 97c0 d13e af70 8e3e 15b7 0c3f 9952 ae3e
000000a0: 0ad3 643e 7d1c c43e afb5 e33e 6734 a03e
000000b0: 6e15 b73e f67a 713e 4741 4e3e 292f ce3e
000000c0: e141 b13e 88f3 963e 968f c83e c336 cb3e
000000d0: 7c08 ca3e ada8 a03e f402 d43e 270a ec3e
000000e0: c935 8d3e e10e 383d 60ac 8e3e a2cf 0d3f
000000f0: e08a 9c3e 51e5 e63e a330 853e 9b3a 833e
00000100: fb17 833e 8eb6 6c3e c825 923e b54c 93be
00000110: dbd8 8e3e a91c e03e 0cbd ee3e 0324 033f
00000120: 4c7f ad3e 170e c83e 518a e83e 053d ae3e
00000130: ba56 943e fdbf e13e b43e af3e d2fb 893e
00000140: 5ba7 df3e 7296 9a3e 5717 953e 9a0d 9c3e
00000150: c625 8f3e 10b3 f13e 49d6 a43e 4acb 0a3f
00000160: 34f1 f03e 2fba 7b3e 1d72 a73e eacd f33e
00000170: e719 a43e 1231 8b3e 7996 b23e 7412 643e
00000180: 7edf a63e 4dd6 8a3e 26f5 d73e 42e5 863e
00000190: 857b 013f 02c6 8c3e 14eb aa3e 2846 893e
000001a0: db68 e33e 4fc1 253e d44c 7e3e 4424 a13e
000001b0: 87b8 033f a22b 563e 5d70 923e ab8a d53e
000001c0: 5659 bc3e 81df cc3e 443a a33e f7a5 9b3e
000001d0: 4b08 9b3e f0ab a13e 3b5b b93e f24b a33e
000001e0: a8e0 9a3e bc2f ae3e fe94 873e 3460 673e
000001f0: 3e37 ba3e ba1a 553e 2b19 ec3e 2f1b 793e
00000200: 4e51 863e 8d42 8e3e 1828 cf3e bba8 803e
00000210: c1ff 803e 82a8 e83e dafa a73e 88e6 a93e
00000220: 1b51 783e f66c 4a3e 5116 903e edb8 9c3e
00000230: 09ce d13e c536 fb3e 5979 843e 7d2b 8e3e
00000240: fc24 073f fb48 b73e 597c 913e d0f5 a53e
00000250: c11d fa3e 3781 e73e e3d2 053f eb65 7f3e
00000260: 24d8 813e 3ac1 9a3e bc1c bb3e 0ac6 c53e
00000270: d8e4 c03e c3e4 a73e 06a5 863e 3f42 f83d
00000280: 3ad5 743e c708 913e 24da 933e 5b7d 9b3e
00000290: 8826 9e3e 6141 a83e 7a23 983e b63b e33e
000002a0: 32cc 473e b575 9c3e a141 e13e 7656 843e
000002b0: 58b3 ee3e c3ac e33e d226 d43e 9374 983e
000002c0: 063a 403e 2dba 873e 0278 ba3e 1d2f 7d3e
000002d0: 4706 003e f89b 8a3e f495 df3e 4f04 893e
000002e0: ecab 8e3e 0116 e33e 94d1 9c3e ed23 8b3e
000002f0: a087 c63e 2f76 a53e 6b76 a23e 38f8 e03d
00000300: afc6 cb3e 52cf 043f 7cb7 d13e 7c00 843e
00000310: c4a4 933e b5bc 953e 24f0 e03e 7a06 8c3e
00000320: 4321 a83e 5f28 933e 687f 963e 1702 a43e
00000330: 7920 3f3e 7a4f 943e c9ac d73e 4ec5 d93e
00000340: 7cdd 923e 65ad 713e 4a4a 603e f673 af3e
00000350: e3a2 763e 94db d93e 21b7 853e 62f5 e83e
00000360: 17aa a13e 514b bc3e d813 973e 0e9f d93e
00000370: e636 a03e 0496 e03e 98a9 c83e 99ed da3e
00000380: 0590 913e 5bd3 dd3e 8f4c 913e 94ad ff3e
00000390: 7b38 7f3e 84e6 df3e 3686 9c3e 5753 a73e
000003a0: b9b4 b13e 9811 b93e 65f5 783e 6b91 733e
000003b0: 9ac1 913e d85a 953e 5f94 673e 2d53 853e
000003c0: 3519 d63e bd55 953e 617b 8b3e 8902 9e3e
000003d0: 8c6e e93e 736f f23e 465d 923e 4a65 a73e
000003e0: 52a1 a93e 3ee2 9b3e 914f c83e 5ea2 cb3e
000003f0: 884f eb3e 566a 993e 169a 933e d980 e83e
0.50969774 0.27313745 0.24641103 0.25417888 0.26894113 0.418731 0.3247951 0.36058637
0.2675519 0.31278875 0.262084 0.34168765 0.36323345 0.31520453 0.26001504 0.24706852
0.4567028 0.30442533 0.43478972 0.3471073 0.2923934 0.4782851 0.26128975 0.23671825
0.36086974 0.37573078 0.37657276 0.3473857 0.33448553 0.26226753 0.28055277 0.47649416
0.3149112 0.3100231 0.32051283 0.4358455 0.40967247 0.27820346 0.5496686 0.34047392
0.2234613 0.38302985 0.4447455 0.3128998 0.35758537 0.23582062 0.20142089 0.40270355
0.34620574 0.29482675 0.39172047 0.39690217 0.39459598 0.3137869 0.41408503 0.46101496
0.27580097 0.044936065 0.27865887 0.5539495 0.30574703 0.4509683 0.2601367 0.2563065
0.25604233 0.23116514 0.2854445 -0.2876946 0.27899823 0.43771866 0.46628606 0.51226825
0.33886182 0.3907325 0.45418027 0.3403093 0.28972417 0.44091788 0.34227526 0.26949936
0.4368237 0.30192906 0.2911937 0.30479127 0.27958506 0.47206926 0.32194737 0.54216444
0.47059023 0.24582742 0.3270425 0.47618037 0.32051012 0.27185875 0.34880427 0.22272664
0.32592386 0.27116624 0.4217922 0.26346785 0.505791 0.27494818 0.33382475 0.26811337
0.44415936 0.16187023 0.24833995 0.3147298 0.5145344 0.20915082 0.2860135 0.41707358
0.36786908 0.4001427 0.3188039 0.3040006 0.30279765 0.3157649 0.36202416 0.3189388
0.30249524 0.34020793 0.2648086 0.22595292 0.3637027 0.20810977 0.46112952 0.24326776
0.26233906 0.2778515 0.40460277 0.2512873 0.25195125 0.4544106 0.32808572 0.33183694
0.2424969 0.19768128 0.28142026 0.30609837 0.40977505 0.49065223 0.2587383 0.27767554
0.5279081 0.35797867 0.28415182 0.32414103 0.48850825 0.4521577 0.5227491 0.24941222
0.25360215 0.30225545 0.3654536 0.38627654 0.37674594 0.3279172 0.26297778 0.121220104
0.23909464 0.2832701 0.28877366 0.30369076 0.30888772 0.3286238 0.29714566 0.44381493
0.19511488 0.30558553 0.43995383 0.25847214 0.46621203 0.44467744 0.41435868 0.2977644
0.18772134 0.26509228 0.36419684 0.24725004 0.12502395 0.2707212 0.43669093 0.267611
0.2786554 0.44352725 0.30628645 0.27175847 0.3877535 0.3231673 0.3173097 0.10984844
0.3980002 0.51878846 0.409603 0.2578162 0.28836644 0.29245535 0.43933213 0.2734869
0.32837877 0.28741738 0.29394078 0.32032844 0.18664731 0.28966886 0.42124012 0.42533344
0.28684604 0.23601301 0.21903339 0.3426816 0.24085574 0.42550337 0.2611628 0.45499712
0.3157508 0.36776212 0.29507327 0.42504162 0.31291884 0.43864453 0.3919189 0.42759398
0.2843019 0.43325314 0.28378722 0.49937117 0.2492389 0.43730557 0.30571145 0.3268077
0.34708193 0.36146235 0.2431236 0.23785941 0.2846802 0.2917087 0.22615193 0.2604002
0.41816106 0.29166976 0.27242568 0.3086131 0.45592153 0.47350654 0.28586787 0.32694465
0.3313089 0.30446047 0.39123204 0.39772314 0.45959115 0.2996394 0.28828496 0.45410803

net.6.bias f4 [256]
00000000: a508 1d3d 993c b73c 32f8 883c 002c 973c
00000010: 8e73 233c d3c5 173d 6da9 043d ac9d ec3c
00000020: 5bfb b83c 7802 c63c 0a47 a43c 9569 b33c
00000030: 56b8 dc3c 8d70 d53c b774 963c e566 863c
00000040: 6f0c 0d3d b87d f63c 6202 f93c 77c4 a33c
00000050: 8a2b d83c f556 253d f720 853c 9a1b b13c
00000060: 69e8 e93c e338 d63c 7c23 053d 03d6 af3c
00000070: 4f30 e13c 37aa 113c bdff 2d3c 68a3 093d
00000080: 3c16 0a3c 6618 f53c 249d aa3c 76bf f53c
00000090: 966e 133d e064 403c 8117 343d d212 a03c
000000a0: bcff 703c 00b5 f33c 73e5 1c3d d6a0 ba3c
000000b0: 3543 963c b5a5 173c fad9 f83b 86d4 073d
000000c0: 444b b93c bc3e a03c 94c5 063d 4d41 043d
000000d0: 8828 063d fc3c 8c3c 1a11 fd3c ebc5 183d
000000e0: 184c 4c3c 8469 2fbf d37b 173c f9be 313d
000000f0: 58ac 973c 6798 053d d61a b43c 82ec a13c
00000100: 797b 763c ddbd 543c 3b5e 953c 62bf 29bc
00000110: ff67 62bb ae07 073d f763 183d 75f3 2e3d
00000120: 619f c03c 8537 023d 49c8 073d 872f a43c
00000130: 2ee3 af3c fc5a db3c 3811 f13c e57b 853c
00000140: 699b 103d e392 b03c bee0 b83c 9e00 6e3c
00000150: 377a 883c ad4f 1c3d 5792 d53c 36b9 283d
00000160: b462 1f3d e493 013c 46b1 e63c 6df6 053d
00000170: 7f4e d63c 023a a83c 583c d43c 869a 2e3c
00000180: 9a88 013d 1bed 5ebb e78c 053d 91ba 7f3c
00000190: de5c 093d e5de 913c 4900 813c b83f 923c
000001a0: eeb2 113d 8305 9dbc bf2f 7f3c 1157 cf3c
000001b0: a770 293d 9f87 36b9 67b6 923c 9c50 0e3d
000001c0: 1dc1 df3c b1f1 f73c 0829 e03c 9130 003d
000001d0: c3ff 2f3c af74 f83c 496a ca3c e1a9 b33c
000001e0: 3c6b 7c3c 84fa b33c b1cd c93b 3b5e 893c
000001f0: 1c5a d03c b95d 3e3c 525c 123d bea5 a33c
00000200: 63cc eb3b c336 973c bff2 003d 84b7 a83c
00000210: 5fbf 6a3c 356e 213d ea6b fa3c 43d2 bc3c
00000220: 8102 88bb 081d ec3b 6301 853c 46f2 b73c
00000230: 57c6 fb3c 3f81 173d c050 aa3c a07d 4d3c
00000240: 7cc9 183d 697b fb3c 060e 6d3c a444 a03c
00000250: 5371 1d3d 79b3 033d a3d3 1f3d 9117 f03b
00000260: 0320 0e3c 6eac b23c 9dea c73c 2847 ca3c
00000270: 6ce4 043d 047e ee3c 0952 443c 8042 85bc
00000280: 9bb8 733c df5e be3c 5445 8e3c 03fa db3c
00000290: b465 e33c 616c c93c b64f bb3c dbdd 0f3d
000002a0: 941a a93b 4a6d 843c e392 0a3d 9983 c83b
000002b0: 7218 0d3d 860a 023d 8dba b13c 6cbc 4f3c
000002c0: adf4 0cbc d9a1 883c ee71 f13c 93d7 2b3c
000002d0: f9b6 14bd fa2e 113c f627 fc3c 32dd c13c
000002e0: 7833 a23c 8fb3 0b3d 80d7 ab3c 4f25 cf3c
000002f0: e9c2 eb3c 7262 1c3c 42e3 b93c 11d3 10bd
00000300: 107f ec3c 0001 0d3d 3134 e83c 346c 393c
00000310: fe9b 493c 1d56 db3c 5d8c de3c 5fd5 713c
00000320: 76d0 d43c 2983 363c dfee 993c ed9b b63c
00000330: 93b6 d03b 72ce 7f3c 9eb7 0b3d c437 0f3d
00000340: 0749 a03c 30b5 de3b 1e6b 733b adb4 b93c
00000350: fa96 993b e2fb 113d 1147 5d3c f50f 193d
00000360: 97b8 183d 7fc9 d13c 4c10 b63c 70ee 073d
00000370: f60e 623c 565a 183d edb6 d63c 88fb f53c
00000380: ac17 c63c 15d4 053d 56ba ca3c 97d0 203d
00000390: c48e 9b3c 6e27 f43c 6c93 a43c fdf4 923c
000003a0: e7e6 803c c891 fa3c 530e 843c defe cf3b
000003b0: 767b 7b3c 3455 943c e876 573c 1760 c63c
000003c0: 06e8 053d faec 643c d0cf 393c b19c a63c
000003d0: 3189 173d 6fae 0e3d 0994 ba3c e82e aa3c
000003e0: 7ff8 8f3c 636f a83c fd78 083d 2af2 0c3d
000003f0: c403 123d 3b3c 7a3c 84b4 fc3c 5e86 0c3d
0.038338322 0.022367762 0.016719911 0.018453598 0.009976281 0.037053894 0.03238814 0.028883778
0.022580793 0.024171099 0.020053405 0.021900931 0.026943367 0.026054645 0.0183662 0.016406486
0.034435686 0.030089244 0.030396644 0.019991143 0.026387949 0.04036613 0.01625107 0.021619607
0.028553205 0.026150173 0.032504544 0.021464353 0.027488856 0.00889068 0.010620055 0.033603102
0.008428153 0.02991886 0.020826884 0.029998522 0.035994135 0.0117428005 0.043967728 0.019540224
0.014709409 0.029749393 0.038304757 0.02278177 0.018342594 0.009255816 0.007594344 0.033161663
0.022618897 0.019561164 0.03290327 0.03228884 0.032753497 0.017118923 0.030891944 0.037298124
0.012469314 -0.6852038 0.009245831 0.043395016 0.018514797 0.032616045 0.021985453 0.019766096
0.015044087 0.01298472 0.01823341 -0.010360571 -0.003454685 0.03296631 0.03720471 0.042712647
0.023513498 0.03179123 0.03314999 0.020042194 0.021470632 0.026776783 0.029427156 0.01629443
0.03530446 0.021554416 0.022568103 0.014526514 0.01665984 0.038161922 0.026070757 0.041192256
0.03891249 0.007908795 0.028160702 0.032705713 0.026160477 0.020535473 0.02590768 0.010656958
0.031624414 -0.0034015838 0.032605078 0.015608446 0.03353583 0.01780648 0.015747206 0.01785265
0.03557103 -0.019167667 0.015575348 0.025310071 0.0413672 -0.00017407395 0.017909242 0.034744844
0.027313763 0.030266615 0.027363315 0.031296317 0.010742131 0.030329077 0.024708884 0.02193159
0.015406426 0.021970041 0.0061585535 0.016768565 0.025433592 0.011619025 0.035732575 0.019976493
0.0071959957 0.01845873 0.0314815 0.02059532 0.014327853 0.039411742 0.030569036 0.02304948
-0.004150689 0.007205609 0.016236013 0.022454392 0.030734224 0.036988493 0.020790458 0.012542158
0.037301525 0.030698495 0.0144686755 0.01956398 0.038438153 0.03215358 0.039020192 0.007327028
0.008674624 0.021810737 0.024403865 0.024692133 0.032444403 0.029112823 0.011982449 -0.016267061
0.014875556 0.023238597 0.017367043 0.026852613 0.027758457 0.024587812 0.022865158 0.035123687
0.005160639 0.016165394 0.03383149 0.0061192033 0.03444714 0.031748317 0.0216954 0.012679201
-0.008603257 0.016678737 0.029473271 0.010488409 -0.03630731 0.008861298 0.030780774 0.023665044
0.019799933 0.034106787 0.020976782 0.025286345 0.028779464 0.009544956 0.022691373 -0.03535754
0.028869182 0.03442478 0.0283452 0.011317302 0.012305258 0.02677446 0.02716654 0.014760344
0.025978308 0.011139669 0.01879066 0.022291148 0.006369421 0.015613185 0.034110658 0.03496529
0.019566072 0.0067965016 0.0037142704 0.02266916 0.0046871873 0.035640605 0.013505713 0.037368733
0.037285414 0.025608776 0.022224568 0.033186376 0.013797512 0.037195526 0.026210273 0.030027166
0.02418121 0.03267296 0.024747055 0.039261427 0.018988974 0.029803958 0.020089827 0.017939085
0.015735103 0.030587092 0.016120112 0.006347521 0.01534926 0.018107034 0.013150908 0.024215741
0.032691978 0.013972515 0.01134105 0.020338388 0.03699607 0.03483432 0.022775667 0.02077432
0.017574547 0.020560926 0.03331851 0.034410633 0.035648122 0.015273149 0.030847795 0.03430783
