RL code/models/checkpoint_episode_420000.pth (torch, 801255 bytes, 40 tensors)

net.0.weight f4 [256, 22]
-0.05258172 0.034848925 0.117607385 0.02701695 0.10661662 0.026964754 -0.056993872 -0.037743304
-0.04595897 -0.02224019 0.008835286 -0.07468349 0.09054537 0.04729721 0.12435215 0.01009512
-0.04645027 -0.061055683 0.04595897 0.02224019 -0.05258172 0.034848925 0.08239235 0.060163934
0.09983161 -0.09878934 0.06062475 0.023361687 -0.002362934 -0.031990644 -0.046020452 0.048460167
-0.15645757 0.0016910069 0.093614236 -0.10511821 0.08465938 0.030064762 0.011529744 -0.033279117
0.046020452 -0.048460167 0.08239235 0.060163934 0.14643887 0.14033243 0.18421514 0.17067003
-0.16475031 -0.16500704 -0.1585603 -0.17105173 -0.35787648 -0.3375032 -0.2817921 -0.25946155
-0.16396338 -0.17608392 0.1613051 0.16396847 0.17794651 0.17532572 0.3578764 0.33750305
0.14623432 0.14008069 0.011755406 0.0019574466 -0.08220441 0.055694185 -0.06924739 -0.09955534
-0.07321763 0.016435178 -0.01207211 0.05908581 0.025410457 0.014715262 -0.123498976 0.064737715
-0.026287435 -0.11275891 -0.027697304 -0.0011620246 0.01207211 -0.05908581 0.011755406 0.0019574466
-0.12714727 -0.0026344156 0.00087088736 0.051124252 -0.032076094 -0.03409313 -0.05495661 0.0072360835
-0.04666583 0.016131822 0.06085535 -0.09947768 -0.014760404 0.06277674 -0.023665726 -0.02813909
-0.045955606 0.0019577893 0.04666583 -0.016131822 -0.12714727 -0.0026344156 -0.06939168 -0.08524533
-0.09016986 0.05548934 -0.10130435 0.069608554 -0.1327908 -0.022320347 -0.0788219 -0.02685899
-0.06773557 0.013941293 -0.18134868 0.059303556 -0.0033373998 0.050634295 -0.04527759 -0.03865509
0.0788219 0.02685899 -0.06939168 -0.08524533 -0.10423099 0.0033582137 -0.2756125 -0.0028080263
0.030018643 -0.011727643 0.023250265 -0.0127262175 0.07447125 -0.008304606 0.047892753 0.0072385496
-0.20164484 -0.010130188 -0.04614965 -0.010470753 -0.05668813 -0.010795111 -0.07447125 0.008304606
-0.10423098 0.00335821 -0.017991519 -0.0070083677 -0.01062453 -0.16025335 -0.03681524 -0.09269379
0.060723763 -0.0020487395 0.04712365 0.02353101 0.2239648 -0.006718724 0.010773824 -0.13715793
-0.059515823 -0.10928219 0.030747218 -0.02073478 -0.04712365 -0.02353101 -0.017991519 -0.0070083677
-0.023558483 0.011959381 -0.026373742 0.0011259314 -0.0019193214 0.012186306 -0.1614214 0.020087734
0.05944102 0.01726748 -0.1253388 -0.029707698 -0.025644606 0.028837068 0.0033242884 -0.02927415
-0.14213108 -0.012709923 -0.05944102 -0.01726748 -0.023558479 0.011959381 -0.02057574 0.07573488
0.056258336 -0.23589441 0.037697114 -0.070481114 -0.052741107 -0.052029837 0.0066676238 0.069214575
0.0015638986 -0.015057758 0.034742817 -0.22722514 0.05939883 -0.0926694 -0.029698107 -0.081628084
-0.0066676238 -0.069214575 -0.02057574 0.07573489 -0.033468544 0.11351906 -0.075425036 0.042810224
-0.046413593 0.010380497 -0.0071283067 0.065914474 0.003897904 0.13220516 0.15785939 -0.102339335
-0.08640746 0.12802649 -0.04115042 -0.061489966 -0.0022045523 -0.005746085 -0.003897904 -0.13220516
-0.033468544 0.11351906 0.010423784 -0.054647755 -0.0977353 -0.0107016 -0.070309326 0.05051764
-0.12868568 -0.06148025 -0.056611083 -0.05948405 0.16937913 0.008582933 -0.14938672 -0.017424725
00000000: ee5f 57bd bfbd 0e3d 24dc f03d a752 dd3c
00000010: d159 da3d 30e5 dc3c 6872 69bd b998 1abd
00000020: 793f 3cbd 0f31 b6bc e0c1 103c a8f3 98bd
00000030: da6f b93d b8ba 413d 57ac fe3d 0166 253c
00000040: a342 3ebd 8615 7abd 793f 3c3d 0f31 b63c
00000050: ee5f 57bd bfbd 0e3d 52bd a83d 756e 763d
00000060: 8474 cc3d 1152 cabd a851 783d 0261 bf3c
00000070: 74db 1abb 9f08 03bd f17f 3cbd 2b7e 463d
00000080: 6a36 20be c7a4 dd3a d2b8 bf3d 3748 d7bd
00000090: e661 ad3d 604a f63c 40e7 3c3c af4f 08bd
000000a0: f17f 3c3d 2b7e 46bd 52bd a83d 756e 763d
000000b0: 12f4 153e 4eb3 0f3e e5a2 3c3e 20c4 2e3e
000000c0: 4eb4 28be 9bf7 28be a25d 22be 2f28 2fbe
000000d0: 963b b7be 38cd acbe 0e47 90be 25d8 84be
000000e0: 04e6 27be 584f 34be 2a2d 253e 5ae7 273e
000000f0: 9c37 363e 9688 333e 933b b73e 33cd ac3e
00000100: 73be 153e 5071 0f3e bf99 403c 8148 003b
00000110: c95a a8bd 961f 643d 93d1 8dbd ace3 cbbd
00000120: 20f3 95bd 11a3 863c 19ca 45bc f603 723d
00000130: 9729 d03c 4818 713c 08ed fcbd 3595 843d
00000140: bf58 d7bc 25ee e6bd 75e5 e2bc 134f 98ba
00000150: 19ca 453c f603 72bd bf99 403c 8148 003b
00000160: e532 02be 29a6 2cbb 434c 643a aa67 513d
00000170: 3962 03bd 3da5 0bbd 2f1a 61bd ab1c ed3b
00000180: ab24 3fbd e226 843c 7643 793d f4ba cbbd
00000190: 9fd5 71bc 1791 803d a0de c1bc f383 e6bc
000001a0: f23b 3cbd 414e 003b ab24 3f3d e226 84bc
000001b0: e532 02be 29a6 2cbb 3a1d 8ebd 1b95 aebd
000001c0: faaa b8bd ca48 633d a878 cfbd ee8e 8e3d
000001d0: 50fa 07be 29d9 b6bc 606d a1bd 6207 dcbc
000001e0: f2b8 8abd 056a 643c 78b3 39be 49e8 723d
000001f0: 47b8 5abb e865 4f3d ff74 39bd cd54 1ebd
00000200: 606d a13d 6207 dc3c 3a1d 8ebd 1b95 aebd
00000210: 0f77 d5bd 7a15 5c3b 151d 8dbe dd06 38bb
00000220: a8e9 f53c 4d25 40bc 5777 be3c a081 50bc
00000230: 6284 983d 0b10 08bc 312b 443d 5b31 ed3b
00000240: fc7b 4ebe 17f9 25bc 6a07 3dbd 858d 2bbc
00000250: d031 68bd fadd 30bc 6284 98bd 0b10 083c
00000260: 0d77 d5bd 6a15 5c3b f362 93bc 73a6 e5bb
00000270: 8212 2ebc 7419 24be 94cb 16bd 3ed6 bdbd
00000280: 7bb9 783d 2544 06bb ba04 413d 1bc4 c03c
00000290: 0757 653e be28 dcbb b184 303c 2173 0cbe
000002a0: ddc6 73bd 57cf dfbd 97e1 fb3c fcdb a9bc
000002b0: ba04 41bd 1bc4 c0bc f362 93bc 73a6 e5bb
000002c0: b8fd c0bc 48f1 433c bf0d d8bc fd93 933a
000002d0: bd91 fbba 12a9 473c a74b 25be 088f a43c
000002e0: 6d78 733d 8874 8d3c d058 00be 8f5d f3bc
000002f0: a314 d2bc b73b ec3c 4edc 593b 58d0 efbc
00000300: cf8a 11be 483d 50bc 6d78 73bd 8874 8dbc
00000310: b6fd c0bc 48f1 433c 748e a8bc e41a 9b3d
00000320: 246f 663d 4e8e 71be 4a68 1a3d 6758 90bd
00000330: 0f07 58bd 3d1d 55bd 157c da3b 5fc0 8d3d
00000340: bbfb cc3a d1b4 76bc 7c4e 0e3d b5ad 68be
00000350: 304c 733d 74c9 bdbd 7249 f3bc a02c a7bd
00000360: 157c dabb 5fc0 8dbd 748e a8bc e51a 9b3d
00000370: 5016 09bd ae7c e83d 7178 9abd c659 2f3d
00000380: 2e1c 3ebd f612 2a3c 9294 e9bb 2bfe 863d
00000390: fa73 7f3b ca60 073e e4a5 213e 4997 d1bd
000003a0: 65f6 b0bd 6019 033e 588d 28bd e7dc 7bbd
000003b0: 407a 10bb a849 bcbb fa73 7fbb ca60 07be
000003c0: 5016 09bd ae7c e83d 85c8 2a3c 53d6 5fbd
000003d0: 7229 c8bd c455 2fbc 56fe 8fbd 96eb 4e3d
000003e0: 2ec6 03be b7d2 7bbd 06e1 67bd 8ca5 73bd
000003f0: b971 2d3e 6e9f 0c3c d5f8 18be 4cbe 8ebc

net.0.bias f4 [256]
-0.22574702 -0.2287017 -0.14414549 -0.31849524 -0.2648137 -0.2522193 -0.33540264 -0.22474541
-0.25238138 -0.24458292 -0.23899175 -0.22293511 -0.18159191 -0.6186649 -0.23401187 -0.388782
-0.32116362 -0.44562453 -0.3760904 -0.17251132 -0.30789268 -0.26196995 0.074671194 -0.15328997
-0.19489633 -0.21075684 -0.26239988 -0.3140861 -0.2906856 0.20406237 -0.2640123 -0.20352195
-0.20527576 -0.28696105 -0.5716669 -0.30317348 -0.24523824 -0.17412134 -0.595914 -0.3342093
-0.16599317 -0.19684175 -0.5415658 -0.51559114 -0.20454182 -0.31138304 -0.36412784 -0.2928577
-0.17639136 -0.27310163 -0.26852578 -0.33620057 -0.2305105 -0.17886923 -0.21766694 -0.14766462
-0.3452049 -0.29795492 -0.23578103 -0.33818838 -0.23814815 -0.29014257 -0.23299974 -0.1997388
-0.2553059 0.022668894 -0.31791434 -0.25206858 -0.18590893 -0.28286424 -0.18892792 -0.33102062
-0.31325364 -0.39769745 -0.2891418 -5.1875144e-15 -0.30400223 -0.2793479 -0.3169306 -0.3114402
-0.24909641 -0.2237793 -0.27213243 -0.20114286 -0.2913964 -0.23539309 -0.24122608 -0.43244758
-0.26726294 -0.27296934 -0.2640203 -0.037819386 -0.28042954 -0.5336296 -0.20171098 -0.2574605
-0.18513586 0.19965765 -0.3389593 -0.32943037 -0.23727278 -0.42062742 -0.22442786 -0.6230461
-0.06042565 -0.17498027 -0.2162499 -0.33334908 -0.28815836 -0.31301442 -0.30966437 -0.19298348
-0.21322878 -0.3495592 -0.16574503 0.07085418 -0.17184503 -0.29441908 -0.28877962 -0.20838958
-0.27615938 -0.31623328 -0.27623552 -0.33453992 -0.33200815 0.20023443 -0.31781414 -0.2309373
-0.2651697 -0.17971371 -0.21813713 -0.30131125 -0.2458612 -0.23587275 -0.26482728 -0.24331656
-0.18968742 -0.28682327 -0.29209056 -0.27201584 -0.2034231 -0.19459629 -0.09183922 -0.015122805
0.2054015 -0.23577288 -0.22854415 -0.21773937 -0.20610207 -0.32231364 -0.25176919 -0.27782616
-0.2510537 -0.5826963 -0.26528013 -0.20227477 -0.27141222 -0.046987146 -0.1878273 -0.2548108
-0.24335422 -0.2480111 -0.4060755 -0.14589679 -0.17713735 -0.2772771 0.07801632 -0.23981835
-0.34321517 -0.55771655 -0.247014 -0.44429594 -0.10963561 -0.28210294 -0.22821963 -0.1815853
-0.33955464 -0.301364 -0.2279854 -0.5527644 -0.19852223 0.09383534 -0.24352482 -0.35159567
-0.26774782 -0.24347335 -0.27567568 -0.22842026 -0.29567593 -0.2965672 -0.16151337 -0.23874433
-0.2448395 -0.41294867 -0.22582258 0.20125216 -0.21698457 -0.24509338 -0.24885653 -0.19141333
-0.2365932 -0.15603642 -0.24295774 -0.2118339 -0.58495986 -0.19725777 -0.25405127 -0.33592784
-0.25725335 -0.2605017 0.21074474 -0.27865815 -0.57221186 -0.3590517 -0.24215032 -0.1475054
-0.2910384 -0.384344 -0.2547054 -0.26649898 -0.27260375 -0.2828426 -0.5695352 -0.1493323
-0.21805337 -0.19054851 -0.31917888 -0.25718904 -0.25639093 -0.101029515 -0.30455428 -0.2544449
-0.20706001 -0.29095304 -0.22679004 -0.24078736 -0.29121393 -0.34350935 -0.3151342 -0.2454565
-0.215363 -0.29777366 0.20427735 -0.2819313 -0.21977313 -0.27529186 -0.29947877 -0.1929206
-0.23824275 -0.061899424 -0.521093 -0.22729057 -0.248536 -0.27832684 -0.43923795 -0.09171093
00000000: 3a2a 67be c730 6abe e09a 13be cf11 a3be
00000010: a995 87be e322 81be e5b9 abbe a923 66be
00000020: 2238 81be f273 7abe 41ba 74be 1a49 64be
00000030: 3bf3 39be d360 1ebf cfa0 6fbe 6f0e c7be
00000040: 8f6f a4be e628 e4be ec8e c0be cfa6 30be
00000050: 1ca4 9dbe ed20 86be 36ed 983d 0cf8 1cbe
00000060: e792 47be a4d0 57be 4759 86be e5cf a0be
00000070: bed4 94be baf5 503e 9f2c 87be 0f68 50be
00000080: cf33 52be 8fec 92be c358 12bf 8e39 9bbe
00000090: bc1f 7bbe dd4c 32be d28d 18bf 7b1d abbe
000000a0: 1dfa 29be e290 49be 0ea4 0abf c8fd 03bf
000000b0: 6973 51be 996d 9fbe f76e babe 72f1 95be
000000c0: f09f 34be fad3 8bbe 367c 89be 7b22 acbe
000000d0: f20a 6cbe 7f29 37be 15e4 5ebe 6535 17be
000000e0: b2be b0be 8c8d 98be 9570 71be 0727 adbe
000000f0: 1cdd 73be 918d 94be 7c97 6ebe 5488 4cbe
00000100: 74b7 82be 1eb4 b93c abc5 a2be 220f 81be
00000110: e95e 3ebe 95d3 90be 5276 41be 897b a9be
00000120: c862 a0be 009f cbbe 650a 94be 60e6 baa7
00000130: 2ea6 9bbe b006 8fbe ba44 a2be 1775 9fbe
00000140: 2113 7fbe 6726 65be f154 8bbe 65f8 4dbe
00000150: e931 95be e30a 71be f803 77be c569 ddbe
00000160: b0d6 88be a3c2 8bbe ab2d 87be 80e8 1abd
00000170: 7694 8fbe f39b 08bf 538d 4ebe ddd1 83be
00000180: 4194 3dbe 0e73 4c3e 138c adbe 19ab a8be
00000190: a3f7 72be 7a5c d7be 6bd0 65be f37f 1fbf
000001a0: e380 77bd 072e 33be 9d70 5dbe bbac aabe
000001b0: 7e89 93be 6d43 a0be 548c 9ebe 769d 45be
000001c0: a558 5abe 6cf9 b2be 11b9 29be ff1b 913d
000001d0: 25f8 2fbe 19be 96be ecda 93be 1464 55be
000001e0: c364 8dbe 54e9 a1be be6e 8dbe d148 abbe
000001f0: f9fc a9be 410a 4d3e 89b8 a2be d47a 6cbe
00000200: 53c4 87be df06 38be 575f 5fbe 7845 9abe
00000210: 0ac3 7bbe a088 71be 7197 87be fa27 79be
00000220: 6b3d 42be 80da 92be e58c 95be a945 8bbe
00000230: 254e 50be 4044 47be 3316 bcbd a4c5 77bc
00000240: c554 523e 726e 71be 7a07 6abe 12f7 5ebe
00000250: 6c0c 53be 4b06 a5be e4e7 80be 3b3f 8ebe
00000260: 1c8a 80be 962b 15bf ccd2 87be 1e21 4fbe
00000270: 8bf6 8abe 9875 40bd cd55 40be 9076 82be
00000280: d931 79be 9ff6 7dbe 21e9 cfbe f865 15be
00000290: 7e63 35be 44f7 8dbe 05c7 9f3d f192 75be
000002a0: e6b9 afbe 83c6 0ebf 3df1 7cbe c27a e3be
000002b0: a288 e0bd cc6f 90be 68b2 69be 7ff1 39be
000002c0: 1bda adbe 624c 9abe 0175 69be f881 0dbf
000002d0: 6949 4bbe be2c c03d 925e 79be 5904 b4be
000002e0: 3e16 89be 1451 79be 5d25 8dbe 00e7 69be
000002f0: d662 97be a8d7 97be c363 25be 6579 74be
00000300: 35b7 7abe 026e d3be 093e 67be 0c15 4e3e
00000310: 3431 5ebe c2f9 7abe 3fd4 7ebe db01 44be
00000320: 7d45 72be 03c8 1fbe eac9 78be fcea 58be
00000330: eebf 15bf f1fd 49be 0213 82be bcfe abbe
00000340: b6b6 83be 7b60 85be 78cd 573e 48ac 8ebe
00000350: 7a7c 12bf a0d5 b7be 41f6 77be a80b 17be
00000360: fc02 95be bdc8 c4be bf68 82be 8e72 88be
00000370: b892 8bbe bfd0 90be 0fcd 11bf 91ea 18be
00000380: 6249 5fbe 261f 43be 6a6b a3be 48ae 83be
00000390: ac45 83be 90e8 cebd 8aee 9bbe 9a46 82be
000003a0: 8a07 54be ccf7 94be a63b 68be f690 76be
000003b0: fe19 95be 75e0 afbe 4559 a1be f358 7bbe
000003c0: 1e88 5cbe ca75 98be 152e 513e 4d59 90be
000003d0: 350c 61be 0ef3 8cbe 4855 99be fa8c 45be
000003e0: e8f5 73be 408a 7dbd 5a66 05bf dcbe 68be
000003f0: 3980 7ebe db80 8ebe cce3 e0be f1d2 bbbd

net.2.weight f4 [256]
0.15732862 0.19709642 0.22355424 0.20075612 0.17101693 0.21710679 0.15409803 0.15634981
0.15145352 0.15908356 0.13635 0.12763983 0.1299576 0.29236403 0.14085346 0.26321304
0.22409666 0.20712176 0.238858 0.116404146 0.16195905 0.09313019 0.03542569 0.1475714
0.21385013 0.23756562 0.14846572 0.2584452 0.1865208 0.1623993 0.13762352 0.107449666
0.15060493 0.2208097 0.27095157 0.16855939 0.068889916 0.17582953 0.28795952 0.33547163
0.12839356 0.21572618 0.40045935 0.24123076 0.08766019 0.22463955 0.27197903 0.19663839
0.19647492 0.17941132 0.11505918 0.2393626 0.08569035 0.5570215 0.26001298 0.11999351
0.21243493 0.15504223 0.1265085 0.28847605 0.13330665 0.16098765 0.1389534 0.23313695
0.19438826 0.033778552 0.1292069 0.14008498 0.24997248 0.15357676 0.20017391 0.5175052
0.15104002 0.30099198 0.24561724 0.46620917 0.2154741 0.19145656 0.16183393 0.15601791
0.11642684 0.13837142 0.16732766 0.21718006 0.16855462 0.17997397 0.21696818 0.19014354
0.22350962 0.19273569 0.12082414 0.5024826 0.16243316 0.5097474 0.14948666 0.16055435
0.14092977 0.1549468 0.3067952 0.19436513 0.17463808 0.22949797 0.067115955 0.29629365
0.54941684 0.12510811 0.1472647 0.14332004 0.2641757 0.18253231 0.20635146 0.16987254
0.15790428 0.21888015 0.13814853 0.03125201 0.5223947 0.16958334 0.10827916 0.18333644
0.23747832 0.24163774 0.088587716 0.113314316 0.19281898 0.16008493 0.16167594 0.1667905
0.10099656 0.12766606 0.050194394 0.2423634 0.1358308 0.1262235 0.17641273 0.12002951
0.2054226 0.18839066 0.15027711 0.1724739 0.21548568 0.11028018 0.18114452 0.12790248
0.16040139 0.17944296 0.16311148 0.09131039 0.23048925 0.22692662 0.1634775 0.13254559
0.17637968 0.5497982 0.13609688 0.22881916 0.15876749 0.13542832 0.14800794 0.16657414
0.20106304 0.09710294 0.4324718 0.0712427 0.1348015 0.12412322 0.04185215 0.13720912
0.2781524 0.49761024 0.117304474 0.4523239 0.11739771 0.16420542 0.1742457 0.21689211
0.15177801 0.14031689 0.12000285 0.5017001 0.25262573 0.025537891 0.166982 0.16189134
0.12876742 0.15000616 0.17566596 0.19725369 0.25863528 0.15324305 0.12990531 0.085257284
0.10627453 0.22126861 0.19122213 0.15515918 0.16427396 -0.16840586 0.17599739 0.21401624
0.09073685 0.08225506 0.15683025 0.13077386 0.391865 0.10082599 0.18339722 0.24032171
0.20012102 0.21883895 0.15996906 0.22971426 0.27238405 0.16003256 0.11035599 0.07224296
0.1714343 0.15487166 0.15735309 0.22432591 0.14827302 0.149182 0.31968975 0.050401114
0.14634722 0.10488648 0.1518408 0.0628059 0.15652099 0.07395535 0.15220934 0.113024905
0.031870753 0.18718159 0.07263089 0.12943847 0.2012366 0.26457927 0.2163302 0.098431215
0.108980365 0.123917475 0.15826872 0.13286626 0.13189027 0.13562253 0.1579861 0.19943325
0.13936533 0.14131908 0.19327646 0.19272518 0.13369088 0.17061387 0.22070536 0.13617086
00000000: c11a 213e a5d3 493e 67eb 643e 0393 4d3e
00000010: 101f 2f3e 3e51 5e3e e0cb 1d3e 2a1a 203e
00000020: a216 1b3e cde6 223e 569f 0b3e 04b4 023e
00000030: 9b13 053e bdb0 953e e43b 103e dcc3 863e
00000040: 9879 653e ba17 543e 3197 743e 4c65 ee3d
00000050: 98d8 253e 0bbb be3d 871a 113d f51c 173e
00000060: 87fb 5a3e 6744 733e 6607 183e ee52 843e
00000070: 4fff 3e3e 014c 263e 2eed 0c3e 920e dc3d
00000080: 2e38 1a3e f01b 623e 2aba 8a3e d59a 2c3e
00000090: 2816 8d3d a80c 343e 6e6f 933e f0c2 ab3e
000000a0: 9a79 033e 53e7 5c3e 0209 cd3e 3205 773e
000000b0: 3087 b33d e907 663e d640 8b3e 935b 493e
000000c0: b930 493e 9ab7 373e 26a4 eb3d 781b 753e
000000d0: 6c7e af3d f698 0e3f 6c20 853e 28bf f53d
000000e0: 8b88 593e 64c3 1e3e 728b 013e 22b3 933e
000000f0: 8a81 083e f2d9 243e cd49 0e3e 74bb 6e3e
00000100: b70d 473e 615b 0a3d d04e 043e 7072 0f3e
00000110: c9f8 7f3e 3a43 1d3e 64fa 4c3e 397b 043f
00000120: 3caa 1a3e 9f1b 9a3e 1683 7b3e f8b2 ee3e
00000130: 3ea5 5c3e 300d 443e cbb7 253e 29c3 1f3e
00000140: 3271 ee3d 3db1 0d3e f157 2b3e 7364 5e3e
00000150: 9599 2c3e 194b 383e e82c 5e3e fdb4 423e
00000160: b5df 643e 815c 453e a672 f73d b3a2 003f
00000170: e154 263e ce7e 023f 0813 193e 5c68 243e
00000180: e54f 103e 60aa 1e3e 4314 9d3e a707 473e
00000190: 53d4 323e 8401 6b3e 1774 893d cdb3 973e
000001a0: 95a6 0c3f 571c 003e 8fcc 163e 7dc2 123e
000001b0: 0a42 873e c0e9 3a3e cc4d 533e 11f3 2d3e
000001c0: a9b1 213e 1e22 603e cf76 0d3e 1c02 003d
000001d0: a9bb 053f 41a7 2d3e 77c1 dd3d 8cbc 3b3e
000001e0: 842d 733e e26f 773e 7a6d b53d 5611 e83d
000001f0: 5772 453e 4eed 233e 618e 253e 21cb 2a3e
00000200: 49d7 ce3d e4ba 023e a398 4d3d 1c2e 783e
00000210: 3b17 0b3e bc40 013e 8aa5 343e 08d2 f53d
00000220: 4d5a 523e 7be9 403e 3ee2 193e ff9c 303e
00000230: 47a8 5c3e 93da e13d f37d 393e def8 023e
00000240: 4340 243e e5bf 373e b206 273e f100 bb3d
00000250: 6005 6c3e 745f 683e a566 273e 08ba 073e
00000260: e09c 343e 93bf 0c3f fb5c 0b3e 924f 6a3e
00000270: f293 223e b9ad 0a3e 658f 173e 6992 2a3e
00000280: 78e3 4d3e e8dd c63d f26c dd3e b1e7 913d
00000290: 6809 0a3e 5134 fe3d 296d 2b3d 8c80 0c3e
000002a0: fe69 8e3e c5c6 fe3e 543d f03d 0097 e73e
000002b0: 366e f03d 7725 283e 776d 323e f718 5e3e
000002c0: b26b 1b3e 3baf 0f3e 0ec4 f53d 6b6f 003f
000002d0: 2958 813e d734 d13c 54fd 2a3e d8c6 253e
000002e0: 9bdb 033e 379b 193e c7e1 333e dffc 493e
000002f0: d86b 843e bfeb 1c3e e605 053e 5f9b ae3d
00000300: 76a6 d93d 3d94 623e bccf 433e 0ce2 1e3e
00000310: 6f37 283e 9672 2cbe a938 343e 1327 5b3e
00000320: 3ed4 b93d 5775 a83d 1c98 203e 95e9 053e
00000330: 87a2 c83e db7d ce3d 7bcc 3b3e e516 763e
00000340: 86ec 4c3e 5117 603e eece 233e 373a 6b3e
00000350: ec75 8b3e 93df 233e 5202 e23d 1ef4 933d
00000360: 798c 2f3e ad96 1e3e 2b21 213e b1b5 653e
00000370: e2d4 173e 2bc3 183e 60ae a33e 6671 4e3d
00000380: 0cdc 153e b9ce d63d 287c 1b3e 61a0 803d
00000390: 0a47 203e e775 973d c4dc 1b3e 9a79 e73d
000003a0: e88a 023d 88ac 3f3e 81bf 943d 858b 043e
000003b0: f810 4e3e ef76 873e aa85 5d3e 4e96 c93d
000003c0: 1931 df3d 72c8 fd3d 3211 223e 180e 083e
000003d0: 3e0e 073e a2e0 0a3e 1cc7 213e 3b38 4c3e
000003e0: c9b5 0e3e f3b5 103e 44ea 453e c059 453e
000003f0: 43e6 083e 67b5 2e3e 9600 623e 6070 0b3e

net.2.bias f4 [256]
0.03433964 0.039590582 0.022423524 0.046889786 0.036093347 0.0556596 0.016792202 0.035641722
0.037340585 0.025741339 0.030817717 0.024938012 0.026819887 0.067747325 0.026408752 0.06869181
0.046757862 0.03563612 0.06607067 0.004922271 0.042918 0.017737785 -0.066543296 0.02228582
0.03253647 0.04242214 0.025892489 0.062497273 0.051607 -0.5195654 0.025173476 0.009782778
0.026984645 0.05204788 0.048647035 0.03601793 0.015806776 0.0322601 0.06407821 0.08688128
0.012326237 0.03653771 0.10005997 0.05672649 0.0059174383 0.056531135 0.06489831 0.043775953
0.033530094 0.048967205 0.020765213 0.053483523 0.0075393724 0.14635323 0.04409029 0.01655121
0.056342676 0.04416686 0.023392217 0.076089434 0.028178133 0.03997474 0.03211554 0.03702351
0.05166196 -0.05461969 0.017579598 0.025325177 0.04436182 0.037642278 0.023628993 0.14538458
0.026648542 0.077582315 0.06531359 0.12942606 0.046694532 0.038143538 0.04759062 0.033690006
0.029071838 0.0140467435 0.036299188 0.031518016 0.03282494 0.048159305 0.055243183 0.02496099
0.057383396 0.053202808 0.013814097 0.13823105 0.035317894 0.13160965 0.032542028 0.03489973
0.0024714353 -0.5104859 0.08298859 0.04439875 0.037460573 0.03842106 0.0050249784 0.0723556
0.15322223 0.027862323 0.031698577 0.032230802 0.065378845 0.03873361 0.051858287 0.034641977
0.01962098 0.058716875 0.021999273 -0.059817538 0.13955776 0.04552215 0.022841586 0.039797623
0.056967363 0.050567716 0.024978943 0.015594624 0.0539294 -0.5378243 0.035707872 0.039019164
0.020678738 0.0112749105 0.006263912 0.044458807 0.021799836 0.023292482 0.033455558 0.040461548
0.036525823 0.051393196 0.027441189 0.037604105 0.023803245 0.022256808 0.0041252756 -0.012916808
-0.5208997 0.036914915 0.040197853 0.011546669 0.03612444 0.05110043 0.029694239 0.032511808
0.044289187 0.14642636 0.026017027 0.032278564 0.01655318 -0.01820627 0.027358247 0.035563722
0.041793074 0.010029547 0.11936497 -0.00080594217 0.017927596 0.015411181 -0.07450546 0.0350235
0.07696541 0.14443345 0.029684251 0.117598064 0.0045082876 0.03734988 0.0357184 0.031280715
0.036895 0.016540814 0.022328703 0.13193093 0.042287257 -0.073475055 0.04597073 0.034311146
0.030092021 0.03161531 0.03601909 0.04687082 0.07123468 0.03058291 0.0049441853 0.00952982
0.023396539 0.042166103 0.026704991 -0.5219473 0.03261278 -0.042431243 0.0324912 0.04024881
0.026136344 -0.00086911477 0.039343618 0.024725668 0.09776527 0.008962523 0.041325133 0.06761267
0.04236437 0.05471772 -0.5173868 0.051975735 0.06561423 0.015103372 0.0076457397 0.0007020486
0.038138412 0.02192998 0.030768603 0.05520318 0.03920637 0.033172447 0.08569368 -0.0034539187
0.03411449 0.016482178 0.03566219 0.016316708 0.029855277 -0.0059942417 0.03738957 0.01827219
-5.649546e-05 0.043650106 -0.008295403 0.025799911 0.0439108 0.07103528 0.0566739 0.009179935
0.007064282 0.028509598 -0.51094246 0.040583428 0.029235885 0.027324926 0.026830131 0.038167734
0.03437437 -0.0031628988 0.037992094 0.0481726 0.005391353 0.04179151 0.049683314 0.0136457225
00000000: b9a7 0c3d bc29 223d 8ab1 b73c 810f 403d
00000010: 9ed6 133d 52fb 633d cd8f 893c 0efd 113d
00000020: 71f2 183d 80df d23c 7075 fc3c cd4a cc3c
00000030: 61b5 db3c 1cbf 8a3d 2b57 d83c 4bae 8c3d
00000040: 2c85 3f3d 2ef7 113d 0f50 873d 004b a13b
00000050: c9ca 2f3d d54e 913c da47 88bd c190 b63c
00000060: f644 053d d6c2 2d3d 7c1c d43c 24fd 7f3d
00000070: dd61 533d 3d02 05bf 9b38 ce3c f247 203c
00000080: e70e dd3c 2830 553d 1d42 473d 8987 133d
00000090: 367d 813c 2b23 043d 703b 833d d0ee b13d
000000a0: fcf3 493c 91a8 153d 3eec cc3d 095a 683d
000000b0: 12e7 c13b 318d 673d 68e9 843d 6a4e 333d
000000c0: da56 093d d691 483d cf1b aa3c 8a11 5b3d
000000d0: d70c f73b 9fdd 153e 0598 343d 6796 873c
000000e0: 94c7 663d 4fe8 343d 09a1 bf3c c7d4 9b3d
000000f0: d4d5 e63c 8ebc 233d 968b 033d f7a5 173d
00000100: 7e9b 533d e5b8 5fbd 1703 903c bf76 cf3c
00000110: bdb4 353d ca2e 1a3d 9791 c13c b2df 143e
00000120: 0b4e da3c 7ae3 9e3d 22c3 853d 4488 043e
00000130: c442 3f3d 663c 1c3d 62ee 423d 88fe 093d
00000140: 1028 ee3c 5024 663c 75ae 143d 0919 013d
00000150: 7273 063d b142 453d ad46 623d fd7a cc3c
00000160: da0a 6b3d 30eb 593d 8654 623c 718c 0d3e
00000170: 7fa9 103d aec4 063e ca4a 053d 05f3 0e3d
00000180: cef7 213b 34af 02bf ecf5 a93d 77db 353d
00000190: 4270 193d 675f 1d3d 93a8 a43b 2c2f 943d
000001a0: 4ae6 1c3e 873f e43c 5ed6 013d 7204 043d
000001b0: 58e5 853d 22a7 1e3d 5b69 543d bfe4 0d3d
000001c0: 2dbc a03c 1b81 703d d237 b43c 3c03 75bd
000001d0: 3be8 0e3e 6f75 3a3d 471e bb3c d502 233d
000001e0: 9c56 693d 1820 4f3d a4a0 cc3c 9880 7f3c
000001f0: 13e5 5c3d daae 09bf 6b42 123d 8fd2 1f3d
00000200: 7566 a93c 67ba 383c 8141 cd3b 701a 363d
00000210: 9295 b23c e0cf be3c b208 093d 02bb 253d
00000220: 1a9c 153d ac81 523d 58cc e03c c306 1a3d
00000230: 06ff c23c e953 b63c 522d 873b 05a1 53bc
00000240: af59 05bf 1834 173d 81a6 243d 3d2e 3d3c
00000250: 39f7 133d af4e 513d 5541 f33c 1a2b 053d
00000260: 9468 353d cbf0 153e a921 d53c 8736 043d
00000270: 899a 873c 5125 95bc 671e e03c 44ab 113d
00000280: 372f 2b3d f852 243c 9f75 f43d dd45 53ba
00000290: e5dc 923c 2e7f 7c3c 5296 98bd cd74 0f3d
000002a0: 0aa0 9d3d 5de6 133e 632c f33c 41d7 f03d
000002b0: 42ba 933b 30fc 183d 754d 123d 3520 003d
000002c0: 361f 173d 9a80 873c afea b63c e718 073e
000002d0: 6735 2d3d 177a 96bd ce4b 3c3d d889 0c3d
000002e0: 8b83 f63c 0e7f 013d c188 133d 9efb 3f3d
000002f0: 7de3 913d 0389 fa3c d502 a23b f622 1c3c
00000300: 19aa bf3c 5db6 2c3d 6dc4 da3c 579e 05bf
00000310: fa94 053d 62cc 2dbd 7e15 053d f0db 243d
00000320: e31b d63c 4ed5 63ba c626 213d 7c8d ca3c
00000330: 2839 c83d 8cd7 123c 8b44 293d 8378 8a3d
00000340: 4386 2d3d b01f 603d 7673 04bf 82e4 543d
00000350: c160 863d 2274 773c 1d89 fa3b af09 383a
00000360: 0637 1c3d 80a6 b33c 700e fc3c bb1c 623d
00000370: dc96 203d d5df 073d 2b80 af3d 245b 62bb
00000380: a3bb 0b3d a205 873c 8412 123d 9eaa 853c
00000390: 0e93 f43c 586b c4bb ce25 193d 8faf 953c
000003a0: 8af5 6cb8 74ca 323d 71e9 07bc 565a d33c
000003b0: d0db 333d f27a 913d e422 683d 7067 163c
000003c0: 7e7b e73b f68c e93c 20cd 02bf cf3a 263d
000003d0: 1880 ef3c 86d8 df3c ddca db3c c555 1c3d
000003e0: 24cc 0c3d a348 4fbb 999d 1b3d a250 453d
000003f0: f2a9 b03b 932d 2b3d bb80 4b3d 4f92 5f3c

net.4.weight f4 [256, 256]
-0.0010980088 4.1919415e-05 0.00037036688 0.0028152145 -0.00050968636 3.1155865e-05 0.0002889035 0.0064360574
0.004601196 0.00017867445 -0.0010498848 5.1840372e-05 -1.7516695e-05 -0.0003285367 2.9462519e-05 0.0028368377
0.0002969548 0.00033162528 6.763433e-05 -0.0030704737 -0.0010480045 1.2019394e-05 -0.0029539757 -0.00040442008
-0.004455308 -0.00090886006 -5.014423e-05 0.00014520854 -0.00033095383 0.0031151196 0.0015031606 -0.0003089207
-0.00046695897 0.0050887554 0.0001426582 -0.00042930024 4.6615e-05 0.0004071777 0.000156693 -0.00018477127
-0.00051297457 -0.0025199882 1.1579727e-05 0.00026204024 4.723063e-05 0.00046231132 0.0005075825 1.39444755e-05
-0.002491747 -8.129774e-06 -0.00283837 4.5316992e-06 -0.0018442455 8.449825e-06 -0.0033852712 2.6793401e-05
-0.00011671237 3.9042433e-10 0.00013385931 0.0015133998 0.00039062506 -0.00043239674 -9.7013406e-05 -0.000888837
0.0008626294 -0.0012761961 0.00025143684 0.00045234198 -0.0032644388 0.00022326222 -0.0055718557 4.1999578e-05
-3.9966453e-05 3.1226966e-05 3.8920714e-07 2.977495e-06 -0.0004883206 -0.004530671 0.001070278 -3.8433154e-05
-0.0011441809 7.622755e-06 0.000276835 -0.0034832938 1.1114259e-05 -0.0006741131 -0.0007956619 0.0002848403
1.3151753e-06 0.000116558724 0.004020194 1.1949259e-05 0.00021712825 1.5495649e-05 -3.3903536e-05 -0.000119334494
0.00054499606 0.0034833164 1.5758815e-05 -0.0007702054 2.9282191e-05 0.00049676496 0.0012399771 -1.0647375e-05
-2.4654108e-05 -3.361075e-05 -0.00043192328 -0.000860118 5.0446107e-07 -0.00034782742 4.1562544e-05 0.0003898343
-0.0030577944 0.00013489624 0.00013420978 -0.0010892977 7.843346e-06 0.0008532452 -0.000269054 0.00012180404
0.000352033 -3.3237728e-05 -0.0006893619 -6.457258e-05 -0.0004085495 0.004682227 -0.00070959196 -0.00061048835
0.0013731999 1.8417502e-05 6.892257e-05 -0.00037549093 0.00043536918 -0.00039386842 0.00158459 -0.0010465384
-0.0037027625 -0.00035594765 -0.00042666285 0.00014819948 -0.0049748668 7.5753605e-06 -6.786518e-05 0.0014131498
0.005996805 5.2910425e-05 6.8132154e-05 -0.00053594157 0.0013456831 0.007838491 -0.0001448541 1.2098434e-05
-0.0007269257 1.326757e-05 -0.00026916695 -0.0063021877 0.0003697549 -0.0022945488 8.33809e-05 3.7345893e-05
-0.00016474166 -0.0020844205 0.00059809425 -0.00036789945 0.00082267687 0.0010828502 -0.0009432887 0.00016485801
-4.818199e-05 5.7561233e-06 -0.00199246 -1.4995848e-05 -4.594348e-05 -4.2760432e-05 -1.734208e-07 -0.00036195235
0.00018614942 0.0007675087 0.00024334574 -8.6228e-05 -0.0032351592 -0.004147026 -0.0002338153 1.2920013e-06
-0.00021566711 -6.002026e-05 2.1727371e-06 -0.0005589538 0.0023282212 0.0035371846 0.003250782 -0.00010747091
-1.2964213e-05 0.00017401233 -0.0009734316 0.0031183604 0.0038078185 2.4965908e-05 -0.00046719637 0.00015829343
-0.0007847835 -6.7462156e-06 1.05567494e-07 -0.0006952048 1.7146647e-06 0.00015300128 0.0023477843 0.001962335
4.8937096e-07 0.0020527 0.006570318 -7.5183154e-05 4.6863726e-05 -0.0005100989 0.0008530329 -0.00017603279
0.0007576382 0.00055257697 -0.00019926688 -0.00010443388 0.00012957522 -1.1575568e-06 2.3542767e-05 0.00032082677
0.001892113 0.0028916101 8.43561e-06 0.00015967978 -0.0002679636 0.0013597833 -0.00038050278 5.9804242e-05
-0.0002917864 -1.1691643e-05 0.0045791846 1.666658e-05 -0.00040295787 -0.00032870017 -0.0002344475 -0.0008761015
-0.00047293075 0.0014309661 0.0054191602 -3.571277e-05 0.0014679703 0.0004140016 -0.00084690726 -1.6801578e-05
0.0017265171 -0.0011331685 -6.741903e-06 -0.0019788006 0.00086200784 -2.8940674e-05 2.6874404e-06 -0.0014960512
00000000: 10eb 8fba a1d2 2f38 cd2d c239 767f 383b
00000010: 799c 05ba 5bad 0238 f977 9739 90e5 d23b
00000020: a1c5 963b 8f5a 3b39 4a9c 89ba 2d6f 5938
00000030: d1f0 92b7 733f acb9 4726 f737 3dea 393b
00000040: 99b0 9b39 fedd ad39 e8d6 8d38 003a 49bb
00000050: 325d 89ba e7a6 4937 7d97 41bb 5808 d4b9
00000060: d5fd 91bb 9140 6eba f551 52b8 1f43 1839
00000070: df83 adb9 0927 4c3b b305 c53a a2f6 a1b9
00000080: 2cd2 f4b9 93bf a63b 8596 1539 b413 e1b9
00000090: 7a84 4338 777a d539 f54d 2439 29bf 41b9
000000a0: 2479 06ba 6326 25bb 8c46 4237 7262 8939
000000b0: 8119 4638 6062 f239 490f 053a 11f3 6937
000000c0: 944c 23bb 1d65 08b7 f203 3abb 000f 9836
000000d0: 9cba f1ba b9c3 0d37 6ddb 5dbb 64c2 e037
000000e0: 7ac3 f4b8 57a3 d62f 965c 0c39 455d c63a
000000f0: cfcc cc39 4fb3 e2b9 ad73 cbb8 d700 69ba
00000100: 1422 623a 0946 a7ba 48d3 8339 5028 ed39
00000110: 32f0 55bb 7f1b 6a39 1d94 b6bb b428 3038
00000120: a7a1 27b8 b3f9 0238 39f4 d034 f9d0 4736
00000130: a402 00ba 0676 94bb 9248 8c3a 4933 21b8
00000140: 57f8 95ba f8c6 ff36 2a24 9139 f947 64bb
00000150: 6177 3a37 f7b6 30ba f793 50ba 9e56 9539
00000160: 1485 b035 fd70 f438 d5bb 833b ad79 4837
00000170: ecac 6339 a7fc 8137 a533 0eb8 3843 fab8
00000180: 11de 0e3a 5a48 643b cc31 8437 9ce7 49ba
00000190: 07a3 f537 5539 023a ba86 a23a 21a2 32b7
000001a0: 4bd0 ceb7 45f9 0cb8 c373 e2b9 8b79 61ba
000001b0: 4d6a 0735 9b5c b6b9 7153 2e38 ad62 cc39
000001c0: 4765 48bb ef72 0d39 aaba 0c39 c4c6 8eba
000001d0: ea96 0337 51ac 5f3a d10f 8db9 0c71 ff38
000001e0: 1291 b839 bd68 0bb8 4bb6 34ba 246b 87b8
000001f0: 9632 d6b9 5e6d 993b e903 3aba 2e09 20ba
00000200: f1fc b33a 497f 9a37 868a 9038 8add c4b9
00000210: 4342 e439 2080 ceb9 04b2 cf3a 002c 89ba
00000220: 0caa 72bb 7c9e bab9 b8b1 dfb9 ff65 1b39
00000230: 3504 a3bb da2f fe36 d752 8eb8 7039 b93a
00000240: d980 c43b 23ec 5d38 2ce2 8e38 6e7e 0cba
00000250: a261 b03a 046d 003c fae3 17b9 61fa 4a37
00000260: 288f 3eba c797 5e37 fa1e 8db9 9582 cebb
00000270: aadb c139 2460 16bb c8dc ae38 d9a3 1c38
00000280: 81be 2cb9 c69a 08bb 6dc9 1c3a a1e2 c0b9
00000290: e9a8 573a 6cee 8d3a 0847 77ba bcdd 2c39
000002a0: 0517 4ab8 b924 c136 ef93 02bb ad96 7bb7
000002b0: 70b3 40b8 aa59 33b8 8c35 3ab4 6cc4 bdb9
000002c0: 1b31 4339 a332 493a a02a 7f39 4ed5 b4b8
000002d0: f704 54bb c7e3 87bb 512c 75b9 d468 ad35
000002e0: b324 62b9 43be 7bb8 57cf 1136 c186 12ba
000002f0: 1295 183b 1cd0 673b 120b 553b 0162 e1b8
00000300: df80 59b7 1477 3639 e42d 7fba 685d 4c3b
00000310: 988c 793b e16d d137 09f2 f4b9 92fb 2539
00000320: eeb9 4dba 8d5d e2b6 58b4 e233 683e 36ba
00000330: 6e23 e635 f86e 2039 49dd 193b 859a 003b
00000340: 515d 0335 9786 063b d24b d73b a6ab 9db8
00000350: 8b8f 4438 28b8 05ba 129e 5f3a 7195 38b9
00000360: 3d9c 463a d0da 103a 4cf2 50b9 8303 dbb8
00000370: 95de 0739 595d 9bb5 b57d c537 a434 a839
00000380: c700 f83a 2b81 3d3b ab86 0d37 b76f 2739
00000390: 777d 8cb9 c23a b23a 387e c7b9 51d6 7a38
000003a0: e8fa 98b9 3927 44b7 fc0c 963b 35cf 8b37
000003b0: 1744 d3b9 6455 acb9 06d6 75b9 2daa 65ba
000003c0: b1f3 f7b9 418f bb3a 3693 b13b 4bca 15b8
000003d0: e968 c03a 5b0e d939 fc02 5eba 1df1 8cb7
000003e0: 4d4c e23a d386 94ba 8138 e2b6 c4ae 01bb
000003f0: 5ef8 613a a0c5 f2b7 e059 3436 2617 c4ba

net.4.bias f4 [256]
-0.036257632 -0.07287024 -0.08299829 -0.00088479655 -0.04091611 -0.123353735 -0.08044039 -0.11017574
-0.054268524 -0.048561554 -0.12186159 -0.053049468 -0.06938053 -0.08966506 -0.06309544 -0.11319061
-0.16390023 -0.12089011 -0.023818523 -0.05046336 -0.098062634 -4.908221e-12 -0.1194303 -0.049472794
-0.08857908 -0.020527165 -0.0968906 -0.13811184 -0.096830934 -0.0572776 -0.036687624 -0.13857348
-0.02793835 -0.027588455 -0.09110342 -0.14137405 -0.08612159 -0.011600953 -0.11374281 -0.09648233
-0.11313199 -0.12505364 -0.077986725 -0.013615399 -0.112057075 -0.053166844 -0.068069704 -0.09919741
-0.073700644 -0.057809804 -0.12656099 -0.11710447 -0.12570207 -0.096696764 -0.08020043 -0.17345409
-0.0566297 0.0038520857 -0.08147902 -0.0973156 -0.06806808 -0.11029184 -0.06255259 -0.08147066
-0.072962865 -0.11534609 -0.09643794 -0.117923334 -0.12102243 -0.045437478 -0.1329264 -0.12041961
-0.11966688 -0.10075912 -0.07026904 -0.11731869 -0.092952915 -0.04474055 -0.056818705 -0.12057375
-0.1564758 -0.10027657 -0.121089846 -0.09098356 -0.07559573 -0.11333246 -0.07990448 -0.13683777
-0.115110084 -0.10892072 -0.056086015 -0.1416214 -0.09892242 -0.062499147 -0.058614515 -0.10557306
-0.07856137 -0.038831126 -0.051958073 -0.046656284 -0.05172302 -0.08800696 -0.040490285 -0.14663078
-0.17752399 -0.0047654626 -0.08819464 -0.10350207 -0.12792611 -0.058937803 0.0034522745 -0.11666161
-0.09464546 -0.05140187 -0.035634354 -0.087191194 -0.012522848 -0.08143085 -0.09174187 -0.07666857
-0.09635778 -0.03566291 -0.075326905 -0.06985341 -0.09928845 -0.062111016 -0.07273282 -0.089302905
-0.14148103 -0.118727684 -0.09953644 -0.026149556 -0.10601513 -0.1389597 -0.017588861 -0.15908329
-0.1235285 -0.060921412 -0.062107712 -0.09050509 -0.113572426 -0.10287329 -0.06730562 -0.16870825
-0.124280736 -0.07512941 -0.026741935 -0.07892426 -0.12347788 -1.014825e-07 -0.20147812 -0.05244421
-0.095652 -0.06885545 -0.123339884 -0.12919575 -0.05756274 -0.046147447 -0.07981838 -0.007813265
-0.10057648 -0.061826687 -0.06531515 -0.057209406 -0.04563779 -0.094490044 -0.08756451 -0.0053274026
-0.077139765 -0.010864473 -0.11800878 -0.11184479 -0.12192293 -0.08276867 -0.13475734 -0.02251569
-0.070589006 -0.05067723 -0.1017924 -0.08780087 -0.013477304 -0.042200834 -0.08832197 -0.044574518
-0.10345085 -0.14104585 -0.05264742 -0.124960184 -0.04043681 -0.13153148 -0.10798905 -0.009923295
-0.1210672 -0.07420877 -0.120817125 -0.09942946 -0.054744933 -0.07361727 -0.10512543 -0.13859464
-0.11405305 -0.06003585 -0.09364822 -0.07379817 -0.09544203 -0.08030418 -0.0497271 -0.15222606
-0.06473356 -0.08781974 -0.08188434 -0.07517176 -0.0479751 -0.06682987 -0.056311417 -0.08975749
-0.11510932 -0.07601328 -0.17980117 -0.026882162 -0.06905264 -0.10308064 -0.13126014 -0.063452385
-0.053560555 -0.02597519 -0.046013206 -0.12260662 -0.05476376 -0.13797764 -0.13658096 -0.04326634
-0.002089642 -0.13796431 -0.035086326 -0.0651543 -0.06882782 -0.06669941 -0.07147225 -0.07560323
-0.0923615 -0.06734506 -0.08296724 -0.09603152 -0.08813684 -0.066232055 -0.11354685 -0.08311578
-0.10072733 -0.07824019 -0.054569796 -0.0028471537 -0.13282071 -0.09936014 -0.05909387 -0.0136313895
00000000: e282 14bd fe3c 95bd 02fb a9bd b1f1 67ba
00000010: a797 27bd e2a0 fcbd eebd a4bd d2a3 e1bd
00000020: ac48 5ebd 7be8 46bd 9292 f9bd 664a 59bd
00000030: 6117 8ebd 51a2 b7bd 2f38 81bd 7bd0 e7bd
00000040: 76d5 27be 3c95 f7bd 101f c3bc abb2 4ebd
00000050: 10d5 c8bd 53b1 acac e097 f4bd fca3 4abd
00000060: f368 b5bd 9628 a8bc 946e c6bd 316d 0dbe
00000070: 4c4f c6bd eb9b 6abd c345 16bd 35e6 0dbe
00000080: f7de e4bc 2f01 e2bc 6e94 babd 5cc4 10be
00000090: 8460 b0bd ec11 3ebc fef1 e8bd 8798 c5bd
000000a0: bfb1 e7bd 100e 00be 81b7 9fbd 1f13 5fbc
000000b0: 2e7e e5bd 7ac5 59bd 2168 8bbd 0328 cbbd
000000c0: 5df0 96bd f9c9 6cbd 3499 01be 78d4 efbd
000000d0: 0bb8 00be f408 c6bd 1f40 a4bd f39d 31be
000000e0: 8bf4 67bd 4673 7c3b 79de a6bd 674d c7bd
000000f0: 4767 8bbd b0e0 e1bd 931b 80bd 17da a6bd
00000100: 8e6d 95bd 923a ecbd 4181 c5bd ca81 f1bd
00000110: 9cda f7bd a61c 3abd dc1d 08be 8e9e f6bd
00000120: e913 f5bd cc5a cebd 37e9 8fbd c844 f0bd
00000130: 195e bebd de41 37bd bbba 68bd 5fef f6bd
00000140: 313b 20be cd5d cdbd f4fd f7bd 9755 babd
00000150: efd1 9abd d91a e8bd f6a4 a3bd 331f 0cbe
00000160: d6be ebbd d411 dfbd 73ba 65bd 3305 11be
00000170: d697 cabd 1bff 7fbd c615 70bd b036 d8bd
00000180: c9e4 a0bd 630d 1fbd fdd1 54bd a91a 3fbd
00000190: 84db 53bd fe3c b4bd 24d9 25bd 6126 16be
000001a0: d9c8 35be 9927 9cbb 649f b4bd e5f8 d3bd
000001b0: 10ff 02be c468 71bd 8e3f 623b 48ec eebd
000001c0: 7bd5 c1bd c48a 52bd 54f5 11bd 4c91 b2bd
000001d0: a22c 4dbc 38c5 a6bd 29e3 bbbd 6904 9dbd
000001e0: 3a57 c5bd 4613 12bd fe44 9abd 4e0f 8fbd
000001f0: be57 cbbd 1f68 7ebd f2f4 94bd 71e4 b6bd
00000200: 67e0 10be 8027 f3bd c3d9 cbbd 9837 d6bc
00000210: 761e d9bd 744b 0ebe 8416 90bc bbe6 22be
00000220: 83fc fcbd bb88 79bd a864 7ebd bc5a b9bd
00000230: a998 e8bd 3baf d2bd 87d7 89bd dbc1 2cbe
00000240: e686 febd 73dd 99bd e711 dbbc 0ba3 a1bd
00000250: f9e1 fcbd 98ee d9b3 4850 4ebe bdcf 56bd
00000260: 32e5 c3bd 1604 8dbd 9f99 fcbd e44b 04be
00000270: e8c6 6bbd 1b05 3dbd d277 a3bd 3503 00bc
00000280: 0bfb cdbd fb3d 7dbd f3c3 85bd 6954 6abd
00000290: b1ee 3abd ff83 c1bd 0655 b3bd 7e91 aebb
000002a0: 74fb 9dbd e700 32bc 96ae f1bd e20e e5bd
000002b0: bbb2 f9bd 9f82 a9bd d4fd 09be d372 b8bc
000002c0: f890 90bd ed92 4fbd 8978 d0bd f1d0 b3bd
000002d0: e9cf 5cbc c8da 2cbd 26e2 b4bd c593 36bd
000002e0: 0ade d3bd 536e 10be d2a4 57bd 20eb ffbd
000002f0: 12a1 25bd 30b0 06be 5d29 ddbd 5195 22bc
00000300: 15f2 f7bd c5fa 97bd f86e f7bd aca1 cbbd
00000310: 393c 60bd a7c4 96bd 004c d7bd c1eb 0dbe
00000320: a594 e9bd 27e8 75bd a3ca bfbd 7f23 97bd
00000330: 1c77 c3bd 8576 a4bd a5ae 4bbd 26e1 1bbe
00000340: 0793 84bd d6da b3bd fab2 a7bd a7f3 99bd
00000350: 8a81 44bd 19de 88bd cda6 66bd c6d2 b7bd
00000360: 6fbe ebbd daac 9bbd cc1d 38be fb37 dcbc
00000370: 786b 8dbd f11b d3bd 0f69 06be 53f3 81bd
00000380: 5062 5bbd ecc9 d4bc 5878 3cbd 2e19 fbbd
00000390: f74f 60bd 034a 0dbe e1db 0bbe 0c38 31bd
000003a0: 60f2 08bb 8446 0dbe aeb6 0fbd 9e6f 85bd
000003b0: 9af5 8cbd b399 88bd 0b60 92bd ded5 9abd
000003c0: 0728 bdbd 35ec 89bd baea a9bd 2cac c4bd
000003d0: 1681 b4bd aca4 87bd 408b e8bd 9b38 aabd
000003e0: 214a cebd 653c a0bd 9484 5fbd 5097 3abb
000003f0: 2702 08be 547d cbbd 6a0c 72bd 3156 5fbc

net.6.weight f4 [256]
0.4192335 0.2604614 0.1784874 0.28006956 0.33826068 0.47353548 0.37150434 0.27963653
0.30575284 0.32935548 0.3202567 0.30463842 0.421149 0.28742307 0.3433962 0.31528214
0.44862163 0.28782287 0.49001437 0.2510703 0.3049176 0.47570336 0.40138763 0.30758974
0.46662527 0.30916986 0.32245293 0.53494346 0.27054965 0.2968421 0.27810374 0.5000456
0.29729316 0.30834737 0.27773649 0.5008871 0.4568489 0.28922614 0.36223695 0.31260285
0.25116363 0.42187583 0.32930315 0.29607177 0.3124498 0.22852509 0.3535099 0.49866226
0.35724792 0.27342704 0.4486789 0.45622906 0.24294403 0.36218345 0.5096069 0.507263
0.28899783 0.04353404 0.34367225 0.300654 0.2654966 0.32809108 0.32026228 0.26367766
0.2849617 0.29325452 0.2451454 -0.34199372 0.4384466 0.48276734 0.48599356 0.44443268
0.36202753 0.4689905 0.42995566 0.53346133 0.26652056 0.27459514 0.2885644 0.30152473
0.45546412 0.23870052 0.38732788 0.25671598 0.36109293 0.41846666 0.29291037 0.48857692
0.25605676 0.45134473 0.32338697 0.4901487 0.28720254 0.22756374 0.24674292 0.3055931
0.2530233 0.3324369 0.27192795 0.3249306 0.34418014 0.27818573 0.25222924 0.47018614
0.51888925 0.119921274 0.30409822 0.4213378 0.43476343 0.37709236 0.21032688 0.42928842
0.289102 0.4900004 0.24406345 0.32071173 0.28094897 0.38933745 0.26324344 0.268782
0.21897939 0.28130707 0.26708376 0.28421915 0.2774619 0.29289556 0.48339492 0.2990116
0.4413713 0.26648852 0.43873075 0.28451294 0.2863265 0.43609354 0.23972487 0.45585734
0.3169981 0.31801936 0.2914617 0.31073228 0.451339 0.47854427 0.266504 0.38925827
0.37246367 0.24832793 0.26442447 0.24898437 0.48828104 0.47703916 0.53475136 0.29596096
0.41282648 0.31993464 0.49827653 0.25541124 0.21489316 0.29607967 0.30742562 0.119329765
0.3202454 0.30676278 0.32479918 0.35863292 0.26276594 0.34252948 0.3277133 0.4741703
0.26136395 0.31333172 0.4469316 0.29253477 0.44311717 0.30743533 0.37912947 0.21798441
0.32496193 0.26076734 0.43168232 0.38343158 0.111181036 0.30506352 0.44927675 0.26287514
0.40941858 0.53728807 0.43353477 0.30052647 0.44394612 0.38724262 0.23946445 0.12902366
0.46770588 0.4108692 0.36366677 0.22815584 0.2871298 0.3142244 0.27382573 0.25573793
0.3021675 0.2844834 0.25789335 0.34466633 0.30447394 0.39816454 0.25112227 0.5193777
0.26105288 0.3388609 0.362919 0.3594446 0.17234522 0.4357877 0.28365394 0.46068108
0.31910312 0.28311583 0.41146624 0.42898262 0.35005432 0.39279333 0.20867583 0.43173674
0.2896301 0.42967966 0.2782541 0.45653853 0.3604906 0.48497444 0.30551088 0.19026117
0.2629276 0.3726714 0.29765815 0.139645 0.31342512 0.25722277 0.27626824 0.26533562
0.41048145 0.25247377 0.35416204 0.18013345 0.50794786 0.417166 0.51933086 0.29902032
0.3856133 0.30109593 0.23827238 0.4874323 0.52578926 0.3949712 0.29352772 0.31942424
00000000: c6a5 d63e 325b 853e 67c5 363e 4765 8f3e
00000010: 8130 ad3e 3e73 f23e d135 be3e 852c 8f3e
00000020: a38b 9c3e 48a1 a83e b0f8 a33e 91f9 9b3e
00000030: d7a0 d73e 1e29 933e a0d1 af3e a96c a13e
00000040: bcb1 e53e 855d 933e 2ae3 fa3e 498c 803e
00000050: 291e 9c3e 648f f33e ae82 cd3e 677c 9d3e
00000060: 82e9 ee3e 834b 9e3e 8d18 a53e 0ef2 083f
00000070: 7c85 8a3e b0fb 973e 9d63 8e3e fd02 003f
00000080: cf36 983e b5df 9d3e 7a33 8e3e 233a 003f
00000090: 19e8 e93e 7315 943e 1f77 b93e 7b0d a03e
000000a0: 8598 803e 1c00 d83e 6c9a a83e b896 973e
000000b0: 6cf9 9f3e 7b02 6a3e 40ff b43e a950 ff3e
000000c0: 33e9 b63e a1fe 8b3e 3eb9 e53e db96 e93e
000000d0: 52c6 783e 1c70 b93e 9975 023f fddb 013f
000000e0: 86f7 933e c050 323d cff5 af3e 52ef 993e
000000f0: 2cef 873e 8efb a73e 6bf9 a33e c200 873e
00000100: 80e6 913e 7525 963e 6507 7b3e cd19 afbe
00000110: 137c e03e 482d f73e 26d4 f83e ae8c e33e
00000120: ac5b b93e 861f f03e 2623 dc3e ec90 083f
00000130: 6275 883e bc97 8c3e b7be 933e 7361 9a3e
00000140: 9832 e93e e96d 743e d74f c63e 4770 833e
00000150: 2ce1 b83e 4341 d63e 59f8 953e c126 fa3e
00000160: df19 833e a816 e73e fa92 a53e c5f4 fa3e
00000170: 360c 933e 7806 693e 2daa 7c3e b376 9c3e
00000180: 458c 813e 2b35 aa3e 243a 8b3e 4e5d a63e
00000190: 6138 b03e 5c6e 8e3e 3124 813e 3dbc f03e
000001a0: edd5 043f 4999 f53d c3b2 9b3e 97b9 d73e
000001b0: 5099 de3e 4012 c13e ee5f 573e b1cb db3e
000001c0: 2d05 943e 55e1 fa3e c5eb 793e 5434 a43e
000001d0: 8bd8 8f3e 3d57 c73e d8c7 863e cb9d 893e
000001e0: 223c 603e 7b07 903e 34bf 883e 2c85 913e
000001f0: 7c0f 8e3e 68f6 953e 8a7f f73e 0c18 993e
00000200: 6bfb e13e 2f71 883e 51a1 e03e aeab 913e
00000210: 6399 923e a747 df3e 707a 753e 2266 e93e
00000220: 934d a23e 6fd3 a23e 783a 953e 4d18 9f3e
00000230: e815 e73e c103 f53e 3673 883e dc4c c73e
00000240: 8fb3 be3e ad49 7e3e a562 873e c2f5 7e3e
00000250: f9ff f93e 7a3e f43e 77e5 083f 3288 973e
00000260: fe5d d33e 79ce a33e 1a1e ff3e 43c5 823e
00000270: f40c 5c3e c197 973e e466 9d3e 2a63 f43d
00000280: 34f7 a33e 0310 9d3e 144c a63e bc9e b73e
00000290: 4289 863e 0660 af3e 0aca a73e 73c6 f23e
000002a0: 7fd1 853e 046d a03e 38d4 e43e 1ec7 953e
000002b0: 41e0 e23e 2a68 9d3e 421d c23e 4e37 5f3e
000002c0: 6961 a63e 4c83 853e 7705 dd3e 2551 c43e
000002d0: e2b2 e33d 4931 9c3e 9a07 e63e 9297 863e
000002e0: 509f d13e b68b 093f 45f8 dd3e 9bde 993e
000002f0: e84c e33e aa44 c63e 2b36 753e c71e 043e
00000300: 2577 ef3e 735d d23e 8832 ba3e afa1 693e
00000310: ad02 933e 05e2 a03e e332 8c3e 15f0 823e
00000320: b3b5 9a3e cfa7 913e 990a 843e 1b78 b03e
00000330: 02e4 9b3e 39dc cb3e 1993 803e f0f5 043f
00000340: b9a8 853e 2d7f ad3e 85d0 b93e 1f09 b83e
00000350: 447b 303e 911f df3e 173b 913e 64de eb3e
00000360: 7c61 a33e 8ff4 903e b4ab d23e 9ca3 db3e
00000370: 523a b33e 351c c93e 1eaf 553e 990c dd3e
00000380: 654a 943e f9fe db3e 5277 8e3e 6bbf e93e
00000390: 3992 b83e 924e f83e ec6b 9c3e d3d3 423e
000003a0: 729e 863e c9ce be3e a666 983e 19ff 0e3e
000003b0: 4279 a03e b4b2 833e 0873 8d3e 12da 873e
000003c0: a02a d23e 3e44 813e ba54 b53e e774 383e
000003d0: df08 023f c896 d53e def2 043f 3119 993e
000003e0: 1b6f c53e 3f29 9a3e adfd 733e ba90 f93e
000003f0: 209a 063f aa39 ca3e 4449 963e 938b a33e

net.6.bias f4 [256]
0.03754272 0.020455083 -0.008876199 0.008456624 0.025620706 0.03624321 0.02664859 0.023136115
0.016313076 0.02576811 0.028467873 0.03099296 0.033903968 0.008639237 0.02276797 0.019604996
0.03869693 0.022498194 0.037242968 0.00018902188 0.01532238 0.041627053 0.028698558 0.01941753
0.035142303 0.016803838 0.025206264 0.04507515 0.017646171 0.017689105 0.013075303 0.040028356
0.010665189 0.014358049 0.024458345 0.035863776 0.03344505 0.010638305 0.027019512 0.018768571
0.022488594 0.033359207 0.02619853 0.014751931 0.025758965 0.014020952 0.029876651 0.03840721
0.016854858 0.011312281 0.037732977 0.03090171 0.01919544 0.029188462 0.042596973 0.035645783
0.02778021 -0.65651137 0.031952113 0.021944823 0.02364062 0.019014146 0.025376223 0.020091975
0.020701177 0.02537937 0.01020613 -0.023900863 0.03997082 0.040063027 0.041553732 0.03787484
0.026749505 0.036775164 0.037471753 0.04502453 0.022332221 0.017480303 0.023016237 0.02531937
0.03536639 0.020567339 0.039089832 0.024721056 0.030891687 0.03724111 0.017235192 0.042158358
0.024718681 0.032741234 0.020127898 0.04278349 0.02995901 0.013494982 0.016218662 0.031210767
0.02132856 0.021499094 0.016548313 0.025294086 0.0146892015 0.013816356 0.005596105 0.036794696
0.040348582 -0.02256716 0.027516918 0.031091182 0.035381965 0.021060465 -0.005235344 0.03640958
0.022142896 0.038423374 0.017044097 0.023827292 0.011789487 0.03137769 0.020799944 0.016339343
0.015861198 0.015020846 0.02251507 0.014679867 0.024221381 0.017582728 0.044215545 0.022752095
0.03789591 0.02430982 0.03484605 0.018879153 0.024995599 0.03853827 0.0075071305 0.03987293
0.02656451 0.025631895 0.0259339 0.028696228 0.03608394 0.039140955 0.015994139 0.027563274
0.03468483 0.014953339 0.0022521638 0.012772705 0.04513556 0.03534222 0.040920813 0.018121498
0.02956245 0.025247786 0.038551144 0.02170939 0.014948283 0.021457182 0.024401505 -0.028418511
0.025772525 0.02209095 0.027350847 0.027452044 0.01520514 0.028776119 0.025182528 0.0393652
0.019501287 0.011636206 0.038243372 0.023094594 0.039827608 0.025603224 0.028336726 0.008070949
0.02464337 0.017904783 0.029783582 0.03555762 -0.02458987 0.020347588 0.037764434 0.0026480588
0.03846994 0.042660028 0.03545428 0.025468701 0.03693816 0.02840683 0.022628268 -0.028749328
0.041417837 0.026821526 0.0267063 0.015513116 0.018732421 0.021480272 0.02108769 0.02545621
0.023473024 0.01804738 0.018439014 0.023202335 0.026553812 0.0328591 0.0114704715 0.040283598
0.022732226 0.029558748 0.026521398 0.02660675 -0.011829039 0.035728674 0.01478207 0.03865318
0.02996051 0.0188281 0.03361476 0.032454275 0.019969394 0.025657639 0.0047079166 0.036462583
0.020292295 0.03334588 0.015118408 0.03576632 0.02710555 0.04094099 0.014837607 0.010787626
-0.0020647682 0.028979294 0.015337499 -0.0033386068 0.02380618 0.021772496 0.019341871 0.010893014
0.031296752 0.006675809 0.02799677 0.0066052196 0.035935935 0.03385212 0.04742313 0.02432747
0.03079753 0.026760655 0.009883794 0.035572786 0.042207267 0.027274136 0.017241811 0.01304138
00000000: 65c6 193d 6b91 a73c 7a6d 11bc a78d 0a3c
00000010: 84e2 d13c c373 143d 254e da3c f387 bd3c
00000020: 00a3 853c a517 d33c 7535 e93c f3e4 fd3c
00000030: e3de 0a3d 968b 0d3c e583 ba3c a89a a03c
00000040: ac80 1e3d 224e b83c 158c 183d 2d34 4639
00000050: b80a 7b3c 2181 2a3d 3d19 eb3c 8311 9f3c
00000060: 60f1 0f3d 34a8 893c 5e7d ce3c b8a0 383d
00000070: b48e 903c bee8 903c cc39 563c c6f4 233d
00000080: 0bbd 2e3c 063e 6b3c de5c c83c e5e5 123d
00000090: adfd 083d 494c 2e3c 0658 dd3c 8cc0 993c
000000a0: 003a b83c aaa3 083d 4d9e d63c 15b2 713c
000000b0: 7704 d33c 23b8 653c e1bf f43c e150 1d3d
000000c0: 3313 8a3c 2557 393c e58d 1a3d 9525 fd3c
000000d0: c13f 9d3c a41c ef3c 2a7a 2e3d 5001 123d
000000e0: 5393 e33c 2111 28bf 38e0 023d a1c5 b33c
000000f0: f9a9 c13c 8ec3 9b3c cce1 cf3c ed97 a43c
00000100: 8495 a93c 66e8 cf3c 9d37 273c becb c3bc
00000110: 71b8 233d 2119 243d 3f34 2a3d a622 1b3d
00000120: c721 db3c 8ea1 163d fb7b 193d a46b 383d
00000130: 10f2 b63c da32 8f3c 8c8c bc3c 916a cf3c
00000140: 59dc 103d d67c a83c a91c 203d d083 ca3c
00000150: 9010 fd3c 228a 183d d130 8d3c 3eae 2c3d
00000160: d57e ca3c ac1b 063d 43e3 a43c be3d 2f3d
00000170: 996c f53c 0f1a 5d3c 00dd 843c b9ad ff3c
00000180: 3bb9 ae3c de1e b03c 5490 873c 8b35 cf3c
00000190: faaa 703c ff5d 623c 885f b73b 09b6 163d
000001a0: 8e44 253d c4de b8bc 296b e13c efb2 fe3c
000001b0: aeec 103d ff86 ac3c 408d abbb 3622 153d
000001c0: 0565 b53c d461 1d3d 10a0 8b3c 7431 c33c
000001d0: b128 413c e585 003d a564 aa3c 16da 853c
000001e0: 58ef 813c ff19 763c 8671 b83c d383 703c
000001f0: eb6b c63c a709 903c 5c1b 353d 9a62 ba3c
00000200: be38 1b3d 6325 c73c bbba 0e3d 74a8 9a3c
00000210: 92c3 cc3c 4eda 1d3d 60fe f53b cc51 233d
00000220: d19d d93c fbf9 d13c 5573 d43c 5a14 eb3c
00000230: c1cc 133d 4452 203d 2406 833c 60cc e13c
00000240: ae11 0e3d d9fe 743c 0a99 133b 9c44 513c
00000250: 11e0 383d 01c3 103d 959c 273d 8973 943c
00000260: f32c f23c 72d4 ce3c cee7 1d3d e4d7 b13c
00000270: a5e9 743c f9c6 af3c aae5 c73c f0cd e8bc
00000280: e720 d33c 14f8 b43c e20e e03c 1ce3 e03c
00000290: fb1e 793c e5bb eb3c 974b ce3c 673d 213d
000002a0: 2ac1 9f3c c9a5 3e3c 15a5 1c3d e030 bd3c
000002b0: 4622 233d dabd d13c 6c22 e83c 043c 043c
000002c0: e5e0 c93c 0dad 923c b3fc f33c dea4 113d
000002d0: b270 c9bc fcaf a63c e1ae 1a3d 0e8b 2d3b
000002e0: a892 1d3d 48bc 2e3d 8238 113d bda3 d03c
000002f0: 784c 173d 71b5 e83c eb5e b93c b683 ebbc
00000300: c0a5 293d d1b8 db3c 2cc7 da3c b92a 7e3c
00000310: bc74 993c 65f7 af3c 17c0 ac3c 8b89 d03c
00000320: 804a c03c 19d8 933c 6a0d 973c d312 be3c
00000330: 6187 d93c 4397 063d a5ee 3b3c 6a00 253d
00000340: ef38 ba3c 3025 f23c 6743 d93c 66f6 d93c
00000350: 96ce 41bc 3b58 123d 7f30 723c cc52 1e3d
00000360: be6f f53c 633d 9a3c a1af 093d c6ee 043d
00000370: db96 a33c f82f d23c de44 9a3b ca59 153d
00000380: 073c a63c b195 083d 33b3 773c b47f 123d
00000390: 750c de3c bdb1 273d 6f19 733c 95be 303c
000003a0: 1051 07bb fc65 ed3c 224a 7b3c 87cc 5abb
000003b0: 2e05 c33c 3c5c b23c d872 9e3c 9d78 323c
000003c0: 0631 003d bfc0 da3b 7b59 e53c 9970 d83b
000003d0: 8f31 133d 85a8 0a3d c23e 423d 674a c73c
000003e0: 1a4b fc3c 2939 db3c a3ef 213c c5b4 113d
000003f0: 87e1 2c3d 026e df3c b33e 8d3c 83ab 553c
