RL code/MARL/Test/models/adversary_model_best_model.pth (torch, 83833 bytes, 6 tensors)

net.0.weight f4 [128, 22]
-0.100277975 0.13197243 -0.41572085 -0.33982652 -0.08387116 -0.06862908 -0.38612968 -0.07434393
0.045232877 -0.1422958 0.07878676 -0.2037431 -0.05057412 0.030129002 -0.28582782 -0.28937224
-0.1108544 0.36462265 -0.05366745 0.0317463 -0.017295329 0.10850443 0.519743 0.62959385
-0.4336247 0.9466123 0.16845293 0.4053624 0.17350262 0.31541958 -0.3140546 0.16310638
0.24422257 -3.5372453 0.122687005 -3.9411113 -0.03490707 0.70566857 -0.10717212 -0.09473217
-0.16590734 -0.17080964 0.38039786 -0.29658756 0.37366375 -0.37186292 -0.143955 0.114007056
-0.25920326 -0.33335814 0.14455263 -0.21891128 -0.021834185 0.27829018 0.10713096 0.041294053
-0.20683803 0.18521684 -0.2786124 -0.57270396 -0.18223207 -0.113551036 -0.18779938 0.31627792
0.11501356 -0.19518256 -1.0724968 -0.32954276 -0.5277429 0.06286164 0.18072805 0.16619384
0.1062798 0.026147466 1.7969577 0.6190581 0.6407312 0.26324534 0.41242155 0.17321838
0.3144362 0.05464551 -0.28173006 -0.14979845 -0.067218445 -0.03648102 -2.0166492 -0.8941472
-1.1682366 0.2750248 0.34010717 -0.1765434 -0.05453364 -0.0018674354 0.33443174 -0.19069305
-0.23246562 0.03807347 0.10544336 -0.42041036 0.03781526 -0.45162815 0.020851638 -0.0073268088
0.18594205 -0.050656505 0.047316216 0.38480797 -0.03200476 -0.19348739 0.012037613 0.0871322
-0.13990617 2.782569 -0.07935869 0.21418408 0.12276816 0.053438205 -0.029027143 1.1127243
0.120823726 0.8646381 0.05073197 1.0471673 0.0061791968 2.8885365 -0.056671098 -0.32340997
0.050791174 -0.26401672 -0.1257632 -1.0165544 -0.1353764 0.13264209 0.023182435 -0.23112231
-0.09003834 -0.02037518 -0.0030711424 0.28721008 0.030070208 -0.31767035 0.063659504 -0.26235935
0.35497394 0.048218437 0.6072862 -0.032244805 0.1593352 0.029620238 0.573675 -0.06944729
0.05426401 0.18446557 0.6276806 -0.56192493 0.043008253 -0.26961043 -0.113299154 0.033710953
-0.0055578863 -0.24048553 -0.019516828 0.06752172 0.09701945 -0.10359581 0.30908856 -0.16513894
-0.11966635 -0.33367026 0.22561464 -0.17949678 -0.039062895 0.21556333 -0.08575981 0.042728595
0.049389586 1.5794587 0.7404684 0.32899344 -0.9758829 0.25662065 -0.27022073 -0.19862674
0.19728377 -0.49860787 -0.37227407 -0.45306882 -0.32530922 -0.5640513 0.4522275 1.2404102
0.99056816 -0.1119582 0.89619565 -0.638731 -0.43784758 0.68296593 0.018143376 0.26732248
-0.13123485 -0.08503757 -0.16853899 0.10946951 0.03709139 0.29536638 0.2395335 -0.54817265
-0.40973744 3.444744 -0.12697989 3.3842518 -0.22620408 -0.285733 0.10843667 0.0010915054
-0.036211036 0.06190458 0.03363033 0.23946638 -0.5449423 -2.6286857 -0.90183765 -1.0048789
0.035297927 0.1419978 0.07823847 0.30206704 0.17014578 0.8156985 0.17095563 0.15311244
0.089086376 -0.15481268 0.16859923 0.35925695 -0.40417644 0.18317306 -0.28914562 -0.7144603
-0.17280483 -0.74508137 -0.1629322 0.3968622 0.006397009 0.14625496 -0.083567716 0.04394783
0.019266494 0.41501018 0.10754344 0.0726603 0.39444712 -0.23345724 0.1633245 -0.29550898
00000000: 8a5e cdbd c823 073e 5dd9 d4be befd adbe
00000010: a5c4 abbd 678d 8cbd cab2 c5be a141 98bd
00000020: 1c46 393d fdb5 11be f45a a13d 08a2 50be
00000030: cf26 4fbd 19d1 f63c 0658 92be 9928 94be
00000040: a207 e3bd d2af ba3e 66d2 5bbd 6908 023d
00000050: efae 8dbc 9237 de3d e10d 053f 102d 213f
00000060: 0f04 debe 2f55 723f ed7e 2c3e a98b cf3e
00000070: acaa 313e ad7e a13e c4cb a0be 5c05 273e
00000080: 7b15 7a3e 3a62 62c0 5343 fb3d 2b3b 7cc0
00000090: b7fa 0ebd b2a6 343f 0e7d dbbd f102 c2bd
000000a0: 9de3 29be b9e8 2ebe 82c3 c23e 53da 97be
000000b0: db50 bf3e d164 bebe f168 13be 887c e93d
000000c0: 4ab6 84be ebad aabe 9b05 143e 472a 60be
000000d0: 9bdd b2bc 0d7c 8e3e 7a67 db3d f423 293d
000000e0: 59cd 53be 7ca9 3d3e 49a6 8ebe ba9c 12bf
000000f0: 0b9b 3abe 728d e8bd 7b4e 40be 2eef a13e
00000100: 3b8c eb3d f0dd 47be 9347 89bf d4b9 a8be
00000110: 291a 07bf 9abd 803d c610 393e b82e 2a3e
00000120: 39a9 d93d 3633 d63c b602 e63f 977a 1e3f
00000130: f606 243f 18c8 863e eb28 d33e 2960 313e
00000140: c8fd a03e f8d3 5f3d ec3e 90be c464 19be
00000150: d3a9 89bd 1f6d 15bd c810 01c0 d5e6 64bf
00000160: c788 95bf 0dd0 8c3e 8722 ae3e cbc7 34be
00000170: ab5e 5fbd bcc4 f4ba a33a ab3e 0a45 43be
00000180: 780b 6ebe edf2 1b3d b0f2 d73d 0740 d7be
00000190: 2de4 1a3d ce3b e7be 0ed1 aa3c ba15 f0bb
000001a0: 9867 3e3e 327d 4fbd a6ce 413d 8d05 c53e
000001b0: 6c17 03bd 8f21 46be 6939 453c 5e72 b23d
000001c0: 9043 0fbe 9c15 3240 cf86 a2bd 1253 5b3e
000001d0: e06d fb3d 05e2 5a3d 55ca edbc c06d 8e3f
000001e0: 6e72 f73d ec58 5d3f 54cc 4f3d 9409 863f
000001f0: dc7a ca3b c8dd 3840 f41f 68bd fe95 a5be
00000200: 680a 503d 332d 87be 11c8 00be 741e 82bf
00000210: 1ca0 0abe 54d3 073e 17e9 bd3c 54ab 6cbe
00000220: 0566 b8bd d9e9 a6bc 3845 49bb 330d 933e
00000230: cc55 f63c b0a5 a2be ea5f 823d f753 86be
00000240: 25bf b53e b280 453d 1c77 1b3f 2113 04bd
00000250: c428 233e 24a6 f23c 5ddc 123f 613a 8ebd
00000260: f043 5e3d 8be4 3c3e adaf 203f 50da 0fbf
00000270: 6c29 303d 610a 8abe 6309 e8bd 7f14 0a3d
00000280: ee1e b6bb d741 76be c1e1 9fbc d448 8a3d
00000290: 22b2 c63d 0a2a d4bd db40 9e3e 2f1a 29be
000002a0: a213 f5bd d4d6 aabe 8607 673e 01ce 37be
000002b0: 6a00 20bd a2bc 5c3e d7a2 afbd 2e04 2f3d
000002c0: bc4c 4a3d b42b ca3f 568f 3d3f d471 a83e
000002d0: 76d3 79bf c863 833e 5f5a 8abe cf64 4bbe
000002e0: c204 4a3e 8849 ffbe b59a bebe a3f8 e7be
000002f0: ee8e a6be aa65 10bf 5d8a e73e c3c5 9e3f
00000300: e095 7d3f 574a e5bd 146d 653f e083 23bf
00000310: 8f2d e0be dbd6 2e3f 6ba1 943c 7ede 883e
00000320: 6e62 06be 2d28 aebd 7c95 2cbe 8d31 e03d
00000330: 24ed 173d 433a 973e 4548 753e 0b55 0cbf
00000340: 1bc9 d1be b076 5c40 0407 02be 9597 5840
00000350: 0ba2 67be 994b 92be 0b14 de3d d810 8f3a
00000360: 0652 14bd a88f 7d3d f5bf 093d ad36 753e
00000370: 5781 0bbf 633c 28c0 d5de 66bf df9f 80bf
00000380: 8f94 103d df67 113e 7e3b a03d 88a8 9a3e
00000390: b23a 2e3e 9ed1 503f fe0e 2f3e 82c9 1c3e
000003a0: eb72 b63d 3787 1ebe 47a5 2c3e 87f0 b73e
000003b0: 37f0 cebe b891 3b3e e50a 94be dfe6 36bf
000003c0: c0f3 30be a7bd 3ebf b3d7 26be 8631 cb3e
000003d0: 009e d13b dcc3 153e 8d25 abbd a402 343d
000003e0: c4d4 9d3c 377c d43e bc3f dc3d ecce 943d
000003f0: f9f4 c93e 6a0f 6fbe 8a3e 273e f44c 97be

net.0.bias f4 [128]
-1.9263176 -1.7673972 -1.8358785 0.39097056 -2.9017904 -3.9493265 -1.9106632 -2.1423202
-3.3830888 -1.1003462 -2.6060042 -2.6536005 -1.706404 -3.8438156 -3.7510912 -1.9186889
-3.1723611 -1.7596982 -1.6420856 -1.8519415 -4.10895 -0.532643 -1.5943134 -2.7633624
-3.752027 -0.8713329 -2.5410564 -3.5920029 -1.9896907 -2.1530898 -1.8665569 -1.9250998
-2.7515097 -2.5112588 -3.250517 -3.4028661 -4.2638845 -4.110426 -3.9719489 -3.3465886
-2.4101465 -2.3620927 -1.1252879 -0.5842223 -0.44449827 -1.1088874 -0.6159855 -2.4713018
-1.0285417 -3.262956 -1.4120793 -1.8330089 -3.5785856 -1.5405949 -3.7599406 -1.3187219
-0.67575544 -2.8934855 -3.3075428 -0.90482515 -1.6577017 -3.6704082 -3.165832 -3.344553
-3.9571433 -1.517475 -1.7354033 -1.214886 -2.6915338 -2.3053656 -3.825962 -3.1826127
-1.0071061 -2.5811803 -3.3925135 -2.1085014 -2.0307379 -3.7997754 -0.56564814 -3.191382
-0.8354013 -2.348068 -2.8350906 -1.2606393 -2.89238 -3.9470823 -1.4897933 -1.9966394
-0.7277271 -1.9048003 -4.3114896 -2.4232016 -3.8647368 -0.6128678 -2.1376915 0.72199756
-2.5118017 -4.6863966 -0.38467982 -3.8460863 -1.0705179 -3.675685 -0.6475795 -2.0470414
-0.8795211 -2.9610913 -0.5164663 -0.4970537 -1.6673882 -2.7489464 -1.7388802 -1.2564428
-2.131466 -2.5963323 -3.2975667 -2.2093794 0.279306 -3.8134885 -3.7907336 -1.5335667
-0.8532749 -2.610822 -1.8507909 -1.7195483 -2.3461318 -2.8247776 -0.74702406 -3.6378908
00000000: 9391 f6bf 123a e2bf 11fe eabf 4b2d c83e
00000010: efb6 39c0 c4c1 7cc0 9d90 f4bf c61b 09c0
00000020: 8784 58c0 25d8 8cbf c6c8 26c0 97d4 29c0
00000030: 726b dabf 1301 76c0 e111 70c0 9997 f5bf
00000040: f707 4bc0 ca3d e1bf dc2f d2bf 6b0c edbf
00000050: 857c 83c0 4b5b 08bf 7612 ccbf eeda 30c0
00000060: 3621 70c0 ac0f 5fbf aba0 22c0 60e3 65c0
00000070: 2fae febf 39cc 09c0 56eb eebf ac69 f6bf
00000080: bc18 30c0 77b8 20c0 7808 50c0 8fc8 59c0
00000090: be71 88c0 9c88 83c0 6934 7ec0 822e 56c0
000000a0: d73f 1ac0 872c 17c0 6f09 90bf 988f 15bf
000000b0: 4795 e3be 06f0 8dbf 3ab1 1dbf cf29 1ec0
000000c0: 41a7 83bf 45d4 50c0 04bf b4bf 09a0 eabf
000000d0: 8c07 65c0 3732 c5bf dea2 70c0 e1cb a8bf
000000e0: 4ffe 2cbf de2e 39c0 c8ae 53c0 9fa2 67bf
000000f0: 922f d4bf f8e7 6ac0 fe9c 4ac0 280d 56c0
00000100: d641 7dc0 9f3c c2bf b221 debf 6281 9bbf
00000110: 1742 2cc0 1c8b 13c0 90dc 74c0 edaf 4bc0
00000120: dae8 80bf 0f32 25c0 f11e 59c0 b0f1 06c0
00000130: 9cf7 01c0 852f 73c0 51ce 10bf 9a3f 4cc0
00000140: dcdc 55bf bf46 16c0 2072 35c0 a15c a1bf
00000150: c11c 39c0 ff9c 7cc0 8cb1 bebf e191 ffbf
00000160: 534c 3abf 7fd0 f3bf b9f7 89c0 bc15 1bc0
00000170: d957 77c0 e7e4 1cbf f0cf 08c0 d5d4 383f
00000180: 5cc1 20c0 f6f6 95c0 c1f4 c4be 4726 76c0
00000190: bb06 89bf 6c3e 6bc0 c5c7 25bf ba02 03c0
000001a0: 4b28 61bf 8582 3dc0 2337 04bf d37d febe
000001b0: fa6c d5bf bdee 2fc0 a093 debf 1ed3 a0bf
000001c0: f069 08c0 4f2a 26c0 550b 53c0 7966 0dc0
000001d0: 3201 8f3e 3210 74c0 619b 72c0 ea4b c4bf
000001e0: 3970 5abf b517 27c0 b7e6 ecbf 291a dcbf
000001f0: 0627 16c0 28c9 34c0 f83c 3fbf 34d3 68c0

net.2.weight f4 [128, 128]
-0.095746726 0.0076709776 -0.1172229 0.00079556234 0.042036153 -0.11495456 -0.008045769 -0.04211308
-0.059035063 -0.061841678 -0.13385989 -0.032135177 0.047068354 -0.08145504 0.00694577 -0.09905515
-0.06480732 0.005431355 -0.17867173 -0.019847259 -0.0040794527 0.035636052 0.0035181749 -0.042249903
-0.05689579 0.011726457 -0.069546185 0.010645587 -0.09743745 0.036260366 -0.036882393 -0.025983248
-0.022357859 -0.039955582 -0.15300612 0.01684931 -0.002999296 -0.10959644 -0.0019129803 2.565525e-05
-0.022924565 -0.008587725 -0.0037493042 -0.06666458 0.008157056 -0.022594078 -0.08594221 -0.13758504
0.021857616 -0.051762704 -0.082258955 -0.08342311 -0.090063274 0.030859197 -0.06107391 0.053725466
-0.016594911 0.006802416 -0.14357577 -0.05769749 0.014118266 -0.034036353 -0.124082536 -0.08406636
-0.004695369 -0.041164353 -0.026359925 0.014596221 -0.099164255 -0.052278798 -0.15951514 -0.038134802
-0.021681337 -0.04264035 -0.0760213 -0.030948224 0.02776058 -0.06974891 0.004516879 0.04140662
-0.028108379 -0.054338638 -0.11089523 -0.1647398 -0.06457871 -0.005526336 0.006457652 0.0009522177
-0.0065767923 -0.058332395 -0.04555315 0.016446566 -0.14933684 -0.08508364 -0.16623291 -0.06738963
-0.10070522 -0.02266497 0.05575531 -0.111459225 -0.0032267813 -0.01916913 -0.019258369 -0.038602732
-0.08449073 -0.13569838 -0.050945602 -0.052765477 -0.01846963 0.005228736 -0.041947037 -0.10627103
-0.0124753 -0.07650948 -0.07065709 0.002179827 -0.13149172 -0.15509124 -0.013797882 0.026922366
-0.073146276 -0.0069596106 -0.07519485 -0.07897709 0.006581246 0.042288326 -0.03861669 -0.08369403
-0.07763061 -0.0069651227 -0.052949455 -0.005196331 -0.031686485 -0.058607258 0.0048499247 -0.14066865
-0.117001235 -0.050380193 -0.034255177 0.038954377 0.00043662413 -0.15264034 0.025224656 -0.1128058
-0.08943968 0.04543434 -0.14263731 0.09496096 -0.042104796 -0.16924348 -0.19617057 -0.16214314
-0.03313077 0.041884094 -0.098583974 -0.14442898 -0.065072775 0.06967583 -0.14273626 0.1182548
-0.11328727 -0.11483724 -0.10887242 -0.04655816 -0.022965264 -0.023446169 0.0069129863 -0.03155676
0.1058969 -0.028696438 -0.044384588 0.09591857 -0.0098700775 0.025237309 -0.02454317 -0.01630129
0.020858834 -0.06933544 -0.07470913 -0.030998705 -0.011269657 -0.016953217 -0.16177729 0.07819353
-0.0014041471 -0.013863151 -0.14248796 -0.115408935 -0.006504856 -0.0027496512 0.040837385 0.0063589513
-0.07816098 -0.15839843 -0.08825329 -0.0363046 0.030881874 -0.031635996 -0.12034772 0.016392568
0.08549348 -0.058319483 -0.22912024 -0.050773464 0.045277216 0.0038128046 0.056451004 -0.20643327
-0.2500826 -0.028906373 -0.10987625 -0.13170415 -0.16937344 0.07867303 0.04106759 -0.069132246
-0.019751169 -0.059729043 -0.2001509 0.022556983 -0.12104057 -0.3196851 -0.1759163 -0.079392
-0.19220774 -0.14022532 0.009234746 -0.011392995 0.03296893 -0.16560037 -0.04402707 -0.20946507
-0.017952796 -0.05755277 -0.014791576 -0.009234325 -0.047203917 0.011856451 0.09246891 0.013752214
-0.16842493 -0.17341654 -0.06217267 -0.22354722 -0.0384095 0.02168322 -0.05759879 -0.06995147
-0.2374976 -0.30854237 -0.20530859 0.006154581 -0.10809886 -0.23174313 -0.062484678 -0.1504819
00000000: dc16 c4bd d35c fb3b 8f12 f0bd 498d 503a
00000010: 1a2e 2c3d 4c6d ebbd 67d2 03bc c47e 2cbd
00000020: c0ce 71bd b34d 7dbd 9112 09be 2da0 03bd
00000030: bfca 403d e6d1 a6bd 5799 e33b 6ddd cabd
00000040: b3b9 84bd 82f9 b13b b9f5 36be b896 a2bc
00000050: eeac 85bb 1cf7 113d 2e91 663b 3c0e 2dbd
00000060: 8f0b 69bd 5320 403c 3b6e 8ebd d46a 2e3c
00000070: 498d c7bd c085 143d fe11 17bd d2da d4bc
00000080: d427 b7bc 77a8 23bd a3ad 1cbe 9007 8a3c
00000090: d68f 44bb 1974 e0bd f8bc faba 3b36 d737
000000a0: 4ccc bbbc 88b3 0cbc e3b6 75bb 7087 88bd
000000b0: 2ca5 053c 3717 b9bc 7802 b0bd 18e3 0cbe
000000c0: be0e b33c 2105 54bd 6277 a8bd bcd9 aabd
000000d0: 1873 b8bd 6dcc fc3c a328 7abd 3c0f 5c3d
000000e0: 0df2 87bc cde6 de3b 8705 13be 3454 6cbd
000000f0: 4d50 673c b469 0bbd fc1e febd fc2a acbd
00000100: 9cdb 99bb f49b 28bd c5f0 d7bc fd24 6f3c
00000110: a116 cbbd 4b22 56bd f057 23be 3d33 1cbd
00000120: 0f9d b1bc a6a7 2ebd 0eb1 9bbd 2187 fdbc
00000130: 286a e33c 84d8 8ebd 5402 943b fd99 293d
00000140: 8b43 e6bc 3192 5ebd 0a1d e3bd 8db1 28be
00000150: d841 84bd 4416 b5bb b69a d33b 409e 793a
00000160: 2282 d7bb f3ed 6ebd f195 3abd f3ba 863c
00000170: c2eb 18be 5540 aebd f638 2abe 9303 8abd
00000180: 8a3e cebd e3ab b9bc ae5f 643d bc44 e4bd
00000190: 6878 53bb 9408 9dbc bac3 9dbc e61d 1ebd
000001a0: 7a09 adbd 84f4 0abe 56ac 50bd 9d20 58bd
000001b0: 9f4d 97bc d155 ab3b a8d0 2bbd a0a4 d9bd
000001c0: 3365 4cbc 01b1 9cbd aab4 90bd 6edb 0e3b
000001d0: c4a5 06be 3dd0 1ebe 8310 62bc 4b8c dc3c
000001e0: b7cd 95bd 720d e4bb c2ff 99bd bebe a1bd
000001f0: 7ea7 d73b 8636 2d3d 892c 1ebd c767 abbd
00000200: ccfc 9ebd af3b e4bb 87e1 58bd fc45 aabb
00000210: b0c9 01bd 2a0e 70bd 1eec 9e3b 710b 10be
00000220: 589e efbd 765b 4ebd 284f 0cbd a08e 1f3d
00000230: b3ea e439 c04d 1cbe f0a3 ce3c ba06 e7bd
00000240: 272c b7bd 5c19 3a3d 840f 12be e47a c23d
00000250: 1476 2cbd 2a4e 2dbe f0e0 48be da08 26be
00000260: 21b4 07bd a88e 2b3d 65e6 c9bd 31e5 13be
00000270: e044 85bd 34b2 8e3d 7429 12be 932f f23d
00000280: 2803 e8bd c92f ebbd 81f8 debd c5b3 3ebd
00000290: a621 bcbc 2e12 c0bc 5586 e23b a941 01bd
000002a0: 79e0 d83d cb14 ebbc 9dcc 35bd f570 c43d
000002b0: 1bb6 21bc 79be ce3c c20e c9bc 488a 85bc
000002c0: 25e0 aa3c bdff 8dbd 1a01 99bd fff0 fdbc
000002d0: 5ea4 38bc 79e1 8abc f2a8 25be ee23 a03d
000002e0: 5c0b b8ba 4522 63bc 5de8 11be 855b ecbd
000002f0: b026 d5bb 7e33 34bb 1a45 273d c05e d03b
00000300: dd12 a0bd 3333 22be 24be b4bd 22b4 14bd
00000310: fcfb fc3c bf94 01bd de78 f6bd b549 863c
00000320: 3517 af3d 69e0 6ebd 7f9e 6abe d6f7 4fbd
00000330: 9a74 393d 3fe0 793b 2b39 673d 3e63 53be
00000340: d40a 80be 0fcd ecbc cd06 e1bd 74dd 06be
00000350: 3b70 2dbe 531f a13d 7d36 283d 3595 8dbd
00000360: 34cd a1bc 71a6 74bd 5cf4 4cbe 6cc9 b83c
00000370: 1ee4 f7bd c4ad a3be 6723 34be 4698 a2bd
00000380: 1bd2 44be 3a97 0fbe 554d 173c afa9 3abc
00000390: 6e0a 073d 2593 29be bb55 34bd 037e 56be
000003a0: be11 93bc 74bc 6bbd 5e58 72bc 914b 17bc
000003b0: e558 41bd 8f41 423c 5760 bd3d f750 613c
000003c0: 9677 2cbe 1b94 31be c5a8 7ebd 90e9 64be
000003d0: 4853 1dbd 02a1 b13c b5ec 6bbd b742 8fbd
000003e0: 9232 73be 44f9 9dbe 6a3c 52be 5eac c93b
000003f0: ef62 ddbd 124e 6dbe efef 7fbd ed17 1abe

net.2.bias f4 [128]
-0.18050057 -0.23634866 -1.3087133 -0.08540097 -1.4443791 -0.22518125 -0.16326372 -0.6497959
-0.27174717 -0.23714921 -0.18995345 -0.23727438 -0.21561354 -2.156208 -0.2057 -0.18731053
0.24142034 -0.12780583 -0.87142193 -5.650782 -0.19294061 -0.46964276 -0.09252263 -0.27242538
-0.12931585 -0.46908307 -0.1943681 -0.14767255 -0.20004773 -0.058182307 -0.2290782 -0.20866106
-0.1610125 -0.1253349 -0.16158774 -0.12169538 -0.12764792 -0.67970854 0.074929774 -0.18254705
-0.114691295 -0.16575636 -0.27722192 2.3041227 -0.14329831 2.683522 -2.824704 -0.17272261
-0.24941003 -0.39128646 -0.082690015 -0.17580654 -0.19000073 -0.13070683 -0.15626726 -0.21934076
-0.29909623 2.4643826 -0.52345276 -0.97159237 -0.12891981 -0.16841914 -0.5317952 3.0778236
-0.26382962 -0.18656027 -0.27149415 -0.18608308 -0.17301346 -0.43111053 -0.24729188 -0.22074245
-0.13722883 -0.18776055 -0.3229755 0.6674478 -0.39735582 -1.0391612 -0.15499692 -0.07509122
-0.09187315 -0.24938466 -0.19701423 -0.037114333 -0.16851261 -0.18881279 -0.25922042 -0.21161963
-0.110191606 -0.21439227 -0.19543487 -0.2371236 -0.1177051 -0.23978214 -0.21309836 -0.12764753
-0.2428223 -0.19652537 -0.16764066 0.43664125 -0.20917062 -0.16101193 -0.11530639 -0.1539574
-0.17811882 -0.0823543 -0.104292 -0.17307572 -0.24745397 -0.27161565 -0.9118337 -0.29750863
-0.11760567 -0.24107409 -0.084004335 -0.13817057 -0.051198963 -0.9166435 -0.427566 -0.18357423
-0.16426222 -1.141715 -0.12826401 -0.058529396 2.149312 -0.4463178 1.4100857 0.37569025
00000000: 24d5 38be 6205 72be eb83 a7bf b4e6 aebd
00000010: 6ae1 b8bf ea95 66be 9b2e 27be 0659 26bf
00000020: 7222 8bbe 3ed7 72be 2883 42be 0ef8 72be
00000030: ccc9 5cbe 50ff 09c0 05a3 52be 55ce 3fbe
00000040: e536 773e 88df 02be 8215 5fbf 35d3 b4c0
00000050: 3992 45be 0475 f0be 817c bdbd 577b 8bbe
00000060: 606b 04be a82b f0be 6e08 47be 7937 17be
00000070: 50d9 4cbe 9250 6ebd 7a93 6abe 3fab 55be
00000080: 76e0 24be cb57 00be 4277 25be 6d3b f9bd
00000090: 23b6 02be 6101 2ebf c874 993d 9ded 3abe
000000a0: 45e3 eabd 09bc 29be 08f0 8dbe bf76 1340
000000b0: cbbc 12be d3be 2b40 f3c7 34c0 32de 30be
000000c0: 5865 7fbe b356 c8be 6259 a9bd a106 34be
000000d0: 8d8f 42be 03d8 05be 8604 20be dd9a 60be
000000e0: 2423 99be 72b8 1d40 0001 06bf 47ba 78bf
000000f0: 8e03 04be 1176 2cbe bb23 08bf 10fb 4440
00000100: ad14 87be a809 3fbe 4801 8bbe 908c 3ebe
00000110: 712a 31be 85ba dcbe 153a 7dbe 4f0a 62be
00000120: b785 0cbe 4d44 40be 0b5d a5be dcdd 2a3f
00000130: 3972 cbbe 3c03 85bf 83b7 1ebe 6dc9 99bd
00000140: fd27 bcbd b15e 7fbe 19be 49be 3305 18bd
00000150: 928e 2cbe 2458 41be 8ab8 84be d1b2 58be
00000160: 23ac e1bd a689 5bbe 1420 48be 87d0 72be
00000170: 5f0f f1bd 7389 75be 7536 5abe 09b6 02be
00000180: 69a6 78be f23d 49be fea9 2bbe 718f df3e
00000190: d330 56be 50e0 24be c225 ecbd 02a7 1dbe
000001a0: c864 36be 5fa9 a8bd 0b97 d5bd c33a 31be
000001b0: 9364 7dbe 3511 8bbe ef6d 69bf 0d53 98be
000001c0: 3edb f0bd 20dc 76be 770a acbd 967c 0dbe
000001d0: 01b6 51bd 26a9 6abf eee9 dabe e2fa 3bbe
000001e0: 5b34 28be b823 92bf a457 03be 85bc 6fbd
000001f0: 548e 0940 c483 e4be b07d b43f 795a c03e

net.4.weight f4 [5, 128]
-0.023874149 -0.19452184 -3.1355426 -0.03808754 -2.9559236 -0.0902297 -0.442439 -1.8403984
-0.9671407 -0.21493126 -0.12841967 -0.33558416 -0.024411138 -1.4043905 -0.08427378 -0.08945167
-1.6025137 -0.08843207 -1.7187014 -5.5496163 -0.2667474 -1.3102186 -0.11027863 -0.29157388
-0.061511308 -1.0643268 -0.053776976 -0.057432175 0.025858069 -0.16004717 -0.09106127 -0.1432404
-0.16807692 -0.3539044 -0.12847583 -0.055541255 -0.22529471 -1.5896629 -0.33521637 -0.20563553
-0.25474232 -0.13694511 -0.207674 -2.909681 -0.08110212 -2.7404757 -2.4099002 -0.034920026
-0.110973366 -2.0776334 -0.05610901 -0.09494425 -0.110998645 -0.22024786 -0.044452306 -0.07491051
-0.1307032 -2.9599278 -0.69823617 -1.1812993 -0.058261927 -0.16493154 -0.94910055 -3.2451346
-0.18986921 -0.10202474 -0.112533115 -0.09331365 -0.20149814 -1.0741218 -0.24686664 -0.11959731
-0.28025517 -0.092233546 -0.7771846 -1.2351722 -0.33461532 -4.402357 -0.11582044 -0.14869076
-0.19152333 -0.17033061 -0.15532961 -0.2200514 -0.014889542 -0.099468604 -0.6233011 -0.14887102
-0.10036575 -0.18231694 -0.43606627 -0.111325376 -0.038309462 -0.13497555 -0.093558215 -0.03533321
-0.13352348 -0.6516825 -0.07592878 -2.2431533 -0.04996369 -0.06199169 -0.20659839 -0.068624385
-0.096391566 -0.17699325 -0.09242758 -0.043957587 -4.1371346 -1.5834459 -1.2975961 -0.1431277
-0.11386522 -0.19395801 -0.1053566 -0.025853867 -0.14549562 -0.9544487 -0.19685395 -0.10149665
-0.13521686 -4.065533 -0.013967817 -0.07625938 -2.1257963 -0.060257133 -1.3727626 -1.8939831
-0.025010534 -0.20935807 -3.5225592 -0.023172548 -2.6428676 -0.116692945 -0.22504963 -2.0133297
-0.98866874 -0.059242245 -0.12271102 -0.15429367 -0.11414069 -1.1032748 -0.1475911 -0.060835686
-1.8810434 -0.016056815 -1.0913528 -5.3116665 -0.33096462 -3.1300914 -0.06404949 -0.33137956
-0.06877028 -0.79654217 -0.1785876 -0.28121537 -0.03766939 -0.055013716 -0.73254097 -0.11165372
-0.14060292 -0.24723008 -0.030406237 -0.005789632 -0.22022186 -1.7279428 -0.9649458 -0.2047762
-0.093125306 -0.08596 -0.42784375 -3.9638267 -0.04148868 -1.3578577 -2.3381648 -0.09939259
-0.13059987 -0.52003556 -0.064631276 -0.17752963 -0.08722098 -0.10628245 0.008024733 -0.021864178
-0.24198754 -2.4097128 -1.9508563 -1.2865393 0.0052222423 -0.1893113 -0.89893776 -2.793913
-0.2874248 -0.09625168 -0.1685747 -0.115030825 -0.031713672 -0.7013684 -0.10788204 -0.069068804
-0.17032589 -0.07193264 -0.8475453 -1.6426122 -0.18939959 -4.558141 -0.013603129 -0.15460314
-0.17925917 -0.11092409 -0.03325645 -0.060097367 -0.061360966 -0.09912342 -0.6998368 -0.1510602
-0.044241093 -0.21507137 -0.21759339 -0.1507158 -0.040497564 -0.20354067 -0.10074024 -0.28659886
-0.24494644 -0.81654847 -0.07758912 -2.0075977 -0.23266265 -0.08797131 -0.04267949 -0.13132948
-0.06542984 -0.095560215 -0.084772274 -0.022967407 -2.6590152 -1.5461817 -1.2785306 -0.24823347
-0.47348577 -0.2979946 -0.025163608 -0.12683597 -0.06962289 -0.8217705 -0.19993761 -0.16232397
-0.08109407 -7.0048933 -0.1485177 -0.095510796 -2.3153827 -0.48172054 -1.3682196 -1.5634677
00000000: b893 c3bc bc30 47be bbac 48c0 ae01 1cbd
00000010: da2d 3dc0 59ca b8bd 5d87 e2be 2d92 ebbf
00000020: 8896 77bf f116 5cbe 7280 03be b0d1 abbe
00000030: def9 c7bc 11c3 b3bf bb97 acbd 7032 b7bd
00000040: 2b1f cdbf e01b b5bd 68fe dbbf 7596 b1c0
00000050: 1d93 88be 3eb5 a7bf c3d9 e1bd 2c49 95be
00000060: 48f3 7bbd dc3b 88bf 3f45 5cbd 003e 6bbd
00000070: 4dd4 d33c 68e3 23be 557e babd 9dad 12be
00000080: 5b1c 2cbe f532 b5be 2b8f 03be 3a7f 63bd
00000090: a8b3 66be 137a cbbf 7ba1 abbe 1f92 52be
000000a0: 966d 82be 573b 0cbe 7ea8 54be 3738 3ac0
000000b0: de18 a6bd f463 2fc0 ce3b 1ac0 4d08 0fbd
000000c0: 0146 e3bd f2f7 04c0 90d2 65bd 2272 c2bd
000000d0: 4253 e3bd a888 61be 9f13 36bd ae6a 99bd
000000e0: 0fd7 05be 756f 3dc0 9bbf 32bf d134 97bf
000000f0: 0fa4 6ebd d0e3 28be 41f8 72bf 49b0 4fc0
00000100: 136d 42be 59f2 d0bd c377 e6bd 3a1b bfbd
00000110: 8755 4ebe d37c 89bf 9cca 7cbe 6fef f4bd
00000120: 9b7d 8fbe f1e4 bcbd 92f5 46bf 1f1a 9ebf
00000130: b352 abbe 1ce0 8cc0 4433 edbd 6442 18be
00000140: b11e 44be 266b 2ebe ba0e 1fbe 2755 61be
00000150: 44f3 73bc 32b6 cbbd a990 1fbf a571 18be
00000160: 8f8c cdbd 4bb1 3abe 1444 dfbe 8ffe e3bd
00000170: 62ea 1cbd 0837 0abe 739b bfbd 8eb9 10bd
00000180: 61ba 08be aad4 26bf 8c80 9bbd d38f 0fc0
00000190: baa6 4cbd 00eb 7dbd 878e 53be f18a 8cbd
000001a0: f168 c5bd b83d 35be ac4a bdbd df0c 34bd
000001b0: 6863 84c0 5bae cabf a117 a6bf 1190 12be
000001c0: 2b32 e9bd ee9c 46be 33c5 d7bd 7dcb d3bc
000001d0: cefc 14be c056 74bf 1594 49be 7add cfbd
000001e0: 4a76 0abe d918 82c0 45d9 64bc e12d 9cbd
000001f0: 0c0d 08c0 2fd0 76bd afb6 afbf 0a6e f2bf
00000200: e4e2 ccbc f661 56be 9c71 61c0 5bd4 bdbc
00000210: be24 29c0 b6fc eebd 6973 66be 65da 00c0
00000220: 6519 7dbf ffa7 72bd ea4f fbbd 29ff 1dbe
00000230: 98c2 e9bd 1c38 8dbf 1f22 17be d72e 79bd
00000240: 08c6 f0bf 9589 83bc 73b1 8bbf 2cf9 a9c0
00000250: 3274 a9be 6b53 48c0 612c 83bd 95aa a9be
00000260: 6fd7 8cbd 30ea 4bbf abdf 36be 76fb 8fbe
00000270: 384b 1abd 1056 61bd ce87 3bbf b5aa e4bd
00000280: 36fa 0fbe e229 7dbe 8016 f9bc f4b6 bdbb
00000290: d781 61be 3b2d ddbf b006 77bf dab0 51be
000002a0: 7bb8 bebd cc0b b0bd 560e dbbe 56af 7dc0
000002b0: 09f0 29bd 48ce adbf 7ea4 15c0 588e cbbd
000002c0: f9bb 05be 0d21 05bf 675d 84bd 54ca 35be
000002d0: eaa0 b2bd 9daa d9bd 2b7a 033c 811c b3bc
000002e0: 95cb 77be bc38 1ac0 a9b5 f9bf 52ad a4bf
000002f0: 581f ab3b d2da 41be c920 66bf 78cf 32c0
00000300: 5829 93be 9a1f c5bd d99e 2cbe 4895 ebbd
00000310: 32e6 01bd e18c 33bf 42f1 dcbd f273 8dbd
00000320: e969 2ebe 6c51 93bd bbf8 58bf 1e41 d2bf
00000330: f7f1 41be 4bdc 91c0 a9df 5ebc 4950 1ebe
00000340: b78f 37be 2b2c e3bd ea37 08bd a828 76bd
00000350: a355 7bbd 3801 cbbd 8128 33bf 86af 1abe
00000360: 2636 35bd ab3b 5cbe cdd0 5ebe 3e55 1abe
00000370: c6e0 25bd f76c 50be e650 cebd 16bd 92be
00000380: 3dd3 7abe 5209 51bf 0be7 9ebd 7b7c 00c0
00000390: 1e3f 6ebe 4d2a b4bd b0d0 2ebd 3c7b 06be
000003a0: 1400 86bd 13b5 c3bd 169d adbd 2526 bcbc
000003b0: 4e2d 2ac0 48e9 c5bf e4a6 a3bf ea30 7ebe
000003c0: ba6c f2be c092 98be e923 cebc 4ae1 01be
000003d0: 7296 8ebd 8d5f 52bf 72bc 4cbe 4138 26be
000003e0: a614 a6bd 1628 e0c0 0615 18be 2a9b c3bd
000003f0: 3b2f 14c0 13a4 f6be d221 afbf b61f c8bf

net.4.bias f4 [5]
-0.973108 -1.5030646 -1.1416007 -1.1348249 -0.85598236
00000000: 9b1d 79bf 6c64 c0bf f91f 92bf f141 91bf
00000010: a921 5bbf
