RL code/MARL/Test/models/agent_model_best_model.pth (torch, 83785 bytes, 6 tensors)

net.0.weight f4 [128, 22]
000000 9b fc 05 3e c1 dd ae bd 13 a1 83 3c e5 ce b0 bd
       0.13084643 -0.0853839 0.016068017 -0.08633212
000010 f7 c9 d2 3d 74 fa da bd 2c 86 c0 3d 14 f6 6f bd
       0.10292428 -0.106923014 0.09400591 -0.058584288
000020 04 b4 55 bd 46 a6 de 3a 6d fc 70 be 0a 04 52 be
       -0.05217363 0.0016986809 -0.23533793 -0.20509353
000030 5d 02 21 3e df 4f 3b 3d 63 3e ad 3d 0e f7 0e be
       0.15723558 0.045730468 0.08459165 -0.13961431
000040 f4 ec 1e be e4 33 91 bd bc cf da 3d ad eb cf 3d
       -0.15520078 -0.070899755 0.106841534 0.101523735
000050 21 d7 33 3d c8 b5 15 be 08 65 19 bc d1 9f c4 be
       0.043906335 -0.14620125 -0.009362467 -0.3840318
000060 d7 a8 57 3d 94 79 f8 3d 21 59 2f 3e 23 12 c7 bd
       0.052651253 0.12132564 0.17123844 -0.09720256
000070 58 8e 0e 3e 90 7f a8 bd 91 be 06 3e fc ef 14 3f
       0.13921487 -0.082274556 0.13158633 0.5817869
000080 89 7e 88 bd 70 b6 ae 3e b6 d2 4e be 9c 00 a1 3e
       -0.0666476 0.34123564 -0.20197567 0.31445777
000090 28 8a f4 bd 00 6f e4 bd a4 12 87 3e 3f b8 86 3e
       -0.11940414 -0.11153984 0.2638141 0.26312444
0000a0 9a 89 c6 bd e7 29 a1 3e 88 b9 76 bd 31 45 1a bf
       -0.09694214 0.3147728 -0.06023553 -0.6026183
0000b0 77 36 11 40 4e 5e 38 3d d3 c0 e2 be e0 dc 7f 3e
       2.2689493 0.04501181 -0.44287738 0.24986601
0000c0 6a d5 a6 3e 64 85 2f bf 72 ba 0d 3c 5c c5 fe be
       0.32584697 -0.6856291 0.008650409 -0.49759948
0000d0 27 9a 12 3f cf b6 ef be 85 62 8b 3d bf 71 b6 be
       0.5726647 -0.4681916 0.068059005 -0.35633656
0000e0 b6 01 b0 3c ed dc af be b1 d2 1c 3f fa 6b 89 be
       0.02148519 -0.3434824 0.6125899 -0.26840192
0000f0 cf 1e b3 be 20 8e 2b 3f 8a 84 95 be c4 9b 83 3e
       -0.34984443 0.6701374 -0.29202682 0.25704777
000100 e0 81 fd be e1 cf f8 3e d9 3b ba 3e 07 1f d7 3c
       -0.4951315 0.485961 0.36373785 0.026259912
000110 a3 95 7d be 6e e4 19 3e a0 68 74 bc 18 8c 73 3d
       -0.24764113 0.15028545 -0.014917523 0.059459776
000120 bc 43 70 3e 64 1e a1 bd b2 0c a7 bd 27 d8 b8 3d
       0.23463339 -0.07867125 -0.08156718 0.09025603
000130 cf 45 93 3e e7 fa 9a 3d d7 ff 24 3e 53 0f 10 3d
       0.28764197 0.07567387 0.1611322 0.035170864
000140 38 65 9a bc dc ab 0d 3d 7e 0b 0f be f8 12 03 bc
       -0.018847093 0.034587726 -0.13969228 -0.008000128
000150 43 70 a1 3d fc 31 93 3c 0f 2d aa 3d 6c 42 d6 be
       0.0788274 0.01796817 0.083093755 -0.4184755
000160 8e 60 f4 3d d9 91 f9 bd 80 35 9e bd 85 27 17 3e
       0.11932479 -0.12186021 -0.07725048 0.14761169
000170 f3 d1 31 3e 9d cf 33 3d 48 49 6f bc 63 44 7c be
       0.17365246 0.043899167 -0.014604874 -0.24635462
000180 11 09 67 be 8e 66 94 3e c3 fb 23 3c 11 0e bb 3d
       -0.22562052 0.28984493 0.010008755 0.09133542
000190 3b 34 29 be c7 85 ca 3d a3 fb bc 3c b7 c1 04 3f
       -0.1652383 0.09888797 0.023069208 0.51858085
0001a0 43 68 6a 3e 09 1a 48 3d 17 2c 71 be 0d 45 3e 3e
       0.22891335 0.048852954 -0.23551975 0.18581028
0001b0 ac f7 22 3e 73 4e e8 be 31 02 e8 bd fa 9d 8b be
       0.15914792 -0.45372352 -0.11328543 -0.27268964
0001c0 7c bc 17 3e 14 05 ce 3d 32 fc b4 3d 63 66 86 3e
       0.14817995 0.10059562 0.08837165 0.2624999
0001d0 78 4c 1a be 91 1e 2a be 65 5f 4a 3e 58 86 36 3e
       -0.15068233 -0.16613223 0.19762953 0.17824686
0001e0 7a 4c a6 3d 05 27 70 3e 58 05 5f be b7 e1 28 3e
       0.081200555 0.23452385 -0.21779382 0.16492353
0001f0 47 b2 a6 bd e7 f0 70 3d 24 ce 94 3c 25 41 4c 3c
       -0.081394725 0.058823492 0.018164702 0.012466704
000200 5e c3 9e 3c b1 c4 54 3d 2f 70 ba bd 99 5b 72 be
       0.019380268 0.051945392 -0.091034286 -0.23667754
000210 88 44 7d be 56 36 21 c0 16 48 18 bf 3a 96 9f be
       -0.24733174 -2.5189414 -0.59484994 -0.311693
000220 4c 0a 8d 3e e2 67 09 3f 6f 32 fc be aa 91 71 3e
       0.27546918 0.5367414 -0.49257228 0.23590723
000230 ed 96 ef 3e 07 d5 b7 3f 99 ff 6f 3e e4 cb 91 3f
       0.46794835 1.4361886 0.23437347 1.1390347
000240 b1 19 19 3f c9 dc 6b 3f 72 e0 1c 3e 83 ca 66 3e
       0.59804827 0.92133766 0.15319994 0.2253819
000250 1d 69 7d be c9 95 c2 bd 0a 51 50 bd ca 41 89 be
       -0.24747129 -0.095012255 -0.050858535 -0.26808006
000260 6b 1d 0d bf 20 9a b5 bf 43 9b 03 bc 4b 23 dd 3d
       -0.55123013 -1.418766 -0.008032623 0.10797747
000270 74 6c c1 3d 7b a2 3c 3c d2 ac 69 3d d0 6e 95 bd
       0.09444514 0.011513348 0.05704958 -0.072965264
000280 7d 72 05 3e 0c a8 72 3d 3d 66 1d be fb 07 a3 bd
       0.13031955 0.059242293 -0.15371032 -0.079605065
000290 b3 d6 28 bc 37 c0 23 bc c7 cb 0a bd 54 6a 0e b9
       -0.0103050945 -0.009994558 -0.033885743 -0.00013581786
0002a0 1e ab 35 bc 6d 84 0d 3c f0 7e bb bc fb 02 8c 3d
       -0.011088161 0.00863753 -0.022887677 0.06836506
0002b0 6e d8 d9 bd 65 68 c2 3d 5a 97 da bd 8f 75 43 be
       -0.10636984 0.09492568 -0.10673399 -0.19087814
0002c0 49 d9 a3 3c f2 e3 09 3e 59 94 14 3c 7b 6a ed bb
       0.02000107 0.1346586 0.009068572 -0.0072453595
0002d0 1a 70 fd bd bb 65 c6 ba dd c3 38 be 0d 70 94 be
       -0.12374897 -0.0015136519 -0.18043466 -0.28991738
0002e0 d2 83 44 bd 75 de 37 3e 8e 2f fe 3d 30 62 51 3e
       -0.047977276 0.17955954 0.12411414 0.20447612
0002f0 b8 e2 b2 3d cd a0 c6 3e 98 fd 1d bf 1c e1 08 be
       0.087346494 0.38794556 -0.6171508 -0.13367122
000300 9b 13 13 bd 7c f0 28 3e a3 cb 24 3d a3 8e 8b bc
       -0.03590737 0.16497988 0.040233266 -0.017035788
000310 05 c9 9b be 32 9a 83 be 5c c2 20 3e 77 c7 55 bc
       -0.30426803 -0.2570358 0.15699142 -0.013048044
000320 31 b3 02 bd fd c6 06 3d e6 90 0b 3e 3b c6 15 3e
       -0.03190917 0.032904614 0.13629493 0.146264
000330 9d b1 ca bc 67 35 3d be 23 0e cc bd 3d 1e 1f bd
       -0.024742896 -0.18477403 -0.09963634 -0.038847197
000340 99 27 e3 3d a6 f7 62 3d 3b 20 23 bc 40 be 9c bd
       0.11091537 0.055411957 -0.009956415 -0.07653475
000350 b9 bc 49 3e e8 f0 55 bd 01 65 4d 3e fb e6 53 bd
       0.19700898 -0.0522317 0.20058061 -0.051733952
000360 f6 9f d3 3d d9 27 01 3a ef 34 20 bd 5f ab 91 bd
       0.103332445 0.0004926897 -0.03911298 -0.071127646
000370 23 b9 c2 be 4f fe f3 3c 2e 38 37 bf 75 ba f9 bc
       -0.38031873 0.02978435 -0.715701 -0.030484417
000380 1e d5 2a 3d dd 48 ac be 36 91 14 bf a8 5d fc 3d
       0.04170715 -0.3364934 -0.58034074 0.12322551
000390 d7 b6 9b be 09 a1 0c 3e 15 75 f1 bd 86 b9 44 be
       -0.30412933 0.13733305 -0.1178991 -0.19211397
0003a0 b6 a8 07 bf 93 b0 8d be 95 7c 08 bf cd fa f3 be
       -0.5299181 -0.27673778 -0.533151 -0.47652283
0003b0 c7 62 00 bf bb 2b ea 3e 89 b1 8d 3e 63 28 d9 3c
       -0.5015072 0.4573649 0.2767451 0.026508516
0003c0 06 89 b9 bd f0 45 25 3d 3d f6 53 be fa cc db 3c
       -0.09059338 0.0403499 -0.20699401 0.026831139
0003d0 84 5e 74 3e e1 77 07 3e 31 29 1d be 14 f5 07 be
       0.2386418 0.13229324 -0.15347745 -0.13277084
0003e0 65 15 bb bd 17 78 1d 3e 30 0d 78 3e af ff 90 3d
       -0.0913494 0.15377842 0.2422378 0.07080018
0003f0 40 08 df 3d 03 9c 98 be f2 04 89 3d 6f 25 a2 3c
       0.108902454 -0.29806527 0.06690396 0.01979324

net.0.bias f4 [128]
000000 ab 63 46 bf 70 ea 4c c0 7a 26 f4 bf 77 45 ff bf
       -0.7749583 -3.201809 -1.9074242 -1.9943074
000010 6e 98 ff bf 0b 90 fb bf 0b 0e 3b c0 fa 89 1e bf
       -1.9968393 -1.9653333 -2.922732 -0.61929286
000020 b0 23 04 c0 4b 5a 9a bf c4 7a 36 c0 27 5e 90 bf
       -2.0646782 -1.2058805 -2.851243 -1.1278733
000030 b2 b0 9d c0 6c c1 1c c0 2e 8c 04 c0 49 81 ff bf
       -4.9278193 -2.4493055 -2.071056 -1.996133
000040 11 ba 08 c0 94 16 e3 be f4 a8 33 c0 ff 52 81 c0
       -2.1363566 -0.44353163 -2.807187 -4.0413814
000050 af b9 91 bf 5f a1 95 c0 0f f3 10 c0 45 bf 9e bf
       -1.1384791 -4.6759486 -2.2648351 -1.2402121
000060 c1 0d 01 c0 78 88 d2 bf 58 f0 06 c0 28 93 85 c0
       -2.0164645 -1.6447897 -2.1084194 -4.1742134
000070 08 6d 62 c0 e6 6f d7 bf fe 11 74 c0 3f e3 a9 bf
       -3.5379047 -1.6831024 -3.8135982 -1.3272475
000080 bc a2 8c bf a1 a1 a5 bf d4 c8 f3 be 6a 58 ad bf
       -1.0987163 -1.293995 -0.47614157 -1.3542607
000090 f8 21 f1 bf 41 4a 85 c0 90 fd 1c c0 89 0d 80 bf
       -1.8838491 -4.165314 -2.4529762 -1.0004131
0000a0 c1 ef 00 c0 0b dd 39 bf 2e e8 f1 bf 26 2e e8 bf
       -2.0146334 -0.7260291 -1.8898981 -1.8139083
0000b0 95 a6 95 bf 6f 53 84 c0 66 d1 dd bf 2e d1 76 c0
       -1.1691462 -4.135185 -1.7329528 -3.8565173
0000c0 cb 3e 2f 3f ae e3 03 bf 9f 57 87 c0 7b d4 27 c0
       0.6845519 -0.51519287 -4.229446 -2.6223438
0000d0 27 4d f4 bf cb ac 20 c0 d9 d4 1d c0 a0 ec e0 be
       -1.9086045 -2.5105464 -2.4661162 -0.4393053
0000e0 ac 7c 31 c0 c0 1a cd bf e7 7a 7f bf b1 8a fe be
       -2.7732344 -1.6023788 -0.9979691 -0.49715188
0000f0 d1 cd 1c c0 7b 07 b2 bf 4d 49 6b c0 e5 d4 82 bf
       -2.450062 -1.3908533 -3.676349 -1.022122
000100 5e cc a0 bf 8e bb 04 c0 42 d3 93 3e 04 9f f4 bf
       -1.2562368 -2.0739474 0.28872114 -1.9111028
000110 99 66 8c bf fa f9 6d c0 b5 ed fa bf 72 f3 ef bf
       -1.096881 -3.7183824 -1.9603792 -1.8746169
000120 81 51 45 c0 03 63 6d c0 50 9f 89 c0 82 56 2a bf
       -3.0830996 -3.7091682 -4.3006973 -0.6653825
000130 ab 05 f2 3f b8 14 da bf 8a e6 37 bf 0a a1 1c c0
       1.890798 -1.7037573 -0.7183615 -2.447329
000140 8e 2e a9 c0 c3 8c 0b c0 2d 0a bc bf 49 2e 03 c0
       -5.286933 -2.1804664 -1.4690605 -2.0497
000150 80 97 76 c0 fb a8 cf bf 80 42 6c bc b5 c3 11 bf
       -3.8529968 -1.6223444 -0.014420152 -0.5693925
000160 e9 d6 05 bf 18 9a 43 bf b8 08 a8 be 7a 1e f6 bf
       -0.5228105 -0.76407003 -0.32819152 -1.9228051
000170 db 00 4b c0 68 f4 5c c0 3f fb ff bf 44 46 20 bf
       -3.1719272 -3.4524174 -1.9998549 -0.62607217
000180 b8 87 ca bf db b2 f1 bf f6 1b db bf 1b 5b 37 bf
       -1.5822668 -1.8882707 -1.7117908 -0.7162339
000190 92 cd d7 bf 49 6b 74 bf 10 e5 2e bf a8 b0 10 bf
       -1.685961 -0.95476204 -0.6831827 -0.56519556
0001a0 23 50 5c bf 04 33 9b c0 77 08 48 c0 7c b0 d4 be
       -0.8605978 -4.8499775 -3.1255167 -0.41540897
0001b0 76 f7 11 c0 e2 8f 1e c0 82 f7 47 c0 6c b7 7f c0
       -2.2807288 -2.477532 -3.1244817 -3.9955702
0001c0 bc 58 de bf 24 bd cf bf c9 1e 22 bf cd a6 6f bf
       -1.737083 -1.6229596 -0.63328224 -0.9361389
0001d0 6b 68 1c bf ea 14 3d c0 5c ad 1c bf aa 3f 53 c0
       -0.6109683 -2.9544015 -0.61202025 -3.3007607
0001e0 87 73 18 c0 32 a0 e7 be 4b dd 02 c0 f5 ae d1 bf
       -2.3820512 -0.45239407 -2.0447567 -1.6381518
0001f0 40 fc 8e bf b6 3e dd bf ed 90 03 bf 3a b3 0c c0
       -1.117073 -1.7284763 -0.51393014 -2.1984391

net.2.weight f4 [128, 128]
000000 2f 0b 5f bc 5c 43 60 bd be 03 9e bd ee 0c 5b 3d
       -0.013613506 -0.05475174 -0.077155575 0.053479128
000010 9b 92 b1 3b af 72 2f 3b 34 a7 ae bd 97 e4 a8 bd
       0.005419088 0.0026771238 -0.08527985 -0.08246725
000020 05 09 8b bd 5d 85 a5 bd 93 c3 75 bd e5 7a c6 bd
       -0.0678883 -0.08082078 -0.060000967 -0.09691409
000030 75 8a 78 bd 40 67 8f bd 2d 4c 53 bd 20 0b d9 3c
       -0.060678918 -0.07002115 -0.05158632 0.026494563
000040 e0 e3 fc ba 55 00 11 bd 91 d0 1e bd 0b 9a 8a 3b
       -0.0019293986 -0.035400707 -0.038773123 0.004229789
000050 11 21 08 bd 0e 0a 0f be 53 33 84 bd be ee 44 bb
       -0.03323466 -0.1396868 -0.06455102 -0.0030049528
000060 e1 10 86 bd cc 07 66 bd b9 7c 55 be 0b de d2 bd
       -0.06546188 -0.05615978 -0.20848359 -0.102962576
000070 39 4b 00 bd 03 2a b9 bd 67 df 1a bd 65 e8 ce bd
       -0.031321738 -0.09041216 -0.03781071 -0.101029195
000080 63 06 e4 bd d0 5d be bd e6 5f 7b 3a 8a 80 55 3b
       -0.11134031 -0.09295237 0.000958918 0.0032577836
000090 7c f9 56 bc 63 75 01 be c9 ea 94 3d ba cd b0 bd
       -0.013121005 -0.12642436 0.07271344 -0.08632989
0000a0 47 ad d4 bc ce 7e 1d be bd 22 c9 b9 a6 93 12 be
       -0.025961531 -0.15380403 -0.0003836359 -0.14314136
0000b0 56 58 4a 3d f2 79 92 bc 6b ce ea bd 21 5c 91 bd
       0.04940065 -0.017880414 -0.11465152 -0.0709765
0000c0 04 03 13 bd 1b 57 11 3d 9e 3d 7d bc 64 15 49 bc
       -0.035891548 0.03548346 -0.015456585 -0.012273166
0000d0 37 e4 43 bd f9 fb 4a 3d 46 f5 06 bd 8a ed 5f bd
       -0.047825065 0.049556706 -0.032948755 -0.054669894
0000e0 77 1f d7 3c 6e e0 a7 3c 06 18 91 bd 29 0d 9a 3c
       0.02626012 0.020492759 -0.0708466 0.018805103
0000f0 d5 f3 af bd 64 8f 51 bc 91 c1 85 3b d7 99 07 be
       -0.08591429 -0.012790535 0.004081913 -0.13242279
000100 c3 0d 98 3c 5d 2b 82 bd 32 9d 73 bc af 96 73 bd
       0.01856125 -0.06355927 -0.014869021 -0.059469875
000110 f0 d1 87 bd 2b f7 e7 bd e5 34 1f bd c4 96 8c bd
       -0.06631839 -0.113264404 -0.038868804 -0.06864694
000120 d7 b0 da 3c 88 ca 34 be 6e 2f 2b bd de 2a 1b b9
       0.026695652 -0.17655385 -0.04179328 -0.00014797921
000130 9e 41 e1 bd c4 40 9a bc 95 a3 eb bc bc 94 29 be
       -0.109988436 -0.01882971 -0.028764525 -0.16560644
000140 f2 dc e3 3c f8 4b 83 bd 6e a5 07 3d 74 be 66 38
       0.027815316 -0.06410974 0.03311675 5.5013646e-05
000150 bf cb 0a be 96 5f f3 bd c4 d4 1e 3c 3b 32 35 bd
       -0.13554285 -0.11883466 0.009694282 -0.044237357
000160 29 ce 31 3d 06 86 ad bc 49 3b 8f 3c ae 45 c1 bd
       0.0434095 -0.021182071 0.017484324 -0.094371185
000170 65 b8 ef bd fc 2e c9 bc 84 88 c7 bc 26 16 3f bc
       -0.11705092 -0.024558537 -0.024357088 -0.011662995
000180 39 ec 92 bd 46 aa 89 bc ab 3b 06 3d 67 9b fc bc
       -0.07173962 -0.016804826 0.032771748 -0.03083582
000190 f5 b8 2d bd e4 c3 dc bd 62 a3 8c 3c f9 50 c6 bd
       -0.042412717 -0.10779551 0.01716775 -0.09683413
0001a0 0e a1 0a 3d f8 bb c3 bb 2a 5d c9 bc ed 88 38 3d
       0.033845 -0.0059733354 -0.024580557 0.045052458
0001b0 48 d1 89 3d 30 be 91 bb 17 3f 0e 3d f6 9f a6 bd
       0.0672937 -0.004447721 0.034728136 -0.08135979
0001c0 23 66 11 be eb 99 59 bc 19 ba 10 3c 2a cd 5f bc
       -0.14199118 -0.013281326 0.008833432 -0.013659755
0001d0 23 a9 02 be 2f 66 95 bd 79 e1 8f bd 4c e8 86 bd
       -0.12759833 -0.072948806 -0.07025427 -0.06587276
0001e0 e2 d0 fe bd 73 56 aa 3c f4 6e 49 bd 1b 8c 81 3b
       -0.12442185 0.020793175 -0.04917808 0.0039534695
0001f0 ec ca e4 bb 7c 12 06 bb 6d 04 39 3d c4 d5 2d bd
       -0.006982198 -0.0020457795 0.045170236 -0.04244019
000200 a0 45 d5 bd 72 89 b8 bd 74 87 b2 3c 0f df 0f 3d
       -0.104136705 -0.090105906 0.021793105 0.035124835
000210 4f a1 62 be 86 20 95 be a9 84 3a be 79 ed 0f 3c
       -0.22131847 -0.29126376 -0.18214668 0.008784645
000220 53 41 ef bd 57 ba e1 bc 9c bd 6e bd 2f 08 c6 bd
       -0.116823815 -0.027554674 -0.058286294 -0.0966953
000230 b3 57 17 3d e5 91 0e be f5 91 1d be 66 e3 20 be
       0.03694887 -0.13922842 -0.1538771 -0.15711746
000240 ed 7d 06 3d 3b 4a 59 3d b3 0f a9 be 33 0f a9 be
       0.032834936 0.053049307 -0.3301979 -0.3301941
000250 a8 bc b2 bb 01 43 d4 bd c3 1e 6d bd dc 41 f6 bd
       -0.0054546185 -0.103643425 -0.057890665 -0.120242804
000260 16 3b b2 bd 0a e0 ba 3c 50 89 95 bd e4 7d f7 bc
       -0.08702676 0.022811908 -0.07301581 -0.030211397
000270 25 a1 32 be 1c 69 af bd f1 87 84 bd f0 f2 d3 bc
       -0.17444284 -0.0856497 -0.06471241 -0.025872678
000280 23 80 cd bd 65 1f c1 3b 47 bd af 3d 44 73 83 bd
       -0.10034206 0.005893635 0.08581024 -0.064184695
000290 14 7e cd 3d 6e 9e 84 be 4d c7 a3 bd 93 ac d9 bd
       0.10033813 -0.25902122 -0.07996998 -0.10628619
0002a0 e4 e3 d6 bd f4 bf 5d bd f9 51 e9 bd 92 53 b0 bd
       -0.104926854 -0.05413814 -0.11392588 -0.0860969
0002b0 e0 59 83 be 5f 57 6a be 30 97 5d bc cb ac 12 be
       -0.25654507 -0.22884892 -0.013524815 -0.14323728
0002c0 c9 77 78 be 29 68 b9 bc 10 ca 50 be fc b2 cb 3c
       -0.24264444 -0.022632675 -0.2038958 0.02486562
0002d0 f1 f6 a9 bb 5a c9 93 bc e0 27 23 bd 19 a8 01 3d
       -0.0051869084 -0.018040348 -0.03983295 0.03165445
0002e0 84 c4 16 3d ef 24 5a be bb eb 2d bd 41 fb 9e 3d
       0.036808506 -0.21303152 -0.04246114 0.07762767
0002f0 ca 8f 09 bd 18 01 ca bd ab 6e ac bd 19 b9 44 be
       -0.033584394 -0.0986349 -0.08419546 -0.19211234
000300 b9 d9 b9 3c 65 f9 51 be 18 e6 17 be 49 c9 2d bd
       0.022686826 -0.20505293 -0.14833868 -0.04242829
000310 ae fa 1c be 81 84 3a be 87 71 bd bd ba ff 62 bd
       -0.15330002 -0.18214609 -0.09250169 -0.05541966
000320 b6 04 68 bd cd ad ee bd 37 32 3b be 08 ea 25 bb
       -0.056645118 -0.116542436 -0.18280874 -0.0025316495
000330 ac 7e 14 bd d4 b2 77 be 94 4c 10 3d 1c 9b c9 bc
       -0.036253616 -0.24189311 0.03522928 -0.024610095
000340 5e d3 55 be 7e 1c 7f be e5 73 06 be d1 79 a1 bd
       -0.20881411 -0.24913213 -0.13130148 -0.07884563
000350 32 74 bb bd 41 0a a0 bd c3 56 66 be 04 d3 c1 bb
       -0.09153022 -0.07814456 -0.22494034 -0.0059150476
000360 70 ec dd bd dc d1 4e bd bb ef 85 3c 2e ab 05 be
       -0.108361125 -0.050493106 0.016349664 -0.13053581
000370 f4 16 12 be f1 05 73 be 19 29 35 bd 1b 9c 48 3d
       -0.14266568 -0.23732735 -0.044228647 0.048977
000380 81 14 ec bd 1e e6 bb 3c 1e c1 10 be b5 b4 36 3d
       -0.11527348 0.022936877 -0.14136168 0.04460593
000390 6d db e7 bd 2d 81 79 bd d2 3f aa bd 00 d8 3f be
       -0.11321149 -0.060914207 -0.08312954 -0.18734741
0003a0 ff 27 b7 bd af 51 01 be 64 04 92 ba a1 14 30 bd
       -0.089431755 -0.12628816 -0.0011140225 -0.042988423
0003b0 90 4f 17 bd 77 89 00 be 4d 4e 60 bc 53 f4 94 be
       -0.03694111 -0.12552439 -0.013690543 -0.29092655
0003c0 c8 73 4e bd cd 91 c0 bd 48 f8 32 3d aa 48 19 be
       -0.050403386 -0.09402809 0.04369381 -0.14969125
0003d0 81 60 05 be 3d d4 75 be 51 d2 bf bd f9 90 ac bd
       -0.13025095 -0.24006744 -0.093662865 -0.08426089
0003e0 8f 0a 9c bd 00 e2 89 bd c7 e1 0c be 7c a2 2c be
       -0.076192014 -0.06732559 -0.13758002 -0.16858858
0003f0 79 9e 02 be 6c ee 9b 3d 2a ec a3 bd 13 d6 87 be
       -0.12755765 0.07613835 -0.08004029 -0.26530513

net.2.bias f4 [128]
000000 d1 99 07 be ed 70 68 be c5 a2 bb bf a8 26 6f be
       -0.1324227 -0.22699328 -1.4659048 -0.2335459
000010 1c a8 13 bf 66 d5 08 bf 96 c6 de bf 25 38 d2 be
       -0.5767839 -0.5345062 -1.7404354 -0.4105846
000020 a1 b9 23 be 8d 04 67 3f fa 43 c0 bd e2 bd d4 3f
       -0.1598878 0.9024132 -0.093879655 1.6620448
000030 02 51 33 bf 69 cc 6a be 94 24 87 be ba 2d d7 3d
       -0.70045483 -0.22929539 -0.26395094 0.105067685
000040 0f b8 8c be 32 aa 46 be 8d bb a7 be d4 b8 ac be
       -0.27484176 -0.19400862 -0.32760277 -0.33734763
000050 7d 5d a8 be df 61 ba be 44 7f e7 bd 2e 10 d3 be
       -0.32883826 -0.36402795 -0.11303571 -0.41223282
000060 49 5c c3 be 8f cb 7f be 96 d7 9b be f5 0a b9 be
       -0.38156345 -0.24979995 -0.30437917 -0.36141172
000070 0f 78 79 be db 69 02 be b4 c9 fa be fd 60 1e be
       -0.24362205 -0.12735693 -0.48982012 -0.15466686
000080 0f 5c ec bd 18 8f 4e be af 98 6e be dc 90 86 be
       -0.11540996 -0.20171773 -0.23300432 -0.26282394
000090 88 b6 28 c0 b6 55 8c be da e0 5d be 83 e3 4d be
       -2.6361408 -0.27409142 -0.21667805 -0.2010632
0000a0 74 58 b1 be e4 1d 9c be a6 ae 29 be d9 3d 13 bf
       -0.34637797 -0.30491555 -0.1657053 -0.5751625
0000b0 9f aa 9e bf c1 cd cb be a0 c4 53 be f9 ea 81 be
       -1.239582 -0.39805415 -0.20680475 -0.25374582
0000c0 64 86 10 bf 94 63 46 be 46 8d 27 40 05 a1 74 be
       -0.56455064 -0.19373924 2.6179976 -0.23889549
0000d0 08 c4 41 be 8e 09 0e bf 76 05 b4 3f f8 60 c2 be
       -0.18922436 -0.5548333 1.4064167 -0.37964606
0000e0 95 45 53 bd bd 90 80 be 90 ee 2a be 9a ea 6c be
       -0.05158003 -0.25110427 -0.16692567 -0.23136368
0000f0 3f 0a 06 be 7b ca 08 be 77 08 03 c0 64 56 6c be
       -0.13089846 -0.1335849 -2.0473917 -0.2307983
000100 55 ab 2f be d5 e4 a1 be 7a 36 85 be fc d6 cb bf
       -0.17155202 -0.31619897 -0.26018125 -1.5924983
000110 ac 90 25 be b2 b1 88 be df 09 10 be a8 c4 96 be
       -0.16168469 -0.2669807 -0.14066266 -0.29446912
000120 ab 77 25 be 99 b7 35 3e d7 fe c0 be 91 36 5c bf
       -0.16158931 0.17745818 -0.37694427 -0.8602076
000130 7a eb 00 40 b3 94 e5 bd 62 67 fc 3d 2a 03 75 be
       2.0143723 -0.11210003 0.12324406 -0.23926988
000140 fc 37 a4 be 9f 82 6f bf f3 4e 11 be 5e d6 24 be
       -0.32073963 -0.93558687 -0.14190273 -0.160974
000150 8f e7 9a be f0 8e 72 be c4 b0 3d be 61 c7 8e be
       -0.3025479 -0.23687339 -0.18524462 -0.2788649
000160 2a 2e 02 be c8 3f ac be f3 70 35 be 83 46 b0 be
       -0.12712923 -0.3364241 -0.17718868 -0.34428796
000170 28 b6 81 be 3b bd d5 3f 74 10 73 be 61 e2 c2 be
       -0.25334287 1.6698374 -0.23736745 -0.38063338
000180 8c 30 ab be f8 08 4d be 50 09 42 be 98 d3 02 bf
       -0.33435476 -0.20022953 -0.18948865 -0.51104116
000190 d3 25 5c be cf 1c 46 be ed be 9d be 08 5f a8 bf
       -0.21498804 -0.19346927 -0.30809727 -1.3154001
0001a0 ab 46 7d bf 4d c7 7c be 5e b0 03 bf 47 75 63 be
       -0.98935956 -0.24685402 -0.5144099 -0.22212707
0001b0 a1 42 14 be 9e c1 0b be cc 85 6b bf 8b b4 9e be
       -0.14478542 -0.13648078 -0.9200103 -0.30997118
0001c0 5c 86 89 bf 30 e4 5f be 9d 5d 47 be a2 1f c5 be
       -1.0744128 -0.2186439 -0.19469304 -0.38500696
0001d0 f7 d4 a2 be e4 72 b2 be 6e f7 cf bd 09 2d 81 be
       -0.31803104 -0.3485328 -0.10154615 -0.25229672
0001e0 a7 70 b1 be a3 05 21 bf ad c4 19 be 8f 6f 14 be
       -0.3465626 -0.62899226 -0.15016432 -0.14495681
0001f0 e1 14 27 bf 11 ff e8 bd 24 0a 00 be ce 5e 66 be
       -0.65266234 -0.11376775 -0.12503868 -0.22497103

net.4.weight f4 [5, 128]
000000 f2 e1 4d be 20 91 38 bf 6a c8 a6 c0 7e ac e4 be
       -0.20105723 -0.72096443 -5.2119646 -0.4466285
000010 48 7c dd c0 71 79 99 bf 15 3e bf c0 fd 93 60 c0
       -6.921421 -1.1990186 -5.9763284 -3.5090325
000020 22 23 7d be bb 76 8e c0 f4 f8 fb bd fd cc 0c c0
       -0.24720433 -4.4519935 -0.123033434 -2.2000115
000030 70 b2 93 c0 25 52 22 bf 37 9c e4 bf bf f2 6b bf
       -4.615532 -0.6340659 -1.7860173 -0.92167276
000040 88 f5 e8 be 19 ba 2e be e4 0a 8f be 39 59 0b bf
       -0.45499825 -0.17063178 -0.27937996 -0.5443302
000050 85 ce 37 bf 35 fe 28 c0 72 5f fa bd f8 4c ad c0
       -0.717995 -2.6405156 -0.12225236 -5.4156456
000060 a5 16 83 be 15 16 b0 be bd e3 3f c0 21 88 ba be
       -0.25603214 -0.34391847 -2.998275 -0.36431983
000070 e4 96 62 be ea 8c 7a bf 6f 3d 4f bf 68 db c9 bc
       -0.22127873 -0.9787127 -0.80953115 -0.024640754
000080 27 7e 2b bf 0d b7 0e c0 58 38 27 be 15 98 d8 be
       -0.6698937 -2.2299225 -0.16330087 -0.4230353
000090 4a c3 5e c0 ea 1e 33 bd 0a 59 9b be 89 f4 08 bd
       -3.4806695 -0.043730654 -0.3034137 -0.033436332
0000a0 1a e6 62 bf 8a 67 4c be 91 c4 ea bd 46 2f 2f c0
       -0.8863236 -0.19961372 -0.11463273 -2.7372603
0000b0 39 05 c3 c0 24 dd e6 c0 0b 6c 3d be 56 85 e6 be
       -6.0943875 -7.2144947 -0.18498246 -0.45023602
0000c0 d5 eb 9d bf 14 81 25 bf 08 76 94 c0 f7 6c f0 be
       -1.2337595 -0.6465008 -4.639408 -0.46958134
0000d0 71 fb 55 be 79 22 9f bf 46 9f 14 c0 91 bd 0e bf
       -0.20896699 -1.2432395 -2.3222213 -0.55758005
0000e0 f6 72 a1 bd 6a e2 1c be ec b0 1c be ce ce 60 bf
       -0.07883255 -0.15320745 -0.15301865 -0.8781556
0000f0 c7 3e db bd e6 c7 f1 3b 82 9a c3 c0 8d 37 77 bd
       -0.10705333 0.007378566 -6.112611 -0.06035571
000100 08 de 43 be b7 81 81 c0 fe 05 1c bf a8 6f bc c0
       -0.19127667 -4.0470843 -0.60946643 -5.88863
000110 31 cf 8e be 51 e4 4d be 25 d8 5d be a8 be 98 be
       -0.2789245 -0.20106627 -0.21664484 -0.2983296
000120 f7 19 11 be b7 02 1b c0 c5 65 48 bf 7e 55 99 c0
       -0.14170061 -2.4220407 -0.7828029 -4.791686
000130 d8 ee 84 c0 d8 78 a4 bd 0f 67 a1 bf 62 87 e1 be
       -4.1541557 -0.080308616 -1.2609576 -0.440486
000140 db 9e 29 bf eb 2d 95 c0 84 3c cf bd 67 76 57 bd
       -0.6625802 -4.661855 -0.10118964 -0.05260315
000150 76 e0 84 be dd 37 bd be 49 ab 0a be ed fa 4e be
       -0.259525 -0.36956683 -0.13541903 -0.20212908
000160 e4 f9 cf bd 62 60 76 be 77 2b ae bc fd 18 11 bf
       -0.10155085 -0.24060205 -0.02126096 -0.56678754
000170 29 51 d3 be d1 d6 6c c0 59 36 a2 be db cc ae bf
       -0.41272858 -3.7006114 -0.3168209 -1.3656267
000180 94 ce 87 bf c4 6e 37 be ca f4 8d be c8 73 8a bf
       -1.0609918 -0.17913347 -0.27725822 -1.0816584
000190 a6 f2 b7 be ec 73 e9 bd 9d 23 69 c0 68 62 82 c0
       -0.35927314 -0.113990635 -3.6427987 -4.0745125
0001a0 99 61 2a c0 f5 aa 5e be e3 41 3f bf 34 f8 3e be
       -2.662207 -0.21744902 -0.7470991 -0.1864937
0001b0 98 08 15 bf 8a 15 b3 be 38 b9 11 c0 0a 7f 0c bf
       -0.5821624 -0.3497737 -2.2769299 -0.54881346
0001c0 02 47 a4 c0 b7 35 9a be 90 fa 2c be 10 09 1b be
       -5.133668 -0.30119106 -0.16892457 -0.15140176
0001d0 34 d6 b4 be 42 5c c7 be 72 bf b2 bd fe 46 87 bf
       -0.35319674 -0.38937575 -0.087279215 -1.056854
0001e0 97 69 95 bf d3 32 a6 c0 a3 f7 01 bd 2b 43 de bd
       -1.1672848 -5.193704 -0.031730305 -0.10852655
0001f0 42 66 5e bf ad 21 07 be c1 4a 06 be 99 64 e7 be
       -0.86874783 -0.1319644 -0.13114454 -0.45193937
000200 05 d6 53 be 82 da 8b be f9 d6 2a c0 40 5a bc be
       -0.2068711 -0.27315146 -2.669371 -0.36787605
000210 11 fc 00 c0 75 64 7c bf 14 93 88 c0 22 62 62 c0
       -2.015385 -0.98590785 -4.267954 -3.5372396
000220 06 8f 2a be 45 fd 88 c0 76 77 34 bd fc c2 fc bf
       -0.16656122 -4.2809167 -0.04405924 -1.9747005
000230 91 d9 dd bf 79 b2 47 be 90 41 56 bf b2 ca 40 bd
       -1.7332021 -0.19501676 -0.8369379 -0.047068305
000240 ed bf a0 be c9 52 2f be 57 d6 2d be 13 fa a5 be
       -0.31396428 -0.17121424 -0.16976295 -0.32417354
000250 c2 02 28 bf 2e 29 2e c0 c9 76 07 be 91 f9 18 c0
       -0.6562921 -2.7212634 -0.13228907 -2.3902323
000260 dd 6a 92 be 55 1f ad be 90 75 a0 be 9d 46 c3 be
       -0.28597155 -0.33812967 -0.31339693 -0.3813981
000270 0a f0 88 be b4 d4 bb be 11 6a b4 be 68 2e e1 bd
       -0.26745635 -0.36685717 -0.35237172 -0.109951794
000280 a6 9d 9d be bc 49 45 bf 54 2e c1 bd bf 00 2a be
       -0.3078434 -0.77065635 -0.094326645 -0.16601847
000290 ca 3c 76 c0 e4 34 95 bd c6 a7 53 be de 3b fe bd
       -3.8474603 -0.07285479 -0.20669469 -0.124137625
0002a0 b7 06 f1 be 15 9a 49 be 4d 13 bd bd 85 39 61 bf
       -0.47075436 -0.19687684 -0.09232197 -0.8797839
0002b0 28 6a a0 c0 c5 56 9b c0 8c 5e ea bc 64 bc f3 be
       -5.0129585 -4.854342 -0.028609537 -0.47604668
0002c0 39 ca 36 bf c1 b7 9a be 9e bd 5e c0 6e a6 e7 bd
       -0.7140232 -0.30218318 -3.4803233 -0.11311041
0002d0 41 04 61 be 82 c5 52 bf 43 bc 15 c0 47 e9 ee be
       -0.21974279 -0.82332623 -2.3396156 -0.4666235
0002e0 19 10 09 be 0d ea eb bd 85 af 32 bd e9 28 db be
       -0.13385047 -0.11519251 -0.04362442 -0.4280465
0002f0 4e 63 59 bd 8f d7 82 bd 34 5b e2 c0 42 fb 22 bd
       -0.05307322 -0.06388771 -7.073633 -0.0397904
000300 81 51 7f bd a8 b4 26 c0 26 47 f2 be 47 0b 8c c0
       -0.062333588 -2.6047764 -0.47319907 -4.3763766
000310 90 6e 76 bd c9 84 39 be dd 79 82 bc ad de 4f be
       -0.060164034 -0.1811706 -0.01592725 -0.20299788
000320 80 15 1e be ec 95 0e c0 38 f8 9b bf f3 31 29 c0
       -0.15437889 -2.2279005 -1.2185125 -2.6436737
000330 a3 26 45 c0 46 09 3d bd f3 19 c0 bf e4 5b 4c be
       -3.0804832 -0.046151422 -1.5007919 -0.19956928
000340 3b 60 dc be bd f8 0b c0 5b cc f5 bd 7d 63 dc bd
       -0.43042168 -2.1870568 -0.12001868 -0.107611634
000350 58 da 28 be 84 83 61 be 06 3d 01 be e2 85 22 be
       -0.16489542 -0.22022825 -0.12620935 -0.15871385
000360 19 58 33 be 8e 9a aa be d0 31 af bd 6b c4 a8 be
       -0.17514075 -0.3332104 -0.08554423 -0.32962355
000370 14 72 91 be ce a1 5f c0 28 52 88 be 1f 6a 49 bf
       -0.28407347 -3.4942508 -0.2662518 -0.7867755
000380 96 62 b7 be 3d f1 2c be ac db 62 be e0 49 04 bf
       -0.35817403 -0.168889 -0.2215411 -0.51675224
000390 3b 0d 92 be bc cf 7d be 5a dd 51 c0 77 c5 50 c0
       -0.2852572 -0.24786276 -3.2791352 -3.2620523
0003a0 91 33 28 c0 99 47 72 be 09 32 18 bf e1 27 8e bd
       -2.6281474 -0.23660125 -0.5945135 -0.069412
0003b0 3e 40 b2 bd b8 09 7e be c1 4e 82 bf f0 bf 17 3d
       -0.087036595 -0.24808395 -1.0180284 0.03704828
0003c0 73 ac f9 bf b3 1f ae be 12 3f b3 bd 12 96 51 be
       -1.9505752 -0.3400856 -0.08752264 -0.20467404
0003d0 74 fa 96 be aa 66 c1 be 85 81 11 be 7c c2 1a bf
       -0.29487956 -0.3777364 -0.14209564 -0.6045301
0003e0 32 57 be be 64 fd 81 bf 25 32 36 bd 74 3f 14 bd
       -0.371759 -1.0155454 -0.044481415 -0.036193326
0003f0 3a 07 f6 be 87 71 52 bd dd 18 8b bd a8 49 ba be
       -0.48052388 -0.0513778 -0.06791852 -0.3638432

net.4.bias f4 [5]
000000 08 a0 07 c0 f4 90 1d c0 c8 25 c3 be d4 aa ab bf
       -2.1191425 -2.4619722 -0.38114762 -1.3411508
000010 db a9 a0 bf
       -1.2551836
