RL code/rlcodes/q-learning/walker2d_dqn_weights.pth (torch, 298353 bytes, 6 tensors)

q_network.0.weight f4 [256, 17]
0.5199974 0.087440036 1.5576239 -0.2702386 0.17707698 2.05053 -0.4861629 -0.8788904
-0.12639932 0.56617993 -0.06284248 -0.1458935 -0.44443056 0.011149526 0.2167239 0.531482
0.11005183 -1.4303265 -0.42167294 -0.36371243 -0.5486504 0.41668597 -0.11902321 -0.3048289
-0.11254501 0.21930926 -0.81274444 0.016667927 -0.15278849 -0.04191465 -0.008289666 0.08506903
-0.008972282 -0.117590144 -0.46481097 -1.1817616 0.81447893 -0.22930843 0.041397072 0.26902208
-0.6267702 0.16088885 -0.6543992 0.5815955 0.07484765 -0.21735716 0.5641867 0.34602293
0.08181093 0.2248762 0.22479877 -0.1594104 0.13888352 0.7246176 -1.6686913 -0.054367416
0.21238169 -0.3079885 0.14151338 0.34439984 0.17097 -0.043634888 0.025645448 0.3936026
-0.16122828 0.31832838 0.36123344 0.06919713 -1.0561703 0.2536032 0.7469857 1.1699748
-0.5175358 0.48870787 1.5652518 -0.3147487 0.4819354 1.197503 0.3099939 0.17043076
-0.013118883 0.038904652 -0.05014842 -0.03171033 0.054279726 0.29569656 0.5924843 -0.57961404
-0.2242438 0.014281335 -0.91817296 0.20428617 0.5229558 0.5325288 -0.13723108 -0.29797894
0.14717874 -0.003061392 0.008863425 0.087949425 -0.10835407 -0.016137235 -1.4319687 -0.17441624
-0.8152414 0.61702913 -0.120467946 -0.9106633 0.5215168 0.011985407 1.4948201 -1.2932985
0.1454657 -0.15575767 0.08290294 -0.027434833 -0.10025208 -0.0348864 0.008300032 0.6925231
-0.047380652 -0.95541584 -0.84751284 -0.0021495295 -1.0068921 -0.7689947 0.21582195 0.39459756
-0.0760734 0.07392586 -0.1418848 -0.0043343236 -0.043883365 -0.01020634 0.020875622 0.07751059
-0.74001133 -1.3543564 -0.03381305 -0.041496255 0.933362 0.09847995 -0.44318724 -0.8629813
0.48409688 0.65179515 -0.29045287 0.05626388 0.04701029 -0.010280601 -0.13549769 0.015031744
-0.08119895 -0.4500053 -1.2077497 -0.75594294 -0.3603114 -0.12361852 -0.7511738 0.085538365
-0.059432562 -0.48124197 0.6392638 -0.01915711 -0.29577973 -0.2657803 0.15294775 0.024116958
-0.5651033 -0.25096852 -0.32309178 0.49928027 0.6286633 -0.49737298 0.77230066 -0.060529254
0.35685292 -0.802189 0.28077096 -0.17081171 0.020236136 0.3211829 -0.021219257 -0.34240022
0.017157027 0.0894888 -0.6550593 0.8785507 0.46653992 -0.031538 -0.1774351 0.17808063
-0.0865493 -0.4135194 0.20295507 0.2693953 0.2139002 0.1101531 -0.013166758 -0.16704054
0.04129093 -0.024118006 -0.03008835 0.18732013 -0.90826684 -0.97766984 0.44757852 0.08515394
-0.045885745 -0.16403176 0.517069 0.013656504 -0.06755371 -0.5373969 -0.3100792 0.004060082
0.3675055 0.48062336 0.1134863 -0.18241389 -0.10255613 0.79357725 0.4740589 0.14373665
0.4182449 -1.1240102 -0.26276973 0.2612027 0.12767097 0.2888691 0.24880014 0.0064988965
-0.24319719 -0.07290357 0.6019697 -0.08158896 0.056556236 0.25001213 -0.7812914 0.65874195
1.5779576 0.14955966 -0.6703161 1.1203738 1.4877771 -0.16239479 0.41712806 -0.14135687
0.044593535 0.2024312 0.41188708 -0.20340692 -0.17962182 0.18514234 0.10086169 0.8024838
00000000: 8d1e 053f c313 b33d 3860 c73f b75c 8abe
00000010: ab53 353e e23b 0340 58ea f8be f6fe 60bf
00000020: d36e 01be 2bf1 103f 8fb3 80bd 1b65 15be
00000030: 678c e3be 80ac 363c dfec 5d3e 340f 083f
00000040: db62 e13d f014 b7bf 84e5 d7be 8438 babe
00000050: 5a74 0cbf dd57 d53e 71c2 f3bd 8912 9cbe
00000060: 007e e6bd 9b92 603e 0510 50bf 2d8b 883c
00000070: 9674 1cbe b2ae 2bbd 61d1 07bc ac38 ae3d
00000080: 7a00 13bc 1ad3 f0bd b4fb edbe f743 97bf
00000090: b181 503f d4cf 6abe fa8f 293d 43bd 893e
000000a0: 0374 20bf 0cc0 243e b586 27bf 71e3 143f
000000b0: ba49 993d e092 5ebe 8a6e 103f eb29 b13e
000000c0: 7d8c a73d f245 663e a631 663e 7b3c 23be
000000d0: 7b37 0e3e 8a80 393f ad97 d5bf 5eb0 5ebd
000000e0: 967a 593e abb0 9dbe e2e8 103e 2d55 b03e
000000f0: c212 2f3e 7fba 32bd 6716 d23c 4886 c93e
00000100: 0719 25be f0fb a23e 97f3 b83e 3ab7 8d3d
00000110: 9730 87bf 47d8 813e 743a 3f3f bcc1 953f
00000120: 3a7d 04bf eb37 fa3e 2c5a c83f be26 a1be
00000130: 3dc0 f63e c747 993f 85b7 9e3e 6785 2e3e
00000140: 95f0 56bc 7c5a 1f3d 6e68 4dbd b1e2 01bd
00000150: 6b54 5e3d 8a65 973e 0dad 173f 9661 14bf
00000160: 2ba0 65be 43fc 693c 620d 6bbf 6530 513e
00000170: 6ee0 053f cf53 083f 4e86 0cbe b290 98be
00000180: 06b6 163e a3a1 48bb e637 113c d41e b43d
00000190: bde8 ddbd 3c32 84bc c04a b7bf 2c9a 32be
000001a0: a9b3 50bf 9ff5 1d3f e6b7 f6bd 3b21 69bf
000001b0: 2082 053f 715e 443c 4456 bf3f ce8a a5bf
000001c0: f6f4 143e f07e 1fbe 04c9 a93d 04bf e0bc
000001d0: f650 cdbd 0be5 0ebd dbfc 073c 3249 313f
000001e0: 3712 42bd 2296 74bf 9af6 58bf 1fdf 0cbb
000001f0: d7e1 80bf d6dc 44bf 6e00 5d3e b108 ca3e
00000200: 5fcc 9bbd 7166 973d 404a 11be f106 8ebb
00000210: 0bbf 33bd 7e38 27bc 5a03 ab3c dfbd 9e3d
00000220: 6271 3dbf 8d5b adbf 8d7f 0abd faf7 29bd
00000230: d0f0 6e3f dbaf c93d 70e9 e2be 58ec 5cbf
00000240: 8cdb f73e 0cdc 263f 3db6 94be f474 663d
00000250: dd8d 403d f76f 28bc e8bf 0abe b447 763c
00000260: a34b a6bd 1867 e6be 8b97 9abf 7a85 41bf
00000270: bc7a b8be b52b fdbd ed4c 40bf bd2e af3d
00000280: 8f6f 73bd 5965 f6be cba6 233f 5fef 9cbc
00000290: 7170 97be 5b14 88be 569e 1c3e ed90 c53c
000002a0: 9caa 10bf f27e 80be 496c a5be aaa1 ff3e
000002b0: 14f0 203f aca7 febe 7fb5 453f 86ed 77bd
000002c0: 6db5 b63e 425c 4dbf 36c1 8f3e 44e9 2ebe
000002d0: 41c6 a53c 1672 a43e 02d4 adbc 154f afbe
000002e0: e58c 8c3c e745 b73d f7b1 27bf b3e8 603f
000002f0: 52de ee3e fd2d 01bd 8cb1 35be c55a 363e
00000300: c240 b1bd d1b8 d3be 74d3 4f3e 2eee 893e
00000310: a708 5b3e f397 e13d 63b9 57bc ad0c 2bbe
00000320: ae20 293d 2093 c5bc d87b f6bc d9d0 3f3e
00000330: 2d84 68bf 9248 7abf 0329 e53e 3065 ae3d
00000340: b1f2 3bbd f1f7 27be a25e 043f 88bf 5f3c
00000350: 9959 8abd d892 09bf b3c2 9ebe 700a 853b
00000360: ae29 bc3e 4414 f63e 816b e83d b5ca 3abe
00000370: f308 d2bd e127 4b3f d9b7 f23e b32f 133e
00000380: 3224 d63e 91df 8fbf c189 86be 5cbc 853e
00000390: 2ebc 023e a7e6 933e 77c5 7e3e b2f4 d43b
000003a0: af08 79be 784e 95bd b01a 1a3f 1d18 a7bd
000003b0: 83a7 673d 9701 803e b702 48bf 50a3 283f
000003c0: 84fa c93f 2b26 193e d699 2bbf 6968 8f3f
000003d0: 7b6f be3f d24a 26be cf91 d53e dbbf 10be
000003e0: b6a7 363d 204a 4f3e dde2 d23e e749 50be
000003f0: c8ee 37be f495 3d3e 9390 ce3d 946f 4d3f

q_network.0.bias f4 [256]
0.3081014 -0.64328486 -0.51441574 -0.04177453 -0.770273 0.098223604 -0.81375194 0.28769052
-0.83704066 -0.5886334 -0.2093175 0.5350381 -0.91056484 0.41690913 -0.6579317 0.59186894
0.34399036 -0.46521464 0.2960886 0.29999787 -0.543455 0.3812976 -0.5743708 0.048409376
-0.15426192 0.3065253 0.3437832 -0.7317136 -0.89365745 -0.609757 0.61372083 -1.0674474
0.36084592 0.4228991 -0.4370171 0.44950405 0.769827 0.10760412 -0.1296633 -0.9557524
-0.16456313 -0.74961686 -0.36941007 -0.360801 0.027361363 -0.44715154 -0.04264464 -0.34532827
0.27913833 0.173243 -0.2625479 -0.25868297 -0.76868814 -0.3378095 0.18282406 -0.1787886
-1.1183598 -0.6251484 -0.09036825 -0.16972342 -0.1487263 -0.37467796 -0.6910967 1.1789984
-0.19018137 0.47890633 0.59567535 -0.7781909 0.41817442 -0.16494998 0.8520707 0.47150958
0.08931565 0.28986698 -0.4697733 0.4447849 0.12411161 -0.68488306 0.28993633 -0.5007236
-0.090159625 0.36955804 0.41306585 0.10471274 -0.010043267 0.13626076 -0.8209211 -0.4246756
-0.10479668 0.4119174 0.7659699 -0.54337716 0.31592175 0.5199091 -0.4284681 -0.40682763
-0.0708424 -0.5531217 0.030664485 -0.28530732 0.24917048 -0.8397085 -0.7922536 -0.6507764
-0.8303177 -0.50325745 0.22788532 -0.3933588 0.78667974 -0.051774804 -0.3769763 0.61311275
0.50610656 -0.7477101 -0.4197236 -1.0749948 -0.78028125 -0.8697293 0.5979246 0.27510342
-0.96560663 -0.42253336 -0.3761341 -0.70223165 -0.537696 0.050017636 -0.21525855 -0.576357
0.26701784 0.3173833 -0.39017525 -0.09738454 -0.10071453 -0.47900116 0.49961874 0.46940342
-0.06938672 0.37626317 -0.41109827 0.27486628 -0.20262124 -0.11264711 -0.3128685 0.28799975
0.5089544 -0.59398144 -0.34354413 -0.36190182 0.5981585 -0.5318044 0.55857545 0.2804304
-0.0073919254 0.36311877 -0.006167798 0.2000508 -0.14158466 0.34836927 0.22247526 -0.15342957
0.13343918 -0.7535556 0.119930305 0.31003729 -0.101517305 0.10516683 0.6413078 -0.53378105
0.22176519 0.035405032 0.049668275 0.7779053 0.1673739 -0.39978135 -0.5922588 -0.5766519
-0.2440061 -0.043779347 0.4721504 0.06132622 0.41326883 -0.6924723 0.89762115 -0.4817823
-0.4905365 -0.6765894 0.64956164 0.55915093 -0.7769231 -0.7968569 -0.59922427 0.6534813
0.57969654 -1.1969537 -0.74238014 -0.44443122 -0.33455005 -0.06804431 0.06067556 -0.7492796
-1.044742 -1.0060676 0.5702026 -0.057162073 -0.09753458 -0.38457772 -0.3910992 -0.19009794
0.56191254 -0.82085174 0.41504604 -0.51059467 0.27092528 0.6432635 0.21430063 0.078729
0.09706846 0.14405063 1.0506335 -0.14842422 -0.3520568 0.6923759 -0.39272156 0.015785078
0.049114708 0.30899712 0.4633075 -0.2553511 -0.9278129 -0.2691189 -0.6473893 0.43947232
-0.09291668 0.22466 -0.6027296 -0.038769007 -0.60814077 -0.7251449 0.8301651 -0.4024329
0.5574392 -0.70498 -0.06480602 0.825251 0.15818827 0.7091603 0.54081815 0.12235686
-0.23359607 -0.51866025 -0.79686564 -0.5231288 -0.7676895 -0.12307753 0.4719779 -0.0073931767
00000000: 77bf 9d3e 51ae 24bf c0b0 03bf c51b 2bbd
00000010: 9c30 45bf 7529 c93d 0c52 50bf 2c4c 933e
00000020: 4c48 56bf aeb0 16bf 5457 56be 42f8 083f
00000030: c71a 69bf 1d75 d53e 366e 28bf b984 173f
00000040: 811f b03e 9d30 eebe ed98 973e 5299 993e
00000050: de1f 0bbf 7039 c33e f709 13bf e948 463d
00000060: d6f6 1dbe e2f0 9c3e 5a04 b03e 9551 3bbf
00000070: bcc6 64bf 0919 1cbf cf1c 1d3f 1ea2 88bf
00000080: ccc0 b83e 3b86 d83e b5c0 dfbe 6525 e63e
00000090: 6213 453f 8d5f dc3d 75c6 04be 30ac 74bf
000000a0: 3d83 28be e4e6 3fbf 5123 bdbe e9ba b8be
000000b0: f024 e03c 0cf1 e4be 25ac 2ebd dece b0be
000000c0: 38eb 8e3e 9d66 313e ae6c 86be 1872 84be
000000d0: bfc8 44bf 5ef5 acbe 3b36 3b3e 5c14 37be
000000e0: 6a26 8fbf ba09 20bf fd12 b9bd facb 2dbe
000000f0: b54b 18be cad5 bfbe b7eb 30bf 6be9 963f
00000100: e8be 42be 3633 f53e 2e7e 183f 8537 47bf
00000110: f51a d63e a6e8 28be 4e21 5a3f b469 f13e
00000120: 20eb b63d 7269 943e 2086 f0be d9ba e33e
00000130: 3a2e fe3d 7f54 2fbf 8972 943e 6c2f 00bf
00000140: 9ca5 b8bd b636 bd3e 5e7d d33e a273 d63d
00000150: 848c 24bc f187 0b3e e327 52bf 156f d9be
00000160: a49f d6bd d6e6 d23e 9a16 443f c41a 0bbf
00000170: 7fc0 a13e c318 053f 2c60 dbbe b64b d0be
00000180: d215 91bd 6299 0dbf 1634 fb3c cd13 92be
00000190: 8c26 7f3e 23f7 56bf 22d1 4abf 4899 26bf
000001a0: b38f 54bf 7bd5 00bf c55a 693e 5366 c9be
000001b0: d863 493f d111 54bd 0a03 c1be f5f4 1c3f
000001c0: 3390 013f ee69 3fbf 03e6 d6be 6e99 89bf
000001d0: 83c0 47bf 94a6 5ebf 9611 193f 5bda 8c3e
000001e0: ff31 77bf 4b56 d8be a694 c0be 74c5 33bf
000001f0: 72a6 09bf 4bdf 4c3d bd6c 5cbe 228c 13bf
00000200: 90b6 883e 1080 a23e 0dc5 c7be 8c71 c7bd
00000210: 6b43 cebd a43f f5be 07ce ff3e a555 f03e
00000220: a01a 8ebd 91a5 c03e 797b d2be 46bb 8c3e
00000230: f17b 4fbe 87b3 e6bd 4d30 a0be b474 933e
00000240: d64a 023f 2b0f 18bf 04e5 afbe 324b b9be
00000250: ea20 193f 5524 08bf cdfe 0e3f 9394 8f3e
00000260: f737 f2bb b4ea b93e 3d1b cabb 1eda 4c3e
00000270: 92fb 10be 755d b23e 8ed0 633e a41c 1dbe
00000280: 48a4 083e 05e9 40bf 059e f53d 35bd 9e3e
00000290: 4ee8 cfbd b561 d73d bf2c 243f e0a5 08bf
000002a0: 6a16 633e de04 113d f670 4b3d cd24 473f
000002b0: 1064 2b3e 24b0 ccbe 469e 17bf 759f 13bf
000002c0: bcdc 79be f951 33bd b2bd f13e 3431 7b3d
000002d0: f997 d33e dd45 31bf 80ca 653f 2bac f6be
000002e0: 9a27 fbbe f734 2dbf ac49 263f 8424 0f3f
000002f0: 6fe4 46bf d0fe 4bbf c366 19bf 8d4a 273f
00000300: fe66 143f c735 99bf a00c 3ebf 7d8c e3be
00000310: 254a abbe d15a 8bbd f086 783d cad0 3fbf
00000320: 1bba 85bf d3c6 80bf ccf8 113f c722 6abd
00000330: 36c0 c7bd 5fe7 c4be 283e c8be 09a9 42be
00000340: 80d9 0f3f 5723 52bf ea80 d43e 55b6 02bf
00000350: b8b6 8a3e ebac 243f a071 5b3e ac3c a13d
00000360: d4cb c63d 0282 133e 297b 863f 85fc 17be
00000370: ca40 b4be 8c3f 313f cd12 c9be b54f 813c
00000380: 812c 493d df34 9e3e a436 ed3e 61bd 82be
00000390: 2585 6dbf f4c9 89be 4ebb 25bf 8402 e13e
000003a0: 1a4b bebd 450d 663e 7d4c 1abf 40cc 1ebd
000003b0: 1daf 1bbf 19a3 39bf b385 543f af0b cebe
000003c0: 56b4 0e3f 9279 34bf 05b9 84bd a643 533f
000003d0: 1bfc 213e 888b 353f 0f73 0a3f 3c96 fa3d
000003e0: cf33 6fbe ebc6 04bf 63ff 4bbf c5eb 05bf
000003f0: 4d87 44bf 1210 fcbd 16a7 f13e 7642 f2bb

q_network.2.weight f4 [256, 256]
0.40581176 -0.69126916 0.2492582 0.15702973 -0.4584915 0.11971549 -0.021395946 0.15072075
-0.13600971 0.06750654 0.17735897 0.1277984 -0.274985 -0.17432846 -0.21051656 0.2121762
-0.03012756 6.450243e-05 -0.21690093 0.09526734 -0.047292445 0.0732896 0.20647448 0.043507412
0.18968359 0.16201553 0.1039309 0.019235209 -0.038101092 -0.013319886 0.15045431 -0.43590152
0.14282466 0.21597952 -0.030245421 0.19643885 -0.029624322 0.07052324 -0.52440995 -0.5020259
-0.32261768 -0.508374 -0.23251596 -0.27937624 0.04242622 0.5524448 0.1832392 -0.26733306
-0.18564533 0.010866258 -0.6813923 -0.124317944 -0.33746663 0.19430432 -0.24323794 0.013405438
-0.110902205 -0.27698043 0.056744646 0.19222738 0.1761105 0.10107438 -0.013471508 0.35776988
0.067713074 0.07535784 0.14673841 -0.22008729 -0.010781997 0.19421577 0.06387755 0.0519284
0.18540947 0.09669089 0.19683693 0.36436936 0.09871182 0.28113198 0.11228389 -0.049394965
0.1395189 0.19333977 0.37183058 0.18972425 0.07746068 -0.13290109 -0.40933228 0.23525243
0.046322692 -0.30611354 0.25422937 -0.017801011 -0.12779386 0.22753881 -0.09230513 0.2716946
0.69952476 -0.30829632 0.047271233 0.11758762 0.023034008 -1.104181 -0.90159196 -0.55247694
-0.624715 -0.19126102 0.2114115 0.066059224 -0.012573271 0.14016579 0.088128075 0.049256183
0.13922073 0.088294856 0.17283802 -0.5375065 -0.17823815 -1.2831454 0.23637497 0.12087397
0.10253289 0.18594137 0.117333576 0.22487381 -0.55924034 -0.2376211 0.04905986 0.08110242
0.033386435 0.04673842 0.07386542 0.025053002 0.2530617 0.18521322 0.11821514 0.20792435
-0.08309259 0.18706007 0.5523183 0.37854725 -0.100402564 -0.0034629544 0.1090346 -0.23821637
-0.0061816536 0.4578433 -0.81507546 0.4594613 -0.07369991 -0.11125846 0.041908424 0.3070046
0.30313256 0.11681189 0.28121856 0.077924825 -0.32456005 0.12927066 0.12767796 -0.24071135
0.03701751 -0.11052742 -0.29735166 -0.13438432 -0.60786146 0.06423249 0.12542383 0.073140174
0.09932698 0.009365761 0.16976619 0.010300264 -0.054687988 0.09455853 0.10027114 0.034031756
-0.4618442 0.016187368 0.070087396 0.94942385 -0.093064964 -0.056795582 0.080963545 0.06365399
0.8687525 -0.15205528 0.10544071 0.3706027 -0.71373224 -1.0955846 0.030055739 0.007031923
0.095379524 -0.39283007 0.011639961 0.24414256 0.47735742 -0.60598725 -0.31350148 -0.3470492
-0.13941105 -0.95960265 0.15684377 0.042807925 0.14620301 0.0066187996 0.22921897 -0.15025799
0.20591891 -0.09879127 0.08518096 0.08340735 0.04679803 -0.6725243 -0.16125564 -0.118475676
-0.15327269 -0.051103305 0.4978441 0.11386721 -0.21876454 0.07695493 -0.035594873 0.2546402
-0.7400055 -0.014717239 0.0480143 -0.06724664 -0.3231399 -0.00019514824 -0.5742835 0.1300416
0.016554667 -0.0067074317 0.2447595 -0.058941927 0.18186773 -0.029295702 -0.0723381 0.092751846
0.14041793 -0.17001954 0.16581272 -0.134976 0.016382312 0.12667282 -0.1006921 -0.15641017
0.31653008 0.559295 0.18667816 0.23290397 -0.5023978 -0.09648641 -0.21296553 0.00067044643
00000000: 8fc6 cf3e 04f7 30bf 8b3d 7f3e 67cc 203e
00000010: 66bf eabe 652d f53d 8d46 afbc 8a56 1a3e
00000020: 2146 0bbe de40 8a3d 979d 353e 95dd 023e
00000030: d5ca 8cbe 2983 32be a791 57be b844 593e
00000040: 13ce f6bc 7a45 8738 471b 5ebe 861b c33d
00000050: b9b5 41bd dc18 963d 0c6e 533e d434 323d
00000060: 6a3c 423e 66e7 253e b9d9 d43d 2893 9d3c
00000070: e40f 1cbd a73b 5abc b210 1a3e 7c2e dfbe
00000080: a140 123e bc29 5d3e 3fc5 f7bc 4427 493e
00000090: b5ae f2bc 7d6e 903d bb3f 06bf c584 00bf
000000a0: 252e a5be cc24 02bf aa18 6ebe 670a 8fbe
000000b0: 1ec7 2d3d 066d 0d3f 0fa3 3b3e e1df 88be
000000c0: cf19 3ebe 6408 323c ba6f 2ebf 689a febd
000000d0: 6dc8 acbe b6f7 463e 5e13 79be 7ba2 5b3c
000000e0: b220 e3bd 61d0 8dbe 136d 683d 41d7 443e
000000f0: 5056 343e 1600 cf3d 9ab7 5cbc 9d2d b73e
00000100: 27ad 8a3d 3655 9a3d 9842 163e 905e 61be
00000110: f9a6 30bc 80e0 463e 3cd2 823d e0b2 543d
00000120: fbdb 3d3e e005 c63d 9f8f 493e 9f8e ba3e
00000130: 6c29 ca3d 88f0 8f3e 19f5 e53d 6052 4abd
00000140: 0bde 0e3e dcfa 453e 9460 be3e 1347 423e
00000150: b4a3 9e3d 3917 08be 0094 d1be 03e6 703e
00000160: ddbc 3d3d eaba 9cbe 5a2a 823e 6dd3 91bc
00000170: 65dc 02be efff 683e 790a bdbd 8e1b 8b3e
00000180: 0e14 333f 04d9 9dbe 7b9f 413d c7d1 f03d
00000190: d1b1 bc3c ce55 8dbf bbce 66bf 216f 0dbf
000001a0: 52ed 1fbf eed9 43be 427c 583e 0f4a 873d
000001b0: 1f00 4ebc 9f87 0f3e 7e7c b43d dac0 493d
000001c0: e18f 0e3e efd3 b43d 73fc 303e 079a 09bf
000001d0: 1084 36be 1c3e a4bf 480c 723e c68c f73d
000001e0: c4fc d13d 6a67 3e3e 964c f03d 5245 663e
000001f0: 602a 0fbf f252 73be fef2 483d 0719 a63d
00000200: 37c0 083d c970 3f3d c146 973d f43b cd3c
00000210: 4e91 813e 89a8 3d3e c81a f23d 1fea 543e
00000220: 732c aabd ad8c 3f3e bb64 0d3f f2d0 c13e
00000230: dc9f cdbd bcf2 62bb 884d df3d feee 73be
00000240: 788f cabb 706a ea3e c9a8 50bf 833e eb3e
00000250: faef 96bd 7adb e3bd 2ba8 2b3d b52f 9d3e
00000260: 3134 9b3e 123b ef3d e1fb 8f3e 0d97 9f3d
00000270: bc2c a6be 875f 043e 03be 023e 097d 76be
00000280: ac9f 173d 335c e2bd 7a3e 98be 0b9c 09be
00000290: cf9c 1bbf 538c 833d 1b6f 003e 84ca 953d
000002a0: f26b cb3d d972 193c 30d7 2d3e 70c2 283c
000002b0: 8300 60bd e7a7 c13d f55a cd3d e264 0b3d
000002c0: d876 ecbe 5f9b 843c fb89 8f3d 710d 733f
000002d0: d898 bebd 7ca2 68bd 37d0 a53d 065d 823d
000002e0: 9066 5e3f 61b4 1bbe 4df1 d73d a3bf bd3e
000002f0: 28b7 36bf 1e3c 8cbf 7437 f63c 0c6c e63b
00000300: 5756 c33d 0621 c9be 89b5 3e3c 8200 7a3e
00000310: 3168 f43e fb21 1bbf 4483 a0be 6fb0 b1be
00000320: c5c1 0ebe 85a8 75bf a79b 203e 5d57 2f3d
00000330: 3eb6 153e 84e2 d83b 61b8 6a3e 3bdd 19be
00000340: 68dc 523e 1453 cabd 5b73 ae3d 79d1 aa3d
00000350: 4baf 3f3d 8d2a 2cbf 3320 25be 60a3 f2bd
00000360: 84f3 1cbe b351 51bd 6ce5 fe3e 3633 e93d
00000370: d003 60be 8c9a 9d3d eecb 11bd 3360 823e
00000380: 0071 3dbf 9320 71bc a5aa 443d 9bb8 89bd
00000390: 9872 a5be b5a0 4cb9 3e04 13bf a029 053e
000003a0: a79d 873c 04ca dbbb 3ca2 7a3e 176d 71bd
000003b0: 893b 3a3e 8afd efbc ff25 94bd aef4 bd3d
000003c0: b8c9 0f3e 9a19 2ebe cfca 293e 2637 0abe
000003d0: 3334 863c 85b6 013e a937 cebd fd29 20be
000003e0: 3b10 a23e f52d 0f3f 8f28 3f3e 617e 6e3e
000003f0: 249d 00bf ab9a c5bd a313 5abe e6c0 2f3a

q_network.2.bias f4 [256]
0.21597193 -0.2193029 -0.12011285 0.00892345 -0.30365896 -0.2239742 -0.03129837 0.45280465
-0.044853654 0.08530441 0.0017827717 -0.26178813 0.2917792 0.041381113 -0.14570676 -0.05822908
-0.012599903 0.001977 -0.25820962 -0.08920543 0.017487144 -0.031101406 -0.083585456 -0.087995015
0.47440937 -0.08901939 -0.08184667 -0.0053478177 -0.059593726 -0.0024361939 -0.037929803 0.05626951
0.5590942 -0.15512387 -0.01519798 -0.07148041 -0.03349371 -0.03911215 -0.0009812725 0.17673354
-0.15878238 -0.022469163 -0.18523383 0.042133808 0.46467552 -0.0031670434 -0.00014389162 -0.1437489
-0.06762536 0.44843015 0.006306041 -0.011661883 -0.08686053 0.5534441 -0.029868277 0.046302788
-0.040456563 0.25719842 -0.07420339 0.023463229 -0.09887805 0.008007489 0.56132513 0.5606418
0.11475782 0.091628596 0.5880946 0.021903712 0.040155683 -0.05131046 -0.28857145 -0.107607365
-0.07780188 -0.07820364 -0.03768827 -0.09772513 0.012735101 0.027291538 -0.0713144 0.55600077
-0.011777044 -0.0113963485 -0.015978482 -0.11405014 0.105200045 0.03939516 -0.055935137 -0.16326311
0.35614038 -0.06292218 0.02667672 0.09396008 0.22989297 -0.015338452 0.45202217 -0.09797001
-0.062493697 -0.06567428 -0.07545165 0.019908939 -0.025554856 -0.025923619 -0.006233639 0.4167243
-0.052870885 -0.08379865 -0.28416166 0.020418461 0.009076634 0.52981 -0.18469542 0.2963698
-0.16126949 -0.041968595 -0.08292505 0.09588865 0.17388037 -0.1798281 -0.025140148 0.4708575
-0.055491928 0.5109888 -0.031346012 -0.040690474 0.022975937 -0.059445627 -0.099531256 -0.1323767
-0.3667214 -0.100470185 -0.03552538 0.013088221 0.07101391 -0.10290996 -0.008645466 -0.022190833
-0.14876619 0.0066636982 0.10325217 0.05038491 -0.21976501 -0.07150257 0.109250516 0.51318157
-0.061570432 0.0020459634 0.50499874 0.0032605256 0.45713428 -0.061484683 0.4976216 0.0032138317
0.25290784 -0.04648079 -0.033165824 0.22396576 -0.043824557 0.5041789 -0.036652036 -0.04426043
0.48883906 0.48109 0.549866 -0.07085325 -0.031497255 0.031039108 0.15790413 -0.09730893
-0.019001791 0.0005476212 0.024908118 0.6524019 0.47762537 0.014682825 -0.13482273 -0.055002954
0.039201844 -0.054277755 0.024252633 -0.013008139 -0.18107133 -0.048609987 -0.39688894 -0.025213165
0.35403785 -0.07470526 -0.29015037 -0.012133834 -0.1468797 0.041309904 -0.027794253 -0.2204719
0.11166786 0.54873925 0.49617028 -0.008734594 0.15740679 -0.077224724 0.16794173 0.5929229
0.087296024 -0.04219944 0.02356834 0.02595838 0.58728683 0.45488155 -0.047774542 -0.013021552
-0.010738363 -0.041551653 0.46441913 0.25918362 -0.03384102 0.05237627 -0.07668405 0.07765099
-0.06238121 -0.12841733 -0.16746524 0.14452896 -0.082585365 0.21906586 -0.029827321 0.27856797
0.12439269 0.03037847 0.08461001 0.109292954 -0.004961936 0.3282336 0.022216417 -0.060765937
-0.30968276 0.47983146 -0.018171573 0.47227058 0.029354945 0.17387496 0.3876748 -0.04067091
-0.0455528 -0.12961142 0.151809 -0.2158264 -0.042072926 -0.08186868 -0.24519306 0.0061406065
-0.08442828 0.008857177 -0.045823667 -0.0730135 -0.026796294 0.11950341 0.355593 -0.06327211
00000000: bf27 5d3e f090 60be bafd f5bd a933 123c
00000010: 3079 9bbe 7e59 65be b832 00bd 03d6 e73e
00000020: 77b8 37bd 14b4 ae3d e4ab e93a 1809 86be
00000030: 1564 953e 3e7f 293d 2734 15be 9e81 6ebd
00000040: d36f 4ebc 8e90 013b 0d34 84be 56b1 b6bd
00000050: 3341 8f3c 60c8 febc da2e abbd bb36 b4bd
00000060: c9e5 f23e cc4f b6bd 3a9f a7bd bf3c afbb
00000070: 8d18 74bd 8da8 1fbb 485c 1bbd dc7a 663d
00000080: cc20 0f3f cbd8 1ebe f300 79bc 5264 92bd
00000090: b330 09bd 1034 20bd 0b9e 80ba a3f9 343e
000000a0: d997 22be 4011 b8bc f0ad 3dbe 8094 2c3d
000000b0: f3e9 ed3e 2c8e 4fbb 9de1 16b9 e932 13be
000000c0: 2a7f 8abd a398 e53e e8a2 ce3b 7c11 3fbc
000000d0: efe3 b1bd 83ae 0d3f 51ae f4bc fea7 3d3d
000000e0: c8b5 25bd 83af 833e f2f7 97bd f535 c03c
000000f0: 9380 cabd d831 033c 01b3 0f3f 3986 0f3f
00000100: 2606 eb3d c6a7 bb3d 5e8d 163f 6a6f b33c
00000110: 497a 243d eb2a 52bd a3bf 93be 4061 dcbd
00000120: 9856 9fbd 3b29 a0bd 045f 1abd 1d24 c8bd
00000130: e3a6 503c 8192 df3c 490d 92bd 1156 0e3f
00000140: 81f4 40bc c0b7 3abc 4ee5 82bc 1f93 e9bd
00000150: 1f73 d73d d25c 213d 3e1c 65bd 722e 27be
00000160: 0858 b63e 58dd 80bd 2389 da3c 246e c03d
00000170: 1069 6b3e 214e 7bbc 736f e73e 80a4 c8bd
00000180: 64f9 7fbd 3d80 86bd 6586 9abd 1218 a33c
00000190: 6b58 d1bc c55d d4bc 8e43 ccbb e35c d53e
000001a0: 248f 58bd a09e abbd a37d 91be 9e44 a73c
000001b0: 2ab6 143c a1a1 073f cc20 3dbe c8bd 973e
000001c0: d423 25be 43e7 2bbd 9cd4 a9bd 4561 c43d
000001d0: b20d 323e dc24 38be b6f2 cdbc 3c14 f13e
000001e0: 814b 63bd 29d0 023f ad64 00bd 0eab 26bd
000001f0: 0838 bc3c 427d 73bd 0bd7 cbbd c28d 07be
00000200: e8c2 bbbe 50c3 cdbd 1083 11bd fa6f 563c
00000210: be6f 913d 75c2 d2bd b6a5 0dbc 8dc9 b5bc
00000220: 2a56 18be 275b da3b e075 d33d 6860 4e3d
00000230: 140a 61be f06f 92bd bcbe df3d de5f 033f
00000240: 4731 7cbd 9215 063b 9947 013f 8bae 553b
00000250: 810d ea3e 5dd7 7bbd 42c8 fe3e 269f 523b
00000260: 237d 813e a462 3ebd e3d8 07bd 4857 653e
00000270: 6181 33bd de11 013f 7220 16bd 6d4a 35bd
00000280: 1d49 fa3e 6e51 f63e 05c4 0c3f 821b 91bd
00000290: 4403 01bd ba45 fe3c 9fb1 213e e749 c7bd
000002a0: a5a9 9bbc 3d8e 0f3a 1c0c cc3c d003 273f
000002b0: 508b f43e 3b90 703c f80e 0abe c74a 61bd
000002c0: 1d92 203d 5a52 5ebd 75ad c63c 1720 55bc
000002d0: c36a 39be 441b 47bd 0735 cbbe d78b cebc
000002e0: 7344 b53e 12ff 98bd 978e 94be fdcc 46bc
000002f0: a267 16be 9334 293d c6b0 e3bc 63c3 61be
00000300: 1eb2 e43d 2d7a 0c3f 080a fe3e 8b1b 0fbc
00000310: 3f2f 213e ff27 9ebd ebf8 2b3e ccc9 173f
00000320: 42c8 b23d 52d9 2cbd 6412 c13c aba6 d43c
00000330: 6e58 163f 3ce6 e83e 3daf 43bd 5958 55bc
00000340: f5ef 2fbc 1132 2abd 58c8 ed3e b7b3 843e
00000350: e29c 0abd 8088 563d 870c 9dbd 7b07 9f3d
00000360: 7183 7fbd d57f 03be 027c 2bbe 66ff 133e
00000370: 8422 a9bd cd52 603e 6d58 f4bc 76a0 8e3e
00000380: 98c1 fe3d 45dc f83c 0348 ad3d fcd4 df3d
00000390: bc97 a2bb 3c0e a83e 34ff b53c b4e5 78bd
000003a0: bd8e 9ebe 78ac f53e 8ddc 94bc 73cd f13e
000003b0: c879 f03c 470c 323e 507d c63e 8a96 26bd
000003c0: 9395 3abd dbb8 04be d273 1b3e 9901 5dbe
000003d0: a954 2cbd c4aa a7bd e413 7bbe 2437 c93b
000003e0: bce8 acbd b11d 113c 99b1 3bbd 1a88 95bd
000003f0: e783 dbbc 34be f43d 4910 b63e cf94 81bd

q_network.4.weight f4 [13, 256]
0.21817864 -0.14468531 -0.2373464 -0.006017633 0.33008155 -0.010043703 -0.01407858 0.19286732
-0.02011323 -0.1484394 0.014370454 -0.53616434 0.17681058 0.47894064 0.5345971 -0.050067242
0.5840434 0.14420652 -0.6791917 0.05621831 -0.05414464 0.026443316 0.6718406 0.2961537
0.23269038 0.01241927 0.40749702 0.046433266 0.03751417 -0.0371478 -0.033157676 0.3283817
0.17532808 -0.07300078 -0.025157956 0.01235193 0.8728346 -0.15104733 -0.003322097 0.24064636
0.24290763 0.04968936 0.0444821 0.18059285 0.2719056 0.37100247 -0.0008357163 0.669115
-0.0025752278 0.30114654 0.24095012 0.015153239 -0.0027612224 0.21610425 -0.021563277 0.2493306
0.01444491 -0.021104159 0.009147389 0.54396296 -0.60373425 0.05850325 0.23047031 0.25665024
0.17648464 0.14106199 0.30875698 0.0497998 -0.84305155 -1.2264688 0.69372433 0.016184883
-0.06401493 -0.024354074 0.016046071 -0.015460446 0.3113643 0.04771225 -0.05681419 0.18011463
-0.01845593 0.7518348 0.0412067 -0.0016009498 0.48454878 0.0015714504 -0.05037492 0.692863
0.12429867 0.020762395 -0.051057734 0.36571562 0.17786743 0.050261915 0.16874464 0.05504007
0.03214505 -0.3196351 0.04771121 -0.023028605 0.057312675 -0.3320254 0.05664111 0.26734114
-0.015355344 -0.3544061 -0.039040033 0.23760986 0.05662391 0.31553158 -0.42129558 0.13647473
-0.6788891 0.028863598 0.07885017 0.5763372 0.29250586 -0.026640512 0.02202198 0.26079443
-0.2664601 0.16570227 -0.030566476 -0.0074906875 0.43910262 0.12165911 0.054758284 0.27734765
-0.77054065 0.026574243 0.053086136 0.1851986 -1.132812 -0.23776415 -0.027030786 0.42286316
0.2779033 0.013397131 0.4969977 0.053285766 -0.26347294 -0.02054321 0.38771862 0.18775675
0.03393674 0.020306686 0.25304082 0.14350435 0.1884647 -0.024965877 0.36536428 -0.22701772
0.00083092396 0.4676549 0.2584983 -0.4456999 0.8495499 0.19864623 0.0063778567 -0.04689015
0.2696506 0.32401723 0.31476715 -0.09457402 0.22930875 0.016535698 0.13969702 0.6050803
0.023718966 -0.010214654 0.02855662 0.24019 0.20142287 0.012278082 -0.6536627 -0.023462936
-0.05054695 -0.011211907 -0.5566501 0.021029782 0.2421303 0.04927011 -1.1800727 -0.15754895
0.19920398 0.22954085 -0.97632545 0.04948135 -0.30750814 0.5563733 0.014785539 0.64948237
0.14704826 0.28584746 0.36167315 0.071755916 0.35030833 -0.009947701 0.2807355 0.16571411
-0.43441597 -0.0077317865 1.0650588 0.114721544 0.2504959 0.19282925 -0.04428708 -0.059734613
-0.0836195 0.045733303 0.26480585 0.31593007 -0.054425348 -0.029392384 -0.056836832 0.9175535
0.12338291 0.059557583 0.5437893 -0.15771627 -0.028922439 0.07335081 0.022208234 0.4510738
-0.2683505 -0.031515133 0.932548 0.119184144 -0.66205555 0.18802965 0.00097584905 0.4766052
-0.6242457 0.21729816 0.5525961 0.1843874 -0.18159083 0.17689237 0.28341255 -0.022829846
-0.3266978 -0.60360533 0.39705983 0.1033805 0.012492117 -0.41188884 -0.891283 0.012309854
-0.05047429 0.02341528 0.03783903 0.022201203 0.054680202 0.5847575 0.28481227 0.013125655
00000000: 396a 5f3e 6328 14be ef0a 73be 902f c5bb
00000010: 7300 a93e 588e 24bc d8a9 66bc 037f 453e
00000020: 80c4 a4bc 8000 18be 0d72 6b3c 1142 09bf
00000030: d50d 353e b537 f53e 5bdb 083f 4f13 4dbd
00000040: de83 153f e0aa 133e 82df 2dbf 2c45 663d
00000050: c5c6 5dbd a79f d83c bffd 2b3f 75a1 973e
00000060: 6346 6e3e 327a 4b3c 73a3 d03e cf30 3e3d
00000070: 75a8 193d 4b28 18bd 58d0 07bd a521 a83e
00000080: 3489 333e 6f81 95bd 0f18 cebc c05f 4a3c
00000090: 1772 5f3f 27ac 1abe 8ab7 59bb 006c 763e
000000a0: c7bc 783e 1287 4b3d dd32 363d 55ed 383e
000000b0: 3637 8b3e 09f4 bd3e f913 5bba 1f4b 2b3f
000000c0: 27c5 28bb e12f 9a3e a1bb 763e 4a45 783c
000000d0: a0f5 34bb 6f4a 5d3e 78a5 b0bc 8550 7f3e
000000e0: 58aa 6c3c a1e2 acbc eede 153c 2841 0b3f
000000f0: 548e 1abf 1ba1 6f3d 6900 6c3e a967 833e
00000100: 64b8 343e 8e72 103e 6515 9e3e e0fa 4b3d
00000110: 3ad2 57bf eefc 9cbf eb97 313f 2996 843c
00000120: 421a 83bd 3282 c7bc 0d73 833c cf4d 7dbc
00000130: 246b 9f3e ec6d 433d ffb5 68bd f86f 383e
00000140: e430 97bc 3f78 403f 5bc8 283d f6d6 d1ba
00000150: c716 f83e 20f9 cd3a ef55 4ebd 785f 313f
00000160: 4d90 fe3d e615 aa3c ea21 51bd 143f bb3e
00000170: e122 363e 70df 4d3d 65cb 2c3e b271 613d
00000180: 87aa 033d 36a7 a3be d46c 433d 7ca6 bcbc
00000190: b2c0 6a3d 3cff a9be 8200 683d f0e0 883e
000001a0: fb94 7bbc b774 b5be 71e8 1fbd 0050 733e
000001b0: 79ee 673d 5b8d a13e 0eb4 d7be 08c0 0b3e
000001c0: adcb 2dbf 5a73 ec3c 337c a13d d68a 133f
000001d0: 54c3 953e 343d dabc 7067 b43c d986 853e
000001e0: 756d 88be dbad 293e 8c66 fabc 7174 f5bb
000001f0: 0fd2 e03e 6928 f93d 394a 603d 8300 8e3e
00000200: 2742 45bf 3ab2 d93c d970 593d b4a4 3d3e
00000210: fcff 90bf 7278 73be ab6f ddbc 8581 d83e
00000220: 5749 8e3e a47f 5b3c 7c76 fe3e 2d42 5a3d
00000230: ede5 86be 3c4a a8bc 0e83 c63e 4e43 403e
00000240: 4001 0b3d 355a a63c 918e 813e cef2 123e
00000250: e4fc 403e 3d85 ccbc 0711 bb3e 5577 68be
00000260: 5dd2 593a 7770 ef3e e459 843e c732 e4be
00000270: 1a7c 593f eb69 4b3e 57fd d03b e30f 40bd
00000280: a50f 8a3e 96e5 a53e 2929 a13e 06b0 c1bd
00000290: eacf 6a3e df75 873c bc0c 0f3e 8be6 1a3f
000002a0: 474e c23c 5d5b 27bc 93ef e93c 5ef4 753e
000002b0: cc41 4e3e 022a 493c 7056 27bf 5835 c0bc
000002c0: 520a 4fbd 25b2 37bc 9f80 0ebf a646 ac3c
000002d0: 01f1 773e 74cf 493d 9f0c 97bf 8354 21be
000002e0: 21fc 4b3e c20c 6b3e 77f0 79bf f5ac 4a3d
000002f0: b571 9dbe 7b6e 0e3f 0c3f 723c 7a44 263f
00000300: d293 163e 995a 923e 392d b93e c4f4 923d
00000310: 9d5b b33e affb 22bc 90bc 8f3e f6b0 293e
00000320: c56b debe ed5a fdbb d953 883f 21f3 ea3d
00000330: 0041 803e 0875 453e 5f66 35bd 48ac 74bd
00000340: b340 abbd d852 3b3d a294 873e 96c1 a13e
00000350: 1ded 5ebd 4cc8 f0bc bdcd 68bd c9e4 6a3f
00000360: 2eb0 fc3d a7f2 733d c735 0b3f 6080 21be
00000370: c0ee ecbc f338 963d 0bee b53c 25f3 e63e
00000380: 3d65 89be 0316 01bd 77bb 6e3f d116 f43d
00000390: 797c 29bf d88a 403e 1fd0 7f3a 9905 f43e
000003a0: 91ce 1fbf 6983 5e3e f076 0d3f 0dd0 3c3e
000003b0: f2f2 39be 4623 353e 731b 913e a805 bbbc
000003c0: ef44 a7be e185 1abf 6d4b cb3e 28b9 d33d
000003d0: bcab 4c3c 18e3 d2be 1f2b 64bf 45af 493c
000003e0: 21be 4ebd 67d1 bf3c 19fd 1a3d 4cdf b53c
000003f0: 59f8 5f3d abb2 153f ead2 913e fd0c 573c

q_network.4.bias f4 [13]
0.15581782 0.39771062 0.22252654 0.4484429 0.4302703 0.31351 0.5105412 0.117197394
0.31885436 0.14816548 0.34865943 0.43548056 0.22993976
00000000: b58e 1f3e baa0 cb3e ffdd 633e 4f9a e53e
00000010: 644c dc3e 6284 a03e d4b2 023f 3005 f03d
00000020: e140 a33e b1b8 173e 7d83 b23e 4ff7 de3e
00000030: 5475 6b3e
