RL code/rlcodes/q-learning/dqn_walker_models/best_model.pth (torch, 561911 bytes, 8 tensors)

q_netwrok.0.weight f4 [256, 17]
000000 c2 0b 7b 3e c3 35 21 bf cd 1b aa bd ce 27 82 bd
       0.24516204 -0.6297266 -0.08306084 -0.063552484
000010 85 45 8a be 8b bc 22 bf 6e b8 e5 3e 29 f0 bd bd
       -0.27006164 -0.63568944 0.4486727 -0.092743225
000020 b5 bb aa be 96 d5 a7 be ef 09 5d 3e c8 03 c9 bd
       -0.33346334 -0.3278014 0.2158582 -0.09815174
000030 65 67 25 3e 30 1f 9d 3c 63 bd 22 3c a9 58 f3 3c
       0.16152723 0.01917991 0.009932849 0.029705362
000040 6f 66 4b 3c 20 ba 55 3f bd ce 26 3e fd 27 18 3e
       0.012414559 0.8348713 0.16289802 0.14859004
000050 1d fa 23 bd 30 91 74 3f e4 28 db 3e 99 ba 07 3e
       -0.04003345 0.9553404 0.42804635 0.13254775
000060 f9 02 f9 3e 0d 16 d6 be a7 33 81 3e bb d9 b2 3e
       0.4863508 -0.41813698 0.2523472 0.3493174
000070 22 23 a7 be 79 d8 fd bd 16 0f eb 3c 92 50 01 3e
       -0.32643992 -0.123948045 0.028693717 0.12628391
000080 4b 46 e7 3c 5d 6f 82 3c 69 9b 09 bf a1 04 39 3f
       0.02823176 0.015922243 -0.5375276 0.7227269
000090 c2 20 86 be db ac ca be de 16 08 bf 9f a4 46 be
       -0.26196867 -0.39585003 -0.5315989 -0.19398735
0000a0 59 4c fd be b6 16 08 be 75 e2 69 3e 5e e7 d9 be
       -0.4947231 -0.13289914 0.22840293 -0.42559332
0000b0 0a e8 9b 3d a0 7c f2 3a 91 8f ad bd 49 81 47 bc
       0.07612617 0.0018500276 -0.08474649 -0.01217682
0000c0 b5 f6 79 bd 1e ea b5 bd 81 50 49 3c 00 90 64 bf
       -0.061026294 -0.08882545 0.01228726 -0.89282227
0000d0 16 b6 00 bf 1a 51 56 be f4 a9 8a be ce b0 52 bd
       -0.5027784 -0.20929375 -0.2708279 -0.051438145
0000e0 a2 05 78 be b1 61 4b be f8 d8 86 3e 52 ae 00 bf
       -0.24220899 -0.19861485 0.2633741 -0.5026599
0000f0 ba 32 65 bd a8 8a 80 3d 8d 05 58 3d 74 d9 b8 bd
       -0.05595658 0.062764466 0.05273967 -0.09025851
000100 a4 df a4 bd ca 69 b6 3d 08 94 f6 3d f3 e3 f2 bc
       -0.080504686 0.089068964 0.120399535 -0.02964971
000110 6c f4 06 3f a6 46 90 3f 5d 7e 62 be 43 eb fa bd
       0.5271671 1.127156 -0.22118516 -0.12251904
000120 dc d0 d2 bd 75 7b f3 3c 56 bf 9a 3c 30 34 ca 3c
       -0.10293743 0.029721955 0.018890064 0.024683088
000130 2a 64 85 bd 5b 95 71 be ba fd 0f be 44 9f 17 3e
       -0.065132454 -0.23592131 -0.14061633 0.14806849
000140 ee 91 c0 3d 87 37 aa bc 8f e1 80 bd b1 f3 09 bc
       0.09402834 -0.02077843 -0.06293022 -0.008419917
000150 20 db c0 3c d9 8a e5 3e 30 79 0b 3f 8f 87 0d 3e
       0.023541987 0.44832495 0.5448179 0.13821243
000160 ed 51 b8 bd df 65 34 3e c1 cd c0 3d 2a 76 68 be
       -0.09000001 0.17616986 0.094142444 -0.22701326
000170 9f 5f 8f bc 6a 8c be 3d 61 50 3f bd 0d 25 47 be
       -0.01750165 0.093041256 -0.046707515 -0.19447728
000180 2f 1c 11 3e ea ea b5 3d 30 a4 0b bd 12 ba 86 3d
       0.14170907 0.08882697 -0.03409213 0.06578459
000190 d9 fa 54 3b f1 05 f5 3b 20 19 e4 bd 0a 40 2c bf
       0.003249815 0.007477515 -0.11137605 -0.67285216
0001a0 9c 3a f3 3f ff 79 98 3d 0c 1e 9f 3d 1a aa 04 bf
       1.9002261 0.07445144 0.07769403 -0.51822054
0001b0 b2 4a 36 3e 7b 56 31 bf 8e 91 35 bd 87 c0 92 be
       0.17801932 -0.69272584 -0.044328265 -0.28662512
0001c0 9c ae 31 be b6 af 71 3e 74 c2 94 3d 28 1c 08 3d
       -0.17351764 0.23602185 0.072636515 0.033229977
0001d0 35 bc 79 3d 33 a1 8a 3d 4c 37 ad bc 25 83 a4 3e
       0.060970504 0.067690276 -0.021144532 0.32131305
0001e0 a6 75 41 3f 41 f7 13 3b 30 62 95 3e 8e b3 1a be
       0.7557014 0.0022577795 0.29176474 -0.15107557
0001f0 f1 b2 3a 3d a9 65 0a be 51 f7 f4 3d 88 48 1d be
       0.045580808 -0.13515343 0.11961234 -0.153597
000200 1e 25 bd bc e9 4d 88 3e 04 62 17 be 63 97 b1 bd
       -0.023088988 0.2662194 -0.14783484 -0.08671453
000210 a2 a8 28 bd 03 24 00 be b3 26 8b bd ff e0 11 3d
       -0.041176446 -0.12513737 -0.06794491 0.035614964
000220 e4 c3 ce bd 25 dd 90 bf bd 46 fd be 4f f9 1f 3f
       -0.10095957 -1.1317488 -0.49468032 0.6248979
000230 a6 ae 97 be ad 4a 4d bc 03 57 0a bf 4f d6 5c be
       -0.29625434 -0.012530011 -0.5403902 -0.21566127
000240 6b 32 e2 be 0a 67 cf 3d be 46 0c bd 15 a5 3e 3d
       -0.4417909 0.10127075 -0.034247153 0.046544153
000250 37 5f a8 3d f1 99 dd bb c8 86 61 3c 4e 90 29 3c
       0.08221286 -0.006762736 0.0137650445 0.010349346
000260 83 6c 17 bc 3a f5 e3 3d 88 57 b2 bd f8 02 93 3f
       -0.00924218 0.11130758 -0.087081015 1.1485281
000270 13 50 0e 3f 08 97 fc 3e d8 46 62 bf 1d 31 52 be
       0.55590934 0.49333978 -0.8838935 -0.20526548
000280 0f 2e 98 be 4d 4a 60 be 55 fb a4 bd 94 95 02 3d
       -0.2972264 -0.21903343 -0.0805575 0.03188093
000290 2b a5 2a 3d 7b ce 5d 3c b5 11 94 3c a4 b0 cc bc
       0.041661423 0.013537998 0.01807485 -0.024986573
0002a0 68 17 84 3b 74 54 61 ba e4 0f b8 3d 22 a0 bb bf
       0.0040311106 -0.00085956533 0.08987406 -1.4658244
0002b0 10 ca 9f be 16 f1 80 3e e4 c8 88 3b dd b0 55 be
       -0.3120885 0.25183934 0.0041743387 -0.20868249
0002c0 30 b0 3d be c4 7f 3e 3e b7 3f cd bd b9 bd b3 3e
       -0.18524241 0.18603426 -0.10021918 0.35105684
0002d0 af c7 6f be f5 35 bf bc 7a 50 dc 3c 77 b3 27 bd
       -0.23416017 -0.023341158 0.026893843 -0.040942635
0002e0 76 26 d6 3d 0e eb db 3c 0d cc f2 3c 00 64 ad 3e
       0.104565546 0.026845481 0.029638315 0.33865356
0002f0 3d 30 c4 3e c8 3e 36 3f 8d a8 3a bf 44 09 6e 3d
       0.38318053 0.71189547 -0.7291344 0.058114305
000300 e7 13 a6 be 84 a4 ae 3e 4e 7b 02 3e f1 05 ae bf
       -0.3243706 0.3410989 0.1274235 -1.3595563
000310 ed 09 a2 3e a0 f2 6e 3e 39 9b 1e be 53 c3 1a be
       0.31648198 0.23334742 -0.154889 -0.15113573
000320 f9 7c 4a bd 55 28 a0 3d 3a 68 e4 3d 20 c3 98 bc
       -0.04943559 0.07820193 0.11152692 -0.01864773
000330 39 b1 ac 3e 76 c6 33 3f dd 64 5d be 0f 63 c9 bd
       0.3372896 0.702247 -0.21620508 -0.09833347
000340 eb 6d 02 3d 15 40 f6 3d bf 60 e0 3d c4 41 98 3d
       0.031843107 0.120239414 0.10955953 0.07434419
000350 a7 7c 3f 3e 76 3b 21 3e b6 ff b4 bd 3d 95 31 3e
       0.18699895 0.15745339 -0.088378355 0.17342086
000360 97 03 c2 3d 39 4e 39 3d 12 d2 0e be e7 12 b3 bd
       0.09473341 0.045240615 -0.13947323 -0.0874384
000370 a8 2c 00 3d fe 24 dd 3e d3 c5 4b 3f 85 0c 4d bf
       0.031292588 0.43192285 0.7959873 -0.8009723
000380 db 55 34 be 12 f5 6d bf fc e9 d5 bd b7 99 f9 bd
       -0.17610876 -0.9295207 -0.104450196 -0.12187522
000390 6d 43 91 bc 40 4f 68 3e 01 b0 18 be 15 c3 1c 3d
       -0.017732346 0.22686481 -0.1491089 0.038271982
0003a0 cd ed 93 bc e1 17 da bc 93 79 78 bd 4a d4 d2 bc
       -0.018057728 -0.026622714 -0.060662817 -0.025735993
0003b0 88 2c c1 bc 09 ba b3 bc e9 22 7c be 56 1a 03 3f
       -0.023580804 -0.021939294 -0.24622692 0.5121206
0003c0 fd 0c 3c bf 42 5e b4 be 7a 09 70 3e b1 3e de 3e
       -0.7345732 -0.35228163 0.23441115 0.43407205
0003d0 ed 56 15 bd 41 0d 10 bf a4 96 95 3e 6d d2 1c bf
       -0.036459852 -0.56270224 0.29216492 -0.61258584
0003e0 0d 0b 69 bd 3f f5 83 3e 3c ae 9c 3d ab 7b 9b bd
       -0.056895304 0.25773045 0.0765042 -0.07591947
0003f0 92 51 01 be 79 8e 0f bd d6 dc 18 bd aa 2d 8f be
       -0.12628773 -0.035047982 -0.03731998 -0.27964526

q_netwrok.0.bias f4 [256]
000000 9d 36 67 be 68 12 6a bd 5a ec 3d bf cf 4e 03 bf
       -0.22579427 -0.05714646 -0.7418877 -0.5129213
000010 73 6e 73 3f a7 bd 8a 3f 75 57 8b 3e c2 1a 3e 3f
       0.9509041 1.0839127 0.27215162 0.7425958
000020 a2 cb 9c be d8 50 2f 3f b1 8f 25 bf 87 4b 72 be
       -0.3062411 0.6848273 -0.6467238 -0.23661624
000030 8b 25 6b 3f 9e 08 f4 be 32 b2 22 bf c1 36 3f 3e
       0.9185416 -0.47662824 -0.63553154 0.1867323
000040 af 1d 65 3f 3a 2c 23 3d 1f 43 24 3f 4b a4 52 3e
       0.8949842 0.0398371 0.6416492 0.20570485
000050 58 f1 ff be 7f c9 68 3f 98 9a c1 be 41 7e 51 3f
       -0.49988818 0.9093246 -0.37813258 0.81833273
000060 a9 44 79 3f 52 b7 c8 be b2 94 fb 3e 3f 96 92 3d
       0.9737039 -0.39202362 0.49136883 0.071575634
000070 89 3e e8 3e 3e c0 02 bf a9 b0 5d 3e 55 7a d6 3e
       0.4536021 -0.5107459 0.21649422 0.41890207
000080 13 6c 12 bf 70 19 67 bf 25 53 cb bc 2e 3a 4c 3f
       -0.5719616 -0.9027319 -0.02481992 0.79776275
000090 b7 11 05 3e 06 48 e3 3d f4 ba 31 be 16 ca f8 3c
       0.12995039 0.11097722 -0.17356473 0.0303698
0000a0 98 02 0e bf 85 ee 8c be 44 ec 80 3f 06 70 26 3f
       -0.5547271 -0.27525726 1.0072103 0.65014684
0000b0 06 bf 14 be 1e 35 64 bf 3e 45 94 be 9b 42 b9 3e
       -0.14525995 -0.8914355 -0.28959078 0.36183628
0000c0 f8 f5 56 3f bc fe 67 bd 9d 31 3f bf 2f 6d 76 bf
       0.8396907 -0.056639418 -0.7468508 -0.9626035
0000d0 9d a5 02 bf d8 04 b2 be 4a 85 d6 3d 5f 7b 60 3f
       -0.51033956 -0.3476932 0.104746416 0.8768825
0000e0 d1 cc 2f be a1 2f 1b 3f 49 7d 0a 3e fc 19 ff 3e
       -0.17167975 0.6061955 0.13524355 0.49824512
0000f0 b6 d0 83 3f 16 a4 a6 be 9e 8a b3 be 21 16 5a 3f
       1.0298069 -0.32547063 -0.35066694 0.85190016
000100 2f d6 90 be 8b 5d 10 bf f3 53 9b 3e 84 01 91 3f
       -0.2828841 -0.56392735 0.30337486 1.1328588
000110 9c f4 86 bf 9b 7b 9d be 2b 28 00 be f9 17 20 3f
       -1.0543399 -0.30758366 -0.12515323 0.6253658
000120 ff cc 02 bf 6f 1c 25 be 1f ba 7a 3c ff 65 0c bf
       -0.5109405 -0.16124128 0.015303164 -0.54843134
000130 31 2a a9 3e 98 ee 0b bf 1b 54 20 bf e0 c1 94 be
       0.33040002 -0.5466094 -0.62628335 -0.29054165
000140 cc e3 5c bf 0d ba 0e 3f f4 17 c4 be b8 58 b4 3d
       -0.8628509 0.5575264 -0.38299525 0.08805984
000150 b3 93 eb 3d 5f 41 87 3f 1c f7 3b bf 1b da 14 bf
       0.11502781 1.0566825 -0.73423934 -0.581453
000160 9b 31 1b 3f bc 53 f1 be 68 7a e1 3d 31 58 e6 be
       0.60622567 -0.47134197 0.11009675 -0.4498916
000170 76 80 f3 be 11 e5 c7 3e 4b fe 61 bf 9d ce 58 bc
       -0.47558945 0.3904195 -0.88278645 -0.013232854
000180 8c da 50 bf a1 11 a0 be ca 12 83 3f cd 6a 8f 3e
       -0.81583476 -0.3126345 1.0240109 0.2801117
000190 8c ea 0f bf b0 9a 0e bf f3 20 27 3e eb ed 87 bd
       -0.56217265 -0.55704784 0.16321163 -0.06637176
0001a0 1e 49 3b 3f 2f a4 35 3f 63 40 82 3b c0 09 7d be
       0.7315844 0.7095365 0.0039749607 -0.2471075
0001b0 52 b6 e1 be c1 6a e4 3e 8d f1 b8 3d 71 7f 49 3e
       -0.44084412 0.44612697 0.09030447 0.19677521
0001c0 c4 7a 81 3e 0f da c1 bd 98 ca 9a 3e 6c 9c 93 bf
       0.25288975 -0.094654195 0.30232692 -1.1532111
0001d0 eb 44 24 bf 22 92 55 3f 7c 20 19 3f e2 06 52 be
       -0.6416766 0.83426106 0.5981519 -0.20510438
0001e0 8a 33 42 bf 39 b5 6b be 9e 72 a2 3e 05 3a 14 bf
       -0.7585989 -0.2301835 0.3172807 -0.5790103
0001f0 2f 0f f2 3e 66 ad 80 be da 77 da 3d 09 7c 20 bf
       0.4727721 -0.25132293 0.10667391 -0.6268926
000200 ea f3 25 bf b2 df 1d 3f 06 fe 3f 3f be 26 3e 3f
       -0.6482531 0.61669457 0.74996984 0.74277866
000210 63 4d ca 3e 9e 83 1a bf e9 04 b1 3d a2 11 67 bf
       0.39512166 -0.6035708 0.08643515 -0.9026128
000220 fd b9 fd 3d 65 87 52 3f 69 0d b4 3e 7e 8c d6 3e
       0.1238899 0.82237846 0.3516648 0.41904062
000230 7e fa 22 3f ec e9 15 3e cc 49 da be 2a 95 17 bf
       0.6366347 0.14640015 -0.42634428 -0.5921198
000240 a1 6d 40 bf 0e 00 cb 3e df b8 9a be 90 aa 16 3f
       -0.7516728 0.3964848 -0.3021917 0.5885401
000250 2b 85 59 be ea ec 28 3f 32 b0 58 3d 22 8e 89 3f
       -0.21242206 0.659865 0.052902408 1.07465
000260 58 1a 5e bf a5 35 70 be ce 75 20 bf 4d 83 33 3d
       -0.8675895 -0.23457964 -0.62679756 0.04382639
000270 df 3e 31 bf 12 38 d1 bc f5 67 47 bf 46 b0 be 3e
       -0.6923656 -0.025539432 -0.77893 0.3724386
000280 30 9f d9 3d 86 e7 be 3d bb 4d 4b 3f 39 b0 ae 3e
       0.10626066 0.09321503 0.7941548 0.34118822
000290 34 11 5a bf 61 8c 71 3f 2f e6 35 3e 8e 7a 8a be
       -0.851825 0.94354826 0.1776359 -0.27046627
0002a0 8e 9b 22 bf f1 61 8b 3f 60 c1 59 3e 7f 9d 8a 3e
       -0.6351861 1.0889264 0.21265173 0.27073285
0002b0 27 09 39 bf 77 09 ab be c1 f2 bf be e3 c1 28 bf
       -0.7227959 -0.3340566 -0.37489894 -0.6592085
0002c0 d1 2b 55 bf ce ac b0 be c2 2c 0c be f3 49 19 3d
       -0.83269984 -0.3450684 -0.13688949 0.03742404
0002d0 3d 08 84 3f 5d b9 7d be 97 06 ce bc a5 05 1d bf
       1.0315014 -0.24777742 -0.025149627 -0.6133674
0002e0 5f 2e 4a bf 9b 51 96 3e 9b f9 92 3f 39 98 0b be
       -0.78977007 0.29359135 1.1482424 -0.13632287
0002f0 e8 97 24 bf 43 e8 e1 3d bd d8 c1 3e 3c cb 53 be
       -0.6429429 0.110306285 0.3786067 -0.20682997
000300 7a 47 f3 3e 7e f2 ae bd 03 c5 4d 3f 2e c1 94 be
       0.4751547 -0.085423455 0.8037874 -0.29053634
000310 14 26 78 be 17 bf 49 3e 81 62 3e bf 03 87 37 bf
       -0.24233276 0.19701801 -0.74369055 -0.71690387
000320 33 3c 9f bd ab a0 c1 be 54 47 97 3e be 5b a9 be
       -0.07775154 -0.37817892 0.29546607 -0.33077806
000330 15 a9 5a bd 48 99 7d 3f 91 d7 57 3f 88 78 10 be
       -0.053383905 0.99062014 0.84313303 -0.14108479
000340 27 13 bf be 37 ab 36 bf aa b9 7c 3f 6d 17 0f bf
       -0.373193 -0.71355003 0.987208 -0.5589512
000350 ac c3 bc be 8d 6b 17 3f b9 4c 8c 3e 52 d4 47 bf
       -0.36868036 0.59148484 0.27402285 -0.7805835
000360 46 de ce be 0e c0 ed be 98 78 d9 be 90 c2 8d be
       -0.40403956 -0.4643559 -0.42474818 -0.27687502
000370 06 97 c3 bd da 91 93 3f 16 38 42 bf d0 1a 34 bf
       -0.0955029 1.1528885 -0.7586683 -0.7035341
000380 fd 77 bf be 9a a4 64 3d 8d cb 05 bf ae f5 14 be
       -0.3739623 0.05582104 -0.5226372 -0.14546844
000390 19 77 01 be c0 cb da 3e 4a b1 fc be 12 7d 21 bf
       -0.12643088 0.42733574 -0.4935401 -0.6308147
0003a0 88 06 22 bf b6 f8 84 bd f2 23 03 bf c4 1a 45 3d
       -0.63291216 -0.0649275 -0.51226723 0.04812123
0003b0 7f c5 87 be 70 3d 3f 3e 53 b6 25 bf ab 15 9a bd
       -0.26517865 0.1867578 -0.6473133 -0.07523664
0003c0 71 cb 4e 3f dd 45 1e 3f 4a b6 c6 be ce 4c 41 bf
       0.80779177 0.6182535 -0.3881095 -0.7550782
0003d0 cb 9e e6 be 76 5a 36 3e e3 8f 08 bd 12 87 d5 be
       -0.45043024 0.17807946 -0.033340346 -0.41704613
0003e0 83 25 e3 3e 78 be 48 3f 45 c4 54 bf 9a 6d 04 bf
       0.44364557 0.7841563 -0.83111984 -0.5172974
0003f0 28 d6 8a 3f 2b a0 19 bf 45 c0 a1 be 4b f4 82 3f
       1.0846605 -0.6001002 -0.31592003 1.0230802

q_netwrok.2.weight f4 [256, 256]
000000 93 c7 5c 3e 4a cb c9 bd 4c 00 16 3e 5b 6a 6f 3e
       0.21560507 -0.098532274 0.14648551 0.23380415
000010 4a f6 44 bf c8 3c ad be 3e a8 a6 3d d2 bf 09 be
       -0.7693831 -0.33835435 0.081375584 -0.1345208
000020 5c 94 d6 3e 8f 43 26 be 6f d4 da 3e f8 0e 48 3e
       0.41910064 -0.16236709 0.427402 0.1953696
000030 48 a7 be be e3 00 b6 3d 8e e1 8c 3d 07 42 c1 3d
       -0.37237 0.08886888 0.06878959 0.09436422
000040 9e 0f a0 bd 30 5c 4c bf ce b4 f5 be e8 5f d6 bd
       -0.07815479 -0.79828167 -0.47989506 -0.104675114
000050 5a f3 ec 3d df d9 22 bf d6 25 38 be 23 98 80 be
       0.11569853 -0.63613695 -0.17983183 -0.2511607
000060 92 37 8b bd d6 09 8b bd f3 bf 53 be 7e 07 3e be
       -0.067977086 -0.067889854 -0.20678692 -0.18557546
000070 54 9d ab be 9e 40 07 3f f0 b7 b2 bd 50 0b 57 be
       -0.3351847 0.52832973 -0.087264895 -0.21000409
000080 70 8e 77 3d 59 cc 73 3e 40 b7 c3 bd e7 06 58 3d
       0.060438573 0.23808421 -0.095564365 0.052740958
000090 ed 83 d4 bd 1a 70 e4 bd 18 a9 3b bf d2 b9 1c 3e
       -0.10376725 -0.11154194 -0.7330489 0.1530526
0000a0 53 01 b1 3d b8 9c 52 bd 0c bc 2e be 3b e4 5e be
       0.08642831 -0.05141899 -0.17063922 -0.2176675
0000b0 c0 f0 49 be 1d 4a 63 3e 67 7f 84 bd c8 e9 97 be
       -0.19720745 0.2219624 -0.064696126 -0.29670548
0000c0 b9 fc 9a be c2 7f 93 bd 2c c3 11 3e 0a 98 14 be
       -0.30270937 -0.07202102 0.14234608 -0.14511123
0000d0 73 6d 9e 3e 6d 1c e4 3e 4c 40 b7 3c 97 03 90 be
       0.30942878 0.44552937 0.022369526 -0.2812774
0000e0 05 23 e6 be 02 87 be be fe 32 79 3e 10 1c 59 be
       -0.44948593 -0.37212378 0.24335858 -0.21202111
0000f0 1d 29 09 be c1 15 81 3e a5 ee 38 3e 89 44 36 3d
       -0.1339459 0.2521191 0.18059786 0.044498954
000100 e6 c9 6c 3e 9e 88 57 3e 18 75 b9 3e 01 57 8b be
       0.23123893 0.21048209 0.36222148 -0.27214816
000110 02 d1 37 3e 6c a9 00 bf fc f9 44 be df 88 8d be
       0.17950824 -0.5025852 -0.19235986 -0.27643487
000120 10 e1 35 3e b8 b9 c4 3e 56 91 4c bd db 60 3b bf
       0.17761636 0.38422942 -0.04994329 -0.73194665
000130 d3 05 17 be 11 93 d1 bb dd 23 ea 3d 3f 9a 5b be
       -0.14748316 -0.0063957055 0.11432622 -0.21445559
000140 27 f1 f4 be bd 66 54 be 74 d0 4d bd 76 13 e3 bd
       -0.47840235 -0.20742317 -0.050247625 -0.11087696
000150 2c 27 0a bd 0b 91 87 3c e6 82 ce 3d d0 a9 dc 3c
       -0.033728763 0.016548654 0.10083561 0.026936442
000160 fc 4f 91 bd 4d 49 a6 3e 73 bf 63 bd 89 84 cc 3d
       -0.07095334 0.324778 -0.055602502 0.099862166
000170 1f 1a ea bb 54 68 ae be 25 ed 7d 3e 1a 88 7c bc
       -0.007144227 -0.3406397 0.24797495 -0.0154133085
000180 49 21 ba be 86 27 18 bf 4d 95 cc be 63 8d f8 bd
       -0.3635352 -0.5943531 -0.39957657 -0.121363424
000190 72 7c 30 bd c0 fc 33 3e ed 1d 77 be 41 46 83 bd
       -0.04308743 0.17576885 -0.2413251 -0.06409884
0001a0 6b 5e 37 bd 73 43 2f 3d f7 22 03 3e 05 bc 99 3e
       -0.04476778 0.042788934 0.12806307 0.3002626
0001b0 9c f7 cf be 0c 77 bd 3d 4d 60 6d be a3 1c ca bd
       -0.40618598 0.09251222 -0.23181267 -0.09868743
0001c0 c2 fd 90 3e aa ab 5c be 7b d5 33 be 62 19 09 bf
       0.28318602 -0.2154986 -0.17561905 -0.53554356
0001d0 49 dd 02 3f 56 c0 01 bf c5 e1 2b bf ee 06 8a bd
       0.51118904 -0.50684106 -0.6714137 -0.06739603
0001e0 18 7c 8e 3e 29 52 7a be 52 94 a4 be df 01 54 3e
       0.2782905 -0.24445404 -0.3214441 0.20703839
0001f0 e0 f3 5e be d2 d3 03 bf 2b d4 7c 3e 00 2d 40 3e
       -0.21772718 -0.5149509 0.2469031 0.18767166
000200 39 7c cc 3e c3 00 1c bf e4 3b 6c bd 1d 71 a5 bd
       0.39938524 -0.6093866 -0.057674304 -0.08078215
000210 99 22 21 be 25 1c 0c 3f d6 3d 7b be 23 b8 a6 3d
       -0.15735854 0.54730445 -0.24535307 0.0814059
000220 d5 8d 20 3d 78 84 61 3e 6c cf ad bd 93 95 b5 3e
       0.03919776 0.22023189 -0.08486828 0.3546568
000230 28 7a 9e bd e9 2c a8 be 40 95 82 3d dc 4d 96 3e
       -0.07738143 -0.32846764 0.063761234 0.29356277
000240 e9 83 02 3f 84 e5 eb be 9a 47 1d 3f 89 b0 5a be
       0.5098253 -0.46073544 0.6143738 -0.21356405
000250 6b e7 91 bd a8 d5 22 3e 37 71 7a be 00 77 31 bd
       -0.071242176 0.15901816 -0.2445725 -0.043326378
000260 ed 6d 1a 3e cc bd 9c bd a3 ff ff 3e 67 ac a0 3e
       0.15080996 -0.076533884 0.49999723 0.31381533
000270 68 9b 76 be c0 01 f8 bd c9 48 68 be 01 da 62 be
       -0.2408272 -0.12109709 -0.22684015 -0.22153474
000280 20 b8 77 be d1 d4 08 bf 4c 39 ed be 9a 4b 22 bf
       -0.24191332 -0.5344973 -0.46332777 -0.6339661
000290 75 9c da 3e 4f 6f cf bd 6f b1 62 be 99 a9 50 be
       0.42697492 -0.10128652 -0.22137998 -0.20377196
0002a0 da ed 44 3d 37 6d 26 be 42 3b 62 bd 74 d4 ab bd
       0.048078395 -0.162526 -0.055232294 -0.083901316
0002b0 7d 10 d0 3d f3 e6 e4 be 73 a1 21 3d 8e 61 8a 3e
       0.10159395 -0.4470745 0.03946061 0.27027553
0002c0 6f 1b 8e 3e dc 58 8d be a7 46 45 be 3f 2e 14 be
       0.27755305 -0.27606857 -0.19265233 -0.14470766
0002d0 9a a7 55 be 4e 6a bc bd 70 86 24 3d 31 80 99 3d
       -0.20864716 -0.091999635 0.040167272 0.07495154
0002e0 4d 84 fb bd 9c b7 cd bd 0a 09 9e be d2 72 09 bd
       -0.12281094 -0.10044786 -0.3086627 -0.033556767
0002f0 83 43 68 3e bf 20 8a be f1 0e 3a bf fc 73 6b be
       0.22682004 -0.26978108 -0.7267905 -0.22993463
000300 f8 67 a9 3e fc 2a 07 bf c7 2e 06 bf ea c3 c4 3e
       0.33087134 -0.52799964 -0.52415127 0.3843072
000310 14 9c 30 bf 01 f9 e3 bb 69 4c 46 3f 50 cf c9 3d
       -0.68988156 -0.006957174 0.7746034 0.09853995
000320 dc 8a a4 3e ab 3a 01 3e c0 f7 d2 be df 97 5f be
       0.3213719 0.12620036 -0.41204643 -0.21835278
000330 eb 30 73 bd f4 8a d0 be 28 0b e6 be 5c c8 38 3d
       -0.059372824 -0.40731013 -0.44930387 0.045112953
000340 7e 22 a4 be 6f 23 39 3e ea 81 e6 3d aa ec 22 3e
       -0.32057565 0.18079923 0.11255248 0.15910593
000350 e9 fd 6f 3e 22 2b 21 be 75 7f 7a be d6 79 b0 3e
       0.23436703 -0.1573911 -0.24462683 0.34467953
000360 9e 22 e2 3d 1a 4f fa 3e 62 2d 70 be c0 ae 34 be
       0.11041759 0.48888475 -0.23454812 -0.17644787
000370 a3 d7 89 3e ad 57 87 be c4 84 f2 3d 8b 7f d1 3e
       0.2692233 -0.2643408 0.11841729 0.4091762
000380 65 d1 a3 3e e9 8c 09 bd 36 4e d0 bd 2a 85 55 3d
       0.31995693 -0.033581648 -0.101711676 0.05212895
000390 94 22 94 be bd 0c 33 be ee 31 77 3e 73 37 cd 3e
       -0.2893263 -0.17485328 0.2414014 0.40081367
0003a0 35 69 61 3d ad 13 3e bf 2f 44 cf 3e 68 a2 80 be
       0.055031974 -0.7424877 0.40481707 -0.25123906
0003b0 23 3b 26 3e 1e b0 34 3d 08 59 30 3e 55 a1 98 3d
       0.16233496 0.04411327 0.17221463 0.07452647
0003c0 a9 23 45 be 31 c3 02 3d 37 90 ad be 00 fe ec 3e
       -0.19251885 0.03192443 -0.3389909 0.46287537
0003d0 c7 2b 34 be 92 d2 57 be 96 57 94 bd b4 df 24 3e
       -0.17594825 -0.2107642 -0.07243268 0.16100961
0003e0 0e 1c 2b 3d 15 5d b0 be 1b 78 22 be 3b 38 55 3e
       0.041774802 -0.34446016 -0.15866129 0.20822231
0003f0 1b 71 6a be 3d a1 48 3e 84 1a ac 3c d4 61 52 be
       -0.22894709 0.19592758 0.021008737 -0.20545131

q_netwrok.2.bias f4 [256]
000000 e2 72 c8 be be 7b 2e 3f 4d f5 0b 3f a6 e1 39 bf
       -0.3915015 0.68157566 0.54671174 -0.7260994
000010 af 32 5b 3e ea 19 4b 3f 61 d3 51 3e 85 fc d7 be
       0.21406053 0.79336417 0.20490791 -0.42184845
000020 fe a7 c1 be 36 60 31 bf 40 0e 61 3e f6 e3 12 3e
       -0.3782348 -0.6928743 0.21978092 0.14344773
000030 fe 65 15 3f 69 2b df be 99 f4 d5 be f6 bb 7a 3f
       0.5835875 -0.43587807 -0.41788176 0.97943056
000040 8e e3 ca be 58 96 f8 3e 95 fb ac be 41 05 20 3f
       -0.39626735 0.48552203 -0.33785692 0.62508017
000050 c2 ea 36 bf af 52 dd bd 18 f6 c0 3e fe 55 29 3f
       -0.7145196 -0.10806786 0.37687755 0.6614684
000060 65 5f 65 3f b1 6b 22 3f 0a 8c 44 be 1a b2 fe be
       0.89598686 0.63445574 -0.19194046 -0.49745256
000070 5b 2d 96 3e 57 61 4f 3f 9e 85 0f 3e 57 ba 3b be
       0.29331478 0.81007904 0.14015815 -0.18332802
000080 bd 8f 24 bf e9 2e d2 be 6e cc c7 be eb 1b cd be
       -0.6428183 -0.41051415 -0.39023155 -0.40060362
000090 2a ce de 3e c8 ae c5 be 0f 89 01 3f 0a 8a d7 be
       0.43516666 -0.3860991 0.5059976 -0.42097503
0000a0 d9 7a af be 5a ee fc 3e 80 93 58 3f fd 14 15 3e
       -0.34273413 0.49400598 0.8460007 0.14558788
0000b0 71 9e 4a bd 1c 71 ae 3e 6b ba 1e 3f 9a f0 18 3f
       -0.049467508 0.3407067 0.620032 0.5974213
0000c0 01 a2 69 be f2 b7 b2 3e 2f fe 07 bf 33 33 01 be
       -0.22815706 0.34905964 -0.5312223 -0.12617187
0000d0 76 d1 43 bf ea af 13 be 18 e7 08 3f 38 7d c1 be
       -0.7649149 -0.14422575 0.5347762 -0.37790847
0000e0 03 93 0f 3f 11 cb 3e 3f a8 0d df be 30 5c 8a bd
       0.560837 0.74528605 -0.43565106 -0.067558646
0000f0 44 31 3a 3f a8 29 df 3d 7e ba 6f 3e 33 cb b6 be
       0.72731423 0.10896617 0.23410985 -0.35701904
000100 ed 9d ff be 29 f8 0f bf 35 95 97 3e 51 ee 47 3f
       -0.49925175 -0.5623804 0.29606023 0.78098017
000110 dd 2c 0d bf b9 93 f1 3e f5 8f 56 3f de 84 b2 3e
       -0.5514658 0.47183016 0.8381341 0.34866995
000120 e6 31 04 bf 47 20 ff be 8a c9 17 3f c3 cb 91 3e
       -0.5163864 -0.49829313 0.592919 0.2847577
000130 80 68 a9 3e db 96 8b be 92 29 ed be 92 12 29 3f
       0.3308754 -0.2726353 -0.46320778 0.6604396
000140 97 ec 1d 3f e2 03 f0 3e c1 4b 7e 3d 3b 0f 7c 3e
       0.6168913 0.46877962 0.062083963 0.24615185
000150 d3 40 95 3c 40 2d 49 bf 19 b6 14 bf fb 4e 2d 3f
       0.018219387 -0.7858467 -0.5809036 0.6769864
000160 3d 92 5f 3f d9 f0 0c 3f 76 ef ca 3e 32 1f 05 3f
       0.87332517 0.55055004 0.3963582 0.52000725
000170 3b b9 a7 3e dc 50 84 3f 44 cf 48 3e 42 a6 85 be
       0.32758507 1.0337176 0.19610316 -0.26103407
000180 1a 82 ed 3c a5 d0 f8 be b2 1b 7d be 43 59 2e bf
       0.028992701 -0.48596683 -0.24717596 -0.6810495
000190 87 ff 1b 3f 22 2f 06 bf e8 b5 5d 3f 4c d0 19 bf
       0.6093678 -0.5241567 0.8660569 -0.6008346
0001a0 ed 89 98 3e d6 0b 1b bf 10 b7 94 3e 96 31 51 3f
       0.2979273 -0.60564935 0.29045916 0.8171629
0001b0 71 5b fa 3e f1 b9 f3 3e 8b c8 7f 3e 30 64 82 3f
       0.4889789 0.476028 0.24978845 1.0186825
0001c0 9d 79 d1 be 24 92 7a 3f 30 f3 78 3f 59 b7 9a 3e
       -0.40913096 0.9787924 0.97246075 0.30218008
0001d0 14 5f 00 3f 49 39 0a 3f 12 35 82 3f 11 da c6 3d
       0.5014508 0.5399366 1.0172446 0.097095616
0001e0 78 1a 2b bf a3 82 0c 3f c6 45 4d 3f 7a 7d 1c 3f
       -0.66837263 0.54886836 0.8018459 0.6112896
0001f0 54 18 47 bf e2 74 5c 3e d2 7f c2 be 98 c8 35 3e
       -0.77771497 0.21528962 -0.37988144 0.17752302
000200 45 d7 8c 3f 08 5a 08 3f c8 38 cb be 6f a4 c7 be
       1.1003195 0.53262377 -0.39691758 -0.3899264
000210 f1 a7 f6 3e 00 9a 7e 3e 16 3f 60 bf 4f 01 3e 3f
       0.48175004 0.24863434 -0.8759626 0.74220747
000220 8f 14 a9 be 61 31 29 3f 41 17 c7 3e 31 1e cd 3e
       -0.33023497 0.6609097 0.3888493 0.40062097
000230 64 24 80 3f 5d 0a 40 3f bb a4 7f 3f 2a c9 03 bf
       1.0011106 0.75015813 0.99860734 -0.51478827
000240 d1 75 ca be 61 8a 36 be 87 70 af be 7b 63 2c bf
       -0.39543012 -0.17826225 -0.3426554 -0.67339295
000250 66 ac 91 3e f6 d3 49 3f f6 8e 10 bf b1 7e c3 be
       0.28451842 0.7883905 -0.5646814 -0.38182595
000260 85 bd 90 3e 9e 3a 4d 3e 1f 62 7f 3f 49 64 d7 3e
       0.28269592 0.20041892 0.99759096 0.420687
000270 2d 2a 44 3f 20 73 9a 3e 2d 01 bc 3c e4 ab 84 3e
       0.76626855 0.30165958 0.02294978 0.25912392
000280 22 ee 58 3e a0 70 98 be b3 37 03 3f ae ba d0 3e
       0.2118459 -0.29773426 0.51256865 0.40767425
000290 14 06 00 bf ec 63 21 3f 2d 8c 39 bf 52 f1 0b bf
       -0.50009274 0.63043094 -0.72479516 -0.546651
0002a0 1c f0 3f bf 38 9e 34 bf c4 c5 10 bf a8 a8 0c 3f
       -0.7497575 -0.7055392 -0.56551766 0.5494485
0002b0 18 bc 62 3f 3e 78 5a 3e 4e ed 04 3f a2 ae c3 be
       0.8856826 0.21334931 0.519246 -0.38219172
0002c0 89 9a 82 3e b8 a4 21 bf f3 a1 6c be 53 fb 21 bf
       0.25508526 -0.63141966 -0.23108654 -0.63274115
0002d0 a1 fa c4 bd 92 93 10 bf f6 b4 ea 3e e6 56 69 bf
       -0.09618116 -0.56475174 0.45841187 -0.9114822
0002e0 7d 27 c2 3e 9d b8 80 3f 80 13 d3 be 9f d6 97 3e
       0.37920752 1.005634 -0.41225815 0.2965593
0002f0 e1 38 2c 3f 07 e1 17 3e 36 23 22 bf 55 95 50 3f
       0.6727429 0.14831935 -0.6333498 0.8147786
000300 7a 0d 4f 3e 85 4e fe 3e 24 28 22 3f 63 f9 e6 be
       0.20219985 0.4966928 0.633425 -0.45112142
000310 53 16 76 3f 1f bc 92 3e b5 1d f7 bd 04 dd d7 3e
       0.96127814 0.2865915 -0.12066213 0.4216081
000320 48 e2 0b be 80 36 f1 be bd c9 44 3f 63 84 a5 3e
       -0.13660538 -0.47111893 0.7687033 0.32327566
000330 10 35 49 be 2a 50 d0 3e 36 32 2c bf 50 50 3a 3f
       -0.19649148 0.4068616 -0.67264116 0.727788
000340 49 d0 71 3f 74 1e 44 bf d7 6c 4c 3f 09 a0 0b bf
       0.9445844 -0.7660897 0.79853576 -0.5454107
000350 15 50 d4 be 4a a6 14 3e dc 90 e8 3d 4e 69 5b 3e
       -0.41467348 0.14516559 0.11355755 0.2142689
000360 82 77 18 bf 40 31 03 bf 4e 1f 0a bf d1 2d 75 3f
       -0.59557354 -0.51247025 -0.5395402 0.95773035
000370 7a 41 bb 3d 4c 1a 30 3f 34 16 b9 be 46 80 48 3f
       0.09143348 0.68790126 -0.36149752 0.7832073
000380 2a e0 55 3f c8 15 fa 3e 70 33 29 3f cb 53 33 3f
       0.8354517 0.48844743 0.6609411 0.7004973
000390 08 87 22 bf 9f 0b ff be ae 36 d9 3e 38 04 e7 3e
       -0.6348729 -0.49813554 0.4242453 0.45120406
0003a0 98 c5 85 3e 62 96 0a bf fd bf 4a 3f 5f 62 bf 3e
       0.26127315 -0.54135716 0.791992 0.3737974
0003b0 62 b5 a6 bc e1 d7 4a 3f 28 32 c0 3e 6e 26 f8 be
       -0.020350162 0.79235655 0.37538266 -0.4846682
0003c0 01 3e 5b 3e f4 51 0c 3f 4b 1e 17 bf 94 08 e0 be
       0.21410371 0.5481255 -0.590306 -0.43756545
0003d0 c0 08 04 3f 0e b4 18 3f 08 c4 3b 3f 1e 24 39 3f
       0.5157585 0.5964974 0.73345995 0.72320735
0003e0 b4 fb 81 3f b0 b3 2f 3f dd 49 18 bf ae ea 75 3f
       1.0154939 0.68633556 -0.59487706 0.9606122
0003f0 27 97 1f bf 4f db 5a 3e f7 ea a9 be af 13 2a 3e
       -0.62340015 0.21372722 -0.33187076 0.16609071

q_netwrok.4.weight f4 [256, 256]
000000 8a fc 1a bf f1 11 d1 3d f5 68 1a 3e 9a 74 36 bf
       -0.60541594 0.102085 0.150791 -0.7127167
000010 29 dd 57 bd 41 93 20 3c 02 7e 85 3e 8f 4a 3f bf
       -0.05270115 0.009800733 0.260727 -0.7472314
000020 ef 22 47 be bd dd c2 bd 08 51 7b 3e 76 6f d4 3d
       -0.1944692 -0.095149495 0.2454263 0.10372822
000030 e2 77 dd 3d b5 58 c3 be 27 83 25 bf 59 9b da 3c
       0.108138815 -0.38153616 -0.6465325 0.026685404
000040 37 37 31 3d f3 37 04 3e e0 3a 9b bf 49 04 23 3e
       0.043265548 0.12911968 -1.2127342 0.15919603
000050 59 69 12 bf 69 cf 9d be 7d 00 7e bc 98 23 99 3e
       -0.57192 -0.30822304 -0.015503046 0.29909968
000060 e5 77 50 3d 04 01 f5 3c e5 e4 1a be 5d 1a 46 be
       0.05089559 0.02990771 -0.15126379 -0.19345994
000070 6c 4f 82 3d 53 85 ca 3d a7 6a a4 be 75 0c 1d be
       0.06362805 0.09888711 -0.3211262 -0.15336783
000080 ea 0c 06 bf 06 a9 71 bf 48 56 28 bf 0d a9 05 bf
       -0.52363455 -0.94398534 -0.65756655 -0.52211076
000090 3e 38 1e bd a8 6c 34 bf 7a 94 8d 3e 24 de f6 be
       -0.038627855 -0.70478296 0.2765234 -0.48216355
0000a0 65 84 ba be 34 93 70 3e 50 1c 95 3e 9e fc cc bd
       -0.36429134 0.23493654 0.29123163 -0.100091204
0000b0 7a 7a 17 3e c5 d0 06 3e d6 a6 58 3e 50 5c 7d 3e
       0.14792815 0.13165577 0.21157393 0.24742246
0000c0 9a 3f 7f be 65 1e 5e 3e 3a 3b a8 be 67 01 d8 bd
       -0.24926606 0.21691282 -0.32857686 -0.105471425
0000d0 b3 66 12 bf 0b 7b db bd 9b c1 bc 3c 61 d5 c0 bd
       -0.57187957 -0.10716828 0.023041537 -0.09415699
0000e0 68 53 5b 3d 19 a4 bc bb f7 ae cc be ac c4 10 be
       0.05354634 -0.0057568667 -0.39977238 -0.14137524
0000f0 59 41 21 3e 76 aa e3 bd 26 e4 66 3c 7f 78 b8 be
       0.15747584 -0.11116497 0.014092481 -0.3602943
000100 f6 88 54 bf 2f ef 9b bf a9 0c a0 3d 82 5f 26 3e
       -0.83021486 -1.2182368 0.07814915 0.16247371
000110 12 c5 09 bf 00 66 6d 3e 15 05 13 3e 40 e8 d3 bd
       -0.5381633 0.23183441 0.14357407 -0.103470325
000120 34 4a 28 bd 9f b3 7e bf 4d fc f4 bc bc 50 2e 3d
       -0.04108639 -0.9949283 -0.029905463 0.042557463
000130 26 9c 8b 3e 71 c7 62 be 45 28 70 bf 5f da 39 bd
       0.2726757 -0.22146393 -0.93811446 -0.04537427
000140 49 93 de 3d c7 3d 17 3e 47 29 02 3b 1b 1d f9 bc
       0.10867936 0.1476966 0.001986103 -0.030409386
000150 11 9a 80 bd 63 31 06 bf 01 4d e7 be 44 8c f8 bc
       -0.06279386 -0.5241911 -0.45175937 -0.030340321
000160 bb 26 e0 bb df fc 11 bd c4 0b 89 bc 62 93 e8 3d
       -0.0068405545 -0.035641547 -0.016729243 0.11356236
000170 18 55 25 be 92 e6 9e 3c 19 f1 82 3e 5c 0c fc be
       -0.16145742 0.019397054 0.25574568 -0.4922818
000180 94 fb 9d be ff 1f 00 bf ff 28 6f be 83 f8 96 bc
       -0.30856 -0.5004882 -0.23355483 -0.018429046
000190 ec e4 d7 3d 03 89 d7 be 1a 8d 56 3d f0 98 5f be
       0.1054171 -0.4209672 0.05238066 -0.21835685
0001a0 30 52 cd 3e 93 10 2b be 59 7d f8 bd 34 d6 44 3e
       0.40101767 -0.16705541 -0.12133283 0.19222337
0001b0 8e a5 23 3d ca 48 bd 3d e5 e3 c6 3e e7 69 4a 3d
       0.039952807 0.09242399 0.38845745 0.049417403
0001c0 22 50 13 bf 7b 3f a3 3d c4 24 ae 3d 72 ae 90 3e
       -0.5754415 0.07971092 0.08503106 0.2825809
0001d0 ed e1 b6 3d 8f a9 c4 3e 65 b3 19 3e e7 6b 5e bd
       0.08929811 0.38410613 0.1500984 -0.054302122
0001e0 c6 a7 af bd 3b 47 da 3d 01 d9 1f 3e d9 0d a9 bb
       -0.08576922 0.106581174 0.15610124 -0.0051591215
0001f0 c2 38 ea bd d4 fb 10 be 7e b5 41 bf f1 37 03 3c
       -0.11436607 -0.14158565 -0.7566756 0.008008943
000200 c6 e7 51 3e ee 44 83 3e af 85 01 bf c6 d8 e4 be
       0.20498571 0.25638527 -0.5059461 -0.44696635
000210 d3 66 d7 3d 80 1b 07 bd c5 fb 07 bf 1c 37 bf 3b
       0.10517659 -0.03298521 -0.53118545 0.005835427
000220 92 ca d3 bf 9c 6e 5e 3c df d2 ec bc cd 0c 85 3e
       -1.6546195 0.013576176 -0.028909145 0.2598633
000230 d4 8c 9b 3c 22 b7 22 3e 20 90 2d 3c 64 6f 32 bf
       0.01898805 0.15890172 0.010593444 -0.6970122
000240 aa 9f 32 be 81 e6 27 be c3 71 f9 be d4 9b 49 bf
       -0.1744372 -0.16396524 -0.48719606 -0.787534
000250 16 69 15 be b7 33 ee 3d 3c 70 62 be dc 62 05 be
       -0.14590868 0.116309576 -0.22113127 -0.13025993
000260 a2 43 eb 3c 6d 2b 02 3d ee 7e 39 3e 5b cf 45 3e
       0.028718773 0.031779695 0.18114826 0.19317381
000270 ed 7e 85 3d 33 d2 6b 3d aa af b9 bc 51 79 86 3d
       0.0651835 0.05757351 -0.022666771 0.06566108
000280 3c 8c a2 bb ad 78 4c be 39 1e bc bc 28 35 c5 3d
       -0.004960565 -0.19967909 -0.02296363 0.096292794
000290 b8 c8 07 bd 13 04 cd bd 27 94 96 be 49 de a0 bf
       -0.033150405 -0.10010543 -0.29409906 -1.2567836
0002a0 df 6e fd be 7a 9b 63 be 10 45 b0 bf 9b 13 ed 3b
       -0.4949865 -0.22227278 -1.3771076 0.007235003
0002b0 04 4a c3 3d 83 55 ce 3d 27 22 cb 3c db dd 3a bf
       0.09535602 0.10074904 0.024796559 -0.72994775
0002c0 21 97 1c be 24 15 86 be 0c 64 e5 3c 1a bc ff be
       -0.15292026 -0.26188004 0.028001808 -0.49948198
0002d0 31 9b 9b be 76 dd 36 be cd 43 f3 3d be c2 9d be
       -0.3039184 -0.17857918 0.11878166 -0.3081264
0002e0 8f df ac bd e4 6d 21 3e bd 7c 6c bf ef 33 84 3e
       -0.08441078 0.15764576 -0.92377836 0.25820872
0002f0 8b e6 6e 3e da 0c 21 be de 2f 91 bf 60 9d fd bc
       0.23330133 -0.15727559 -1.1342733 -0.030958831
000300 7e 8a 31 bc f0 a6 c4 3d 99 3a 80 3e 22 69 1f bf
       -0.010836242 0.09602153 0.25044706 -0.62269795
000310 63 11 0f bd a3 30 19 3e 2a 5f 51 be 16 2b cf 3d
       -0.03492869 0.1495996 -0.20446458 0.1011564
000320 46 cd 95 be 24 d8 85 bf 7c d7 b7 3d ed fd 56 bd
       -0.29258174 -1.0456586 0.08976647 -0.052488256
000330 3a 11 48 bf 1b 61 b6 3c 93 ea 7f bd 5f 69 e6 3e
       -0.78151286 0.0222631 -0.062479567 0.45002267
000340 77 d3 d3 3c 55 56 d4 be 2d 8f b7 3c 08 25 81 bf
       0.02585767 -0.41472116 0.022407139 -1.0089426
000350 66 dc d6 bd 29 2c 01 3d d9 a7 73 3e d4 90 b7 bd
       -0.104912564 0.031536255 0.23794498 -0.08963171
000360 84 a1 68 bf 4d c7 20 be 1c 2d 0c bf 71 56 75 3d
       -0.90871453 -0.15701027 -0.5475633 0.05989689
000370 be 9f aa 3e 24 2a fd bc ad 1e 96 be 65 24 03 3e
       0.33325 -0.030903883 -0.2932028 0.12806852
000380 9b 58 ac bc 74 9b 76 3d bf ee ff 3c 39 c3 5e 3e
       -0.021038344 0.060206845 0.031241773 0.21754159
000390 45 1d 1c be ad 23 91 bf 50 82 a0 3e ec 30 06 3e
       -0.1524554 -1.1339012 0.3134942 0.131046
0003a0 a5 8d 67 3e 5b 16 b0 bf 3d 71 83 3e 86 50 c1 3d
       0.22612627 -1.3756822 0.2567233 0.09439187
0003b0 77 a0 03 3b f3 85 67 3e c6 3f 9a bd 6d 69 58 bf
       0.0020084658 0.22609691 -0.07531695 -0.84535867
0003c0 1b a6 b6 3d 74 48 cb bc c5 d3 37 bf fd ea a2 bd
       0.08918401 -0.024814822 -0.7180751 -0.07954977
0003d0 98 74 ac bd 8f 56 ef 3d 80 2e c9 3d 9c 91 c3 3e
       -0.08420676 0.116864316 0.09823322 0.3819703
0003e0 87 d7 f1 3d c0 08 f0 3d 8a 47 8c bf dd 3f 13 bd
       0.11808687 0.11720419 -1.0959332 -0.035949577
0003f0 67 16 30 bf 95 80 a2 3e 8c a3 67 bf 3b f1 64 be
       -0.68784183 0.31738725 -0.9048393 -0.22357647

q_netwrok.4.bias f4 [256]
000000 b9 a4 85 3f ef 39 92 3f 82 d3 2b 3d c2 f7 a1 bd
       1.0440894 1.142393 0.041949756 -0.07908584
000010 a4 a1 c8 bd 29 c8 42 be 77 f8 82 3f 1a de 90 3f
       -0.097964555 -0.19021668 1.0232075 1.131778
000020 61 93 8e 3f 91 c2 91 bd 89 7b 82 3f 13 6f c8 3e
       1.1138726 -0.07117189 1.019395 0.39147243
000030 12 b4 df 3d 2a 99 79 bd 26 d5 43 be 6c 0e 96 bd
       0.109230176 -0.060937084 -0.19124278 -0.073269695
000040 d5 98 44 be 0d 72 9b 3e 0f 84 bb 3d 5c 9a e0 bd
       -0.19198926 0.3036045 0.091560476 -0.10966942
000050 5a a9 80 3f d7 20 76 3f 81 f9 35 be ab 7f ba 3e
       1.0051682 0.9614386 -0.1777096 0.36425528
000060 8b 86 82 3f 00 7c 8b 3f d4 c9 8d be 82 30 da bd
       1.0197309 1.0897217 -0.27693045 -0.106537834
000070 5d 61 99 be 4b a6 91 3f c7 1d 9c be 48 53 cd bd
       -0.29957095 1.1378874 -0.30491468 -0.1002565
000080 e1 bd 86 3f 40 28 d0 bd 09 ef 85 3f 16 c1 1c be
       1.0526696 -0.10163927 1.0463573 -0.15308031
000090 6c da c9 3d ee 09 8a 3f c1 60 86 3f 80 3e 8e 3f
       0.09856114 1.078428 1.0498277 1.1112823
0000a0 a8 17 85 3f cc 7b c6 3d 3b e6 81 3f 22 19 e3 3e
       1.0397844 0.09691581 1.0148386 0.44355112
0000b0 0b ab 13 be a3 26 82 3f 20 22 15 bf 8e 50 37 be
       -0.14420716 1.0168041 -0.58255196 -0.17901823
0000c0 69 21 7f 3f fe 24 29 be bf a6 9b 3e fc 1f bf 3e
       0.99660355 -0.16518018 0.30400655 0.3732909
0000d0 22 a0 61 be e0 92 7e 3d a3 1d 81 be 2d 6e 48 3d
       -0.22033742 0.06215179 -0.25217924 0.048933197
0000e0 8c 20 1c be 32 e2 1c be 3e 70 78 3f d5 ff e9 3d
       -0.1524679 -0.15320662 0.9704627 0.11425749
0000f0 2f 57 e2 bd e8 53 70 3f 9f a3 e7 3e 99 26 85 3f
       -0.11051785 0.9387803 0.4524202 1.0402404
000100 6c 71 8e 3e 77 0e 6f 3f cb c0 97 3f 08 e9 a5 be
       0.2782091 0.93381447 1.1855711 -0.3240435
000110 f2 94 f2 bd 96 b5 3f bf 85 33 74 3f 5e 81 83 3f
       -0.11844815 -0.74886453 0.9539111 1.0273855
000120 98 8f 58 3e 2c 85 83 3f f5 bf 95 3e 48 6f ee bd
       0.21148527 1.0275016 0.29248014 -0.11642319
000130 09 0c 69 3f 33 73 c9 3e 9a 3b 71 3f 0b ca 92 3f
       0.9103399 0.39345703 0.9423157 1.1467909
000140 8e 51 88 3f ee 11 7f 3f 97 e9 53 be 6f d7 2e bd
       1.0649889 0.99636734 -0.20694576 -0.042685922
000150 6f 49 5e be 8a 53 63 be 05 af f6 3e 5f ff 97 3f
       -0.217077 -0.22199836 0.48180404 1.1874808
000160 b6 8e 4a 3f 21 7f dc bd 49 cc 79 be 46 3b 7e be
       0.7912401 -0.107664354 -0.24394335 -0.24827299
000170 d6 b8 80 3f e2 20 80 3f 3d 28 5a 3f be 87 40 bd
       1.0056407 1.0010035 0.8521765 -0.047004454
000180 f4 47 81 3f 00 aa 41 bf 7d b3 93 3e 79 f2 0e bc
       1.0100083 -0.75650024 0.28847876 -0.008724802
000190 f9 69 1b be 9c f3 8d 3f d0 4a 7d 3f 65 71 72 3f
       -0.15177144 1.1089969 0.9894228 0.94704276
0001a0 f9 ad 27 be ff 9f 39 bf 83 75 6b 3f c3 61 ca bd
       -0.16374959 -0.7250976 0.91976184 -0.09881928
0001b0 70 c9 5a bf c5 d6 8a bf af 47 78 3f ca 44 7d 3f
       -0.8546362 -1.0846792 0.9698438 0.9893309
0001c0 bd 8e 00 3f f3 e2 fc 3c 76 50 68 3f 4f 53 74 3f
       0.502178 0.030869937 0.90747774 0.9543962
0001d0 08 de 4b 3e 27 71 29 bf 41 e0 6f 3f ce cc 47 be
       0.19908917 -0.6618828 0.9370156 -0.1951172
0001e0 01 ba 21 3f 67 37 5c 3f cc 12 8c 3f 21 09 7d 3f
       0.63174444 0.8602204 1.0943236 0.98842055
0001f0 ae 72 e9 be 1c 8a 0d be 40 ff f1 be f8 be 24 be
       -0.45595306 -0.13822216 -0.47265053 -0.16088474
000200 5d 47 80 3f a0 53 80 3f 90 f3 97 3f d9 89 9c 3f
       1.0021778 1.002552 1.1871204 1.2229568
000210 d8 3c 41 bf d7 b7 da bd be ac fe be 05 d3 a6 bd
       -0.75483465 -0.10679596 -0.49741167 -0.081457175
000220 68 cd 7f 3f cf 72 8f 3f 03 2b 7b 3f 30 ea f5 3d
       0.999228 1.1206912 0.98112506 0.12007558
000230 21 48 29 be 07 7a 8b 3f 0f d2 94 3f 92 be 8d 3f
       -0.16531421 1.0896615 1.1626605 1.1073782
000240 02 b3 7f be c1 a0 71 3f c4 6d 68 3e 83 46 8f 3f
       -0.2497063 0.94385916 0.22698122 1.1193393
000250 10 04 c0 3c da ef 80 be 81 55 72 be f2 fa 3e 3f
       0.023439437 -0.25182992 -0.2366543 0.7460166
000260 94 e5 8a 3f 56 22 83 3f bc e9 0b 3b 34 ba 3d be
       1.0851312 1.0244853 0.0021349033 -0.18528062
000270 8f b1 74 3e a3 49 f9 bd 74 66 12 bd 3f 7d 89 3f
       0.23895858 -0.12172248 -0.03574224 1.0741347
000280 6c 61 ef 3d 96 b8 48 be 8b cc 56 be db f3 80 3e
       0.116885036 -0.19601664 -0.20976464 0.25186047
000290 60 67 7f 3f b8 9e ad be c0 e1 8e 3f 34 76 17 3d
       0.9976711 -0.33910155 1.1162643 0.03697796
0002a0 72 c5 91 3f ec 80 5a 3f f9 83 82 3f da d0 22 bf
       1.138838 0.8535297 1.0196525 -0.6359993
0002b0 5a 70 8c 3f 86 df 8d 3f cd e0 8e 3f d9 97 fb 3e
       1.0971787 1.1083839 1.1162354 0.49139288
0002c0 59 3e cd bc ca 74 92 3f b3 dd 84 3f 50 9f 88 3f
       -0.025054144 1.1441891 1.0380157 1.0673618
0002d0 66 a7 6b 3f 94 87 93 bc e4 cf 37 bd aa 37 55 be
       0.92052305 -0.018008985 -0.044875994 -0.20822015
0002e0 44 18 52 be a8 f2 84 3f 8c e0 3c 3f 24 b8 67 be
       -0.20517069 1.0386553 0.7378013 -0.22628838
0002f0 ad b1 e4 3e 78 f2 82 3e 20 c5 10 be fc 86 36 be
       0.44666806 0.25575614 -0.14137697 -0.1782493
000300 eb 33 ed 3d 63 66 87 3f 6d 00 ae 3e 68 5e 88 3f
       0.11582168 1.0578121 0.339847 1.065381
000310 07 aa 8f 3f 42 d3 04 3e 82 53 22 bf 5e 2e 93 3f
       1.1223763 0.12971213 -0.6340867 1.1498525
000320 23 cd 65 3f b5 c5 7f 3f 52 1f 92 3f 51 cc a3 bd
       0.8976614 0.9991105 1.1415808 -0.07997955
000330 7d 9d a6 bd bb 83 90 3f eb fb 4e be 66 04 83 3e
       -0.08135507 1.1290201 -0.20213287 0.25589293
000340 02 54 3a 3f 6a 73 35 be 92 3d 87 3f de a5 b5 3e
       0.72784436 -0.17719808 1.0565665 0.3547811
000350 6a 0e 91 3f eb c7 ba 3e 0d 3d 81 3f 86 6c f4 3e
       1.1332524 0.3648065 1.0096756 0.47739047
000360 6f 8d 4a be 0c 0b 3e bf 06 99 8e 3f fd 35 47 bd
       -0.19780515 -0.74235606 1.1140449 -0.04863547
000370 73 63 87 3e 04 73 05 be 7f ce 93 3f 13 1b 95 3f
       0.2644306 -0.13032156 1.1547393 1.1648887
000380 f7 64 8a 3f 71 45 7b 3f 89 b0 4a be 89 17 90 3f
       1.0812062 0.98152834 -0.19793905 1.1257182
000390 ad 6d 70 bf 68 a0 6e 3f dd 15 39 3d d7 59 73 be
       -0.9391735 0.9321351 0.045186866 -0.2376474
0003a0 54 5d 88 3f b5 b5 63 be ea c2 45 bd 56 d2 6b 3f
       1.0653481 -0.22237284 -0.048281588 0.9211782
0003b0 80 de b6 be 59 82 88 3f c4 b6 63 be 57 24 8f 3f
       -0.3571663 1.0664779 -0.22237688 1.1182965
0003c0 b7 42 47 be 46 07 91 3e bf 9c 32 3d 6b 1b ac bd
       -0.19459043 0.28325862 0.043606516 -0.08403667
0003d0 c7 3a 83 3f 8b fb 81 3f 2d d7 21 3e c4 a0 e3 bd
       1.0252312 1.015489 0.1580474 -0.11114648
0003e0 83 c9 13 3e 77 ff de be 79 15 62 3d 9a 7c 8b 3f
       0.1443234 -0.4355428 0.05519626 1.08974
0003f0 33 b5 98 bd f0 60 85 3f ad 47 2e 3f 84 65 59 be
       -0.07456436 1.0420208 0.6807812 -0.21230131

q_netwrok.6.weight f4 [13, 256]
000000 7c 48 27 3e 0e dc 06 3e 36 53 aa 3d ae a8 20 be
       0.16336244 0.13169882 0.083166525 -0.15689346
000010 03 69 ba bd 44 26 2b bf 01 82 0a 3e 2b 66 18 3e
       -0.09102061 -0.66855264 0.13526155 0.14882724
000020 ee 64 73 3e 5a 65 4d 3f 03 65 70 3e cd 04 43 3e
       0.2376897 0.80232775 0.23476033 0.190448
000030 06 a2 66 3d e3 97 0f 3c 46 00 52 bf c7 a0 1c 3f
       0.05630686 0.00876424 -0.8203167 0.61182827
000040 91 8e 2b be e5 1d 86 3e 5c c4 80 3e d3 0c 40 3f
       -0.16753604 0.26194683 0.2514981 0.7501957
000050 f6 2a 68 3e ef 8c ec 3d ff c9 be bd 29 b1 d6 3e
       0.22672638 0.115503184 -0.093158714 0.41932037
000060 c5 c2 23 3e 0a 1a 10 3e e9 79 35 bf e2 2a 35 bd
       0.15992267 0.14072433 -0.70889145 -0.04423035
000070 67 43 15 3e d2 d2 f0 3d 8a 14 43 bf 54 69 de 3d
       0.14576493 0.11758961 -0.76203215 0.108599335
000080 2c 89 49 3e 7a cd 1f bf 2f 3f 5c 3e 74 b5 57 3d
       0.19681233 -0.6242291 0.21508478 0.05266328
000090 20 0b 0b 3f 4a 41 6d 3e 24 00 73 3e 90 b3 33 3e
       0.5431385 0.23169437 0.23730522 0.17548966
0000a0 6b 57 21 3e 85 2b 12 3f e6 a0 3f 3e a7 ae 22 3e
       0.15756004 0.57097656 0.18713722 0.15886937
0000b0 5b 3d 3f be fa 82 5b 3e 9c 87 a1 be 7b e4 70 bf
       -0.18675749 0.21436682 -0.31548774 -0.94098634
0000c0 2e 8b 8c 3e 77 75 2f bf 99 d7 d9 3e 92 67 16 3e
       0.27449936 -0.6853861 0.425473 0.14687946
0000d0 9a 92 3e bf 4b 89 3d 3e ee 2d 26 bf a1 3e 98 bb
       -0.74442446 0.18509404 -0.64913833 -0.004646138
0000e0 d8 59 1d bf 05 56 e1 3e 8a b3 6d 3e 8b e9 2d 3f
       -0.61465216 0.4401094 0.2321302 0.67934483
0000f0 07 33 29 be 91 09 bb 3e 10 01 09 3e aa 5e 20 3e
       -0.16523372 0.36530736 0.13379312 0.15661111
000100 df 63 39 bd eb 4d 96 3e d9 87 3e 3e 6a bf 80 bd
       -0.04526126 0.29356322 0.1860651 -0.06286509
000110 61 2f 50 3e dd a1 b7 be 39 66 9d 3e 77 c8 b0 3e
       0.20330574 -0.3586568 0.30742052 0.34527943
000120 d0 42 23 3f 1e 1e 3b 3e 6d 88 46 3e dd 29 aa bd
       0.6377382 0.18273208 0.1938798 -0.08308766
000130 ce 91 9b 3e 99 2b dc 3e 8b d3 9e 3e 5a 53 c1 3d
       0.30384678 0.43002012 0.3102077 0.09439726
000140 77 07 fa 3d e7 28 f5 3d ce 1d ef 3e 7d d5 a5 be
       0.12208455 0.11970692 0.46702427 -0.3238944
000150 d0 eb 60 bf d4 28 4c bf ad 32 92 3e 5a d4 66 3e
       -0.8785982 -0.797498 0.28554288 0.22541943
000160 e3 6b 80 3e 13 f9 28 3e 06 3b c9 be 5b dd e2 be
       0.2508231 0.16501264 -0.39302844 -0.44309506
000170 f6 9b 69 3e ee c0 5d 3e 22 61 d7 3e 3a cd 00 b9
       0.228134 0.21655628 0.42066294 -0.00012283484
000180 48 67 4f 3e 6a 82 13 be 5e f9 66 be df 9d 33 3e
       0.20254242 -0.14405218 -0.22556064 0.17540692
000190 a2 74 90 3e 25 56 e0 3d 2c 82 0c 3e 6e 29 80 3e
       0.28213984 0.10953931 0.13721532 0.25031608
0001a0 cf 20 23 bf fc 8d 1f bf 17 7e cc 3d 5c 10 2c 3e
       -0.63721937 -0.62326026 0.09984987 0.16803116
0001b0 df 3d 0a bf 6f 9f 01 be 97 3b 01 3e 55 72 72 3e
       -0.5400066 -0.12658475 0.12620388 0.23676427
0001c0 ea ef 7a 3e 4f 61 88 3f d2 ee 69 3e 79 1f 4f 3e
       0.24505582 1.0654696 0.22845009 0.2022685
0001d0 d9 f4 03 3f 94 14 51 be 76 57 8d 3e 9f ec 8a 3e
       0.5154548 -0.20418006 0.2760579 0.27133653
0001e0 c7 fa 99 3e 52 a3 22 3e 9c 3f a3 3e 93 08 a7 3e
       0.3007414 0.15882614 0.31884468 0.3262373
0001f0 21 d6 0e bf 59 55 49 bf d0 1f 20 bf 84 86 24 bf
       -0.55795485 -0.78645855 -0.6254854 -0.64267755
000200 00 32 e4 3d 90 fa a9 3e e0 42 37 3e 7b ed 63 3e
       0.11142349 0.33198977 0.17896605 0.2225856
000210 6b a9 06 bf fb 82 d1 3d 10 6b 1b bf 5c 56 f1 3e
       -0.5260226 0.10230061 -0.6071024 0.471362
000220 47 e0 68 3e 5c c2 38 3e 4c 1a 08 3e ca b6 18 3d
       0.22741805 0.18042892 0.13291281 0.037283696
000230 da b2 d2 3e e6 4b bf 3d f6 57 33 3e c4 1d 1b 3e
       0.41152078 0.09340648 0.17514023 0.15148073
000240 5e 5c 4d 3d 66 bc 72 3e 7a c5 f3 bd 04 42 8f 3e
       0.050136916 0.23704681 -0.119029 0.27980053
000250 35 b1 1e 3d 85 44 fd 3e fe d9 51 bf 2f 70 31 3e
       0.038743217 0.4946634 -0.81973255 0.17327951
000260 69 a2 ad 3e 91 60 43 3e e5 27 10 bd ca 15 37 bd
       0.33912972 0.19079806 -0.035194296 -0.044698514
000270 68 bb 0c 3f 09 f9 03 bf b2 35 13 bf e2 72 28 3e
       0.5497346 -0.5155187 -0.5750381 0.16450074
000280 20 41 5c 3d 79 c8 31 bf 03 6a bf be 8a 1a f6 ba
       0.053773046 -0.6944652 -0.37385568 -0.001877622
000290 96 07 c5 3e 7b bd 08 bf c5 8f 26 3e 8c d3 c4 3e
       0.3848235 -0.53414124 0.16265781 0.38442647
0002a0 de ee 63 3e aa d9 63 3e db 0f 4c 3e 4f 9e 79 bf
       0.2225909 0.22251001 0.19927923 -0.97507185
0002b0 a8 98 02 3e 3b 1e 06 3e 68 ff b5 3e 6d 2d 65 3d
       0.12753546 0.1309747 0.35546422 0.055951525
0002c0 3c d0 f4 3d 8d b8 10 3e 4b d0 6b 3e 51 01 36 3e
       0.1195378 0.141329 0.23028676 0.1777394
0002d0 3b 8d 94 3e 4e 80 78 3e 0b 95 02 3f d8 d2 55 3f
       0.29014 0.24267694 0.5100867 0.8352485
0002e0 80 c3 be be da f8 86 3e 07 3a fd 3d b0 72 bb 3e
       -0.3725853 0.26361734 0.123645835 0.36610937
0002f0 03 b9 5e 3e 9c a3 c0 3d 7e 70 4b be d8 f2 91 3e
       0.21750264 0.09406206 -0.19867131 0.28505588
000300 f7 16 8c be fa 2b 26 3e 45 9e 95 3e 9d 46 5b 3e
       -0.2736127 0.16227713 0.29222313 0.21413656
000310 f0 20 51 3e 27 e0 1d 3f bd d3 20 bf a8 0b 32 3e
       0.20422721 0.61670154 -0.62823087 0.17387259
000320 bf 82 32 3e 9b 7f b4 3e 51 cd b5 3e 57 d7 f2 be
       0.17432688 0.35253605 0.35508206 -0.47429916
000330 2a e8 81 3f 18 33 33 3e b2 70 49 bf fa f6 8d 3e
       1.0148976 0.1749996 -0.78687584 0.2772749
000340 4f f7 24 3f 5c a3 d8 be 50 4a cc 3d c4 76 07 3e
       0.6443986 -0.42312133 0.099751115 0.13228899
000350 16 13 2f 3e 67 5d c6 3d 94 93 19 3d b4 53 24 3e
       0.17097124 0.09685784 0.037494257 0.16047555
000360 d9 90 77 be 60 be 5a be 58 59 b4 3e 5b 34 00 be
       -0.24176349 -0.21361685 0.35224414 -0.12519972
000370 5c 79 e7 3e c6 2b 1c 3f eb b7 ea 3d 6d 79 4b 3e
       0.45209777 0.6100429 0.11460861 0.19870539
000380 9f 05 5a 3e e2 e4 d0 3e 20 f1 f4 bd f1 b1 8a 3e
       0.21291207 0.40799624 -0.119600534 0.27088884
000390 9d 06 b3 bd 8a 9e 4e 3e 90 f1 a1 be 53 bf 91 3f
       -0.08741496 0.20177665 -0.3162961 1.1386513
0003a0 58 ae 23 3e 8d 52 f4 be f7 b4 fb 3d f3 2b 86 3e
       0.15984476 -0.4771923 0.12290376 0.26205406
0003b0 d9 c4 be be 4c 93 3b 3e 97 33 de 3d f9 35 90 3e
       -0.37259558 0.18317908 0.10849684 0.28166178
0003c0 47 80 3b 3e fb 90 97 3d e5 72 89 bd 72 40 7a 3d
       0.18310653 0.074007 -0.067113675 0.061096616
0003d0 fd d5 43 3e 13 c6 4b 3e 31 78 5d 3e 4f d3 b8 3d
       0.19124599 0.19899778 0.2162788 0.09024679
0003e0 f9 74 05 3f 65 74 c6 be 43 45 a6 bd 5c ef b9 3e
       0.5213161 -0.38760677 -0.081186794 0.3631543
0003f0 a3 52 19 3e 55 0d 05 3e 26 ca 09 3e d2 b2 41 bf
       0.1497293 0.12993367 0.1345602 -0.75663483

q_netwrok.6.bias f4 [13]
000000 99 75 c0 3e 23 ad 29 3f a3 80 34 3f 49 68 34 3f
       0.3758972 0.6627981 0.70508784 0.70471627
000010 76 eb 3c 3f 57 cc 48 3f a4 56 2e 3f 01 23 f4 3e
       0.73796785 0.784368 0.68100953 0.47682956
000020 06 76 e5 3e 70 2c 50 3f ab 14 c6 3e 11 69 f0 3e
       0.44816607 0.81317806 0.38687643 0.4695516
000030 30 0f 58 3f
       0.84398174
