RL code/rlcodes/q-learning/dqn_walker_models/checkpoint_episode_4000.pth (torch, 562285 bytes, 8 tensors)

q_netwrok.0.weight f4 [256, 17]
00000000: a2b6 663e 7358 15bf 4db1 d0be f43a 2c3e
00000010: 6eaa c1be e5a4 20bf de59 e73d a9f5 15be
00000020: c6fe 50be 5fc4 5fbe b5da 453d 0dbc edbd
00000030: d470 8c3d 3107 76bb ccd6 be3d 09fc 303d
00000040: 0623 59bc 0702 e83e 24e7 a33e 5010 2a3e
00000050: 5063 cf3c 2c23 093f 1479 f53e d659 693e
00000060: c380 133f 77d6 f8be da59 903e c10f 323e
00000070: c7ee 95be ea0a fbbd 9413 c7bd baa9 343e
00000080: 2755 023e d444 ab3c 7ea6 aebe ba77 243f
00000090: 91eb 57be 1ba9 bcbe 09d6 81be b3cc 31be
000000a0: ea74 d3be 2f21 373e a80f 7d3e 4a58 bbbe
000000b0: 9339 f63d fe5c 0ebd 1c1d eebc 1170 af3d
000000c0: e583 babd 1016 9dbd e730 743c b28c 43bf
000000d0: a755 d3be 4a49 33be 4d0d 99be cd0f b53d
000000e0: 122f 8abe bc4e 07be c5bb d93d a0ec b3be
000000f0: 48ad 4abd 74b2 b0bd 7d57 14bc fec5 1fbd
00000100: 3fe5 b2bd c21d 8e3d d435 cbbc e935 963d
00000110: ab41 143f 1099 783f d315 20be c348 00be
00000120: 654b c4bd ac38 48bc fa04 9a3c a5dc 9e3d
00000130: b11b 9bbd fb75 51be 796c eebd d361 263e
00000140: 979b ee3d 77a5 e53c 78a4 4ebd 7276 fc3b
00000150: c0a7 a9bc 6ece 183f 21cb f23e c365 1d3e
00000160: 24e3 f8bd afea 313e 11b8 953d e9cd 83be
00000170: bf76 043d d1cc 543d f01a e2bc 2280 43be
00000180: f012 223e 4fc5 4f3d c012 1abd 7ebb 0b3d
00000190: 728c 1c3d 3007 6bbc 9c77 103d 592c 32bf
000001a0: 1a88 a63f a850 8ebd 401e 92bc f070 a2be
000001b0: e5d3 d13d 75ee 19bf aeb3 09be 8685 b8be
000001c0: c6c4 b2bd 05ec 063e 39ff a03d 2c8e c53b
000001d0: 6052 083e 0ecb 783d e618 283d a85e d03e
000001e0: 6462 213f 0736 973d f67a 113e 6f20 24be
000001f0: 5194 bbbd e80a f4bd b0ac 81bd 28e1 d4bd
00000200: d071 803d 804e 4c3e e780 cebd 33b0 2cbe
00000210: eedd 05bd 5fdb debd b6f0 e9bd d80f 67bc
00000220: a4c9 56be 10b1 66bf f04c e9be 0a71 df3e
00000230: b5df 5bbe d4dd cf3d 5225 b2be c04c 07be
00000240: f4b6 d4be d6e6 28bd 36f9 82bd 689d 293e
00000250: 2247 9d3d 51a4 053d 226d 94bd b91f 673d
00000260: 54d2 88bc 2a2a 863e 3544 673d 802b 273f
00000270: 9541 bd3e 5ff8 103f fee8 94be b7ac 80be
00000280: 05e3 a3be defc 63be aa8c 803d ba04 f23d
00000290: 3702 70bd 1fe6 1f3d 30c4 d53c a90f ff3b
000002a0: a8d1 4e3c 9d19 aeba c1ca 323c e43d 9dbf
000002b0: 1f53 cebe cc09 9e3e 2036 0fbe 47ca 47be
000002c0: b73f dfbd 4c21 2f3e 85dd 24be 58f2 c63e
000002d0: caff 60be 59c5 1dbd 247c 7e3c 64d5 a7bc
000002e0: 66ed ed3d 4beb 713d dc04 493d 70d1 883e
000002f0: bab6 d73e 8a2d 133f 37c4 17bf 6b10 773d
00000300: ca47 8fbe db8f ab3e 6a41 8e39 ad41 81bf
00000310: d5f0 083e b557 a93d e155 39be deac a7bc
00000320: 681e 18bc 32dd 213e 0744 563a cbaf c9bc
00000330: 548b e53e d281 173f da48 15be 38eb ddbd
00000340: 3cf9 b73d 0d91 853d 2f55 f43d 8054 f83d
00000350: 8a30 663e b10f 183d 4664 99bd cb60 553e
00000360: af29 9f3d 05e6 713c 74a4 18be 4ee4 a2bd
00000370: 8407 123d 9bad a03e 408d 243f 51d5 2ebf
00000380: 7c4b 05be 8497 37bf 62b3 2ebe c239 2abd
00000390: 0361 a2bd 0985 8b3e 1d0c 45be c1f4 143d
000003a0: 5909 edbc 6ad6 683c 3f69 75bd 4e4b e1bb
000003b0: b4c0 91bb 4e07 003d 3caf 87be d29b c03e
000003c0: d330 f6be 9cf7 9cbe 546b 23bd e8c0 b33e
000003d0: 54cd 703c 3f9b 94be f56d a43e f1b1 efbe
000003e0: 1b60 84bc fa33 0e3e 722d 3d3e c9c3 afbd
000003f0: c184 abbd 907c 6d3d c31b 8ebd 5ebe 213e
0.22530606 -0.5833809 -0.4076027 0.16819364 -0.3782534 -0.6275161 0.11296438 -0.14644493
-0.20409688 -0.21852253 0.04830428 -0.116081335 0.06857458 -0.0037540908 0.09318313 0.04320911
-0.013252979 0.45314047 0.32012284 0.16607785 0.02531591 0.53569293 0.47943938 0.22788176
0.5761835 -0.48601124 0.2819355 0.17388822 -0.29283735 -0.12257941 -0.09720531 0.1764287
0.12727796 0.020906843 -0.34111398 0.6424519 -0.21085955 -0.36847767 -0.25358608 -0.17363243
-0.41300136 0.17883752 0.24713004 -0.36590797 0.120227 -0.034756653 -0.029066615 0.08566297
-0.09107188 -0.07670224 0.014904237 -0.7638656 -0.41276285 -0.17508426 -0.2989296 0.088409044
-0.26989037 -0.13213629 0.10631517 -0.35141468 -0.04948166 -0.08627787 -0.009054062 -0.03900718
-0.087351315 0.069392696 -0.02480594 0.07334501 0.579127 0.97108555 -0.15633325 -0.12527756
-0.09584693 -0.012220543 0.018801201 0.07756928 -0.07573641 -0.20455162 -0.11641783 0.16248254
0.1165077 0.028033001 -0.05044982 0.0077045495 -0.020709872 0.59689987 0.474206 0.1537085
-0.12152699 0.17374681 0.073104985 -0.25743034 0.032339808 0.05195314 -0.027600735 -0.19091848
0.15827537 0.050725278 -0.037615538 0.034114353 0.038219877 -0.014344975 0.03527032 -0.6959892
1.3010285 -0.06948978 -0.01783669 -0.3172679 0.10245494 -0.6012948 -0.13447449 -0.3603937
-0.08728938 0.13175972 0.0786118 0.006028911 0.13312674 0.060740523 0.04103937 0.40697217
0.6304076 0.07383352 0.14207062 -0.16027997 -0.091591485 -0.11916143 -0.06331766 -0.10394508
0.06271708 0.1995182 -0.1008318 -0.1686409 -0.03268235 -0.108816855 -0.11422865 -0.014102899
-0.20975357 -0.90113926 -0.4556651 0.4364093 -0.21472056 0.10149732 -0.34794098 -0.13212872
-0.41545832 -0.041235767 -0.063951895 0.16563952 0.07679583 0.032627407 -0.07247378 0.056426737
-0.016701855 0.26204044 0.05646153 0.6530075 0.36964098 0.56628984 -0.2908401 -0.2513177
-0.3200914 -0.2226443 0.062768295 0.11817308 -0.058595862 0.03903782 0.026094526 0.0077838493
0.012623228 -0.001328278 0.010912598 -1.2284513 -0.4029779 0.3086685 -0.13985491 -0.19510756
-0.109008245 0.17102545 -0.16100128 0.3885677 -0.21972576 -0.038518284 0.015532527 -0.020487495
0.11617546 0.059062283 0.0490769 0.26722288 0.42131597 0.5749136 -0.59283775 0.06031839
-0.27984458 0.3350819 0.00027133088 -1.0098168 0.1337312 0.08268682 -0.18099166 -0.020468172
-0.009284593 0.15807036 0.0008173589 -0.024619957 0.4483286 0.59182465 -0.14578572 -0.1083588
0.089830846 0.06521807 0.1193031 0.12125492 0.22479454 0.03712434 -0.07489829 0.20837705
0.077716224 0.014764314 -0.14906484 -0.07953702 0.0356517 0.3138245 0.6427803 -0.68294245
-0.13017076 -0.7171557 -0.17060617 -0.04155899 -0.0792866 0.27249935 -0.19242902 0.036366228
-0.028935121 0.014211277 -0.059914824 -0.006875432 -0.004448021 0.031256966 -0.2650088 0.3761888
-0.48084125 -0.3065766 -0.039897278 0.35108113 0.014697392 -0.29024693 0.3211514 -0.46815446
-0.016159108 0.13887015 0.18474367 -0.08582265 -0.0837493 0.05798012 -0.06938889 0.15795276

q_netwrok.0.bias f4 [256]
00000000: 74f1 633d 08f3 18be 47fa 14bf cd90 c6be
00000010: e1b1 3c3f 5033 553f 84d0 a33e 7e12 233f
00000020: 29cb 71be d705 093f 8eec 01bf b4ec 68be
00000030: cb0a 313f 78eb 70be bcd5 05bf b348 ce3e
00000040: 8b1b 353f 9615 333e e8c7 113f ddf2 a33e
00000050: 6c37 82be e534 3b3f c165 41be 7503 323f
00000060: 24be 3e3f 8f92 54be c242 c43e a0f1 373d
00000070: bcb2 793e 98bb a1be 2f86 483e c1f7 e43d
00000080: 625b 62be d170 0fbf 4c02 fd3d 0add 2a3f
00000090: 3fe7 053e 21e3 3a3e 5ef1 e1bd 9d39 cb3d
000000a0: 342b 05bf 56c1 c0be 85d3 4b3f c706 143f
000000b0: 1d2f 30bd ed28 28bf 449e 64be 6977 ba3e
000000c0: 9b5a 273f 2125 273e 28e6 15bf 4ca9 1dbf
000000d0: 79f9 8cbe 99d4 52be 48b8 e3bd c5e8 2d3f
000000e0: 290c 60bd c1c6 f93e 34b9 b33e b7f3 b53e
000000f0: f744 443f 78ac 50be 2069 0fbe 5ff6 373f
00000100: 7c13 6abe bc05 c3be 4906 a93d 1eff 603f
00000110: d0a1 39bf a6c8 a6be 30b0 b63c fa30 043f
00000120: 4ade 95be 9dc2 5bbd c43e 07bd 6355 fabe
00000130: de60 ca3e b98b cfbe ad8f 02bf 6251 78be
00000140: 92ac 37bf d817 973e ec4c 01be b838 a93e
00000150: 9e37 0a3e d22e 583f a20b 19bf 7da5 ffbe
00000160: d9b2 133f 63ff aabe 954b 193e 8c4f b5be
00000170: 5195 b1be de02 e43e 24ef 0ebf 0532 833d
00000180: dd30 05bf 75c3 42be 914f 4b3f bbff a73e
00000190: e34e 0fbf adfc dcbe 06aa 34be 49a4 ea3d
000001a0: eae7 173f 7cb0 2c3f c067 c73c 71f7 cebd
000001b0: ceb6 94be 498f a53e 859f 7d3d ceb9 243e
000001c0: 6a51 163e dd31 46bd 65ec be3e 1930 65bf
000001d0: 115b e1be dab7 333f dbc5 c53e 7042 1bbe
000001e0: 45e1 f5be bcf4 41be 2267 903e 8e09 dcbe
000001f0: 9125 f53e 8263 79be 07a6 e83d 4bd7 c7be
00000200: d11b f9be 6a89 fe3e 61f1 1a3f e386 263f
00000210: b37c 2b3e 43ff ebbe f340 9b3d 53b7 33bf
00000220: bad6 7b3e 49a9 2c3f d17f e03e 4a4c 543e
00000230: fa9f cb3e 557e a43e 4742 a1be 070f 0bbf
00000240: abe5 0fbf c408 af3e 54ac 28be afd2 043f
00000250: dd72 8cbe 623c f13e 8b7e 093e b548 583f
00000260: 150a 0cbf 2e97 f3be 221a c2be 967f 5c3d
00000270: 6d11 1abf 3415 773e fd10 1ebf ed49 ea3e
00000280: 6158 36bc bdf5 2e3e 94af 163f 6cae 5d3e
00000290: ec96 1fbf 3d8e 333f 7c5d 693e 4ec0 55bd
000002a0: 4b33 f6be 0000 533f 44c8 8e3e 0be7 413e
000002b0: 170d 1cbf 6f6d 89be 60c2 84be 69be f2be
000002c0: 2f8b 00bf a055 9abe acfb 92be 1be1 1b3e
000002d0: b9ce 4d3f df98 46be 7a6c 103e dd0f 0abf
000002e0: 9afe 20bf d9b1 7e3e f6dd 603f d446 07be
000002f0: 4ccc fabe 754d 1cbe 7e4a b43e e2a2 8dbe
00000300: 6fc2 9d3e 994c a9bd 1478 003f 3a19 81be
00000310: 914f c7be 517c 8d3d b43f 02bf d0f4 10bf
00000320: 1286 543e 3882 83bd 9285 383e 8847 82be
00000330: 9e02 87bd 8e6c 4c3f d372 273f ecdb 7ebe
00000340: 9cdb 44be 41fe 18bf e8f0 473f 25c3 b2be
00000350: b2f2 21be 900d ea3e b6cd 7b3e 0663 0dbf
00000360: 60fe d6be 2e9a 9ebe 5866 54be 1d80 1bbe
00000370: 8fea 19be 8364 673f bc69 1dbf f953 fcbe
00000380: 88d0 61be 2e7a 5b3e 077a 9cbe 1193 febd
00000390: 64a3 c1bd d86d c93e ed79 85be 9e07 d0be
000003a0: db5e cfbe 0f29 86bd b888 b9be 25c1 6dbe
000003b0: 132c 2cbe b1af ba3e c872 8fbe 43e0 1e3d
000003c0: f2e1 323f 1176 0f3f 6d08 cdbe 4082 16bf
000003d0: 8408 6cbe e95d 873e 85a6 f53d de6e a3be
000003e0: 1767 d63e 329d 2f3f c0d0 32bf 02c7 ccbe
000003f0: 5a07 473f dfc0 fbbe 5516 04be ddeb 483f
0.05565019 -0.14936459 -0.5819439 -0.3878235 0.7370892 0.8328142 0.31995022 0.6370009
-0.23612656 0.53524536 -0.5075158 -0.22746545 0.69157094 -0.23527324 -0.5227926 0.4028984
0.7074515 0.17488703 0.5694566 0.32021227 -0.2543291 0.73127586 -0.18886472 0.69536525
0.7450888 -0.20759033 0.38332182 0.044908166 0.24384588 -0.31588435 0.19582437 0.11180068
-0.22105172 -0.5603152 0.12353954 0.6674353 0.13076495 0.18250705 -0.11032365 0.09923098
-0.5201905 -0.37647504 0.7961963 0.5782284 -0.04301368 -0.6568745 -0.22325999 0.36419228
0.6537263 0.16322757 -0.58554316 -0.6158645 -0.27534083 -0.20588912 -0.11119133 0.67933303
-0.054699097 0.4878445 0.35102236 0.35537502 0.7666773 -0.20378292 -0.14004946 0.7186031
-0.22858995 -0.38090312 0.08253152 0.8788928 -0.7251253 -0.32574958 0.02230081 0.5163723
-0.29271156 -0.053652395 -0.033018842 -0.4889327 0.3952703 -0.40536287 -0.5100048 -0.24249795
-0.71747696 0.2951038 -0.12627 0.33051085 0.13497779 0.8444644 -0.59783375 -0.49930945
0.57694775 -0.3339797 0.14970239 -0.35412252 -0.34684232 0.44533437 -0.5583365 0.06406025
-0.52027684 -0.19019873 0.79418284 0.32812294 -0.55979747 -0.43161526 -0.17642984 0.11457116
0.5933825 0.67456794 0.024341464 -0.101057895 -0.2904572 0.3233588 0.061919708 0.16086504
0.14679495 -0.048387397 0.3728973 -0.89526516 -0.4401479 0.7020241 0.38627514 -0.15162063
-0.4802343 -0.18941015 0.28203684 -0.4297604 0.47880223 -0.24354365 0.11359792 -0.39031443
-0.48654035 0.49714214 0.60524565 0.6504957 0.16746788 -0.46093187 0.075807475 -0.70201606
0.2459363 0.6744581 0.43847516 0.20732227 0.3977049 0.32127634 -0.31495878 -0.54319805
-0.5620982 0.34186375 -0.16471988 0.5188398 -0.27431384 0.4711638 0.13427179 0.8448594
-0.54702884 -0.47576278 -0.37910563 0.053832613 -0.6018284 0.24129182 -0.6174467 0.45759526
-0.01112947 0.17085929 0.5886166 0.21648568 -0.62339664 0.70138913 0.22789568 -0.05218535
-0.48086008 0.82421875 0.27887166 0.18935792 -0.60957474 -0.26841304 -0.25929546 -0.47410896
-0.5021238 -0.30143452 -0.28707635 0.1522259 0.8039356 -0.19394253 0.1410388 -0.53930455
-0.6288849 0.24872531 0.87838686 -0.13210613 -0.4898399 -0.15263923 0.35213083 -0.27663332
0.30812404 -0.08266563 0.50183225 -0.2521456 -0.38927892 0.06908477 -0.50878453 -0.56623554
0.20754269 -0.06421322 0.18019703 -0.254452 -0.06592296 0.7985314 0.6540958 -0.24888581
-0.192244 -0.5976296 0.7810197 -0.34914508 -0.15815237 0.45713472 0.24590191 -0.5522922
-0.41990948 -0.30977005 -0.20742166 -0.1518559 -0.15030883 0.90387744 -0.6148946 -0.49282816
-0.22052205 0.21433327 -0.3056185 -0.124303944 -0.094549924 0.39341617 -0.26069584 -0.4063081
-0.40502056 -0.065508 -0.3623712 -0.2321821 -0.16813688 0.36462167 -0.2801726 0.03878809
0.69876015 0.5603953 -0.4004549 -0.58792496 -0.23050123 0.26438835 0.11994652 -0.31920522
0.41875526 0.68599236 -0.6984978 -0.3999558 0.7774559 -0.49170586 -0.12899144 0.784849

q_netwrok.2.weight f4 [256, 256]
00000000: d2d6 783d f4bb 90bd d8d7 e43d 4db4 003e
00000010: a6db 08bf ab33 42be 5470 253e 941f 09be
00000020: a753 bb3e a8f8 f33b cbfd b13e 27fc d43d
00000030: b5b7 7fbe 92d1 30bc 5220 21be 6420 93bd
00000040: 0b4c 39bd b6cf a1be bd1a 94be f92b 55be
00000050: 229d 2b3e 96df 16bf 0153 30be 6481 50be
00000060: a5b2 3c3d 968d 39be 8c7b f8bd 6763 ccbd
00000070: 3899 96be 36c9 853e 83a0 c1bd bcf5 74bd
00000080: a2ac e73c e26c e53d 088f 2dbc 7a41 3e3c
00000090: e981 d9bc 8cec acbd 14f6 1ebf 93c1 903d
000000a0: 7b65 5c3e 53c7 41bd 1da5 42be 1a91 a0bd
000000b0: 2aeb bdbc 274e 063e 2266 aebc 30f8 56be
000000c0: d609 5ebe 24c9 693c 8300 123d da7c f73d
000000d0: 03a5 563e eb34 ac3e 453b b73d 5e02 7bbe
000000e0: 098f 98be 331b 9abe 8630 6d3c 03c8 16be
000000f0: 72ab 7abd eb8a 133e ca5d 043e 3e55 48bb
00000100: aa8f f03d 4f08 353e e1a9 2c3e cd93 46be
00000110: ff76 0f3e 270f 9cbe dda7 34be 8ceb 5bbe
00000120: 7723 413e 6c2a 603e b77d b3bd 4c9d 04be
00000130: 187c 98bd 4366 09be acc7 ab3d 1349 1fbf
00000140: 1e9d e4be 0ebe d3be 9e4b b53d d7a7 87bd
00000150: ab5a ccbd 248f ccbc 7bb9 363e 99ff db3c
00000160: 1690 1ebe 25fa 853e 4d29 113c be1d 4d3c
00000170: 9c6c 4a3d aa9c 0cbe 31b0 443e 3d21 9fbd
00000180: 1c58 babe 9917 f6be 00a5 a5be 3ff7 abbd
00000190: 62a6 60be e9d2 833e 8211 72be 6f88 14be
000001a0: 39b2 c23c 5c3c 1cbd 14d0 3ebe 8173 793e
000001b0: 5ca3 cebe 354f 223e 1a49 78be 2c44 73bd
000001c0: 4dd2 723e e2fa 9dbe 5afa 36be d8a9 e5be
000001d0: bc88 b23e 6441 98be 73be 8fbe df64 bdbd
000001e0: 0870 943e 0fac b3be 26a9 d9be ea23 743c
000001f0: 0fa4 4abe cd0f 90be 990a 1d3e 3859 cc3d
00000200: 8159 a13e 8c9d cebe 578c 18be 3372 3ebe
00000210: e6e0 a23c f8ae af3e e1df 843b e4bb 7b3c
00000220: 558f cdb9 5247 1d3e 979d 393d 496b 413e
00000230: 948a 52be 1ec6 90be 2f63 97bc e5b3 473e
00000240: 6fbe bf3e c752 80be 7b06 e53e 589b 2dbe
00000250: c61c 34bd dd4d df3d 7634 41be 7649 45bc
00000260: e9d5 383e a7fd 4c3c 462b c93e 756b a13e
00000270: 2921 4dbd 0749 13bd c2ab 48bd cd88 703c
00000280: 8cf5 87be c751 4cbe 0019 80be 6f77 9dbe
00000290: 840f 513e 8e83 ffbd f61c 11bc 5d70 ddbd
000002a0: a6a3 623e 664c 8ebd ef6f 84be bd24 46be
000002b0: c457 873e 73a3 47be 1466 ddbd 8efc 193e
000002c0: 8124 583e 2746 73be 4ba0 fcbd ddc1 7abd
000002d0: 7362 2abe d3b0 4cbe 7cb5 2f3e 3a05 ca3d
000002e0: 37be ddbd 4e9e 14be 1b62 91be 2053 373d
000002f0: a395 cc3d f5af 8ebe 18a3 8fbe 5b23 66bd
00000300: 359a 883e 3198 9cbe 014f 19be 2033 6b3e
00000310: 804e 9ebe 45b7 48be a917 1b3f bb6e c93d
00000320: 0381 2b3e 048d 5b3e 1fb1 4cbe 746f 49bd
00000330: b9b9 b6bd 212c 80be fa03 77be f1a7 793d
00000340: a99a 9abe 085b b93d 4a6c f53d bf87 903e
00000350: 521f 563e 7172 46be 8a1f 76be 61eb 6b3e
00000360: 2a7c 273e 6d5b d83e a153 533c 9a31 f2bd
00000370: bcfb 563b 5f84 0abe a6db d23d 0ad3 563e
00000380: b982 933e 64e8 85bd 423b 733c cb69 163e
00000390: 5227 89be f973 9a3d 7573 1d3e 0c3b 673e
000003a0: a68c c9bd e00a 7bbf f9de 823e 42cf 64be
000003b0: 04f1 193d c5c4 61bd 6ae5 033e de4e 1fbd
000003c0: e348 0bbe c37c 36be 4c4a c3be 55cb 753e
000003d0: b7b1 1cbd 81a1 49be 78b9 cb3d 1af1 903d
000003e0: 26c9 4f3c c398 ecbe e820 84be 9b88 e23d
000003f0: 9684 e03b 12c7 163e 9f7b 32be 9547 22be
0.060751744 -0.07067099 0.111739814 0.1256878 -0.53460157 -0.18965022 0.16156131 -0.13390952
0.3658726 0.0074454136 0.3476394 0.10399657 -0.24972422 -0.010792153 -0.15734985 -0.071839124
-0.045238536 -0.31603783 -0.2892665 -0.20817555 0.1675916 -0.58934915 -0.17219163 -0.20361859
0.046068806 -0.18120417 -0.1213294 -0.09979897 -0.29413772 0.26130074 -0.09454443 -0.059804663
0.02828056 0.112024084 -0.010593183 0.0116122905 -0.026551204 -0.08443555 -0.62094235 0.07068171
0.21523087 -0.04730923 -0.19008298 -0.07840176 -0.023183424 0.1311575 -0.021288935 -0.20993114
-0.2168344 0.014269147 0.03564502 0.120843604 0.20961384 0.33634123 0.08946852 -0.24512622
-0.29796627 -0.30098876 0.014476901 -0.14724736 -0.06119866 0.14408462 0.12926403 -0.0030568386
0.11746152 0.1767895 0.16861679 -0.19392319 0.14010237 -0.3048031 -0.1764216 -0.21476573
0.18861185 0.21891183 -0.087642126 -0.12950629 -0.07445544 -0.13417916 0.08387694 -0.6222088
-0.4465112 -0.41355938 0.088523135 -0.0662381 -0.09978231 -0.024970599 0.17844193 0.026855277
-0.15484652 0.26167408 0.0088599445 0.012519298 0.049419984 -0.13731638 0.19207837 -0.077700116
-0.36395347 -0.4806488 -0.32352448 -0.08396768 -0.2193847 0.2574685 -0.23639491 -0.1450517
0.023766624 -0.0381435 -0.18634063 0.24360467 -0.40359008 0.15850528 -0.24246636 -0.059391186
0.23713036 -0.3085547 -0.17868939 -0.44856143 0.34869945 -0.2973739 -0.2807499 -0.09247755
0.28991723 -0.35092208 -0.42511863 0.014901141 -0.19789146 -0.28137055 0.15336074 0.099779546
0.315136 -0.40354574 -0.14897285 -0.18598251 0.01988263 0.34313178 0.0040550088 0.015364621
-0.00039207438 0.15359238 0.045316305 0.18888582 -0.20560676 -0.2827615 -0.018479912 0.19502218
0.37449977 -0.25063154 0.44731507 -0.1695379 -0.043972753 0.10903523 -0.18867669 -0.01204144
0.1805035 0.012511647 0.39290828 0.31527296 -0.050080452 -0.035958316 -0.048991926 0.014681053
-0.26554525 -0.1995307 -0.25019073 -0.30755183 0.20416075 -0.12476264 -0.0088570025 -0.10812447
0.2213274 -0.069481656 -0.2586665 -0.19349952 0.26434147 -0.19495945 -0.108104855 0.15037748
0.21107675 -0.2375723 -0.12335261 -0.06122004 -0.16639118 -0.19989328 0.17159075 0.09864278
-0.10827296 -0.14513513 -0.2839516 0.04475701 0.099894784 -0.2786862 -0.28054118 -0.05618606
0.2668015 -0.30584863 -0.14971544 0.22968721 -0.30919266 -0.19601162 0.6058298 0.09835573
0.16748433 0.21440512 -0.19989441 -0.049178556 -0.089221425 -0.25033668 -0.2412261 0.060951177
-0.3019612 0.09050566 0.11983545 0.28228566 0.20910385 -0.19379593 -0.24035469 0.23039009
0.16355959 0.42257252 0.012898357 -0.11825867 0.0032803854 -0.13527058 0.10295801 0.20978943
0.2881067 -0.065384656 0.014845671 0.14688794 -0.26787812 0.07541651 0.15376075 0.22581118
-0.0984128 -0.9806347 0.2556074 -0.22344688 0.037583366 -0.055119295 0.12880483 -0.038893573
-0.13602023 -0.1782103 -0.38142622 0.24003346 -0.03825542 -0.19690515 0.09947485 0.070772365
0.012682235 -0.46210298 -0.25806355 0.11061212 0.006851743 0.14724377 -0.1742997 -0.15847619

q_netwrok.2.bias f4 [256]
00000000: a2e2 83be 74d2 0b3f a5a6 e23e 3fbc cfbe
00000010: c08c 773e a9bf 173f f859 523e 6733 83be
00000020: 90af 83be b698 14bf c17a 033e 9fe2 683e
00000030: 085c e63e 2be2 b1be b705 acbe 1092 373f
00000040: 0a7f 90be 7c84 8e3e f93c 33be b86f 0e3f
00000050: 4cb1 11bf ca15 41bd 8374 bf3e a8d8 133f
00000060: a9d2 2e3f 0328 fc3e bdd0 d9bd cc4b b9be
00000070: de1d 3a3e 886e 213f f540 b53e cb11 04be
00000080: bda7 d6be ecc9 a4be 38c2 c6be f6b5 9bbe
00000090: 92be f23e 0618 8cbe 440f e73e 86cb 99be
000000a0: 6301 5ebe 9428 ba3e ba1e 283f 290a 9b3e
000000b0: 3189 e33c aaa9 883e 4db6 e23e 18a8 fa3e
000000c0: 526d 2dbe 79d1 a83e 0a09 ccbe 9493 0abe
000000d0: 8367 07bf 2a3c 81be 75f9 103f 9893 94be
000000e0: 44aa e53e 1349 143f 0df7 9dbe 2288 db3d
000000f0: 6798 133f b6bf 793d ac9d 933e d2e7 71be
00000100: 6e97 85be a9b0 d2be c409 693e 66b0 1d3f
00000110: 1f90 febe 9d32 e43e 2779 1f3f 8363 f73e
00000120: 318c c5be 0053 c7be 2d68 f33e e113 a63e
00000130: 1411 933e 5f5d 30be 8e8b a5be ad52 063f
00000140: 7a84 f73e 38a7 ba3e 62f9 f03d 464f 723e
00000150: cfdc 2d3e b1d2 11bf 7a96 ddbe 92ca 013f
00000160: 4d69 2d3f e347 e63e 8a54 8a3e a537 b83e
00000170: f233 dd3e cbc0 423f ab3e 063e bfee 38be
00000180: c216 8d3e f604 a8be 829c f3bd 91d0 e1be
00000190: 7995 fe3e 5516 aebe 55a1 193f 0931 eebe
000001a0: 5a55 513e 2185 d7be ba66 a83e 9960 173f
000001b0: 8180 a73e 8a7a b93e 2f33 933e e7ab 3c3f
000001c0: 6bb0 98be 080d 2d3f fa98 313f 7433 803e
000001d0: 2349 c53e d76f c13e ad49 3c3f e438 993d
000001e0: cf83 e9be db42 d63e 82b2 033f 8f34 c73e
000001f0: 65b6 08bf 2161 813e bcec 76be d4bc ae3e
00000200: b41e 4c3f 8f1e f43e a8f1 acbe f8c2 92be
00000210: e3ec aa3e 8f0c 803e 5525 27bf ace4 fe3e
00000220: f760 b3be 64e6 e73e 20b1 5e3e 3277 be3e
00000230: f041 393f 16e5 173f e036 3d3f 5c29 bebe
00000240: 125f e7be f69d b0bb 32e6 a2be 9a32 07bf
00000250: 82e4 d23e 6919 143f 91f4 efbe 37e4 a4be
00000260: 1f34 763e 0b35 553e c1d1 333f ebe4 c63e
00000270: f239 0a3f 7ace 443e df78 1f3e c2fd 3a3e
00000280: 2f2a 3d3e 6ef6 4fbe 80e2 f13e 0111 bd3e
00000290: 663a cfbe 94bc d83e 6571 0fbf 330b d1be
000002a0: 513d fcbe fc66 f7be 7707 d6be eec2 e33e
000002b0: ce46 253f 9540 233e 7a1a 103f 2fef b6be
000002c0: 0a10 913e a438 08bf fa61 23be c272 0ebf
000002d0: 367a c93d 4006 e8be f439 a43e 20a0 22bf
000002e0: 12c4 c23e 84f0 3b3f b42d 8cbe 9c61 8a3e
000002f0: c9db 123f 1d41 893e dc76 d0be 7f91 193f
00000300: 0d32 313e 98a2 fd3e 1709 fc3e 7ce9 b0be
00000310: 36d4 303f fbd2 fe3d e301 84bd caca b03e
00000320: 2dd9 853b 7110 bebe 1f4d 113f 6e90 bf3e
00000330: a598 8dbd 4280 c73e f46f 10bf b056 093f
00000340: 838f 303f 556d 02bf ba2a 1a3f 3360 bbbe
00000350: bca6 82be 1690 a13d 4a74 2d3e 541b 853e
00000360: f53e cebe ed94 c8be 7c56 d2be 9104 2d3f
00000370: 5e9d db3c a4af 2f3f 94a2 92be 2ea7 1b3f
00000380: 6865 1f3f 6067 fd3e 6212 f93e 75b6 fe3e
00000390: 9254 0abf dc99 87be 6447 b43e 8b30 c83e
000003a0: 94d8 683e 7dfb 96be be6c 193f 6414 d53e
000003b0: 0ae0 823d 9842 1b3f 0b7f 9a3e aa06 bbbe
000003c0: ab11 143e 0032 c93e d276 ffbe 2570 9cbe
000003d0: e582 d53e e1b5 c73e 939d 113f d592 0f3f
000003e0: 863a 413f aa71 f83e 9df5 d6be 718c 373f
000003f0: 6100 dfbe aa85 4d3e 1729 8fbe 7db9 643e
-0.25758845 0.54618 0.44267765 -0.40573308 0.24174786 0.59276825 0.20542133 -0.25625154
-0.2571988 -0.5804552 0.12839796 0.22742699 0.4499209 -0.34742865 -0.3359811 0.7170725
-0.28221923 0.27835453 -0.17503728 0.5563922 -0.5691116 -0.04713992 0.3739358 0.57752466
0.6829019 0.49249277 -0.10635517 -0.3619064 0.18175456 0.6305928 0.3540112 -0.12897412
-0.4192485 -0.32185304 -0.38820052 -0.30412263 0.4741102 -0.27362078 0.45128834 -0.3003809
-0.21680216 0.36359084 0.65671885 0.3028119 0.027775379 0.26691943 0.4427971 0.4895637
-0.16936234 0.32972315 -0.39850646 -0.13532859 -0.5289232 -0.25241214 0.5663064 -0.29018855
0.44856465 0.57924 -0.30852547 0.10719325 0.5765442 0.060973845 0.28831232 -0.23623589
-0.26092094 -0.41150406 0.22757632 0.6159729 -0.4971933 0.44569865 0.6229424 0.4831811
-0.3858352 -0.3893051 0.47540417 0.3243704 0.28723967 -0.17223118 -0.32333034 0.52469903
0.4834326 0.36455703 0.11766316 0.23663053 0.16978763 -0.56962115 -0.43278867 0.5069972
0.677388 0.4497672 0.27017623 0.35979953 0.43203694 0.7607543 0.13109843 -0.18059824
0.27556425 -0.32816285 -0.11895086 -0.44104436 0.49723414 -0.34001413 0.600118 -0.46521786
0.20442715 -0.42093757 0.32890874 0.5913177 0.32715228 0.36226302 0.28749987 0.736998
-0.29822096 0.6759801 0.6937405 0.25039256 0.3853236 0.3778064 0.7354992 0.07481554
-0.45608374 0.41847882 0.51444256 0.38907287 -0.5340331 0.25269416 -0.24113744 0.3412844
0.7973435 0.47679564 -0.3377812 -0.28664374 0.33383855 0.2500958 -0.6529134 0.49783838
-0.35034916 0.45292962 0.21747255 0.37200314 0.7236624 0.5933393 0.7391186 -0.3714093
-0.4518972 -0.005389924 -0.3181625 -0.52811587 0.41189963 0.5785127 -0.46866277 -0.32205364
0.2404332 0.20821016 0.70241934 0.38846526 0.5399467 0.1921939 0.15573452 0.18260863
0.18473123 -0.20308849 0.47243118 0.36927035 -0.40474242 0.42331374 -0.560324 -0.40828857
-0.4926553 -0.48320758 -0.4180257 0.44484657 0.64561164 0.15942605 0.562904 -0.35729358
0.2833255 -0.53211427 -0.15955344 -0.55643857 0.09837763 -0.45317268 0.32075465 -0.6352558
0.38040215 0.7341387 -0.2737862 0.27027595 0.57366616 0.2680749 -0.40715683 0.59987634
0.17304249 0.49538112 0.49225685 -0.34553134 0.6907381 0.12442585 -0.06445672 0.34529716
0.0040847273 -0.3712192 0.567583 0.3741488 -0.0691388 0.3896504 -0.56420827 0.536479
0.6896898 -0.5094808 0.60221446 -0.36596832 -0.25517833 0.0788881 0.16938892 0.25997412
-0.40282407 -0.3917612 -0.41081607 0.6758509 0.026808437 0.6862738 -0.28639662 0.6080197
0.6226411 0.4949293 0.48646837 0.4974858 -0.54035294 -0.26484573 0.35210717 0.39099535
0.22738868 -0.29488745 0.5993155 0.4161712 0.06390388 0.6064849 0.3017505 -0.36528522
0.14459865 0.3929596 -0.4989534 -0.3055431 0.41701427 0.3900595 0.56881064 0.5608342
0.75479925 0.4852422 -0.41984263 0.7169867 -0.43554977 0.2007052 -0.27961037 0.22336383

q_netwrok.4.weight f4 [256, 256]
00000000: eee6 08bf 64c7 4f3d 56c4 a53d fa6c 32bf
00000010: 08a7 4f3d 8d2b a43d 818a df3d 397c 57bf
00000020: 8c58 bdbd 62ac 06be d468 fa3d 4563 44bb
00000030: 4fd3 193e 62ab f2bd 8903 1cbf 64b4 e63c
00000040: 757f 91bb 9d7e ef3d ad47 6ebf c232 d93d
00000050: 152d 9abe 8dbf 60be dd36 ac3d f1d2 a23d
00000060: eedc c53d 16da a03d 3bf1 f9bc 6cf4 a1bd
00000070: 2c49 6d3d 074a e13d 006a c5bc be5e dfbd
00000080: f9a5 cabe d885 3cbf cd11 4dbf 16b7 8abe
00000090: 083a d33c d57d febe cb6a be3d c2aa c0be
000000a0: 312d c3be 19f2 c33d 1510 933d 2fd9 f3bd
000000b0: 33e7 973d 86ec 033e bac1 263e 3789 423d
000000c0: a68d 3bbe 3a51 9e3d d1e8 87be 5e85 54bb
000000d0: 717d 23bf 7a45 9dbd e800 8b3d 4670 f6bc
000000e0: 5ee5 b53b 103b 283d 0f3d 7cbe 64aa 37be
000000f0: 6c82 063e 48e2 babd 1788 683a d42f e8be
00000100: b0b1 2dbf 6bff 89bf 12f5 e33d 5dee e53d
00000110: 18a3 6dbe 7453 1c3e a815 bb3d acd2 d23c
00000120: 2bdc ccbc 9438 61bf adc1 a13c 6b2e 8f3d
00000130: 8f29 e03d 4022 11be bc9a 74bf c866 573c
00000140: 4b38 f93d 9306 e23d 10fb 33bd 6e90 6c3b
00000150: cf82 243d 5762 51bf a68f edbe faea 363c
00000160: e8a8 28b7 fd98 c33b bc46 37bc 9aca b2bc
00000170: a4d2 c4bc 7015 093d 73c1 aebd ce9e 99be
00000180: 0273 0fbe 65ba 9ebe ad0b 78be f281 28be
00000190: ebe3 9c3b 170a 9ebe 0cad a83d b767 4dbe
000001a0: ac33 373e 2c36 cfbd 8d8a 91bd 8b08 e33d
000001b0: a48f 063d f759 253e 83d8 603e 8bbb 7a3d
000001c0: edec 9cbe 28ce b43d e424 2e3d dd15 82bd
000001d0: 3833 de3d e615 d13e 5b6a 233e 71af b8bc
000001e0: 0d67 98bd 7ada 003e 710d 093e aea9 b53d
000001f0: 4a0b 1dbe 9c81 753d a9a6 89bf b497 153d
00000200: 3794 463e 765e 223e d965 aebe 06a9 a1be
00000210: 37e5 753d 0790 f33b fa2c 2fbf 3773 aa3c
00000220: 0f26 c0bf 3511 703d 9276 adbc 9dc6 233d
00000230: 583e 513d adfc 703d f595 643d 1d81 07bf
00000240: 5e79 52be 8286 2bbd 15d5 82be 5ff7 33bf
00000250: 9443 72bd ffd8 553d 6c81 babe d17a e6bd
00000260: 74b0 a23c 1614 0dbd 08ee 353e d7b3 b63d
00000270: a0f1 db3d ff8c 773c b34c 683b 0089 be3d
00000280: e127 a3bd 89f4 01be 3dc4 45bc c3d8 20bd
00000290: e72b f3bc 18e5 b2bd eb1b 9fbe a46b 8cbf
000002a0: da00 0fbf c1be aabd 374e 91bf ccd5 953c
000002b0: 2681 a03d 6817 7e3d 04be ef3c a7f8 1bbf
000002c0: f457 8abe f856 04be 55e9 a73c f664 a9be
000002d0: 80ce f4bd ebec d0be ca3d b03d f5c7 a6be
000002e0: ff99 2dbd 270f 343e 13b0 3bbf a592 0a3e
000002f0: def0 d63d 1089 33bd 3f3d 6ebf 6192 e33d
00000300: a676 6c3d b975 903d 2f39 123d b981 d8be
00000310: 6b0b 1b3d f812 d83d 0e43 aabd ac30 2a3e
00000320: 86e6 a7bd c62d 8fbf e4db 753d 88bf ec3c
00000330: 9c04 4cbf 34f6 943d e075 50bc f1e6 783e
00000340: 6c72 503d 29e2 debe 0ff5 923c 6f7a 45bf
00000350: fbcd e6be ee09 71bc 4f95 bd3d 1c10 c9bc
00000360: b775 5fbf 2803 a23d 4098 00bf ac10 993d
00000370: 9dc2 173e 77cb 8e3d d718 88be 7bfb 29bc
00000380: a6e7 623c 32b5 df3c 2189 773d b957 be3d
00000390: 94dc 87be c439 8abf 2321 1d3e 6756 b43d
000003a0: 8c64 5e3e a3a1 9abf 6bc4 803e 427a 5fbc
000003b0: b8c9 5f3d 2c53 bc39 37b3 3639 35c9 36bf
000003c0: 91d3 bf3c 161c 943c b236 f1be e17c bfbd
000003d0: a262 293d b0bb f53d d2bd c43d d8f9 be3d
000003e0: bb49 253e 1637 7c3c 80ca 70bf f9f8 593d
000003f0: 2d7e 56bf bdd5 8a3e a687 70bf f2f5 e0bd
-0.5347737 0.050727263 0.08094089 -0.69697535 0.050696403 0.08016119 0.109150894 -0.84173924
-0.092454046 -0.13151696 0.12227026 -0.0029966396 0.15022014 -0.11849095 -0.60942894 0.028162189
-0.004440243 0.116940714 -0.9307812 0.106053844 -0.3011252 -0.21948071 0.08408902 0.0795039
0.096612796 0.078540966 -0.030510535 -0.07907948 0.05793111 0.11000448 -0.024098396 -0.109067425
-0.39579752 -0.7364173 -0.80105287 -0.27092808 0.025784507 -0.49705377 0.09297713 -0.37630278
-0.38120416 0.09567661 0.07180802 -0.11906659 0.074171446 0.12883195 0.16284838 0.04749414
-0.18315753 0.077303365 -0.26544812 -0.0032428126 -0.63863283 -0.07679267 0.06787282 -0.030082833
0.0055510243 0.04107195 -0.24632667 -0.17936093 0.1313569 -0.09125191 0.00088703766 -0.4534899
-0.67849255 -1.0781072 0.11130728 0.11227105 -0.23206747 0.1526621 0.0913499 0.025735222
-0.025007328 -0.87976956 0.019745672 0.069912754 0.10945427 -0.14173222 -0.95548606 0.013147064
0.1216894 0.1103641 -0.043940604 0.003609683 0.04016381 -0.8179068 -0.46398658 0.011164421
-1.0052907e-05 0.0059691654 -0.011186298 -0.021825124 -0.024026223 0.03346771 -0.08532991 -0.3000397
-0.14008716 -0.31001583 -0.24223204 -0.1645582 0.004787912 -0.30867073 0.08236131 -0.20059095
0.17890805 -0.10117754 -0.071065046 0.11085614 0.03285183 0.161476 0.21957593 0.06121401
-0.3064951 0.08828384 0.04251565 -0.06351826 0.10849613 0.4083702 0.1595854 -0.022544594
-0.074415304 0.12583342 0.13384034 0.088702545 -0.15336338 0.05993806 -1.0753986 0.03652163
0.19392477 0.15856346 -0.3406208 -0.31574267 0.06003305 0.007432941 -0.68428004 0.020806892
-1.5011615 0.05861016 -0.021174703 0.039984334 0.051084846 0.05883472 0.055807073 -0.52931386
-0.2055411 -0.041876324 -0.25553194 -0.70299333 -0.05914648 0.052208897 -0.36426866 -0.11253894
0.01985953 -0.034442984 0.17766583 0.089210205 0.10739446 0.0151093 0.0035446107 0.093034744
-0.07966591 -0.12690939 -0.012070713 -0.03926922 -0.02968402 -0.087351024 -0.31075987 -1.0970349
-0.55860674 -0.08337165 -1.1351994 0.018290423 0.07837133 0.06203404 0.029265411 -0.6092629
-0.27020228 -0.12923801 0.020497004 -0.3308484 -0.11953449 -0.40805754 0.08605535 -0.3257443
-0.04238319 0.17583905 -0.7331554 0.13532503 0.104951605 -0.043831885 -0.93062204 0.11111904
0.05773034 0.07053704 0.035699066 -0.4228647 0.037852686 0.10550493 -0.08313571 0.1662013
-0.08198266 -1.1185844 0.060024157 0.028899923 -0.79694533 0.07273522 -0.012723416 0.24306847
0.05089037 -0.43531922 0.017939119 -0.77139944 -0.45079026 -0.01471184 0.09256994 -0.024543814
-0.87288994 0.07910758 -0.50232315 0.07473883 0.14820333 0.069724016 -0.2658145 -0.010374899
0.013849175 0.02730808 0.06043351 0.092940755 -0.26535475 -1.0798879 0.15344672 0.088055424
0.21718043 -1.2080578 0.25149855 -0.013639988 0.054635733 0.00035920122 0.00017423635 -0.7140077
0.023416312 0.018079799 -0.47112042 -0.09349991 0.04135383 0.11998689 0.09606518 0.09324998
0.16141407 0.015393993 -0.9405899 0.053215954 -0.8378628 0.27116194 -0.93956983 -0.1098441

q_netwrok.4.bias f4 [256]
00000000: 8487 333f c1d5 3e3f 1ecd 203d c344 2abd
00000010: 6825 72bd 5553 54be 524d 323f 2f36 403f
00000020: ab89 4a3f 3cbe a6bd 5b76 2b3f f12e 813e
00000030: 3b43 943c 7ca3 cfbb d265 26be 8118 20bd
00000040: aa0c b8bd 13a5 af3d 2da1 0c3e 01c9 17be
00000050: c688 353f 00e1 2a3f c0fc 31be 6556 753e
00000060: 70e1 303f 535a 3c3f 48b1 63be e7a5 c2bd
00000070: 64bf a6be 9b73 443f 9f8d 82be e1ae aabd
00000080: 3103 413f 043a a5bd 2186 3b3f 4fd8 aabd
00000090: 9a18 ec3d 5297 3d3f ca39 353f 0267 3c3f
000000a0: fbd1 333f 2750 263e 7750 213f 9477 d03e
000000b0: 9a93 b2bd ec79 353f b165 a7be a358 d2bd
000000c0: 0044 2a3f b11b 1ebe dc15 da3d dab9 823e
000000d0: b9f7 0abe 85d8 493d d26d 1abe 4316 893d
000000e0: 7998 05be bdf7 1bbe f391 313f 2cf9 0c3e
000000f0: b5bb 95bd 4c94 183f 7554 a53e 4448 2a3f
00000100: d20c 303e 9891 253f 690d 4b3f 04c8 2ebe
00000110: 63eb 3bbd 9b84 c7be 6561 283f 1614 2e3f
00000120: 74dc 153e 442a 3b3f 0fc1 5a3e c16c 5cbd
00000130: 8ecf 223f b9a7 913e 1c98 113f fe69 563f
00000140: 287d 463f 43d1 303f e92c 6fbd a1e9 47bd
00000150: 6339 4fbe c74f 15be a900 5d3e 0f0f 503f
00000160: 86f0 fe3e 0aa7 26bd 64bb 4fbe 8874 28be
00000170: b95c 3d3f 53d7 283f 2f67 133f 0d2d d23b
00000180: 9793 2e3f 6224 e7be a1b3 9d3e 96e9 f9bb
00000190: 6c9d 9cbd e3ef 443f 539f 2e3f be18 253f
000001a0: f6e3 e3bd c4fa d1be ff03 133f a346 71bd
000001b0: bc57 04bf 468c 38bf 26f7 323f 9a22 363f
000001c0: dbe1 fc3e fb9a f23c a49a 1a3f 66b4 253f
000001d0: d616 8f3e 28a7 d3be adea 213f 53fc 1bbe
000001e0: fefd 063f 87e3 213f 5cd3 443f b4da 2f3f
000001f0: ad4f b9be 55cb ffbd 0a84 bcbe 25b9 0fbe
00000200: 99ce 393f 8cc7 2a3f c759 4b3f ae3d 523f
00000210: daba ddbe ce9c b0bd 5696 b9be e539 37be
00000220: b0b0 353f b629 463f 7a1c 343f 7285 503d
00000230: 40e2 cebd 85de 383f f3bb 453f 8c08 373f
00000240: e8d0 63be 9c43 263f 9f58 133e 5555 453f
00000250: d885 e4bd 582d 2fbe 87d9 4cbe 6c53 083f
00000260: 9a7e 3f3f c719 2e3f 352e cc3d dc7f f6bd
00000270: 148b e33d 432e d1bd 03c7 6abb 0c1f 393f
00000280: 4515 933c 53f1 17be 7bec 0bbe f888 0e3e
00000290: 39ef 253f 522d 2cbe 9010 4b3f 12b5 403d
000002a0: f61f 393f c683 0f3f 18bb 323f 2dcc 81be
000002b0: 95ae 413f 5ba8 383f 3dc5 483f a038 f73e
000002c0: 578c 133d ba3d 3f3f 10c5 353f dbaf 3b3f
000002d0: b181 293f 270c 9d3d 3100 95bd bb5f 4dbe
000002e0: 1bfc 09be 83e1 3c3f dcc8 f23e 56dd 6bbe
000002f0: ecdf b03e 6a2c 103e 3004 d1bd 72e5 0ebe
00000300: e85d f13c 9d27 3c3f f549 8f3e bf03 2e3f
00000310: eaa9 3f3f b66a 113e 4759 07bf a7fb 423f
00000320: 8536 203f b32e 2a3f 4ac4 4c3f 1ea3 49bd
00000330: ab20 89bd aaa9 3e3f ab2f 27be e7b4 1f3e
00000340: 033e ef3e bd2c e7bd fcd0 373f 8685 643e
00000350: d440 4c3f 5370 6c3e b739 393f 2911 d93e
00000360: e170 eebd 421b e0be 01be 413f 3987 dcbb
00000370: 700f 3b3e 0eb2 aebd 8a98 423f 9c45 463f
00000380: 65ef 443f bdcd 273f 5463 cebd 1e29 4d3f
00000390: 7029 18bf cc22 2b3f b0a9 483d fc06 69be
000003a0: 5604 3a3f 587a 32be 70be 35bd cfa0 273f
000003b0: 0d65 86be 7a85 443f 4fc3 4dbe 95b6 413f
000003c0: 8c41 01be f080 2d3e a923 3c3d 1a2c 413d
000003d0: 1d23 363f d1df 303f 4ba5 a33d 48ca 7ebd
000003e0: 48b9 003e ac16 5abe 326d 14be 2df3 393f
000003f0: e198 43bc 3e66 393f 7044 063f 204b 57be
0.70128655 0.7454491 0.039258115 -0.041569483 -0.059117705 -0.20734914 0.6964923 0.7508268
0.79116315 -0.08141753 0.6697747 0.25231126 0.018098464 -0.0063366275 -0.16249779 -0.03908587
-0.089867905 0.08576407 0.13733359 -0.1482277 0.70911825 0.6674957 -0.17381573 0.23958738
0.6909399 0.73575324 -0.22235596 -0.095042996 -0.32567894 0.767389 -0.25498673 -0.08334137
0.75395495 -0.08067706 0.7325154 -0.08342039 0.1152813 0.7405902 0.70791304 0.7359468
0.7024228 0.16241513 0.63013405 0.4071623 -0.08719559 0.70889163 -0.32694772 -0.10270812
0.6651001 -0.15440251 0.106487006 0.25532418 -0.13571061 0.049278755 -0.15080956 0.06693699
-0.13046445 -0.15231223 0.69363326 0.13766927 -0.07311193 0.59601283 0.32290998 0.6651652
0.1719239 0.64675283 0.7931734 -0.17068487 -0.04587878 -0.38968357 0.6577361 0.679994
0.14634877 0.7311137 0.21362709 -0.053814653 0.63597953 0.28448275 0.56872725 0.8375548
0.77534723 0.6906931 -0.05839244 -0.04880679 -0.20236735 -0.14581214 0.21582283 0.8127298
0.4979288 -0.040686645 -0.20286328 -0.16450703 0.7396961 0.6595356 0.5757932 0.006414062
0.68193954 -0.45144945 0.30801108 -0.0076267226 -0.07647213 0.7692854 0.6821186 0.6449088
-0.111274645 -0.4101163 0.5742797 -0.058905255 -0.5169637 -0.7208904 0.6990837 0.7114655
0.49391064 0.029614916 0.6039221 0.6472839 0.2794711 -0.41338468 0.6324871 -0.15232973
0.5273131 0.63237804 0.7688501 0.6869309 -0.361936 -0.124899544 -0.36819488 -0.14035471
0.7258087 0.66710734 0.79433864 0.82125366 -0.4330662 -0.08623658 -0.3624751 -0.17893179
0.7097273 0.77407396 0.7035595 0.050908513 -0.101017475 0.7221454 0.7723991 0.71497416
-0.2224766 0.64946914 0.14389275 0.7708333 -0.11158341 -0.17107141 -0.20004855 0.5325229
0.74802554 0.68008083 0.09969751 -0.12036106 0.111105114 -0.10213902 -0.0035824187 0.72313
0.017954478 -0.14838152 -0.13664429 0.13919437 0.6481815 -0.16814163 0.7932215 0.047047682
0.72314394 0.56060445 0.6981673 -0.25351086 0.75657016 0.7213189 0.7842596 0.4828539
0.03602251 0.7470356 0.7100382 0.7331521 0.6621352 0.076683335 -0.07275427 -0.2005605
-0.13475077 0.73781604 0.4741887 -0.23033652 0.3454584 0.14079443 -0.10205877 -0.13954714
0.029463723 0.73497945 0.27986112 0.67974466 0.74868643 0.14200863 -0.528706 0.7616524
0.6258319 0.6647751 0.79987013 -0.049227826 -0.06695684 0.74477637 -0.16326778 0.15596353
0.46727 -0.1128783 0.7180326 0.2231656 0.7978642 0.23089723 0.7235369 0.42395905
-0.11642624 -0.43770796 0.7568055 -0.006729987 0.18267608 -0.08530055 0.76014006 0.77449965
0.7692779 0.65548307 -0.10077539 0.80140865 -0.5943823 0.6684997 0.04898995 -0.2275657
0.72662866 -0.17429483 -0.04437107 0.6547975 -0.2624897 0.7676617 -0.20094036 0.75669223
-0.1262266 0.16943717 0.045932446 0.0471612 0.7114733 0.69091517 0.079905115 -0.06220463
0.12570679 -0.21297711 -0.1449478 0.7263668 -0.011938305 0.72421634 0.5244818 -0.21024752

q_netwrok.6.weight f4 [13, 256]
00000000: f529 173e a3e3 db3d 6eab 843e f338 aebb
00000010: 2a6f 4ebd da64 0fbf 16ae a43d a7de 013e
00000020: 6c94 603e d78e 3e3f 64e1 4c3e cd69 293e
00000030: 8ce4 853d 701e a43d 6684 32bf 0859 133f
00000040: 0a0e 11be 4a48 cd3d 0ebb a73e b997 2f3f
00000050: 3af9 853e 8e28 d63d 07bd 45bd 9a4a 823e
00000060: c3e0 153e e03a df3d 0507 12bf ea9a 53bd
00000070: 6a32 a73d a8b1 513d b37d 18bf c39c 0a3e
00000080: f52d 393e b85c 14bf cd87 3c3e e914 81bc
00000090: 02a0 e93e c9a3 503e 9d03 593e 7f28 073e
000000a0: 549f d73d cf66 1f3f 0c5f 133e 91cc 003e
000000b0: 5369 abbe bc05 583e 1748 b1be 4e16 2fbf
000000c0: 4cb4 883e 6f90 00bf ea6c 643e 8bf9 8d3d
000000d0: d166 0dbf b43a a83d d36c 1fbf 4df3 7a3d
000000e0: ec64 17bf 6dd6 af3e 8a0f 0c3e 1a82 133f
000000f0: ee44 b0bc 1540 a53e 39b0 433e b86a e43d
00000100: 62ce cabc 6f50 333e 7eb5 0b3e 0154 853e
00000110: f3f5 f13d 41eb c2be 452b 353e 3bdb c23e
00000120: cd96 113d 5b6e 173e 736c 0e3e 8146 0b3d
00000130: b240 893e 5f27 a83e c7a4 9f3e d1a8 843d
00000140: b929 bf3d 9789 933d 8c96 913e 22c9 ccbe
00000150: e3ee 2bbf 2756 22bf 5671 703e ee65 2d3e
00000160: af4a 323e 1576 493e a158 aabe 9f47 b3be
00000170: 8684 193e dbd7 4d3e f4fc 983e 5ba4 c33d
00000180: 9b08 133e 3746 3cbd 49fd 56be 1f14 333e
00000190: 68cf 913e dfce 8e3d 2006 ec3d a54a 253e
000001a0: 7ed0 04bf 2a58 b6be 7e2b b43d f8c5 3c3e
000001b0: 54b8 afbe 853e 97bd 7c3f 013e a9c5 3e3e
000001c0: d0e1 923e 4bcd 843f 9590 943e e7c6 123e
000001d0: 4d55 b73e 07b4 a6be cf29 803e f8f7 853e
000001e0: 8d94 303e da91 093e be41 823e 998a 573e
000001f0: 9f2d 3dbe 775c 22bf 9207 80be af89 0dbf
00000200: 77d1 c03d 5642 253e 7359 033e db9a 333e
00000210: b371 043d 39f6 5dbd d992 a0be 6bdd 3e3e
00000220: 8346 493e e0a6 183e cce9 943d 266c ca3d
00000230: 1d83 c53e 25bf 6b3d a9fe fd3d b722 c33d
00000240: 3fc1 333e e3bd 6c3e f2e6 81bc 4b50 6f3e
00000250: bf41 be3b 3e35 f43e 8f70 35bf 3aa1 4b3e
00000260: bf57 bf3e 90ef 123e f71c eebd babb 66be
00000270: d95b a93e 15fc e4be 579d dfbe fd40 143e
00000280: d6f9 d33b 555c 11bf 06f3 62bd 9d93 c0bc
00000290: f1aa b93e 1126 a9be 5d8c 143e 806c bb3e
000002a0: 62bf 2d3e f3ad 233e 9963 523e 1cda 26bf
000002b0: 48e1 e53d 9a13 9a3d f00c 983e 525a d73d
000002c0: 1781 443e 628b b73d b20d 683e 633c 273e
000002d0: f368 af3e 4a76 d93d 0f27 e13e d096 433f
000002e0: 4a02 d1be 5741 483e 663b 2e3e 0567 923e
000002f0: d046 6f3e 3abd 513d 9411 12be 2848 853e
00000300: d132 68be 1e91 093e 27e5 1d3e 4da8 253e
00000310: e9f5 223e 8100 d83e 81d9 333e f313 eb3d
00000320: 9d87 1b3e 6f40 aa3e df6f a33e ac1f fbbe
00000330: e50f 793f b463 ff3d cf45 0ebf e5ae 573e
00000340: cc23 213f e355 ddbe ed0a ba3d 3cce da3d
00000350: 7fd6 2d3e cef6 903d 9195 103d ebbf 0a3e
00000360: f50d 69be 8f42 88be 2093 b93e d2d9 a1bd
00000370: 07ff ae3e cf90 113f 95ae 863d e44d 1a3e
00000380: c73b 5c3e 5050 c13e bc90 e8bd 5c5d 713e
00000390: 8888 cfbc 82eb 1f3e 653a 81be c4b7 853f
000003a0: c5db 1f3e 7d8c ebbe 5ac3 b43d 00b2 633e
000003b0: cc2d b2bd 27e9 f13d 9e30 8a3d ce54 923e
000003c0: 4f19 3e3e ff83 f23c ae26 853c 501c b1bc
000003d0: f799 093e bcda 383e 3aa8 d5bc 8383 c63d
000003e0: c793 553e 0625 32bd 522e 0fbd 75c2 9c3e
000003f0: 4e4b 403e 67db 013e 6987 263e c466 22bf
0.14762099 0.10736778 0.2591204 -0.0053168475 -0.050398983 -0.5601326 0.08041017 0.12682591
0.21931618 0.74436706 0.20007855 0.16544266 0.065377325 0.08013618 -0.69733274 0.57557726
-0.14165512 0.10023554 0.327599 0.68590885 0.26166707 0.10456954 -0.048275974 0.2544754
0.14636521 0.108999014 -0.5704196 -0.05166141 0.081639126 0.051194817 -0.595668 0.13536362
0.18083937 -0.5795398 0.18411179 -0.015757041 0.4562989 0.20374979 0.21192785 0.13199042
0.10528436 0.6226625 0.14391726 0.12578036 -0.33478794 0.21095937 -0.34625313 -0.6839341
0.26700056 -0.5022039 0.22307172 0.06932362 -0.5523501 0.08214322 -0.6227543 0.061267186
-0.5913837 0.3434328 0.13677803 0.57620394 -0.021517243 0.32275453 0.19110192 0.111531675
-0.024756614 0.17511152 0.13643453 0.26040652 0.11814489 -0.3807011 0.17692287 0.38057885
0.035544205 0.14788191 0.13908558 0.034002785 0.2680717 0.32842538 0.31180403 0.06477512
0.0933413 0.072039776 0.2843517 -0.39997202 -0.6716139 -0.6341271 0.23480734 0.16933414
0.17411302 0.19673951 -0.33270743 -0.3501558 0.1499196 0.20101874 0.29880488 0.09552833
0.14358751 -0.0459654 -0.20995058 0.17488144 0.2847855 0.06973051 0.11524606 0.16141756
-0.51880634 -0.3561414 0.08797358 0.18434894 -0.3432032 -0.073849715 0.12621874 0.18630089
0.28687906 1.037515 0.29016557 0.14333688 0.35807267 -0.32559225 0.25031897 0.26165748
0.17244168 0.13434544 0.25440782 0.21048965 -0.18474434 -0.6342234 -0.25005776 -0.55288213
0.09414952 0.16138586 0.12827091 0.17539541 0.032334995 -0.054189894 -0.31362036 0.18639152
0.19655804 0.14907408 0.07271156 0.09883909 0.38576594 0.057555337 0.12402088 0.09528106
0.17554186 0.23119311 -0.015857194 0.23370473 0.0058061774 0.4769687 -0.70874876 0.19885722
0.37371632 0.14349198 -0.11626618 -0.2253255 0.33077887 -0.44723573 -0.43674728 0.14477916
0.0064689917 -0.5678151 -0.055407546 -0.023507887 0.3626323 -0.33036855 0.1450667 0.36606216
0.16967538 0.15984325 0.20545806 -0.6517656 0.112246096 0.0752327 0.2969737 0.10515274
0.19189869 0.08962132 0.22661474 0.1633163 0.34259757 0.10618265 0.43975112 0.76401997
-0.4082206 0.19556175 0.17014846 0.28594223 0.23366857 0.05120585 -0.14264518 0.26031613
-0.22675635 0.13434264 0.15419446 0.16177483 0.1591412 0.42187884 0.1756344 0.114784144
0.15188451 0.33252284 0.31921288 -0.490476 0.9728988 0.12470189 -0.5557527 0.2106281
0.62945247 -0.4322959 0.09084115 0.10683867 0.16976355 0.07078324 0.035298888 0.13549773
-0.2275923 -0.2661328 0.3624506 -0.07902874 0.34178945 0.56861585 0.06576268 0.15068775
0.21507178 0.37756586 -0.11355731 0.2357077 -0.025333658 0.15617183 -0.25239864 1.0446706
0.15611179 -0.46005622 0.08826323 0.2223587 -0.08700141 0.118120484 0.06747554 0.28580326
0.18564342 0.029603956 0.016253795 -0.021619946 0.13437639 0.1805219 -0.026081193 0.096930526
0.20857154 -0.04349234 -0.034956284 0.3061711 0.18778726 0.12681352 0.16262592 -0.6343806

q_netwrok.6.bias f4 [13]
00000000: 4d10 663e 7825 d73e 0667 043f a4d2 fe3e
00000010: daea fc3e 9f72 023f 0e54 013f 7cb6 b23e
00000020: 1ff0 9a3e 59c8 e73e 6367 5f3e 88db bd3e
00000030: c570 003f
0.22467156 0.42020774 0.517197 0.4977008 0.49397928 0.5095615 0.5051888 0.3490485
0.30261323 0.4527004 0.21816783 0.37081552 0.5017207
