RL code/rlcodes/q-learning/dqn_walker_models/checkpoint_episode_5000.pth (torch, 562285 bytes, 8 tensors)

q_netwrok.0.weight f4 [256, 17]
0.25054294 -0.6304974 -0.27802256 0.04424993 -0.331013 -0.74161476 0.17180577 -0.15028848
-0.16486883 -0.19334622 0.085065864 -0.14649789 0.08195101 -0.017005004 0.08304833 0.017581781
0.020425888 0.5278977 0.28309986 0.10735162 -0.010983197 0.56816095 0.5025144 0.15948379
0.5607045 -0.5231097 0.37110844 0.2185132 -0.27421078 -0.10952747 -0.118559144 0.19426948
0.11585373 0.07104776 -0.39515755 0.6402267 -0.19673468 -0.3628503 -0.29778904 -0.22776392
-0.44895515 0.049402446 0.22984354 -0.3332687 0.10323309 -0.0375744 -0.023973722 0.1007755
-0.08321637 -0.061322536 0.06292962 -0.7692819 -0.46009946 -0.17195813 -0.33260855 0.16467947
-0.25254577 -0.14101356 0.14182161 -0.36376503 -0.051717665 -0.06669325 -0.0071364674 -0.044184554
-0.056010276 0.07004775 -0.0066408357 0.063993186 0.57079446 1.0099344 -0.18228295 -0.1133968
-0.09556185 -0.0024673159 0.014096227 0.08182819 -0.066079 -0.20007433 -0.11316399 0.17216095
0.112363875 0.018909825 -0.054985497 0.015669422 0.0042022886 0.57704216 0.5017527 0.1481144
-0.11366997 0.17254615 0.08660534 -0.24588867 0.038405016 0.06152015 -0.0306294 -0.1903721
0.16015281 0.056467056 -0.03488285 0.04357146 0.032902773 -0.005851446 9.953212e-05 -0.6542971
1.438606 0.038884178 -0.074350394 -0.2935218 0.06478358 -0.60823333 -0.14108062 -0.33253926
-0.15587175 0.13552143 0.0361167 0.07291328 0.12709188 0.022445058 0.026752785 0.41208404
0.64804214 0.07423316 0.13242002 -0.16432485 -0.1155639 -0.09906019 -0.05121215 -0.03678315
0.07678965 0.21313706 -0.11801953 -0.13274369 -0.03340475 -0.121850796 -0.095344484 -0.0066965236
-0.18080793 -0.9603703 -0.48759064 0.49772498 -0.28806728 -0.008021243 -0.3783913 -0.06558759
-0.4218774 -0.017749596 -0.07030053 0.16384596 0.08422488 0.03193944 -0.07428415 0.027618106
-0.012346493 0.2384811 0.048550565 0.7577549 0.41234607 0.46463683 -0.36651728 -0.24185324
-0.40740916 -0.213397 0.036029205 0.11685468 -0.065866165 0.04323023 0.020737303 0.032820553
-0.010625489 0.005033337 0.020892054 -1.2759218 -0.3897294 0.29694027 -0.13879779 -0.19692433
-0.13096723 0.17339805 -0.17930272 0.39979497 -0.21716341 -0.03327508 0.004065208 -0.05618343
0.11054834 0.051208656 0.01499908 0.33704796 0.36970466 0.65271413 -0.6896831 0.024367353
-0.39542854 0.38276327 0.03654485 -1.0386097 0.06332742 0.10078926 -0.18116273 -0.06034996
0.013971968 0.13420795 0.08051595 0.025738243 0.42348176 0.6362711 -0.15196756 -0.09716361
0.07363824 0.079650484 0.14756571 0.1324163 0.21830979 0.063943155 -0.06391992 0.20921823
0.09749714 0.0062542628 -0.14402774 -0.07665279 0.058374703 0.31331626 0.73289454 -0.6961206
-0.1049534 -0.79627943 -0.19002107 -0.04951748 -0.02798014 0.2832839 -0.19023266 0.041233767
-0.017704794 0.02585755 -0.053713355 -0.013204044 0.030292 -0.009177 -0.23180333 0.37758875
-0.51312286 -0.35254654 0.10420326 0.35527924 -0.029700661 -0.23446025 0.3352277 -0.522093
-0.020193452 0.16674699 0.19388962 -0.020973047 -0.099625215 0.06284448 -0.061751757 0.10287685
00000000: 2a47 803e 4768 21bf f958 8ebe 6a3f 353d
00000010: 897a a9be 77da 3dbf daed 2f3e 39e5 19be
00000020: 60d3 28be 8dfc 45be 0337 ae3d 8b03 16be
00000030: eed5 a73d 144e 8bbc 3e15 aa3d ab07 903c
00000040: 3154 a73c 4e24 073f 77f2 903e 2bdb db3d
00000050: def2 33bc ff72 113f c9a4 003f b84f 233e
00000060: 558a 0f3f 84ea 05bf ed01 be3e edc1 5f3e
00000070: 5b65 8cbe f04f e0bd 23cf f2bd 94ee 463e
00000080: b844 ed3d 7d81 913d 1752 cabe e6e5 233f
00000090: d174 49be 84c7 b9be ce77 98be f23a 69be
000000a0: 73dd e5be 385a 4a3d 1b5c 6b3e 32a2 aabe
000000b0: df6b d33d 9de7 19bd 8a64 c4bc 6363 ce3d
000000c0: 586d aabd 572d 7bbd 3fe1 803d a9ef 44bf
000000d0: 2892 ebbe cb15 30be ab4b aabe bca1 283e
000000e0: ae4d 81be dc65 10be af39 113e 693f babe
000000f0: e7d5 53bd 7896 88bd 07d9 e9bb ddfa 34bd
00000100: 086b 65bd 3275 8f3d 5e9b d9bb dc0e 833d
00000110: 961f 123f 8845 813f 62a8 3abe 953c e8bd
00000120: eeb5 c3bd b1b2 21bb dcf3 663c 8a95 a73d
00000130: 6d54 87bd 49e0 4cbe 86c2 e7bd f64a 303e
00000140: 081f e63d c7e8 9a3c 7938 61bd 295d 803c
00000150: 5ab3 893b 09b9 133f dd72 003f 4dab 173e
00000160: cdcb e8bd f0af 303e 245e b13d 3dca 7bbe
00000170: 944e 1d3d 8efc 7b3d 82ea fabc e7f0 42be
00000180: 19ff 233e 004a 673d 52e1 0ebd fd77 323d
00000190: 0fc5 063d 7dbd bfbb e6bb d038 0480 27bf
000001a0: 3e24 b83f 0445 1f3d 0545 98bd 7d48 96be
000001b0: 41ad 843d 2eb5 1bbf 7077 10be 9642 aabe
000001c0: d89c 1fbe 21c6 0a3e 1bef 133d 8f53 953d
000001d0: 6024 023e b3de b73c a828 db3c aefc d23e
000001e0: 17e6 253f 8e07 983d 1d99 073e c644 28be
000001f0: c4ac ecbd 12e0 cabd d5c3 51bd eea9 16bd
00000200: e443 9d3d 9a40 5a3e 39b4 f1bd f6ed 07be
00000210: 6bd3 08bd e98c f9bd f843 c3bd 836e dbbb
00000220: b725 39be d4da 75bf 7ba5 f9be cfd5 fe3e
00000230: 8e7d 93be 886b 03bc 81bc c1be c952 86bd
00000240: 5100 d8be 9a67 91bc b9f9 8fbd 3cc7 273e
00000250: 187e ac3d eed2 023d 4a22 98bd 5e3f e23c
00000260: f248 4abc 6434 743e f5dc 463d 3afc 413f
00000270: 061f d33e e1e4 ed3e 27a8 bbbe 60a8 77be
00000280: ef97 d0be be84 5abe 5c93 133d 8251 ef3d
00000290: d7e4 86bd 2f12 313d 47e1 a93c d86e 063d
000002a0: 8816 2ebc b1ee a43b d025 ab3c 6851 a3bf
000002b0: 9d8a c7be 8e08 983e 0221 0ebe 88a6 49be
000002c0: 461c 06be 428f 313e 229b 37be edb1 cc3e
000002d0: 1660 5ebe 734b 08bd 7035 853b 9920 66bd
000002e0: 2b67 e23d 2bc0 513d b4be 753c 8d91 ac3e
000002f0: ee49 bd3e 4618 273f 128f 30bf 0b9e c73c
00000300: 9c75 cabe 8cf9 c33e 0db0 153d 2af1 84bf
00000310: ceb1 813d 996a ce3d b982 39be 8531 77bd
00000320: aeea 643c cf6d 093e 8ce5 a43d 02d9 d23c
00000330: 9ad2 d83e aae2 223f 629d 1bbe b7fd c6bd
00000340: a5cf 963d cb1f a33d 771b 173e 2398 073e
00000350: 9a8c 5f3e a1f4 823d 72e8 82bd 4e3d 563e
00000360: 95ac c73d 8ff0 cc3b 027c 13be 23fc 9cbd
00000370: 501a 6f3d fd6a a03e fa9e 3b3f f634 32bf
00000380: cff1 d6bd f8d8 4bbf e294 42be d7d2 4abd
00000390: 9b36 e5bc 960a 913e 5acc 42be bde4 283d
000003a0: a509 91bc 36d3 d33c 8902 5cbd c655 58bc
000003b0: ee26 f83c 215b 16bc da5d 6dbe 5053 c13e
000003c0: 055c 03bf fb80 b4be 8568 d53d 29e7 b53e
000003d0: cd4e f3bc 5916 70be f7a2 ab3e e3a7 05bf
000003e0: bd6c a5bc b9bf 2a3e 008b 463e abcf abbc
000003f0: 4e08 ccbd 9bb4 803d 69ef 7cbd 19b1 d23d

q_netwrok.0.bias f4 [256]
0.06653664 -0.10492405 -0.6317951 -0.39254323 0.7776334 0.87501675 0.308678 0.67867815
-0.25103942 0.5573402 -0.53843033 -0.19195333 0.72346246 -0.27264255 -0.50677687 0.36454844
0.74029225 0.10777694 0.5881894 0.34709334 -0.3003273 0.77805233 -0.18679823 0.7323455
0.734576 -0.23647039 0.4014355 0.056146152 0.26428574 -0.34002072 0.159483 0.13305525
-0.264963 -0.60505843 0.12267018 0.6789168 0.1761647 0.12993243 -0.11343271 0.07208811
-0.57458824 -0.39481968 0.83278584 0.5891168 -0.018850628 -0.72502005 -0.25863773 0.3557855
0.69945496 0.13503908 -0.6455121 -0.6763093 -0.328951 -0.24896295 -0.043950915 0.7207989
-0.05236414 0.53870213 0.34451914 0.35397622 0.7955565 -0.25335905 -0.14903918 0.7344839
-0.2570085 -0.43201062 0.13459936 0.9208914 -0.80104345 -0.32267103 0.062180858 0.55003625
-0.31782812 -0.087169945 -0.056901235 -0.4925029 0.38628194 -0.432799 -0.5222349 -0.23371412
-0.7265386 0.2805045 -0.1708379 0.30617854 0.16109347 0.8770895 -0.6311098 -0.5267027
0.5908562 -0.365011 0.16344072 -0.3930381 -0.39117438 0.4359395 -0.5557338 0.06489693
-0.5743342 -0.19769254 0.84048575 0.35451588 -0.56837434 -0.46169263 -0.10366524 0.097958565
0.6102986 0.6873891 0.05576763 -0.14163801 -0.30008116 0.32556593 0.068567865 0.14489523
0.1427262 -0.060594533 0.37716877 -0.93534094 -0.47695765 0.73103863 0.41257817 -0.13345557
-0.5245957 -0.22134495 0.29579505 -0.463494 0.50637805 -0.23652425 0.0781879 -0.40701172
-0.50080335 0.5234263 0.63843924 0.65999156 0.1686494 -0.5170511 0.1051604 -0.74274063
0.257533 0.6860377 0.46458814 0.21576801 0.45873445 0.3387998 -0.37440845 -0.5492962
-0.6022885 0.3236142 -0.19184132 0.5010691 -0.23357803 0.5012926 0.18013924 0.8849324
-0.5968737 -0.44811043 -0.43197176 0.025523009 -0.61256105 0.24629715 -0.66547775 0.45617998
0.017054133 0.15696403 0.62134904 0.2645794 -0.6460657 0.7440568 0.24642329 -0.06706261
-0.47831517 0.87225246 0.27989575 0.21169819 -0.6553136 -0.26303694 -0.25214916 -0.5011555
-0.54559064 -0.29274315 -0.2805227 0.15460509 0.84577405 -0.18080519 0.09069864 -0.55049825
-0.6873588 0.23234996 0.9275583 -0.11698774 -0.5154772 -0.09447968 0.36959803 -0.25739828
0.3187233 -0.03704962 0.55385405 -0.31457838 -0.38941932 0.0961473 -0.5587379 -0.58810496
0.13368675 -0.13545395 0.14446047 -0.25907797 -0.084181 0.77700675 0.6900503 -0.17932375
-0.21248256 -0.6293942 0.81333566 -0.35735044 -0.17820084 0.46749076 0.28014192 -0.6123641
-0.41595873 -0.35894316 -0.2512032 -0.16082793 -0.18160495 0.94438183 -0.6581586 -0.5407864
-0.26607457 0.241746 -0.3485692 -0.08507993 -0.06907362 0.3818384 -0.30424902 -0.44300693
-0.4535051 -0.045939088 -0.3992576 -0.20737436 -0.21503367 0.38401473 -0.33862516 -0.03256523
0.71546096 0.61154443 -0.38820967 -0.5691771 -0.2730685 0.2558446 0.08701091 -0.31552485
0.44048673 0.6878004 -0.7255329 -0.41750672 0.81582147 -0.49251 -0.18106341 0.82533497
00000000: 5d44 883d 6ce2 d6bd 53bd 21bf 6dfb c8be
00000010: fc12 473f 1901 603f 0b0b 9e3e dabd 2d3f
00000020: 3d88 80be d9ad 0e3f 92d6 09bf 6a8f 44be
00000030: d634 393f ce97 8bbe 21bc 01bf 18a6 ba3e
00000040: cb83 3d3f 28ba dc3d 9593 163f 38b6 b13e
00000050: 80c4 99be 702e 473f 0948 3fbe ff7a 3b3f
00000060: 2c0d 3c3f 4b25 72be f488 cd3e 82f9 653d
00000070: 7650 873e 3217 aebe 834f 233e a33f 083e
00000080: 3ba9 87be 1ce5 1abf 813a fb3d 7ecd 2d3f
00000090: 8564 343e 020d 053e 694f e8bd eea2 933d
000000a0: 3718 13bf ce25 cabe 7431 553f 5cd0 163f
000000b0: a26c 9abc ea9a 39bf 2a6c 84be 8429 b63e
000000c0: 7b0f 333f af47 0a3e 4840 25bf 9b22 2dbf
000000d0: 446c a8be 25f0 7ebe e005 34bd 4786 383f
000000e0: c87b 56bd 62e8 093f d064 b03e 5f3c b53e
000000f0: 97a9 4b3f 47b8 81be ba9d 18be 2307 3c3f
00000100: 9e96 83be 7f30 ddbe 6ad4 093e 8abf 6b3f
00000110: 2f11 4dbf 2335 a5be 5bb1 7e3d 2dcf 0c3f
00000120: 5eba a2be 2886 b2bd 4511 69bd 5729 fcbe
00000130: bfc6 c53e d597 ddbe 30b1 05bf c152 6fbe
00000140: 6ffe 39bf 499e 8f3e 21f0 2ebe 6fc3 9c3e
00000150: b0f5 243e f088 603f 6990 21bf fdd5 06bf
00000160: 5a42 173f b9e2 babe 015d 273e 4a3c c9be
00000170: 0248 c8be 7633 df3e 9244 0ebf aee8 843d
00000180: 9107 13bf ea6f 4abe 132a 573f 1b83 b53e
00000190: fb80 11bf fa62 ecbe 714e d4bd 809e c83d
000001a0: 873c 1c3f bbf8 2f3f 996c 643d 8e09 11be
000001b0: 3da4 99be 94b0 a63e 4f6d 8c3d 6a5f 143e
000001c0: d126 123e f931 78bd 441c c13e 8172 6fbf
000001d0: cb33 f4be 5925 3b3f 723d d33e 94a8 08be
000001e0: e74b 06bf 40a8 62be 7372 973e 164f edbe
000001f0: fea1 013f 6a33 72be fa20 a03d d763 d0be
00000200: a634 00bf 44ff 053f c170 233f 35f5 283f
00000210: 6eb2 2c3e 765d 04bf 565e d73d 4024 3ebf
00000220: 5edb 833e 2ba0 2f3f 7fde ed3e 4af2 5c3e
00000230: 3edf ea3e 2b77 ad3e 77b2 bfbe ad9e 0cbf
00000240: 942f 1abf c3b0 a53e 0d72 44be 1146 003f
00000250: 142f 6fbe b654 003f 6c76 383e ee8a 623f
00000260: b7cc 18bf bb6e e5be 672b ddbe a115 d13c
00000270: cdd0 1cbf 5235 7c3e c05c 2abf 6c90 e93e
00000280: 1cb5 8b3c 2ebb 203e bb10 1f3f f376 873e
00000290: 9064 25bf 827a 3e3f 6356 7c3e 1f58 89bd
000002a0: bae5 f4be f04b 5f3f 7f4e 8f3e 69c7 583e
000002b0: a2c2 27bf c7ac 86be b219 81be ba4b 00bf
000002c0: d4ab 0bbf 6ee2 95be aca0 8fbe cc50 1e3e
000002d0: a684 583f ff24 39be 35c0 b93d 74ed 0cbf
000002e0: bff6 2fbf 26ed 6d3e 7674 6d3f 4597 efbd
000002f0: 50f6 03bf 907e c1bd f43b bd3e b5c9 83be
00000300: b32f a33e 58c1 17bd 61c9 0d3f 6b10 a1be
00000310: f861 c7be e0e8 c43d 7209 0fbf 0c8e 16bf
00000320: 2ee5 083e 71b4 0abe 72ed 133e dea5 84be
00000330: 1767 acbd eae9 463f 23a7 303f a5a0 37be
00000340: 0795 59be fa1f 21bf c436 503f a3f6 b6be
00000350: 487a 36be f35a ef3e c36e 8f3e e5c3 1cbf
00000360: 8bf8 d4be 66c7 b7be b59d 80be 14b0 24be
00000370: a6f6 39be 02c3 713f 157d 28bf fa70 0abf
00000380: ed3a 88be 438c 773e aa77 b2be 633e aebd
00000390: 7876 8dbd 5380 c33e 87c6 9bbe ced1 e2be
000003a0: d231 e8be a02a 3cbd 7e6b ccbe f259 54be
000003b0: c931 5cbe 949d c43e 4760 adbe 1e63 05bd
000003c0: 7328 373f 2d8e 1c3f 6bc3 c6be 97b5 11bf
000003d0: a2cf 8bbe 10fe 823e c732 b23d 798c a1be
000003e0: 7a87 e13e b013 303f 86bc 39bf 71c3 d5be
000003f0: add9 503f 452a fcbe b068 39be 2749 533f

q_netwrok.2.weight f4 [256, 256]
0.099265866 -0.020507256 0.12136979 0.13089977 -0.56229866 -0.20037352 0.14104004 -0.14806318
0.46002865 -0.062000632 0.3681333 0.11929335 -0.29148066 0.091437384 -0.042088717 -0.08355583
-0.06839773 -0.32775253 -0.24704903 -0.20674981 0.21611042 -0.62801033 -0.10035778 -0.21647084
0.008792532 -0.0681992 -0.117828764 -0.12644725 -0.3217354 0.24997163 -0.08716126 -0.0567177
0.03501942 0.10346537 -0.02248128 -0.01527046 -0.07667675 -0.10364785 -0.56463873 0.085709676
0.22051862 0.035345975 -0.20202813 -0.062159054 -0.010847873 0.19008914 0.008099935 -0.20586514
-0.23624563 0.015368201 0.07821982 0.11807884 0.22185083 0.38244715 0.07544462 -0.25176796
-0.27839848 -0.25829226 0.041299686 -0.12225589 -0.08016804 0.17069048 0.2017474 -0.025733033
0.18891624 0.19130106 0.18852282 -0.21552254 0.16247453 -0.38159722 -0.18120892 -0.25323072
0.17779925 0.2581782 -0.12897733 -0.4062376 -0.06901539 -0.09331372 0.1051881 -0.59177935
-0.4214407 -0.30139422 0.10420036 -0.072411336 -0.11400877 -0.029223656 0.24176185 0.0633671
-0.1471195 0.29406843 -0.026693406 0.13685654 0.021753013 -0.10370301 0.20932409 -0.0835308
-0.4401107 -0.5112169 -0.34478676 -0.04799433 -0.20330618 0.2704607 -0.35358837 -0.056065727
0.01236875 -0.05832268 -0.12721051 0.25177225 -0.38587618 0.14717114 -0.20067957 -0.0081675
0.2505219 -0.33147728 -0.19762492 -0.42224824 0.37305886 -0.31836244 -0.35404187 -0.17660524
0.30381396 -0.3185096 -0.21255615 0.035029773 -0.21297361 -0.3100776 0.23164265 0.09335528
0.3560043 -0.43882582 -0.16545787 -0.1650261 0.01407616 0.396309 -0.08513831 0.03021716
-0.031158099 0.14014521 -0.00783428 0.15661351 -0.09953756 -0.2749837 0.05590314 0.20600218
0.39279047 -0.25439692 0.5734279 -0.1728458 -0.06798096 0.113346934 -0.21041265 -0.037383117
0.14638574 0.038988605 0.41376415 0.30555448 -0.047448844 -0.004093952 -0.0035120037 0.052162796
-0.23280105 -0.1744808 -0.30850592 -0.31446677 0.25881854 -0.13280706 0.0015424171 -0.21500657
0.25597993 -0.08965846 -0.19608943 -0.19006096 0.24467172 -0.19005324 -0.06254585 0.18470524
0.22988443 -0.289183 -0.21198878 -0.07265427 -0.17609869 -0.14753826 0.14425291 0.057678178
-0.13862221 -0.23433204 -0.297622 0.12434506 0.18042924 -0.19808125 -0.3379451 -0.0082765315
0.27854687 -0.4409145 -0.14316563 0.25955415 -0.40345877 -0.19573782 0.65933037 0.10647103
0.14715374 0.18593708 -0.2220927 -0.04158917 -0.09975205 -0.24996941 -0.26974732 0.078392506
-0.30420408 0.037382744 0.1232834 0.21540734 0.21512401 -0.11915536 -0.25386065 0.25866276
0.18156855 0.4327007 -0.030125333 -0.10350734 0.018033814 -0.1550752 0.13064559 0.25650957
0.3050258 -0.03082239 -0.030818224 0.1375278 -0.26628706 0.0211299 0.19555713 0.23911667
-0.08454564 -0.9559068 0.3089014 -0.21575564 0.026135309 -0.061104953 0.123786435 -0.0268737
-0.17584105 -0.13401611 -0.5334117 0.3204323 -0.018868173 -0.1987037 0.13889572 0.1483301
7.122195e-05 -0.46200195 -0.15039283 0.10366259 -0.031814188 0.16644248 -0.13059139 -0.17437035
00000000: e74b cb3d d5fe a7bc b990 f83d 970a 063e
00000010: cef2 0fbf b72e 4dbe cd6c 103e e09d 17be
00000020: e088 eb3e 60f4 7dbd f87b bc3e 1250 f43d
00000030: f43c 95be 8643 bb3d 3865 2cbd 521f abbd
00000040: 1c14 8cbd 2ecf a7be 6cfa 7cbe 39b6 53be
00000050: 0d4c 5d3e 49c5 20bf 6188 cdbd 88aa 5dbe
00000060: 8d0e 103c 06ac 8bbd 3550 f1bd 637b 01be
00000070: 81ba a4be 90f8 7f3e 9a81 b2bd d250 68bd
00000080: 8670 0f3d a7e5 d33d a92a b8bc f430 7abc
00000090: b308 9dbd 5345 d4bd 2a8c 10bf 8e88 af3d
000000a0: a2cf 613e f1c6 103d 76e0 4ebe 7e9a 7ebd
000000b0: 47bb 31bc baa6 423e 97b5 043c 50ce 52be
000000c0: 60ea 71be e8ca 7b3c b731 a03d 52d3 f13d
000000d0: dd2c 633e 1dd0 c33e b582 9a3d bbe7 80be
000000e0: 3f8a 8ebe e23e 84be dc29 293d 4c61 fabd
000000f0: 242f a4bd 7cc9 2e3e df96 4e3e 15ce d2bc
00000100: 4273 413e 6de4 433e 200c 413e f1b1 5cbe
00000110: b95f 263e b660 c3be d58e 39be 75a7 81be
00000120: 0211 363e ef2f 843e a212 04be 60fe cfbe
00000130: f157 8dbd 431b bfbd dc6c d73d da7e 17bf
00000140: 13c7 d7be 5850 9abe 0067 d53d 654c 94bd
00000150: 6e7d e9bd 7366 efbc 6b90 773e 9cc6 813d
00000160: 7fa6 16be 2390 963e 21ac dabc 1f24 0c3e
00000170: 6033 b23c 3e62 d4bd 0e59 563e 3212 abbd
00000180: 3156 e1be 1cdf 02bf e487 b0be b495 44bd
00000190: 7f2f 50be d379 8a3e 8909 b5be 2da5 65bd
000001a0: 4ca6 4a3c c3e3 6ebd 7943 02be 4be8 803e
000001b0: 9091 c5be 08b4 163e f27e 4dbe fad0 05bc
000001c0: 6844 803e 64b7 a9be 305e 4abe ec30 d8be
000001d0: 9201 bf3e 6700 a3be fa44 b5be 01d8 34be
000001e0: 818d 9b3e b113 a3be 52a8 59be 617b 0f3d
000001f0: c115 5abe 7ec2 9ebe bb33 6d3e 0e31 bf3d
00000200: 3246 b63e c7ad e0be ca6d 29be 9afc 28be
00000210: b29f 663c 03e9 ca3e ff5c aebd fa89 f73c
00000220: 453f ffbc 3a82 0f3e 5a5b 00bc 4b5f 203e
00000230: 59da cbbd aaca 8cbe b1fa 643d 3cf2 523e
00000240: d51b c93e 5040 82be 2ccc 123f 7dfe 30be
00000250: 9a39 8bbd 7022 e83d 6a76 57be 0a1f 19bd
00000260: 25e6 153e 84b2 1f3d e5d8 d33e a371 9c3e
00000270: b859 42bd 8f26 86bb a529 66bb a8a8 553d
00000280: 6663 6ebe 18ab 32be 7df4 9dbe ca01 a1be
00000290: dd83 843e 93fe 07be ee2a ca3a af2a 5cbe
000002a0: cd0f 833e db9e b7bd abcb 48be 579f 42be
000002b0: 398b 7a3e 519d 42be 0a18 80bd 5f23 3d3e
000002c0: d366 6b3e cb0f 94be 9613 59be c3cb 94bd
000002d0: 3753 34be 4514 17be 09b7 133e f43f 6c3d
000002e0: fbf2 0dbe bdf4 6fbe e961 98be 9fa8 fe3d
000002f0: 71c2 383e d0d5 4abe 2407 adbe 4a9a 07bc
00000300: b29d 8e3e 8cbf e1be 039a 12be 48e4 843e
00000310: 2692 cebe 7f6f 48be e0c9 283f 7c0d da3d
00000320: 78af 163e 4a66 3e3e 456c 63be 6859 2abd
00000330: ce4a ccbd fbf7 7fbe 521c 8abe 408c a03d
00000340: a3c0 9bbe a61e 193d 027c fc3d be93 5c3e
00000350: 7849 5c3e ba07 f4bd 06fa 81be 726f 843e
00000360: 1bed 393e f28a dd3e 67c9 f6bc a8fb d3bd
00000370: a6bb 933c 09cc 1ebe f5c7 053e 3955 833e
00000380: 572c 9c3e 3d7f fcbc 8076 fcbc 16d4 0c3e
00000390: c756 88be 9d18 ad3c 2140 483e 00db 743e
000003a0: 4426 adbd 4fb6 74bf 5328 9e3e 0cef 5cbe
000003b0: b719 d63c 3049 7abd be83 fd3d 3c26 dcbc
000003c0: ad0f 34be 853b 09be ab8d 08bf b40f a43e
000003d0: 6d91 9abc fc78 4bbe ae3a 0e3e d9e3 173e
000003e0: fe5c 9538 858b ecbe 9400 1abe 0d4d d43d
000003f0: 984f 02bd e66f 2a3e c0b9 05be 248e 32be

q_netwrok.2.bias f4 [256]
-0.2939095 0.57467604 0.4523056 -0.45893675 0.24924509 0.60416865 0.23049673 -0.26802483
-0.29788744 -0.60768604 0.15331317 0.21464443 0.49790126 -0.3597077 -0.36627638 0.75523764
-0.3118924 0.3092647 -0.19104916 0.57655805 -0.5726279 -0.04228413 0.3541157 0.5914686
0.72243243 0.5208261 -0.09990506 -0.38214734 0.21120143 0.6558774 0.3299879 -0.13653517
-0.4609922 -0.31926084 -0.3799498 -0.3120003 0.48406965 -0.3121563 0.48052964 -0.34186792
-0.23821533 0.38065377 0.6863764 0.27369237 0.010356778 0.29990527 0.48848215 0.50563115
-0.14596394 0.339332 -0.43624055 -0.13802874 -0.5683849 -0.25177997 0.58169526 -0.31533694
0.4459329 0.6172984 -0.33226016 0.098398216 0.60568756 0.067956224 0.30343726 -0.21555562
-0.29864386 -0.44441387 0.2521699 0.6358776 -0.51860964 0.4534894 0.66402614 0.48296127
-0.42280528 -0.43273428 0.51069367 0.35755038 0.29785755 -0.18212974 -0.35959584 0.55800897
0.5111559 0.36854976 0.0843448 0.26034853 0.18644689 -0.5978957 -0.45430475 0.54166394
0.7151239 0.4640411 0.29752147 0.3988177 0.42602238 0.8070806 0.15132378 -0.19341697
0.24003139 -0.3582592 -0.124947615 -0.48574463 0.53304935 -0.3875628 0.6587431 -0.5031183
0.21530752 -0.47369036 0.33368516 0.6332502 0.34185356 0.39100707 0.2925037 0.7854158
-0.32572377 0.72636306 0.72900856 0.24994409 0.4210232 0.40218693 0.78377414 0.09682074
-0.4852372 0.46333024 0.56692576 0.39761066 -0.57681745 0.24916537 -0.25793225 0.30267757
0.84881777 0.50470406 -0.35647696 -0.30327317 0.37157452 0.24360158 -0.6907266 0.533093
-0.36461803 0.48433226 0.24034101 0.3614837 0.7700628 0.6097841 0.78299415 -0.40238208
-0.45418262 -0.038333174 -0.33111355 -0.54454404 0.4130786 0.60601 -0.50179225 -0.33576703
0.23918997 0.205071 0.75278074 0.38603243 0.5779222 0.19814491 0.13618916 0.23350957
0.17126255 -0.21157414 0.49534315 0.38850904 -0.44599497 0.45269784 -0.596402 -0.42328525
-0.52047783 -0.50794095 -0.4598677 0.44682536 0.67708874 0.1813526 0.5799278 -0.365319
0.28438425 -0.5709798 -0.17567861 -0.55198115 0.06044542 -0.45146626 0.32623887 -0.67807806
0.40339777 0.781321 -0.30430642 0.27649543 0.5939504 0.2667765 -0.42193112 0.63504916
0.16686413 0.51406723 0.5243163 -0.3586555 0.73842394 0.16481383 -0.06963673 0.3521678
-0.013004342 -0.40600863 0.5485933 0.3894248 -0.084393434 0.37914634 -0.614791 0.5609277
0.7296637 -0.558693 0.6242181 -0.40555245 -0.2885646 0.09569752 0.18143515 0.24380569
-0.40513244 -0.4115306 -0.44199026 0.72385883 0.04763033 0.71162266 -0.3013545 0.6179347
0.6576925 0.5052903 0.5179848 0.5274359 -0.55151474 -0.29782653 0.37304956 0.39613143
0.21762238 -0.32334524 0.62763745 0.399154 0.060827933 0.64146334 0.29034865 -0.38390127
0.15847924 0.41868764 -0.5096692 -0.32817546 0.43503773 0.41822642 0.59461486 0.59590733
0.79930747 0.514379 -0.44173655 0.7569308 -0.47722104 0.20105618 -0.2945825 0.18979356
00000000: 4e7b 96be f81d 133f 9994 e73e c2f9 eabe
00000010: 1b3a 7f3e ccaa 1a3f 5607 6c3e 8d3a 89be
00000020: b484 98be 5091 1bbf 21fe 1c3e c0cb 5b3e
00000030: eaec fe3e 9c2b b8be 9488 bbbe 4157 413f
00000040: 5cb0 9fbe f157 9e3e 64a2 43be 4f99 133f
00000050: be97 12bf 2032 2dbd a74e b53e 7c6a 173f
00000060: 55f1 383f dc54 053f 069b ccbd d1a8 c3be
00000070: 3045 583e 95e7 273f 2df4 a83e e0cf 0bbe
00000080: 2b07 ecbe 2876 a3be c888 c2be 81be 9fbe
00000090: fad7 f73e f3d2 9fbe fb07 f63e 5009 afbe
000000a0: b8ee 73be 0de5 c23e 5db6 2f3f 6821 8c3e
000000b0: 7aaf 293c 2f8d 993e 551a fa3e 0b71 013f
000000c0: 9277 15be edbc ad3e ec5a dfbe 6857 0dbe
000000d0: ac81 11bf 4ee9 80be fbe9 143f d873 a1be
000000e0: 5151 e43e 4507 1e3f 011e aabe 0185 c93d
000000f0: 570e 1b3f a22c 8b3d 215c 9b3e 9dba 5cbe
00000100: d9e7 98be 378a e3be 6a1c 813e e0c8 223f
00000110: 9ac3 04bf c32f e83e 9efd 293f b346 f73e
00000120: ef79 d8be 598f ddbe d2bc 023f d810 b73e
00000130: c980 983e 3880 3abe f21c b8be add9 0e3f
00000140: 1ddb 023f 8eb2 bc3e f7bc ac3d 674c 853e
00000150: efeb 3e3e b10f 19bf a29a e8be 7daa 0a3f
00000160: 5c12 373f cc96 ed3e bc54 983e d531 cc3e
00000170: 9b1f da3e d69c 4e3f 9ff4 1a3e 190f 46be
00000180: caca 753e c06d b7be 89e4 ffbd 85b3 f8be
00000190: ec75 083f a26e c6be 63a3 283f 5ccc 00bf
000001a0: 9379 5c3e 8b87 f2be c8d8 aa3e af1c 223f
000001b0: 6e07 af3e 1432 c83e 0cc3 953e 0311 493f
000001c0: 44c5 a6be eef2 393f 4ea0 3a3f 58f1 7f3e
000001d0: 5a90 d73e 72eb cd3e 6ca5 483f f449 c63d
000001e0: 0371 f8be 9f39 ed3e 0c22 113f a093 cb3e
000001f0: 4faa 13bf 3525 7f3e b20f 84be 8ef8 9a3e
00000200: 1f4c 593f 4934 013f 2684 b6be 9f46 9bbe
00000210: 043f be3e b172 793e 75d3 30bf c878 083f
00000220: 37af babe 66fa f73e f41b 763e 6414 b93e
00000230: d622 453f d01a 1c3f 4e72 483f 0605 cebe
00000240: a08a e8be 3f03 1dbd b787 a9be 3d67 0bbf
00000250: 0a7f d33e 7923 1b3f 7575 00bf a8e9 abbe
00000260: 37ee 743e 22fe 513e 3db6 403f 0ba6 c53e
00000270: b6f2 133f 80e6 4a3e 2c75 0b3e 221d 6f3e
00000280: 735f 2f3e e4a6 58be 9e9d fd3e a8ea c63e
00000290: 7459 e4be 03c8 e73e cdad 18bf d8b8 d8be
000002a0: 093e 05bf 6b08 02bf c773 ebbe 4bc6 e43e
000002b0: b055 2d3f 7fb4 393e 2676 143f 180b bbbe
000002c0: d09a 913e bb2b 12bf 18e5 33be a34e 0dbf
000002d0: 9e95 773d 9626 e7be c808 a73e 8696 2dbf
000002e0: 278a ce3e a704 483f 0dce 9bbe cf90 8d3e
000002f0: 220d 183f ee96 883e 5b07 d8be 9592 223f
00000300: 6ede 2a3e e999 033f 9839 063f b2a1 b7be
00000310: 5a09 3d3f f5c4 283e b49d 8ebd 564f b43e
00000320: 2a10 55bc 5de0 cfbe 9c70 0c3f b062 c73e
00000330: 77d6 acbd 781f c23e f162 1dbf f598 0f3f
00000340: 3ecb 3a3f 8106 0fbf c2cc 1f3f 92a4 cfbe
00000350: bdbe 93be 10fd c33d 23ca 393e 33a8 793e
00000360: 856d cfbe 24b4 d2be 8c4c e2be d04e 393f
00000370: 0518 433d e72c 363f 234b 9abe f830 1e3f
00000380: 895e 283f b55a 013f a79a 043f 0a06 073f
00000390: 1230 0dbf b87c 98be 5a00 bf3e bdd1 ca3e
000003a0: 67d8 5e3e 828d a5be d9ac 203f ea5d cc3e
000003b0: b626 793d f136 243f 94a8 943e b58e c4be
000003c0: 6248 223e 3a5e d63e ae79 02bf 9d06 a8be
000003d0: 44bd de3e c621 d63e ae38 183f 628d 183f
000003e0: 6a9f 4c3f 58ae 033f 4b2b e2be 38c6 413f
000003f0: 5156 f4be ace1 4d3e 84d3 96be 3e59 423e

q_netwrok.4.weight f4 [256, 256]
-0.57235146 0.0632019 0.086510345 -0.69944566 0.051830206 0.17392069 0.15733188 -0.8051303
-0.08546746 -0.16503575 0.161957 -0.008411746 0.18058719 -0.12975782 -0.6521032 0.024867617
0.019233515 0.13201922 -1.0189227 0.10158742 -0.4355335 -0.20776775 0.044061407 0.12100411
0.08611699 0.08034806 -0.036035612 -0.06654432 0.091456845 0.17730616 0.0012294225 -0.0918931
-0.423536 -0.803197 -0.83743376 -0.23593414 0.023097318 -0.55084103 0.14992063 -0.42349857
-0.37858823 0.19132459 0.13035908 -0.06248547 0.07149313 0.14727312 0.1845561 0.07887556
-0.18275736 0.09727358 -0.29150715 -0.019563215 -0.59083694 -0.074686475 0.111561604 0.0070188306
0.0674134 0.03373611 -0.27347133 -0.099443704 0.09912888 -0.06880551 0.019197552 -0.38790765
-0.6562018 -1.1418266 0.111529775 0.10280939 -0.28729162 0.21811469 0.1294627 0.034626614
-0.038103405 -0.94034314 0.020606913 0.078767374 0.13682316 -0.1265989 -1.0203962 0.0026420904
0.13941827 0.11297031 -0.09500074 0.023259295 0.020612108 -0.8293643 -0.46871525 0.01707943
0.0025358694 0.058280025 -0.020028196 -0.059412885 -0.0074193664 0.032322086 0.086273074 -0.2947171
-0.1961008 -0.2969497 -0.17452435 -0.16566776 0.005941982 -0.30143094 0.09598427 -0.16310644
0.15639317 -0.10054498 -0.10245961 0.14720814 0.042795315 0.11607009 0.19416778 0.06476841
-0.442344 0.08851858 0.012060002 -0.03261173 0.11738796 0.5950748 0.16175112 -0.013827875
-0.03853109 0.12390531 0.14331035 0.029946662 -0.15138368 0.06304522 -1.0170653 0.001763647
0.19931145 0.12274004 -0.34568554 -0.40091178 0.09976321 0.087183565 -0.66024095 0.011306274
-1.7107697 0.05928858 -0.042201694 0.100647986 0.04851957 0.06315741 0.053182125 -0.494715
-0.103388876 -0.09132323 -0.28823182 -0.7134 -0.049320694 0.039693642 -0.40217835 -0.0963992
0.025981197 -0.047238663 0.18207107 0.101904586 0.10058401 0.0071560703 0.063260734 0.10318822
-0.09247561 -0.13768518 -0.011045329 -0.0034347675 -0.038005494 -0.09822134 -0.29585955 -1.0363231
-0.6266299 -0.08653967 -1.1842731 0.017692026 0.044720028 0.083283484 0.015728205 -0.5534789
-0.25578168 -0.113115236 0.012643007 -0.38135812 -0.22685148 -0.34361702 0.15616713 -0.27745116
-0.051864624 0.17647897 -0.75367063 0.17870091 0.14603896 -0.05305574 -1.1169766 0.08839812
0.05814578 0.10718309 0.10199837 -0.4809526 0.029139694 0.12397754 -0.1285396 0.11321188
-0.15159206 -1.0575609 0.047454316 0.00860784 -0.750846 0.061436277 -0.041989923 0.34103307
0.04068384 -0.42154273 0.005764345 -0.7480301 -0.40515143 -0.0133599825 0.13998784 -0.10099771
-0.87506455 0.12051125 -0.51836073 0.07703456 0.17000587 0.028832957 -0.28867224 0.0029754061
0.010123288 0.040885534 0.05769711 0.15402207 -0.23983596 -1.1222175 0.16220702 0.11300427
0.23634623 -1.2566576 0.21225828 0.009221871 0.08553702 0.07265553 -0.03294859 -0.7502095
0.06921966 0.0075350436 -0.4478917 -0.11096064 0.0027762866 0.109267995 0.09145542 0.13020252
0.16010495 0.081887685 -1.0466557 0.04161178 -0.8417211 0.2678698 -0.80421686 -0.1579369
00000000: a085 12bf ff6f 813d 562c b13d df0e 33bf
00000010: e94b 543d 4418 323e 9c1b 213e 051d 4ebf
00000020: 9009 afbd 22ff 28be 0ed8 253e 6bd1 09bc
00000030: d9eb 383e 3cdf 04be 3cf0 26bf 2cb7 cb3c
00000040: 9b8f 9d3c 0c30 073e 0f6c 82bf 110d d03d
00000050: 3ffe debe 12c1 54be bc79 343d 01d1 f73d
00000060: 1b5e b03d 868d a43d 149a 13bd 6348 88bd
00000070: ba4d bb3d bf8f 353e 9324 a13a 7332 bcbd
00000080: b6d9 d8be 529e 4dbf 0f62 56bf b898 71be
00000090: 9636 bd3c eb03 0dbf cb84 193e ced4 d8be
000000a0: 51d6 c1be 98ea 433e da7c 053e c4f0 7fbd
000000b0: fd6a 923d c4ce 163e 46fc 3c3e 8289 a13d
000000c0: bf24 3bbe 5f37 c73d 6d40 95be 0943 a0bc
000000d0: 1741 17bf 39f5 98bd 697a e43d 38fe e53b
000000e0: 0910 8a3d e02e 0a3d 6f04 8cbe 24a9 cbbd
000000f0: 1504 cb3d e7e9 8cbd 2f44 9d3c d59b c6be
00000100: d7fc 27bf 6027 92bf b969 e43d bb8d d23d
00000110: e317 93be 7559 5f3e df91 043e a3d4 0d3d
00000120: 5112 1cbd 54ba 70bf d4cf a83c ca50 a13d
00000130: 5f1b 0c3e 24a3 01be 589c 82bf ec26 2d3b
00000140: aac3 0e3e fa5c e73d bf8f c2bd 478a be3c
00000150: b9da a83c 3851 54bf 72fb efbe 29ea 8b3c
00000160: d430 263b 09b7 6e3d 2c12 a4bc ed5a 73bd
00000170: 281e f3bb 2a64 043d f0af b03d 29e5 96be
00000180: a6ce 48be cb09 98be 83b6 32be cfa4 29be
00000190: f5b4 c23b 2855 9abe 6793 c43d 6005 27be
000001a0: 8825 203e 87ea cdbd 58d6 d1bd bbbd 163e
000001b0: 244a 2f3d 28b6 ed3d ebd3 463e 4da5 843d
000001c0: ea7a e2be 3b49 b53d 5197 453c e193 05bd
000001d0: 1969 f03d d256 183f 16a2 253e 508e 62bc
000001e0: c7d2 1dbd 11c2 fd3d f3bf 123e b452 f53c
000001f0: 5304 1bbe da1d 813d 322f 82bf 2c2a e73a
00000200: 4d18 4c3e 215f fb3d b2fd b0be 4f44 cdbe
00000210: a750 cc3d 4c8d b23d 8d05 29bf f33d 393c
00000220: 80fa dabf 95d8 723d afdb 2cbd 8820 ce3d
00000230: 75bc 463d ac58 813d 80d5 593d 494b fdbe
00000240: 8cbd d3bd ac07 bbbd 1f93 93be 62a1 36bf
00000250: 7f04 4abd cd95 223d 52ea cdbe f26c c5bd
00000260: 85d6 d43c 547d 41bd d770 3a3e 5ab3 d03d
00000270: fdfe cd3d 787d ea3b d88e 813d 5854 d33d
00000280: da63 bdbd 58fd 0cbe 78f7 34bc d619 61bb
00000290: a6ab 1bbd 4528 c9bd e77a 97be 3ca6 84bf
000002a0: d16a 20bf b63b b1bd 4396 97bf deee 903c
000002b0: 592c 373d 8890 aa3d 70d8 803c cbb0 0dbf
000002c0: d1f5 82be f6a8 e7bd 9d24 4f3c 5f41 c3be
000002d0: c14b 68be 92ee afbe 47ea 1f3e 140e 8ebe
000002e0: 0070 54bd e7b6 343e 8ff0 40bf 5ffd 363e
000002f0: 3d8b 153e fa50 59bd 17f9 8ebf 130a b53d
00000300: 452a 6e3d cf82 db3d 85e4 d03d 6b3f f6be
00000310: 5eb6 ee3c f0e7 fd3d e39f 03be a1db e73d
00000320: f33a 1bbe 285e 87bf 755f 423d e607 0d3c
00000330: 7237 40bf 9ba4 7b3d a0fd 2bbd e39b ae3e
00000340: 19a4 263d 73d4 d7be d5e2 bc3b e77e 3fbf
00000350: 0270 cfbe d4e3 5abc f958 0f3e e3d7 cebd
00000360: 3b04 60bf 9ace f63d 4ab3 04bf 4cc4 9d3d
00000370: 0516 2e3e 1833 ec3c d9cc 93be 08ff 423b
00000380: 26dc 253c 9777 273d ce53 6c3d f6b7 1d3e
00000390: 8f97 75be d3a4 8fbf 9919 263e c86e e73d
000003a0: bf04 723e 28da a0bf 3c5a 593e 5517 173c
000003b0: 082e af3d 6ccc 943d 1af5 06bd bb0d 40bf
000003c0: 09c3 8d3d 87e8 f63b 1052 e5be 553f e3bd
000003d0: 5cf2 353b e6c7 df3d fb4c bb3d cf53 053e
000003e0: 8df2 233e bbb4 a73d d0f8 85bf 1d71 2a3d
000003f0: 097b 57bf 3b26 893e 28e1 4dbf 36ba 21be

q_netwrok.4.bias f4 [256]
0.7662248 0.81447405 0.0399476 -0.06254809 -0.06946792 -0.21531557 0.7566247 0.8158842
0.849686 -0.09603025 0.73295647 0.27442524 0.027755802 -0.017874846 -0.17049553 -0.064145476
-0.10305422 0.10700257 0.12226881 -0.16450953 0.76432025 0.7289419 -0.18851084 0.26076654
0.7524712 0.8013337 -0.24044304 -0.10460317 -0.32616043 0.8340367 -0.2737232 -0.10113514
0.80705786 -0.0831665 0.7889597 -0.087960534 0.11320663 0.8032292 0.77205956 0.80219793
0.7750721 0.15826458 0.6968795 0.43663293 -0.10318343 0.7617335 -0.36995307 -0.12695931
0.72235394 -0.15807441 0.12950523 0.271541 -0.15156485 0.06779664 -0.17237997 0.05726565
-0.15201914 -0.15538599 0.7469141 0.16780823 -0.08309831 0.6453131 0.35617074 0.73144525
0.18569547 0.7051162 0.86243385 -0.19867471 -0.051308457 -0.4438886 0.7056756 0.7331771
0.16628249 0.7877712 0.23812458 -0.06805697 0.6938312 0.2973827 0.6329363 0.8921934
0.8234383 0.7571013 -0.045824703 -0.047766898 -0.21401386 -0.1546844 0.2649707 0.88077766
0.5512931 -0.05847266 -0.21407601 -0.18280733 0.780766 0.7184188 0.6232794 -0.015977556
0.74222493 -0.50608057 0.29943556 -0.009002431 -0.074729405 0.83557236 0.7349025 0.7080891
-0.11922728 -0.45928985 0.6389892 -0.0629777 -0.5811064 -0.7861514 0.75584036 0.76188403
0.53611475 0.04091123 0.66063726 0.7020429 0.2805102 -0.45853582 0.6921974 -0.16787955
0.55110246 0.6797738 0.82199174 0.7378713 -0.38970324 -0.1418571 -0.40306208 -0.15580809
0.78142256 0.72057396 0.8642046 0.89291817 -0.48112252 -0.09785679 -0.40514556 -0.17762566
0.7595153 0.8348796 0.7579094 0.06375976 -0.11138976 0.78931963 0.8426134 0.784856
-0.23275469 0.70211726 0.14701489 0.83337134 -0.086529955 -0.1944114 -0.22487625 0.5712301
0.8057101 0.7266482 0.09364273 -0.1523949 0.1263302 -0.10989525 -0.009577024 0.7865385
0.020269433 -0.16561374 -0.15533741 0.15137608 0.7109447 -0.20084555 0.85055953 0.052421153
0.7957653 0.62395424 0.7523174 -0.3097508 0.8234782 0.7899721 0.8479636 0.52367425
0.02219444 0.81629723 0.76412666 0.7966873 0.71471006 0.07971196 -0.08174622 -0.20370807
-0.15292072 0.78711635 0.5215613 -0.24263199 0.3640529 0.15518971 -0.12040675 -0.15551588
0.037178125 0.7930773 0.29224864 0.7500635 0.81548834 0.1468412 -0.5544287 0.8316955
0.6822576 0.7226072 0.86262834 -0.047516014 -0.054022178 0.81478465 -0.17269422 0.19515607
0.5110028 -0.12615354 0.7744244 0.24874656 0.85649914 0.24887814 0.77003026 0.4457327
-0.14234307 -0.48999545 0.81898797 -0.026118992 0.1856055 -0.098533474 0.8293015 0.8432817
0.8207701 0.7146023 -0.11108032 0.86346537 -0.654503 0.7152805 0.03146096 -0.2399632
0.7851341 -0.18635593 -0.05495561 0.7103383 -0.3002412 0.821501 -0.21262445 0.82134885
-0.1459742 0.1774443 0.04308107 0.031558476 0.7647221 0.74509776 0.078057826 -0.07718458
0.14243776 -0.26216832 -0.13226758 0.7922192 -0.040628605 0.7747135 0.5596872 -0.22104284
00000000: 4f27 443f 5f81 503f 18a0 233d 3719 80bd
00000010: 3245 8ebd af7b 5cbe 28b2 413f c9dd 503f
00000020: 0685 593f 82ab c4bd 09a3 3b3f 7781 8c3e
00000030: 2360 e33c 456e 92bc 6196 2ebe b45e 83bd
00000040: 170e d3bd 2a24 db3d 1268 fa3d 3075 28be
00000050: 7eaa 433f f09b 3a3f fc08 41be 3183 853e
00000060: f4a1 403f 3524 4d3f b336 76be 303a d6bd
00000070: 80fe a6be 6e83 553f 7325 8cbe f11f cfbd
00000080: 589b 4e3f 3353 aabd 43f9 493f a724 b4bd
00000090: e1d8 e73d 6ea0 4d3f b2a5 453f d85c 4d3f
000000a0: 206b 463f 1c10 223e b266 323f 5a8e df3e
000000b0: d651 d3bd f700 433f 7d6a bdbe 9f01 02be
000000c0: 30ec 383f 42de 21be 059d 043e 6c07 8b3e
000000d0: d133 1bbe f7d8 8a3d 6084 30be 638f 6a3d
000000e0: e8aa 1bbe 811d 1fbe c335 3f3f ecd5 2b3e
000000f0: 722f aabd 3d33 253f 035c b63e ff3f 3b3f
00000100: f426 3e3e 7f82 343f 77c8 5c3f 6271 4bbe
00000110: d128 52bd 5e45 e3be 28a7 343f 7fb1 3b3f
00000120: f545 2a3e 60ab 493f eed6 733e 7461 8bbd
00000130: ec9e 313f 8c42 983e 1d08 223f c966 643f
00000140: dacc 523f 64d1 413f afb2 3bbd 39a7 43bd
00000150: 7326 5bbe 9665 1ebe 3daa 873e a57a 613f
00000160: 8b21 0d3f 0781 6fbd be36 5bbe d831 3bbe
00000170: 48e0 473f 4bea 373f 3d8f 1f3f 5de3 82bc
00000180: 7402 3e3f 7f8e 01bf 9e4f 993e ef7e 13bc
00000190: bb0b 99bd 12e8 553f 9222 3c3f 5445 353f
000001a0: 6f2d f4bd 0a28 ebbe cc94 233f 74fa 80bd
000001b0: 64c3 14bf 3841 49bf c17e 413f d50a 433f
000001c0: d13e 093f 8992 273d 861f 293f 15b9 333f
000001d0: 089f 8f3e 35c5 eabe d933 313f 9ee8 2bbe
000001e0: 0d15 0d3f a805 2e3f 0d6e 523f 22e5 3c3f
000001f0: 2f87 c7be fd42 11be 275e cebe 288c 1fbe
00000200: 4f0b 483f 8977 383f 833c 5d3f 4996 643f
00000210: b155 f6be 2469 c8bd 3d6f cfbe 80e3 35be
00000220: 986f 423f abba 553f 5a06 423f 7a94 823d
00000230: 5120 e4bd da10 4a3f 83b5 573f 53ec 483f
00000240: 3f57 6ebe f5bd 333f 128b 163e d357 553f
00000250: 9e36 b1bd c813 47be f645 66be 233c 123f
00000260: 0443 4e3f 9e05 3a3f c2c7 bf3d 690d 1cbe
00000270: b45c 013e c310 e1bd f3e8 1cbc 965a 493f
00000280: 150c a63c a696 29be c510 1fbe 5502 1b3e
00000290: 7900 363f 75aa 4dbe 45be 593f 90b7 563d
000002a0: 46b7 4b3f 77bb 1f3f e097 403f a897 9ebe
000002b0: 78cf 523f 9d3b 4a3f 2414 593f 840f 063f
000002c0: 1dd1 b53c dbf8 503f ce9d 433f b3f3 4b3f
000002d0: 3df7 363f 0640 a33d 906a a7bd d998 50be
000002e0: 4097 1cbe 7580 493f 0b85 053f 8574 78be
000002f0: 2465 ba3e 0dea 1e3e d097 f6bd 8e3f 1fbe
00000300: 1748 183d 1d07 4b3f 9da1 953e 2904 403f
00000310: d8c3 503f 8a5d 163e 0aef 0dbf ffe9 543f
00000320: 6fa8 2e3f c9fc 383f 36d5 5c3f 27a0 42bd
00000330: 5c46 5dbd ba95 503f c1d6 30be fed6 473e
00000340: 14d1 023f 652e 01be ad40 463f 6bb7 7e3e
00000350: 8743 5b3f e9d9 7e3e b420 453f 1437 e43e
00000360: 62c2 11be afe0 fabe 32a9 513f 7ff7 d5bc
00000370: 5e0f 3e3e ebcb c9bd 1a4d 543f 4fe1 573f
00000380: fd1d 523f 2df0 363f 147e e3bd 110c 5d3f
00000390: 828d 27bf 9f1c 373f 35dd 003d eab8 75be
000003a0: 8cfe 483f 17d4 3ebe 2219 61bd bbd8 353f
000003b0: 37b9 99be e44d 523f 39ba 59be eb43 523f
000003c0: 437a 15be f5b3 353e c775 303d 7643 013d
000003d0: d4c4 433f babe 3e3f c8dc 9f3d f312 9ebd
000003e0: 34db 113e ed3a 86be 2771 07be e1ce 4a3f
000003f0: 2e6a 26bd a053 463f a947 0f3f 0e59 62be

q_netwrok.6.weight f4 [13, 256]
0.15163754 0.124471225 0.191782 -0.019517597 -0.034328848 -0.62542427 0.08680553 0.14437075
0.21632029 0.77956146 0.210624 0.17684379 0.059821885 0.044242486 -0.7241275 0.59697336
-0.14406112 0.11667499 0.32360306 0.70169544 0.25601798 0.09893495 -0.059132878 0.2837343
0.14323975 0.12358783 -0.63802147 -0.05967186 0.05134788 0.061164975 -0.66979635 0.14974476
0.17295969 -0.60485744 0.18443808 -0.0018417665 0.47077313 0.1996314 0.21305019 0.14790805
0.11580804 0.658839 0.15371683 0.12613432 -0.32674325 0.2136159 -0.33740664 -0.7408923
0.27017424 -0.55688184 0.2802545 0.07335404 -0.6085571 0.092240736 -0.6626323 0.07835049
-0.56488925 0.3539337 0.14530542 0.58486044 -0.054852124 0.36575603 0.18567784 0.12510546
-0.043566264 0.17431958 0.15027693 0.20594946 0.11785896 -0.38222963 0.17772546 0.3943064
0.12050947 0.14554623 0.15393749 0.036938056 0.2788765 0.43432346 0.33231363 0.06616065
0.09358236 0.06911083 0.4335716 -0.39234585 -0.7445218 -0.74042326 0.2402971 0.18115185
0.15482165 0.1955011 -0.31845626 -0.33265662 0.15820828 0.20838216 0.31096426 -0.02662147
0.14224039 -0.046522774 -0.2258156 0.16178188 0.42198086 0.07353292 0.10958268 0.16155007
-0.56115115 -0.36276245 0.100383036 0.21933916 -0.32960775 -0.08638128 0.1259918 0.20416532
0.30408743 1.043661 0.30595812 0.15293981 0.3782653 -0.33257982 0.2590306 0.26704854
0.22133137 0.12915161 0.26377276 0.2414828 -0.21128717 -0.7009127 -0.31407586 -0.616652
0.08443762 0.17822552 0.13772756 0.1883055 -0.053320013 -0.018313067 -0.35620973 0.15826139
0.19560625 0.15273409 0.0834451 0.24965225 0.41657364 0.06307823 0.13666472 0.106651604
0.16262111 0.2425845 -0.033358883 0.2375025 0.0025612102 0.48585403 -0.73033416 0.20820673
0.375607 0.17990756 -0.109128 -0.20275497 0.30686268 -0.49812925 -0.5166457 0.15142097
0.00060833746 -0.6460347 -0.10100952 -0.025640946 0.36471653 -0.39962605 0.14265397 0.35172582
0.18647835 0.15062411 0.21241647 -0.71257895 0.11212686 0.092699505 0.31381816 0.114021935
0.18998781 0.10242319 0.22134079 0.15669702 0.34115356 0.18462496 0.46666977 0.78613734
-0.38797653 0.20011795 0.16700065 0.3414773 0.23561728 0.04404332 -0.112229265 0.26553014
-0.27278456 0.13336955 0.16089052 0.17087117 0.16645895 0.5299591 -0.11944397 0.124177665
0.15571415 0.33962378 0.3214977 -0.57246083 0.99750704 0.13680641 -0.6541533 0.22001788
0.6402906 -0.404981 0.10946429 0.10923547 0.1642336 0.07959035 0.029402915 0.123310015
-0.18931912 -0.25476208 0.3745816 -0.06198576 0.4923193 0.5890717 0.082582586 0.1647227
0.21642259 0.3861773 -0.083119 0.2408829 -0.027945433 0.14616518 -0.28806624 1.0902036
0.15678741 -0.5357498 0.10468745 0.213793 -0.12203833 0.11593226 0.10747784 0.28971657
0.17250654 0.040470347 0.020785097 -0.0042507616 0.14678091 0.17698604 -0.004969186 0.10768842
0.2630213 -0.06360497 -0.03395076 0.32087937 0.21492133 0.12638173 0.14256553 -0.6872946
00000000: df46 1b3e c5ea fe3d 8062 443e 5ee3 9fbc
00000010: 689c 0cbd ce1b 20bf 19c7 b13d edd5 133e
00000020: 1183 5d3e 5791 473f d1ad 573e 8a16 353e
00000030: cb07 753d 9c37 353d 6b60 39bf 3fd3 183f
00000040: c284 13be 4cf3 ee3d 4daf a53e 50a2 333f
00000050: ca14 833e 689e ca3d 5135 72bd 9f45 913e
00000060: 71ad 123e 9e1b fd3d 6055 23bf 7b6a 74bd
00000070: 2852 523d 2088 7a3d c677 2bbf b156 193e
00000080: 581c 313e f0d7 1abf 56dd 3c3e 6e67 f1ba
00000090: 2d09 f13e 2c6c 4c3e d429 5a3e 3575 173e
000000a0: c42c ed3d aca9 283f f267 1d3e 5b29 013e
000000b0: e44a a7be 20be 5a3e 90c0 acbe 1eab 3dbf
000000c0: 4754 8a3e cf8f 0ebf 857d 8f3e a53a 963d
000000d0: 66ca 1bbf b6e8 bc3d 45a2 29bf 3976 a03d
000000e0: 959c 10bf cc36 b53e f2ca 143e 6ab9 153f
000000f0: 9fac 60bd 6044 bb3e 5522 3e3e a51b 003e
00000100: 8a72 32bd d580 323e 32e2 193e 6ae4 523e
00000110: 0a60 f13d 9ab3 c3be aafd 353e 87e2 c93e
00000120: abcd f63d 120a 153e caa1 1d3e 5c4c 173d
00000130: e7c8 8e3e a55f de3e 0325 aa3e 3c7f 873d
00000140: 1ca8 bf3d fb89 8d3d 19fd dd3e 8ee1 c8be
00000150: fb98 3ebf 618c 3dbf 7110 763e df7f 393e
00000160: 9189 1e3e 7131 483e b30c a3be f851 aabe
00000170: 5a01 223e 2262 553e b536 9f3e 4515 dabc
00000180: 77a7 113e aa8e 3ebd 343c 67be 26aa 253e
00000190: e00d d83e 6d98 963d e26c e03d 626d 253e
000001a0: 9aa7 0fbf 00bc b9be 9f95 cd3d 729a 603e
000001b0: 59c2 a8be abe8 b0bd ff03 013e b710 513e
000001c0: 59b1 9b3e af96 853f 8ba6 9c3e 419c 1c3e
000001d0: fdab c13e e747 aabe a99f 843e 96ba 883e
000001e0: b1a4 623e 5240 043e 390d 873e 4447 773e
000001f0: aa5b 58be 046f 33bf 8dce a0be e8dc 1dbf
00000200: a2ed ac3d c080 363e 7408 0d3e 28d3 403e
00000210: 1666 5abd 4905 96bc 1f61 b6be 460f 223e
00000220: 014d 483e 5366 1c3e 44e5 aa3d d7a4 7f3e
00000230: 2449 d53e 292f 813d d6f1 0b3e 286c da3d
00000240: 2686 263e 1268 783e 53a3 08bd db33 733e
00000250: fad9 273b dcc1 f83e 2ef7 3abf 2534 553e
00000260: 904f c03e b039 383e 807e dfbd 009f 4fbe
00000270: 1b1d 9d3e cc0a ffbe e542 04bf 190e 1b3e
00000280: d678 1f3a 8862 25bf 14de cebd f60c d2bc
00000290: 20bc ba3e c99b ccbe e213 123e 6815 b43e
000002a0: 2ef4 3e3e 353d 1a3e b483 593e 936b 36bf
000002b0: c4a2 e53d 3dd9 bd3d c6ac a03e 5584 e93d
000002c0: 2a8c 423e 40c3 d13d 29a7 623e 2f75 203e
000002d0: aeab ae3e 530e 3d3e 57ef ee3e 4c40 493f
000002e0: dca4 c6be b8eb 4c3e 3802 2b3e 1dd6 ae3e
000002f0: a845 713e c566 343d 75d8 e5bd 91f3 873e
00000300: 6baa 8bbe 0792 083e 7cc0 243e daf8 2e3e
00000310: 3774 2a3e 66ab 073f 0a9f f4bd dc50 fe3d
00000320: 8873 1f3e 2be3 ad3e 599b a43e cb8c 12bf
00000330: 9f5c 7f3f fb16 0c3e 9776 27bf 5e4c 613e
00000340: 16ea 233f ab59 cfbe d02e e03d d9b6 df3d
00000350: da2c 283e 4400 a33d 62de f03c f689 fc3d
00000360: dfdc 41be 2d70 82be 29c9 bf3e c8e4 7dbd
00000370: 4611 fc3e 67cd 163f 0f21 a93d 11ad 283e
00000380: e29d 5d3e 08b9 c53e 4b3a aabd 02aa 763e
00000390: d2ed e4bc 53ac 153e 6b7d 93be cb8b 8b3f
000003a0: e18c 203e e626 09bf 6066 d63d 8dec 5a3e
000003b0: 3bef f9bd e56d ed3d 571d dc3d bb55 943e
000003c0: 8ea5 303e 3cc4 253d 8245 aa3c f949 8bbb
000003d0: bc4d 163e d43b 353e 8ed4 a2bb bf8b dc3d
000003e0: baaa 863e 5343 82bd f40f 0bbd 4d4a a43e
000003f0: 5614 5c3e 366a 013e b3fc 113e 8af2 2fbf

q_netwrok.6.bias f4 [13]
0.25592023 0.46809268 0.5644796 0.5430566 0.53543675 0.5612979 0.53941804 0.38784346
0.33687764 0.50583714 0.23842053 0.40599942 0.56317616
00000000: fa07 833e d8a9 ef3e bc81 103f c205 0b3f
00000010: 6212 093f 38b1 0f3f 4d17 0a3f 6b93 c63e
00000020: 3a7b ac3e 8b7e 013f 8324 743e 28df cf3e
00000030: 502c 103f
