RL code/rlcodes/q-learning/dqn_walker_models/checkpoint_episode_7000.pth (torch, 562285 bytes, 8 tensors)

q_netwrok.0.weight f4 [256, 17]
00000000: 54b1 953e 4e30 26bf 1d6a 9dbe 05a0 70bd
00000010: abf8 56be a6fc 27bf 4df5 743e 0b96 61bd
00000020: b677 6cbe af2d 4bbe 21df 3e3e a17f 31be
00000030: eaa5 0c3e d6ec 8a3c 664d 563d 8fc5 953d
00000040: 3d9d cfbb d0a5 403f ba35 823e dd1b bd3c
00000050: ae85 613d f705 4e3f cf87 123f 972c 4f3e
00000060: 28c6 0b3f 1ae5 d9be d692 6b3e 96ca a53e
00000070: 2a30 b3be e227 f2bd 0a27 58bd bf1a 243e
00000080: 645b 943c 92dc 0a3d 292e f6be 0d13 3e3f
00000090: 3710 3dbe 6601 b5be 8103 debe c669 95bd
000000a0: 747c e9be cb30 53bd 995d 5c3e 6ac6 afbe
000000b0: 5f73 cd3d bbd8 febc 00c4 48bd 1f89 083d
000000c0: 4922 84bd 24d4 ccbd 79cf 053d e9a9 54bf
000000d0: b9ec 04bf 4075 3dbe de51 afbe f8dc 9c3d
000000e0: 6e6a 85be 1b08 20be d537 bb3d b68d f9be
000000f0: a216 90bd d070 63bd 6240 833c aadf b3bd
00000100: 38ae e2bd 90ed 143d 143b d43c 1340 3d3d
00000110: dc1d 0d3f 0c69 893f 5388 68be e77a 0abe
00000120: 2bf5 ccbd 602e 883c efdc 693c 64d3 4b3d
00000130: d99f 46bd e8c1 67be e1c6 eebd 9c6c 1a3e
00000140: fc2f d03d 4448 4ebc caa0 54bd f074 babc
00000150: 8fbf 5e3c 8202 fb3e 0b41 063f 980d 183e
00000160: 6926 c5bd 499e 2b3e adce a83d 553a 6fbe
00000170: c3a4 8a3c b4ee b83d 831a 73bd ffe4 4dbe
00000180: 8e0c 173e add4 903d b793 04bd e8a4 603d
00000190: a093 863c 223d 43bc 873f ddbd f91c 28bf
000001a0: fa97 d63f cdaa 4d3e 1894 ed3d 537d eebe
000001b0: 7db4 453d 51ac 3dbf b8c6 01bd 74da a4be
000001c0: ce76 07be 06b2 483e e16a e93d c3a3 923d
000001d0: 0dd6 973d 9a07 823c 99c2 ddbc ee94 bb3e
000001e0: 4f9d 303f 78b5 0d3d 2cd0 1b3e 49b6 00be
000001f0: 6247 b5bd 6afc c5bd 6e77 453d ff0d d2bd
00000200: 94fe a73d 1af6 603e 3899 0cbe ea29 e7bd
00000210: e04f 04bd 2838 16be 9a50 c2bd 17e1 c43c
00000220: 57b7 19be 8125 85bf 2a8c 0fbf e925 293f
00000230: 51ef bdbe c915 91bd 840d e7be 02dd f9bd
00000240: 1dd7 b7be 8803 0b3d bad1 78bd f95e d63d
00000250: 1cd0 b73d 86ec 85bc 661b 43bd aaf7 cdbc
00000260: 16f9 d2bb 5543 dd3d a50a c0bc cb97 893f
00000270: b34e 033f e687 e63e 4640 4bbf 6967 87be
00000280: 4280 d6be 82a7 2cbe c850 9ebd bcb6 9a3d
00000290: 58a1 573c 8fdc 673c bb9f 033c e5a6 bcbc
000002a0: eafc 37bb e8cf 17ba d276 8a3d aebd b2bf
000002b0: b3fa a0be 8cfa 873e cd0b 7bbd 86a7 4ebe
000002c0: 25b5 3dbe bd6f 363e 2816 ffbd 3deb bb3e
000002d0: a5a2 6ebe aa97 0fbd 3f9f 2e3c ff48 c5bc
000002e0: 9a48 ef3d 48e0 943c 0469 903c ea59 b53e
000002f0: a830 bd3e 7e4e 3d3f eef9 4bbf 136f a8bc
00000300: b42f c1be ce1b d23e dfad bb3d 4295 9ebf
00000310: a632 5f3e 4245 3e3e a79a 3bbe b00d e9bd
00000320: 9b54 bf3c c440 c93d ac10 833d ea82 263d
00000330: 363d b73e e9ac 2d3f 013d 49be 8f7f dabd
00000340: 3f12 353d 87df f23d 72d0 fe3d ddd1 313e
00000350: 2a09 453e 45ad aa3d 1c6b adbd 9a71 473e
00000360: 8e3a 933d 617c 1e3d 770a 24be ace1 a2bd
00000370: 3a11 3f3d e62f d93e a093 483f f920 49bf
00000380: 63d1 71be 1c53 53bf 5a6a 6fbd 05ac ffbd
00000390: 4317 35bc 6f44 7d3e 8f85 29be 65ac 533d
000003a0: a99f 51bc 0e47 753b 823b 90bd ab18 05bd
000003b0: e70c aebc d8e7 00bc 35a3 72be 969e f33e
000003c0: f08d 1abf 7773 afbe c17d 69bc c846 df3e
000003d0: 933a 8bbd e8aa 07bf 8f21 893e ef5d fabe
000003e0: 34f9 85bd 575f 9a3e 69b5 f73d 8201 78bd
000003f0: ff25 8ebd 2588 3ebd 048f cbbb e1b3 ebbd
0.29236853 -0.6491746 -0.3074502 -0.058746357 -0.20993297 -0.65619886 0.239217 -0.055074733
-0.23092541 -0.19841646 0.18639804 -0.17333843 0.13735166 0.016958635 0.052319907 0.07313072
-0.006335883 0.7525301 0.25431615 0.023084575 0.055059128 0.8047785 0.5723848 0.20231853
0.5459924 -0.42557603 0.23005232 0.32381123 -0.34997684 -0.11824013 -0.052771606 0.16025828
0.018109985 0.03390176 -0.48082092 0.7424782 -0.18463217 -0.3535263 -0.43362048 -0.07295565
-0.45602763 -0.051560204 0.2152008 -0.34331065 0.10031771 -0.031109205 -0.049015045 0.033333894
-0.06451852 -0.100014 0.032668564 -0.8307176 -0.5192371 -0.18501759 -0.34242147 0.07659334
-0.26057762 -0.15628092 0.091415085 -0.4874093 -0.07035567 -0.05552751 0.016021911 -0.08782895
-0.11068386 0.03635937 0.025907077 0.046203684 0.55123687 1.0735183 -0.22708254 -0.13523446
-0.100076996 0.016623676 0.014273866 0.049762145 -0.048492286 -0.22632563 -0.11659027 0.15080494
0.10165402 -0.012590472 -0.051911153 -0.022760838 0.013595476 0.4902535 0.52443 0.14848936
-0.09626467 0.167596 0.08242545 -0.23362096 0.016924268 0.09029904 -0.059351455 -0.20106886
0.14750883 0.07071815 -0.032367434 0.054844767 0.016427815 -0.011916431 -0.108031325 -0.6566921
1.676513 0.20084687 0.11600512 -0.4657999 0.04826783 -0.7409106 -0.031683654 -0.32197917
-0.13228914 0.1959916 0.11397339 0.07160141 0.07413874 0.015872765 -0.02707033 0.36637062
0.68990034 0.03459689 0.1521613 -0.12569536 -0.08851506 -0.09667285 0.0482096 -0.10256576
0.08202854 0.2196888 -0.13730323 -0.11287291 -0.032302737 -0.1466986 -0.0948803 0.024033112
-0.15011345 -1.040207 -0.5607325 0.6607347 -0.37096646 -0.07084233 -0.451275 -0.12200357
-0.35906306 0.033938915 -0.060746886 0.10467333 0.089752406 -0.016348135 -0.04763355 -0.02514251
-0.0064383848 0.10803858 -0.023442576 1.0749449 0.5129196 0.45025557 -0.7939495 -0.26446083
-0.41894728 -0.16860774 -0.077302516 0.07554385 0.013161026 0.014151706 0.008033688 -0.0230288
-0.0028074333 -0.00057911733 0.067609444 -1.3964136 -0.31441268 0.2655834 -0.06129055 -0.20181093
-0.18526132 0.17816062 -0.12455398 0.3670291 -0.23304231 -0.035056747 0.010658084 -0.024082659
0.116837695 0.018173352 0.0176282 0.3542016 0.36951184 0.73947895 -0.7967824 -0.020560777
-0.37731707 0.41036838 0.09164023 -1.23893 0.21796665 0.18581107 -0.18320714 -0.11379564
0.023355773 0.09826806 0.06399664 0.040652193 0.35788888 0.67841965 -0.19652177 -0.10668861
0.044206854 0.11859041 0.124421015 0.17365213 0.19241777 0.0833383 -0.08467695 0.1947693
0.07188903 0.038692836 -0.16019617 -0.079532 0.046647288 0.42419356 0.7835026 -0.7856594
-0.23615031 -0.8254869 -0.058451034 -0.12483982 -0.011052909 0.24733137 -0.16554855 0.05167808
-0.012794414 0.0037426385 -0.070426 -0.03249423 -0.021246387 -0.007867776 -0.23695071 0.4758193
-0.6037283 -0.3426778 -0.0142511735 0.4360869 -0.067982815 -0.5299516 0.26783416 -0.4889979
-0.06541672 0.30150864 0.12095148 -0.060548313 -0.06940841 -0.046516556 -0.006212117 -0.115089186

q_netwrok.0.bias f4 [256]
00000000: c7f8 80bd cb79 58bd 5038 3cbf 8054 f0be
00000010: 3369 673f 6c85 823f 8ed7 a13e c0cd 453f
00000020: a6bf a3be 99b5 2e3f b629 1cbf dfc5 47be
00000030: ff60 5b3f 3af5 d2be 6bb8 1fbf 212b 943e
00000040: 04c0 5b3f 2c1d 303c 024e 173f b2a7 8e3e
00000050: 11fa ebbe b904 5f3f 9aed babe 3a87 4b3f
00000060: fb82 6c3f d9cc b6be 54c5 ef3e 2704 b63d
00000070: eff9 be3e 411e f3be 3ad1 5c3e df7c 983e
00000080: 84b5 fcbe 4eac 43bf 2a74 4c3d 8224 463f
00000090: c170 123e 8237 083e 0986 05be 125e 683d
000000a0: f3f0 0cbf e91d aabe 53d5 713f e761 193f
000000b0: fbe5 0dbe b16f 53bf c112 98be f7d4 b43e
000000c0: a370 493f 2797 26bc ea65 33bf e19d 5bbf
000000d0: 2159 edbe 4f54 a4be 5991 ac3d 0d60 533f
000000e0: e8d3 09be 42e6 153f 47f6 4f3e f824 df3e
000000f0: 482f 763f e77a 93be bd03 83be aeb2 553f
00000100: 392d 89be d3b9 ffbe 57ec 593e 529f 883f
00000110: 51c1 76bf 4636 9bbe 362e 84bd 68e3 1c3f
00000120: 1c92 e6be dd73 45be 1e80 b5ba 679f 13bf
00000130: 4548 9f3e a759 00bf 308d 12bf abe7 46be
00000140: 1b48 5ebf f0c9 da3e 441b 8abe bfa3 413e
00000150: 69df 0b3e e738 7f3f 2d98 31bf a561 f1be
00000160: 51b8 183f 4f2c e2be 84a2 343e 3471 f0be
00000170: 72e8 e5be 6b9a ce3e 0540 49bf 225c 483c
00000180: 2423 42bf 28b1 99be 331f 763f 37cb b53e
00000190: 9398 09bf 5ec9 0fbf 44bc 8d3d 32cc ab3c
000001a0: 7c6e 353f 9754 1e3f f601 bbbc 022f 6bbe
000001b0: edac cbbe 05a7 d93e 7296 7d3d 1bcf 033e
000001c0: 375b 623e 1a9b b7bd b231 a13e c4e5 87bf
000001d0: 47eb 1dbf a8a2 4d3f 5acb ff3e 5c62 28be
000001e0: 956e 2fbf 68ff 5cbe a4ee c03e 5543 0ebf
000001f0: bddc ec3e d54e 8dbe 57b2 093e 53d9 14bf
00000200: 2737 1bbf 3dfc 0f3f ed17 373f 35f4 3a3f
00000210: c277 c73e 7221 10bf b22b a13b 7cb7 4ebf
00000220: 6ad9 433e b5b5 483f fafc c93e c780 b23e
00000230: 41c5 073f e8e2 8c3e 3e3e bcbe df5b 1ebf
00000240: dd74 37bf 295d c43e 4275 7cbe 7fe2 073f
00000250: 8b46 3cbe 33ca 243f abad da3d f814 823f
00000260: b622 4dbf f617 a9be 0424 11bf b109 e93c
00000270: ef29 2ebf 6e51 d53c 17cc 41bf 55e6 c53e
00000280: afbd 543d 07be cb3d b389 3d3f b699 aa3e
00000290: 2775 4abf 643d 613f 145e 3e3e 2eb2 3dbe
000002a0: 6f08 19bf 72c3 823f 62dc 3b3e b89e 883e
000002b0: 7b49 34bf 7610 9bbe 38af b8be 06e6 26bf
000002c0: 7a9c 3dbf a913 7fbe 1a0a f6bd c384 453d
000002d0: 5642 783f f889 7abe f6f4 50bc d7f9 13bf
000002e0: 0964 3fbf aef5 8f3e 2a5a 893f 41d6 18be
000002f0: 34cc 1abf 772f 343d 4b7c af3e ba0b 65be
00000300: 5660 e43e 665d abbd 86bf 3d3f 6669 83be
00000310: 16b6 abbe 86ef 133e cb73 31bf 0687 21bf
00000320: a93c 88bd 8017 a5be ed50 6f3e 14ee afbe
00000330: 0b95 7abc 080f 753f db57 4a3f b032 0abe
00000340: 634a a9be f8da 31bf 2724 6d3f f8b5 06bf
00000350: c3b7 92be f3a4 103f f2e6 8c3e ca25 31bf
00000360: 61be cebe a8d3 dbbe c72b c8be ffdd 81be
00000370: 424e eebd 54b8 8c3f f2f5 3fbf a7d4 26bf
00000380: 7bec a9be 601c 0b3e 30e3 eabe ecbd 43be
00000390: 6d2f 10be 089a d73e 0759 d6be fefa 0fbf
000003a0: 9995 0dbf eae3 6dbd 36da edbe 9dcb 4ebc
000003b0: 5408 80be 25fe 843e 858b 0bbf 450d 03be
000003c0: 7cf3 483f 162e 263f fa41 bfbe d8b2 34bf
000003d0: 85c9 c2be bade 353e dd17 473d fa71 ddbe
000003e0: 18e6 e33e 74cb 483f c6e1 4bbf cd7c 06bf
000003f0: 9a6f 7c3f b907 18bf f3dc 86be 92d8 763f
-0.062974505 -0.052850526 -0.73523426 -0.46939468 0.90394896 1.0196967 0.31609768 0.77267075
-0.31982154 0.68245846 -0.61001146 -0.19509076 0.8569488 -0.41202718 -0.62390774 0.28939155
0.8583987 0.010749143 0.59103405 0.27862316 -0.46089223 0.8711658 -0.365094 0.79503214
0.9238736 -0.3570316 0.46830237 0.08887511 0.3730006 -0.4748402 0.21564189 0.2978277
-0.49357235 -0.7643479 0.04991547 0.77399457 0.14300825 0.13302425 -0.13039412 0.056730337
-0.5505516 -0.33225945 0.9446613 0.5991501 -0.13857262 -0.825923 -0.29701808 0.3531873
0.78687495 -0.010167873 -0.70077384 -0.8578778 -0.46357062 -0.32095572 0.0842616 0.82568437
-0.13459742 0.5855447 0.20308791 0.43582892 0.96165895 -0.28804705 -0.2558879 0.8347577
-0.26792315 -0.4994646 0.21281563 1.0673621 -0.9638873 -0.30314845 -0.064541265 0.61284494
-0.45033348 -0.1928248 -0.0013847386 -0.57665104 0.31109825 -0.501368 -0.57246685 -0.19424312
-0.86828774 0.4273219 -0.26973927 0.1891012 0.13659443 0.996962 -0.69372827 -0.4714481
0.59656245 -0.4417443 0.1764012 -0.46961367 -0.44903904 0.40352187 -0.7861331 0.012228997
-0.7583487 -0.30017972 0.96141356 0.35506603 -0.53748435 -0.56166637 0.069206744 0.020971391
0.7087171 0.61847824 -0.022828083 -0.22967151 -0.3978037 0.42510238 0.061911054 0.12871973
0.22105108 -0.0896513 0.31483227 -1.0616994 -0.6168713 0.8032632 0.49959832 -0.16443771
-0.6852811 -0.21581805 0.37682068 -0.5557149 0.4626216 -0.27599207 0.13446938 -0.5814411
-0.6063103 0.5624426 0.7152088 0.7302888 0.38958555 -0.56301033 0.004918539 -0.80748725
0.19125906 0.7840226 0.39450818 0.34863874 0.5303536 0.27516866 -0.36766237 -0.61858934
-0.71662694 0.38352326 -0.24654105 0.5307998 -0.18386285 0.6437103 0.10677656 1.0162649
-0.8013109 -0.33026093 -0.5669558 0.028447004 -0.68032736 0.026039805 -0.7570204 0.38652292
0.05193871 0.09948354 0.7403824 0.33320397 -0.7908501 0.879843 0.18590575 -0.18525001
-0.59778494 1.0215895 0.18345788 0.26683593 -0.7042462 -0.30285996 -0.3607118 -0.6519474
-0.7406689 -0.24909844 -0.120136455 0.048222315 0.9697622 -0.24466693 -0.012753716 -0.578031
-0.74762017 0.28117126 1.0730641 -0.14925481 -0.6046784 0.04399058 0.34274516 -0.22367755
0.44604748 -0.08367424 0.74120367 -0.2566635 -0.33537358 0.1444684 -0.6931731 -0.63096654
-0.06652195 -0.32244492 0.23370714 -0.34361327 -0.015294324 0.9572606 0.79040307 -0.13495898
-0.33064565 -0.69474745 0.9263329 -0.5262141 -0.28655824 0.5650169 0.27519947 -0.69198287
-0.40379623 -0.42934918 -0.390959 -0.25364682 -0.1163602 1.0993752 -0.7498466 -0.6516823
-0.33188233 0.13585043 -0.45876455 -0.19115418 -0.14080591 0.42109704 -0.41864797 -0.5624236
-0.5530639 -0.058078684 -0.46455544 -0.012621787 -0.25006354 0.25975147 -0.54509765 -0.1279803
0.7849653 0.6491407 -0.37355024 -0.70585394 -0.38044372 0.17760745 0.048606742 -0.4325102
0.44511485 0.78435445 -0.7964138 -0.5253418 0.9860779 -0.59386784 -0.26340446 0.9642421

q_netwrok.2.weight f4 [256, 256]
00000000: 884a 213e 2b38 62bd 5ff1 3a3e 5d07 093e
00000010: 64ff 31bf 87e8 95be 0bc7 e73c c9ce 17be
00000020: 2298 f13e 5778 84be 420f c83e 0750 393e
00000030: ce8a acbe 0dbd dc3d a58e e53c bf41 bfbc
00000040: 2083 9dbd 1415 09bf 8d02 b5be acc1 72be
00000050: 0c7b c23d c916 30bf daae 83be 5192 2dbe
00000060: 2874 ebbc 1cf0 a2bc e393 4dbe 8db6 69be
00000070: c3d6 a5be 6447 f23e 35ce 003e 293e 3ebe
00000080: c258 143d 1b61 4a3e 28e3 f7bd aa9d 5d3b
00000090: eb09 05be 5c95 98bd f4da 1fbf ec91 3a3e
000000a0: 12b9 3d3e 5c50 073e 65dd 44be 34c7 9bbd
000000b0: 7fed 98bd 0553 3f3e d2fc b63b 4cba 3fbe
000000c0: 805b 8bbe 1ba2 f4ba 759a ff3d 1b05 453b
000000d0: 5f65 873e 83bb c63e 2b0f 313d b149 83be
000000e0: f6ba 90be b914 a1be d667 723d cb90 a3be
000000f0: aa08 0cbe 0c61 033e 05e3 203e e0d6 3cbc
00000100: e9eb 763e 2b73 7a3e 32bc a63e fdf9 80be
00000110: faa1 3f3e 5cc7 f4be 4b6c 5ebe 3bcb b8be
00000120: 90f0 453e dbf6 b33e 7d74 c7bd 1c91 18bf
00000130: 92c5 3abe 41da 5c3c ff89 e83d 3543 85be
00000140: b2b7 65be 2e92 20be 573a 73bd 9da8 bbbd
00000150: be5f 18be 239b cdbb 7faf 893d dd7a f6bc
00000160: 176f 31be 1722 9c3e 2f23 a0bd ad30 493d
00000170: f181 003e 6d7e 21be 436a 763e e935 60bc
00000180: 3f59 c7be 4233 04bf 5e2b c4be c3fb f7bc
00000190: aa2d 44bd 7f08 743e c953 bdbe b74b f73d
000001a0: c4e2 df3a 3efe a4bd f0ab b5bd c9d7 653e
000001b0: 9d5f d1be 6978 e33d e39c ccbd 5690 03be
000001c0: b3cf 8b3e eb0d 8bbe 3fb7 5bbe d44d 0dbf
000001d0: c442 053f 0cbc f3be 2d8d 04bf b206 38be
000001e0: 8340 a83e 0572 3ebe 0b77 823c e1bd f83d
000001f0: 194b 2cbe c7aa ccbe a1b0 553e cb2c 563e
00000200: 079e d53e 4efa 01bf be88 c6bd 134e acbd
00000210: 9555 9ebd a9a9 083f 86c7 6abe 97de c43c
00000220: 033d 8d3c 577b 3b3e b3bc 22be 9981 983e
00000230: dc89 02bd 8a9c a3be d452 b33d 59ed a73e
00000240: 58d1 fb3e 0c9b 60be 36ef 133f 1b9f 7abe
00000250: bf11 38bc 7fe7 093c 4f96 8ebe 06bc 57bd
00000260: 9275 953d 1f8c 5cbe 859f f23e 691d 983e
00000270: d8c9 ddbd d45b b0bd 55f4 1dbe ea57 57be
00000280: 3fe2 4ebe 8e9a adbe 02ae bfbe 9005 f1be
00000290: ee09 b53e e0c1 2abe 0f91 2cbd 3606 8cbe
000002a0: 58b9 853e ceac 19be a61a dcbd 2ee0 d3bc
000002b0: c564 043e 209a b2be 3056 753d 2634 503e
000002c0: 8406 863e b36c 26be edc7 47be 9824 33be
000002d0: 64f1 4dbe dbcb 83bd dea2 593d ddf9 98bc
000002e0: f57d a7bd 29eb 77bd 3729 a1be 084a 2bbd
000002f0: 5c63 ad3e 59c3 49be 1fb5 1cbf 722d 92bd
00000300: a3ec 9a3e 0496 bcbe 7fe4 9bbe 96c4 ba3e
00000310: 53cf 1bbf e8b0 933c 5992 383f 4cf9 0e3e
00000320: 9d0c 5a3e b19c 4e3e 7a3b d6be ac07 94be
00000330: f198 afbd 0a12 a0be a0b1 a5be 8f79 babc
00000340: c307 abbe de5f a93e 4d31 eb3d b308 5f3e
00000350: 5967 713e d0ee b3bd ebfe 57be 7f72 ae3e
00000360: 6b2e 3e3e 1b63 f43e 34cf 2dbe 91ee 4dbe
00000370: 0142 323e a820 6bbe f7b4 e73d fbad b73e
00000380: 7403 963e 8f27 14bd cd65 66bd 6be3 7b3d
00000390: 5ae2 95be 2b4f 92bd 6db4 5b3e a249 b23e
000003a0: f69a 27bd 10b8 60bf 6bf2 a83e f580 93be
000003b0: 7c27 273d 561e 4fbd a5ce 1f3e ef0f 20bd
000003c0: 9020 2fbe b1eb b8bd 2049 cdbe 60ed c63e
000003d0: 970b 3abc b593 6cbe d833 703d 40a4 c83d
000003e0: 1d57 cebb bc17 d3be bbf1 7abd 67bf 803d
000003f0: 8bd1 edbd a5ee 153e 0a4a 103c af07 42be
0.15751088 -0.055229347 0.18256138 0.13381715 -0.6953032 -0.29278967 0.028293153 -0.14824976
0.4718638 -0.25873062 0.3907414 0.18096934 -0.3369965 0.10778246 0.02802212 -0.02334678
-0.07691026 -0.5354779 -0.3535351 -0.23706692 0.094961256 -0.6878477 -0.2571934 -0.16950347
-0.028741911 -0.019889884 -0.20075946 -0.22823544 -0.32390413 0.47320092 0.12578662 -0.185784
0.03621746 0.19763605 -0.121038735 0.00338159 -0.12992065 -0.07450363 -0.6244347 0.18219727
0.1852763 0.13214248 -0.1922508 -0.07606354 -0.07467174 0.18684013 0.0055843377 -0.1872341
-0.27218246 -0.0018664034 0.12480632 0.0030062858 0.26444528 0.38814935 0.043227356 -0.2564216
-0.2826764 -0.31461123 0.059181057 -0.31946406 -0.1367518 0.12829989 0.15711601 -0.01152584
0.2411343 0.24457996 0.32565457 -0.25190726 0.18714133 -0.4780835 -0.21720998 -0.36092553
0.19330049 0.35149273 -0.09739015 -0.5959642 -0.1823943 0.01347977 0.11354446 -0.26027837
-0.22433355 -0.15680763 -0.05938181 -0.0916302 -0.14880273 -0.0062745973 0.06722926 -0.030087883
-0.17327534 0.30494758 -0.07819211 0.049118686 0.12549569 -0.15770884 0.24063973 -0.013684728
-0.38935277 -0.51640713 -0.38314337 -0.030271417 -0.04789511 0.23831366 -0.36977986 0.12074988
0.0017081131 -0.08056305 -0.08870685 0.22445597 -0.4089326 0.11106951 -0.09990861 -0.12848029
0.273069 -0.27159056 -0.21456622 -0.5519688 0.52055 -0.47604406 -0.5177792 -0.17971304
0.3286172 -0.18598182 0.015925905 0.121455915 -0.16825522 -0.39974043 0.2086816 0.20915525
0.41722128 -0.5077256 -0.0969405 -0.08413329 -0.07731167 0.5338388 -0.22927675 0.02403192
0.017241007 0.18308769 -0.15892296 0.29786375 -0.031869754 -0.31955367 0.087560326 0.3279827
0.49183154 -0.21934146 0.5778688 -0.24474756 -0.0112347 0.008417009 -0.2784905 -0.052669547
0.072978154 -0.21537827 0.4738733 0.29709938 -0.10829514 -0.08611265 -0.15425237 -0.2102963
-0.20203494 -0.33906978 -0.37437445 -0.47074556 0.35359138 -0.1667552 -0.042130526 -0.2734849
0.2611797 -0.15007326 -0.1074727 -0.025863733 0.12929066 -0.34883213 0.059896648 0.20332393
0.26176846 -0.16252403 -0.1950986 -0.17494428 -0.20111614 -0.06435367 0.053133838 -0.018673832
-0.08178321 -0.060527 -0.31476757 -0.04181865 0.33864868 -0.19703425 -0.6121387 -0.07137574
0.30258664 -0.36833203 -0.30447766 0.36478108 -0.60863227 0.018028691 0.7209831 0.13962287
0.21293874 0.2017696 -0.41842252 -0.28912103 -0.08574093 -0.31263763 -0.3236208 -0.022763042
-0.3340436 0.33080953 0.11484013 0.21780662 0.2357458 -0.08785784 -0.21093337 0.3407173
0.18572395 0.4773186 -0.16973573 -0.20110537 0.17407991 -0.22961676 0.11313813 0.35874924
0.2929951 -0.03617054 -0.05624943 0.06149618 -0.29274255 -0.07144006 0.21455546 0.34821802
-0.040919267 -0.8778086 0.3299745 -0.28809324 0.04080914 -0.05056604 0.15606172 -0.039077695
-0.17102265 -0.090293296 -0.40094852 0.38852978 -0.011355302 -0.23103221 0.058643192 0.09796953
-0.006297006 -0.41229045 -0.06126569 0.06286507 -0.11612233 0.14641817 0.008806715 -0.18948244

q_netwrok.2.bias f4 [256]
00000000: 6efe babe 3053 263f e2b5 023f 5dd9 21bf
00000010: 6e71 7a3e 8a8a 333f f185 613e f9c1 b2be
00000020: 2296 b5be 7296 2dbf cf09 523e 9a74 3e3e
00000030: 0e70 0b3f 428c ddbe d2c9 cfbe 42a7 653f
00000040: 709a b9be a0a4 d53e 65ca a9be 752f 193f
00000050: a362 31bf 1cad d0bd a368 ca3e 1d14 263f
00000060: fc1b 563f 39a1 1b3f 33ef 36be 0261 f5be
00000070: 983a 763e 9b50 483f 2e66 533e 0f18 4bbe
00000080: 9e44 12bf 12a9 a6be 39b8 c6be c2a9 b6be
00000090: 2658 eb3e eee3 e0be 4e66 fd3e d8f3 cfbe
000000a0: 12cd 9bbe 9c27 f03e 480c 473f 5471 343e
000000b0: 5a2a c7bc 9b6f ad3e 370c 153f 123d 123f
000000c0: 499d 5dbe 7a9a b03e d38f 00bf ab04 2fbe
000000d0: ff51 30bf a6c8 40be 192d 0c3f e74a c0be
000000e0: 2a04 083f 9270 2d3f 636b cbbe d755 8ebc
000000f0: b9dc 2e3f 950e ca3d 6d7c 8b3e 67e6 84be
00000100: 8a7f dcbe 4803 04bf dbae 8c3e 4641 363f
00000110: aa95 0ebf 7d24 ee3e a490 4c3f 236a da3e
00000120: e8bb 09bf bbc2 f4be 6a2b 173f a9ed ae3e
00000130: 187f a63e 3cbd 87be 55e9 d6be e5e4 1f3f
00000140: 2080 133f 8fe9 df3e 31a7 053d 0e70 993e
00000150: b65c b03d 5fc3 3dbf 58fd 0bbf 07bb 233f
00000160: 9c4e 533f 79be 073f cb04 b63e 9576 f83e
00000170: ec7c c33e bee0 733f c5b9 383e d79e 71be
00000180: b111 9c3d 00a9 e5be fa72 44be 65d7 1dbf
00000190: 0e35 1f3f c61f ffbe a643 4e3f 6275 0cbf
000001a0: 48d4 943e d535 0bbf 9e8e ab3e 42a3 443f
000001b0: 4afc ea3e 1d32 f03e 3dfd 8d3e 8872 6f3f
000001c0: 5571 c1be e83b 643f 0d7f 633f 9b2f 9b3e
000001d0: 72a8 f13e a817 023f 760f 6f3f 4af5 9b3d
000001e0: ded2 1cbf 5ea4 003f 003f 383f 7214 093f
000001f0: df3d 38bf fd65 703e b86b a4be ca3e 653e
00000200: 543c 813f 75f0 013f 8744 cabe e36d cdbe
00000210: a7f5 e83e 11a3 793e d7fc 52bf 6bb4 283f
00000220: f1e1 afbe 5db8 183f 7d7f aa3e 5712 c33e
00000230: a247 6c3f 9a42 373f 0fb1 6b3f d2e4 edbe
00000240: fc69 dbbe a91c 2cbe ede8 acbe 8d08 26bf
00000250: a35d b13e 79f9 3b3f 3b7b 0dbf 4fdf bdbe
00000260: 059c 683e 6ca0 603e e6e5 683f c6dc ba3e
00000270: 41f2 303f 7d44 773e a334 5c3d 7c20 853e
00000280: 52a5 4c3e 800a 7abe 5cb5 043f 8a9a d93e
00000290: d825 02bf c259 0e3f 4620 32bf a15e 03bf
000002a0: d542 30bf 5eba 24bf 12dc 09bf dedd f03e
000002b0: e08f 493f 6ab8 5f3e bfe7 0a3f e1cd c1be
000002c0: b8d4 8a3e 0fd0 1fbf 3660 6ebe 55fb 19bf
000002d0: 6351 42bd 3d1a 0abf bb86 d13e 889d 56bf
000002e0: d5ef cb3e f21d 6d3f a4f9 c7be c06d 8b3e
000002f0: 049e 1d3f 6f2f 5e3e c3f1 08bf 9d02 403f
00000300: 4b86 2c3e bec0 083f 73ab 143f b308 d6be
00000310: c3ec 633f 9c96 7f3e 3a33 b2bd b44e d43e
00000320: 0b47 9bbd a89f e8be 476e 2e3f f768 c23e
00000330: 30b9 30be d5fd ca3e e4c6 24bf 0f72 293f
00000340: 88d8 5a3f 364b 38bf 90b4 3d3f aa4e fabe
00000350: 4e0b abbe 1546 ff3d 7aac f83d 9260 403e
00000360: 65a6 02bf b84a 01bf 62b8 02bf 1dd2 5f3f
00000370: d25e 833d 0336 3a3f 880d a9be b7d8 393f
00000380: cf27 473f 6ff4 043f c1d4 1d3f 106e 253f
00000390: 61b6 1cbf b315 febe bce2 cc3e 2227 de3e
000003a0: 915d 6a3e 0ef4 dabe 85cc 3b3f ce27 d13e
000003b0: 7b48 8e3c 3f2a 3c3f f7f6 a93e 866b e6be
000003c0: 22f4 593e 3ec8 fe3e 2eac 10bf d1d0 ccbe
000003d0: 2085 003f 8f73 093f 9cb6 293f 7a5a 2f3f
000003e0: bb0e 703f 6e03 213f f7d3 06bf 18bd 603f
000003f0: fdb6 15bf f324 6a3e d530 a7be d632 243e
-0.3652224 0.64970684 0.5105878 -0.63222295 0.24457332 0.7013327 0.22023751 -0.34913614
-0.35466105 -0.67807686 0.20511554 0.18599167 0.54467857 -0.4327107 -0.40583664 0.8970834
-0.3625064 0.4172716 -0.33162227 0.5983804 -0.6929113 -0.10189268 0.39532956 0.6487444
0.8363645 0.6079288 -0.17864685 -0.47925574 0.24045789 0.78247994 0.20644447 -0.19833396
-0.5713595 -0.32550865 -0.38812426 -0.3567639 0.4596569 -0.43923897 0.49492115 -0.40615726
-0.30429894 0.4690522 0.77753115 0.17621356 -0.024312187 0.3387421 0.58221763 0.57124436
-0.21642031 0.34492856 -0.5021946 -0.17091624 -0.68875116 -0.18826541 0.54756314 -0.37557146
0.53131354 0.67749894 -0.39730367 -0.017374916 0.68305546 0.098660626 0.27243367 -0.25957033
-0.43066055 -0.51567507 0.27477154 0.7119335 -0.5569712 0.46512213 0.79908204 0.426591
-0.5380235 -0.47804818 0.5905062 0.34165695 0.3251884 -0.26511562 -0.41974893 0.6245864
0.5761738 0.4373288 0.03263015 0.29968303 0.08611433 -0.7412624 -0.54683447 0.63957256
0.82541823 0.53025013 0.35550532 0.4852797 0.38181245 0.95264804 0.18039615 -0.23595749
0.07620562 -0.448555 -0.19184485 -0.6165679 0.6219033 -0.4982893 0.80571973 -0.5486661
0.29068208 -0.54379016 0.33507246 0.7681161 0.45895606 0.46913233 0.27732268 0.93534136
-0.37781778 0.8915391 0.8886574 0.30309758 0.47198826 0.50817347 0.93382967 0.076151446
-0.6125926 0.50250804 0.7197113 0.5354682 -0.7196941 0.23476405 -0.32113433 0.22387233
1.0096536 0.50757533 -0.39505407 -0.401229 0.45499918 0.24378611 -0.82417053 0.65900296
-0.34352067 0.59656316 0.3330039 0.3809993 0.92296803 0.71586 0.92067045 -0.4646364
-0.42854297 -0.16807808 -0.33771458 -0.648568 0.34641752 0.7342754 -0.5526616 -0.37084433
0.22715767 0.21936196 0.909758 0.36496562 0.6911965 0.2414722 0.053761136 0.26001346
0.1998494 -0.24418068 0.5183923 0.42500716 -0.50838995 0.5560571 -0.69580495 -0.5131627
-0.6885198 -0.64346874 -0.53851426 0.4704427 0.7873516 0.21847692 0.54259866 -0.37852386
0.27115417 -0.6242685 -0.23278889 -0.6014913 -0.047440898 -0.53946286 0.40923104 -0.83834124
0.39831415 0.9262382 -0.39057648 0.2723217 0.6156924 0.21697782 -0.534939 0.7500399
0.16848104 0.534191 0.5807411 -0.41803512 0.89033145 0.24959797 -0.08701177 0.41466296
-0.0758191 -0.45434308 0.6813702 0.37970707 -0.17258143 0.39646783 -0.64365983 0.66189665
0.8548665 -0.7198976 0.7410364 -0.4888814 -0.33407062 0.12464539 0.12142272 0.18786839
-0.5103515 -0.50504637 -0.51062596 0.8742998 0.0641457 0.72738665 -0.33018136 0.72596306
0.7779512 0.51935476 0.6165276 0.6462107 -0.6121579 -0.4962593 0.40016735 0.4338923
0.22887255 -0.42764324 0.7335895 0.4085068 0.017368546 0.7350196 0.33196232 -0.4500391
0.21284536 0.49762148 -0.56512725 -0.40003064 0.5020313 0.53691953 0.66294265 0.6849743
0.93772477 0.6289586 -0.5266718 0.87788534 -0.5848234 0.22865658 -0.32654443 0.16035017

q_netwrok.4.weight f4 [256, 256]
00000000: ed1d 0bbf 0c60 ab3d ef18 003e e272 33bf
00000010: 4bed fa3c d24b 263d 5432 553e c9dd 55bf
00000020: 1938 1dbe cdb7 d3bd 4ed6 8d3e 152f 9e3d
00000030: 8da5 1e3e 2daf abbe b268 32bf 3d61 d13c
00000040: acf6 c03d 67f8 2d3e 6a2f 99bf f0ae 1a3e
00000050: ab7f 1bbf ead2 81be cd51 143c 5d83 603e
00000060: 059c 783d f12c 293d 5c09 41be 3a6a cbbd
00000070: 52d6 043e fdd8 163e b5f9 88be d32b 3bbe
00000080: 8cdf f1be 397f 62bf b13f 3bbf 95a5 ffbe
00000090: 1c9c 21bd ea7d 1bbf 7dd7 413e 8959 00bf
000000a0: 307e bbbe 750c 5c3e f94a a73e 3ada a5bc
000000b0: 9423 c13d 879c d73d 7b4e 513e fc39 183e
000000c0: 59d6 7dbe 6c2b 1a3e 3875 a8be afaa d6bd
000000d0: 8606 10bf b267 09be 6b80 ae3c 4879 f3bc
000000e0: 0e9d 0ebc 0d89 4f3c b96a b3be 5792 e5bd
000000f0: 2e2a ef3d 0aec 083d 81b6 bb3c 8e5c 83be
00000100: ce9b 53bf 1500 98bf 86d9 393d edeb 353e
00000110: e9b7 e2be 52c9 9a3e 7e05 353e 8167 fe3c
00000120: 82ea 8cbd be96 68bf d94e 903c 6d2c 9b3d
00000130: 868f 903e 4d2e 15be ea11 78bf 1a40 bdbc
00000140: 96ab 313e e372 0b3e b399 babd 4e7d 2bbd
00000150: 4241 a9bd fea8 32bf 007d fabe 3054 033b
00000160: 2fc4 75bd c632 e8bc 4462 c5bc 8a0b 3a3c
00000170: ce69 bdbd fdb9 b03c 6734 623e 5a67 d3be
00000180: e408 adbe 163c a6be ab06 8ebe c370 5bbd
00000190: 9096 483c b321 b2be ab5a a93d 335a 32be
000001a0: 3477 a93e 4b06 19be c4ca f1bd f58b 3b3e
000001b0: d908 843d 9316 eb3d 4eae 9b3e a0d6 483d
000001c0: 231e febe 5337 a43d 0636 ae3c a8c7 6b3e
000001d0: 4f4e e03d 24b7 d33e e9a1 173e d54a 11bd
000001e0: c872 7fbd d66a db3d 424d 153e fdca 82bd
000001f0: fefb 0dbe ba8d 9fbd 6b5e 57bf 1333 f13c
00000200: 55f0 493e e882 793e b959 f0be b50b f7be
00000210: ef3f cd3d 02dd bc3d 9dd8 1cbf e19a 253c
00000220: 3ba1 dbbf 68dd 093d e059 d5bc f48f 183e
00000230: 392e 153d fbf3 dc3d fccf e23c 8db5 1abf
00000240: 633f 5ebe 67b6 68be 81e8 b5be c1e2 44bf
00000250: 94f7 0abe 63c2 173e 97df 90be d5cf cebd
00000260: da0e 843c 1fb4 28bb cd87 313e b10d 363e
00000270: 3aab a73d 82b7 df3c 9362 913d 5d48 fb3b
00000280: d10b 26bd d791 37be 1697 8f3c 7588 f53d
00000290: 8f1d 15bd baed 19be 304f 85be 3cdf 94bf
000002a0: 42a6 e8be a580 62be 6d5f a7bf d789 8bbc
000002b0: 5e13 393d b4f1 fc3c 23ca 793c bdcc 25bf
000002c0: 0c53 60be 308c 64be 1262 103d 33f5 dfbe
000002d0: 7093 98be d971 7bbe bde1 bf3d b328 acbe
000002e0: d134 d9bd 4b48 223e bc32 36bf 8d6e 8d3e
000002f0: 3ebf 1f3e 8a6b aebd 9cb5 90bf 6d60 d8bc
00000300: b65c c93c da96 9e3d d1cf 4d3e 118f f0be
00000310: 893e adba 8e71 ba3d b31a 46be a064 f33c
00000320: 4a26 3ebe b805 86bf 1b36 9f3d 58a7 40bc
00000330: df7d 31bf 093f 853d 3f89 0bbd 8d99 c73e
00000340: 32ce 483a 196e ecbe d600 823d 3904 80bf
00000350: f3e6 54be 7746 bb3c 8097 643e 4546 f4bd
00000360: b5ab 67bf 232d e7bd 23c9 f0be 1a88 803d
00000370: f5cd 8a3e 4ad4 bdbc 6e9c bbbe 29a4 bd3d
00000380: 1914 82bb fd1c 643d b424 273d 8a56 5e3e
00000390: 857c 9abd 1478 8dbf cbf2 943e 2b53 263e
000003a0: 689e 733e b267 b2bf eccf 803e 7459 d13d
000003b0: 9c64 75bc f745 473e 8176 5b3a 41c4 5bbf
000003c0: da43 b83d 539b 46bc d6fc 17bf 8a38 67bd
000003d0: 887d 92bd 6176 dd3d 0a02 893d 6beb 993e
000003e0: cff4 073e bd15 f93d 72cb 8fbf 7aee 23bd
000003f0: f587 27bf 83e5 8e3e 74a1 58bf 6bcd 25be
-0.5434254 0.08367929 0.12509511 -0.7009717 0.030630728 0.04059965 0.2081998 -0.8354154
-0.15353431 -0.103377916 0.27702564 0.07723824 0.1549284 -0.33532086 -0.69691 0.025559062
0.09422049 0.16989289 -1.1967595 0.15105796 -0.6074168 -0.25356227 0.009052706 0.21925111
0.060695667 0.041302625 -0.18851227 -0.099323705 0.12972382 0.14731212 -0.2675301 -0.18278436
-0.47240865 -0.88475376 -0.7314406 -0.49931017 -0.039455518 -0.60739005 0.18929859 -0.5013662
-0.3661971 0.21489127 0.32674387 -0.02024566 0.09430614 0.10527902 0.20440094 0.1486587
-0.24788798 0.15055627 -0.3290193 -0.10481774 -0.56259954 -0.13418463 0.021301469 -0.029720917
-0.008704437 0.012666953 -0.3504236 -0.11209553 0.11677967 0.03342823 0.022914173 -0.2565655
-0.82659614 -1.1875025 0.045373462 0.1776578 -0.44280937 0.3023172 0.17677876 0.031055214
-0.06880666 -0.90855014 0.017615722 0.07576833 0.282345 -0.14568444 -0.96902335 -0.023101855
0.17350611 0.13618045 -0.09111347 -0.041867547 -0.082644 -0.6978911 -0.48923492 0.0020039193
-0.06000155 -0.028344523 -0.024094708 0.01135529 -0.09248696 0.021573061 0.22090302 -0.41289788
-0.33795846 -0.32467717 -0.27739462 -0.053574335 0.012242928 -0.34791335 0.08269247 -0.17417221
0.33098757 -0.14943807 -0.118062526 0.18315108 0.06447 0.11478915 0.3040642 0.049032807
-0.49632367 0.08018365 0.021265995 0.23025382 0.10952436 0.41350663 0.14807858 -0.035471756
-0.062365323 0.10713737 0.14580253 -0.06386373 -0.13865659 -0.07790704 -0.84128445 0.0294433
0.19720586 0.24366343 -0.46943453 -0.4825112 0.1002196 0.092218414 -0.61268026 0.010107727
-1.7158579 0.033658415 -0.026043832 0.14898664 0.036421034 0.10788723 0.027687065 -0.60433275
-0.21703868 -0.22725831 -0.3552895 -0.769085 -0.13571006 0.14820246 -0.28295586 -0.100982346
0.016120363 -0.0025742126 0.1733696 0.1777866 0.08186956 0.027309183 0.0709888 0.0076685385
-0.040538613 -0.17926727 0.017528098 0.11988918 -0.036405142 -0.15032092 -0.26036978 -1.1630626
-0.45439345 -0.22119386 -1.3075997 -0.0170335 0.045184486 0.030876972 0.015245947 -0.6476553
-0.2190668 -0.22319102 0.035249777 -0.4374176 -0.29799986 -0.24555148 0.09369228 -0.336248
-0.10605777 0.1584789 -0.71171165 0.27623406 0.15600297 -0.08516605 -1.1305423 -0.026413167
0.02458034 0.077436164 0.20098807 -0.4698415 -0.001321749 0.0910369 -0.19346122 0.029711068
-0.18569294 -1.0470495 0.07773992 -0.011758648 -0.6933269 0.065061636 -0.034066435 0.38984337
0.000766012 -0.46177748 0.06347816 -1.0001289 -0.20791225 0.022860749 0.22323418 -0.11927465
-0.9049638 -0.11287906 -0.47028455 0.06275959 0.27110258 -0.023172516 -0.36642784 0.09259827
-0.003969681 0.055691708 0.040806487 0.217127 -0.075432815 -1.105227 0.29091486 0.16242664
0.23790896 -1.3937895 0.25158632 0.1022214 -0.0149776 0.19460283 0.00083718455 -0.85846335
0.08997317 -0.012121993 -0.5937017 -0.056450404 -0.071528494 0.108135946 0.06689842 0.30062422
0.13276981 0.121623494 -1.1233962 -0.04002235 -0.6544183 0.2790948 -0.8462136 -0.16191642

q_netwrok.4.bias f4 [256]
00000000: b6ad 703f 1ff1 823f 787b 033d bb12 70bd
00000010: b768 c3bd a23a 68be f288 713f 7bdc 813f
00000020: fe57 823f 1aee cfbd cebb 6b3f 76dd b63e
00000030: 286e 883d adc6 a3bd 51d0 32be 03f9 abbd
00000040: 7d5e 21be 29c2 563e 52e3 cb3d e7b0 0fbe
00000050: 42dc 6b3f 6c90 633f b104 38be e0b5 a53e
00000060: 8dc0 6d3f c81f 7d3f eb17 86be 2b53 cabd
00000070: 4ffa a7be 313f 833f 556c 99be 08c6 07be
00000080: 4a31 7a3f 193a eabd 3935 753f e048 1abe
00000090: b5a7 f13d fb37 7c3f 9966 743f a25e 803f
000000a0: 373b 743f 3b03 fe3d 7cf2 653f b6b6 e53e
000000b0: f688 14be 2eb5 6b3f f9bc 02bf aece 1ebe
000000c0: 4050 693f a614 3bbe 3e6f 623e e0a3 a53e
000000d0: a8d7 4dbe eff6 873d e06d 59be 303d 833d
000000e0: 0c0e 3ebe b0b2 18be 83d7 633f e6f2 3a3e
000000f0: d07a d9bd 809e 553f c473 da3e b643 6d3f
00000100: 02de 663e 65c5 593f 9ddb 883f c0af 8fbe
00000110: a5a4 fcbd e64a 22bf 7eeb 5f3f 43ff 6c3f
00000120: 2808 583e 8c1a 723f 0b4c 8b3e e618 a1bd
00000130: 2f14 563f 1faf c73e 7a76 563f 6d3a 883f
00000140: a18d 7b3f 0547 6b3f 7fb1 17be ad4f 1fbd
00000150: e6d2 62be fff0 44be a5bc cb3e 95b5 893f
00000160: a8af 2f3f 8cf9 bbbd 79be 7bbe a01a 78be
00000170: 3ed2 6e3f 6eee 653f 1be6 423f b2fa 9bbc
00000180: 8b68 673f 4a8b 2abf f21e 933e 7b47 d1bb
00000190: df18 dfbd 0f05 833f c457 673f 560e 603f
000001a0: 1a1f 16be 100f 21bf b80c 503f ca48 a9bd
000001b0: c030 40bf ebfd 79bf 2dd0 643f f271 683f
000001c0: 03b5 053f 3c59 fc3c a1eb 533f 347e 5f3f
000001d0: ef5f 8c3e 588b 19bf 25e0 5c3f 1442 46be
000001e0: e88c 213f 6302 4f3f 4316 803f 6396 643f
000001f0: 2063 f0be 0264 13be 3489 f3be 7e64 36be
00000200: 4943 703f 4ab7 6a3f 5e66 893f ff1d 8d3f
00000210: 50e2 1fbf b440 13be e413 f9be d524 0bbe
00000220: 9e74 683f 21c3 823f b477 673f 3fbb be3d
00000230: 88ad 08be 8475 7b3f e110 863f 1f38 7e3f
00000240: 45e3 6abe 75ee 5e3f 940d 443e 3e24 823f
00000250: c0ad a6bc 0a20 6fbe 568b 68be 4cbb 313f
00000260: 93de 7a3f 9710 663f 21b4 4a3d 8a59 5dbe
00000270: 42cb 3c3e fe37 16be 4adb f2ba d0ca 7a3f
00000280: a30a 5b3d 45cd 42be f3db 5abe e073 4d3e
00000290: 749a 653f 71f5 9abe 4f14 843f a018 173d
000002a0: 24d9 813f 4d3e 4c3f bc22 6a3f 2bd0 06bf
000002b0: 9c6d 7f3f 2caa 7d3f e077 833f a568 043f
000002c0: cb27 6bbc 81f9 823f 3e42 713f 0ce4 763f
000002d0: 3d7e 553f c3a5 343d a569 b9bd d0df 49be
000002e0: 0dce 2bbe c2ff 743f 6abf 283f 71d5 84be
000002f0: f106 d13e 3ede 453e aa84 0ebe c44d 34be
00000300: 0916 6a3d f440 763f c409 ab3e 69f6 733f
00000310: bade 813f 5824 b13d f175 20bf a298 843f
00000320: 950c 523f 785f 663f fe82 853f c790 79bd
00000330: b35c 3fbd 7e16 823f ac3d 31be 752a 743e
00000340: 4feb 253f 8189 1fbe 15e7 743f 5b90 943e
00000350: 5394 843f 67fe a83e 26e5 6b3f a94a ed3e
00000360: 70fc 27be 6064 28bf 3564 803f c0ac 31bd
00000370: 884b 5d3e f4ba e4bd 4bc9 843f 6e43 863f
00000380: 3816 803f 005c 623f 91e4 45be bca8 853f
00000390: f524 56bf ce03 583f 019e 503d 8c9b 80be
000003a0: 0057 773f 26bb 60be 701f a5bd 4617 5a3f
000003b0: 4b52 b7be 664f 7a3f 2ed4 75be 1b86 823f
000003c0: dfc4 37be ea1f 843e 4abb 8e3d 4fe7 19bd
000003d0: e986 6e3f b82b 6b3f 03bf d73d afa8 afbd
000003e0: 0e19 0c3e 3368 bbbe deb0 81bc de7c 7c3f
000003f0: a1df 4abd 2d66 723f bb03 223f 74d2 6abe
0.9401506 1.0229834 0.03210017 -0.058611613 -0.09541457 -0.22678617 0.94349587 1.014541
1.0183103 -0.10152836 0.9208344 0.35715836 0.06661636 -0.07996879 -0.17462279 -0.083971046
-0.157587 0.20972504 0.09955467 -0.14032327 0.9213296 0.88892245 -0.1797054 0.32365322
0.92871934 0.9887662 -0.26190123 -0.09879144 -0.32808158 1.025366 -0.29965463 -0.13259137
0.9773146 -0.114368625 0.95784336 -0.15066862 0.11799566 0.9852292 0.9546905 1.002888
0.95402855 0.1240296 0.89823127 0.4486596 -0.14505371 0.92073333 -0.510696 -0.1550853
0.91138077 -0.18269596 0.22112748 0.3235159 -0.20101798 0.06638896 -0.2123332 0.06408155
-0.18560046 -0.14911914 0.8900072 0.18256721 -0.10619128 0.83444977 0.42666447 0.92681444
0.22545627 0.85066825 1.0692021 -0.28063774 -0.12336091 -0.63395536 0.8746871 0.92577
0.21096861 0.9457176 0.27206454 -0.07866077 0.8362455 0.39000794 0.8377453 1.064283
0.98262984 0.9190524 -0.14813803 -0.038894344 -0.22150764 -0.19232558 0.39792362 1.075854
0.68627405 -0.09178457 -0.24584378 -0.24228907 0.93289554 0.8981694 0.76132363 -0.01904044
0.90393895 -0.6661879 0.28734547 -0.006386695 -0.10893416 1.0235919 0.90368295 0.87521875
-0.14660302 -0.6291361 0.8126941 -0.082658365 -0.75074387 -0.97653073 0.8938015 0.90798867
0.52229327 0.030804269 0.82781416 0.87301946 0.27416942 -0.59978247 0.8627952 -0.19361144
0.6310563 0.80863017 1.0006794 0.8929197 -0.46950626 -0.14393619 -0.47565615 -0.17811772
0.9385267 0.91685927 1.0734365 1.1024779 -0.624547 -0.14380151 -0.48647988 -0.13588269
0.90802944 1.0215799 0.9041703 0.09313058 -0.13347447 0.9822619 1.0473901 0.99304384
-0.22938259 0.87082607 0.19145805 1.016731 -0.020346522 -0.23352066 -0.22709402 0.6942642
0.9799587 0.89869064 0.04948819 -0.21616188 0.18436912 -0.14669797 -0.0018528488 0.9796572
0.05347694 -0.19023617 -0.21372966 0.20063734 0.896888 -0.30265382 1.0318698 0.03688872
1.0144391 0.79782563 0.9145925 -0.5266139 0.99776626 0.99087787 1.0270958 0.51722175
-0.014352749 1.0232393 0.942417 0.9644172 0.8339575 0.044103395 -0.09053353 -0.19714284
-0.16777821 0.95702755 0.65917075 -0.25944093 0.40825608 0.1932306 -0.13917795 -0.1760779
0.05714992 0.9619286 0.33405888 0.9529787 1.0146096 0.0864951 -0.62679964 1.035908
0.8205045 0.89989424 1.0430601 -0.060929086 -0.046719264 1.0163114 -0.17308682 0.23844321
0.6481218 -0.15579797 0.95665103 0.29016384 1.0357765 0.33006594 0.9214653 0.46346024
-0.16404891 -0.6577816 1.0030581 -0.043377638 0.21610844 -0.11168471 1.037393 1.0489328
1.0006781 0.8842163 -0.19325472 1.0442119 -0.8365014 0.84380805 0.050931934 -0.25118673
0.96617126 -0.21946391 -0.08062637 0.8519176 -0.35804972 0.977774 -0.24006721 1.0197176
-0.17946194 0.25805598 0.06969316 -0.03757411 0.93174607 0.91863585 0.105344795 -0.08577096
0.13681433 -0.36602935 -0.015831407 0.9862803 -0.049529675 0.9468716 0.6328694 -0.22931844

q_netwrok.6.weight f4 [13, 256]
00000000: ff71 133e 476a f33d e5b6 633e 219d ddbd
00000010: 71e1 c5bd 8d93 25bf fba5 fd3d c06f 233e
00000020: 4548 653e a2c4 4d3f 7c54 633e ce8b 793e
00000030: 7cfd b93d c4b1 16bd 8522 55bf 6953 1b3f
00000040: b79a 09be 30b1 543e e116 893e 7da1 3e3f
00000050: 0719 5f3e 8f93 c93d 26de fbbd 64a5 d33e
00000060: 9aeb 183e db9b 0e3e afcb 2dbf 712e e1bd
00000070: 10d5 4c3e 463d c33d 6642 3bbf 7a18 c93d
00000080: b168 413e e2eb 22bf 58eb 523e feac bb3d
00000090: 3c7b 033f 390b 613e 3555 6b3e 56fc 263e
000000a0: 3ef3 0a3e 5407 163f d2c1 393e 3be0 183e
000000b0: 68e9 1bbe 4a14 573e d229 99be cb01 61bf
000000c0: ebad 893e ffda 29bf b28f bc3e d4de 363e
000000d0: 998c 41bf b539 353e adfe 2bbf 3944 2d3d
000000e0: 748b 2ebf 4925 c13e 8202 423e d039 1a3f
000000f0: dee9 00be 2733 bd3e f7e9 ff3d 2d5e 053e
00000100: 8f6e dfbc 8239 843e 624b 2c3e 2e43 2ebc
00000110: 31a6 1e3e a76e babe 6319 873e 3028 ac3e
00000120: 50a3 dc3e 8bb9 213e 513d 2c3e fb52 babd
00000130: 43e1 923e 51dd dc3e d3be c23e c2cf a63d
00000140: f009 b63d d245 ee3d 11ac e83e 9493 b8be
00000150: dae0 54bf 4e3e 48bf 0e06 813e 8311 573e
00000160: 11c2 673e 6261 2c3e fccd cdbe 936a c8be
00000170: 218c 453e ddf3 4f3e 5916 c13e 088c 6f3d
00000180: a9ae 5c3e f41f 60bd 36ca 79be 1877 083e
00000190: bc56 a13e 318b a93d faf2 f73d 5920 503e
000001a0: 3509 21bf 94a5 fcbe 8524 d13d 360d 313e
000001b0: 8aa0 dcbe 59a8 ccbd 0808 cc3d 3e53 523e
000001c0: 5fc6 8b3e 4b64 863f 5e11 6b3e 4702 253e
000001d0: eeb5 de3e 2714 7ebe 0e27 853e 4cee 8c3e
000001e0: 36a0 463e 4fc9 0a3e 80df 813e bc62 a03e
000001f0: fe0d cabe f2dd 42bf 71b6 f9be e4b4 1ebf
00000200: ecdc c93d 4a6d 8e3e b273 233e 6872 563e
00000210: fa21 cdbe 7991 c43d 6a0f 03bf df55 f33e
00000220: 0f5f 5d3e 4122 3b3e cd12 ee3d 9396 d53d
00000230: 1306 cf3e b0b6 9f3d 8f96 233e dee1 083e
00000240: fec7 d03d d1d1 713e d299 aabd 40cd 893e
00000250: d2f5 7bbc 089d f73e 2642 50bf 615f 3c3e
00000260: 4968 b03e a0bf 483e 105d 4cbd 96bc 13bd
00000270: 52f3 113f e95f 02bf a005 0ebf ae13 193e
00000280: 77d2 263d 72e5 27bf bb10 d2be a7cc 1d3d
00000290: efbf bf3e ef73 05bf d051 1e3e 5217 bf3e
000002a0: c0f5 4e3e 1c2f 293e c368 1f3e ecf9 4fbf
000002b0: aaac eb3d d4f2 e43d aa2c 9b3e 949e 283b
000002c0: 4aab 333e 149e fa3d ea4d 593e 0a6a 313e
000002d0: 81f9 9a3e 955c 5a3e 8329 033f 6e31 543f
000002e0: b8ea c5be 0b1e 483e ac61 133e 8ec7 c33e
000002f0: 2676 5b3e f5ab f23d 4060 42be c4fd 923e
00000300: 5074 86be 6ae2 1a3e be17 993e 2f01 4b3e
00000310: 19c1 453e c58e 233f ca5e b4be 4222 1a3e
00000320: 01da 113e b139 b23e fe26 ab3e 8d4e f4be
00000330: af25 813f 2451 223e e39a 3ebf 6080 803e
00000340: 6942 153f 7bd1 e8be 591c cb3d 8542 213e
00000350: 05cd 193e 0b22 bf3d 3b80 ee3c 57b6 0c3e
00000360: 0ba8 7dbe f736 7ebe 18f9 af3e a9d8 0fbe
00000370: ac1b 063f f97f 1c3f 0330 ca3d eac0 393e
00000380: bce5 4e3e a861 cc3e f7e3 bcbd 281b 813e
00000390: 9c99 6abd 863c 2c3e 5d92 98be 2b47 913f
000003a0: 6a88 1d3e ceeb f2be 899c bc3d 10be 843e
000003b0: 35ca 85be 65f5 1b3e ac69 153e 7b48 8b3e
000003c0: 6018 343e 83f7 e13d b405 88bd ca5a 143d
000003d0: db6b 273e 59ac 313e 63a8 633e 7b7d 8a3d
000003e0: 56fc d83e 8aca 71be 1a41 3fbd 4afd b33e
000003f0: 9b3d 1a3e 449a 063e f1aa 9b3d f4dd 3abf
0.14398955 0.11885505 0.22237737 -0.108209856 -0.0966214 -0.6467827 0.12385174 0.15960598
0.2239085 0.8037816 0.22200197 0.24369738 0.090815514 -0.036790624 -0.832558 0.6067415
-0.13437925 0.20770717 0.26775268 0.7446516 0.21786891 0.09842598 -0.12298231 0.4133712
0.14933625 0.13926642 -0.6788892 -0.10995186 0.20003152 0.09533171 -0.7314819 0.09819122
0.18887593 -0.6364118 0.20597589 0.09163855 0.51359916 0.21976937 0.22981723 0.16307196
0.13569352 0.5860493 0.18140343 0.14929287 -0.15225756 0.21003833 -0.2991472 -0.8789336
0.268905 -0.66349787 0.3682838 0.1785844 -0.7560516 0.17697795 -0.6718548 0.04230139
-0.6818154 0.3772376 0.18946269 0.60244465 -0.12589213 0.3695309 0.12495797 0.13024206
-0.027274398 0.25825125 0.16825631 -0.010636134 0.15493084 -0.36412546 0.26386556 0.3362441
0.43093348 0.15793435 0.16820265 -0.090978585 0.28687486 0.431376 0.38036212 0.081450954
0.08888614 0.11634411 0.45443776 -0.36050093 -0.83155596 -0.7822007 0.25199932 0.21002774
0.22632624 0.16834024 -0.40196216 -0.3914381 0.19291736 0.2030787 0.37712362 0.058483154
0.21551003 -0.054717973 -0.24393544 0.1332668 0.31511486 0.08278502 0.12106891 0.2032484
-0.62904674 -0.49345076 0.10212044 0.17290196 -0.43091232 -0.09993047 0.09962469 0.20539567
0.27299783 1.0499357 0.22955844 0.1611415 0.43498176 -0.24812375 0.2600636 0.27525556
0.19397053 0.13553356 0.2536583 0.31325328 -0.394638 -0.7611991 -0.48772004 -0.6199477
0.09856591 0.27817756 0.15962103 0.2094208 -0.40064985 0.09598059 -0.51195395 0.47526452
0.21618293 0.18274786 0.1162468 0.104291104 0.40434322 0.07798517 0.15975402 0.13367411
0.101943955 0.23615195 -0.0833012 0.26914406 -0.015378432 0.48361993 -0.81350935 0.18395759
0.34454563 0.19604349 -0.04989344 -0.03606852 0.570119 -0.509276 -0.55477333 0.14948913
0.04072806 -0.6558448 -0.4102839 0.03852525 0.3745112 -0.52130026 0.15460896 0.3732248
0.20210934 0.16521877 0.15567307 -0.81240726 0.115075424 0.11179128 0.30307513 0.0025729286
0.1754581 0.12237182 0.21221128 0.17325607 0.3026848 0.2132438 0.51235217 0.82887924
-0.3865564 0.1954271 0.14392728 0.38238186 0.21431789 0.118492045 -0.18982029 0.28709233
-0.26260614 0.15125433 0.29900926 0.1982467 0.19311942 0.63889724 -0.35228568 0.15052131
0.14243318 0.3480964 0.33428186 -0.4771618 1.0089625 0.15851265 -0.7445509 0.25097942
0.5830446 -0.4547232 0.09917516 0.15748031 0.15019615 0.09332665 0.02911388 0.13741432
-0.24771135 -0.24825655 0.3436973 -0.14047493 0.52385974 0.6113277 0.09872439 0.18139997
0.20204824 0.39918256 -0.09223168 0.2521603 -0.0572754 0.16819963 -0.29799166 1.1349844
0.15384069 -0.4744553 0.09209544 0.25926256 -0.26130834 0.1523033 0.14591092 0.27203736
0.17587423 0.11033537 -0.06641713 0.036219396 0.16349737 0.17350902 0.22232203 0.06762215
0.42380017 -0.23612419 -0.046692945 0.35154182 0.15062563 0.13144785 0.07600964 -0.72994924

q_netwrok.6.bias f4 [13]
00000000: 4a30 a43e 6ba3 143f 85fe 273f 403b 293f
00000010: 75eb 2b3f 2b9f 343f 067e 233f 9a0d ed3e
00000020: 8fb4 d93e 4219 353f 7c4e b03e 40d5 db3e
00000030: 5038 3c3f
0.32068092 0.58061856 0.6562274 0.66106033 0.67156154 0.7055537 0.6386417 0.4629944
0.42520568 0.70741665 0.3443488 0.42936134 0.73523426
